results/CombatTest1/MoveToGoal/MoveToGoal-500059.onnx (onnx, 77714 bytes, 9 tensors)

network_body._body_endoder.seq_layers.0.weight f4 [128, 4]
000000 9b b2 2b 3e 79 24 6b bc 1b 51 16 3f 38 bf 89 be
       0.16767351 -0.0143519575 0.5871751 -0.269037
000010 70 32 91 be 38 d4 de 3e cd da 47 3f 59 27 a3 be
       -0.28358793 0.43521285 0.7806824 -0.31865957
000020 63 fa 64 3e 3d 63 05 bf 82 f3 cc bc 79 36 08 3f
       0.2236114 -0.5210455 -0.025018457 0.5320812
000030 20 50 0e 3f e0 c8 cd be fb b9 93 3e 76 fa eb be
       0.5559101 -0.40192318 0.2885283 -0.46089524
000040 1f a4 08 bf ba e3 1a be 65 5d 25 3f 91 b6 13 3d
       -0.5337543 -0.15125933 0.64595634 0.03606278
000050 26 93 c9 be a2 e2 7c 3e 8e 33 0f be 2b 30 0f 3f
       -0.39370078 0.24695829 -0.1398451 0.55932873
000060 d3 76 c5 3c 11 17 89 3e e3 e0 8e bd e5 0b b6 3e
       0.024104511 0.2677541 -0.069764875 0.3555595
000070 6a dd d2 be 9d 09 30 bd d1 1d b1 3e ee bc ce bd
       -0.4118455 -0.042977918 0.3459306 -0.10094629
000080 0f 43 2d bf 80 20 0d 3f 92 c3 f0 bc b2 14 25 be
       -0.6768045 0.55127716 -0.02939013 -0.16121176
000090 4c 80 17 3f 2b 58 73 bb 7d c5 2c 3f 53 fe d4 be
       0.5918014 -0.003713141 0.67488843 -0.41600284
0000a0 66 0a 95 3e 79 7b d7 be 2b b1 66 3e 6d 90 99 3d
       0.29109496 -0.4208639 0.22528522 0.0749825
0000b0 48 4f 67 bd 03 0b cb be 3f f0 0b bf e4 fe c0 bd
       -0.056472093 -0.3965684 -0.5466346 -0.094236165
0000c0 a1 2c 04 3f 4c 0c 35 3e 41 4e 25 bf ae eb b0 3e
       0.516306 0.17680472 -0.6457253 0.3455481
0000d0 8c 67 b0 be b5 7f 18 3e 5e f9 9d 3e d9 34 8a be
       -0.34454 0.14892466 0.30854315 -0.26993445
0000e0 df 25 86 be 94 54 c2 3e e3 03 d5 bd cf 74 17 bf
       -0.26200768 0.37955153 -0.10401132 -0.5916261
0000f0 55 de f7 3e dd 37 ec bd e6 7f b3 be 85 16 8f 3d
       0.48411813 -0.115340926 -0.35058516 0.06986717
000100 9b 3a 68 bf c4 53 ad be 40 c5 dc be f9 ce 0d 3f
       -0.90714425 -0.3385297 -0.4311924 0.5539394
000110 9a 05 78 be af b0 10 bf 6f 4d 44 bf 65 d5 92 be
       -0.24220887 -0.565196 -0.76680654 -0.28678432
000120 e7 da 13 bf be 83 fa 3d bc d8 c0 3e 41 d1 6a bf
       -0.57755893 0.12232159 0.37665355 -0.91725546
000130 76 6e 34 3f d1 cf 26 3f 77 54 b6 3e 5e 37 06 3e
       0.7048105 0.6516085 0.35611317 0.13107058
000140 4a e1 5c bf e1 12 4f 3e 56 74 50 bd 48 54 a7 3c
       -0.86281264 0.20222045 -0.050892197 0.02042593
000150 af 06 7d 3f e9 bf 54 be 34 b4 5a be 61 d5 71 be
       0.98838323 -0.20776333 -0.21357805 -0.23616554
000160 e2 4d 27 be ec 93 62 3f 48 d0 a4 3f 17 a6 9b be
       -0.16338304 0.8850696 1.2876062 -0.30400154
000170 5d 56 c6 be d4 41 ba be bf ce 1c 3d eb f0 4a be
       -0.38737765 -0.36378348 0.038283106 -0.19818465
000180 8c 90 a4 be b5 6e 0f 3f 94 57 a8 be 10 1a 62 be
       -0.3214153 0.560283 -0.32879317 -0.22080255
000190 c9 20 91 be a1 9b 4c bf 22 bb 4c bf bf 9c 6c be
       -0.28345326 -0.7992497 -0.7997304 -0.23106669
0001a0 81 c6 69 3d 31 f2 bc 3c 4f 38 17 3f b1 b5 09 be
       0.057074074 0.023064705 0.59070295 -0.13448216
0001b0 33 bd 81 be e8 51 21 3f dc cc e4 be c2 ac 9f be
       -0.2533966 0.63015604 -0.44687545 -0.3118649
0001c0 fd f5 e0 3e c7 15 88 3c 2a 56 61 3e 26 ac 4f be
       0.43937674 0.016611947 0.22005525 -0.20280513
0001d0 61 46 49 be e1 c4 2c 3f b2 bb bd be 45 0c 65 be
       -0.19655754 0.67487913 -0.37057263 -0.22367962
0001e0 fb 53 6b bf ea 0d 9e bd 10 85 43 3e 2a 42 08 be
       -0.9192502 -0.07717498 0.19093728 -0.1330649
0001f0 60 5a 2c be af 7d 43 3e 42 de 27 3e d9 62 1d 3f
       -0.1683135 0.19090913 0.16393378 0.61478955
000200 2d 27 45 3e f5 40 d3 be e0 6f 9b be 35 9a 1b 3e
       0.19253226 -0.41260496 -0.3035879 0.15195544
000210 22 d6 1f bf b1 91 42 bf b0 75 26 be 0a 54 38 bf
       -0.62436116 -0.7600356 -0.16255832 -0.72003233
000220 cc 2f 9c 3f a6 5f e1 be ea 97 4e bf 7e 7e c2 3c
       1.2202086 -0.44018286 -0.8070055 0.023741957
000230 49 23 26 bf 20 de 9d 3e 2d 29 52 bf ad 27 37 3f
       -0.6489759 0.3083353 -0.8209408 0.71544915
000240 59 6f 7f 3e 56 ab 68 3e 09 53 dd bc b2 f6 fe be
       0.2494482 0.2272161 -0.027017133 -0.4979759
000250 c8 c6 39 be c2 3a 03 bf 9b c9 bf 3e 31 94 f9 3e
       -0.18142235 -0.5126153 0.374585 0.48745874
000260 d8 46 1d bb 31 59 44 bf b2 5e fd bb e4 66 63 3e
       -0.0023998525 -0.76698595 -0.007732236 0.22207218
000270 4b f5 42 bf a4 0c be 3d 91 74 70 3f 5a 72 e7 3e
       -0.7615554 0.09279755 0.93927866 0.4520443
000280 b2 28 53 3e 9c fc 27 bf 25 3d b7 3c dc 24 44 3f
       0.20620993 -0.65619826 0.022368023 0.7661874
000290 48 27 08 3f 6f 51 25 3e ab 82 11 bf c7 ef 3c 3e
       0.5318494 0.16144346 -0.5684001 0.18450843
0002a0 8b 93 f1 3e ae 51 06 bf db f8 89 be d5 fa 41 be
       0.4718288 -0.52468383 -0.26947674 -0.18943341
0002b0 d8 d1 8b bf bc cb ce be 35 d4 46 be 78 a3 37 3e
       -1.0923414 -0.40389812 -0.19416888 0.17933452
0002c0 2e a1 36 3f 9e ac 1a be d7 9c 11 3f 40 cb 68 bd
       0.7133969 -0.1510491 0.56879944 -0.05683446
0002d0 0e 97 9e be 02 0c 82 be 68 6d 5c 3c fe e6 cd bf
       -0.3097462 -0.25399786 0.013453819 -1.6086118
0002e0 1f 35 6f 3f f0 a8 e5 bd 11 59 5e be 03 1c 97 3e
       0.9344043 -0.11213863 -0.21713664 0.2951356
0002f0 6c e4 86 bc 23 98 9f bd b4 04 60 be 59 0a c6 be
       -0.016466342 -0.0779269 -0.21876794 -0.3867977
000300 0f e5 80 3e 7f 3f dc be 21 01 21 bf 03 9e 71 bd
       0.25174758 -0.43017194 -0.6289235 -0.058988582
000310 86 0e d3 3e cd 33 59 3e ed 99 d7 be fa 16 81 be
       0.41222018 0.21211167 -0.42109624 -0.25212842
000320 1d d5 a6 be b7 59 9f 3e ca ef b3 be e6 e1 2a bf
       -0.32584468 0.31123134 -0.35143882 -0.66750944
000330 af ed 71 3e 7d d6 89 3d 22 db 69 3e a1 a3 10 3f
       0.23625825 0.067303635 0.22837499 0.5649968
000340 c9 61 00 be 09 20 e1 3d 4b e9 e2 3e f0 61 0c 3d
       -0.12537302 0.10992438 0.44318613 0.034273088
000350 ba 09 b7 3d 39 19 f4 be 57 f3 87 bf 04 37 d1 3e
       0.08937402 -0.47675493 -1.0621136 0.40862286
000360 a7 5e be 3e 88 a7 dd 3d 76 61 12 3f dd 8e 8b 3e
       0.3718159 0.1082297 0.57179964 0.27257434
000370 c9 dd 6c 3f 5c 75 52 bd 1f 5f d0 3d 9c ef 6a 3e
       0.9252592 -0.051381454 0.10174393 0.22942966
000380 0b 47 7d be 77 df 93 3e 51 15 4d 3e 2c 8f 4a be
       -0.24734132 0.28881428 0.20027663 -0.19781178
000390 ab ad 67 3f 17 71 39 bf 2b 74 f8 bd e7 ec ab 3e
       0.9049937 -0.72438186 -0.12131532 0.3357918
0003a0 9b 3e f8 3c 95 bb 9f be 33 c3 9e be d6 e0 90 3e
       0.03030329 -0.311978 -0.310083 0.28296536
0003b0 6c 8f 92 bc bb a8 6f bf 72 99 31 bf 2d f5 00 bf
       -0.017890655 -0.9361684 -0.69374764 -0.5037411
0003c0 f9 63 dc 3d 9b b2 e6 3e 1f 49 a3 3f 06 85 07 bf
       0.10761256 0.4505814 1.275669 -0.5293735
0003d0 c3 9d c4 3e c1 97 37 be 38 3d e4 be de 22 81 bf
       0.38401613 -0.17928983 -0.44577956 -1.0088766
0003e0 cd 4b 39 be bf 3e 33 bf 25 a7 44 bf 09 38 c3 be
       -0.18095322 -0.7001762 -0.7681754 -0.3812869
0003f0 28 ef 61 bf 49 de b0 3d 82 cf 6a 3e be 10 ad be
       -0.8825555 0.086361475 0.2293072 -0.33801836

network_body._body_endoder.seq_layers.0.bias f4 [128]
000000 7d c2 1d bd d7 9c 1e bc 0e 19 30 3d 4a c3 63 bc
       -0.038515557 -0.009680948 0.042992644 -0.013901541
000010 6d 25 84 3d b7 fe 98 bb 30 19 36 bc 9b 30 3c 3d
       0.06452451 -0.0046690363 -0.011114404 0.04594479
000020 56 fe c3 bc 6a f5 d6 bb fa cd 24 3b ce db e6 39
       -0.023924988 -0.0065600174 0.0025147186 0.00044032786
000030 21 9e 99 3c 43 dc 02 3c 8e 2c 75 3c 35 ca 51 3d
       0.01875216 0.007987085 0.014964236 0.05121823
000040 f9 0c eb 3a f0 4e 7f bc db e8 ea bc 18 2a 4b bd
       0.0017932943 -0.015582785 -0.028675487 -0.04960069
000050 64 c8 81 3b 41 50 9f 3a ad 30 cd 3c 10 71 4b 3c
       0.003960656 0.0012154655 0.025047624 0.012417093
000060 15 ec d5 3c 58 8d 21 bc 54 7b 93 bc a2 83 1f 3d
       0.02611355 -0.009860359 -0.018003143 0.038943894
000070 7a 71 35 bd 50 27 9b 3c df 91 8a bc ec 6a 27 3c
       -0.044297673 0.018939644 -0.01691526 0.010218363
000080 a9 f5 ed 3c 44 5f 51 3b 93 af 5a bc 30 27 bc bb
       0.029047804 0.0031947652 -0.013347524 -0.005741976
000090 b6 01 0d bd b7 a5 6f 3d 22 2c 4a 3d 4f c7 07 3d
       -0.03442546 0.058507647 0.049358495 0.03314906
0000a0 5d 87 50 3d f1 d1 f1 bb 4b 9a bc 3b 30 1e 9f 3c
       0.050910342 -0.0073797633 0.005755698 0.019423574
0000b0 dc 39 6c bc 12 b5 2f 3c 97 89 b0 3c 45 28 39 bc
       -0.014418092 0.010724323 0.021549983 -0.011301105
0000c0 ae e9 9c bc db 70 08 3d b1 a4 e6 bc d4 bb 0f bd
       -0.019154396 0.033310752 -0.028154703 -0.035091236
0000d0 6d 04 b8 3c b1 ea 7a 3a 18 49 02 bc 37 2b 82 3b
       0.022463048 0.0009571715 -0.007951997 0.0039724368
0000e0 bb 2d 20 bc 47 be 92 3c 1d 53 a7 3c af a4 86 bc
       -0.009776528 0.017912997 0.020425374 -0.01643595
0000f0 1e 50 e0 bc 00 f8 e0 3b 9e 3c af b9 f8 fe 5e bc
       -0.027381953 0.0068655014 -0.00033423764 -0.013610594
000100 ff 9c a4 bc e2 a8 38 bc fb 90 bf 3c 4b d6 00 bd
       -0.020094393 -0.011270734 0.023384562 -0.031454366
000110 6a 49 1d 3d 27 c8 8f bc a7 c7 cb 3c 14 e1 0d bb
       0.03840009 -0.017551495 0.024875475 -0.002164905
000120 35 19 dd bb 4a e0 5d bb d2 24 10 3d 8c 74 22 bd
       -0.0067473897 -0.003385561 0.035191365 -0.03966193
000130 dd b3 cd 3a 0e 8d a7 bc 72 b0 94 3a 97 29 ae 3b
       0.0015693862 -0.020453002 0.0011344089 0.0053150165
000140 45 a9 1b 3c ff 02 e6 bc 0e 4e a2 bc 88 00 78 3c
       0.009500806 -0.0280776 -0.01981261 0.015136845
000150 47 74 7b bc e7 97 cb bc 31 0d 1f 3d 3d 56 66 3c
       -0.015347547 -0.024852706 0.03883094 0.014058647
000160 e3 05 b3 bc a0 d2 fa b8 d8 1f a7 bc db 55 33 3d
       -0.021853393 -0.00011960161 -0.020400926 0.04378305
000170 27 53 7c bc ab e8 f1 3b 27 1e 55 bc dd 46 c4 3a
       -0.015400684 0.0073824725 -0.013007677 0.0014974732
000180 e2 cb c6 bc 03 75 af 3c f1 45 2b bc 28 c7 8a bc
       -0.02426714 0.0214181 -0.010453687 -0.016940668
000190 e2 25 f0 ba 25 3f 12 3d bf f6 02 3c 54 bb 0a bc
       -0.0018321837 0.03570475 0.007993399 -0.008467514
0001a0 62 7f a5 bc 35 17 2c 3d 91 3c 49 ba 5c cb 8f 3c
       -0.020202342 0.04201432 -0.00076765666 0.017553024
0001b0 7f dd 4b 3d 9e ae 88 bc 5a cc 70 bd 40 33 5b bc
       0.049771782 -0.016684826 -0.058788635 -0.013378918
0001c0 d1 a9 1c bd 93 70 95 3b 03 a5 f3 3c e0 9b bf 3b
       -0.038247887 0.004560539 0.02974177 0.005847439
0001d0 3a 69 08 bd 0a 2d 26 bd 63 a5 b5 3c bf 59 5b 3d
       -0.033303477 -0.040570296 0.02217359 0.053552385
0001e0 32 dc 52 3b 55 f0 c0 3c a0 d8 58 3c 00 19 cb bc
       0.0032174704 0.0235521 0.013235241 -0.024792194
0001f0 42 3d ba 3b 82 b2 9f b9 83 7b 8d bb de ec 72 bc
       0.005683572 -0.00030459842 -0.0043177023 -0.014826981

network_body._body_endoder.seq_layers.2.weight f4 [128, 128]
000000 eb 00 8d bd 82 42 09 3d 4c 7c 03 bd 3c 36 b0 bd
       -0.06884941 0.033510692 -0.03210096 -0.086040944
000010 34 4d e7 bd 06 d2 9e 3d c6 a6 a2 bd b5 f7 d9 ba
       -0.11294022 0.077549025 -0.07941966 -0.0016629609
000020 dc a8 fa 3d 31 d7 b6 3d 12 9b ba 3d de dc 01 be
       0.122392386 0.08927763 0.091116086 -0.1268191
000030 a7 33 5c 3d c7 e8 cd 3d 72 a0 bc 3d bd f5 ce bb
       0.053760197 0.100541644 0.0921029 -0.0063159154
000040 09 5b 6d 3d 6e 9a 2e be 75 f8 be 3b 54 77 b4 3d
       0.057948146 -0.17051098 0.005827958 0.088118225
000050 a3 f4 93 bc 62 34 a6 bd 70 07 29 3e f7 d9 d2 3c
       -0.018060988 -0.0811546 0.16506743 0.0257387
000060 04 a4 59 3d 2d 98 d8 bd 26 42 ca bd c8 00 13 be
       0.053134933 -0.105759 -0.09875898 -0.14355767
000070 01 8d 94 bb cc d3 07 bd e0 d1 a7 3d 04 9c f7 bd
       -0.0045334105 -0.03316097 0.08194327 -0.120903045
000080 85 28 aa bd a8 6f ba bd 55 04 8d bd 70 e2 0b be
       -0.0830851 -0.09103328 -0.06885592 -0.13660598
000090 23 f2 92 3c 3f 40 61 bd d4 e3 04 be fb 6d 3c bd
       0.017937725 -0.05499291 -0.12977535 -0.046003323
0000a0 63 bd e4 bd 73 20 b4 bc c1 ee 52 3d 57 cb 29 be
       -0.11168935 -0.02198813 0.051497225 -0.16581474
0000b0 f7 a5 93 3d 34 7e a2 bc 63 cb dd 3d 6a 1a b1 3a
       0.0720939 -0.019835569 0.108298086 0.00135119
0000c0 b1 e4 c4 bd a5 21 4c 3d 5c f5 62 3d c8 3e 17 3e
       -0.09613932 0.049836773 0.055409774 0.14770043
0000d0 fb 2a a7 3d d5 e2 71 bc 95 5b 8a bd c4 20 bf bc
       0.08162495 -0.014763554 -0.06755749 -0.023331054
0000e0 e6 16 bc 3c f0 f7 1f bd 65 ef d2 3c 45 de 94 bd
       0.022960138 -0.03905481 0.025748918 -0.07268957
0000f0 19 df 3f bc b6 3a 29 be 9e 6e 16 bd 96 63 44 3e
       -0.0117109055 -0.16526303 -0.036726587 0.19178614
000100 e8 96 09 3d 69 b8 3e be 25 f6 00 3d c9 74 be bd
       0.03359118 -0.18625034 0.03148474 -0.09299619
000110 30 77 86 bb 4d 7f 69 bd f1 43 1f be 6b b6 f2 bd
       -0.0041035637 -0.05700617 -0.15553261 -0.118512
000120 e9 fa 23 bd 80 e6 6d bd 47 a6 b3 bd e9 46 10 3c
       -0.04003421 -0.05808115 -0.08771949 0.008805969
000130 f5 ed 61 bd c8 c8 d2 bc 95 f0 07 3c 68 d0 2b be
       -0.055158574 -0.025730506 0.008297105 -0.1677872
000140 95 2d c9 bd 50 0e 25 bd 7a b1 95 3a a0 8d 0e 3c
       -0.09823147 -0.040296853 0.001142069 0.008700758
000150 66 83 90 39 d9 7f 7e 3d 36 ca 9c 3d 44 1c e7 bc
       0.0002756372 0.062133644 0.07655756 -0.02821172
000160 56 9f 90 bd de 9b 83 3d d0 c5 36 3d 8e 01 d3 39
       -0.07061641 0.06426214 0.044622242 0.00040246214
000170 f2 9c a2 bd 0f 7b 8d bd f3 72 2d 3d 1e 52 74 be
       -0.07940091 -0.06908237 0.042345952 -0.2385945
000180 98 ed c1 bd eb d1 09 bd f3 61 3f 3c 75 06 18 3c
       -0.094691455 -0.03364746 0.011681068 0.009278883
000190 55 4a d6 3d 8e 45 db bc e5 32 87 3b b6 56 13 bd
       0.104633965 -0.026766565 0.00412594 -0.035971366
0001a0 32 ec 2a bd 45 a2 15 be e1 3a 8c bd 6b f2 d5 3c
       -0.04172916 -0.14612682 -0.06847168 0.02611657
0001b0 32 c1 3d bd 73 9c de bd 65 ea dd 3c 11 48 aa bc
       -0.046326824 -0.10869684 0.027089307 -0.020786317
0001c0 60 b6 44 3d 51 d3 a2 bd 46 54 f5 bc d3 ca c5 bd
       0.04802549 -0.07950462 -0.029947411 -0.09657826
0001d0 95 77 d4 bd fc 61 2f be 51 05 53 3d 5d 40 8f 3d
       -0.10374371 -0.17127222 0.051518742 0.06994698
0001e0 55 fb 82 bd 6e f7 34 3e 65 08 53 3e f4 02 fa bd
       -0.06395594 0.17672512 0.20608671 -0.122075945
0001f0 ec 17 ad bd e9 b8 d0 3d 71 87 19 3d e2 2b 53 3c
       -0.08451828 0.10191519 0.037482683 0.01288888
000200 e2 2d a2 bc 76 0d 2d 3c 31 c6 30 3c e5 06 07 be
       -0.01979727 0.010562291 0.01078944 -0.13186224
000210 03 40 c5 bd f5 2f 3c be 28 4f b5 b9 22 1d 88 3d
       -0.0963135 -0.18377669 -0.00034581986 0.06646182
000220 b0 6c 69 3d af 44 03 3e 14 8f 04 bd 31 06 35 3e
       0.056988418 0.1281917 -0.032363012 0.17678143
000230 e6 0e 29 3d 17 0f bf bd 64 c0 a0 bc ef 06 1a bd
       0.041273974 -0.0932905 -0.019622989 -0.03760427
000240 d7 be 76 3d 35 4b a2 bd 9d 0e 99 3d be 0b e4 bc
       0.060240593 -0.07924501 0.074734904 -0.02783763
000250 35 cf 0a 3e 43 45 86 3d 41 b2 52 bd 6f 36 09 bc
       0.13555606 0.065561794 -0.051439527 -0.008374794
000260 f0 f0 5b 3d 41 50 a3 3d 29 68 98 3d ec 56 0c be
       0.053696573 0.079742916 0.07441742 -0.13705033
000270 2d 76 e3 3d 2c ff 32 3e 93 6a ce bd c4 2c 95 3d
       0.111065246 0.17480153 -0.10078921 0.07283929
000280 65 4f 08 3e c7 a2 00 3d a4 31 22 bc 01 11 94 bd
       0.13311537 0.031405237 -0.009899531 -0.07229806
000290 57 28 a5 3d 7d ea 06 3d 15 52 e3 bd 02 3f 4c 3d
       0.08064335 0.03293847 -0.1109964 0.049864776
0002a0 45 15 e1 3d 1c 43 b1 bd e0 fd 0a 3e ab 42 f2 bc
       0.10990385 -0.08655378 0.13573408 -0.029572805
0002b0 3b 48 f8 bd bc bf 62 bd e0 a1 c7 bd 25 b1 98 bc
       -0.12123152 -0.055358633 -0.09747672 -0.018639157
0002c0 c2 19 3e 3c b5 3b 25 bd dc c9 3a bd 33 57 14 3e
       0.011602821 -0.040340144 -0.045602664 0.14486389
0002d0 2e d4 72 bd ca 6c 21 be 25 17 fc bd 45 b6 ad bc
       -0.05928438 -0.15764156 -0.12309102 -0.021205077
0002e0 48 ad 97 bd b7 83 83 3d 81 97 88 3d 18 8f 9c 3d
       -0.07406098 0.06421607 0.06669522 0.076444805
0002f0 a5 69 11 bc 4f 10 18 bd d9 9e 75 3d 15 91 b5 3c
       -0.008875285 -0.037124928 0.059965942 0.022163907
000300 1f f4 70 bd 0b d6 22 3d 55 2c 30 3e bd bd 21 3e
       -0.058826562 0.03975491 0.17204411 0.15795036
000310 1e 6e c7 3d 52 6a b6 3a e1 22 2c 3d 86 12 97 3b
       0.097378 0.0013917184 0.04202545 0.0046103625
000320 49 e1 0d bd e1 6d bd 3c 49 06 5c be f0 f3 ae bd
       -0.034638677 0.023123683 -0.21486773 -0.08542621
000330 cb 9b bb 3d 29 15 40 bd 5b e0 87 3d b8 1c 14 bb
       0.091605745 -0.04689518 0.06634589 -0.0022600126
000340 eb 71 94 bd 60 fe c0 bd f3 51 e7 bd c5 12 2d 3e
       -0.07248291 -0.09423518 -0.112949274 0.16901691
000350 c3 f4 af bc b3 73 0f 3e 84 13 a1 bc 2c a0 62 be
       -0.021479016 0.1400898 -0.019662626 -0.22131413
000360 7a f3 0d bc 6e 35 66 bd b7 e3 0f 3d 80 d8 19 3e
       -0.008664006 -0.0562033 0.035129275 0.15023994
000370 6d 71 15 bd f9 55 f4 bc 98 8a bd bd c4 7c 4d bd
       -0.036485124 -0.029826151 -0.0925495 -0.050167814
000380 3e 0b 52 3c 31 bc 04 be d5 82 ab 3d 8d 36 38 be
       0.012820063 -0.12962414 0.083745636 -0.1798956
000390 ba 8c b7 bc 2d f0 76 3d 68 a2 32 3d b7 37 01 3e
       -0.02240597 0.060287643 0.043611914 0.1261891
0003a0 4e bd 56 3b e3 a0 41 be 9f 0d 2a bc 6b a7 fd bd
       0.0032766643 -0.1890903 -0.010379224 -0.12385448
0003b0 d0 bb 24 bd 35 db fe bc 17 63 0e bc f3 d9 65 3d
       -0.040218174 -0.031110385 -0.008690617 0.056116056
0003c0 25 72 3f bc f8 0a b7 3d 26 bd bd bd 14 d9 ec 3d
       -0.011684929 0.08937639 -0.09264593 0.11564842
0003d0 95 78 df bc d1 4c 44 bc a6 1b 16 3d ee 9a 13 3d
       -0.027279178 -0.011981205 0.03664746 0.036036424
0003e0 42 35 52 3d 42 93 57 bd b7 18 ff 3d fb 96 8f bd
       0.05132032 -0.05263067 0.12455886 -0.07011219
0003f0 3d b6 15 3d a0 97 2e 3c 0a 21 bc bd c9 dc c7 bd
       0.03655075 0.010656267 -0.09185989 -0.09758908

network_body._body_endoder.seq_layers.2.bias f4 [128]
000000 42 bc 4c bd f3 7c b5 bc 85 8e 12 3b 46 cd 15 bd
       -0.049984224 -0.022154307 0.002236278 -0.036572717
000010 39 12 d2 bc 9f 42 ab 3c 2a e0 02 3c 5c 86 31 3c
       -0.025643455 0.02090579 0.007988015 0.010835256
000020 c2 f3 95 3c a6 56 68 3b b6 6f 19 bd 77 29 82 bd
       0.01830471 0.0035452037 -0.03746005 -0.06355565
000030 d1 d3 04 bc 6f c5 45 bc cd e4 fc 3b 0c 59 e2 3c
       -0.008107142 -0.012070998 0.007717705 0.027630351
000040 5f d5 27 bc 4e e4 8b bb 0c 20 78 3c f0 59 7e bc
       -0.010243743 -0.0042691594 0.015144359 -0.015524372
000050 58 08 98 bc f3 ba 98 3c c9 98 26 3c 9a 9e ea bb
       -0.018558666 0.018643832 0.010168263 -0.00716002
000060 d9 8a 7c bc bb cd b9 3b bd 46 75 3c 22 51 da 3c
       -0.015413963 0.005670277 0.014970479 0.026650015
000070 c3 d6 1c bb 62 6b 04 3c 76 5f cf bb 03 95 a3 3c
       -0.002393172 0.008082243 -0.0063285185 0.019968515
000080 e8 73 51 3b 14 d4 26 bd 51 59 df 3b e9 33 11 bc
       0.0031959955 -0.040729597 0.0068160673 -0.008862474
000090 d4 3b e4 bc 4f 36 b0 3c a6 ab 46 bb 1d 7e 14 bc
       -0.02786056 0.021510271 -0.0030314713 -0.009063271
0000a0 e3 60 06 bc 4b 47 30 bc 41 de bb 3c c2 c2 1a 3c
       -0.0082018105 -0.010759185 0.022933127 0.009445848
0000b0 04 c4 c4 bb 62 f5 55 bd 80 cc ed bb 20 ab 08 bb
       -0.006004812 -0.05223597 -0.0072570443 -0.0020853952
0000c0 e5 3a 80 bb fc 84 b7 bb 24 56 5c 3c 95 19 d2 bc
       -0.003913271 -0.00560057 0.013448272 -0.025646964
0000d0 0c 80 84 3c 5d c9 24 3b 65 dc 06 3b 37 cf c4 bc
       0.016174339 0.0025144436 0.0020578143 -0.024024589
0000e0 dc 34 40 3d 56 05 f9 3c d0 04 40 bd b6 2c 03 ba
       0.04692541 0.030398052 -0.04687959 -0.0005003916
0000f0 93 6a a7 bd ba fe b1 3c 28 81 35 3c 5c a8 5c bc
       -0.08174624 0.021727908 0.0110781565 -0.013467874
000100 23 b5 b4 bc 5e da b5 3c 20 4a e1 bc 94 2a 26 3c
       -0.022059029 0.022198852 -0.027501166 0.010141987
000110 ee 52 75 bd bd 19 8a bc 82 cd b2 3a 79 ba 32 bc
       -0.05989354 -0.016857976 0.0013641568 -0.010908716
000120 c6 2b 8d bb 9a 67 0d bd 3a c9 c6 3c 43 83 7a ba
       -0.0043081967 -0.03452263 0.024265874 -0.00095563027
000130 5c aa 49 3b e9 d4 9f 3c 5c e9 6d 3c b3 82 ea 3b
       0.0030771708 0.019510703 0.014520969 0.007156694
000140 81 66 7a bc cf f4 4c bb 97 34 57 bc 7e b6 a1 3b
       -0.015283228 -0.0031273847 -0.013135097 0.004935085
000150 5c ba dd bb 06 e4 cc 3b 0d 52 77 bd 85 cc fb 3b
       -0.0067666005 0.0062527684 -0.060380984 0.0076842927
000160 73 9e 26 3b 91 55 4b 3a 0d 32 8d bc f0 36 b6 3c
       0.0025424033 0.0007756586 -0.01723578 0.022242993
000170 43 41 88 3c 11 1e d5 bc a2 8b 6f 3c fb 61 6d 3c
       0.016632682 -0.026015313 0.014620693 0.014488692
000180 cf 05 a2 3b e8 75 47 bd f4 54 fc 3b 67 7f b3 bc
       0.00494454 -0.04869643 0.007700557 -0.021911336
000190 cd 9c 3a bc c7 e2 9b 3b 02 5f 72 bc 0d 24 21 3d
       -0.011389923 0.0047572586 -0.014793159 0.03934102
0001a0 24 84 75 3b fc d7 49 bd a3 ee f9 3b ea b0 a1 3b
       0.0037462795 -0.049278244 0.0076273247 0.00493442
0001b0 d9 d9 87 bc a8 25 01 3c a0 74 99 3b 74 90 bb 3b
       -0.01658337 0.007882513 0.0046830922 0.0057240073
0001c0 a7 c3 ca bc d6 aa 55 3c 41 57 99 3c 76 d4 08 3d
       -0.024751497 0.013041219 0.018718364 0.033405744
0001d0 7d b1 c2 3c a4 3c 0b 3d 77 46 b9 bc e3 d2 df 3b
       0.023766274 0.03399338 -0.022616608 0.0068305596
0001e0 a6 b4 35 3c 76 e7 31 3c 60 cf bb 3c de 42 54 bc
       0.011090433 0.010858407 0.022926033 -0.0129553955
0001f0 cb bd 7f 3c c5 b7 69 3c 52 51 b6 bc e2 30 48 38
       0.015609215 0.0142650055 -0.022255573 4.772924e-05

action_model._continuous_distribution.log_sigma f4 [1, 2]
000000 6a 1a a3 3c 5e 58 73 bd
       0.019910056 -0.059410445

action_model._continuous_distribution.mu.weight f4 [2, 128]
000000 ea c2 84 3c 5b 66 58 bc 36 65 1c bd 5f 38 de b9
       0.016206224 -0.013207997 -0.03818246 -0.0004238514
000010 4e a7 36 bc f5 c6 9d bc 0e 65 fa 3c fb 7c 36 3d
       -0.011148287 -0.01925991 0.030565765 0.044552784
000020 0f 9f 83 bc b7 57 33 bd 04 2e a2 bb 26 29 5e bb
       -0.016067056 -0.043784823 -0.004949333 -0.0033899038
000030 d7 5b de bc e2 3a 87 3b c7 1c 1c bd 46 bd 9f bc
       -0.027143402 0.0041268924 -0.03811338 -0.019499432
000040 43 a4 e6 3c 25 a5 66 bb 22 f2 05 39 3c aa f7 bc
       0.028154498 -0.0035193649 0.0001277407 -0.030232541
000050 8e 2f 8a bb fc 53 de bc 6b 72 24 bd c5 be b0 3a
       -0.0042170947 -0.027139656 -0.04014818 0.0013484588
000060 a7 8e 92 3c 2e 0a 4a 3d 6e 8e b3 3a 27 c8 38 3d
       0.017890288 0.049326114 0.0013699064 0.045112755
000070 f4 6d 07 bd 73 cd 44 3d cc 08 c7 bb e1 7f b9 3b
       -0.033063844 0.048047494 -0.0060740467 0.0056609963
000080 b6 d7 1d bd f1 4e dc 3b 78 19 e4 bc 3a 45 a1 bb
       -0.038535796 0.0067232777 -0.027844176 -0.0049215825
000090 23 e0 6b ba 5f 50 68 3d a2 85 09 bd 8a 9c ee bc
       -0.00089979375 0.056717273 -0.033574708 -0.029127378
0000a0 0b 35 ed bc 00 62 a1 3b 79 96 ee 3b f5 56 32 bd
       -0.028955957 0.0049250126 0.0072811213 -0.04353996
0000b0 e0 77 6f 3b 6d 29 48 bb cd 9c 3c bc 9d d7 d5 3b
       0.0036539957 -0.003054227 -0.011511994 0.0065259472
0000c0 54 77 a9 39 d8 46 06 bd 57 df 12 bd 4d 28 b7 3b
       0.00032323098 -0.032782406 -0.035857525 0.005589521
0000d0 77 98 8d bc 5b f2 8f bc da 73 14 3b 66 fc 64 3c
       -0.017284615 -0.017571619 0.002265206 0.013976192
0000e0 80 bc a5 3d a6 8c 98 3d 18 b6 7f 3a 91 00 af 3c
       0.08092594 0.074487016 0.0009754612 0.021362575
0000f0 4a fe 9b bc ac ff c5 bb 29 9b c3 3c 6e a4 d0 bc
       -0.019042153 -0.0060424414 0.023877697 -0.025469031
000100 eb 2b a0 3c 97 94 3d 3d 0c bb ac bc 2c be d1 3c
       0.019552192 0.046284284 -0.021085285 0.025603376
000110 fe 22 d2 bb 0e 45 1d 3c 3d fd 58 3b 59 9c 61 bc
       -0.006412863 0.009598983 0.0033109926 -0.013770186
000120 f9 28 d4 3c 57 0b 01 3c 0b d7 87 bc 57 e1 32 3c
       0.025898444 0.007876239 -0.016582033 0.010917983
000130 5d e7 62 bc d3 83 00 3d 42 1b e5 bc c7 92 b4 3c
       -0.013849107 0.031375717 -0.0279671 0.022042645
000140 59 74 d7 bb 73 02 09 3c 4b 5c 03 3d 63 ae d7 bc
       -0.006575149 0.0083624 0.03207044 -0.026328271
000150 a3 a3 0c 3d 78 73 72 bd c9 bf 6e 3c b7 77 2f bd
       0.034335744 -0.05919215 0.014572092 -0.04283878
000160 a8 13 c3 3c 82 4c 53 3c 57 78 03 bd e6 5f 63 3d
       0.023813084 0.012896659 -0.032097187 0.055511378
000170 95 51 1d bd 2e e7 85 3c 91 ed f1 bc 30 fa d2 bc
       -0.03840788 0.016345587 -0.029532226 -0.025754064
000180 49 1c 19 3d 3e 61 f9 3b 0a 76 4e 3b df a2 67 bc
       0.03738049 0.007610469 0.0031503462 -0.014137953
000190 d5 6e d3 bc 1d b4 a6 bc fc 1b ac 3c f0 21 59 3c
       -0.025809685 -0.020349557 0.021009438 0.01325272
0001a0 9a 0d 01 3d 6a 2e a9 bb 41 b0 d4 bc 66 c4 46 3d
       0.031507112 -0.0051630037 -0.02596295 0.048527144
0001b0 ee 5d 0f 3d 82 0c 84 39 61 53 0b 3d 71 1b 6a 3c
       0.035001688 0.0002518632 0.034015063 0.014288769
0001c0 0d 39 2c 39 7e 1c 82 bd 6b 11 77 3d ea 94 26 bd
       0.00016424451 -0.06353091 0.060319345 -0.04066936
0001d0 db c6 50 bc aa a4 39 3d 51 86 45 3c a6 aa 87 bc
       -0.012742723 0.04532305 0.012055949 -0.016560864
0001e0 82 60 ba bc 42 18 43 bd 51 63 e3 3c b8 8a c9 bc
       -0.022751097 -0.047630556 0.027757319 -0.024602279
0001f0 e7 d0 8b bc 9f 69 2b bd cb 21 37 bc 93 0b 45 3a
       -0.017067386 -0.041848775 -0.01117749 0.00075166783
000200 98 4d e5 3b 49 c6 c7 3b 79 1a 60 3d e4 c5 41 bb
       0.0069977753 0.0060966355 0.054712746 -0.0029567415
000210 c7 e3 9c 3c ca 1c 6c bd 32 d0 48 bd 5a 1e 05 bd
       0.019151581 -0.057644643 -0.049026676 -0.03249965
000220 20 fb 37 bd cf 1b 6e 3d eb 5a ae 3b 53 47 1f 3d
       -0.044917226 0.05813199 0.005320897 0.03888638
000230 99 ff 80 3b 13 1f 29 bc fe ef 73 3d 76 03 4a 3d
       0.0039367196 -0.01032235 0.059555046 0.049319707
000240 2c 95 88 3a 4d ce db bc 99 9b 3b bd 3a f2 97 3c
       0.0010420433 -0.02683177 -0.045802686 0.01854812
000250 52 18 8f 3c 9d c4 20 bd 2e b3 2e 3d 9d 1a 01 3d
       0.017467652 -0.039250005 0.042651348 0.03151952
000260 ed d7 6e bb 85 02 67 3c d8 4d 66 bd 8f cc 67 bc
       -0.003644462 0.014099722 -0.05622658 -0.014147892
000270 69 38 e7 3c 31 99 ff 3c f4 68 41 bc ea 25 2a bd
       0.02822514 0.031200977 -0.011804808 -0.041540064
000280 a8 c5 17 3c ae 1d c8 3b 94 a1 92 3b 33 2a 78 bc
       0.0092634335 0.0061070537 0.004474828 -0.01514678
000290 26 c8 01 bd 80 a4 a3 3c 4f 8b a9 bc 67 a2 07 3b
       -0.031685017 0.0199759 -0.02069631 0.0020696165
0002a0 90 66 73 bb 56 74 12 3d d2 27 3d bd 05 ea c4 3c
       -0.003713999 0.035755478 -0.046180554 0.02403737
0002b0 0b 4e 43 3d 25 0a 23 3d 5f 52 3c bd 61 e0 0d bd
       0.04768185 0.039804596 -0.045976993 -0.034637813
0002c0 47 fe 34 bb 9d cb 90 3c 9a c1 2e bd f5 53 7d 3c
       -0.0027617381 0.017675215 -0.0426651 0.015461911
0002d0 dd c3 40 bd 4f 3e 75 3b 6a 69 81 3d 86 36 23 bc
       -0.04706179 0.0037421172 0.06318934 -0.00996173
0002e0 79 f2 83 bc be d9 3a 3c 4a 75 10 3c 0d bd 39 3b
       -0.01610683 0.011404453 0.008817026 0.0028341443
0002f0 61 35 e2 3c 2f 7a 71 3d 68 ce 82 3d 39 0b 85 bc
       0.027613344 0.058954414 0.06387025 -0.016240703
000300 f4 94 f2 3c 0b aa d7 bb b9 23 f9 bb 95 60 14 3d
       0.029612042 -0.00658155 -0.0076031354 0.03622492
000310 19 cd 88 3b cb 3e 08 3c c4 fa 0f 3b 6d 72 ba bc
       0.00417484 0.008315752 0.0021969536 -0.02275964
000320 27 08 15 bd ca 23 2f bc 9e 81 4a 3c c4 08 96 3c
       -0.036384728 -0.010689685 0.012360005 0.018314727
000330 44 f3 0b 3c 7f 2a 70 bd ad e2 2c bc c6 64 2d 3d
       0.008541886 -0.058634277 -0.010552091 0.042332433
000340 53 a7 20 3d 80 5b 09 3d e6 af 63 3c c2 47 f7 3c
       0.039222073 0.033534527 0.013896918 0.030185584
000350 19 63 d2 bc 17 b2 69 3a 88 48 3b 3d 5e 03 31 3d
       -0.02568202 0.0008914782 0.045723468 0.0432161
000360 fc 1d 30 3d bd 47 cf bc ab b8 27 3c 2e 90 cd 3c
       0.042997345 -0.025302762 0.010236899 0.025093164
000370 02 ec ef bb 5c 9c ab bc d7 86 3c 3d cb 8a b4 bc
       -0.0073218355 -0.020948581 0.04602703 -0.022038838
000380 a9 d3 bb 3c 4b d2 d3 3c 86 73 d1 bc 19 fe 70 3b
       0.022928076 0.025857111 -0.025567781 0.0036772548
000390 bb 5f f9 bc 54 7d 5c bd f6 65 e9 3c 0f aa b0 bd
       -0.030441156 -0.05383046 0.028491002 -0.08626186
0003a0 55 0e e9 3c e3 61 3a bb 68 5a 28 bd 0b 96 1a bb
       0.028449217 -0.0028439693 -0.041101843 -0.0023587968
0003b0 fe a5 8c 3c 10 98 b9 bb 36 73 3f bc 41 cc b7 38
       0.017168995 -0.005663879 -0.011685183 8.764165e-05
0003c0 00 b2 77 3c 63 56 1f bc 3d 1e 82 bb 3b 55 e8 3c
       0.015118122 -0.009725186 -0.00397089 0.028360954
0003d0 81 76 5c 3d 2b 15 98 3b f9 45 a7 bb c3 ae a8 bc
       0.05382395 0.0046411953 -0.005104777 -0.020591145
0003e0 d4 f9 07 3d 35 ed 4e 3a fb d9 3d bd b6 19 d5 bc
       0.03319724 0.0007893623 -0.04635046 -0.026013236
0003f0 34 f3 21 bd 5c dd c7 bc 28 ac 16 3d eb e7 8e 3d
       -0.039538577 -0.024397545 0.036785275 0.069778286

action_model._continuous_distribution.mu.bias f4 [2]
000000 b7 f4 2d bb 73 50 34 bc
       -0.0026543566 -0.011005509

action_model._discrete_distribution.branches.0.weight f4 [2, 128]
000000 8a 63 2d 3c 96 44 69 3c bd b5 f3 bb 4a 6f e2 3c
       0.010582814 0.014237544 -0.0074374364 0.027640957
000010 f4 3e a9 bb 41 9c 0a bc ad 53 1b bb 1f 05 95 bb
       -0.0051649753 -0.008460105 -0.0023700998 -0.0045477296
000020 91 f6 53 bc 93 0d fb bb c0 95 4e 3c ca 24 e9 bc
       -0.012937204 -0.0076615303 0.012608945 -0.028459925
000030 65 9f 27 bb 82 6d af bb 88 f1 3a bb b1 7a 16 3c
       -0.0025577184 -0.0053536305 -0.0028525311 0.009184525
000040 8b 81 c9 bc 96 fb 09 bc bf 3e 1d 3c 27 09 01 bc
       -0.024597904 -0.008421799 0.009597479 -0.007875717
000050 6b aa 5c b9 b9 12 31 bb 99 89 eb 3b 84 e9 d5 3b
       -0.0002104432 -0.0027019216 0.007188034 0.0065280814
000060 56 05 b8 3c 9f ec a0 3c 3b ad 23 3b d8 ae 6e 3c
       0.022463482 0.01964408 0.002497508 0.014568053
000070 d8 f2 7d 3c 13 43 e3 3a 11 63 be bb 53 64 64 3c
       0.015499793 0.0017338715 -0.0058101495 0.013939935
000080 a7 6a bc 3a 12 1e 2b ba d0 76 8d 3c cc ab e8 3b
       0.0014375047 -0.0006527613 0.017268568 0.007100558
000090 63 92 6e ba da 4e 50 3c a2 72 80 39 78 29 cd bc
       -0.0009100793 0.012714112 0.0002449947 -0.025044188
0000a0 e3 d4 1f 3c 4b 36 6e 3c ee 91 97 bb 0f dc c6 bc
       0.009755346 0.014539312 -0.0046255505 -0.024274854
0000b0 40 d1 98 3c c1 48 24 bc 55 76 2a 3c 9f 7e c6 3c
       0.018654466 -0.0100271115 0.010404189 0.0242303
0000c0 ad 87 b0 3b 57 e5 93 bb 8b 68 1c bb 2b 0d b2 3c
       0.0053872676 -0.0045134234 -0.0023866023 0.021734795
0000d0 50 aa 2b bc 81 ed 10 3c 1a a9 59 3c a7 04 90 3b
       -0.010477617 0.008845688 0.013284946 0.004395086
0000e0 59 b7 8c bc 88 1e 98 3a 63 0d ab bc 5c 42 0b 3c
       -0.01717727 0.0011605779 -0.020880407 0.008499708
0000f0 13 96 0b bd 18 f0 21 3c 9b a2 e0 3b 2c 52 36 bb
       -0.03407867 0.009883903 0.0068553216 -0.0027819974
000100 7c 72 24 bc 11 42 88 bc 5c 7e 04 bb bd 0d 1f 3b
       -0.010037061 -0.016633065 -0.0020216918 0.0024269663
000110 5b d7 0c 3c 29 cc 4a bb 58 ff 7f bb 71 54 65 3b
       0.008596267 -0.0030944443 -0.003906211 0.0034992958
000120 7a be 21 3c e3 27 8e 3a b3 35 81 3b 9c bf c6 b9
       0.009872073 0.0010845627 0.003943169 -0.00037908263
000130 16 24 2a bc 8f 96 01 bc 8a db 51 bc de 76 18 bb
       -0.01038458 -0.007909431 -0.01280869 -0.002326421
000140 38 9c 9b 3c 57 47 80 3c c8 55 fe bb 71 ac 9b 3c
       0.01899539 0.015659017 -0.0077616908 0.019003125
000150 df e7 19 bb e1 fa 58 bc c9 cf 21 3c 9e 7f e6 3c
       -0.0023484153 -0.013243408 0.0098762 0.028137024
000160 99 8c 37 3c 35 bf d8 ba 75 89 b5 3b 4f ee d6 3c
       0.011202955 -0.0016536476 0.005540068 0.026236681
000170 3e af ee ba 60 ce a4 3c 61 b9 1d 3c d1 cd 92 bb
       -0.0018210185 0.020117939 0.009626717 -0.0044801016
000180 70 dd 85 3c 44 8b 57 bb c1 20 03 bc ed 5b 45 bc
       0.016340941 -0.0032889405 -0.008003415 -0.012045843
000190 32 63 e7 3b 44 fe a9 bc 61 92 d1 3c ef 4d d3 bb
       0.0070613855 -0.020751126 0.025582494 -0.0064484994
0001a0 dd 8a 5f bb e6 fb e6 3b 72 75 cc ba e0 df 1a 3c
       -0.0034109869 0.0070490716 -0.0015598966 0.00945279
0001b0 0d 9e db 3c 40 bd bc 3c 09 2c 10 bc a4 8d 3b 3c
       0.026808763 0.02303946 -0.008799561 0.011447344
0001c0 8e a7 6a 3a 5f 6c bf bb 7a d8 56 bc fc 87 02 bc
       0.0008951359 -0.0058417763 -0.0131131355 -0.0079669915
0001d0 e9 be 81 3b d5 ba e2 3b 5a 4a 02 bc 57 1c 1a bc
       0.003959526 0.006919245 -0.007952297 -0.009406171
0001e0 39 7e f6 3c 70 9b 33 bc 54 df bc 3b 0b 12 b7 ba
       0.030089485 -0.010962352 0.0057639275 -0.0013967169
0001f0 b3 ce 93 bc c0 a9 6b bc 6c 6c 07 bc 29 14 3f 3c
       -0.018042898 -0.014383733 -0.008265596 0.011662521
000200 b9 a4 f4 3b cd 2a 5a 3b 93 4f 65 bc 20 c4 6a bc
       0.0074659255 0.0033289671 -0.013996023 -0.014328986
000210 61 ca a4 bb 33 06 54 3c 29 48 29 ba b6 c2 d4 3c
       -0.0050290083 0.012940931 -0.0006457591 0.025971752
000220 72 27 9e 3c 68 c2 47 bc ad 83 0b bc 9a a3 f9 3c
       0.019305918 -0.012192346 -0.008515281 0.03047352
000230 e0 8b 6b bc 0b 4c e7 b9 9f c1 83 3c 5a 00 f1 bb
       -0.0143766105 -0.0004411641 0.016083537 -0.0073547782
000240 b2 21 98 3c 8b 56 9d 3b a0 68 57 bb 49 6e 0f 3c
       0.018570755 0.0048015765 -0.0032868758 0.008754321
000250 78 85 b3 3c 25 a2 07 bc 11 02 60 bc c9 00 ab bc
       0.021914229 -0.008278404 -0.013672368 -0.020874398
000260 67 73 b6 bc c1 64 30 bc cd e1 80 3b ee 88 fa b9
       -0.022271825 -0.010766209 0.0039331676 -0.00047785736
000270 fa 60 53 3c ff e2 9e 3b 4b a1 7c bb 03 7c bb bc
       0.012901539 0.0048488374 -0.0038548287 -0.022886282
000280 9d 94 84 3b ff bf 79 bc c7 a6 83 bc 6e 43 0a 3c
       0.0040460364 -0.015243529 -0.016070737 0.008438928
000290 9d ae db bb f2 31 77 bc d8 de 8a ba 04 84 0e 3c
       -0.006704165 -0.0150875915 -0.0010594977 0.008698467
0002a0 9d 9f 35 3c 45 5e b4 bc 32 3d 3d 3c 25 de 5b 3c
       0.011085418 -0.022017607 0.011550235 0.013419663
0002b0 70 39 95 bc f4 8b 2d 3c 82 13 38 bc 68 35 15 bc
       -0.018215865 0.010592449 -0.01123512 -0.009106971
0002c0 e6 a4 9c bb 28 5b b4 3c 10 15 40 bc 20 80 39 bc
       -0.0047803996 0.022016123 -0.011723772 -0.011322051
0002d0 ba 88 57 3c a7 37 6d bc c0 c5 25 bd ad be 7f bc
       0.013155157 -0.014478601 -0.040471792 -0.0156094255
0002e0 4c 85 5b 3c 5b 3f a4 bc ce ff af 3c 44 d6 b0 bc
       0.01339848 -0.020049741 0.021484282 -0.021586545
0002f0 76 e8 36 3d 65 11 1f bb 64 2a b6 bc 0b e0 57 bc
       0.044655286 -0.0024271843 -0.02223701 -0.013175975
000300 72 4e a2 3c e3 7b 91 3c e1 53 00 bd f8 37 a6 bc
       0.019812796 0.01775927 -0.031329993 -0.02029036
000310 15 28 e8 bb 09 3d de bc 48 b1 eb 3b 69 23 48 bc
       -0.0070848563 -0.027128713 0.0071927644 -0.012215474
000320 89 9d 87 bb 96 10 d3 bb 8f 7f 73 3b f8 6b 9e 3b
       -0.0041386527 -0.006441186 0.0037154888 0.004834648
000330 10 95 98 3b 6b 82 87 3c df f0 2c 3c a9 a6 8d 3c
       0.0046564415 0.01654168 0.010555475 0.017291384
000340 7b a4 23 bc 1d 43 06 bb 12 d0 28 bb ee 37 33 3c
       -0.009987946 -0.002048678 -0.0025758785 0.010938628
000350 85 dc c7 ba 36 78 a3 3c a6 95 ea bb 54 86 da bc
       -0.0015248215 0.019954782 -0.0071589528 -0.02667538
000360 ad 2c be bc 0c c8 ac 3b 45 e2 ef ba c2 78 22 bc
       -0.023214662 0.005272871 -0.0018301687 -0.009916486
000370 98 2b d3 3b 5d 36 67 bc 31 0d 2d 3c 81 fe ef bb
       0.0064444058 -0.014112082 0.010562227 -0.0073240404
000380 19 80 53 bc 44 ce a4 3b cd 5a 1a 3a 0c 71 06 3c
       -0.012908959 0.0050294716 0.0005888164 0.008205663
000390 8e ea 7e 3c 45 e8 45 3c 65 74 5e bb a2 26 40 3c
       0.015558852 0.012079303 -0.0033943888 0.011727961
0003a0 72 4c 86 3c 9c cd 72 bb 06 76 9a 3c 4a 90 60 bc
       0.016393874 -0.0037048822 0.018855106 -0.013706276
0003b0 41 3e e6 bc fa 29 e0 bb 05 97 00 3c ef 96 d9 bc
       -0.028105857 -0.0068409415 0.007848506 -0.026561229
0003c0 4f c7 8a bc 27 34 31 3c 08 e1 0b 3b b5 69 04 bc
       -0.01694074 0.010815657 0.0021343846 -0.008081843
0003d0 3d 6b a1 bc ff b8 de bb e4 e1 bd 3b ec c4 c3 bb
       -0.019704456 -0.0067969556 0.0057947505 -0.0059744027
0003e0 fb e5 d4 bb 82 cc 97 3b 80 cf a8 bb a3 a4 ab 3b
       -0.0064971424 0.0046325335 -0.005151689 0.005238132
0003f0 5b 67 b6 bb c0 6d a8 bb 61 ea 53 3c 8c cd 67 bb
       -0.00556652 -0.0051400363 0.012934298 -0.0035370318

action_model._discrete_distribution.branches.0.bias f4 [2]
000000 17 49 bc 3c 1c 49 bc bc
       0.02298407 -0.02298408
