results/CombatTest1/MoveToGoal/MoveToGoal-5173.onnx (onnx, 77714 bytes, 9 tensors)

network_body._body_endoder.seq_layers.0.weight f4 [128, 4]
-0.06447873 0.21415403 0.5570773 -1.405209 0.4977986 -0.48471403 -0.33443525 0.4334729
-0.42902887 0.5031756 -1.0092652 0.37487286 -0.07166313 0.6616158 -0.31665286 -0.01853865
0.21707666 -0.0033196732 0.07097168 -0.49967217 0.36359262 -0.96317315 -0.32881302 -1.1825424
0.65407187 0.6252907 0.87532514 -0.6062402 0.5421252 -0.39600158 -0.40098348 0.1737182
0.109683745 1.0156796 0.20141841 -0.256173 1.0948583 -0.5500092 0.11270775 -0.17453924
-0.101953104 -0.058658488 -0.5393838 0.26606497 0.74095136 0.081765994 0.06009988 0.21431795
-0.21311983 0.18219495 0.86070263 0.121243365 -0.5225196 0.4894148 -0.17032662 0.6062282
0.3037573 0.8934531 -0.01668869 -0.50900644 0.257467 0.44576642 0.35961506 -0.64803976
-0.61241376 0.26850727 0.28153437 0.66940224 0.34158435 -0.7665261 0.061632507 0.22899336
-0.3377606 -0.55537456 -0.45770916 0.84803885 0.095738396 -0.30468962 -0.74041617 0.8831317
-0.27212396 0.46009755 -0.13187627 0.53760266 -0.10270704 -0.060774565 0.45050856 -0.83720446
-0.6265802 0.61429554 -0.31193766 0.17497237 0.30701903 0.29336864 0.092785634 0.5533336
0.4799939 0.063801214 0.22593775 -0.35403472 0.46317288 1.3245165 -0.12938586 0.13090721
-0.5009225 0.09006557 -0.76654834 0.3933743 -0.07830826 -0.16868195 0.27998516 -0.00028473677
-0.047215156 0.43035725 0.20507574 0.9929449 0.5233143 0.7434434 0.27297267 -0.50855446
0.5092656 0.36912802 0.045141216 0.48983485 -0.2981016 0.20782432 0.85850817 -0.6130857
0.60210407 0.9264564 0.002758714 -0.19646005 -0.49428812 0.35138583 -0.06954987 -0.0045142826
-0.08904863 -0.67340267 0.10754745 -0.8119232 0.722341 0.70689636 0.05744117 0.3585514
-0.9792603 0.51076794 -0.3884036 0.3436262 -0.55010295 0.37085077 0.0034634066 0.030450964
0.55146015 -0.11223447 0.20564443 -0.09175144 -0.9977874 0.03296305 -0.78322095 0.31995964
0.8740604 0.1594693 -0.80308735 0.82478184 -0.36525208 0.056218307 -0.29330808 0.0073578423
0.728414 -0.23520252 0.25155112 -0.014835447 0.59839666 0.25676236 -0.4515212 0.84435904
-0.7519298 0.8481477 0.5506225 0.46289 0.07393099 0.2513147 -0.5748669 -0.81783205
-0.44831148 -1.0207523 -0.06759301 0.3965281 0.16423939 -0.5913554 -0.15697676 -0.4814816
-0.13831757 0.01741928 -0.13587339 0.4737671 -0.8886293 -0.025405193 0.12240257 -0.19237648
0.22322422 -0.5324852 0.1801881 -0.627225 -0.03836353 -0.035679106 0.28853536 -0.19915603
-0.20572832 0.23458453 0.11543737 -0.038404085 0.20303439 0.0359017 -0.1486957 0.14906828
0.33204877 0.13695648 0.81887835 -0.815105 0.80325294 0.82775205 -0.01838091 -0.36574295
-0.2834193 -0.7902725 0.2663429 0.108010866 -0.16984232 -0.1286034 -0.31418163 0.31788084
-0.052491937 -0.3888241 0.39628777 0.37718603 -1.0577004 0.18992622 -0.28647414 -0.31532136
-0.67408526 -0.12890454 -0.06303427 -0.38154188 0.44275492 -0.32335752 0.34291592 -0.2486778
0.3759018 -0.022956975 0.3216083 -0.21818845 0.37197638 0.3262629 -0.7841184 -1.0431749
00000000: 6d0d 84bd 324b 5b3e 9e9c 0e3f e3dd b3bf
00000010: 75df fe3e 702c f8be 193b abbe 29f0 dd3e
00000020: aca9 dbbe 1ed0 003f 9a2f 81bf 56ef bf3e
00000030: 1ec4 92bd a75f 293f 5320 a2be 5ede 97bc
00000040: 5849 5e3e e08e 59bb 9a59 913d 08d5 ffbe
00000050: d028 ba3e 8492 76bf 2e5a a8be 8d5d 97bf
00000060: 4171 273f 0d13 203f 4f15 603f 8f32 1bbf
00000070: b8c8 0a3f b8c0 cabe b54d cdbe 2fe3 313e
00000080: dfa1 e03d ca01 823f a140 4e3e 1c29 83be
00000090: 5124 8c3f 67cd 0cbf 52d3 e63d 6aba 32be
000000a0: cacc d0bd e243 70bd 0f15 0abf ab39 883e
000000b0: fdae 3d3f ee74 a73d 4b2b 763d 2a76 5b3e
000000c0: 163c 5abe 5091 3a3e 0257 5c3f 714e f83d
000000d0: d8c3 05bf 9494 fa3e 1a6a 2ebe c531 1b3f
000000e0: 1486 9b3e 58b9 643f b8b6 88bc 3f4e 02bf
000000f0: b7d2 833e 7f3b e43e 771f b83e efe5 25bf
00000100: 26c7 1cbf c979 893e 4625 903e f25d 2b3f
00000110: 25e4 ae3e 0e3b 44bf 5e72 7c3d 3c7d 6a3e
00000120: f5ee acbe 072d 0ebf db58 eabe 1319 593f
00000130: 7e12 c43d 4700 9cbe ea8b 3dbf eb14 623f
00000140: d553 8bbe e891 eb3e 930a 07be 54a0 093f
00000150: 1258 d2bd c0ee 78bd 0fa9 e63e 0853 56bf
00000160: 8f67 20bf 7942 1d3f 4bb6 9fbe f52b 333e
00000170: 9931 9d3e 6a34 963e 6506 be3d 45a7 0d3f
00000180: c3c1 f53e 36aa 823d 3a5c 673e 0a44 b5be
00000190: ff24 ed3e c289 a93f ba7d 04be 8a0c 063e
000001a0: 753c 00bf 4c74 b83d 833c 44bf 5b68 c93e
000001b0: 1560 a0bd f6ba 2cbe 375a 8f3e b948 95b9
000001c0: ae64 41bd c957 dc3e 60ff 513e a331 7e3f
000001d0: edf7 053f 4f52 3e3f 13c3 8b3e a030 02bf
000001e0: 3b5f 023f 59fe bc3e ffe5 383d a2cb fa3e
000001f0: c6a0 98be e6cf 543e 31c7 5b3f 2ff3 1cbf
00000200: 7e23 1a3f 3f2c 6d3f 8acb 343b d32c 49be
00000210: 5513 fdbe d8e8 b33e 2a70 8ebd 8cec 93bb
00000220: 215f b6bd 1e64 2cbf d641 dc3d 33da 4fbf
00000230: 57eb 383f 29f7 343f 6f47 6b3d 0d94 b73e
00000240: ceb0 7abf b0c1 023f d6dc c6be c6ef af3e
00000250: 8cd3 0cbf 27e0 bd3e 52fa 623b 4d74 f93c
00000260: 7e2c 0d3f 30db e5bd 7494 523e 2ee8 bbbd
00000270: ff6e 7fbf 4304 073d 2b81 48bf c0d1 a33e
00000280: 6cc2 5f3f ec4b 233e 2297 4dbf e724 533f
00000290: 5202 bbbe 2b45 663d 7a2c 96be 0e1a f13b
000002a0: 5779 3a3f eed8 70be 4fcb 803e 6010 73bc
000002b0: 8630 193f 5b76 833e c92d e7be ea27 583f
000002c0: 797e 40bf 3520 593f 99f5 0c3f ebff ec3e
000002d0: 2269 973d 52ac 803e 7a2a 13bf 715d 51bf
000002e0: 1589 e5be 03a8 82bf 346e 8abd bb05 cb3e
000002f0: 5f2e 283e 1163 17bf 84be 20be c284 f6be
00000300: 1fa3 0dbe e1b2 8e3c 6522 0bbe 9a91 f23e
00000310: 367d 63bf 8d1e d0bc 33ae fa3d 57fe 44be
00000320: e494 643e f350 08bf 3b83 383e d191 20bf
00000330: 1423 1dbd 4124 12bd e8ba 933e 8fef 4bbe
00000340: 72aa 52be ed36 703e 6e6a ec3d 9a4d 1dbd
00000350: 3fe8 4f3e a90d 133d b043 18be 5ba5 183e
00000360: 4c02 aa3e 523e 0c3e 03a2 513f b9aa 50bf
00000370: fca1 4d3f 8fe7 533f 9093 96bc a942 bbbe
00000380: 561c 91be 4c4f 4abf 195e 883e cd34 dd3d
00000390: 25eb 2dbe 9cb0 03be 6adc a0be 47c1 a23e
000003a0: c901 57bd f413 c7be 3be6 ca3e 871e c13e
000003b0: ba62 87bf 057c 423e bdac 92be cd71 a1be
000003c0: da90 2cbf 8dff 03be 1d18 81bd 7559 c3be
000003d0: c6b0 e23e 1e8f a5be ad92 af3e 65a5 7ebe
000003e0: 3376 c03e 4410 bcbc d8a9 a43e cb6c 5fbe
000003f0: b073 be3e ee0b a73e fcbb 48bf c186 85bf

network_body._body_endoder.seq_layers.0.bias f4 [128]
0.0022163657 0.004856619 -0.0021208026 -0.0012450044 0.0026406823 -0.00041485348 0.002785039 -0.0021291752
0.002994892 5.032706e-05 -0.0005061878 0.00018479904 0.0010958519 -0.004020377 -0.0015459319 -0.0014497166
0.000727231 0.0015483344 0.007009013 -0.0056593823 -0.0023166102 -0.0009774815 0.0022544705 0.0025699104
0.0042591877 -0.00039386624 -0.0010583757 0.0014207322 -0.0012179208 -0.0020507476 -0.0015438356 -0.0014661807
-0.0034569642 -0.0012523707 0.0004909478 0.00080002606 0.0004417828 0.002727181 0.0003169774 -0.0019010459
-0.0015599466 -0.0031308567 -0.0034677112 -0.0018097259 -0.0012353022 0.0003658161 0.0046009286 0.0040074107
-0.0006891392 -0.0018053299 -0.0011215822 -0.004225407 0.0017993654 0.0002541133 0.0014064532 0.00021192963
-0.0011750878 0.0012996678 0.00033203705 0.00091745815 -0.0041672867 -0.0058943005 0.0038056911 -0.0049579972
-0.0041440437 -0.002275669 -1.9416888e-05 0.00092182035 -0.00092663465 -0.0014793111 -0.00030687198 0.0006058095
-0.0010135303 0.0039035326 0.0055531417 -0.0013957126 0.0012816912 -0.0055926633 0.0008358648 0.0013270788
0.00032375992 -0.0013718867 0.003986004 0.0025161186 0.002632321 -0.005243772 -0.007136819 -0.00020495211
0.0024766605 0.0005220161 -0.0011027385 0.0018308526 -0.0008729947 -0.00066656055 -0.00084934355 -0.0021610085
0.0017014667 -0.0006777967 0.00085815595 0.0004846133 -0.0038243385 0.00022937078 -0.003874438 -0.003623165
0.0018022401 0.0015292123 -0.0034982904 0.004647623 -0.0020108044 -0.0033435677 -0.004128251 -0.0070199547
-0.005407562 0.0018250577 -0.0027938776 0.0024397364 0.0005995037 -0.00085404946 -0.0021110927 -0.0024618222
-0.0008700158 0.0022516656 -0.00030386265 -0.00044428662 0.0026605213 -0.0026607108 -0.0002035931 -0.004078043
00000000: 7240 113b 4624 9f3b 2afd 0abb 6a2f a3ba
00000010: 4c0f 2d3b b180 d9b9 3385 363b a289 0bbb
00000020: f345 443b 4516 5338 b0b1 04ba 9dc6 4139
00000030: b0a2 8f3a 5ebd 83bb dea0 caba 6b04 beba
00000040: a5a3 3e3a 7bf1 ca3a ddab e53b 5772 b9bb
00000050: 45d2 17bb d61e 80ba bdbf 133b f16b 283b
00000060: a890 8b3b d57f ceb9 32b9 8aba dd37 ba3a
00000070: a4a2 9fba d665 06bb 875a caba dc2c c0ba
00000080: 3c8e 62bb 9626 a4ba f3b2 003a d7b8 513a
00000090: 159f e739 81ba 323b fd2f a639 842c f9ba
000000a0: 1f77 ccba 0f2f 4dbb 8a42 63bb 5334 edba
000000b0: dde9 a1ba 01cb bf39 63c3 963b 9950 833b
000000c0: 59a7 34ba d2a0 ecba 0e02 93ba 4875 8abb
000000d0: afd8 eb3a 833a 8539 bd58 b83a 6d39 5e39
000000e0: 6705 9aba 9d59 aa3a 4215 ae39 9381 703a
000000f0: bc8d 88bb fa24 c1bb e768 793b b276 a2bb
00000100: c2ca 87bb 6423 15bb 73e1 a2b7 51a6 713a
00000110: 66e9 72ba 72e5 c1ba a9e3 a0b9 30cf 1e3a
00000120: 6fd8 84ba 69d2 7f3b 21f7 b53b 58f0 b6ba
00000130: 6cfe a73a a942 b7bb f01d 5b3a 60f1 ad3a
00000140: 52be a939 e1d0 b3ba 069d 823b 77e5 243b
00000150: 0583 2c3b f3d3 abbb fadb e9bb 6ae8 56b9
00000160: 784f 223b e8d7 083a c489 90ba 38f9 ef3a
00000170: afd9 64ba 1fbc 2eba 7ba6 5eba b59f 0dbb
00000180: c003 df3a 2bae 31ba dff5 603a b213 fe39
00000190: c1a1 7abb 4083 7039 49ea 7dbb 9f72 6dbb
000001a0: 2539 ec3a da6f c83a 9343 65bb 164b 983b
000001b0: b3c7 03bb c21f 5bbb 4846 87bb a607 e6bb
000001c0: eb31 b1bb c636 ef3a 7d19 37bb fce3 1f3b
000001d0: 0328 1d3a 4ae2 5fba 425a 0abb 8656 21bb
000001e0: c611 64ba ae90 133b c14f 9fb9 24ef e8b9
000001f0: 245c 2e3b 525f 2ebb 9b7b 55b9 1ba1 85bb

network_body._body_endoder.seq_layers.2.weight f4 [128, 128]
0.19559722 0.06476286 0.0150057385 -0.09626671 -0.00033578734 -0.1551849 -0.041534398 0.12175075
-0.041175995 -0.041292626 -0.035692483 -0.08458402 -0.08554944 -0.16897511 -0.074625924 -0.066005796
0.004420827 0.07244544 -0.10776346 0.062129267 0.10916803 0.059702136 -0.09174201 0.020375041
0.041683823 0.036956817 0.0829287 -0.05379378 0.04060512 -0.21490344 0.03420788 -0.07938884
-0.07326663 0.13266815 -0.06874977 -0.0636057 0.11405131 -0.03506913 -0.113819666 0.05291821
-0.01096277 0.1294512 0.006483797 -0.013814257 -0.12592226 -0.042419683 0.24703594 -0.1633492
-0.013252605 -0.064269215 0.024603503 -0.14926967 0.19880772 -0.09464984 0.020226063 0.037104607
0.15313031 -0.024235068 0.024768202 0.0122633455 0.08103398 0.0917211 -0.07618433 0.044386137
-0.042478483 -0.03391748 0.031014191 0.022956805 0.12209224 0.14499462 0.011094716 0.053843867
-0.016575696 0.064897135 0.12445358 -0.12713747 -0.073002376 -0.045696933 0.055905435 0.090512216
0.14526793 -0.041699294 -0.15747975 -0.05071767 -0.011166008 0.024575166 0.04609394 -0.063756764
-0.1336623 -0.03435647 -0.23465233 -0.022437595 0.03455499 -0.036866713 0.073947124 -0.06891006
-0.12290365 0.08712376 0.007634502 0.110393025 0.08141793 0.03400491 0.062215865 -0.090809196
0.040222038 0.06142075 0.031090327 -0.09298952 -0.07482965 0.06486723 0.0060216407 -0.16233982
-0.044381157 -0.0001608483 0.06204217 -0.11406454 0.018209515 -0.026523601 0.08631979 0.014090819
-0.122628964 -0.16143467 -0.030239174 -0.11443984 0.10169192 -0.09866181 0.041160826 0.09332326
-0.027095806 -0.16603754 -0.0187442 0.05425154 0.124424115 -0.037415463 0.042825088 0.08246777
-0.093360394 0.17257874 -0.024585724 -0.05525634 -0.061698917 0.056729842 -0.09853626 -0.08191685
-0.050800834 0.057441708 0.14517027 0.026991349 0.008285646 -0.048110966 -0.016385455 0.072411165
-0.05066517 -0.11967741 -0.002067977 -0.0022296137 -0.059896104 -0.0057693343 -0.032599434 0.017736612
-0.09186146 -0.108881354 0.1755697 -0.04710604 -0.017227292 -0.12706721 -0.0054662325 -0.058181364
0.034401592 0.013396962 0.1643996 0.07048223 -0.08807952 0.07024839 -0.108672485 0.10860812
-0.014429911 0.02123302 -0.049013708 0.061811402 -0.070567235 -0.013043933 0.04482483 -0.043870706
-0.14669174 -0.09799935 0.07758665 0.013932295 -0.009056427 -0.046631467 0.09098655 0.06671059
0.08584262 0.006432629 -0.05367194 -0.046772555 0.011262781 0.07094826 -0.019680211 0.023666294
0.0117583 0.023057386 0.047953945 -0.079776995 0.044236727 0.06474162 0.08986486 0.04122921
0.05694532 0.110269204 0.08199222 -0.011164081 0.02643159 -0.10277952 -0.01548676 -0.04621903
0.08800237 0.054358754 0.23592456 -0.006016758 -0.101585455 -0.09130313 -0.083172515 -0.19701998
-0.009705898 0.09765251 -0.035657562 0.01639297 -0.09310854 -0.09993708 -0.06818442 0.029357914
-0.0009956412 -0.28116772 0.06931092 0.014045833 0.0063522025 0.020877257 0.058761436 -0.17641339
-0.025461026 -0.11819275 -0.05507444 0.023515407 -0.09003563 -0.044133455 -0.031766236 -0.016430987
-0.06007632 -0.08033781 0.061170373 0.056183625 0.05110945 -0.14429763 0.050966367 0.09021064
00000000: a34a 483e 64a2 843d a1da 753c 7b27 c5bd
00000010: 9d0c b0b9 cae8 1ebe f91f 2abd 7558 f93d
00000020: 29a8 28bd 7522 29bd 4832 12bd 633a adbd
00000030: 8b34 afbd d007 2dbe 7ad5 98bd 0c2e 87bd
00000040: 96dc 903b 465e 943d 17b3 dcbd 427b 7e3d
00000050: 7d93 df3d 3a8a 743d 3ce3 bbbd 8fe9 a63c
00000060: a8bc 2a3d 0860 173d 86d6 a93d de56 5cbd
00000070: 8e51 263d a60f 5cbe 901d 0c3d 9e96 a2bd
00000080: d10c 96bd 29da 073e aecc 8cbd b543 82bd
00000090: bc93 e93d a6a4 0fbd 491a e9bd c4c0 583d
000000a0: 319d 33bc db8e 043e 0876 d43b 3255 62bc
000000b0: c4f1 00be 43c0 2dbd fdf6 7c3e 0345 27be
000000c0: 7421 59bc 949f 83bd 498d c93c 26da 18be
000000d0: 4094 4b3e c6d7 c1bd 21b1 a53c 00fb 173d
000000e0: 31ce 1c3e 9f88 c6bc afe6 ca3c 33ec 483c
000000f0: 25f5 a53d 46d8 bb3d 8806 9cbd 3dce 353d
00000100: ebfd 2dbd 0eed 0abd 7911 fe3c e90f bc3c
00000110: 7f0b fa3d 7879 143e 9dc6 353c 638b 5c3d
00000120: c1c9 87bc cae8 843d 85e1 fe3d 5330 02be
00000130: 4582 95bd b52c 3bbd 19fd 643d 785e b93d
00000140: 1ec1 143e e1cc 2abd 5f42 21be 55bd 4fbd
00000150: a2f1 36bc dc51 c93c 00cd 3c3d e892 82bd
00000160: c5de 08be 5fb9 0cbd b348 70be 0ccf b7bc
00000170: 8889 0d3d 8d01 17bd 9771 973d b820 8dbd
00000180: e9b4 fbbd f16d b23d d82a fa3b bd15 e23d
00000190: 72be a63d bc48 0b3d 10d6 7e3d 2cfa b9bd
000001a0: ddbf 243d 5394 7b3d 24b1 fe3c 4a71 bebd
000001b0: 4a40 99bd 1cd9 843d 2f51 c53b 693c 26be
000001c0: 04c9 35bd 63a9 28b9 ee1f 7e3d ab9a e9bd
000001d0: 1f2c 953c 0648 d9bc 6ec8 b03d 2edd 663c
000001e0: e524 fbbd 214f 25be 25b8 f7bc 6f5f eabd
000001f0: da43 d03d 340f cabd 4198 283d 4420 bf3d
00000200: 06f8 ddbc bf05 2abe 708d 99bc dd36 5e3d
00000210: 12d2 fe3d f540 19bd 5c69 2f3d dde4 a83d
00000220: bc33 bfbd 7bb8 303e 0068 c9bc 7954 62bd
00000230: 01b8 7cbd 8d5d 683d 61cd c9bd 05c4 a7bd
00000240: 8914 50bd ff47 6b3d 84a7 143e f61c dd3c
00000250: 85c0 073c 0110 45bd ca3a 86bc 4e4c 943d
00000260: 4886 4fbd 6e19 f5bd e686 07bb b61e 12bb
00000270: 9e55 75bd af0c bdbb fc86 05bd 5f4c 913c
00000280: dc21 bcbd 30fd debd 8bc8 333e 43f2 40bd
00000290: 4020 8dbc e81d 02be 151e b3bb 954f 6ebd
000002a0: afe8 0c3d ee7e 5b3c 5e58 283e fd58 903d
000002b0: 0963 b4bd 63de 8f3d ae8f debd ef6d de3d
000002c0: 6f6b 6cbc dff0 ad3c 99c2 48bd f42d 7d3d
000002d0: 8e85 90bd 38b6 55bc 3e9a 373d c5b1 33bd
000002e0: 5c36 16be e2b3 c8bd c0e5 9e3d 4844 643c
000002f0: 6861 14bc a300 3fbd 2857 ba3d 909f 883d
00000300: 41ce af3d cec8 d23b 1cd7 5bbd 9494 3fbd
00000310: 8787 383c 524d 913d 6538 a1bc d1df c13c
00000320: e2a5 403c d8e2 bc3c 5b6b 443d 1f62 a3bd
00000330: 9231 353d 4197 843d 110b b83d f6df 283d
00000340: 7f3f 693d d2d4 e13d 89eb a73d 8de9 36bc
00000350: 1087 d83c 127e d2bd 2ebc 7dbc 2a50 3dbd
00000360: 963a b43d 49a7 5e3d 3596 713e 3928 c5bb
00000370: 090c d0bd 23fd babd 5a56 aabd 9bbf 49be
00000380: 7d05 1fbc 0afe c73d aa0d 12bd 8d4a 863c
00000390: b1af bebd d0ab ccbd 46a4 8bbd 0280 f03c
000003a0: 2d80 82ba 37f5 8fbe e2f2 8d3d 7e20 663c
000003b0: 2326 d03b c806 ab3c d5af 703d b6a5 34be
000003c0: a493 d0bc 0a0f f2bd bc95 61bd 62a3 c03c
000003d0: 9a64 b8bd 48c5 34bd 501d 02bd 479a 86bc
000003e0: 9612 76bd 2688 a4bd c98d 7a3d cd20 663d
000003f0: 2558 513d c2c2 13be 1cc2 503d 5bc0 b83d

network_body._body_endoder.seq_layers.2.bias f4 [128]
0.0005179022 0.0068105073 -0.0040780846 -0.0031482594 0.0011980775 -0.0023748884 -0.0040160767 -0.0018272304
-0.0027862985 5.1737323e-05 -0.0021047217 0.0004752454 0.0041408925 -0.0019456019 -0.0014904267 -0.001886598
-0.0037871243 -0.0022268817 -0.0024349352 -0.0007600214 0.0023105205 0.001168095 0.0026076438 0.0059035867
-0.0033143847 -0.0009088135 0.0015083421 -0.0001330217 -0.00085968466 -0.0020167606 -0.00018742974 0.004488151
-0.0017452739 -0.0011341722 0.0005916841 0.0024783434 1.5442782e-05 -0.007791373 -0.0034776432 -0.002112666
-0.0005609174 0.0015891425 0.0038420733 -0.0021296525 0.0043676095 0.0038392984 0.0032016642 -0.00125265
-0.0011163333 0.0025437062 -0.001307843 -0.0033638142 -0.003564202 -0.0018267337 -0.0016500609 0.0030703747
-0.0040271557 -0.0003627856 -0.0008718858 0.001862643 0.0025879224 0.007145474 -0.0028444282 0.0064464076
-0.000831617 -0.0022433978 -0.001926799 0.0016003498 0.00035884182 -0.001876535 -0.0011777801 -0.00066399464
0.00013369706 -0.000112101065 0.00045864444 0.0018182648 -0.001408341 0.0018749302 -0.00055889384 0.00064330566
-0.0013021688 -0.0018879278 -0.000909841 -0.0012682574 0.0017734201 -0.0029558952 -0.0010643546 0.00019835256
0.00019364434 -0.0021225754 -0.0007596741 -0.00059025054 0.0025227675 0.0022314782 -0.002341504 -0.00043772545
-0.0019051477 -0.0020549411 -0.00547669 -0.0034802628 0.0019304929 0.0017681654 -0.00024306925 0.00054323353
-0.005922425 -0.002243272 0.0017623637 -0.0009106894 0.001494545 -0.0011936104 -0.001083808 0.0032338647
0.00028364197 -0.001113852 -0.0007801526 -0.0035792028 0.0012230724 -0.0044998946 -0.0013031341 -0.0026715826
0.0022188136 0.004656297 -0.0016531828 -0.001420264 0.0018461416 0.00034071048 0.0022144688 0.00019079562
00000000: d4c3 073a ad2a df3b 74a1 85bb 0753 4ebb
00000010: cf08 9d3a 04a4 1bbb 4b99 83bb ae7f efba
00000020: 559a 36bb 8700 5938 5fef 09bb 5c2a f939
00000030: 53b0 873b 9103 ffba 6c5a c3ba b947 f7ba
00000040: 6731 78bb e0f0 11bb 6f93 1fbb 2c3c 47ba
00000050: 1a6c 173b c41a 993a 01e5 2a3b e072 c13b
00000060: 2636 59bb 713d 6eba 90b3 c53a be7b 0bb9
00000070: 765c 61ba a12b 04bb ca88 44b9 5711 933b
00000080: adc1 e4ba 81a8 94ba 3f1b 1b3a b46b 223b
00000090: 1f8b 8137 c64e ffbb 2ce9 63bb a774 0abb
000000a0: 880a 13ba c64a d03a 4bcb 7b3b a491 0bbb
000000b0: 2a1e 8f3b bd9c 7b3b 03d3 513b f62f a4ba
000000c0: ee51 92ba 4fb4 263b ee6b abba 7073 5cbb
000000d0: 6395 69bb 036f efba db46 d8ba 5738 493b
000000e0: 3bf6 83bb 4234 beb9 448f 64ba ee23 f43a
000000f0: 229a 293b 9524 ea3b 9669 3abb 633c d33b
00000100: df00 5aba f805 13bb a58c fcba d4c2 d13a
00000110: ef22 bc39 11f6 f5ba be5f 9aba ed0f 2eba
00000120: 0831 0c39 cd17 ebb8 3776 f039 d852 ee3a
00000130: 1598 b8ba 38c0 f53a bb82 12ba 83a3 283a
00000140: 89ad aaba 5874 f7ba 6582 6eba a83b a6ba
00000150: 1b72 e83a b1b7 41bb d081 8bba dcfc 4f39
00000160: 020d 4b39 e81a 0bbb de24 47ba 0bbb 1aba
00000170: 0455 253b fe3d 123b eb73 19bb 847e e5b9
00000180: 26b6 f9ba 31ac 06bb ce75 b3bb 1f15 64bb
00000190: 9808 fd3a c9c1 e73a 68e0 7eb9 c967 0e3a
000001a0: e710 c2bb dc03 13bb 1dff e63a 55bb 6eba
000001b0: 9ce4 c33a eb72 9cba 900e 8eba 3fef 533b
000001c0: c8b5 9439 acfe 91ba 2883 4cba 0f91 6abb
000001d0: 804f a03a da73 93bb edcd aaba b815 2fbb
000001e0: 8469 113b da93 983b 9caf d8ba 2728 baba
000001f0: 3cfa f13a 63a1 b239 9f20 113b 4f10 4839

action_model._continuous_distribution.log_sigma f4 [1, 2]
0.0021664395 0.005978189
00000000: d3fa 0d3b afe4 c33b

action_model._continuous_distribution.mu.weight f4 [2, 128]
0.012858652 -0.025724022 -0.02882951 0.02716331 -0.015117506 -0.014347133 -0.016377773 -0.013376524
-0.00979499 0.0065226983 -0.007609632 0.018266037 0.008515383 0.0049771615 -0.008879688 -0.002561957
0.013038311 0.02175678 0.01778442 -0.002430287 -0.0011037162 0.015234446 0.015223028 0.0023002524
-0.002161288 0.051697064 0.013656352 0.03127513 0.009541524 -0.025101194 -0.0044797086 0.002173293
0.008015542 -0.00024344944 -0.0037969379 -0.010688204 -0.0022713745 0.022125997 -0.008177989 -0.0040581343
-0.015671574 0.001384072 0.0045007705 0.0034175115 -0.021652296 0.013085523 -0.016032444 0.018078499
0.008899656 -0.018555725 0.012225081 0.010252258 -0.009694494 -0.027638532 -0.009557022 0.0025736399
-0.014514118 0.01659317 -0.009525275 0.018092092 0.0016087934 -0.012646199 -0.0012206833 -0.012446706
-0.025317568 -0.0050041396 0.0067765163 -0.00431336 -0.008826886 -0.025830332 -0.0023968378 0.01802774
0.02699462 0.0041591176 -0.0014509363 0.0036079115 0.0007179647 -0.026106875 0.009774413 -0.023172716
-0.009700644 0.009267306 -0.009782752 -0.009533644 -0.031809993 -0.03607799 0.051600613 0.005248503
0.044918574 -0.006676026 0.036908347 -0.036593374 0.019141639 -0.020969361 0.009838262 -0.0069250544
0.004700656 -0.011946582 0.0049959286 -0.018065384 0.005041827 0.0032581869 -0.013088394 -0.0072207493
-0.005535982 0.008216127 -0.023469485 0.030162573 0.009308422 0.014995164 -0.0012063002 0.0154154245
-0.0176374 -0.021224137 0.037120532 -0.0027652488 -0.013889699 0.0019751906 -0.016177833 -0.008427727
0.01060402 0.005485511 -0.028816933 0.015372393 0.019708406 -0.015639031 0.0005168144 -0.012603879
0.009453238 -0.021559104 -0.0080033345 -0.019547075 0.0071732923 -0.017283162 -0.00937077 -0.012151547
-0.014546126 0.029055009 -0.023725366 0.032811902 0.03194146 -0.029618079 -0.02462168 -0.008360949
-0.03294642 -0.037309237 0.01636556 0.00063012104 -0.008264883 0.009971688 0.01672693 0.0021162368
0.004662541 0.0017221031 0.023329226 -0.020315686 -0.030741546 -0.015459688 0.010870977 0.0067353332
-0.015256533 -0.0022885043 0.022464344 0.0064183525 0.025248807 -0.0021879263 -0.018363534 -0.022723211
-0.013565248 0.03476953 -0.00053135824 -0.01754337 0.0121452715 0.01671479 -0.02818495 -0.013603323
-0.014136907 0.011100994 0.000169741 -0.017290568 -0.024100997 -0.024090527 -0.0038470093 -0.004707637
-0.020345824 0.015661353 0.014048459 0.021582754 0.019450152 0.024510419 -0.021075292 0.005933537
0.022108667 -0.0019677246 -0.037856795 -0.031463254 0.004587427 -0.026067331 0.010121351 -0.020000253
-0.00046420548 0.009098468 0.034579393 0.017158516 -0.012567927 0.006708732 -0.0056633726 -0.031682685
0.0066346955 0.0089724865 -0.02340254 -0.010879197 -0.011192265 -0.007777905 -8.464129e-05 0.014214008
0.011736436 9.2001406e-05 0.014547362 0.0007459685 0.028203405 -0.043015774 -0.006204892 0.012637519
-0.010141812 -0.048621193 -0.005561419 -0.014002263 -0.019370891 0.023433445 0.007730221 0.017724091
0.0014982892 -0.012067561 0.009177182 -0.0009976423 0.013132275 -0.005039351 0.014572716 0.00058489025
0.006004435 -0.018659335 0.006345101 -0.010383309 0.026137386 -0.0028679394 -0.027669376 -0.013113129
0.0067523965 0.01556119 -0.027906435 0.020620262 0.023100795 -0.014657098 0.007402934 -0.004760132
00000000: 18ad 523c 2fbb d2bc dd2b ecbc 9785 de3c
00000010: 6aaf 77bc 3d10 6bbc ae2a 86bc 3529 5bbc
00000020: 2a7b 20bc 5cbc d53b 385a f9bb a8a2 953c
00000030: 1b84 0b3c 7517 a33b 1c7c 11bc 82e6 27bb
00000040: a49e 553c 463b b23c a2b0 913c 7345 1fbb
00000050: 92aa 90ba e699 793c 026a 793c d5bf 163b
00000060: 65a4 0dbb 4dc0 533d e4be 5f3c 5a1a 003d
00000070: 0d54 1c3c 05a1 cdbc 85ca 92bb ce6d 0e3b
00000080: 9f53 033c 7646 7fb9 0cd6 78bb 941d 2fbc
00000090: 57db 14bb 9441 b53c f9fc 05bc 19fa 84bb
000000a0: ac61 80bc c069 b53a 337b 933b 54f8 5f3b
000000b0: 2860 b1bc a964 563c 7956 83bc 5c19 943c
000000c0: ddcf 113c 2d02 98bc b54b 483c 16f9 273c
000000d0: a8d5 1ebc 346a e2bc 0e95 1cbc 83aa 283b
000000e0: a0cc 6dbc 66ee 873c e60f 1cbc de35 943c
000000f0: 26de d23a 0132 4fbc 56ff 9fba 45ed 4bbc
00000100: ca66 cfbc c4f9 a3bb 8a0d de3b 1657 8dbb
00000110: a59e 10bc 229a d3bc 4414 1dbb e9ae 933c
00000120: d223 dd3c 3549 883b 582d beba b672 6c3b
00000130: cc35 3c3a 16de d5bc dc24 203c b5d4 bdbc
00000140: 73ef 1ebc e6d5 173c d647 20bc 0033 1cbc
00000150: 324b 02bd 84c6 13bd 2a5b 533d a2fb ab3b
00000160: 8afc 373d 91c2 dabb 352d 173d efe2 15bd
00000170: edce 9c3c f0c7 abbc a930 213c 91eb e2bb
00000180: f607 9a3b 99bb 43bc e3b4 a33b dbfd 93bc
00000190: e935 a53b 4e87 553b b470 56bc 099c ecbb
000001a0: 2f67 b5bb ef9c 063c 1443 c0bc 8017 f73c
000001b0: 5a82 183c 47ae 753c b81c 9eba fa90 7c3c
000001c0: 4f7c 90bc 3ede adbc b30b 183d 2d39 35bb
000001d0: 9f91 63bc 3372 013b 6087 84bc 7314 0abc
000001e0: 7cbc 2d3c cdbf b33b 7d11 ecbc 7ddc 7b3c
000001f0: 8673 a13c 6d1d 80bc d47a 073a 8080 4ebc
00000200: c1e1 1a3c b89c b0bc 6b20 03bc 3021 a0bc
00000210: f00d eb3b 6b95 8dbc dc87 19bc 4817 47bc
00000220: e052 6ebc c504 ee3c b35b c2bc c665 063d
00000230: 0cd5 023d 9da1 f2bc 68b3 c9bc 5dfc 08bc
00000240: d3f2 06bd 92d1 18bd 1111 863c b52e 253a
00000250: 6f69 07bc 4a60 233c ea06 893c 90b0 0a3b
00000260: 3bc8 983b 31b8 e13a ef1c bf3c 156d a6bc
00000270: b2d5 fbbc a24a 7dbc 2f1c 323c 12b4 dc3b
00000280: 8af6 79bc bbfa 15bb 2507 b83c 0b51 d23b
00000290: 96d6 ce3c 5063 0fbb 1f6f 96bc 0726 babc
000002a0: c640 5ebc 7f6a 0e3d d94a 0bba 1db7 8fbc
000002b0: f6fc 463c 75ed 883c 20e4 e6bc 79e0 5ebc
000002c0: 7c9e 67bc f2e0 353c 81fc 3139 f3a4 8dbc
000002d0: 746f c5bc 7f59 c5bc 1b1e 7cbb 8542 9abb
000002e0: 49ac a6bc 3d4c 803c 822b 663c 51ce b03c
000002f0: ed55 9f3c 13ca c83c 17a6 acbc 1e6e c23b
00000300: 3c1d b53c f1f4 00bb ba0f 1bbd 9ddf 00bd
00000310: 2052 963b 288b d5bc 06d4 253c 92d7 a3bc
00000320: 9b60 f3b9 be11 153c 1fa3 0d3d 0490 8c3c
00000330: b5e9 4dbc ecd4 db3b d093 b9bb b4c5 01bd
00000340: dc67 d93b 5601 133c afb6 bfbc a93e 32bc
00000350: c35f 37bc ccdd febb 7281 b1b8 dfe1 683c
00000360: 2e4a 403c e1f0 c038 0f58 6e3c 198d 433a
00000370: d40a e73c 4f31 30bd 6852 cbbb 990d 4f3c
00000380: d829 26bc 0427 47bd 903c b6bb bf69 65bc
00000390: b4af 9ebc 7ff7 bf3c cb4d fd3b 1d32 913c
000003a0: 3e62 c43a 05b7 45bc e45b 163c 52c3 82ba
000003b0: c128 573c 2421 a5bb 67c2 6e3c 5253 193a
000003c0: dac0 c43b 76db 98bc 91ea cf3b c11e 2abc
000003d0: 121e d63c 0af4 3bbb e3aa e2bc 73d8 56bc
000003e0: 3543 dd3b 5df4 7e3c 099c e4bc d3eb a83c
000003f0: e13d bd3c 5324 70bc 5094 f23b e2fa 9bbb

action_model._continuous_distribution.mu.bias f4 [2]
5.0694693e-05 0.00189932
00000000: 03a1 5438 9bf2 f83a

action_model._discrete_distribution.branches.0.weight f4 [2, 128]
0.0111878505 0.0030310452 -0.006847758 0.0043500653 0.011343658 0.00984975 -0.0030494437 0.0016058038
-0.0091583505 0.0011711355 -0.010884788 -0.0077498206 0.00061766093 0.0100885695 0.0006706027 0.00469407
0.008372648 0.012596533 0.016396781 0.0023593807 0.015310887 -0.005083776 0.010109862 0.0113407895
-0.010085576 -0.00901278 -0.023940101 -0.025279883 0.004450209 -0.00063355366 -0.009196771 0.011847151
0.004110498 -0.010629055 -0.00599393 0.0016898053 -0.0019099825 -0.0075297235 -0.0006819188 -7.7688834e-05
0.013062882 -0.00059594575 0.006071394 0.004310332 0.0012236373 0.01250119 -0.004099418 -0.005441357
0.013462245 0.014498414 -0.004976225 -0.0089100525 -0.0013651744 0.023376944 0.010386891 0.0067808894
0.0049486924 -0.0032627508 -0.012360819 0.004529839 -0.0032092351 0.00416661 0.0041477303 0.0024644688
-0.0010117156 0.006244496 0.0041652424 -0.0017773899 0.005410908 0.014436275 0.004844341 0.003678213
0.015738362 -0.005233723 -0.0005059 -0.00018305049 -0.0033773293 -0.007591754 0.008102325 -0.0025562204
0.0092866635 0.0074187606 0.0077621723 0.005070024 -0.001596309 0.0015211327 0.0038953638 0.010312904
0.0023767885 0.0078964075 -0.0070969225 -0.0155634275 0.014309935 -0.0018790314 0.008618836 -0.0143045075
-0.0068274927 0.0009081455 -0.011916187 0.0014891739 -0.016997673 0.008624313 0.004160349 -0.013862919
0.009427307 -0.0072512855 0.017326554 0.01066222 -0.0027590033 0.01080015 0.008216701 0.0075018853
-0.0001599924 0.004227614 -0.012077964 0.01413777 -0.0028083564 -0.0026877015 -0.014139002 -0.001996006
-0.011034743 0.011980344 0.0006975785 0.004013036 -0.0032947017 -0.01422874 -0.0058418247 0.005682966
0.010529994 0.0057276255 -0.0038913698 0.0024155907 -0.014587638 0.00082909066 -0.0150905475 0.0036252688
0.009305361 0.0054894774 -0.0009964382 0.01300203 0.018541938 -0.0034540172 -0.0011734688 -0.00091626006
-0.010113714 -0.00800646 0.013378721 0.003593343 -0.019710584 0.0005285937 -0.00026856174 -0.010385854
0.0017277428 -0.004033695 0.021155797 0.00514674 -0.005294513 0.002470644 0.003641272 0.001888884
-0.0017275801 0.0011157555 0.006171249 0.008476236 -0.00031711019 0.0029225491 0.0046963156 -0.01347119
-0.008957816 0.0063373945 -0.008931354 0.003049458 -0.008756605 -0.0010910948 -0.0110218 -0.00025206964
0.0020871693 0.0058270833 -0.0033288857 0.016916078 -0.014398146 0.0026751282 -0.006601601 -0.013894288
0.008886115 0.0021645173 -0.009268067 -0.018042043 -0.024205424 -0.00035764225 0.017225292 0.010932984
-0.0020282287 -0.010154711 -0.0052947714 0.007889665 -0.0149694225 0.005160255 0.013625481 0.0027851663
-0.010677069 0.004405151 0.0016947759 0.010499817 0.0013092539 -0.003796652 0.012763695 0.0008897542
-0.013214362 -0.0028179048 -0.000748911 -0.0052284687 0.0059744436 -0.0013417487 -0.008261084 -0.0093793925
0.001619541 0.019967275 0.0013421897 0.0016355383 -0.0021412063 0.015259155 0.0152688045 0.00024033581
-0.0012107079 0.0009304638 -0.0029423295 0.0009823983 0.013260979 -0.005244398 -0.0010629321 0.013254234
0.015138236 0.009984181 -0.0045790174 0.010408995 -0.0036643962 -0.012074349 -0.0031999703 -0.022985311
-0.0058618914 -0.019869683 0.008472792 0.004689795 -0.021583078 -0.0053067575 -0.009851842 0.0039336537
0.008887982 -0.009899093 -0.006771711 0.018435288 -0.0065557654 0.01263175 -0.019000502 -0.006811883
00000000: 3f4d 373c 80a4 463b 2863 e0bb fe8a 8e3b
00000010: c0da 393c d960 213c 2dd9 47bb d679 d23a
00000020: e80c 16bc c980 993a 1c56 32bc 35f2 fdbb
00000030: 86ea 213a 874a 253c 63cb 2f3a b7d0 993b
00000040: 6e2d 093c b061 4e3c 8b52 863c d79f 1a3b
00000050: 84da 7a3c ce95 a6bb d6a3 253c b8ce 393c
00000060: f93d 25bc 57aa 13bc 081e c4bc c217 cfbc
00000070: 0fd3 913b 1115 26ba 0eae 16bc 8e1a 423c
00000080: 5bb1 863b 7d25 2ebc bb68 c4bb 757c dd3a
00000090: 6158 faba e6bb f6bb ccc2 32ba e0ec a2b8
000000a0: b305 563c 3e39 1cba 8bf2 c63b af3d 8d3b
000000b0: 7462 a03a cbd1 4c3c 6954 86bb 694d b2bb
000000c0: c090 5c3c c18a 6d3c 9a0f a3bb 78fb 11bc
000000d0: a7ef b2ba 0181 bf3c c72d 2a3c 3932 de3b
000000e0: a428 a23b e0d3 55bb 0885 4abc 0b6f 943b
000000f0: 0852 52bb 0f88 883b afe9 873b ed82 213b
00000100: 8b9b 84ba a19e cc3b 967c 883b 4ff7 e8ba
00000110: fc4d b13b 2086 6c3c 47bd 9e3b 2d0e 713b
00000120: bded 803c a77f abbb 609e 04ba 3ef1 3fb9
00000130: 2f56 5dbb 40c4 f8bb 9dbf 043c 4386 27bb
00000140: 1727 183c 1319 f33b d259 fe3b 7222 a63b
00000150: 3e3b d1ba be60 c73a 5c49 7f3b 74f7 283c
00000160: e5c3 1b3b ef5f 013c 4d8d e8bb bffd 7ebc
00000170: 3874 6a3c d549 f6ba 0536 0d3c 745d 6abc
00000180: 29b9 dfbb 9d10 6e3a 1c3c 43bc 6230 c33a
00000190: b43e 8bbc fe4c 0d3c 8953 883b 4c21 63bc
000001a0: fe74 1a3c 319c edbb 6bf0 8d3c 98b0 2e3c
000001b0: 65d0 34bb 1df3 303c 589f 063c 60d2 f53b
000001c0: a2c3 27b9 cc87 8a3b a7e2 45bc 1ba2 673c
000001d0: 670c 38bb 2624 30bb 46a7 67bc 6ccf 02bb
000001e0: 11cb 34bc 3449 443c b3dd 363a c97f 833b
000001f0: eceb 57bb a91f 69bc c76c bfbb 2d38 ba3b
00000200: ff85 2c3c ceae bb3b 5a06 7fbb e34e 1e3b
00000210: fd00 6fbc 5557 593a 583e 77bc eb95 6d3b
00000220: 8375 183c 13e1 b33b eb9a 82ba 7706 553c
00000230: 43e5 973c cb5c 62bb 14cf 99ba 2c31 70ba
00000240: feb3 25bc 872d 03bc 6c32 5b3c 4b7e 6b3b
00000250: 1778 a1bc 5391 0a3a bfcd 8cb9 6e29 2abc
00000260: 6e75 e23a 162d 84bb ec4e ad3c fca5 a83b
00000270: 987d adbb 87ea 213b 68a2 6e3b 6e94 f73a
00000280: f86f e2ba 8b3e 923a 3038 ca3b e9df 0a3c
00000290: cf41 a6b9 3d88 3f3b 8de3 993b 44b6 5cbc
000002a0: cec3 12bc eba9 cf3b d054 12bc 6ad9 473b
000002b0: dd77 0fbc 1103 8fba c894 34bc 3728 84b9
000002c0: e4c8 083b 1ef1 be3b 6f29 5abb 9693 8a3c
000002d0: 34e6 6bbc 3451 2f3b 3e52 d8bb dea4 63bc
000002e0: 1197 113c 93da 0d3b 17d9 17bc e8cc 93bc
000002f0: 744a c6bc ee81 bbb9 0e1c 8d3c 4220 333c
00000300: 08ec 04bb f25f 26bc c37f adbb a743 013c
00000310: 4f42 75bc 5b17 a93b 693d 5f3c 5687 363b
00000320: e0ee 2ebc 1659 903b 3e23 de3a 6d07 2c3c
00000330: 459b ab3a 40d1 78bb d11e 513c 653e 693a
00000340: 0d81 58bc 99ac 38bb 9152 44ba 9353 abbb
00000350: 44c5 c33b 9edd afba 7f59 07bc 06ac 19bc
00000360: c746 d43a 6992 a33c 6aec af3a 8f5f d63a
00000370: 7b53 0cbb 8901 7a3c 022a 7a3c a702 7c39
00000380: 9eb0 9eba 5eea 733a 19d4 40bb d1c3 803a
00000390: 9444 593c 33d9 abbb 1552 8bba 4928 593c
000003a0: 5d06 783c b194 233c 950b 96bb 7d8a 2a3c
000003b0: 5e26 70bb 7ed3 45bc 98b6 51bb b14b bcbc
000003c0: 1c15 c0bb bfc5 a2bc 77d1 0a3c daac 993b
000003d0: ffce b0bc 4fe4 adbb 9f69 21bc e1e5 803b
000003e0: e69e 113c ce2f 22bc 3be5 ddbb 9a05 973c
000003f0: bfd1 d6bb 66f5 4e3c f1a6 9bbc 3736 dfbb

action_model._discrete_distribution.branches.0.bias f4 [2]
0.00038910608 -0.00038910544
00000000: ef00 cc39 d900 ccb9
