results/CombatTest1/MoveToGoal/MoveToGoal-499993.onnx (onnx, 77714 bytes, 9 tensors)

network_body._body_endoder.seq_layers.0.weight f4 [128, 4]
00000000: ff7e 1a3e 9660 07bd da2f 163f f69f 8ebe
00000010: 6e84 90be 5db7 d83e a815 4d3f cfee a5be
00000020: 50ca 693e ecac 00bf 8c1c 20bd 24aa 0a3f
00000030: 58de 0a3f 259c d4be 3a3d 953e 9149 f1be
00000040: 99ca 08bf 0acc 33be d83d 283f bdd9 943c
00000050: f369 d2be b853 7e3e a207 1fbe e817 0c3f
00000060: 196e ae3a d560 893e b25d a2bd b9ad ad3e
00000070: f644 d5be 3a78 85bd 5dec b53e bbba e2bd
00000080: c289 2abf 574a 0c3f 4ce3 c1bb ccdf 2fbe
00000090: e883 1a3f a41b aabc 57c1 2e3f 5544 dbbe
000000a0: 3687 9d3e ed69 cbbe 6232 5a3e 2e56 c83d
000000b0: c013 80bd ce0a bbbe fe96 11bf 2faa afbd
000000c0: 5159 fe3e 12fb 2b3e 7f1e 29bf 1408 a73e
000000d0: 9c73 b1be ea4f 013e d3bd a43e 1ece 8ebe
000000e0: 85c3 85be 3bb0 bc3e 729a c0bd b0a0 1abf
000000f0: 16bf ec3e 3ce2 c8bd 3873 bfbe 1401 aa3d
00000100: 020f 65bf 9140 adbe 4410 d3be b5ca 103f
00000110: 25f2 85be 3e7d 06bf e076 4abf b8e3 89be
00000120: fcf0 11bf 3bd3 da3d d1aa be3e ad85 6abf
00000130: 4647 303f b911 293f 756b b53e cb5f 0e3e
00000140: cee0 5cbf 378d 343e d6e4 0abd 5b5d 143c
00000150: 72e5 793f a0f3 42be 12b3 65be 3d52 68be
00000160: 9acc 1fbe 7637 623f 6346 a63f 53cf 9ebe
00000170: 0aa0 bdbe 69ca b2be e6e8 4a3d 812d 33be
00000180: c96f a1be 6683 0d3f 2f98 a3be ba6d 6bbe
00000190: 10b4 8fbe 9a3a 49bf 8f30 4ebf 423e 67be
000001a0: 7289 7a3d 4f6a 363c a085 1b3f 1075 17be
000001b0: 118c 81be fecc 1d3f d28c e4be f387 a7be
000001c0: 5e3c df3e 17e2 813c cd64 513e 33cf 5abe
000001d0: 5dc1 49be ff05 273f aa70 bfbe aa12 7cbe
000001e0: 520e 68bf cc95 a0bd b97d 593e 5cf4 08be
000001f0: 00d1 2cbe 1289 563e 5e6d 243e 22f2 1d3f
00000200: a71b 4c3e e2e0 c8be 1755 a1be d1ee 293e
00000210: d1e2 21bf f01f 48bf b23d 1cbe 377b 3abf
00000220: 920e 9d3f 5cbe dfbe 1e61 4dbf cbd4 cd3c
00000230: 6e44 25bf bb3f ac3e 1389 50bf 16a8 383f
00000240: 9611 6d3e e3d3 783e 0a5f 2fbd 51b5 ffbe
00000250: 2b34 2dbe 98e4 02bf b378 bf3e e497 fa3e
00000260: 7b72 303b 0ee8 43bf 5952 51bc f3a6 6b3e
00000270: d1fb 48bf 0610 cf3d dc32 6d3f 8522 ea3e
00000280: 6155 5a3e 3acb 22bf 525f 913c 55d2 463f
00000290: 2ca7 013f f2a8 273e ebb8 14bf 1da5 373e
000002a0: 2416 f33e 4f61 ffbe cc68 90be c2af 33be
000002b0: 7542 8bbf 9693 d5be 740e 38be 16e3 343e
000002c0: ee9a 333f 9c8f 14be d700 143f 5153 3cbd
000002d0: 40bc a3be c4a0 8bbe 9b1b 5d3b f3b5 cfbf
000002e0: 4125 703f 1f5f d9bd 00a5 5abe 00b3 963e
000002f0: a649 dbbc 019b 41bd 61f2 7cbe 13da c0be
00000300: ced7 823e d983 d7be 6c13 22bf 8d25 50bd
00000310: a6e8 c43e 813c 5c3e 9a0e e3be ef96 86be
00000320: a826 a2be 70ed 9a3e 56a3 aabe 71ee 2cbf
00000330: 21d5 623e 9f53 eb3d 08a9 553e 3d5d 173f
00000340: e60d ffbd 66fd c73d 7ed4 e73e 0d65 b43c
00000350: 00c9 c23d 2db2 e9be ec0e 89bf 3eb3 da3e
00000360: 3dbf bb3e 95c8 1a3e 3903 0d3f d31c 993e
00000370: 7b5f 6a3f f317 1ebd 45f5 b53d 3386 773e
00000380: e57a 78be c251 853e 1999 663e 297d 5fbe
00000390: 8649 6a3f f894 39bf f680 09be 8fb5 ac3e
000003a0: df78 1c3d 9bdc 96be 5a29 9ebe 38fc 983e
000003b0: d10e c4bc 0629 6abf 9271 37bf a6cc fbbe
000003c0: ab7f e13d 3ca4 df3e cd37 a53f 5249 09bf
000003d0: 5aac ba3e 7e96 27be 5c31 ecbe f2c1 81bf
000003e0: 3cb6 38be e296 2cbf 18fd 46bf f8c7 bbbe
000003f0: 4645 61bf 1da6 903d 04c4 7c3e 44bf b1be
0.15087508 -0.033051096 0.58666766 -0.27856416 -0.28226036 0.42327395 0.8011117 -0.3240876
0.22831082 -0.5026386 -0.039089724 0.54165864 0.5424552 -0.4152538 0.29148275 -0.4712644
-0.5343414 -0.17558303 0.65719366 0.018170232 -0.41096458 0.24836624 -0.15530255 0.5472398
0.0013307958 0.2683169 -0.07928027 0.33921602 -0.41654176 -0.06517072 0.35531893 -0.11070772
-0.6661645 0.54800934 -0.0059169885 -0.17175215 0.6035752 -0.020765133 0.68263763 -0.4282557
0.3076722 -0.39729252 0.21308282 0.097820625 -0.06253767 -0.3653168 -0.5687102 -0.08577382
0.49677518 0.16794994 -0.6606216 0.3262335 -0.34658515 0.12628141 0.32176074 -0.2789163
-0.26125732 0.36853203 -0.09404458 -0.6040144 0.46239537 -0.09808776 -0.37392592 0.08300987
-0.89476025 -0.33838323 -0.41223347 0.56559306 -0.26161304 -0.52534854 -0.7908764 -0.26931548
-0.5700834 0.1068482 0.37239698 -0.91610223 0.68858755 0.6604267 0.35433546 0.1390373
-0.86280525 0.17631994 -0.03390964 0.009055461 0.9761573 -0.19038248 -0.22431591 -0.22687621
-0.15605393 0.88365877 1.299023 -0.3101755 -0.37036163 -0.34920052 0.049538516 -0.17497827
-0.31530598 0.55278623 -0.31952044 -0.22991076 -0.28067064 -0.78605044 -0.80542845 -0.22582343
0.061166234 0.011133744 0.6075077 -0.1479075 -0.25302175 0.6164092 -0.44638687 -0.3272091
0.43600744 0.015854878 0.20448609 -0.21368103 -0.19702668 0.65243524 -0.37390643 -0.24616495
-0.9064685 -0.078410715 0.21239366 -0.13374466 -0.16876602 0.20950726 0.16057345 0.6169759
0.19932424 -0.39234072 -0.3151023 0.16595007 -0.6323672 -0.7817373 -0.1525791 -0.7284426
1.2270072 -0.4369992 -0.80226314 0.025125882 -0.6455754 0.33642372 -0.8145916 0.7213148
0.2315124 0.24299578 -0.042815246 -0.4994302 -0.16914432 -0.51130056 0.37396774 0.48944008
0.0026923704 -0.7652596 -0.012775981 0.23012905 -0.7850924 0.10110478 0.9265573 0.4572946
0.21321632 -0.6359135 0.017745648 0.7766469 0.5064571 0.16373041 -0.5809466 0.1793408
0.4747783 -0.49878928 -0.28204954 -0.17547515 -1.0879656 -0.41714162 -0.17974263 0.17664751
0.7015828 -0.14507908 0.5781378 -0.045977894 -0.3197956 -0.27271092 0.0033738378 -1.6227401
0.93806845 -0.10613846 -0.21352005 0.2943344 -0.026768517 -0.047266964 -0.24701835 -0.37666377
0.2555527 -0.4209278 -0.63310885 -0.05081706 0.38458747 0.21507455 -0.44347078 -0.26287028
-0.31670117 0.30259275 -0.3332774 -0.6755133 0.22151615 0.11490559 0.20865262 0.59126645
-0.12453823 0.09765129 0.45279306 0.022020841 0.09510994 -0.4564375 -1.0707679 0.42714876
0.3666934 0.15115578 0.5508304 0.29904804 0.9155194 -0.03859706 0.08884672 0.24172287
-0.2426563 0.2603894 0.2251934 -0.21825089 0.9151844 -0.72492933 -0.13428101 0.33732268
0.03820121 -0.29465184 -0.30890924 0.29879928 -0.023932846 -0.91468847 -0.7165767 -0.49179572
0.11010679 0.43679988 1.2907654 -0.536275 0.3645962 -0.16366002 -0.46131408 -1.0137312
-0.18038267 -0.6741773 -0.7772994 -0.36676002 -0.8799633 0.070629336 0.24684149 -0.34716237

network_body._body_endoder.seq_layers.0.bias f4 [128]
00000000: 1d3d 19bd f7af 2b3c 2e31 6c3d 09d4 c1bc
00000010: e9e9 c83d 2019 0dbc cef4 76bc d86d 8c3d
00000020: 4cf0 68bd 8b19 2a3b 67c1 fabc e3c2 fcbb
00000030: 0145 c03c 8f25 053d 2609 363c d774 2f3d
00000040: 909d 4c3a 9d97 1abc 92aa 06bd 0fbd 38bd
00000050: e9d9 b3bb 735a cebc c484 9e3c 61e8 1ebc
00000060: 91d3 26bb 2441 c8bc 2c5d eb3b ff75 133c
00000070: 7397 cabc e16a 0638 0b7d e4bc 7234 8b3c
00000080: 425b b33c c77c e43c 4751 97bc db95 9abc
00000090: 8c2a 51bd dc84 bc3d 1238 733d 318b 673d
000000a0: 44cd 8d3d 4108 03bb 3351 30bc c2fe a73c
000000b0: ed0d 3b3b 6367 193d 7eaa 783c 8c53 c7bc
000000c0: fc23 8fbc ce9d a93c b2f2 64bd a910 8abc
000000d0: caab 5e3d a3a0 2d3c 87f5 783a b70a f7bc
000000e0: 16b1 65bc 9869 f83c 2e07 013d d155 0cbd
000000f0: 42d7 06bb 6b8c 2d3a a492 9dbc 741e 36bc
00000100: 9c5a bfbc 1b97 663c 364e 063d c46a 7abd
00000110: b9d7 8d3d b4c5 c2bc 114c 293c 5527 b6bc
00000120: 0fc8 98ba ce45 39bc 26e6 bc3c 2c9f 02bd
00000130: 00c5 a23b 081e 613b a7ab a13c 10ea ec3c
00000140: ef36 6b3c 9603 34bd 7c38 593c ea44 e83c
00000150: db14 4dbc cf60 98bc b108 da3c 284d 003d
00000160: b6ea ebbc e9f6 dcbb 68d0 97ba f7fc 5d3d
00000170: 9927 0dbc 604b dcbb 9039 05bb afc6 de3c
00000180: 4bd6 24bd 154c bb3a c349 f5bb a1c8 f0bc
00000190: 1ba3 323c b4a3 513d 7904 7dbc f457 09bd
000001a0: 5fb9 dabb 044a 833d c133 183c 1315 1f3d
000001b0: f573 8e3d 248b 88bc 44b2 53bd 9baa 3e3c
000001c0: 75b8 76bd b8e3 34bc 139e 1d3c 8991 62bc
000001d0: 6e59 d6bb fa7d aebc a3c8 db3c 54bf 053d
000001e0: f3d1 c53c 6459 a33c 4d5b 953b 1928 bcbc
000001f0: 032a c6bc a164 a0bc 2558 d03b 72aa b63b
-0.037411798 0.010478965 0.05766409 -0.023660677 0.0981024 -0.008611947 -0.015073014 0.068568885
-0.05686979 0.0025955166 -0.0306098 -0.007713662 0.023470404 0.03250652 0.01111058 0.042836037
0.0007805461 -0.0094355615 -0.032877512 -0.045102175 -0.0054886234 -0.025189614 0.019350417 -0.009698958
-0.0025455693 -0.024445124 0.007182738 0.0090003 -0.02473042 3.204763e-05 -0.027891656 0.016992781
0.021894101 0.02789153 -0.018471373 -0.018870285 -0.051065966 0.092050284 0.059379645 0.056529228
0.06923917 -0.0019993933 -0.010761547 0.02050722 0.0028542236 0.037452113 0.015177367 -0.02433183
-0.017473213 0.02070513 -0.055895515 -0.016853647 0.05436305 0.010597381 0.00094970356 -0.030156476
-0.014019271 0.030323789 0.031500988 -0.03426153 -0.002057508 0.000662035 -0.019234963 -0.011115659
-0.023358636 0.014074112 0.03278943 -0.061136976 0.069259115 -0.023775913 0.010333077 -0.022235552
-0.0011656302 -0.011308147 0.023058962 -0.03189008 0.004967332 0.0034350175 0.01973517 0.028920203
0.014356359 -0.043948732 0.013258096 0.028353173 -0.012517179 -0.01860085 0.026615473 0.031323582
-0.028798442 -0.006743301 -0.0011582496 0.054196324 -0.008615398 -0.0067228526 -0.00203285 0.02719435
-0.04024343 0.0014289642 -0.0074855997 -0.029392542 0.010903145 0.05118151 -0.015442961 -0.033531144
-0.00667493 0.06410602 0.009289683 0.038838457 0.06955711 -0.01666791 -0.05168368 0.011637355
-0.060234506 -0.0110406205 0.009620207 -0.013828644 -0.0065414226 -0.021300305 0.02682907 0.032653168
0.024147963 0.019940086 0.004558003 -0.022968339 -0.024189955 -0.019579234 0.006358164 0.005574518

network_body._body_endoder.seq_layers.2.weight f4 [128, 128]
00000000: e540 76bd b9c3 023d a32b 28bd cf9b 7fbd
00000010: ce87 07be d3bc 5a3d 89d3 bebd e3e0 eebc
00000020: a7b9 cd3d 3b14 cf3d 385e d03d 903e 04be
00000030: 25fc 4a3d 0c21 ac3d 1164 af3d e6b8 8ebb
00000040: 7d4c 993c 4e47 38be 8d63 abbb c191 cb3d
00000050: e3da 83bd 7cc8 82bd a8ec 283e fa2b 903b
00000060: 6ccc 1d3d bf37 e8bd 1bed c0bd 99cb 1fbe
00000070: 6b5e 383c 2808 1bbd 577c 283d ddd9 17be
00000080: 497f b2bd e301 dcbd e2a0 85bd 19ee 37be
00000090: 0418 0f3d 1d06 8fbd b11f f3bd e7ea 8cbd
000000a0: e59b fcbd 268c a5bc ddc2 9c3d 9312 4abe
000000b0: 7549 a13d 9788 a8bc a09e c63d 50b6 21bb
000000c0: 4004 cdbd ade1 873d 4330 373d 4cf1 053e
000000d0: 0b40 9c3d be83 fdbc 31d3 8ebd 64c2 f1bc
000000e0: d73a 5f3c 821f 20bd 9da4 213c 4c70 a0bd
000000f0: e006 eebb 5e65 1fbe b4ad 38bd 2446 223e
00000100: b5f8 4b3d 2849 21be beab be3b 79e4 abbd
00000110: f280 7ebc ec57 acbd 9361 f0bd 5888 c5bd
00000120: 6fa2 28bd 061d 62bd 3f6d 83bd 02a9 dcbc
00000130: c276 56bd 26aa e7bb ecc9 43bc cddd 24be
00000140: 245f 16be eb37 f2bc 3595 aab9 f3be 19bc
00000150: c1d4 86bc 0102 813d 93f4 9e3d 0426 3ebd
00000160: 6612 bbbd f00e a33d de37 183d f3f2 4cbc
00000170: 2592 a7bd 2a83 b7bd 6bdc a63c 23d9 81be
00000180: 690c cabd 2082 42bc 74d7 d7bb b383 7d3c
00000190: 7a83 ea3d 8358 2bbd f032 53bc abd2 c4b9
000001a0: a5eb 84bd d1f5 28be 4770 aebd 8fa1 c4bb
000001b0: 95de a9bd d5db e7bd 06c0 773c 5a15 3cbc
000001c0: befe 753d 421a aabd 8c2f 14bc f2d5 abbd
000001d0: eeed f7bd f4d1 39be c3bc ec3c 305d ce3d
000001e0: f03d 9abd 4567 473e 5ec3 553e c5af 11be
000001f0: f48f 9cbd 18ed bc3d 7dca ca3b d1d3 093c
00000200: 1847 16bd 65ef 7cbb 092d c9ba a338 12be
00000210: eb23 d8bd b4c4 2cbe 49b0 833c 9561 863d
00000220: db31 9f3d 6fb7 e23d 2317 4abd 8a91 323e
00000230: ac46 5c3d 4d5b bdbd 2e41 81bc 4718 30bd
00000240: 2c1e 863d c188 a5bd fe51 953d f8cb 07bd
00000250: b18d 163e 9712 833d 4e88 85bd df8c 36bc
00000260: c770 8f3d de51 9e3d e4f5 5e3d 3144 fbbd
00000270: 5f52 c43d 608d 453e fa0e ccbd a352 a73d
00000280: d703 fd3d deaf f53c d2a9 2ebc f7b6 6abd
00000290: 1071 a63d 6158 243c 6043 f8bd c19f 543d
000002a0: 2be7 c73d 7fe5 9bbd 027d 053e f925 f8bc
000002b0: e413 10be 8be3 6cbd 192d d6bd f9f3 a0bc
000002c0: 4449 fe3b 8bd5 21bd eaea 2abd eead 0e3e
000002d0: c3e2 90bd f386 20be bb46 11be 7070 09bd
000002e0: acaf 80bd ea76 733d a874 803d 4de0 983d
000002f0: 8b16 d9bc 3e81 23bd 3e74 6e3d 370d cb3c
00000300: 04de 7ebd a1bc f13c 81dd 403e cf6a 093e
00000310: aafc d63d ad13 463c 8598 273d 89cb d5bb
00000320: 2a59 1abd 5b7d cb3c c490 48be 29ed aebd
00000330: 86f9 bf3d 360d 56bd bcb9 723d 6721 f7bb
00000340: 7dbd 71bd 1508 e0bd 2cde 03be e277 283e
00000350: dfd5 a7bc f94b 0b3e 1ff8 34bb 2512 6ebe
00000360: f54e ffba 97bf 7fbd 02e3 963c 9033 053e
00000370: 1648 8fbc 43da e0bc f30c afbd e81f 52bd
00000380: 95ca 013c b6ed 04be 1559 cf3d 71a8 4fbe
00000390: e126 f5bc 9485 6a3d 6658 653d 2b80 f93d
000003a0: d7ba 0b3c c899 3cbe 3a83 d7bc 667f 02be
000003b0: b651 39bd 804d e6bc e901 233c e778 5f3d
000003c0: 5bc9 e0bc bd99 ae3d 16d0 c2bd 8304 063e
000003d0: 881e f9bc fb38 18bc 97f8 1b3d bb31 183d
000003e0: 0e6c 4a3d 07d7 5ebd fe90 f43d d5d6 85bd
000003f0: 5488 943c 09f3 163c 65a3 a6bd 5718 00be
-0.060120482 0.031924937 -0.04105724 -0.06240445 -0.13235399 0.053402733 -0.09317691 -0.029159969
0.10045176 0.101112805 0.10174221 -0.1291449 0.04955687 0.08404741 0.08564008 -0.0043555377
0.01871323 -0.1799595 -0.0052303732 0.0993991 -0.06438234 -0.063858956 0.16496527 0.0043997737
0.03852503 -0.11338758 -0.09420224 -0.1560501 0.01125298 -0.037849575 0.041134205 -0.14829202
-0.08715684 -0.10742547 -0.065248266 -0.17961921 0.034935012 -0.06983588 -0.11871279 -0.068807416
-0.12334422 -0.02020843 0.07654355 -0.19733648 0.07875339 -0.020572944 0.09698224 -0.0024675317
-0.10010576 0.06634841 0.04472376 0.13080329 0.07629403 -0.030946609 -0.06973875 -0.029511638
0.013624868 -0.03909255 0.009865907 -0.07833919 -0.007264003 -0.15566012 -0.04508753 0.15847069
0.049797732 -0.15750563 0.005818813 -0.08393187 -0.015533673 -0.08415207 -0.11737361 -0.09645146
-0.041170534 -0.05520346 -0.064173214 -0.026936058 -0.05235935 -0.007069844 -0.011949997 -0.16100235
-0.14684731 -0.02956768 -0.00032536095 -0.009383905 -0.01645887 0.0629921 0.077614926 -0.046422973
-0.091343686 0.079618335 0.037162654 -0.0125090955 -0.08182172 -0.089605644 0.020368775 -0.25360975
-0.09865648 -0.0118718445 -0.0065869633 0.015473294 0.114508584 -0.04183246 -0.012890562 -0.00037540993
-0.06490258 -0.16500022 -0.08517509 -0.0060007046 -0.08294407 -0.113212265 0.015121466 -0.0114797
0.060057394 -0.083057895 -0.009044539 -0.08390416 -0.12105928 -0.18146497 0.028898602 0.10076368
-0.07531345 0.19472988 0.20875308 -0.14227207 -0.076446444 0.092249095 0.0061886893 0.008412317
-0.036688894 -0.0038594839 -0.0015348505 -0.14279418 -0.10553726 -0.16871911 0.01607527 0.06561581
0.07773181 0.110701434 -0.04933847 0.17438331 0.053778335 -0.0924593 -0.01577815 -0.042991903
0.065487236 -0.08082724 0.072910294 -0.033153504 0.14702488 0.0640003 -0.06520139 -0.011141985
0.070039324 0.07730459 0.05443372 -0.12268866 0.095860235 0.19292212 -0.09963794 0.081700586
0.12354248 0.029991087 -0.0106606055 -0.057303395 0.08127034 0.010030837 -0.12122226 0.051910166
0.09760889 -0.07612132 0.13035968 -0.030291544 -0.14070088 -0.05783419 -0.104578204 -0.019647585
0.007760199 -0.03951029 -0.041727938 0.13933536 -0.07074501 -0.15676479 -0.14187138 -0.033554494
-0.06283507 0.059439577 0.062722504 0.07464657 -0.026500007 -0.039918177 0.058216326 0.024786575
-0.06222345 0.02950889 0.18834497 0.1341965 0.104974106 0.012089652 0.04091694 -0.0065245074
-0.03768269 0.024840048 -0.19586474 -0.085413285 0.09373765 -0.052258693 0.05925916 -0.0075418237
-0.0590186 -0.109390415 -0.1287772 0.16451982 -0.020487724 0.136032 -0.0027613712 -0.23249109
-0.0019478487 -0.062438574 0.018418793 0.13007951 -0.017490428 -0.027447825 -0.08547392 -0.05129996
0.0079218345 -0.12981305 0.10124413 -0.20279099 -0.029925765 0.057256296 0.055992506 0.12182649
0.008528433 -0.18418038 -0.02630769 -0.12743911 -0.04524394 -0.028113127 0.009949186 0.05455866
-0.027439764 0.08525417 -0.095123455 0.13087659 -0.030410066 -0.009290929 0.03807887 0.0371568
0.049419455 -0.054404285 0.119417176 -0.065351166 0.018131413 0.0092132175 -0.08136634 -0.12509285

network_body._body_endoder.seq_layers.2.bias f4 [128]
00000000: acc0 87bd fe7b 9dbc 91f6 3b3c c73f e1bc
00000010: 1f98 48bd 5948 f23b eeda 83bb 1434 833c
00000020: 5f0f de3a aa2a 403c 82e0 21bd af9c 66bd
00000030: ae5a 9bbb 94c0 5bbc c260 fa39 6fe9 0b3d
00000040: d549 bfbc 8fb2 08bc 3983 aa37 8417 f6bc
00000050: bdeb d3bc c951 983b b4fd 5f3c ae1f 093b
00000060: efe8 5bbb dc9d 613c 4dbc 8b3b 5626 0c3d
00000070: 75ae c3bc d064 7b3c d943 1abc c044 a2bb
00000080: 1852 20bb d66a febc f46d f2bb b2ab 22bc
00000090: 31bb 03bd b79d 393d 4a9f f2bc 5f43 18bd
000000a0: 9616 e3bc 8114 a03b b95d 9c3b 67c3 22bd
000000b0: 0395 ceba 40e8 2abd 5719 98bc 817c c7bb
000000c0: 23af 1abc 4738 e0bb 0790 6aba 8a25 2a3c
000000d0: b2fd 7d3a 0afc 0c3a feb2 873c 52b2 10bd
000000e0: f9a7 7e3d ba0d 193d 1fc3 c1bc 29c2 ce3c
000000f0: a70a 32bd f375 d63c dc18 c13c 0f60 a2bd
00000100: 60fc 5cbc 208a 0f3d 183d 19bc 2007 473c
00000110: c370 22bd 3eb8 553c c6fd a33c 5c1e f8bb
00000120: 5d07 36bc 6570 fdbc b0e0 6fb8 955b 5b3b
00000130: 7a80 a33b e7a9 a73c 72c7 efbc 2ec1 1fba
00000140: de51 703b 773f 0d3c 1e35 273d 65fb 02bc
00000150: 22dd 36bc c78e bcba ec8d 76bd 9aab 643c
00000160: cbd4 d23c fb97 e5bb bd83 3abd 7d68 463d
00000170: 1248 4f38 6d09 0fbd 7fd8 de3c 6cc2 91bb
00000180: 6f5e da3c e24f b2bc 3d03 743c 2ea6 febc
00000190: 5004 91bc 1570 63bc 2031 473c ba06 093d
000001a0: 3aec c13c 3124 82bd 69c9 27bc d347 6b3c
000001b0: 7bd3 953c 0e82 b93b ffd0 5c3c 3d2a 413c
000001c0: 6225 7fbc 72cc 95bb 1839 273d b09a 063d
000001d0: b428 eb3c fa97 523d 6e1c 19bd a099 863a
000001e0: ef76 c63c fb89 d5bb 2ddd f23c 9262 b8bc
000001f0: eaae 73bb a899 8138 b830 13bc c1a3 503c
-0.06628546 -0.019224163 0.01147236 -0.027496232 -0.0489732 0.0073938784 -0.004023901 0.016016044
0.0016941837 0.011728922 -0.039520748 -0.05630177 -0.0047410345 -0.013412613 0.00047755806 0.034158166
-0.023350636 -0.008343353 2.0326685e-05 -0.03004051 -0.025869245 0.0046484214 0.013671327 0.0020923424
-0.0033555587 0.013770547 0.0042643906 0.034216247 -0.023886899 0.01534386 -0.00941559 -0.0049520433
-0.0024462994 -0.031056803 -0.0073983613 -0.009928631 -0.03216094 0.045316424 -0.02961697 -0.037173625
-0.02772073 0.0048852568 0.004771915 -0.03973713 -0.0015760962 -0.041725397 -0.01856677 -0.00608784
-0.00944117 -0.0068426463 -0.00089478533 0.010384927 0.00096889876 0.0005378133 0.016564842 -0.03532631
0.06217191 0.037366606 -0.023652611 0.025239067 -0.04346719 0.02617929 0.023571424 -0.07928478
-0.013487905 0.035043836 -0.009352945 0.012147695 -0.03965832 0.013044415 0.02001847 -0.0075719785
-0.011110154 -0.030937383 -5.7191297e-05 0.0033471335 0.004989681 0.020466758 -0.029269908 -0.00060941547
0.003666989 0.008621088 0.04082214 -0.007994507 -0.011161121 -0.0014385813 -0.06019394 0.013956929
0.025736233 -0.007006643 -0.04553579 0.04843949 4.9419767e-05 -0.0349211 0.027202843 -0.0044482257
0.026656358 -0.021766607 0.01489335 -0.0310851 -0.017702252 -0.013881703 0.012157708 0.03345368
0.023672212 -0.06354559 -0.010240891 0.014360386 0.018289318 0.0056612557 0.013477563 0.011789856
-0.015572878 -0.004571491 0.040825933 0.032862365 0.028705932 0.051414467 -0.03738063 0.0010269172
0.024226634 -0.0065166927 0.02964648 -0.02250794 -0.0037183114 6.17982e-05 -0.008983783 0.0127343545

action_model._continuous_distribution.log_sigma f4 [1, 2]
00000000: a25e 8e3c c0af 383d
0.017379109 0.045089483

action_model._continuous_distribution.mu.weight f4 [2, 128]
00000000: 181d e0ba e613 223c da7b e8bc f57f f039
00000010: b312 1b3c 9d8b f9bc 1f5f 0a3d d922 403d
00000020: 1067 71bc 11a8 24bd cb0c 1d3c 01e0 32bd
00000030: e14b 06bd 4aee 993c 42a7 15bd ed75 25bc
00000040: ecdd 623b 3dc7 82bc 2e3a 56bb 7296 c3bc
00000050: e157 b1bc a309 22bd 2704 04bd a83d b4bc
00000060: e837 d33c b4f8 773d caad 6a3b 541a 3d3d
00000070: eeb1 2cbc 2806 253d cd72 26bd f960 23bc
00000080: 5ae4 19bd c7bf 47bc 9384 1f3b d229 bebc
00000090: 2fe6 7abb 4e89 a33d ecee b7bc cea1 9ebc
000000a0: 369d 72bb 509a b7bb 590b 21bb a1dd d4bb
000000b0: 6669 033b 9666 82bc cb6a 07bc 1f18 653b
000000c0: 9e18 fbbb 31ee 4fbd a90e 1fbd 8843 e53c
000000d0: b521 08bd 4d78 9abc 43e1 b53b 1dd0 7a3c
000000e0: c58b c03d c3e2 9f3d ac78 b2bc c634 833c
000000f0: 174f 98bd 38d1 bc3a 2cf5 c93c 6b31 8ebc
00000100: 3697 8f3c 0f3f 773d 0812 cfbb 57a9 023d
00000110: ff81 b6bc acaa 023a e42b 0abc 0cf0 95bc
00000120: b6da 16bc c938 3d3c 080a d7bb 3325 933c
00000130: c8fd 063c c897 f63c 97f3 01ba 16a2 bb3c
00000140: acc5 29bc f766 993c 620d 393d 57b6 03bc
00000150: 5dd5 fe3c 730c 75bd ebf4 b1bc 1eff 0bbd
00000160: f60c db3c 1de7 4f3c c957 0c3c ec53 7c3d
00000170: 9bc1 d7bc 16f6 0c3b f4a4 bbbc 9d3f 92bc
00000180: 0031 453d 46fb b0bb 3a76 a53c da53 3bbd
00000190: 0bb7 debc 8b86 d6bc 3059 153d bf88 4d3c
000001a0: 1da9 613d 1bce 97bc 5646 eebc 5178 413d
000001b0: af24 203d fa45 07bd 9327 373d 99c1 893c
000001c0: 8607 2cb9 72e7 81bd 57fd a03d 3a0e 85bc
000001d0: 87a0 28bb a75b 843d 3458 1ebc 06bf aabc
000001e0: 0ae3 0dbc f7fc f9bc a783 123d 13d4 d9bc
000001f0: 7883 c5bb 6ad0 02bd 037a 50bc 89a5 903c
00000200: dda8 13bc 3fdd 3e3b 5e5a 6d3d 36fd afbb
00000210: c662 0dbc fbb3 69bd 7e52 24bd 46cc 29bd
00000220: 79ba 33bd 54e0 983d ed1c 36bc 4b9c f43c
00000230: 07d6 343c 487f 53bc 77d3 903d ffb7 733d
00000240: c2b2 9ebc 8307 46bd 18ec 3fbd de35 df3c
00000250: 127d f23c da1c 0fbd 8563 5d3d a4f1 403d
00000260: b491 2abc 916a 2d3a f8b4 4bbd a3c7 4abd
00000270: 2335 013d 5dc0 05bb 8c68 e6bc ea82 41bd
00000280: 8f28 993c 00e2 643b f655 a33c d08d 8fbc
00000290: 9ae5 04bd 2c1b 6abc bf07 a8bc da6c 323c
000002a0: 7766 2a3c 9ed4 103d 7ea1 25bd 6896 313c
000002b0: fa92 223d 36b7 b43c 1c0c 16bd 841f 30bd
000002c0: e0c2 0dbd 2ee2 913c 509f 40bd 9470 313c
000002d0: 0b82 45bd 138b b13c d1cb 893d 3eb4 a4bc
000002e0: 77d0 21bd 9a19 d53b b47f 78b8 76c2 96bc
000002f0: f941 693c 33fd 783d 9832 273d dd5d 54bc
00000300: b638 013c 575e 92bc bf51 02bc cdf7 df3c
00000310: afd4 4b39 98e9 1ebb 549d 5e3c 7be1 f0bc
00000320: 2a41 03bd 73a4 8fbb a25c 09bc 70fd a03c
00000330: 9dbb be3b e524 91bd 3818 2ebc e222 923c
00000340: 05bd 233d 6f3c 0c3d b5ab 593b 756d d03c
00000350: 02c0 f1bc fe3a d23b 2be6 a83c b75d 583d
00000360: 925f 843c a193 e0bc 4935 a53c 7a2d d63b
00000370: a247 9fb9 7ff7 c7bc 1c6d 643d f500 2fbc
00000380: 1a63 3bbc ba99 333c 3805 80bc 366e dc3c
00000390: 4c10 dbbc 3c29 39bd 6887 4f3d dc63 b1bd
000003a0: b987 683c 86c0 9bbc 1e09 30bd 653a 93bc
000003b0: c8d5 2abb 8d7b b9bc 9f1f a4bc 4ff3 9bbb
000003c0: c650 86bc db72 1ebc 44cb b1bc 6a46 0b3d
000003d0: 6cb0 7c3d 8325 04bc c5a0 03bc 8675 f3bc
000003e0: ce4b 1b3d eb67 5d3c 2095 51bd 01a2 a5bc
000003f0: edb1 07bd b293 76bc ebaf 023d 3a2d 8d3d
-0.0017098514 0.0098924395 -0.02837937 0.00045871703 0.009464907 -0.03046208 0.03378212 0.046908233
-0.014734045 -0.040199343 0.00958557 -0.043670658 -0.032787208 0.018790383 -0.036536463 -0.0100989165
0.003461714 -0.015964145 -0.0032688486 -0.023875449 -0.02164835 -0.03955997 -0.032230522 -0.022002056
0.025783494 0.060539916 0.0035809153 0.046167687 -0.010540469 0.040289074 -0.040636826 -0.009971851
-0.03757129 -0.012191719 0.0024340495 -0.0232133 -0.0038284173 0.07985173 -0.022452794 -0.019364264
-0.0037019975 -0.0056031123 -0.0024573414 -0.006496147 0.0020051836 -0.015918057 -0.0082652075 0.0034957004
-0.0076628467 -0.050764266 -0.03883234 0.027986303 -0.03323527 -0.018856192 0.005550535 0.015308407
0.09401659 0.07806923 -0.021786056 0.016016375 -0.0743696 0.0014405614 0.02465304 -0.017357549
0.017528158 0.06036287 -0.006319288 0.031899776 -0.022278784 0.00049845385 -0.008433316 -0.01830294
-0.009207418 0.011549183 -0.006562475 0.017962074 0.008239217 0.030101672 -0.0004957257 0.022904437
-0.01036207 0.018725855 0.04517878 -0.008039079 0.031107599 -0.059826326 -0.021723231 -0.034178846
0.026739579 0.012689379 0.0085658515 0.06160347 -0.026337435 0.0021508983 -0.022905804 -0.017852599
0.048142433 -0.005401048 0.020197976 -0.045734264 -0.027186891 -0.026187202 0.03646201 0.01254481
0.05509292 -0.018530896 -0.029086273 0.047233883 0.039097484 -0.03302572 0.044715475 0.016815947
-0.00016406001 -0.06342973 0.07860821 -0.016242135 -0.0025730447 0.06462794 -0.009664584 -0.02084304
-0.008660087 -0.03051613 0.035770085 -0.026590383 -0.006027635 -0.03193704 -0.012724402 0.017657058
-0.009012428 0.0029123572 0.05794751 -0.0053707613 -0.008629506 -0.05705641 -0.040117733 -0.041454576
-0.043879006 0.07464662 -0.011115295 0.029859683 0.011037356 -0.012908764 0.07071584 0.059501644
-0.019372348 -0.048347007 -0.046856016 0.027247366 0.029600654 -0.034939624 0.054049987 0.047105446
-0.010410715 0.0006615306 -0.049733132 -0.049506795 0.031544816 -0.0020408847 -0.028126024 -0.04724399
0.018696098 0.0034924746 0.01993845 -0.017523676 -0.032445528 -0.014288705 -0.020511506 0.01089021
0.010400406 0.035359018 -0.040437214 0.010839082 0.03969095 0.022060018 -0.036632642 -0.042998806
-0.034609675 0.017808046 -0.047026932 0.010830063 -0.04821972 0.021672761 0.06728328 -0.020105477
-0.03950545 0.006503296 -5.924674e-05 -0.018403273 0.0142369205 0.060788345 0.040819734 -0.012961832
0.007887056 -0.01786725 -0.00795406 0.02733984 0.0001943882 -0.002424812 0.013587315 -0.029404392
-0.032044567 -0.0043836175 -0.008383902 0.019652098 0.005820705 -0.07087115 -0.010625891 0.017838899
0.039975185 0.03423732 0.0033213918 0.025442818 -0.029510502 0.006415724 0.020617565 0.05282375
0.016158853 -0.027414145 0.02016701 0.006536183 -0.00030380214 -0.024410008 0.055768117 -0.0106813805
-0.011437202 0.010961944 -0.015627488 0.026908021 -0.02674117 -0.04520534 0.050666243 -0.08661625
0.014192515 -0.0190127 -0.042977445 -0.01797218 -0.0026067365 -0.022641921 -0.02003461 -0.0047592293
-0.016395938 -0.009670938 -0.02170337 0.0340027 0.061691687 -0.008065584 -0.008033936 -0.029719125
0.03791409 0.0135135455 -0.051167607 -0.020218851 -0.033128668 -0.015049862 0.03190605 0.06893392

action_model._continuous_distribution.mu.bias f4 [2]
00000000: 28fe ad3c 3bed 0dbb
0.021239355 -0.0021656293

action_model._discrete_distribution.branches.0.weight f4 [2, 128]
00000000: 89bd d5bc f0fa 253c 1695 3cbc c19c c1bc
00000010: 9cbc efbb 40cd abbb 7b8c 623b 4e3b c83b
00000020: b8cf f93b 1a45 63bc 9cdf d1bb 0cf9 a3bd
00000030: 61ae 52bc 9521 ca3b 4817 45bc 1e4b 823a
00000040: 3abf f1bb e35b 8c3b 360e 03bc 6af1 8dbc
00000050: b173 653c eb69 a4bc 4432 1cbc 7b85 5dbc
00000060: 64b7 81b9 20ca d13a 20aa be3b 58fb 773c
00000070: 393c 533c d2f1 8e3c 3e72 e0bc 66f0 63bc
00000080: 2f01 00bc 215e 07bd b12b 003c 6dbc c8bb
00000090: 982b c0bb a5c5 ac3c 70d0 b4bc 0836 92bc
000000a0: 9d0b ac3b 6e23 34bc 4153 113c cb35 7dbc
000000b0: 77f8 ac38 3e5a 33bd c28d 983a 07f9 503c
000000c0: a687 7dbc e0da a9bc faad 11bc aea3 c23b
000000d0: 43e0 bbba dacb d23b 3f0d a0bc 7ffd 0abd
000000e0: ff64 a03b 93bc f03b e88a 3bbd 390c 963b
000000f0: 1aba a6bd d1c9 9f3b 5820 813c 2e11 06bd
00000100: 1e29 613c a740 8c3b 919b 76bc 599e 0fbb
00000110: 3fd1 b1bc 9e63 553a c972 053c badd 413c
00000120: 7b07 bc3b 0981 5439 f5e4 acbc b4f7 3d3b
00000130: 248c 06bb a484 753c 0031 73ba a348 953b
00000140: d85d 173a fe09 353c 2282 943c 5fbe 8c3c
00000150: c467 093c 89f3 81bc dc8c 5fbd 73a1 343c
00000160: 6a71 213c 3d69 09bc 7d85 9d37 3515 af3c
00000170: 44e0 83bc cd3e 143c 6464 4d3c 1447 3ebc
00000180: 26d8 2d3c a01b f2bc 56b1 75ba 4778 2fbc
00000190: c11b 243c f342 6cbc 929d b23c a587 9bbb
000001a0: a356 703c 159b 26bc f494 9d3b 62c2 643c
000001b0: 8e87 a33c cd54 d5bc 7b83 3039 a3f5 3bbb
000001c0: 49bc a9bb 7e4d 8ebb 6036 613c d1f9 44bc
000001d0: aa12 a7bc 355e ab3c 0f68 26bb 2883 6dbc
000001e0: b448 4a3c 0ac8 45bc 9517 753a 4f99 fabb
000001f0: f263 87bc 6c97 75bc c9ad c2bc 3f3a ce3b
00000200: 2ecc 343d 26a8 f33b 3595 22bc 2a55 173d
00000210: 5199 3cbb bb50 1f3c 3b19 d4bb d3e4 7a3c
00000220: b97d a4ba ca08 c4bb 8b01 2c3c b318 a83d
00000230: e78a 85bb c801 44bc f7ee ce3c 6c13 5b3a
00000240: 90fb b03a 5b7e 01bc cc72 6a3c 0124 953c
00000250: ae49 fc3b 3ded 143c 46d4 473b c776 58ba
00000260: 5f34 e639 3076 ee3b 4873 203a 6805 89ba
00000270: b317 7e3c a909 32bc 2c45 913c b8b9 a23b
00000280: cdd8 593c 5d83 8c3c 6e17 d9bb d27b b13c
00000290: ce54 e5ba 3737 c0bc 5024 ae3c 41eb c43a
000002a0: ee6e 7f3c bf74 663b 5bf9 feba 50b8 963b
000002b0: 39b4 ba39 06ab 353d b6bb 02bb 983b 1b3b
000002c0: 77bc 833c 409e 1c3d 9b02 abbb ee8f 923b
000002d0: 13b5 863b 27b0 45bc cda5 fabb 001d ba3c
000002e0: 0e1c 0ebc adec d6bc 2504 3e3d 05b8 90bc
000002f0: 4963 bc3d 8b1b 293b 1822 ffbc 0068 893c
00000300: 08fd 81bb 14b3 4ebb cee9 95bc 9a62 80bc
00000310: e932 be3c 8c41 febc d733 9fbb eb55 a8bc
00000320: 1e04 a0b6 442a b6bb 3fa2 eb3c 1a11 cc3a
00000330: 3bda 70bb d02b d0bb f4bd adba 378b 2a3c
00000340: 3c1e 0a3c 63d0 273b 8831 e9bc a113 513c
00000350: 31dd 48bc 59ee b83c 13ae 6a3d d8ae 1cbc
00000360: 251f b3bc 51b5 443c 2be6 713b 288d a5bb
00000370: 61c0 a93c ee61 47bb eec4 fa3b 02b5 47b9
00000380: b73a ebbb e62e 003d 6540 d4bb 061b e13b
00000390: 7380 4e3c b75c bc3b f498 c939 8943 243c
000003a0: ac05 ddba 9765 5d3c 4793 4c3c 5b39 95bc
000003b0: ea27 aebc be03 2d3d 43b9 92ba 90a2 48bc
000003c0: f305 32bc c0a4 183c 478b cabc bfef 83bb
000003d0: 655c 983b b95d aabc a112 c839 dbbe 67ba
000003e0: db40 383c 6025 bc3b 2f33 a9b9 bf3c 3c3c
000003f0: 0d13 e8bb a292 94bb acec e83c a61c f03a
-0.026091354 0.010130629 -0.011510154 -0.023634316 -0.007316185 -0.0052429736 0.0034568596 0.0061105853
0.007623639 -0.013871456 -0.00640483 -0.08006486 -0.012858958 0.006168554 -0.012029476 0.00099406
-0.0073775323 0.0042834147 -0.007998994 -0.01732703 0.014004634 -0.020070037 -0.009533469 -0.013520594
-0.00024741434 0.0016005673 0.0058186203 0.015135609 0.012892776 0.017449293 -0.027398225 -0.013912296
-0.007812782 -0.033048753 0.007822917 -0.0061259777 -0.005864572 0.021090338 -0.022072047 -0.01784803
0.005250408 -0.010994775 0.008869947 -0.01545472 8.247879e-05 -0.043787234 0.0011638927 0.012754685
-0.015474236 -0.02073425 -0.008891577 0.0059399223 -0.0014333803 0.0064329924 -0.019537566 -0.03393316
0.004894852 0.0073466985 -0.04578677 0.004579094 -0.08140965 0.0048763533 0.015762493 -0.032731228
0.013742713 0.004280168 -0.015051738 -0.002191445 -0.021706222 0.00081401493 0.008145043 0.011832649
0.0057381964 0.00020265965 -0.021105269 0.0028986754 -0.0020530308 0.014985237 -0.0009277016 0.004555778
0.00057741767 0.011049746 0.018128458 0.01718062 0.008386556 -0.015863197 -0.054577693 0.011024821
0.0098537 -0.008386907 1.8778019e-05 0.021372417 -0.01609815 0.009048176 0.012536142 -0.011613626
0.010610616 -0.029554188 -0.00093724334 -0.010709829 0.010016383 -0.014420259 0.021803651 -0.0047463947
0.014669093 -0.01016881 0.0048090164 0.01396236 0.019962098 -0.026041413 0.00016833648 -0.0028680346
-0.005179916 -0.004342734 0.013745874 -0.0120224515 -0.020394642 0.020918945 -0.0025391614 -0.014496602
0.012346435 -0.012071619 0.00093495223 -0.0076476703 -0.01652715 -0.014989715 -0.023764508 0.0062935646
0.044140033 0.0074358163 -0.009923269 0.036946453 -0.0028777907 0.0097238375 -0.0064727343 0.015313345
-0.0012549675 -0.005982493 0.010498415 0.08207836 -0.0040753963 -0.011963315 0.025260432 0.0008357081
0.0013502706 -0.007903661 0.014309596 0.018205645 0.007699213 0.009089765 0.0030491515 -0.00082574453
0.00043908038 0.0072772726 0.0006120694 -0.0010453882 0.01550858 -0.010866561 0.017733179 0.004965987
0.013296318 0.017152483 -0.0066251075 0.021665487 -0.0017496587 -0.023463828 0.02125755 0.0015023724
0.015590413 0.00351648 -0.0019452976 0.0045996085 0.0003561096 0.044352554 -0.001994831 0.0023686644
0.016081078 0.038236856 -0.0052188165 0.004472724 0.004110941 -0.012065924 -0.0076491595 0.022718906
-0.008673681 -0.026235903 0.04639067 -0.017665872 0.09198625 0.002580377 -0.031144187 0.016773224
-0.0039669313 -0.0031539844 -0.018299963 -0.015672017 0.023217635 -0.031037115 -0.0048584747 -0.020548781
-4.768851e-06 -0.0055592377 0.028763888 0.0015569062 -0.003675117 -0.006352879 -0.0013255463 0.010409168
0.00843006 0.0025606386 -0.028466001 0.012761028 -0.012259767 0.02257459 0.057294916 -0.00956317
-0.021865437 0.01200612 0.0036910872 -0.0050522275 0.020721616 -0.003042336 0.0076528704 -0.0001904555
-0.00717863 0.031294726 -0.006477403 0.0068696765 0.012603867 0.005748357 0.00038451666 0.010025867
-0.0016862652 0.01351299 0.0124862855 -0.018215826 -0.021259267 0.042239897 -0.0011194128 -0.012245789
-0.010865676 0.009316623 -0.024724616 -0.0040263827 0.004649686 -0.020796644 0.00038160852 -0.00088403904
0.0112459315 0.00574176 -0.00032272327 0.011489092 -0.007082349 -0.0045340816 0.028433166 0.0018319085

action_model._discrete_distribution.branches.0.bias f4 [2]
00000000: 1dee 3a3d 1cee 3abd
0.04563724 -0.045637235
