results/CombatTest1/MoveToGoal/MoveToGoal-28024.onnx (onnx, 77714 bytes, 9 tensors)

network_body._body_endoder.seq_layers.0.weight f4 [128, 4]
0.26986042 0.003968575 -0.23799248 -0.4465602 0.012133683 -0.5410144 0.33113122 -0.13087748
-0.6389956 0.30713832 -0.71418405 -0.19754918 0.5833497 -0.38670623 -0.74047995 0.6369214
-0.24024846 -0.79893744 1.0808469 0.28743947 -0.33239245 -0.30207843 0.00024253775 -0.27373478
-0.20021345 0.046495024 0.39127222 -0.34838644 0.14837424 0.4412135 -0.10175169 0.05862572
-0.3120338 -0.4183916 -0.16712865 -0.1892139 0.76745546 -0.5626457 0.5738904 0.32073355
-0.6622883 -0.24146675 -0.5707553 -0.041478805 0.080899544 -0.42426312 0.72741413 -0.2743511
0.12071247 0.19211926 0.18819495 0.43097556 -0.15901583 -0.15213613 -0.41642094 -0.2187593
-0.6366351 0.064545155 0.92470723 0.39349797 -0.5831802 -0.38458526 0.09984591 0.50651085
0.24801908 -0.57627016 0.31077993 0.61439985 -0.74278545 -0.093433306 -0.36215234 -0.15047707
-0.19299339 0.33126536 0.12458618 -0.4835103 -0.58538896 0.58028334 -0.38719508 -0.851831
-0.33775425 -0.18830419 -0.13854675 0.0055964007 0.89159125 -0.08290665 0.09907813 -0.40913576
-0.22944225 0.15638576 0.74423695 -0.16811417 -0.07422704 -0.46114874 0.104530275 -0.69882613
0.21664274 0.33861113 -0.5030411 0.4445558 -0.23832531 -0.12504151 -0.025310148 -0.008041485
0.123474896 0.29038942 0.34342235 0.22428423 0.8879844 -0.3832308 0.41705164 0.20444334
0.23092642 0.27806854 -0.43183905 -0.02114085 -0.8926379 -0.19318013 0.4368939 0.90101856
-0.5326088 0.18380117 -0.24476205 -0.34297472 0.30276766 0.26349282 0.41465127 -0.14418615
-0.34299037 -0.59982204 -0.49598286 -0.53416157 0.5571425 0.08386133 0.49119857 -0.42277455
-0.1502155 -0.71093494 -0.13829249 0.634095 -0.50959617 -0.15191783 0.47033733 0.35240304
-0.29891092 -0.86222076 -0.31423596 -0.52779 -0.32050514 -0.94081986 -0.6337315 0.037087817
0.81101084 0.29267478 -0.30897126 -0.039859563 -0.09423911 0.24841198 -0.893251 -0.2673102
-0.092315085 0.19323535 0.029167807 -0.42973387 0.35545576 1.3447677 0.26534167 0.6885837
-0.18301663 -0.3323208 -0.033074416 -0.4012424 0.60543954 0.5996343 -0.6552748 -0.45749304
-0.22404884 0.37243548 -1.7644136 -0.25893453 -0.8565618 1.241644 -0.5920846 -0.1955883
0.054586433 -0.28629074 -0.12557764 0.17685618 -0.7491056 -0.4913335 -0.0013091213 0.014261783
0.48585156 0.2602222 -0.50679976 -0.24315934 -0.03418355 -0.53303593 -0.20784652 -0.061496448
-0.291596 0.23618715 -0.106333256 0.51590776 -0.25540134 -0.18947873 0.30141795 0.0992695
-0.24215329 -0.31148693 0.58252823 0.19588374 -0.46976694 0.059755184 -0.46576336 0.23875648
0.19886713 0.7556562 0.15964274 -0.23903257 0.009917871 0.4284274 0.8511032 0.4511793
0.116676085 -0.46047872 -0.19177264 0.31005993 -0.026271546 -0.10880864 0.36173928 1.029893
0.9164592 -0.2492735 0.17101261 0.7878652 0.32965675 -0.07174516 0.926298 0.48714238
0.7475567 0.6631511 -0.020352058 -0.45150968 0.6523952 -0.48000118 0.07936501 -0.46697304
0.42905682 1.2931036 -0.3352143 0.5019518 -0.7586982 0.122468434 0.14957242 0.23626116
00000000: 252b 8a3e d20a 823b 4db4 73be 8aa3 e4be
00000010: 5bcc 463c eb7f 0abf 088a a93e bf04 06be
00000020: 3795 23bf 3c41 9d3e c4d4 36bf 554a 4abe
00000030: 6856 153f 5cfe c5be 1890 3dbf 480d 233f
00000040: b103 76be 2a87 4cbf 3159 8a3f 442b 933e
00000050: 582f aabe 06aa 9abe bb51 7e39 f726 8cbe
00000060: c104 4dbe 9171 3e3d d554 c83e b55f b2be
00000070: 6bef 173e bce6 e13e 3163 d0bd 8621 703d
00000080: e5c2 9fbe 6c37 d6be c623 2bbe 4ac1 41be
00000090: f677 443f 8c09 10bf 7bea 123f 3037 a43e
000000a0: ba8b 29bf 0f43 77be 051d 12bf aee5 29bd
000000b0: a9ae a53d 0439 d9be d037 3a3f bf77 8cbe
000000c0: 1938 f73d e9ba 443e 2db6 403e d4a8 dc3e
000000d0: 0cd5 22be 93c9 1bbe 2035 d5be 7002 60be
000000e0: 85fa 22bf 4030 843d 9db9 6c3f 9178 c93e
000000f0: 4c4b 15bf 5ce8 c4be 037c cc3d b2aa 013f
00000100: b7f8 7d3e 7186 13bf 8c1e 9f3e 4f49 1d3f
00000110: 3027 3ebf f659 bfbd 086c b9be a916 1abe
00000120: 0fa0 45be 9d9b a93e 0a27 ff3d a98e f7be
00000130: 0ddc 15bf 738d 143f 6f3e c6be 9911 5abf
00000140: 20ee acbe d0d2 40be 33df 0dbe 0362 b73b
00000150: 533f 643f f6ca a9bd 7ae9 ca3d 3e7a d1be
00000160: e9f2 6abe 9723 203e 5086 3e3f 1f26 2cbe
00000170: 5904 98bd b01b ecbe f813 d63d 45e6 32bf
00000180: 98d7 5d3e 705e ad3e 4dc7 00bf d19c e33e
00000190: 8d0b 74be e20a 00be 3a57 cfbc 6fc0 03bc
000001a0: 68e0 fc3d ecad 943e 0ed5 af3e c4aa 653e
000001b0: f252 633f d436 c4be cb87 d53e 9859 513e
000001c0: fa77 6c3e 005f 8e3e 021a ddbe 932f adbc
000001d0: eb83 64bf 03d1 45be 8fb0 df3e 27a9 663f
000001e0: 0d59 08bf 6036 3c3e e7a2 7abe 629a afbe
000001f0: 5d04 9b3e 88e8 863e 2c4d d43e 89a5 13be
00000200: 6f9c afbe f08d 19bf 77f1 fdbe d0be 08bf
00000210: e4a0 0e3f 7dbf ab3d 617e fb3e e875 d8be
00000220: 18d2 19be d5ff 35bf 8c9c 0dbe 0d54 223f
00000230: e574 02bf 5990 1bbe 0ed0 f03e 2c6e b43e
00000240: da0a 99be 80ba 5cbf 89e3 a0be 3f1d 07bf
00000250: 4019 a4be 92d9 70bf 3a3c 22bf 65e9 173d
00000260: 689e 4f3f 78d9 953e 7b31 9ebe c843 23bd
00000270: 6f00 c1bd b65f 7e3e 19ac 64bf e2dc 88be
00000280: b10f bdbd 7ddf 453e 53f1 ee3c 1406 dcbe
00000290: 4cfe b53e 5921 ac3f ddda 873e 0547 303f
000002a0: b668 3bbe f425 aabe 0a79 07bd a56f cdbe
000002b0: 16fe 1a3f a281 193f 17c0 27bf 873c eabe
000002c0: 0f6d 65be ddaf be3e 4ed8 e1bf 1193 84be
000002d0: a247 5bbf 31ee 9e3f db92 17bf 4d48 48be
000002e0: 0696 5f3d b394 92be 6d97 00be c919 353e
000002f0: 62c5 3fbf 1190 fbbe d296 abba 41aa 693c
00000300: 89c1 f83e d83b 853e a1bd 01bf c3fe 78be
00000310: 0d04 0cbd 0b75 08bf b8d5 54be b3e3 7bbd
00000320: 124c 95be 0bdb 713e 40c5 d9bd 8812 043f
00000330: f7c3 82be b606 42be 7453 9a3e cf4d cb3d
00000340: 08f7 77be 377b 9fbe 9220 153f bf95 483e
00000350: 4b85 f0be dac1 743d 8978 eebe 947c 743e
00000360: d3a3 4b3e af72 413f 6379 233e f4c4 74be
00000370: 917e 223c d65a db3e e6e1 593f f900 e73e
00000380: dff3 ee3d dec3 ebbe 0c60 44be 2dc0 9e3e
00000390: 6d37 d7bc 10d7 debd e435 b93e 89d3 833f
000003a0: 129d 6a3f 8d41 7fbe ee1d 2f3e 89b1 493f
000003b0: c5c8 a83e 20ef 92bd de21 6d3f ba6a f93e
000003c0: e05f 3f3f 45c4 293f 5cb9 a6bc 472c e7be
000003d0: 5f03 273f b7c2 f5be 1f8a a23d 1717 efbe
000003e0: 56ad db3e 6b84 a53f 35a1 abbe ea7f 003f
000003f0: 0c3a 42bf bbd0 fa3d 8329 193e 72ee 713e

network_body._body_endoder.seq_layers.0.bias f4 [128]
0.0026072657 -0.0072336216 0.0016444542 0.0018474229 -0.015605704 0.0007338936 0.0060155317 -0.006066544
-0.01178602 0.0049525066 -0.006676003 0.00014602763 0.00079819595 -0.004513392 -0.0001605174 0.0052421573
-0.011214196 -0.0010757893 0.0067045134 -0.004365974 0.0030272158 -0.007340117 -0.008015547 0.0054049534
-0.0053002527 0.01045544 0.00046956737 -0.009052847 -0.0003003127 -0.01129745 0.007203335 0.0046026926
-0.009133731 0.007607458 0.007920356 0.0052489927 0.0020285917 -0.019742394 -0.0024566802 0.0051531377
-0.008990091 -0.0071557546 -0.003938046 -0.0069722123 -0.0037508893 0.00192376 0.0035933258 -0.0062084883
-0.005815961 -0.010028351 -0.006618304 -0.005568131 -0.002460985 -0.004486609 0.005839138 0.0017486722
-0.018531531 -0.00013294697 0.0023758211 0.0018845125 -0.010177042 0.0009832513 0.009039293 0.013639139
-0.0049688946 -0.014993056 -5.6152567e-05 0.010359434 0.005239779 0.00020404134 0.007923156 0.0064173844
0.005547732 -0.013143092 0.0014950122 -0.0062679835 0.0037342429 -0.0022426466 -0.002345247 0.008764476
0.012770737 0.0062840255 0.0008637257 -0.002349848 -0.0035453713 0.005149157 -0.00016765633 -0.010688019
0.004627816 -0.0007322626 0.007575495 0.0011311402 -0.008124626 -0.009495541 -0.008585867 -0.01048048
-0.009520597 -0.0072492864 0.008039741 0.008814105 -0.012072336 0.00049686723 -0.0048088953 -0.0031548943
0.007930928 -0.0016954485 0.005114695 -0.0054995664 -0.00020497057 -0.008591031 -0.011823199 0.004015992
0.0058520986 -0.0039474266 0.01603594 -0.014971498 0.0012829489 0.009511304 0.007374044 -0.0022258072
0.0028916406 -0.00080352393 0.002012831 -0.0043671606 -0.004484532 -0.002282915 9.852048e-05 -0.007459151
00000000: a9de 2a3b 0408 edbb ba8a d73a 3a25 f23a
00000010: 11af 7fbc c462 403a f01d c53b dcc9 c6bb
00000020: 271a 41bc a348 a23b 5fc2 dabb fe1e 1939
00000030: 063e 513a 14e5 93bb 9050 28b9 67c6 ab3b
00000040: bfbb 37bc 8001 8dba 89b1 db3b 7210 8fbb
00000050: 4164 463b 5d85 f0bb a453 03bc 091c b13b
00000060: bead adbb 4b4d 2b3c 4430 f639 6452 14bc
00000070: 4a73 9db9 f118 39bc f409 ec3b 2fd2 963b
00000080: a5a5 15bc fc47 f93b 61c4 013c beff ab3b
00000090: 1ff2 043b cdba a1bc 4100 21bb a7db a83b
000000a0: 2d4b 13bc d27a eabb b90a 81bb 2877 e4bb
000000b0: 7bd1 75bb ad26 fc3a 017e 6b3b 9370 cbbb
000000c0: d193 bebb f44d 24bc 5cde d8bb de74 b6bb
000000d0: 7a48 21bb 6704 93bb 3d56 bf3b b433 e53a
000000e0: 70cf 97bc ae67 0bb9 aab3 1b3b bf01 f73a
000000f0: 9cbd 26bc 70e0 803a 8b19 143c b276 5f3c
00000100: 1cd2 a2bb 6fa5 75bc 5c85 6bb8 9eba 293c
00000110: 74b2 ab3b eef3 5539 20d0 013c ec48 d23b
00000120: c0c9 b53b 2056 57bc 49f4 c33a a863 cdbb
00000130: 33ba 743b 5ef9 12bb b7b2 19bb e098 0f3c
00000140: 5a3c 513c 3aea cd3b a76b 623a e8ff 19bb
00000150: 7659 68bb 42ba a83b e7cc 2fb9 cd1c 2fbc
00000160: efa4 973b 50f5 3fba dc3b f83b c442 943a
00000170: 271d 05bc 3093 1bbc bcab 0cbc 52b6 2bbc
00000180: 47fc 1bbc 6c8b edbb 1eb9 033c 0969 103c
00000190: 0ccb 45bc 3240 023a f093 9dbb 58c2 4ebb
000001a0: b9f0 013c d039 deba 2c99 a73b b535 b4bb
000001b0: 5eed 56b9 65c1 0cbc 17b6 41bc 9598 833b
000001c0: f6c2 bf3b 6a59 81bb ce5d 833c 044b 75bc
000001d0: 9f28 a83a 4dd5 1b3c f7a1 f13b d9de 11bb
000001e0: ae81 3d3b 94a3 52ba b3e9 033b 661a 8fbb
000001f0: fbf2 92bb f59c 15bb c89c ce38 e56b f4bb

network_body._body_endoder.seq_layers.2.weight f4 [128, 128]
0.015900714 0.072785094 -0.07212955 0.01546969 0.009011417 -0.027071284 -0.18182477 -0.08167921
0.033273637 0.065275766 0.18575032 0.00728037 -0.036947556 -0.15630192 -0.011815225 -0.1340743
0.100000955 -0.102378756 0.050730363 -0.073261015 0.029314898 0.12537983 -0.05376227 0.028088912
0.036164656 -0.06413178 -0.0060600056 -0.098234475 -0.053892758 0.09073617 -0.07563248 0.00817843
-0.19256017 0.017823678 0.21127672 0.019807946 -0.09101832 -0.10738837 0.08829087 0.06128251
0.08948304 0.082349904 0.054614354 0.16652733 -0.02148342 0.020425713 0.09395127 -0.04959597
-0.13716282 0.00878804 0.024562875 -0.022479141 -0.10476092 0.10700598 -0.024182683 -0.07026711
0.036509022 0.07174776 -0.057457667 0.22324006 0.01454392 -0.020975284 0.0794145 -0.035702392
0.091334954 -0.033717196 0.13245727 -0.1543893 -0.14452803 -0.12343607 -0.10194696 0.0115870405
-0.04737874 -0.092944756 0.04857059 -0.105066754 -0.016700894 0.119661435 0.057724476 0.11893199
0.08011517 0.044342443 -0.093535036 -0.037012007 0.17429651 -0.072612956 -0.13814758 -0.02731691
0.06618518 0.022547781 0.13124324 -0.12411811 0.13620578 -0.1290569 -0.09964608 0.08777717
0.1419169 0.079235986 -0.04039313 -0.13287143 0.0035814936 -0.039959695 -0.08138813 0.0054419106
0.0020460032 -0.08416823 0.011863786 0.038825095 0.01579422 0.042986255 0.015244968 0.06719369
-0.04682787 0.17426786 -0.022442404 -0.03580423 -0.017987097 0.14363033 -0.0465165 -0.17724596
-5.5897148e-05 -0.02373247 0.12098453 0.009024023 -0.11870842 0.14648095 -0.08587463 -0.04050149
0.08464323 -0.04920419 0.22069821 -0.11616612 0.10869521 -0.05871314 0.0059981616 -0.07127549
-0.19618288 -0.0156157855 0.12455207 -0.04067235 0.041208684 0.03441938 0.19317472 0.15607475
-0.07059584 -0.009907011 -0.018793939 0.007822561 -0.039166197 0.08515898 -0.005661747 -0.07008486
-0.0512378 0.1379756 -0.0073554255 0.0475043 -0.12393673 -0.0038237923 -0.027246604 0.13537355
0.02412277 -0.02991286 -0.008221886 0.12896319 0.029045079 0.036476854 0.040866986 -0.13987017
-0.16045071 -0.13005969 0.041902255 0.099927254 0.023367167 -0.059049804 -0.12190621 -0.017776418
0.024932016 -0.013031091 0.053755503 -0.1683526 -0.04286915 0.16805 0.0488891 -0.027591053
0.07061357 -0.02257639 0.07681651 0.04865384 -0.014852129 0.22250424 -0.0739304 0.18570815
0.057998177 -0.073615424 0.0967847 0.05400893 -0.09862343 -0.009101493 0.045780625 0.048464563
-0.01439541 0.051829923 -0.027785365 0.020362051 0.07187613 0.19352558 -0.069924176 0.030184286
-0.0077228826 -0.09717214 0.024671517 -0.030537281 -0.04986063 0.06631257 0.021716053 0.0423413
0.10152842 0.022705259 0.13277766 -0.089200236 0.04980004 -0.16170451 -0.1579465 0.06780207
0.078442745 -0.017514642 0.07090159 0.12394327 0.06959041 -0.003132273 0.09289461 -0.023584222
-0.09242812 0.042964395 0.07969676 -0.1573853 -0.035167273 0.15524374 -0.049215805 0.06370183
0.0485439 0.064961605 0.09358534 0.0122017525 -0.0065401886 -0.07915405 -0.046827983 0.0030878317
0.005562431 0.1285791 0.029658444 -0.10615541 -0.03272918 0.1826295 0.106614016 -0.052581277
00000000: 3742 823c 5a10 953d a8b8 93bd 9574 7d3c
00000010: 9fa4 133c 99c4 ddbc 4630 3abe 6e47 a7bd
00000020: f049 083d 4daf 853d 5535 3e3e 2c90 ee3b
00000030: 5256 17bd 9c0d 20be a594 41bc c64a 09be
00000040: 4dcd cc3d f4ab d1bd a4ca 4f3d df09 96bd
00000050: cc25 f03c 9263 003e d335 5cbd b81a e63c
00000060: 6421 143d 8657 83bd 0393 c6bb 282f c9bd
00000070: a7be 5cbd e3d3 b93d 34e5 9abd d2fe 053c
00000080: 7e2e 45be f602 923c ed58 583e 4644 a23c
00000090: d067 babd 6fee dbbd d8d1 b43d 5f03 7b3d
000000a0: e242 b73d 11a7 a83d 4db3 5f3d 2486 2a3e
000000b0: fffd afbc d353 a73c 8669 c03d 2525 4bbd
000000c0: 6974 0cbe b6fb 0f3c 1538 c93c 2d26 b8bc
000000d0: e58c d6bd f425 db3d c31a c6bc 34e8 8fbd
000000e0: 7c8a 153d 7df0 923d bb58 6bbd 0b99 643e
000000f0: 9f49 6e3c 5cd4 abbc 12a4 a23d ac3c 12bd
00000100: d20d bb3d 0b1b 0abd e1a2 073e 3b18 1ebe
00000110: 28ff 13be 0dcc fcbd 91c9 d0bd 92d7 3d3c
00000120: 3610 42bd d259 bebd f4f1 463d 3d2d d7bd
00000130: 50d0 88bc 0e11 f53d 8070 6c3d 9d92 f33d
00000140: 6c13 a43d 6ca0 353d 4c8f bfbd e799 17bd
00000150: c97a 323e 1ab6 94bd 8f76 0dbe b6c7 dfbc
00000160: 188c 873d 20b6 b83c a164 063e a331 febd
00000170: 8779 0b3e 7e27 04be 3e13 ccbd 84c4 b33d
00000180: aa52 113e 7a46 a23d 4473 25bd 730f 08be
00000190: 7eb7 6a3b c7ac 23bd d2ae a6bd 0e52 b23b
000001a0: 3d16 063b 6560 acbd 5360 423c 1007 1f3d
000001b0: e162 813c 5b12 303d 08c6 793c d89c 893d
000001c0: 95ce 3fbd 4673 323e 22d9 b7bc 75a7 12bd
000001d0: ad59 93bc d413 133e 1688 3ebd f77f 35be
000001e0: 1b73 6ab8 996a c2bc bdc6 f73d 7fd9 133c
000001f0: 661d f3bd 1aff 153e 0adf afbd e4e4 25bd
00000200: 6e59 ad3d 558a 49bd b6fe 613e 81e8 edbd
00000210: 989b de3d 317d 70bd 3a8c c43b e2f8 91bd
00000220: 2ae4 48be 5ad9 7fbc 2815 ff3d 0d98 26bd
00000230: 70ca 283d 56fb 0c3d 98cf 453e 0fd2 1f3e
00000240: 8d94 90bd 0451 22bc bff5 99bc 332a 003c
00000250: bc6c 20bd d567 ae3d 2d86 b9bb a788 8fbd
00000260: bade 51bd 7a49 0d3e c805 f1bb de93 423d
00000270: 8ad2 fdbd 9798 7abb 4534 dfbc 5d9f 0a3e
00000280: 1e9d c53c d00b f5bc 17b5 06bc ed0e 043e
00000290: f2ef ed3c c168 153d 2464 273d 203a 0fbe
000002a0: 314d 24be 5e2e 05be b3a1 2b3d a9a6 cc3d
000002b0: 806c bf3c 35de 71bd f7a9 f9bd da9f 91bc
000002c0: 3a3e cc3c 5b80 55bc bb2e 5c3d a064 2cbe
000002d0: 9097 2fbd 4d15 2c3e f03f 483d a206 e2bc
000002e0: d99d 903d 1ff2 b8bc f951 9d3d 4049 473d
000002f0: 5856 73bc 27d8 633e d268 97bd 472a 3e3e
00000300: 7f8f 6d3d afc3 96bd 0f37 c63d 7838 5d3d
00000310: 15fb c9bd 6e1e 15bc 7784 3b3d c782 463d
00000320: bada 6bbc 9d4b 543d 229e e3bc 51ce a63c
00000330: cb33 933d 922b 463e 6834 8fbd 0945 f73c
00000340: 3c10 fdbb 3002 c7bd ec1b ca3c 5229 fabc
00000350: a93a 4cbd e2ce 873d dde5 b13c 126e 2d3d
00000360: 22ee cf3d 6100 ba3c def6 073e 9dae b6bd
00000370: 20fb 4b3d de95 25be babc 21be d0db 8a3d
00000380: 97a6 a03d de7a 8fbc da34 913d f8d5 fd3d
00000390: 6b85 8e3d d246 4dbb 873f be3d b333 c1bc
000003a0: f44a bdbd 6ffb 2f3d 0e38 a33d 9d29 21be
000003b0: 8f0b 10bd 37f8 1e3e 8396 49bd 1b76 823d
000003c0: f8d5 463d 970a 853d aca9 bf3d dce9 473c
000003d0: 144f d6bb 851b a2bd b3ce 3fbd 385d 4a3b
000003e0: 0e45 b63b 3daa 033e 44f6 f23c 0268 d9bd
000003f0: 080f 06bd 3a03 3b3e 7358 da3d 775f 57bd

network_body._body_endoder.seq_layers.2.bias f4 [128]
0.0033823075 0.004453899 -0.0089414 0.0008283889 -0.004320691 -0.003060929 -0.007004709 0.0015556439
-0.01018 0.00026133325 0.001658665 0.00032313223 0.007532803 0.0045137024 0.00095887197 -0.011292627
0.017668298 0.009110633 -0.00972188 -0.0012038801 -0.0065391264 -0.0011961143 -0.0018898974 -0.0069954274
-0.005719156 0.004682864 0.013564443 0.0055881743 -0.0035990686 -0.005338636 -0.0055087185 0.0022285422
-0.0036748839 -0.0012471285 -0.0022284277 -0.0083767 -0.003473475 -0.011252926 0.005022566 -0.0051789884
0.004976892 -0.0027178808 -0.0056561297 -0.006006822 -0.0037350936 0.008628204 -0.002703359 0.004781419
-0.0038500144 0.009982593 0.013311864 0.0067951507 -0.007311373 0.0042764614 0.007005079 0.0074041975
0.001491346 0.0012535997 -0.007326818 -0.0067164185 -0.0057242825 -0.004993666 -0.0039553805 0.008930682
0.00773122 -0.0023138297 -0.008375861 -0.0058001615 0.011001566 0.008760317 -0.002941457 -0.0009263059
0.0044856216 0.006379945 -0.0030860337 0.0022440567 0.0017540661 0.0021673595 0.0030829762 -0.013057734
-0.005805207 0.0061027724 0.0039950064 1.04383e-05 0.0018095169 -2.3682638e-05 -0.00047024706 -0.002681566
9.2636685e-05 -0.0053182677 0.003851078 0.0052464833 -0.005892804 -0.010549682 -0.005775366 -0.0039342158
-0.0065791635 -0.002314351 -0.0029742692 -0.018712228 -0.006058106 -0.00873479 -0.0032500355 0.0024709594
-0.0036911247 -0.009923807 0.0045883097 -0.009209402 -0.0013527878 -0.0039904383 0.00034319697 0.003924178
0.0030023789 0.0040477724 0.0041540707 -0.00400939 -0.010172771 0.0031341964 -0.0067686103 -0.009494852
-0.0142548205 -0.00035786384 -0.0015211221 -0.008146591 -0.009134715 0.0037396336 -0.0034230293 -0.010506197
00000000: b4a9 5d3b 03f2 913b f37e 12bc 3d28 593a
00000010: 9594 8dbb de99 48bb c287 e5bb bfe6 cb3a
00000020: 04ca 26bc 8e03 8939 9067 d93a 136a a939
00000030: bbd5 f63b aee7 933b cf5c 7b3a b604 39bc
00000040: 1bbd 903c c444 153c 8548 1fbc 83cb 9dba
00000050: 2b46 d6bb f0c6 9cba 6fb6 f7ba e639 e5bb
00000060: c267 bbbb b672 993b 663d 5e3c 011d b73b
00000070: 5ade 6bbb baef aebb 7b82 b4bb bc0c 123b
00000080: 52d6 70bb b076 a3ba d00a 12bb 6d3e 09bc
00000090: 3ea3 63bb 315e 38bc 5694 a43b 81b4 a9bb
000000a0: 3215 a33b 791e 32bb 0e57 b9bb e0d4 c4bb
000000b0: 79c8 74bb 505d 0d3c d62a 31bb 73ad 9c3b
000000c0: 8650 7cbb 088e 233c 011a 5a3c dba9 de3b
000000d0: 3e94 efbb 8f21 8c3b dd8a e53b e99e f23b
000000e0: 4579 c33a d34f a43a ce15 f0bb 6715 dcbb
000000f0: c392 bbbb e8a1 a3bb 239c 81bb ff51 123c
00000100: 2d56 fd3b 9fa3 17bb e83a 09bc 480f bebb
00000110: ea3f 343c 6f87 0f3c 76c5 40bb 56d3 72ba
00000120: 1ffc 923b dc0e d13b 0e3f 4abb 0611 133b
00000130: b1e8 e53a 420a 0e3b c20b 4a3b 1bf0 55bc
00000140: 9b39 bebb c4f9 c73b 8be8 823b 2820 2f37
00000150: 502d ed3a 14aa c6b7 7e8b f6b9 36bd 2fbb
00000160: f145 c238 dd44 aebb 5e62 7c3b b1ea ab3b
00000170: 6c18 c1bb 93d8 2cbc 483f bdbb 98ea 80bb
00000180: 0696 d7bb 5eac 17bb f5eb 42bb 634a 99bc
00000190: 1483 c6bb 5d1c 0fbc 8cfe 54bb d2ef 213b
000001a0: cce6 71bb 7797 22bc 8859 963b 08e3 16bc
000001b0: 0750 b1ba 39c2 82bb 1eef b339 6496 803b
000001c0: 8fc3 443b 2da3 843b df1e 883b 3361 83bb
000001d0: b2ab 26bc 1767 4d3b 38cb ddbb 4c90 1bbc
000001e0: 0d8d 69bc ac9f bbb9 6360 c7ba 4779 05bc
000001f0: c6a9 15bc a414 753b e754 60bb 2f22 2cbc

action_model._continuous_distribution.log_sigma f4 [1, 2]
-9.773279e-05 -0.0068132505
00000000: e4f5 ccb8 b041 dfbb

action_model._continuous_distribution.mu.weight f4 [2, 128]
-0.0007478131 0.0068073245 -0.018399933 -0.002856753 -0.0039196364 -0.012724494 -0.015337482 0.0061821667
0.004905246 -0.04668055 0.01740158 0.014558999 0.020192802 0.01602131 0.011305551 -0.008783283
0.033745278 0.008642432 -0.003954981 -0.031543706 0.008381607 -0.016738124 0.0040197917 -0.002118291
-0.022342151 0.016008064 0.04175778 0.0076559186 -0.007047008 0.0018511462 -0.011860402 0.025444897
0.0023289444 -0.0066659558 -0.015119286 -0.007297383 -0.006373369 0.0022402178 0.020566067 0.0038008848
0.014276891 0.005806839 -0.03512345 -0.011799631 -0.029175656 0.05375145 -0.0048315893 0.014026611
-0.00030121594 0.010004082 0.017642567 0.025987966 0.0041708327 0.004122805 -0.026472153 0.010940987
0.0006382912 -0.016096832 0.0005877342 -0.007719057 -0.011524291 0.022256177 -0.025979433 0.034621272
0.027441524 -0.010352694 -0.0065181563 -0.00889168 0.01590679 0.019751718 0.02036171 -0.0030323518
0.022422804 -0.040493947 0.0050851693 -0.0027343435 -0.0004717163 0.016948877 0.0326898 -0.0012642584
-0.024227967 0.008721498 0.025681898 -0.005164233 0.0011522436 -0.00949696 0.02742695 0.011784981
-0.016917756 -0.0063669686 0.020835249 0.03008321 -0.010918376 -0.010156201 -0.0038167587 -0.006806458
0.0036525205 -2.1511185e-05 -0.0048225825 -0.016367504 -0.0057062954 -0.011489839 -0.0013188734 0.010001469
-0.006852883 -0.02856853 -0.03518113 -0.0457144 -0.016716374 -0.023723045 0.015501905 -0.018329743
0.0147694815 0.027227625 0.010574996 -0.019397225 -0.01371163 0.0140385395 -0.015218736 -0.0026984892
-0.022663377 0.0031525288 0.014152571 -0.018811299 -0.049547598 0.0061744377 0.010996525 -0.0021364707
-0.04173894 0.013830316 0.015338781 0.009542943 -0.020206807 -0.005850066 0.014693429 0.024083389
0.0053297933 -0.008509909 0.030043595 0.008974941 0.0041147782 0.04886373 -0.007109591 0.00406747
-0.0053005186 -0.021211823 -0.0010246665 0.036053404 -0.0031196827 0.010789896 -0.020280724 0.009129308
-0.0068055936 0.0007223069 -0.015489629 0.010794788 -0.015018766 -0.0050728153 -0.009165653 -0.024961496
0.004092532 -0.0056508044 0.03136643 -0.018507065 -0.00727858 -0.0051707397 0.04148253 0.006062914
-0.020401616 0.005286461 0.036810596 -0.0041409675 0.01077529 0.009561268 -0.015586358 0.021781273
0.009049303 0.011372993 -0.0009653695 -0.017372048 -0.0028307112 -0.0008782323 0.0057257935 -0.02449337
0.024449337 -0.018259225 0.0056610666 -0.006685299 -0.0018567677 -0.029822392 0.058867246 -0.016445708
0.0052738385 -0.0067757242 0.006680518 0.03448524 0.016338676 0.0046775946 0.011791441 -0.02356765
0.011110152 0.012908506 -0.0040596887 -0.016667234 0.008174111 0.031680953 -0.00076629495 -0.0007358829
-0.00092710473 -0.033136785 0.02712408 0.0072020525 0.013791672 -0.016553545 -0.0077448175 0.011918286
-0.019620145 -0.005906187 0.0045145173 -0.009124957 -0.005536073 0.003231723 -0.012220913 0.017111415
-0.0032977718 -0.015413003 0.012377809 -0.0015331327 0.022252083 -0.019816222 0.021531485 -0.013069175
0.03630728 0.015690254 0.04365003 0.04915373 -0.008229025 0.021441536 0.018351955 -0.001172707
-0.00587047 0.01751444 -0.005751252 0.025485458 0.006017676 0.018828472 0.0005110376 -0.0035733194
0.0076086246 -0.010941699 0.0037006394 0.0025520355 0.027100885 0.017464738 -0.0067353905 -0.02262803
00000000: e308 44ba fa0f df3b 75bb 96bc 5d38 3bbb
00000010: 4b70 80bb 657a 50bc 104a 7bbc c693 ca3b
00000020: 30bc a03b 1b34 3fbd c28d 8e3c de88 6e3c
00000030: 606b a53c 1f3f 833c eb3a 393c c2e7 0fbc
00000040: 7d38 0a3d fd98 0d3c c998 81bb f933 01bd
00000050: 0253 093c 641e 89bc 75b8 833b 07d3 0abb
00000060: e306 b7bc 5823 833c 350a 2b3d 80de fa3b
00000070: 96ea e6bb 29a2 f23a 2252 42bc d171 d03c
00000080: 34a1 183b 176e dabb e2b6 77bc e31e efbb
00000090: b2d7 d0bb 9ed0 123b 2b7a a83c 4418 793b
000000a0: 9fe9 693c 4c47 be3b 9bdd 0fbd 3d53 41bc
000000b0: c901 efbc 7b2a 5c3d 4f52 9ebb dfcf 653c
000000c0: 85ec 9db9 29e8 233c 2587 903c b7e4 d43c
000000d0: 7bab 883b 9818 873b 21dc d8bc d341 333c
000000e0: ff52 273a 81dd 83bc 2d12 1a3a 25f0 fcbb
000000f0: 61d0 3cbc 9652 b63c d2d2 d4bc 09cf 0d3d
00000100: 0ccd e03c 599e 29bc 4296 d5bb 69ae 11bc
00000110: f54e 823c 5bce a13c 9acd a63c 6cba 46bb
00000120: 07b0 b73c fbdc 25bd 7ea1 a63b ac32 33bb
00000130: b150 f7b9 5fd8 8a3c bde5 053d 79b5 a5ba
00000140: bb79 c6bc 9de4 0e3c d862 d23c ba38 a9bb
00000150: e106 973a 2399 1bbc 7cae e03c cb15 413c
00000160: 1b97 8abc 01a2 d0bb afae aa3c 1071 f63c
00000170: fde2 32bc 3266 26bc 9622 7abb b508 dfbb
00000180: 205f 6f3b eb72 b4b7 c106 9ebb 2515 86bc
00000190: e0fb babb e13f 3cbc 0cde acba 34dd 233c
000001a0: 268e e0bb 8d08 eabc 171a 10bd 063f 3bbd
000001b0: c7f0 88bc d556 c2bc b4fb 7d3c 4228 96bc
000001c0: b2fb 713c 780c df3c bf42 2d3c eee6 9ebc
000001d0: bfa6 60bc e701 663c 0158 79bc 23d9 30bb
000001e0: 8ca8 b9bc a89a 4e3b 2fe0 673c 271a 9abc
000001f0: 6cf2 4abd f052 ca3b c52a 343c 0804 0cbb
00000200: 73f6 2abd 8d98 623c 834f 7b3c 015a 1c3c
00000210: bf88 a5bc e9b1 bfbb b5bc 703c 874a c53c
00000220: 8ca5 ae3b 256d 0bbc fc1d f63c a20b 133c
00000230: 43d5 863b 5625 483d 92f7 e8bb 6948 853b
00000240: f9af adbb 6bc4 adbc 1a4e 86ba bcac 133d
00000250: 9773 4cbb 1bc8 303c c323 a6bc 1893 153c
00000260: 7501 dfbb 3259 3d3a 36c8 7dbc 9fdc 303c
00000270: 4511 76bc dc39 a6bb 892b 16bc 0d7c ccbc
00000280: a61a 863b 622a b9bb 167a 003d 219c 97bc
00000290: 2881 eebb 4f6f a9bb 96e9 293d 69ab c63b
000002a0: 4a21 a7bc 0d3a ad3b b5c6 163d f4b0 87bb
000002b0: d88a 303c dda6 1c3c ec5d 7fbc a46e b23c
000002c0: 8743 143c ca55 3a3c da10 7dba d34f 8ebc
000002d0: 7483 39bb 2c39 66ba 709f bb3b 52a6 c8bc
000002e0: fa49 c83c 5f94 95bc 7880 b93b 5a10 dbbb
000002f0: c95e f3ba 174e f4bc c81e 713d 26b9 86bc
00000300: 2ad0 ac3b e506 debb 3fe8 da3b 6540 0d3d
00000310: b0d8 853c 8246 993b e330 413c f210 c1bc
00000320: 5b07 363c 337e 533c 2307 85bb b989 88bc
00000330: b5ec 053c e3c3 013d 2fe1 48ba 44e8 40ba
00000340: f208 73ba 70ba 07bd 5233 de3c 32ff eb3b
00000350: 77f6 613c 4d9b 87bc 3dc8 fdbb ea44 433c
00000360: 6dba a0bc b088 c1bb 84ee 933b d880 15bc
00000370: f267 b5bb 51cb 533b 393a 48bc 3d2d 8c3c
00000380: 6e1f 58bb d286 7cbc 4bcc 4a3c 66f3 c8ba
00000390: 004a b63c a155 a2bc cc62 b03c 1820 56bc
000003a0: f1b6 143d d988 803c 60ca 323d 6c55 493d
000003b0: 08d3 06bc 29a6 af3c d756 963c 84b5 99ba
000003c0: 125d c0bb 717a 8f3c 0075 bcbb e1c6 d03c
000003d0: ed2f c53b 2b3e 9a3c 27f7 053a 5a2e 6abb
000003e0: c551 f93b d044 33bc 6d86 723b 0d40 273b
000003f0: ad02 de3c 3612 8f3c 8db4 dcbb 6b5e b9bc

action_model._continuous_distribution.mu.bias f4 [2]
0.0076532797 -0.0009669726
00000000: 5dc8 fa3b 6f7c 7dba

action_model._discrete_distribution.branches.0.weight f4 [2, 128]
-0.017713401 0.017065758 -0.009160144 -0.015324468 0.008153983 0.009049008 0.008308873 0.01569042
0.009141043 0.008441837 0.0061694267 -0.00851208 -0.004815788 0.023527874 -0.015393318 0.0073896237
0.018154714 -0.010047661 0.0121798385 0.015727032 0.0013361673 -0.019745328 -0.0031696497 -0.009183869
-0.0053610587 0.0137054715 0.013543171 0.012227324 0.0075546494 -0.01566834 -0.006263518 -0.0044223187
0.006938563 -0.011915237 0.007817693 -0.016617538 -0.010295297 -0.0003518691 0.0024121786 -0.0035207355
0.012906091 0.005414309 0.008125031 0.012137713 -0.009175232 0.028588792 -0.0044132345 0.015129341
0.005253811 -0.029813489 0.027914876 0.012484321 0.0008495362 0.009166304 0.0012394134 0.006932814
0.016166678 -0.0009248691 -2.2673217e-05 -0.0021035923 0.007825979 -0.008550264 0.007247992 0.008520516
0.015939128 -0.0015466057 -0.007872308 0.0025269557 -0.00092947716 0.0136941485 -0.006417958 -0.01857032
0.014368115 0.0020012034 0.0058047585 0.0006139907 0.0120246345 -0.009737746 -0.008645347 -0.025243627
-0.0151855545 -0.016270595 0.0041358583 -0.010957048 0.0009769759 -0.008908245 -0.010601382 -0.021399627
0.011526063 -0.018889064 0.0015541067 0.0061940188 -0.00063258933 -0.0028048272 0.0046023163 0.0075395103
-0.007428839 0.017819248 -0.0047103344 0.0007683021 0.000723753 -0.013506006 0.005555216 -0.018199777
0.008478117 -0.01187381 0.0031699126 -0.015362958 -0.0019452627 0.006729953 0.004046497 -0.012975561
-0.004647369 0.011893131 -0.0064081275 -0.014394539 0.005711762 0.0048729004 -0.0048216213 0.0065264655
0.0065092645 0.008540675 -0.009740688 0.0021793314 0.012459034 -0.00470829 0.008514617 0.014784606
-0.000174388 -0.017787747 0.0017597569 0.022952817 -0.0024412612 -0.006581309 0.012361984 -0.009735037
-0.0059485286 0.028888913 -0.005975784 0.0035870234 -0.013225331 -0.009022432 -0.030676588 -0.009648476
-0.006351367 0.0024104405 0.0009504963 -0.0053846613 0.007601996 0.003653188 0.015726773 -0.0033374275
-0.00700257 -0.006296192 -0.00022878246 -0.023644708 0.006073433 -0.00062651857 0.009235053 0.0071223164
-0.0029956223 0.012125503 -0.025345556 0.03262585 0.008530486 0.009431299 0.005198185 0.009473104
-0.009941993 0.0237557 -0.013677602 -0.007355142 0.019220876 -0.007492657 0.0014075381 -0.0069190157
-0.008775367 0.038195934 0.00062951416 0.0031926846 -0.017172998 0.021243865 -0.008580384 -0.0077147805
-0.0036880975 -0.015466345 0.0045309924 -0.011520216 -0.013206024 -0.0045352876 -0.0053405864 -0.0010054444
-0.0037225592 0.0144242365 0.010244066 0.003337837 0.0047358167 -0.015045598 -0.0076683834 -0.007504901
-0.01719204 0.0037466756 -0.015082752 -0.008945559 -0.0036313764 -0.0013681536 0.007737926 -0.01084891
0.020493677 -0.008671099 -0.005316098 0.012798171 0.01319142 0.013220847 0.012975655 0.0032959047
-0.0019237667 0.0038226827 0.023260092 -0.018097267 0.0072383787 -0.005996712 -0.018557018 -0.021690516
-0.0036417402 -0.010332398 0.023060769 0.004175443 0.014137032 -0.01956258 0.017453548 0.014031941
-0.0030078376 0.0067583066 -0.0063347267 -0.003728595 0.0085951295 0.018456358 0.0010219793 0.004666972
-0.0016960676 -0.020659788 0.0008350854 -0.010836226 0.014418565 -0.016406309 0.0053259837 0.004940421
-0.013046576 -0.007276201 -5.9058206e-05 0.01498672 -0.00082722877 -0.016263487 -0.0035188682 -0.007831117
00000000: b21b 91bc 7dcd 8b3c 6e14 16bc 7a13 7bbc
00000010: 4998 053c 4a42 143c f021 083c 3289 803c
00000020: 50c4 153c a14f 0a3c e728 ca3b 4076 0bbc
00000030: c2cd 9dbb 87bd c03c 4134 7cbc a824 f23b
00000040: 32b9 943c f29e 24bc f28d 473c fad5 803c
00000050: 5622 af3a f4c0 a1bc e6b9 4fbb f077 16bc
00000060: d2ab afbb ea8c 603c 2de4 5d3c 1d55 483c
00000070: fe8c f73b e45a 80bc 323e cdbb 19e9 90bb
00000080: e35c e33b 2038 43bc c815 003c 8121 88bc
00000090: 9bad 28bc 127b b8b9 a415 1e3b 24bc 66bb
000000a0: 1274 533c 846a b13b da1e 053c 42dd 463c
000000b0: b653 16bc 0b33 ea3c e59c 90bb 0ee1 773c
000000c0: 2928 ac3b 6b3b f4bc bdad e43c 0a8b 4c3c
000000d0: 69b3 5e3a 442e 163c d073 a23a a92c e33b
000000e0: fb6f 843c ea72 72ba 5d32 beb7 6cdc 09bb
000000f0: 8938 003c 6816 0cbc 9080 ed3b a299 0b3c
00000100: c692 823c 7ab7 caba dafa 00bc 489b 253b
00000110: 28a8 73ba 6c5d 603c bc4d d2bb c920 98bc
00000120: 3e68 6b3c 9f26 033b d835 be3b 38f4 203a
00000130: f902 453c 118b 1fbc 37a5 0dbc b9cb cebc
00000140: d5cc 78bc e949 85bc 1886 873b 3185 33bc
00000150: df0d 803a e3f3 11bc 6bb1 2dbc 454e afbc
00000160: d0d7 3c3c 3dbd 9abc 2bb3 cb3a 32f7 ca3b
00000170: 5ad4 25ba 31d1 37bb 07cf 963b ff0d f73b
00000180: 9e6d f3bb acf9 913c 2659 9abb e267 493a
00000190: 3eba 3d3a 4c48 5dbc 8808 b63b b317 95bc
000001a0: cde7 0a3c 5e8a 42bc 4fbe 4f3b ebb4 7bbc
000001b0: 2ff8 feba f086 dc3b 7a98 843b 7397 54bc
000001c0: f548 98bb 68db 423c 45fb d1bb 13d7 6bbc
000001d0: bb29 bb3b daac 9f3b b1fe 9dbb f6db d53b
000001e0: ab4b d53b 30ee 0b3c 6897 1fbc 1dd3 0e3b
000001f0: fa20 4c3c 0048 9abb e480 0b3c 223b 723c
00000200: ecdb 36b9 9cb7 91bc a5a7 e63a 8c07 bc3c
00000210: 91fd 1fbb 05a8 d7bb eb89 4a3c b47f 1fbc
00000220: e0eb c2bb 71a8 ec3c 82d0 c3bb 4414 6b3b
00000230: 0faf 58bc d3d2 13bc 784d fbbc a414 1ebc
00000240: 211f d0bb 7bf8 1d3b ba2a 793a d071 b0bb
00000250: 2a1a f93b 536a 6f3b 6fd5 803c beb8 5abb
00000260: d175 e5bb 4950 cebb 53e5 6fb9 8cb2 c1bc
00000270: a603 c73b f33c 24ba 9f4e 173c 5262 e93b
00000280: 3452 44bb 0caa 463c 7ca1 cfbc afa2 053d
00000290: 74c3 0b3c bc85 1a3c 8955 aa3b 1435 1b3c
000002a0: bee3 22bc 509b c23c 0518 60bc 6703 f1bb
000002b0: 1975 9d3c f684 f5bb 247d b83a e9b8 e2bb
000002c0: 8fc6 0fbc 5773 1c3d fb05 253a 5c3c 513b
000002d0: 63ae 8cbc 9d07 ae3c bd94 0cbc 45cc fcbb
000002e0: 02b4 71bb 8d66 7dbc b878 943b 4abf 3cbc
000002f0: 145e 58bc c09c 94bb 1600 afbb 1ec9 83ba
00000300: 2ef6 73bb a253 6c3c bad6 273c 9dbf 5a3b
00000310: e92e 9b3b d081 76bc 1047 fbbb aceb f5bb
00000320: 52d6 8cbc c98a 753b a61d 77bc 6590 12bc
00000330: 63fc 6dbb 9e53 b3ba 6e8e fd3b a0bf 31bc
00000340: 5be2 a73c 3a11 0ebc aa32 aebb 6baf 513c
00000350: d320 583c 409c 583c d797 543c 1b00 583b
00000360: e626 fcba f985 7a3b f38b be3c b840 94bc
00000370: ec2f ed3b 1180 c4bb e304 98bc 4fb0 b1bc
00000380: 43aa 6ebb 3849 29bc f0e9 bc3c 28d2 883b
00000390: 039f 673c b441 a0bc befa 8e3c 3ae6 653c
000003a0: 241f 45bb c974 dd3b 8a93 cfbb 725b 74bb
000003b0: 96d2 0c3c ca31 973c eff3 853a 66ed 983b
000003c0: 964e deba b73e a9bc a2e9 5a3a 6d8a 31bc
000003d0: d83b 6c3c 8666 86bc 9785 ae3b 41e3 a13b
000003e0: 4ec1 55bc 336d eebb 44b5 77b8 dc8a 753c
000003f0: 62da 58ba 013b 85bc d09c 66bb 164e 00bc

action_model._discrete_distribution.branches.0.bias f4 [2]
-0.0009799154 0.0009799126
00000000: 8170 80ba 6970 803a
