results/CombatTest1/MoveToGoal/MoveToGoal-62235.onnx (onnx, 77714 bytes, 9 tensors)

network_body._body_endoder.seq_layers.0.weight f4 [128, 4]
000000 58 08 9d 3d 63 d5 b5 be f3 94 c2 bc 40 4c c6 be
       0.07667607 -0.35514364 -0.023752665 -0.3873005
000010 d8 84 3b 3f a1 53 cd 3d 8a a1 3e bd c6 3f 12 3f
       0.7324958 0.100257166 -0.046540774 0.5712856
000020 91 ec 29 3e e3 1c 3b bf 6c f5 00 be 2d 56 12 3f
       0.16594149 -0.7309095 -0.12593621 0.57162744
000030 f9 0f 50 3e 76 ad 41 bf 7d 8e 0f bf 4b c7 a7 be
       0.20318593 -0.75655305 -0.56076795 -0.32769236
000040 2d 11 38 bf e5 69 1d 3f fc 61 66 be fd b5 e8 3d
       -0.7190121 0.6148971 -0.22498316 0.113628365
000050 05 0b 02 3c 03 f5 66 bd 5c e5 d0 be 6d ea 16 bc
       0.007937198 -0.056386005 -0.40799987 -0.009211165
000060 8c 3a 39 3f 64 7c c1 3e 7a 30 81 bf 9d 8c 98 3e
       0.7235496 0.37790215 -1.0092919 0.2979478
000070 9d 17 7f 3e aa 66 4d be f2 f7 a5 bd 65 60 f1 be
       0.24911352 -0.20058694 -0.081039324 -0.47143856
000080 34 72 6f bc 8c d6 88 3d 35 29 d9 be 65 91 14 bf
       -0.0146146305 0.066815466 -0.4241425 -0.58034354
000090 66 9a 71 3f d0 dc c3 be a0 b9 b7 3e 13 1c 4a 3e
       0.9437622 -0.38254404 0.35883808 0.19737272
0000a0 55 13 68 3e 3f e4 c0 be 5e a1 1c 3e 07 2f bd be
       0.22663625 -0.37674138 0.15295932 -0.36949942
0000b0 58 0a e9 3e 88 7f 25 bd c0 50 68 3e 96 d9 21 3e
       0.45515704 -0.040404826 0.22687054 0.15805659
0000c0 34 dc a9 be 19 f3 23 bf cf a6 22 be 27 28 80 3f
       -0.33175814 -0.6404281 -0.15883945 1.0012254
0000d0 c6 27 97 3e 99 f0 58 3f e4 4a 53 bd d8 a7 cd be
       0.29522532 0.8474212 -0.051585093 -0.40167117
0000e0 f5 51 86 bf fd 02 e9 be 3d 2c 5d 3e 0f 08 ec 3e
       -1.0493761 -0.45510092 0.21598907 0.46099898
0000f0 ff 8d db 3d 1f 30 4c bf 4c 3d 21 3f 04 0b 82 bc
       0.10720443 -0.79760927 0.62984157 -0.015874393
000100 07 78 53 be e6 80 6c bf 15 9b 4c bf cb ff c5 3c
       -0.20651256 -0.92384183 -0.79924136 0.024169823
000110 10 ef 02 3f ec ba c6 3e aa da b4 be 1d 47 f4 3e
       0.5114603 0.38814485 -0.35323077 0.47710505
000120 e0 3f 0f 3f d5 89 d6 3d 29 0e 3b be 61 d5 82 3d
       0.5595684 0.10475508 -0.1826712 0.06388355
000130 dc 1e 2e 3f 22 dd ba 3f 05 3e a9 3e 1f 35 25 3e
       0.6801584 1.4598734 0.3305513 0.16133545
000140 ac 34 87 3f f1 26 80 3f bf d3 81 3e 48 94 16 3f
       1.0562949 1.0011884 0.25356862 0.5882001
000150 a9 e0 95 3f 1d 92 12 3f df aa 6b 3e 05 ed 04 bf
       1.1709186 0.572542 0.23014401 -0.51924163
000160 aa bd d0 bd 10 3c 81 bc a5 87 7d be 07 b3 f5 be
       -0.101924255 -0.01577571 -0.24758776 -0.4798815
000170 d0 8d 06 3f 54 34 be bd cf f1 10 bf 5c 3e 1f be
       0.5256014 -0.092873245 -0.5661897 -0.15551132
000180 4d 58 51 3f c5 d5 d9 3e 23 91 c9 3e 17 ba 07 3f
       0.8177536 0.42545906 0.39368543 0.53018326
000190 be fa cf 3d ba 05 21 3d c1 ef ae be 99 3e 0f bf
       0.10155247 0.039312102 -0.34167293 -0.5595489
0001a0 95 85 71 bf 76 fb bd be 19 1a 71 bd bf 34 e6 be
       -0.94344455 -0.37105912 -0.05886278 -0.44962117
0001b0 5a 0f 27 3e 2d 1e c6 3c e1 1c 0c 3f f9 27 fc bd
       0.1631445 0.02418431 0.54731566 -0.12312312
0001c0 25 72 73 3e e1 0b 06 3f a0 2c 0e bf 3f b6 fc 3e
       0.23774011 0.52361876 -0.5553684 0.49357793
0001d0 bd 8f b5 be 11 3a 2b 3f 30 29 47 3f ec 07 85 bf
       -0.35461226 0.6688548 0.7779722 -1.0393043
0001e0 24 16 9d 3e 6f fb df bd c9 d7 93 be 09 61 00 bf
       0.30680954 -0.10936629 -0.28875569 -0.50148064
0001f0 f8 c0 80 3d 42 7e 39 3e 3f 6f 25 3e b8 e5 24 3c
       0.06286806 0.1811457 0.16155718 0.010064535
000200 e2 d2 f0 3e 04 18 ac 3e 0e 64 55 be 6d 34 80 3e
       0.4703589 0.33612072 -0.20838949 0.25039998
000210 33 44 5c 3c f4 68 e8 be 49 77 6d 3e 44 21 83 3e
       0.013443994 -0.45392573 0.23190035 0.25611317
000220 25 aa c5 3e 6d 2b c1 3d 8b f2 83 3d 69 5c 8c 3e
       0.38606372 0.09432111 0.06442746 0.27414253
000230 93 72 0b 3f 02 bb 96 3e 44 73 da be 30 90 9f 3e
       0.544717 0.2943955 -0.42666066 0.31164694
000240 1d 06 67 be c8 73 93 3d 23 90 9d bd 75 b2 89 bf
       -0.22560926 0.07199818 -0.076935075 -1.0757586
000250 bc a4 11 bd 7b e6 10 bf 88 2d 0f 3f 55 6f 80 bf
       -0.035557494 -0.56601685 0.5592885 -1.0033976
000260 b3 5d 6e bf 99 b9 43 bf 2c 39 8c 3f 1f 15 1a bf
       -0.93111724 -0.76455075 1.0954947 -0.6018848
000270 77 8d 24 bf b3 1a 19 be be 43 a1 3d 65 88 82 3f
       -0.6427836 -0.14951591 0.07874249 1.0197874
000280 cd f1 80 bf 6d 87 8a bf 0e 67 27 bf ce f0 07 bd
       -1.0073792 -1.0822579 -0.65391624 -0.033188634
000290 9c bf d3 bd ca 41 83 3f 26 1b 6e bf f6 63 15 bf
       -0.10339281 1.0254452 -0.93010175 -0.58355653
0002a0 11 b6 ac bd a3 9b 83 3e bf d4 f4 3e 4b 98 27 3f
       -0.08433164 0.2570468 0.47818562 0.65466756
0002b0 57 cf 71 3f 90 e7 ef 3d fb 87 b2 be 98 96 5a be
       0.94457 0.11714089 -0.3486937 -0.2134651
0002c0 76 ec bc bd ac c9 e2 be df e2 05 3f 7d 97 89 3d
       -0.09224789 -0.44294488 0.522993 0.06718347
0002d0 aa 4a a9 3e dd 51 48 bf a9 61 ad 3e a9 f2 2d 3f
       0.33064777 -0.78249913 0.3386357 0.67948395
0002e0 9f 51 47 be d8 9b de be 31 09 5b 3e bc c1 05 3f
       -0.1946473 -0.43478274 0.21390225 0.5224874
0002f0 f4 c4 29 3e be 98 b9 3e b2 2b 50 bd 5b 76 82 3e
       0.16579038 0.36249346 -0.05082292 0.25480923
000300 15 86 e9 bd 12 b0 65 3f f7 1c 04 3f 72 3b c0 be
       -0.11402527 0.89721787 0.51606697 -0.37545353
000310 84 25 9c be 68 88 84 bf ef 4c 8f bf 55 7d 3f bf
       -0.30497372 -1.0354128 -1.1195353 -0.74800617
000320 1b c7 3d be 0c ae de 3e 77 81 56 3e 28 6c ae bf
       -0.18532984 0.43492162 0.20947824 -1.3626757
000330 0c 02 13 3e 4c 10 56 bf b4 26 91 3f 30 4e 6c be
       0.1435625 -0.8361862 1.1339936 -0.23076701
000340 b7 9e 03 3f 4b 9e 97 3d a7 5b c1 3e 09 4b 59 3f
       0.51414055 0.07403239 0.37765238 0.8488012
000350 46 ed f4 b9 26 d0 8b bd 01 00 ab bb 64 e1 7e be
       -0.0004671609 -0.068268105 -0.0052185063 -0.24890667
000360 4f 30 4e 3e 72 0e bc 3e 02 e6 43 3f 47 9a b1 3e
       0.20135616 0.3672977 0.7652284 0.34688017
000370 02 d6 16 bf a0 c3 95 be 3d be 0a be 8f 24 13 3f
       -0.589203 -0.29250813 -0.13549133 0.5747766
000380 2f 83 5e 3e 01 64 1d 3e 83 9d a2 3d 20 bb be 3e
       0.2172973 0.1537018 0.07940199 0.3725214
000390 ad 69 6d bf ef 23 3a bf e8 b9 d6 bd 1f d7 2e 3f
       -0.92739373 -0.7271108 -0.104846776 0.68297
0003a0 10 32 ab be fc 67 11 3e e0 18 dd bd 05 85 61 3e
       -0.33436632 0.14199823 -0.1079576 0.22023399
0003b0 ba 25 5f be 9b b9 a4 bc 63 a6 34 bf fa 3c 02 3e
       -0.21791735 -0.020108035 -0.70566386 0.12718573
0003c0 44 53 11 3d 8a 0c f4 3e 8d a0 d4 3e 00 4a a0 be
       0.0354798 0.47665817 0.4152874 -0.31306458
0003d0 88 98 0a 3f f7 b3 69 3f ad 01 b8 be 83 6b ba be
       0.54138994 0.9129023 -0.3593878 -0.3641015
0003e0 fa a6 c8 3e 78 03 b8 3e 6c 16 48 3f 23 1b 84 bc
       0.39189893 0.35940146 0.78159213 -0.016126221
0003f0 64 97 fa 3e ed f6 03 3f 07 5d 1a 3e 48 77 35 3f
       0.48943627 0.51548654 0.1507455 0.70885134

network_body._body_endoder.seq_layers.0.bias f4 [128]
000000 31 ce 59 bc 94 ac 1e bc 4a 40 eb 3b 87 77 7d bc
       -0.013293789 -0.0096847005 0.0071792947 -0.015470392
000010 6f a6 53 bb 76 95 c7 3b f2 cd 62 bb 50 b1 1c bc
       -0.0032295247 0.006090815 -0.0034607616 -0.009563759
000020 87 a5 44 bc 7d b2 7a bc aa 0d 57 3c e6 bf 07 3b
       -0.012002355 -0.015301344 0.013125816 0.0020713746
000030 42 17 04 bc 12 5b fb 37 4c b8 6a bb d4 0b de ba
       -0.008062186 2.996394e-05 -0.0035815416 -0.0016940781
000040 bd c2 59 3b 4e 86 e4 3b fe 2a ed bb 47 34 8b 3c
       0.0033227645 0.006974018 -0.007237791 0.016992701
000050 e0 0e 4f 3c 73 3c 35 bc 8f 61 a4 bb 30 ba 6f bc
       0.012637824 -0.0110617755 -0.0050165127 -0.014631793
000060 b8 2d 47 3b 25 15 2c bb 46 69 90 bb f6 d3 09 bb
       0.003039224 -0.002625772 -0.004407081 -0.002103088
000070 89 3c 3f bc 57 fc 16 3b ad 77 59 3b 68 6e 04 3c
       -0.011672148 0.002303859 0.0033182905 0.0080829635
000080 bc a8 18 bb 0f 2d 98 bb 12 c0 e9 bb de 51 c7 bb
       -0.0023293933 -0.0046440433 -0.0071334923 -0.0060827574
000090 67 34 67 3b 8f 34 23 bc 8d a7 ff bb cd 23 92 bb
       0.0035279037 -0.009961261 -0.007801956 -0.004459834
0000a0 e8 b6 24 3c 90 a8 5b bb f2 52 33 3c 6c a9 06 3a
       0.010053374 -0.003351722 0.010945069 0.000513694
0000b0 63 b3 31 3c 94 d7 bd bb 3e 2a d9 3a 26 f7 eb 39
       0.010845992 -0.005793521 0.0016568375 0.00045006833
0000c0 1e 68 14 3c da 2e 92 3a f7 54 69 bc b2 0d c9 3b
       0.009058027 0.0011152879 -0.014241449 0.006135666
0000d0 ad af 81 3c a1 2d e1 bb 6e ba 40 3a 65 69 67 bb
       0.015830839 -0.0068718945 0.0007351999 -0.0035310623
0000e0 81 0b 99 3a 7e ae ea bb 94 cb 96 3b 14 cc bc 3a
       0.0011676402 -0.0071619144 0.004601905 0.0014404082
0000f0 6c 0c 87 bc 47 b5 91 bc 55 97 42 3b 66 76 0b 3c
       -0.016485415 -0.017786635 0.0029692252 0.008512115
000100 12 df 3d bc 23 2b a7 3b 63 b5 7d bc ab dd ce bb
       -0.011588829 0.005101578 -0.0154851405 -0.006313046
000110 f9 b6 b3 bb f0 20 51 3b 12 77 5e bc bf 52 3a bb
       -0.0054844585 0.0031910501 -0.013578193 -0.0028430668
000120 99 2e 6d 3b b9 48 ff 3a 4c 7b 7b bc 63 eb 8a bb
       0.0036191104 0.0019476629 -0.0153492205 -0.004239486
000130 5d 06 34 bc f2 69 4f 3b 4b 41 f8 3b 8c c1 2a 3c
       -0.010987845 0.0031648842 0.007576143 0.010422122
000140 e4 e1 87 3c db 5b fe b9 72 f2 a4 bc 9c 11 aa bb
       0.016587205 -0.00048515093 -0.020135138 -0.0051900875
000150 0a 69 e6 bb 44 dd 16 3c a2 d6 9b bc a9 df a4 bb
       -0.0070315646 0.009208027 -0.019023243 -0.005031545
000160 12 77 81 bb 1a 22 6c bc b5 e8 45 bb f4 f9 05 bb
       -0.003950962 -0.014412427 -0.0030198519 -0.0020443173
000170 79 80 39 bc af ed 36 bc a7 64 91 3a d2 03 53 bc
       -0.011322134 -0.011165067 0.0011092619 -0.012879329
000180 68 1c 05 3c 41 c4 55 bc 9e 30 80 3b 9a 15 c9 bc
       0.008124448 -0.013047279 0.0039120456 -0.024546433
000190 db 24 08 3c 60 90 d0 3b 2d 74 02 bc 7d 54 a4 bc
       0.008309568 0.006364867 -0.007962269 -0.020059818
0001a0 09 61 2e bb c1 5d cc bb a1 ee 56 3b c0 c0 3e 3b
       -0.002660813 -0.0062367623 0.0032796043 0.0029106587
0001b0 98 0c 0d 3c 2a 92 07 bc 8b ba 5c 3b 81 05 dc bb
       0.00860896 -0.008274594 0.0033680524 -0.0067145233
0001c0 71 b3 17 3c c6 96 db bb 4f 94 cd 3b 1a ca a4 bb
       0.009259091 -0.006701323 0.0062737833 -0.005028975
0001d0 5c 17 eb b9 05 b3 b7 bb 6e e3 c0 bb 28 97 34 3b
       -0.00044840097 -0.0056060576 -0.0058864867 0.0027555916
0001e0 14 e8 b2 bb aa c2 fd 3b 42 9c 15 bb e2 51 92 3c
       -0.005459795 0.007744153 -0.0022828733 0.01786131
0001f0 7c c6 8a bb f1 02 93 ba 9b 46 8b bb d8 a4 d0 3a
       -0.004235087 -0.0011216087 -0.00425036 0.0015918268

network_body._body_endoder.seq_layers.2.weight f4 [128, 128]
000000 64 a2 6e bd 27 1d 31 bd 2e 63 1a bd 73 4e cd 3d
       -0.058260337 -0.043240692 -0.03769224 0.100247286
000010 8c 4e b3 bc 69 1c 7b bd ea 6b 10 be 47 5e a5 bd
       -0.02188804 -0.06130639 -0.14103666 -0.080746226
000020 35 e6 81 3d 4b 1a bf 3b 20 08 32 be 40 46 42 3e
       0.06342737 0.005831992 -0.17385912 0.18972111
000030 9d c5 33 be 90 ba f5 bb 68 fe 52 3d f8 ff c7 bc
       -0.17555852 -0.0074990466 0.051512152 -0.024414048
000040 33 d0 40 3d 2f 80 0b 3c da 65 b2 3d 0e d5 9e 3d
       0.047073554 0.008514448 0.08710833 0.07755481
000050 60 31 33 bd b0 4f 90 bb 7f 4f bf 3a 1c a6 c1 bc
       -0.04374826 -0.0044040307 0.0014595835 -0.023638777
000060 d4 de fd 3d c4 0c a6 bd 7e e1 25 3c 5b 67 66 bb
       0.12396017 -0.081079036 0.010124562 -0.003515682
000070 8b 24 99 3d 79 61 8f bd 80 d9 51 3d 77 0b f5 3d
       0.07477673 -0.07001013 0.051232815 0.11965077
000080 40 09 06 3e 3d 08 08 bd ef f3 f3 3d 52 7c 43 3d
       0.13089466 -0.03321098 0.11911761 0.047725983
000090 7b ca 26 bc fd 8b 80 bc 3e 4a b9 3b 1d e6 f4 bd
       -0.010180111 -0.015691752 0.0056546023 -0.11957953
0000a0 23 6e 88 bc 26 80 b0 3d c6 7a 42 bd ef 7b 82 bd
       -0.01665408 0.086181924 -0.047480367 -0.06371295
0000b0 c2 3e 13 be b3 6c 8f bb d8 37 03 be 6a ba 1b be
       -0.14379409 -0.0043769716 -0.12814271 -0.1520783
0000c0 9a bb f3 bd dd ff 5b bd 80 fa e9 3b a1 6d b1 3c
       -0.119010165 -0.053710807 0.0071404576 0.02165872
0000d0 70 71 76 3d 5d 13 af bd 6e 22 e4 bd 2a 2a d2 bd
       0.060166776 -0.08548615 -0.111393794 -0.102619484
0000e0 77 d2 23 bd d7 43 aa bc d4 51 55 bd ba 8f 5b 3c
       -0.039995637 -0.020784302 -0.05207999 0.013400966
0000f0 aa d1 41 3e d0 40 da 3c 0b 0c 71 3d fd 35 87 3a
       0.18927637 0.026642233 0.058849376 0.0010315772
000100 71 42 3f 3d 3a bc 12 3d 74 9b 0b ba f7 21 12 3e
       0.046694223 0.035824038 -0.00053255935 0.14270769
000110 42 85 94 bd 08 1a 72 3d cd bb 04 bd dd f9 2d 3a
       -0.072519794 0.059106857 -0.032405663 0.0006636659
000120 d1 af 57 3d 22 7c be bd 6c 23 6d bc f8 87 f3 3d
       0.052657906 -0.0930102 -0.014473777 0.11891168
000130 28 34 25 3e a7 4b 88 3d a5 16 2c be 93 3c 94 3d
       0.16133177 0.066550545 -0.16805513 0.07238116
000140 f6 72 28 bd 18 4c 8a 3d 98 16 22 3c 4f cb 81 bd
       -0.04112526 0.06752795 0.009893082 -0.06337606
000150 19 75 53 bd 1e 36 e1 bc 9c b7 ec 3b 81 74 14 3e
       -0.051625345 -0.027491625 0.0072240364 0.14497568
000160 d7 1b 9d bb b4 d0 5f 3d 14 08 d4 bd 10 e8 49 be
       -0.0047945785 0.054642394 -0.10353103 -0.19717431
000170 22 c5 31 bd d1 ab 90 bd 95 de 5d 3d ca b4 69 3d
       -0.04340089 -0.070640214 0.05416735 0.05705718
000180 8e d8 00 3e 28 79 f3 3d 69 c8 c5 ba f1 38 97 3c
       0.12582609 0.11888343 -0.0015089634 0.018459769
000190 2f 55 54 bc 20 39 03 be 8a 89 d7 bd 31 4d c8 bd
       -0.0129597625 -0.1281476 -0.1052428 -0.09780348
0001a0 75 9a 39 3c 5a 07 42 bb b3 72 9c 3c 46 b9 3d 3c
       0.011328329 -0.0029606433 0.019097662 0.011579817
0001b0 49 61 72 bd 8a 64 d6 3b 54 10 1d bc 24 b0 95 bc
       -0.05917481 0.006542747 -0.009586412 -0.018272467
0001c0 f8 f9 0c 3e 3d 58 80 3c 1d d2 18 be 94 09 0e 3d
       0.1376723 0.015667075 -0.14923902 0.034677103
0001d0 52 7a 18 3d 21 c2 9e bd e6 6f d7 bd e3 f0 58 3d
       0.03722603 -0.07751871 -0.1051939 0.052964102
0001e0 6f cd f5 bd cd 53 c6 3c 9f 33 dc bd f6 06 8e 3d
       -0.12002074 0.024209881 -0.107520334 0.069349214
0001f0 5c 59 15 3b d7 37 32 bc 56 ed c4 3d ab 7d 48 bc
       0.0022788858 -0.010877571 0.09615581 -0.012236993
000200 fe 33 9e 3d 53 1f a5 bc 2d 81 4b 3e a4 cb 81 bc
       0.077247605 -0.020156538 0.19873495 -0.015844174
000210 1e cb 03 bd fd 01 ec bc 21 7e a8 bd a9 1f 03 bd
       -0.03217613 -0.028809542 -0.08227182 -0.032012615
000220 e7 e1 35 3e dc 62 84 3b c4 fd c8 3d c1 a8 73 bd
       0.17761956 0.0040401053 0.09814027 -0.05948711
000230 b4 2a f6 3d bd e9 6d bd 60 3f 9a bc 3d 7b 6b bd
       0.12019864 -0.05808424 -0.018829048 -0.057490576
000240 03 c0 1e be f7 70 33 bd 62 eb 8a bb 20 86 ce 3d
       -0.15502934 -0.043808904 -0.0042394856 0.10084176
000250 7a e6 30 bd 1b c6 3e be 46 be 25 3e 70 b7 a0 bd
       -0.04318855 -0.18630259 0.16185865 -0.07847488
000260 a5 47 a0 3d 29 ca 33 3d e4 8e 01 3d e9 a7 9a 3c
       0.07826165 0.043893967 0.03163041 0.018878894
000270 e5 0c 75 bd 23 55 43 3e 01 fa 00 3e 28 c9 ad bb
       -0.05982675 0.19075446 0.12595369 -0.0053035207
000280 74 4f 82 3d 67 51 b3 3c 12 35 0d 3e 1d 57 2c bc
       0.06362811 0.021889402 0.13789776 -0.010518816
000290 95 4c b7 3d 19 4a f4 3c 96 95 01 be 88 a5 f8 bd
       0.08950154 0.029820489 -0.12654719 -0.121409476
0002a0 a7 96 00 3e 2c b1 0e be e3 db eb 3d 50 4c e3 bd
       0.1255747 -0.13934773 0.115165494 -0.1109854
0002b0 33 c3 4c bd 48 60 ab 3d b9 a4 07 bc bb a2 80 3d
       -0.049990844 0.083679736 -0.008279019 0.062810384
0002c0 25 6b 94 3d d0 82 97 3d dd 43 ec 3c 2e 8a dc 3d
       0.07246999 0.073979974 0.028840953 0.10768543
0002d0 7b 9e b1 3d dd cf 6e bd 58 d1 de 3c ac a4 0e be
       0.08672806 -0.058303703 0.027199432 -0.13930005
0002e0 6c 7a 8c 3d 8d a1 60 bd 45 b6 17 bd e3 7c 49 3d
       0.068592876 -0.054841567 -0.03703906 0.049191367
0002f0 e6 99 63 3d f5 a1 4f bd 8e 9e 90 3d 6d f3 1d bd
       0.05556669 -0.050691564 0.07061492 -0.038562227
000300 8b 30 88 bc 07 08 22 3d 12 8f 2c 3c 96 86 54 3d
       -0.01662471 0.039558437 0.0105321575 0.051886164
000310 75 86 b5 bc 8b 28 98 3d 9d c5 04 be c9 a7 f8 bc
       -0.02215884 0.07429608 -0.12966008 -0.030353444
000320 c2 17 09 3e 3f 5b f4 3c 4e 88 f5 bd 8a 25 3b be
       0.13387969 0.029828666 -0.11988889 -0.18276039
000330 0b 1b c1 3d 8d 85 13 bd ac 86 61 3d 89 fb 8c bd
       0.09428986 -0.036016036 0.055060074 -0.06883914
000340 76 26 80 bd b4 30 ad 3d e6 ac 93 bd f9 58 8d bd
       -0.06257336 0.08456555 -0.07210712 -0.06901736
000350 db 06 fb 3d c3 7c a6 bd a5 69 09 3e bc 72 a5 bd
       0.12257167 -0.08129265 0.13419206 -0.080785245
000360 04 77 c5 bd 99 ad ef bc e1 4e eb bc 00 c0 22 3c
       -0.09641841 -0.029257583 -0.028724136 0.009933472
000370 9f 65 a4 3d 50 2f fd 3c 02 b0 56 bc b9 6f f1 3d
       0.08027195 0.03090635 -0.013103487 0.117888875
000380 24 bc 3f 3e 35 18 38 3e bd e1 28 3e 15 2b c6 bd
       0.18724114 0.17977984 0.16492362 -0.09676186
000390 c8 28 a6 3d 91 f8 87 bd 14 89 de bd 42 a6 32 3d
       0.08113247 -0.06639207 -0.10865989 0.043615587
0003a0 26 ed f4 bb 64 cb fb 3b 9c 37 5b 3d 90 06 8f 3d
       -0.0074745594 0.007684158 0.05351983 0.069836736
0003b0 09 b6 46 3d 41 4c 16 3e 11 42 fd 3d a7 21 b1 3d
       0.048513446 0.14677526 0.12366117 0.08648997
0003c0 e4 41 f8 3c 6b 10 8a bb 7b 06 d5 3d 19 62 13 bd
       0.030304857 -0.004213383 0.10401627 -0.035982225
0003d0 bf 9e ad 3d 26 64 2a 3d bb 49 47 3c 9e dc 42 bd
       0.08477544 0.041599415 0.012163575 -0.04757368
0003e0 83 e3 08 be d3 51 a6 bd e7 c2 9b bc 2f 55 14 3d
       -0.13368039 -0.081210755 -0.019013835 0.03621405
0003f0 42 42 28 3d a4 97 f6 3c 51 8a 2f 3c 2d 50 f5 3d
       0.041078813 0.030101605 0.01071413 0.11978183

network_body._body_endoder.seq_layers.2.bias f4 [128]
000000 d2 08 a4 ba 19 36 27 3c d0 b4 1d bc a4 a1 23 bc
       -0.0012514836 0.010205769 -0.009625629 -0.009987269
000010 f2 e1 f7 3a 2e 7a 91 3b fa 8c f6 bb 3b 8f 0f 3c
       0.0018911941 0.004439614 -0.00752413 0.008762176
000020 ca 5b 8e bc da 6f b5 39 01 3e 3c 3c 94 51 ed bb
       -0.017377753 0.00034606346 0.011489392 -0.007242391
000030 ce f0 6b bc 23 d2 e4 bb 23 a9 35 bb 20 e1 eb bb
       -0.014400674 -0.006983058 -0.0027719222 -0.007198468
000040 a2 df 23 bc 09 0e 7b bc 10 23 a4 ba 92 da ea bb
       -0.010002049 -0.01532317 -0.0012522656 -0.007167169
000050 ba 0b 60 3c da 21 12 bc 94 ba fe 3b 8e 97 23 3c
       0.013674671 -0.008919204 0.0077737067 0.009984864
000060 27 22 c5 ba 67 1b 61 3b 58 01 ce bb c1 28 04 ba
       -0.0015040085 0.0034348608 -0.0062867813 -0.0005041473
000070 97 cf cd ba af b7 ad bb 7c d7 9a bb ce da 6f bc
       -0.0015702125 -0.005301438 -0.004725395 -0.014639569
000080 64 8f bc bb d0 0f 14 3c f6 1b 8f bb 3a 31 72 bc
       -0.005754398 0.009036973 -0.004367347 -0.014782244
000090 ce 39 61 bc 71 3f 5b bc 49 9c 2e 3c 68 17 2b bc
       -0.013746692 -0.013381825 0.0106573785 -0.010442592
0000a0 90 36 cb 3b b4 50 06 3c cd 68 5b bc 9e 24 0a 3b
       0.0062015727 0.008197952 -0.013391686 0.0021078954
0000b0 0d 71 f1 3b a2 da 55 ba ef b4 82 bc 40 9d bc b9
       0.007368213 -0.0008157884 -0.015955416 -0.00035975315
0000c0 3d 27 46 3b a1 15 84 bb f0 33 04 3c 8d dd 72 3c
       0.003023579 -0.0040308987 0.0080690235 0.01482333
0000d0 09 af 10 bc 07 61 3c bc 95 27 77 3c 46 ff 07 ba
       -0.008830794 -0.0114977425 0.015085121 -0.000518788
0000e0 0e c2 bf ba 22 f9 d1 bb e5 1c 1f bb 1c 3b 97 bb
       -0.0014629976 -0.006407873 -0.0024278697 -0.0046152007
0000f0 86 b5 03 bc b3 5a 83 bb d1 a7 6f bc aa bb 1e 3a
       -0.008038884 -0.004008615 -0.014627413 0.0006055186
000100 ea f9 88 3b f3 62 57 bb 72 21 98 3b b9 f8 f1 3b
       0.0041801827 -0.0032865375 0.004642659 0.0073843864
000110 ca 95 d9 3b 59 87 48 b9 be ad 1a bc 66 aa a8 bc
       0.0066401707 -0.00019123907 -0.009440837 -0.020589065
000120 2e 4d 23 bc e2 d7 99 3b 4a 01 67 bb f4 f0 3b 3a
       -0.009967132 0.0046949247 -0.003524857 0.00071693887
000130 d0 6e 1e 39 6f 5f 22 bc 78 09 62 bc d3 5f 42 bc
       0.00015109335 -0.009910448 -0.013796203 -0.011863667
000140 ed a6 2f 3c 71 b7 ab bb 0c 00 de bb 19 29 c0 bb
       0.010720951 -0.005240374 -0.006774908 -0.005864274
000150 6b 26 d9 bb af 65 11 ba 89 f2 77 bc 3d 05 fe bb
       -0.006626894 -0.0005546463 -0.0151335085 -0.0077520893
000160 da f0 76 bc b7 8c 0c 3d 60 9c 4f 3a 52 0b 4e 3b
       -0.015072072 0.034313884 0.0007919725 0.0031439853
000170 ff 98 29 3c 43 c1 1e 3a e3 e2 91 bb f7 8e e7 bb
       0.0103514185 0.000605602 -0.004452096 -0.0070666033
000180 31 81 7f bb f4 20 81 3c 76 84 08 bc 11 6e 3e bc
       -0.0038986916 0.015762784 -0.008332362 -0.011622922
000190 ca aa 03 bc 36 82 1c 3c 4d 8f 8c bb 79 bb 33 bc
       -0.008036325 0.009552529 -0.0042895437 -0.01096999
0001a0 03 73 8a bb 89 47 c5 bb a0 99 55 3c 0a c3 09 3c
       -0.0042251362 -0.0060204905 0.013037115 0.008408317
0001b0 00 f0 4c bb d3 c0 eb bb 16 ba 04 3c 77 49 81 bb
       -0.003127098 -0.0071946173 0.008101007 -0.0039455253
0001c0 93 d8 96 bc 51 d8 a2 39 96 77 01 3b 61 0d 41 bc
       -0.018413818 0.00031060216 0.0019755117 -0.011782975
0001d0 0d a9 76 ba 56 04 51 bb 96 ea 2d bc 4b 34 65 ba
       -0.0009409346 -0.0031893454 -0.010615012 -0.0008743449
0001e0 45 db 14 3c c7 6a a4 bb bf 84 50 3b 20 b9 a1 bb
       0.009085481 -0.0050176117 0.0031817404 -0.0049353987
0001f0 cd 16 1c bb 5d 41 e7 bb c0 5c 86 bc 00 fd d7 bb
       -0.0023817301 -0.0070573525 -0.016401649 -0.0065914392

action_model._continuous_distribution.log_sigma f4 [1, 2]
000000 ed 6c 7c 3c c5 13 ee ba
       0.015406829 -0.0018163851

action_model._continuous_distribution.mu.weight f4 [2, 128]
000000 fa 9e 32 3b e9 0a e8 bc ac fd ba 3c c4 3c 1a 3c
       0.0027255402 -0.028325515 0.022826038 0.009413902
000010 ca a9 b2 3c a4 d7 0f bd 51 1c 36 bc e3 5d ec bb
       0.021809477 -0.03511776 -0.01111515 -0.0072133406
000020 d7 f7 8d 3a d4 75 c1 bc b1 2d b9 bb cd 31 88 3c
       0.0010831308 -0.023615755 -0.005651199 0.01662531
000030 24 22 dc 3c 31 a4 22 3c c7 ab 83 3b 8f 93 4e 3c
       0.026871748 0.009926842 0.00401828 0.012608423
000040 c3 0a e1 ba 0a 85 ba 3b 4e 8f 61 3b 0f 71 0e 3c
       -0.0017169345 0.005692129 0.0034417692 0.008693947
000050 27 95 a8 bb 69 85 13 3c 6d a8 ad bc 25 25 ec bc
       -0.0051447335 0.009003975 -0.021198476 -0.028826306
000060 fd ee 09 3c 58 2d 5a bb bb 20 dc 3b ee ea c1 3c
       0.008418796 -0.0033291187 0.006717769 0.023671594
000070 e9 01 59 bc fb fb af 38 02 a5 91 bb cb a1 05 3d
       -0.013245084 8.391585e-05 -0.0044447193 0.032625
000080 f8 5b 2e 3d 0b bb b8 bc 82 e3 ff 3a 05 bb f4 3c
       0.042568177 -0.022550127 0.0019522759 0.029874334
000090 95 c1 16 3a dd 2c 6c 3c f8 bb ba bc eb e4 2f 3d
       0.0005750892 0.014414993 -0.022794709 0.042942923
0000a0 f9 ac bf bc 36 26 06 bd 8f 56 06 3c 19 86 87 bb
       -0.02339791 -0.032751285 0.008199348 -0.0041358587
0000b0 ae 8d 06 bd 32 01 2a bc d4 c4 90 3c d4 17 68 bc
       -0.03284996 -0.010376262 0.01767198 -0.014165837
0000c0 d5 6f 77 bc 80 ee 00 3b 83 07 15 bc b5 10 d1 bb
       -0.015102346 0.0019673407 -0.009096029 -0.0063801655
0000d0 dc e8 ed bb 97 77 61 3c 86 8e 24 bd f5 c9 4e bc
       -0.007260425 0.013761423 -0.040174983 -0.0126213925
0000e0 8e 1d ab bb 71 a3 55 3c ac a1 16 bb e8 16 a9 bb
       -0.005222029 0.013039456 -0.0022984548 -0.0051602013
0000f0 98 f4 b4 bb e3 31 d9 ba fe a4 54 3c bc 0f aa 3a
       -0.005522322 -0.0016570654 0.01297879 0.001297466
000100 d2 cc bc 3c 71 a0 b9 3b 2d 37 be bc f7 99 02 bc
       0.023046885 0.005664878 -0.02321967 -0.007971278
000110 98 09 be bc 63 42 06 bd 71 37 5a 3c 5a 1e 6c 3c
       -0.023197934 -0.032778155 0.013318882 0.014411533
000120 72 1e f5 3b 72 99 fe bc 87 1d 3f bc 3f 4e 55 3c
       0.007480436 -0.031079028 -0.011664755 0.013019144
000130 72 0c 0c bc 60 07 bc 3c ea 34 ef 3b 9b 9f 94 3c
       -0.008547889 0.022952735 0.007300009 0.018142512
000140 bc 05 e8 bc ca 6b b1 3c a5 3e ce 3c c8 62 3b bc
       -0.028323047 0.021657843 0.025176356 -0.0114371255
000150 df 41 ae 3a 7f e3 86 bc c4 af a1 3b 9f d0 c0 3c
       0.0013294778 -0.0164659 0.004934283 0.023536978
000160 f5 9d 8a 3b 95 ce 1a bd e5 cc 42 bc e4 3e a1 3b
       0.0042302557 -0.03779467 -0.011889671 0.004920827
000170 2b 1c 1e bd d3 b9 e3 ba 1e a1 e3 3b 15 e2 29 3d
       -0.03860108 -0.0017374106 0.006946697 0.041475374
000180 63 a9 30 b9 f6 e5 89 bc 92 0f f1 bc 9c aa 83 3c
       -0.0001684777 -0.016833287 -0.02942637 0.016072564
000190 25 bc 28 3d d8 56 a9 bc 0a f4 c6 bc c5 ae 01 bc
       0.041195054 -0.020671293 -0.024286289 -0.007915203
0001a0 8d 41 80 3c 68 a3 6f 3c 37 19 a5 bc c2 47 9c bc
       0.015656257 0.014626361 -0.020153625 -0.019077186
0001b0 70 00 7c bc 51 f2 f2 3b 02 9e 8e bc f5 d8 d5 bb
       -0.015380964 0.0074141403 -0.017409328 -0.0065261074
0001c0 ef d2 bd 3c 7f 27 02 3d 8d c0 d8 3c 0b 54 cc 3c
       0.02317187 0.031775948 0.026459003 0.024942419
0001d0 89 3e 21 bc b4 30 20 3d 59 bb af 3b 99 61 70 3a
       -0.00984157 0.039108947 0.0053629098 0.00091698166
0001e0 73 f1 91 3c b9 63 10 bc 9e 91 0b bd fd 1e 1b bb
       0.017815327 -0.008812838 -0.03407442 -0.0023669594
0001f0 39 7a 69 39 2e ee e3 3c 99 f6 d1 3c a6 1b 12 bc
       0.00022266143 0.027823534 0.025630282 -0.008917725
000200 0f a6 cb bc 7b 13 4f ba c9 b4 2f bc df 98 f3 bb
       -0.024859456 -0.0007899326 -0.010724255 -0.007433995
000210 2a bd 81 3c 68 7a 2d bd 59 c9 31 3c 70 e5 0a bc
       0.01583727 -0.042353064 0.010851228 -0.008477554
000220 35 13 f2 3b 7c 3f 8e bc d9 c4 fb 3b 3e 05 50 bc
       0.0073875436 -0.017364256 0.007683378 -0.012696562
000230 fa dd 02 bc 69 8a 9b 3b 68 87 9e bc 53 80 9a 3c
       -0.007987494 0.0047467244 -0.019351676 0.018860018
000240 8c ad 5a bc 57 94 10 3c 1c 6f ba 3c 68 52 68 bc
       -0.013347041 0.0088244295 0.02275806 -0.014179803
000250 17 ea d3 bb c3 38 36 bc 03 19 15 3c f6 82 4f 3c
       -0.0064671147 -0.0111219315 0.009100202 0.012665501
000260 9e a9 86 bc 32 d5 55 bc 90 15 b0 bc 2e 0e 82 3c
       -0.016438302 -0.013051318 -0.021494657 0.015875902
000270 38 8b 1c 3c a0 a4 6a bc e1 73 36 bc 99 47 85 3b
       0.009554677 -0.014321476 -0.011136026 0.004067373
000280 63 7d ee 3b e6 b2 ea 3b 40 67 fa bc 8e 5a 67 bc
       0.007278131 0.0071624396 -0.030566812 -0.014120711
000290 7c fa 6e 3c ba 61 18 3b ff bd 25 3c 23 7c 92 bb
       0.014586087 0.002325161 0.010116099 -0.0044703647
0002a0 04 ae 0c bc ff 86 d6 bc 1e 9b 84 b9 43 38 0b bc
       -0.00858641 -0.026187418 -0.00025292573 -0.008497301
0002b0 40 7e 9c bb 8b f8 4f 3c 55 03 a6 3b 94 b2 2f 3c
       -0.0047757924 0.012693535 0.005066315 0.010723729
0002c0 67 9d d3 3c 56 b6 d3 3c a3 f9 3c 3c ba 1a 49 3c
       0.025831891 0.02584378 0.011534127 0.0122744385
0002d0 2e 63 b0 bb 79 4c 4b bc f9 83 85 bc 48 cc 9a 3c
       -0.005382917 -0.012408369 -0.016298281 0.018896237
0002e0 09 f9 93 bc 6f 6f b2 3c bc 63 bd bc 00 26 32 3c
       -0.018063085 0.021781651 -0.023118846 0.010873318
0002f0 31 27 d0 bb 50 12 19 bd ad e3 8b bc ee cc d9 bc
       -0.006352328 -0.03737098 -0.017076338 -0.026586976
000300 36 ac 85 3c d9 62 a0 bc 49 8f 0a 3c d5 95 50 ba
       0.016317468 -0.019578384 0.008457013 -0.0007956897
000310 63 bb c9 3b 42 91 df 3b 31 5f a3 bc 12 9c 37 3b
       0.0061563714 0.006822736 -0.019942852 0.002801661
000320 ac 6a b4 bc 66 c1 9e 3c 9d ea 88 ba 9f 4a 70 3c
       -0.022023521 0.019379329 -0.0010445897 0.014666229
000330 76 4e a8 bb b4 da 60 bc 66 cb 27 bb 37 1a 80 3b
       -0.0051363064 -0.013724018 -0.0025603413 0.003909375
000340 f3 0d 1a 3c 41 70 0c 38 b1 d9 15 3c 0d c4 94 bb
       0.00940274 3.3483146e-05 0.00914614 -0.0045399726
000350 d7 d1 9c 3b 58 a8 72 bc ff 83 cf bb 3d 93 b0 3b
       0.004785757 -0.014810644 -0.006332874 0.005388646
000360 68 4a 72 bb ce 37 2e 3c 64 26 77 3c 40 f2 f1 3c
       -0.003697062 0.010633422 0.015084837 0.02953446
000370 e7 e1 2f 3c 50 36 5a 3c 3a 92 f1 bc ae 3d 1c 3b
       0.010735012 0.013318613 -0.029488672 0.0023840475
000380 5d 39 6b 3c f5 69 0d 3c 78 17 47 3c 55 39 d9 3b
       0.014356938 0.008631219 0.0121515915 0.006629149
000390 9d e6 b5 bc e1 1d 65 bc cf 18 b8 3c b1 5d a0 3c
       -0.022204692 -0.0139841745 0.022472767 0.019575926
0003a0 9e ec 0c 3c 8c ed 92 3c f2 d9 4f bb d9 55 1d 3d
       0.008601336 0.017935537 -0.00317156 0.03841195
0003b0 31 31 23 bd 0e 35 af bb 81 a2 15 bc 1a ca 62 bb
       -0.039841834 -0.005346901 -0.009132982 -0.0034605325
0003c0 06 ed 77 bc 3e dc 4b bb de f1 88 3c 13 f2 93 bc
       -0.015132194 -0.0031106616 0.016716894 -0.018059766
0003d0 c7 f8 99 bc a8 d7 1c 3d a6 f4 b8 bc 4c 61 d0 bc
       -0.018795384 0.038291603 -0.022577595 -0.02543702
0003e0 64 37 22 3d 07 b1 03 bd e1 e4 b7 3c a5 84 03 bd
       0.039603606 -0.03215125 0.022448005 -0.03210892
0003f0 ec 1e 00 bc b1 c4 cc 3c a9 1d db 3b ee e4 a2 3b
       -0.007819872 0.024996134 0.0066868854 0.004971138

action_model._continuous_distribution.mu.bias f4 [2]
000000 a8 ef 40 bc 20 11 90 3a
       -0.0117758885 0.0010991432

action_model._discrete_distribution.branches.0.weight f4 [2, 128]
000000 e9 7b 8d bb 63 0f fb 3a ca aa 9e bb b5 fe 84 3c
       -0.0043177498 0.0019154366 -0.004842137 0.016234735
000010 33 ea ae bc 4e f5 d8 3b 7e 39 39 3c 2a 27 80 bc
       -0.02135191 0.0066210395 0.011305211 -0.015643675
000020 a9 c9 91 3c 44 b1 0a 3b b0 43 84 bc 11 09 04 bc
       0.017796354 0.0021162787 -0.016145557 -0.008058802
000030 93 c6 25 bc 18 ac f4 bb 4f 77 59 bc 6b 30 47 bb
       -0.010118145 -0.0074668042 -0.013273074 -0.003039385
000040 f1 9c 57 bb 62 13 f5 bb 07 17 4f bb 99 a3 a4 bc
       -0.003289994 -0.0074791173 -0.0031599419 -0.02009754
000050 83 41 c5 bc e3 03 62 bb b8 9e a5 3c 1f c2 b2 bb
       -0.02407909 -0.003448718 0.020217285 -0.00545527
000060 c0 01 66 bc 36 0b 9d bc 01 f4 3d bc 09 2b 80 3c
       -0.014038503 -0.019170385 -0.01159382 0.01564552
000070 25 58 a8 3b 78 80 27 bc 45 d9 7c ba 45 51 66 bb
       0.005137461 -0.0102235 -0.0009645413 -0.0035143655
000080 a0 d0 10 bd 1a 92 67 bc 6b e8 3c bc f6 4a b8 3c
       -0.03535521 -0.014133954 -0.011530022 0.022496682
000090 83 53 ce 3b f4 71 4d bb 0d d9 df ba 9e e8 5a bc
       0.0062965765 -0.003134844 -0.0017078236 -0.013361124
0000a0 04 c8 df bb 3f 49 e4 3b 8b b7 2f bc fc c6 9b bb
       -0.0068292636 0.0069667394 -0.010724912 -0.0047539454
0000b0 3c 56 d7 bb 5e ed df ba 26 b3 a5 3b 01 cc 4e 3c
       -0.0065715592 -0.0017084291 0.0050567565 0.0126218805
0000c0 f8 3c 6c bc 29 57 2d 3c 17 3c 64 3c 2b 2b 36 bc
       -0.014418833 0.010579863 0.013930342 -0.0111186905
0000d0 c8 9d 5d bc 15 58 14 3a 28 e5 40 bc 4a d4 15 3c
       -0.0135263875 0.0005658877 -0.011773385 0.009144852
0000e0 6d 31 4d bc 21 58 a3 b9 75 f5 c9 3b c9 f4 ad bb
       -0.012523991 -0.00031155444 0.006163294 -0.0053087217
0000f0 3a b6 36 bc a3 ad 8b 3b a7 aa ce ba 1a 68 5b bc
       -0.011151845 0.0042626425 -0.0015767411 -0.013391519
000100 d4 22 82 bc 8a e8 5d 3c 8d 14 2b 3a 24 97 a6 bc
       -0.015885748 0.013544211 0.00065261946 -0.020335741
000110 70 ce 32 bc 59 fc 10 bc 4b 95 fb 3a c0 a8 75 bb
       -0.010913476 -0.008849227 0.0019194273 -0.0037484616
000120 64 34 db 3b cd 7b af 3b 19 12 6d 3b ff 53 32 bc
       0.006689595 0.0053553344 0.0036174117 -0.010884284
000130 aa 2d d6 bb 04 29 26 3c 10 a6 2f ba 87 82 f8 3b
       -0.0065362053 0.010141615 -0.00067004655 0.0075839194
000140 95 4d 6f bb 82 95 13 3c 8e ba 67 bc 76 ce f5 3b
       -0.0036514748 0.009007813 -0.014143599 0.0075014187
000150 9c 2d 03 3c ba 52 a5 ba 85 f6 1c bb 3b 05 87 bb
       0.00800648 -0.0012613155 -0.0023950648 -0.0041204966
000160 43 82 c8 ba c2 96 cf bc a1 67 85 bb da 8a c6 3b
       -0.001529761 -0.025340442 -0.0040711914 0.006059033
000170 dd 4a 9a bc 68 82 31 bb f3 ba a3 bb 14 9e 79 bc
       -0.018834526 -0.0027085785 -0.0049966513 -0.015235443
000180 18 52 1f 3a 1b c5 4d bc 56 5d 8a 3c a4 47 a8 bc
       0.00060776016 -0.012559201 0.01689021 -0.020541973
000190 6f e1 4f bb 30 0c 1c bc 10 08 56 3c 2f 33 ff 3c
       -0.0031720062 -0.00952439 0.013063446 0.031152336
0001a0 dd b4 db bc 0b 18 67 bc e7 23 4b bc 2c 6f 54 3b
       -0.02681964 -0.014104853 -0.0123986965 0.0032414896
0001b0 e1 92 fd ba 79 e4 9f bc 55 a3 38 b8 23 38 ec bb
       -0.0019346141 -0.019518124 -4.4021133e-05 -0.0072088405
0001c0 86 5e dd bb 19 de 81 bc af 4e 57 bb 3c 24 23 bc
       -0.006755653 -0.015852975 -0.0032853296 -0.009957369
0001d0 46 03 fc 3b 00 f0 60 3c 73 b9 37 3c f7 83 f8 bb
       0.00769082 0.013729095 0.011213648 -0.007584091
0001e0 7c 33 84 bb a1 86 a7 39 9b fb 2c 3b 2e 3b 7e bc
       -0.0040344577 0.00031953029 0.0026395086 -0.015517039
0001f0 70 70 ad 3c bf c1 4d bc 42 34 2b 3b e9 11 6c bc
       0.021171778 -0.0125584 0.0026123677 -0.014408567
000200 af 7a 7b bc 86 30 b2 3c 6c 1f d0 3c bc ff 11 3c
       -0.015349074 0.021751653 0.025405608 0.0089110695
000210 24 ae b9 3c 02 c0 50 3b 90 74 b0 bb 58 c7 b0 3c
       0.022666045 0.0031852727 -0.005384989 0.02157943
000220 2c a1 a3 3b bc c7 33 3b b1 d8 d5 3c 2c e7 04 3d
       0.0049935784 0.0027432283 0.026104303 0.032447025
000230 d8 1e 71 bb 35 71 e9 bb b5 92 5c 3b 0e 4a 06 3c
       -0.0036792066 -0.007124091 0.003365678 0.008196367
000240 48 f6 2c 3b 61 7e 9f bb de 88 3c bb cc 1e 22 3c
       0.0026391912 -0.0048673605 -0.0028768103 0.009895038
000250 0c 3b 06 3d 04 11 1f 3c 4d 54 4e bc 3c b1 d3 3b
       0.032771155 0.009708647 -0.012593341 0.006460337
000260 b1 7c 5b bc e5 0c 64 3c 6a 4c e8 3b 32 b4 63 3b
       -0.013396428 0.01391909 0.0070891874 0.0034744856
000270 25 46 4d 3a 44 06 85 bc 43 ad 95 ba 7b 2b 83 3c
       0.0007830582 -0.01623834 -0.0011419434 0.016011944
000280 7c 4b 3d 3c a8 f9 cf 3b 8c 20 fc 3b e2 06 fe bb
       0.011553641 0.0063469 0.0076943096 -0.0077522853
000290 d6 9e fc 3b d9 2c 6f 3b 5f 00 df ba 54 11 6d 3c
       0.0077093644 0.0036495237 -0.001701366 0.014469463
0002a0 4f 9d 7c 3c 03 62 0c 3c bb 01 bd 3b 06 09 79 3c
       0.015418365 0.00856829 0.0057680286 0.015199905
0002b0 e4 cd 07 3c 8c 30 58 bb ec 53 d3 bb 36 e4 50 3c
       0.008288834 -0.003298792 -0.0064492133 0.012749722
0002c0 95 d7 f4 3b 10 58 2d bb b9 66 84 3b 64 f6 73 3a
       0.0074719884 -0.0026450194 0.004040566 0.00093064294
0002d0 fa da 14 3c f3 bf 57 3a e8 ee 06 3c 1a cf 0a bc
       0.009085411 0.0008230202 0.008235671 -0.008472228
0002e0 2d ff bf bb df e3 4f bc 2d d7 2f bc 90 7b f5 3b
       -0.0058592767 -0.012688606 -0.010732454 0.0074915364
0002f0 d8 1a fe 39 b0 af 0f bc 3b 39 31 bc 5a 3e aa 3c
       0.00048466655 -0.0087699145 -0.010816867 0.020781685
000300 70 98 22 bb ab ef 4e bb 7b 51 47 3b 93 b0 c7 3b
       -0.0024810098 -0.0031575959 0.0030413556 0.0060940473
000310 59 09 53 bb 14 9a db 3b 43 88 84 3b 7a 09 1c 3c
       -0.0032201617 0.006701717 0.004044564 0.009523744
000320 9d ca 11 bb c9 c9 af 3c e7 1d 9e 3b ab bd 29 3c
       -0.002224601 0.021458523 0.004825342 0.010360162
000330 0f 74 a9 3c 85 06 90 bb 50 d1 43 3c 69 7a 4a bb
       0.020685224 -0.0043953084 0.011951759 -0.0030895716
000340 f2 6d 87 3c fe 13 7f 3a 93 43 b1 3b f0 14 cd bb
       0.016531918 0.0009730457 0.005409667 -0.0062585995
000350 c1 dd 02 3c 6d cf 1f bc 28 df e7 bb e4 44 69 bc
       0.007987441 -0.009754044 -0.007076163 -0.014237616
000360 38 74 08 3c 54 2a d7 bc 24 74 8b 3b 23 dd ec bb
       0.00832849 -0.0262653 0.0042557884 -0.00722851
000370 df 81 db 3c 85 ab 45 3a 97 3c 86 3c f5 0b 09 bc
       0.026795326 0.0007540512 0.016386313 -0.008364667
000380 3e 6d 40 bc 56 ff 4f 3c fe 7a 6b 3b 92 a5 49 bc
       -0.011744795 0.012695154 0.0035931463 -0.012307541
000390 00 43 49 bc 1f f5 7a 3c 2a 6b b4 ba c3 3d 51 bc
       -0.01228404 0.0153172305 -0.0013764848 -0.012771073
0003a0 60 83 e7 3c 91 ff 42 bb 9f 3b 3f 3c 28 38 7e bc
       0.028260887 -0.002975438 0.01167193 -0.015516318
0003b0 2d b0 3e bc fb 56 63 3c 99 a8 97 3c b2 17 f4 3b
       -0.011638683 0.013875718 0.01851301 0.0074491138
0003c0 06 d9 9b bb bd 5b 37 3c 47 be 93 bc 72 db 5f 3b
       -0.004756096 0.011191306 -0.018035067 0.00341579
0003d0 26 5d 2e 3a 38 35 e6 ba 3a 04 11 3c a8 bd 2f 3b
       0.00066514534 -0.0017563468 0.008851105 0.0026815925
0003e0 d0 ca 44 bc a2 8b 3f 3c 96 aa 31 bc a6 07 a6 bb
       -0.012011245 0.011691006 -0.0108438935 -0.0050668297
0003f0 c5 98 e9 bb 0f cf 85 bb 4a 5d b4 bb 8f f9 c1 3c
       -0.0071288073 -0.004083521 -0.005504285 0.02367857

action_model._discrete_distribution.branches.0.bias f4 [2]
000000 91 31 cb bb 89 31 cb 3b
       -0.006200977 0.0062009734
