results/CombatTest1/MoveToGoal/MoveToGoal-61370.onnx (onnx, 77714 bytes, 9 tensors)

network_body._body_endoder.seq_layers.0.weight f4 [128, 4]
00000000: c742 353e 91e1 0fbd ea02 1a3f 9d32 91be
00000010: 6d5d 90be 5157 e33e fa33 4a3f 9b20 9fbe
00000020: 6b1a 793e dee8 01bf 25f5 f2bc 81aa 0a3f
00000030: 54be 0f3f 09bd d0be 64e6 983e 84a2 ecbe
00000040: 1501 08bf a613 40be 5a55 273f 91f9 813c
00000050: e4bc ccbe bdab 763e 1c31 2dbe 8084 0b3f
00000060: bdd7 673c 27ef 8d3e 1c18 54bd b77e ba3e
00000070: 9b52 d7be 9e84 98bd 342f b03e 72a1 edbd
00000080: b8e2 2dbf 7f64 0d3f 7ceb b6bc 19e3 17be
00000090: 1bbc 173f 50de ccbc cbae 2e3f 637a dcbe
000000a0: cfee 9c3e f53c d4be b739 613e 7c1e 9b3d
000000b0: d3a3 56bd e4c9 babe 6644 10bf 5093 b1bd
000000c0: f891 ff3e e0dd 3b3e a066 28bf c70e b03e
000000d0: 1700 b3be 82ec f93d b3c8 a03e 044f 92be
000000e0: aa89 8abe f860 b73e 7d9c c1bd d1f1 18bf
000000f0: d4cf ee3e e783 ccbd ccc2 c1be e1c4 833d
00000100: 51d9 65bf 9f6a b7be 2fe8 d9be ec8a 0c3f
00000110: 9443 8bbe 8e25 0ebf c77f 46bf f067 92be
00000120: 4825 12bf 44d9 dd3d be47 c23e d31e 6bbf
00000130: 51ae 303f dfb9 283f 8a66 b53e 2b8a 0b3e
00000140: 1799 5ebf 665e 303e a1b3 1bbd eaca da3b
00000150: e8ce 7a3f 677f 43be 5059 66be d7fa 78be
00000160: ed76 14be 95e6 653f 2c01 a63f a2cf 99be
00000170: ddbd c0be 3c50 bfbe 945c 3a3d c153 45be
00000180: 3d25 a8be 9ddf 0c3f 9087 a5be 3aa6 68be
00000190: 9825 8cbe 42b1 49bf e5d6 4ebf 20ed 6fbe
000001a0: d20c 943d e3b8 a33c 64b4 1c3f 6a59 0fbe
000001b0: 7b4c 85be 8498 1e3f 5813 e2be 6363 a2be
000001c0: 7082 ef3e 55aa 803b a3d0 713e 8ab3 5dbe
000001d0: 1adc 51be 4617 2c3f ea9b babe 66c2 67be
000001e0: 9fd9 69bf e36b b1bd 2025 533e 1378 0ebe
000001f0: 07d9 1ebe 6102 413e 5f8a 293e 1eda 1c3f
00000200: f19c 473e 0dc2 c8be 1085 a2be 08bf 253e
00000210: 32c8 23bf 0a84 48bf defe 26be 2063 3bbf
00000220: ad23 9c3f 3448 d8be e2f2 4fbf d81f be3c
00000230: 3ea2 24bf 8c49 ae3e e359 51bf c970 3d3f
00000240: 219b 7c3e 2204 7d3e cc12 3fbd aa9d 00bf
00000250: 7f41 27be 53bc 05bf c738 c43e 31f9 f63e
00000260: 7e6e 073b a6af 46bf 9d2d 00bc 0505 603e
00000270: 448e 42bf ea6e b23d b746 703f 3741 e83e
00000280: 6c80 693e 87e1 26bf 188b c33c 0e28 463f
00000290: 8fff 003f d226 323e 0ba6 17bf 78c9 433e
000002a0: 105f ee3e 2359 ffbe 00ba 8fbe 512e 38be
000002b0: 509d 8bbf 2d55 dcbe eeb2 49be b26a 2c3e
000002c0: af33 3b3f e788 21be 7e82 153f 6f06 88bd
000002d0: 37d8 abbe 7fdd 8cbe ca08 413a d693 cfbf
000002e0: bbd5 6c3f a5ab d3bd 6f78 65be 1f8f 963e
000002f0: d9ce a7bc 49d3 5cbd 65ae 6cbe 7cd5 c4be
00000300: a21e 863e 3590 d8be 9bf3 21bf bbd6 78bd
00000310: d50c ca3e 6426 613e c822 dcbe 8e8e 82be
00000320: 1fde a5be 6572 953e b1fe b5be b97b 2dbf
00000330: c11f 873e b316 d43d 8e06 703e 7a58 163f
00000340: a80d e1bd db3a d13d 2cf9 e83e d7d8 e13c
00000350: 099c c83d 3153 e5be 2d50 89bf 5d39 da3e
00000360: 9846 c83e bff0 f23d 96a3 133f ff41 8d3e
00000370: fede 6a3f 430e 4dbd 3a3f be3d ca6b 653e
00000380: 1107 81be 80c1 8f3e dc3e 5c3e 4990 4bbe
00000390: c9ae 693f 16a7 38bf 99ad 01be 67e3 aa3e
000003a0: dd8a 0f3d c309 9abe d221 a2be 9b0a 973e
000003b0: 6f33 96bc 22dc 6bbf b48a 35bf 8b0a 01bf
000003c0: 3ff3 f23d ce3e e83e 09d4 a43f 33c5 07bf
000003d0: 8617 be3e eee4 2dbe 6fb6 e7be c223 82bf
000003e0: 719d 43be 890e 30bf 8430 48bf e2a9 c1be
000003f0: 185a 63bf 3e3f 873d 0fb5 763e d37c b0be
0.17701255 -0.035127226 0.60160697 -0.28358927 -0.28196278 0.44402555 0.7898556 -0.31079563
0.24326484 -0.5074595 -0.02965791 0.5416642 0.5614979 -0.40769222 0.29863274 -0.4621774
-0.5312665 -0.18757495 0.6536461 0.015866073 -0.39987862 0.2408895 -0.16913265 0.54499054
0.014150557 0.2772152 -0.051780805 0.364248 -0.4205521 -0.0744717 0.34411013 -0.11603059
-0.6792407 0.5523147 -0.022329085 -0.14832725 0.592714 -0.02500835 0.6823546 -0.43062124
0.30650946 -0.41452757 0.21994673 0.07574174 -0.05240233 -0.36482155 -0.5635437 -0.08670676
0.49916053 0.18346357 -0.65781593 0.34386274 -0.34961006 0.122033134 0.3140312 -0.2857591
-0.27058154 0.3581617 -0.09453676 -0.5974398 0.46642935 -0.09986096 -0.3784393 0.06434036
-0.89784724 -0.35823533 -0.42559955 0.5489948 -0.27199996 -0.55526054 -0.7753872 -0.28594923
-0.57088137 0.10832456 0.3794536 -0.9184391 0.69015986 0.65908617 0.35429794 0.13626926
-0.86952347 0.1722351 -0.038013104 0.0066770213 0.97971964 -0.19091569 -0.22495008 -0.24314438
-0.14498492 0.89804965 1.2969108 -0.30041224 -0.37644854 -0.373659 0.045498446 -0.19270231
-0.3284091 0.55028707 -0.32329988 -0.2271966 -0.27372432 -0.787861 -0.80796653 -0.234303
0.07229008 0.019985622 0.61212754 -0.13998953 -0.26034912 0.6195147 -0.44155383 -0.3171645
0.46779203 0.003926555 0.23614745 -0.2165052 -0.20494118 0.6722301 -0.36447078 -0.22632751
-0.9134769 -0.08663156 0.20619631 -0.13912992 -0.15512477 0.18848564 0.1655669 0.6127032
0.19493462 -0.3921055 -0.31742144 0.16186154 -0.6397735 -0.78326476 -0.16308162 -0.7319813
1.2198387 -0.42242587 -0.81229985 0.023208544 -0.6431006 0.34040487 -0.8177778 0.7400022
0.24668552 0.24708608 -0.046648785 -0.50240576 -0.16333579 -0.52240485 0.38324568 0.48236993
0.0020665224 -0.7761177 -0.007823375 0.21876915 -0.7599833 0.087125614 0.938579 0.45362255
0.22802895 -0.6518788 0.023870036 0.7740487 0.5038995 0.17397621 -0.59237736 0.19119823
0.46556902 -0.49872693 -0.28071594 -0.17986418 -1.0907383 -0.43033734 -0.19697163 0.16837576
0.7312574 -0.1577488 0.5840224 -0.06641852 -0.33563396 -0.27512738 0.00073636754 -1.6216991
0.92513627 -0.10335473 -0.22409223 0.29406068 -0.020484375 -0.053912435 -0.23113401 -0.38444126
0.26195246 -0.4229752 -0.6326234 -0.060751658 0.39462915 0.21987301 -0.42995286 -0.25499386
-0.32396027 0.2918884 -0.35545877 -0.6776691 0.26391414 0.10355892 0.2344 0.58728755
-0.10988933 0.10216304 0.45502603 0.027569218 0.09795386 -0.44790033 -1.0727593 0.4262189
0.3911636 0.11862325 0.5767149 0.27589414 0.9174651 -0.05006243 0.09289403 0.224044
-0.25200704 0.28077316 0.21508354 -0.19879259 0.91282326 -0.7212995 -0.12663879 0.3337662
0.03504454 -0.30085573 -0.31666428 0.2950028 -0.018335072 -0.9213277 -0.7091477 -0.5040671
0.11862802 0.45360416 1.2877208 -0.5303528 0.37127322 -0.16981861 -0.45256373 -1.0167162
-0.19103028 -0.6877218 -0.7819903 -0.37824923 -0.8880935 0.06603859 0.24092506 -0.34470233

network_body._body_endoder.seq_layers.0.bias f4 [128]
00000000: a3f6 1ebd d9f2 cc3b d6cf 353d 59b3 c73b
00000010: 74b7 cf3d 259c 1f3c 41b8 c4bb 55fa 8b3d
00000020: df6f debc dbc0 17bc 31e5 d1bc 38c7 52bb
00000030: 5b7a e53c c0e5 f33c 8db1 203c deee 1e3d
00000040: 16fe 2c3b 3760 15bb 7848 0dbd bced 3fbd
00000050: c129 8238 0c7b afbc b470 c03c 74df 3c3c
00000060: 04ad 533c 4df1 90bc a62e a43c f14c 9a3c
00000070: 2656 bdba 5bcb d33a 76c7 8abc 2043 d93c
00000080: 1f49 c13c 0bb3 c43c b8ec c1bc 70d8 123c
00000090: 75a7 01bd ece0 973d 1129 723d 6d16 7a3d
000000a0: d183 733d 68f1 1b3c 40cb 9dbc 6b6d c63c
000000b0: 798b 523c c86e c93c f73d 663c 6e9a b3bc
000000c0: 8731 96bc 9f43 ce3c 46d7 dabc a564 bfbc
000000d0: fbbb 383d 4608 553b 3cb4 36bb 1410 66bc
000000e0: 36ee 96bb 8644 173c a06b e53c 628c 58bc
000000f0: 017d 09bc 81ca 023c 1a71 23ba 64b3 06bb
00000100: a292 cabc fdb3 9c3c 263c fb3c ba9c adbc
00000110: bc16 773d 3358 56bc 7df9 143c e9d0 ebba
00000120: fcd1 473b 9a54 57bc 2e2c e93c bebe 40bd
00000130: 6b37 b93b 2bbb cd3b 9740 c73b 6fdf e83c
00000140: 7be3 743c 2770 f4bc bd7a 8d3a ea68 6a3c
00000150: 41d8 c5bb d567 8bbc 30d9 f83c 7485 b13c
00000160: 7bf5 94bc dc35 0e3c c467 70bb 0094 2f3d
00000170: c301 b3bb 2b64 71ba 1c6e 88bb 8c20 4c3c
00000180: 2c2a 0ebd 01c6 28b9 a4df 063c afbb f7bc
00000190: 153e c83c a3e1 253d 3a78 1dbc e150 a7bc
000001a0: 92d8 87bb d932 663d a0dc 43bb 3de1 0f3d
000001b0: e858 783d 719c 32bc 85c7 fabc 63ce 193c
000001c0: a3f2 46bd 2131 feb9 9a13 a73c 8554 2c3b
000001d0: 4b02 aebc 043b c5bc f144 083d f391 033d
000001e0: 78fc ca3c 4c3a ac3c 60f8 1a3c 85b2 91bc
000001f0: 3aa1 79bc 766c 6bbc 9bfb 183c b190 9bba
-0.03880943 0.0062545356 0.04438766 0.006094378 0.10142413 0.009741818 -0.00600341 0.068348564
-0.027152954 -0.009262289 -0.025621982 -0.00321622 0.028012445 0.02977264 0.009807956 0.03880202
0.0026396564 -0.0022792944 -0.03449294 -0.04685758 6.20666e-05 -0.021420978 0.023491241 0.011527885
0.012919668 -0.017693186 0.020041775 0.018835517 -0.001444523 0.0016158627 -0.016940814 0.026521266
0.023594437 0.024011156 -0.023672447 0.0089627355 -0.03165384 0.07415947 0.059121195 0.061056543
0.05945188 0.009518005 -0.019261956 0.024222096 0.012850636 0.024588957 0.0140528595 -0.021924224
-0.018334163 0.025178729 -0.026713978 -0.02336342 0.045101147 0.0032506152 -0.0027878424 -0.014041919
-0.0046060337 0.009232646 0.028005421 -0.013217064 -0.00839162 0.007982851 -0.000623481 -0.0020553702
-0.024728123 0.019128794 0.03066833 -0.021192897 0.060324416 -0.013082552 0.009092686 -0.0017991337
0.003049015 -0.013142729 0.02846345 -0.047056906 0.0056523583 0.0062784157 0.0060806978 0.028426854
0.014946814 -0.029838635 0.0010794025 0.01430724 -0.0060377424 -0.017017284 0.030377 0.02167008
-0.01818346 0.008679833 -0.0036682943 0.042865753 -0.0054628565 -0.00092083466 -0.0041635167 0.012458932
-0.034708187 -0.0001609549 0.008232031 -0.030240862 0.024443666 0.040498387 -0.009611184 -0.020424308
-0.0041456902 0.056200836 -0.0029886141 0.035126913 0.060631663 -0.010901556 -0.030612716 0.009387585
-0.04857124 -0.0004848326 0.020395089 0.0026295495 -0.021241328 -0.024075992 0.033268873 0.03212161
0.02477859 0.021023892 0.009458631 -0.01778532 -0.015236193 -0.014369121 0.009337331 -0.0011868683

network_body._body_endoder.seq_layers.2.weight f4 [128, 128]
00000000: b26b 8dbd 91a9 f33c 8038 14bd ade7 96bd
00000010: 79b5 01be 6ca2 823d c33f c8bd 54ca 85bc
00000020: f2d9 ea3d d45f b83d 1d47 b93d cc53 f1bd
00000030: 516d 9a3d d924 bf3d 32dc c93d d95f 8e3c
00000040: 3144 0b3d 74e4 2cbe a5f9 ff3b 936f b33d
00000050: eb1d 0fbd a089 84bd b074 243e d6ac 993c
00000060: 27ad 5d3d 7ff5 dfbd 1c48 d1bd c9d7 0ebe
00000070: c56a 67ba 7b44 debc 7b6d 8c3d 664a 18be
00000080: d0af afbd 81ab bdbd dc08 50bd c861 24be
00000090: ef71 113d e74d 90bd bb5a 16be d3e6 81bd
000000a0: 799c efbd 96da 693b cb8c 883d fa7c 33be
000000b0: 557f 8d3d cb19 27bc e2b4 db3d 63c2 8c3c
000000c0: 554f b9bd 5f96 993d 5920 863d 6944 063e
000000d0: 0c54 943d de23 3bbc 67ad 9cbd 3ff2 e1bc
000000e0: 9aa0 933c 5643 23bd 94f1 cc3c 325b a5bd
000000f0: e2a3 4dbc 775d 18be 37e0 1ebd c653 3a3e
00000100: 10c9 3f3d 447c 34be 88e5 893c 8a09 c2bd
00000110: c9c5 2fbc 6221 7dbd 1fdb e7bd 32bd d1bd
00000120: cd8d 09bd 0a82 e1bc 2289 8fbd 6d1c 613b
00000130: 9032 4ebd 1475 0abc d840 8cba 7d4b 25be
00000140: a54f 03be 5e50 27bd e5e8 f3bb 6541 323c
00000150: 3777 77ba af58 683d e8f3 a13d baab 18bd
00000160: cf88 bcbd b830 983d ae21 193d dcea 0dbc
00000170: c487 a8bd 5df4 75bd f680 293d cdbf 6fbe
00000180: 3e98 dbbd 13a9 6bbc a3ec f6bb ad47 c03b
00000190: bc0e e53d ec06 b7bc 9b9e 093c ec9e 0cbc
000001a0: bd57 7fbd 4143 21be 267b a6bd 9997 d53a
000001b0: 3965 9abd 55d5 b2bd 6a6b 283c 0462 2abc
000001c0: ea81 563d 6cfb 9abd 223a d6bb 413c b8bd
000001d0: e563 d4bd 9ea8 29be c4e1 4b3d 689a c93d
000001e0: dcbd 7bbd 6a4a 543e 4b33 5b3e 6726 f6bd
000001f0: 8d36 b3bd 2c1c d13d 6130 893c 276c cd3b
00000200: 0bef bbbc b8ed 403c eebd 323c 3403 0dbe
00000210: 2efb bebd 0d43 31be 2770 4b3c 74b1 903d
00000220: 5c99 933d 69c2 f93d 32a7 19bd 3d9a 373e
00000230: 1a00 723d 9448 b6bd 999c 2cbc 1dd3 2cbd
00000240: 7ae7 8b3d ec01 9cbd e389 a43d b397 a4bc
00000250: 353f 163e 31dc 733d b421 4ebd 2ba9 b6bb
00000260: f952 8f3d 25f5 a73d 7c19 943d 4c1f f8bd
00000270: 042d d43d d5e2 443e 54a8 c3bd 55ee a73d
00000280: fe30 053e 5bcb 073d 4f19 8dbc 197b 75bd
00000290: 6616 b13d 7006 e53c 7950 e4bd 187d 7e3d
000002a0: 49af e53d 3296 90bd eb3a 073e 47ae cbbc
000002b0: 838f fbbd 2fc3 5cbd 4a29 c6bd 7dc9 7fbc
000002c0: 9a92 4f3c bec2 fcbc 9516 1cbd cec8 1b3e
000002d0: 7664 64bd 7729 1cbe fe27 efbd d644 a3bc
000002e0: e9a1 83bd 5f9f 7c3d 9c92 8e3d 9952 a03d
000002f0: 8a14 3cbc 0d7d 14bd 1d44 803d e902 e43c
00000300: 6b21 6abd 80d4 1f3d 04df 393e 8d40 1f3e
00000310: 5472 d43d af74 753c a609 233d 616b 313c
00000320: b7cd 0abd 59ee f33c 180b 46be 86f8 a5bd
00000330: f550 d53d ab07 45bd 87b3 993d bd5f 38b9
00000340: 6fcb 7dbd 1420 bfbd 4269 d9bd 4635 323e
00000350: 1951 80bc 01cf 143e 264e 92bb ea1d 5bbe
00000360: 7986 67b9 59fd 6fbd 83bf 0a3d a113 183e
00000370: ea2a abbc d0ee c5bc 9a6d a9bd 6320 26bd
00000380: 937e b63c d0b0 fcbd 7b04 c63d b519 37be
00000390: a324 babc 4686 893d 1804 713d 1d37 fd3d
000003a0: 4e70 6b3c 7993 3dbe 1641 a4bb fa2d f5bd
000003b0: 5a2c 0bbd c9e0 c7bc 946f 813b e3d0 813d
000003c0: 7488 32bc 2178 b93d 808c bcbd 1ece 063e
000003d0: 8459 abbc 3438 c0bb 4e7d 2f3d 879d 203d
000003e0: 5bfa 623d 7935 4abd 9884 003e dace 7bbd
000003f0: 16fd 0a3d 3710 593c ea37 a3bd 23b4 d4bd
-0.06905307 0.029743942 -0.036186695 -0.073684074 -0.12666883 0.06378636 -0.097777866 -0.01633183
0.11467351 0.09002653 0.09046767 -0.11783561 0.07540382 0.093332 0.09856452 0.017379688
0.03400058 -0.16884023 0.0078117424 0.087615155 -0.03494064 -0.064715624 0.16060138 0.018759172
0.05412021 -0.109354965 -0.10218832 -0.13949503 -0.00088278606 -0.027132263 0.06856819 -0.14872131
-0.085784554 -0.092612274 -0.0507897 -0.16052926 0.035509046 -0.07046109 -0.14683048 -0.06342854
-0.11699767 0.0035683266 0.06667479 -0.17528144 0.06909052 -0.010199021 0.1072786 0.017182535
-0.090483345 0.07499384 0.065491386 0.13112034 0.07242593 -0.011422126 -0.07650261 -0.027581332
0.018020917 -0.03985914 0.025017537 -0.08074035 -0.01255128 -0.14879404 -0.038788047 0.1819602
0.046822608 -0.17625529 0.016833082 -0.09474476 -0.010728308 -0.061799414 -0.11321091 -0.10241164
-0.033582497 -0.027527828 -0.07008578 0.0034349218 -0.05034119 -0.008450765 -0.0010700477 -0.16142078
-0.1282335 -0.04084813 -0.0074435347 0.010879849 -0.00094400666 0.0567252 0.079078496 -0.037273146
-0.09205782 0.07431167 0.037385635 -0.008661952 -0.0822902 -0.060047496 0.041382752 -0.2341301
-0.10722397 -0.014383572 -0.0075355335 0.0058679194 0.11184451 -0.022342168 0.008399631 -0.008582812
-0.062339533 -0.15748312 -0.081289575 0.001629579 -0.07538838 -0.08732096 0.010279516 -0.010399345
0.05236999 -0.07567486 -0.0065376917 -0.089958675 -0.10370616 -0.16568229 0.049775854 0.09843904
-0.06146036 0.20731512 0.21406285 -0.120190434 -0.08750639 0.102104515 0.016746702 0.0062689963
-0.022941133 0.011775427 0.010909541 -0.13770753 -0.093252525 -0.17310734 0.012416876 0.070650965
0.07206985 0.12195284 -0.037512966 0.17929931 0.059082128 -0.08900562 -0.010535383 -0.04219352
0.0683126 -0.07617554 0.08034112 -0.020091867 0.14672549 0.059536163 -0.05032511 -0.0055743656
0.06998248 0.082010545 0.07231423 -0.121153444 0.103601485 0.19227155 -0.095535904 0.08199755
0.1300697 0.03315292 -0.017223982 -0.05993185 0.0864685 0.027957171 -0.111481614 0.062131017
0.112150736 -0.070598975 0.13206069 -0.024863375 -0.12283232 -0.05389708 -0.09675844 -0.015612003
0.01266923 -0.030854579 -0.038107473 0.1521332 -0.05575987 -0.15250193 -0.1167755 -0.019930284
-0.06427366 0.061675426 0.06961557 0.07828254 -0.011479506 -0.03625207 0.062629916 0.027833419
-0.057160776 0.039021015 0.1815148 0.15551968 0.10373369 0.014981433 0.039804123 0.010828824
-0.03388759 0.029776739 -0.1934017 -0.08104043 0.10415832 -0.048103016 0.07504945 -0.00017583273
-0.061961588 -0.0933229 -0.106157795 0.17403135 -0.01566367 0.1453209 -0.0044648824 -0.2139813
-0.00022079972 -0.05859122 0.033874046 0.14851238 -0.020894486 -0.024161726 -0.08272858 -0.04055823
0.022277152 -0.12338412 0.09668823 -0.178809 -0.022722548 0.06715064 0.058841795 0.12364028
0.014370037 -0.18513288 -0.0050126417 -0.1197166 -0.033977844 -0.024399178 0.0039500687 0.0633867
-0.010896791 0.09056116 -0.09206486 0.13164565 -0.020916708 -0.005866075 0.04284411 0.03921273
0.05541454 -0.0493674 0.1255058 -0.061476566 0.033932768 0.013248495 -0.07969649 -0.10385921

network_body._body_endoder.seq_layers.2.bias f4 [128]
00000000: b630 5cbd 781d 98bc 374a 1d3c 1ff7 3bbd
00000010: 8a5b a0bb 39fe 3f3c b8b9 1abb c1fc 513c
00000020: 9223 283c b3df 0e3c 212a d1bc 0129 7dbd
00000030: 9507 9a37 1be3 28bb 9fee d03a 3d12 f13c
00000040: 2f04 43bc b20b 32bb 34f2 903c c323 cfbc
00000050: c2fa d3bc f3a7 ae3c 8b6b f13b 2575 333c
00000060: d71c 7b3a dbbb 913c 9f21 583c 80bc 203d
00000070: b48b bebc f255 003d 9322 7ebc e897 cf3a
00000080: 5603 14ba 8bf1 b9bc 49e6 26bc 3fdf cb3b
00000090: 1907 d6bc 3c19 583d f22e b4ba e4c1 d5bc
000000a0: 3ecf 85bc 6333 ca3b c003 2c3c 1685 16bc
000000b0: 3c54 72bb 8792 aabc f223 9fbb 9eec adb8
000000c0: 27d7 ffbb 6ece 473b 1423 7a3c 21a2 37bc
000000d0: b983 413c 604c 6e3c c841 533c 0034 3fbd
000000e0: b407 873d f211 233d 3874 f0bc 12a5 8d3c
000000f0: b284 95bd 1ace e33c b52b 363c 8d33 84bd
00000100: c2bc f23b 0a5f 1a3d 6e6c 41bc 39d0 a93c
00000110: 7388 4abd 5ecf b93c 4e71 2b3c f0e5 22bb
00000120: 3b5c 8a37 6de4 a7bc 9d37 803c 1208 173c
00000130: d85e 593b e3bd 7b3c 60da ac3a d3fe cc3c
00000140: 721a ea3b ab87 623c b5f7 c23c 4638 dd39
00000150: f64b 47bb 5040 323c 836f f6bc 1415 933b
00000160: 0e1f b93c ea75 ecba dd13 06bd d0bf 413d
00000170: 6933 183c 1c63 9bbc 2639 813c 77f1 9e3c
00000180: c3cb dc3c f104 7ebb ea4a 4b3c 2455 debc
00000190: 0bbe febb 2d5d 3ebb 980e c43b fc44 0f3d
000001a0: 3e67 ba3c 9e73 54bd f38b ad3a 15d7 8e3c
000001b0: 6546 793c e0cf 2f3c ee3a 963c 5510 233c
000001c0: 23dd 10bb 48d5 153c e79c 263d 2f89 103d
000001d0: 3070 dd3c 2281 513d 7055 12bd f984 303c
000001e0: d1ae 813c 1675 4b3b a5f4 e83c 3fdd 4fbc
000001f0: 98e1 873c 9e8d 193c 4008 fabb 8145 173c
-0.053757392 -0.01856874 0.009600214 -0.04588997 -0.004893725 0.011718326 -0.0023609232 0.012816609
0.010262387 0.008720326 -0.025532784 -0.061806682 1.8361761e-05 -0.002577013 0.0015940255 0.029427642
-0.011902853 -0.0027167615 0.017693616 -0.025285607 -0.025876407 0.021320319 0.0073675564 0.010953222
0.00095791876 0.017789772 0.01319161 0.039242268 -0.023259975 0.031331964 -0.015511173 0.0015838118
-0.0005646249 -0.022698184 -0.01018674 0.0062216814 -0.026126431 0.05275844 -0.0013746901 -0.02609343
-0.016334172 0.0061706766 0.010498941 -0.009187004 -0.0036976477 -0.020821823 -0.00485658 -8.293356e-05
-0.0078076306 0.0030488032 0.015267152 -0.011208088 0.01181119 0.014544576 0.012894101 -0.04668045
0.06593266 0.039812036 -0.029352292 0.017290626 -0.073007 0.027808238 0.011118819 -0.06455145
0.0074077556 0.037688293 -0.011805637 0.020729171 -0.049446534 0.022681888 0.010464026 -0.0024856292
1.649383e-05 -0.020494664 0.015651518 0.009218233 0.0033168104 0.015365097 0.0013187639 0.025023853
0.007144266 0.013826291 0.023799757 0.00042194332 -0.0030410266 0.010879591 -0.03008247 0.0044885967
0.022597816 -0.0018040512 -0.032733787 0.047302067 0.009289601 -0.018968157 0.01577432 0.019402249
0.02695263 -0.003876027 0.012407998 -0.027140208 -0.0077741197 -0.0029047236 0.005983185 0.034977898
0.022754308 -0.051868074 0.0013240561 0.017436543 0.015214537 0.010730714 0.018338647 0.009952624
-0.0022104464 0.0091450885 0.040676977 0.03528708 0.027031034 0.05114854 -0.03572601 0.010773891
0.01583043 0.003104513 0.028436968 -0.0126870265 0.016587064 0.009372143 -0.007630378 0.00923288

action_model._continuous_distribution.log_sigma f4 [1, 2]
00000000: bfc8 d3bb 506f bebc
-0.00646314 -0.023246437

action_model._continuous_distribution.mu.weight f4 [2, 128]
00000000: e2b1 73bb bb70 423c d75a c9bc 3e6b 133c
00000010: 6e3f 7c3c 7d80 dcbc e978 b53c 3e6f 2d3d
00000020: 9512 8abc 0fab 02bd 72c3 77bb cc44 d9bc
00000030: 7004 0cbd 1c29 b83b 8f01 9abc fbc9 033c
00000040: a229 1f3c ef65 b2bc b51b f6bb 2fc0 8bbc
00000050: 7924 83bb 024a 1dbd 1937 86bc 5a81 bbba
00000060: 76b6 db3c 2f03 713d 4552 77bc e6b6 2b3d
00000070: 9e55 d6bb 3e26 533d 21c7 fcbb f5d7 95bc
00000080: 88ec 13bd 7404 f4bb 702b f4b9 ed75 f7bc
00000090: 0c6b 1abb 8705 a63d 500e 26bd a24f 60bc
000000a0: 96f0 ecb9 1f17 9e3b 5dd0 c2bb a2b7 1dbc
000000b0: 64d9 c03b a647 b1bc 3403 d5bc 4371 9abc
000000c0: 71ed 96bc 172c 21bd a136 65bd e2b4 833c
000000d0: afe4 0dbd 46a3 00bd f308 863c 9a99 3e3c
000000e0: ab6e bc3d 0e80 a73d 37e4 bcbb 453c 863c
000000f0: cdb0 12bd 6d5c 853c 25ad fa3c 9e78 a9bb
00000100: 5084 ff3c 6e13 833d 8ba4 53bc 5fb8 2c3d
00000110: 7e8d 5bbc c420 cbbb d94b afbb c0cd e2bc
00000120: 7c88 d73a 78bb 423b fc31 b5bb 44ad e53c
00000130: ebc3 1c3c 80e8 a43c 4ef4 99bc 32e4 233d
00000140: 4757 0abc a90c d23c bcab 453d 88da 44bb
00000150: 4e7e b93c b4ba 86bd 575b 67bc aee6 d9bc
00000160: 8d7a 0f3d 6e2b 853c 6bd0 153b b73a 763d
00000170: 5ab2 14bd 93f8 2abc 067c 75bc acc4 28bd
00000180: 902d 4e3d 553f 043c cd4e 5f3c d0cc 7bbc
00000190: fb16 0dbd 2cc5 05bd 553a ea3c ed8e 6cbb
000001a0: 8608 5f3d d157 bfbb e735 ffbc 9e67 573d
000001b0: c211 333d c575 d2bc f3a1 273d 7fc8 813c
000001c0: ddbb 22bc bb4d 84bd e280 9c3d e8dc 15bc
000001d0: 4ac5 433c c015 703d 871c b2bb dfae c6bc
000001e0: 09eb 9bba 10a3 e4bc fa6c ce3c bca8 c1bc
000001f0: 6231 d3bc 60fb 20bd f94e 22bc c160 ff3c
00000200: 7366 98ba 9d49 0e3c 1bdc 773d b2fd 09bc
00000210: 3541 323c beef 48bd d74a 2bbd dd0c 00bd
00000220: 5e4e 13bd 8899 943d 4fdc 3b3c 393b b03c
00000230: 4e1c 793c 78b6 31bc 4abd 883d 5f8f 773d
00000240: ec7e 80bc e985 c5bc b650 16bd d739 a33c
00000250: d06e d23b ad42 26bd 15e2 623d 7622 4f3d
00000260: f60d 27bb a0ca 6d3b a3bc 50bd 34f9 16bd
00000270: 745d af3c 4ac3 7f3c 07ca 1fbc 39ca f8bc
00000280: f710 bc3c b7c5 8d3c f286 0f3c 6e1f b1bb
00000290: 942c e1bc 2eae a9bb 7018 93bc 145d a5ba
000002a0: 5386 b13b 74a5 263d 9090 25bd f6f1 6b3c
000002b0: 1762 3f3d fe40 073d d81f 08bd 457a e6bc
000002c0: a8b2 03bc 12fd d33c 9de0 03bd fa17 b13c
000002d0: e26a 20bd ef6b 2a3c ed9d 913d 59f9 903b
000002e0: 8c88 e3bc 20d5 1e3c 347a c23b 0104 383c
000002f0: 6f6d 653c fb22 923d ef7f 473d d764 0e3b
00000300: 7ccf 303d 1373 21bc 82e7 abbb 28d6 ee3c
00000310: e78e e13b 5196 783b e694 0d3b 4f8b 93bc
00000320: bd4d 20bd 600e 21bc a00a dfbb 2845 c83c
00000330: 2db6 cb3b 2eff 6dbd d488 8ebb 12e5 003d
00000340: 2957 523d 5e5e 163d 051f 9b3c 3f04 153d
00000350: 12d4 efbc b5d5 d13b 8f0b 563d 5ac3 573d
00000360: 891e 2a3d e8e4 f6bc 3674 293c 708a 6b3c
00000370: 6fda 1dbc d928 15bc c373 4d3d c41d 8dbc
00000380: 7d0e 933c b721 923b 07ed 8abc 3bec dc3a
00000390: ca71 e4bc 4863 37bd 1fb6 3a3d 10ac afbd
000003a0: 11d1 d43c 8f96 07bc b654 1dbd 2a7a f2bb
000003b0: 2251 833c 7630 15bc 2a59 8dbc 9c16 b43b
000003c0: cc92 653c 42f5 9bbb 797a 5dbc 2c2a 1d3d
000003d0: 58f2 673d 413b 37bb 90f4 b3bb a2c2 3abc
000003e0: ed36 2b3d e2b7 693c 8e0b 31bd 5599 a2bc
000003f0: ed67 c9bc 39b5 49bc 7bc1 1f3d fcc0 983d
-0.0037184884 0.011867697 -0.024579449 0.0089977365 0.015395982 -0.026916737 0.022152381 0.042342417
-0.016854564 -0.031901415 -0.0037805703 -0.026522063 -0.03418392 0.005620135 -0.018799571 0.008043761
0.009714516 -0.021777121 -0.007510627 -0.017059414 -0.0040021506 -0.038400657 -0.016383694 -0.0014305518
0.026820403 0.058840927 -0.015095298 0.041922472 -0.006540968 0.051550142 -0.0077141677 -0.018291453
-0.036114246 -0.00744682 -0.0004657167 -0.030207599 -0.002356234 0.08106523 -0.040540993 -0.013690861
-0.00045192678 0.0048245336 -0.005945249 -0.009626301 0.00588529 -0.02164061 -0.026002504 -0.018852836
-0.018423768 -0.039348688 -0.0559603 0.016077463 -0.034641918 -0.03140571 0.01636169 0.011633301
0.09200796 0.08178721 -0.00576451 0.01638616 -0.03581314 0.016279424 0.03060014 -0.0051718494
0.031191021 0.0640019 -0.012917648 0.042168017 -0.013400434 -0.0061989743 -0.005349618 -0.027686
0.0016443874 0.002971379 -0.0055296402 0.028036721 0.009568195 0.020130396 -0.018793251 0.040012546
-0.00844366 0.025640802 0.04825948 -0.0030037481 0.022643235 -0.065785795 -0.014120898 -0.026599254
0.035028983 0.01625606 0.0022859822 0.06011459 -0.0363029 -0.010435241 -0.014983183 -0.041203186
0.05033642 0.00807174 0.013629627 -0.015368655 -0.034445744 -0.03265874 0.028592268 -0.0036095933
0.054451488 -0.005839326 -0.031153632 0.05258905 0.043718107 -0.025690923 0.04092593 0.015842674
-0.009932485 -0.064601384 0.0764177 -0.009146906 0.011948893 0.058614492 -0.0054355296 -0.024253307
-0.0011895607 -0.027909786 0.025198448 -0.02364003 -0.025780383 -0.03930223 -0.009906524 0.031174066
-0.0011627212 0.008684543 0.060512643 -0.008422302 0.010879804 -0.04905676 -0.04181942 -0.031262267
-0.03596341 0.07255846 0.0114661 0.021512615 0.015204502 -0.010846727 0.06676729 0.060439464
-0.015685521 -0.024111705 -0.036698066 0.019925041 0.0064219013 -0.04059093 0.05539139 0.050569974
-0.00254905 0.0036284104 -0.050961148 -0.036858752 0.021406867 0.015610525 -0.009752757 -0.030369865
0.022957308 0.017306192 0.008760201 -0.005405358 -0.027487077 -0.0051782345 -0.017955989 -0.001261624
0.005417624 0.040685132 -0.04042107 0.01440095 0.046724405 0.033020966 -0.033233494 -0.028134475
-0.0080382 0.02587751 -0.03219663 0.021617878 -0.03916443 0.01040171 0.071102 0.004424256
-0.027775072 0.009694368 0.005934978 0.011231423 0.014003142 0.07135578 0.04870599 0.0021727586
0.043166623 -0.009854096 -0.0052461037 0.029154852 0.0068834904 0.0037931392 0.0021603643 -0.018010763
-0.039136637 -0.009830087 -0.0068066865 0.024447039 0.0062167854 -0.058104686 -0.0043498073 0.03146846
0.051352654 0.03671109 0.01893569 0.036381003 -0.029275928 0.0064036497 0.052257117 0.052676536
0.041533027 -0.030138448 0.010342648 0.014376268 -0.009634598 -0.009103977 0.050159227 -0.017226107
0.017951244 0.0044595855 -0.016958727 0.001685507 -0.02788629 -0.044772416 0.04558384 -0.0857774
0.025978597 -0.008275642 -0.038410865 -0.007399817 0.016029898 -0.009105792 -0.01725443 0.0054958593
0.01401205 -0.0047594616 -0.013517969 0.038370296 0.0566276 -0.0027958902 -0.0054918006 -0.011398943
0.04180043 0.0142650325 -0.04322391 -0.019848505 -0.024585688 -0.012311273 0.039002877 0.07458684

action_model._continuous_distribution.mu.bias f4 [2]
00000000: bd6b 293c 018f 98bb
0.010340628 -0.0046557193

action_model._discrete_distribution.branches.0.weight f4 [2, 128]
00000000: 2e1a 5c3a d099 133c 0f83 54bc e739 f93a
00000010: 9a0a f0bc 5d9e 5dbb 917c 82bc 825f d63b
00000020: 54e2 3a3c 3024 43bc 7fa6 f73a af2d 2cbd
00000030: 8d60 8cbb 7420 52bc 41fa 27bc 3e7c bdbb
00000040: 69f7 c43b f77b 0fbc d0ca a9ba 3529 33bc
00000050: eca4 7f3b 2dfd aa3b 83e8 fcba 280d d3ba
00000060: b73b f43b 644c 573c 1ced 4c3b 737c 6d3c
00000070: 1d68 80ba 1b09 08bc a9ce bcbb fe47 753c
00000080: 8beb e13b 970d f8bb e3ee 4a3a 530b 1dbb
00000090: c21c 1f3c 3f28 beba 49ef 50bc bc27 72bc
000000a0: cfaa 0bbc 5c40 50bc 4a05 923b bf4c f1bc
000000b0: 9ece 323c 3109 b7bc 2924 973b 1708 753c
000000c0: bd95 af3c 79fe 90bb 8c40 f1bb e35e 563c
000000d0: bd39 50ba 34be cdbb 10f7 2fbc a9db 58bb
000000e0: 1030 3dbc cf31 5ebc 82e8 b5bc 0067 a6ba
000000f0: daa4 3cbd c75f 89bb 185e 88bb 474e 60bc
00000100: 97fb cabb cdcd e4bb 2a00 313b 3451 16bc
00000110: 961b da3b bdfb b0bb 3aad 283c e03e 673c
00000120: 2c66 32b9 ca94 05bc 1782 8bbc 56f8 fdbb
00000130: 5908 5fbb 7c87 f63b dc18 40bc aa25 81bc
00000140: 3001 66ba bc8f 6ebb 341e baba 0805 0a3c
00000150: f06e febb 81f5 43bc 7af6 0cbc a99f ca3c
00000160: 7b0e 03bc d18c bdbb 1c5e 5dbc 8663 643c
00000170: 0d73 94bc cafe 83ba 92ca bb3c c557 dbbc
00000180: 5d19 2fbc 1947 e1bc 0aa9 0e3b 1e19 3abd
00000190: 251a 873b 6bac babc 43f3 523a 1d38 25b9
000001a0: da57 0b3b 45b0 583c 3361 663c b2c4 1bbb
000001b0: bb68 073c 0016 8a3c d3ea 9fbb fd29 d33b
000001c0: 21ab 213c 1bc4 c13b a5cb 0c3b 221e 34bc
000001d0: 204a 7cbc 4b72 053c d299 383c 85f3 2b3a
000001e0: cf77 a43c 767c 66bc a7b9 40ba 7360 b23b
000001f0: c60f 98bc 0a7a 16bc 0f99 a4bc c168 4ebb
00000200: 2ffa 8c3c 3135 0c3c 3ca7 0abc 08f3 3a3c
00000210: 4a88 9c3c ced1 003c aa8f 533c dcd2 733c
00000220: 7514 a5bb 3925 02bc 1b75 103b fd6c 343d
00000230: 6343 4fbc bf5e e63b 7a60 c03c 6271 f93b
00000240: d73b 45bc 3a57 a83b e33b f93b 6d8e 413c
00000250: 91d7 913c bcb2 84bc 6840 95bb 5eab 50bc
00000260: ddf3 edbb 1fb0 8bbb 6084 583b d138 d4b9
00000270: 64b0 f03c 06e3 733c b8c9 7fbb cced c3bc
00000280: cdf0 b8ba 1e6b 08bc 0a22 de39 0bee 923c
00000290: 99ee 8dbc 01e2 71ba 0897 433c 7f38 cdba
000002a0: bf8f f03c 3874 ab3b 24c6 213b b45f 983c
000002b0: fd9e 2bbc ccaa bb3c 845e b2bb ecf5 2f39
000002c0: 0c9d aabc 5da1 b33c 101e ddbb 2a14 2fbb
000002d0: c588 633b 744e 293a 28bb 86bc 3a85 01bc
000002e0: 2b8d fe3b c692 aebb fada ba3c 349d 41bc
000002f0: 59f7 673d b5db 3e3c 8ad4 37bc a699 14bb
00000300: 0ad4 823c 7dda 043c d2ab 13bd 6b5b 0ebc
00000310: e594 a8bb 9b57 cbbc 75a8 e5bb 6e06 bbbc
00000320: df72 c13b 6246 373b 713f ca3c 49fc 473c
00000330: cc5d 18bb b656 913a 1e2e 1b3c 72bd fb3c
00000340: 34f4 213c f450 8d3c 111b 12bc d845 b03c
00000350: 1108 7f3b 84f5 983c a87b 393c 72a6 bebc
00000360: cb7c 83bb 7a12 1a3c 4313 8d3c ef00 1c3b
00000370: 0e53 ba3c 21cc e53b 7139 33bb 6b49 753c
00000380: 2254 673c 3c89 ef3c 4925 1dbc 665e 2a3d
00000390: 8587 973c 6d44 673c 482c af3c 1f29 b23b
000003a0: 29e0 313c abe5 21bc 53f2 533b b6f9 f5ba
000003b0: 2ca9 1cbc 156b 2cba c5c0 803b 889a b0bc
000003c0: 9047 d4bc 8241 76ba 3013 57bc fda6 a5bb
000003d0: bb9e b5b9 6271 03bc 2af3 5bbc 0c5f 83bc
000003e0: 1767 663b 568e fd3b 0c9c b03a 0101 d2ba
000003f0: 3763 a5bb a466 29bc 0ad8 ca3c ebba 383c
0.0008396235 0.00900884 -0.0129707 0.0019014449 -0.02930193 -0.0033816316 -0.015928539 0.006542147
0.0114065 -0.011910483 0.0018894224 -0.042035755 -0.0042839707 -0.01282512 -0.010252536 -0.005782633
0.006010939 -0.008757583 -0.001295412 -0.0109351175 0.0039008213 0.005218169 -0.0019295368 -0.0016101943
0.0074534076 0.013140772 0.0031269258 0.014495003 -0.0009796653 -0.008302952 -0.0057619405 0.014970778
0.006894534 -0.0075699794 0.00077412854 -0.0023963049 0.009711446 -0.0014507844 -0.0127523625 -0.014779981
-0.008524611 -0.012710657 0.004456197 -0.02945554 0.010913519 -0.02234325 0.004612465 0.014955542
0.021433705 -0.0044248668 -0.007362431 0.013084146 -0.0007943174 -0.0062787775 -0.010740057 -0.0033089912
-0.0115471035 -0.01356168 -0.022205595 -0.0012695491 -0.046055652 -0.0041923258 -0.0041616075 -0.013690538
-0.0061945426 -0.006982541 0.0027008154 -0.009174634 0.0066561205 -0.0054011033 0.010295207 0.014114112
-0.00017013465 -0.00815315 -0.017029805 -0.007750551 -0.0034032075 0.007523475 -0.011724677 -0.01576503
-0.00087739807 -0.003640159 -0.0014199675 0.008424051 -0.0077646896 -0.011960388 -0.0086036865 0.024734335
-0.007999058 -0.005784609 -0.013511207 0.013939744 -0.018121267 -0.001007044 0.022923741 -0.02677525
-0.010687199 -0.027499722 0.0021768236 -0.04543411 0.0041229897 -0.022787293 0.0008047113 -0.0001575653
0.002126208 0.01322562 0.01406126 -0.0023768363 0.008264716 0.016856194 -0.004880288 0.0064442144
0.0098674605 0.00591327 0.0021483686 -0.010993512 -0.015398532 0.008144925 0.011267142 0.00065594196
0.02007666 -0.01406776 -0.0007351883 0.0054436265 -0.018562209 -0.00918437 -0.020092515 -0.0031495544
0.01720914 0.008557604 -0.008462723 0.011410482 0.019107956 0.007862521 0.01291267 0.014881816
-0.005037839 -0.007943445 0.0022042457 0.04404925 -0.012650344 0.0070303376 0.023483504 0.0076123932
-0.012038193 0.0051373513 0.007606016 0.011813742 0.017802985 -0.016198508 -0.004554797 -0.01273617
-0.007261737 -0.0042629386 0.0033037886 -0.00040478123 0.029380985 0.01488567 -0.0039030146 -0.023917101
-0.001410985 -0.00832632 0.000423685 0.017935773 -0.017325686 -0.00092270976 0.011937864 -0.0015657096
0.029365418 0.00523236 0.0024684751 0.018600322 -0.0104749175 0.02290859 -0.005443396 0.00016780914
-0.020826839 0.02192753 -0.0067479685 -0.00267149 0.0034718972 0.0006458529 -0.016446665 -0.007905299
0.0077682934 -0.0053275554 0.022809494 -0.011817265 0.056632373 0.011649062 -0.011220107 -0.002267459
0.015970249 0.008108732 -0.036052532 -0.008688788 -0.0051447027 -0.024822047 -0.007008607 -0.022830214
0.0059035863 0.0027965535 0.024688454 0.012206146 -0.0023249267 0.0011088464 0.009471444 0.030729983
0.009884883 0.017250516 -0.008917586 0.02151768 0.003891472 0.018671758 0.011320986 -0.023272727
-0.004012679 0.009403819 0.017221099 0.0023804267 0.022744682 0.0070128595 -0.002734747 0.0149711175
0.01411918 0.029240243 -0.009591409 0.04159393 0.018497238 0.014115435 0.02138342 0.005437031
0.010856667 -0.009881417 0.0032340481 -0.0018766436 -0.009561818 -0.0006577236 0.00392923 -0.021558061
-0.02591303 -0.00093939167 -0.013127133 -0.005055307 -0.00034641274 -0.008022638 -0.013424674 -0.016036533
0.0035156661 0.007737915 0.001347424 -0.0016022028 -0.0050472277 -0.010339413 0.024761219 0.0112750335

action_model._discrete_distribution.branches.0.bias f4 [2]
00000000: 46a6 e53c 48a6 e5bc
0.028033387 -0.02803339
