results/RandomTest2/MoveToGoal/MoveToGoal-7977.pt (torch, 442117 bytes, 42 tensors)

network_body._body_endoder.seq_layers.0.weight f4 [128, 4]
00000000: 85bc b4be 3fe1 5bbe 4fd2 9b3d cb3f 2b3f
00000010: 6456 323f b655 9ebb 4367 69bf 311f c2bd
00000020: cc1a 06bf 8d80 b03d a860 80bd 298a 2ebf
00000030: 39e2 d43e 394b f7be e2a6 f2be 6b8c 93be
00000040: b422 9e3e 47f7 9d3d 51ff 6cbf 085c 853d
00000050: e703 c73e 8195 243f a63c 323f 3c69 883f
00000060: 45ef dfbf 7556 443f 4b33 8cbe 0d00 0cbe
00000070: 51a9 11bf 62d2 2fbe a899 f73d 2d05 013b
00000080: b45e f63e 6ea4 31bf 4a12 94be 2673 6a3c
00000090: b087 df3e 1a04 383f 4525 3d3f 1d41 833e
000000a0: 7ad3 253e cb76 4c3e 493e 273f 8da4 4b3e
000000b0: 0b87 ab3e 3362 bbbe 1da4 99bf 8a1f 49ba
000000c0: 36d6 d5bd 7a4d 87be 0c0a a6be ebcc af3e
000000d0: 972d 663f f632 7abf 7223 023d 1cfe 16be
000000e0: bd59 9dbf 19b8 8b3d 5dcc fa3a 8a60 a13d
000000f0: aefb 0d3f d787 43be 731d 1e3f 68b6 c13e
00000100: 61bb 6e3e e4bd e8be 0778 c33e 92c3 8f3e
00000110: 7d1d 543e 970a 9e3d bdd7 903e 1004 1fbe
00000120: 497b 67be 3ccf b03e a6b7 31bf 4cc2 55bf
00000130: 09f9 8e3e a9c6 193f ba55 e0be e97d 073f
00000140: a098 0dbe 7c02 af3e a852 cabe 2261 853e
00000150: 269c c13e e792 1cbe d51b 41be d316 4fbf
00000160: 9552 1cbd 8fd1 233f 6ae0 0dbf 67d7 54bf
00000170: d5c0 89be 2024 29bf 1301 d4be 1691 7dbe
00000180: 54c4 ac3e f700 253e dd64 2d3e dc03 1b3c
00000190: 5aa3 433f cefa eebe d288 543e 9555 2c3f
000001a0: 5674 493f 50e2 d5be 1f50 dbbe a5d8 3dbf
000001b0: 48aa bebe ce7d d23e 4dfe 4d3d 3f68 01bc
000001c0: f050 d0be 2e02 c23e f060 5dbf d196 b4be
000001d0: 3429 a3be 073c a1be 7ba4 fe3e 809b 773d
000001e0: 14d5 ffbd 3216 b03e 8236 27bf 1856 abbd
000001f0: 848c 7dbe 20b4 443f ed40 863d eb4f 72bf
00000200: 4e08 0bbe 1ae8 d8bf a7c6 03bf a23a f9bd
00000210: 87b1 12bf 4b2e a13e bf56 1fbf 7b46 513f
00000220: d0a4 46bf fc5b 84be e64f 55be 5eb5 f53d
00000230: 1742 3dbf 7747 2f3f c524 c9bf eb3d 7cbe
00000240: ac13 413e d2eb 2d3f 0b45 143f e0bb 613f
00000250: 9dfa 073f da38 c73e ea32 77bf 3bdb 443d
00000260: 124e cebd dbc9 c63e 1292 2fbf d13f 6fbd
00000270: 4a6b 94bf fbef ef3e 18fe 0e3f 9d19 d1be
00000280: 9cdf a7bc cf6d 9b3e 9309 e23e f6e3 c9be
00000290: bb1f 81be 152c 7dbe fc34 2a3f 9b29 503d
000002a0: 06d5 97be 2b27 bebd 8ad1 3d3d 46bd ee3e
000002b0: 2589 f03e b9f0 a7bd fb62 75be ab9a 11bf
000002c0: b354 18be ef2d 9b3e d3e2 133e 2397 0fbf
000002d0: 14bb 80be 019b 723e dcfe 17bf 94f3 0bbe
000002e0: 9ac9 a73e 33bc 573e 879b b43e 4e02 b6be
000002f0: e6cc 51be 7a21 15bc 6404 13bf ff0a b53e
00000300: b2b8 273f bc0a 98be 21b2 52be 3e85 dfbe
00000310: df6f 1bbf 8e09 8dbf 3fe6 b4be a8a4 973e
00000320: a457 e83e 7c09 0dbf b9b4 39bd c552 9cbe
00000330: 611a 023e 2940 3e3e ec65 103f 835b 69bc
00000340: 91d5 a8be 9d0f 283f 7d68 963e 5321 9c3f
00000350: 5cfb 523f 1eb6 82bf 1421 a63d 72c4 e7be
00000360: fe5a 8fbd 5206 9abe a50d edbe 20c0 f3bd
00000370: 42b0 10bf 155a bfbe 30d7 373d 3391 17bf
00000380: 5455 8dbe 4492 343f 9db3 0d3f 1747 973c
00000390: bdf1 38bf 60ea 36bf 0c47 f23e c1d7 2cbf
000003a0: bcff a33e f557 50bf 5baf c0be 4442 663e
000003b0: 4c12 d83e 97be 51be 43b6 793e ad0d 693d
000003c0: 01d3 643e f6ba bebe 4dde 99be cb23 90bf
000003d0: 475d 8abf 3dad 0e3f 7d5d 30bf 53d1 00be
000003e0: 9123 3d3f 9315 3bbf 6e44 0f3d fc89 8ebe
000003f0: 8d36 643e 1319 a73e fe13 10bf 0f94 39bf
-0.3530008 -0.21472643 0.076084726 0.66894215 0.6966307 -0.004831995 -0.9117319 -0.094786055
-0.5238464 0.08618269 -0.06268436 -0.68179566 0.41578844 -0.48299578 -0.47392946 -0.28818068
0.3088585 0.0771318 -0.9257708 0.06511694 0.38870165 0.64290625 0.6962379 1.0657115
-1.7494894 0.7669442 -0.27382883 -0.13671894 -0.5689898 -0.17170098 0.120898545 0.0019686923
0.48119128 -0.69391525 -0.28920203 0.01430968 0.4365821 0.7188126 0.73884994 0.25635615
0.16193953 0.19967191 0.65329415 0.1988699 0.33501467 -0.36598358 -1.2003208 -0.0007672241
-0.10441248 -0.26426297 -0.3242954 0.34336028 0.89913315 -0.9773401 0.031772085 -0.14745373
-1.2293011 0.06822223 0.0019134391 0.078797415 0.5546216 -0.19094788 0.61763686 0.37834477
0.23313667 -0.45457375 0.3817751 0.28078896 0.20714374 0.077168636 0.28289595 -0.15528893
-0.22605623 0.34533107 -0.6942085 -0.834996 0.27924374 0.60068756 -0.43815404 0.529265
-0.13827753 0.34181583 -0.39516187 0.2605067 0.37814444 -0.15290414 -0.18858273 -0.808942
-0.038164694 0.63991636 -0.55420554 -0.8314118 -0.26904932 -0.6607075 -0.4140707 -0.24762377
0.33743536 0.1611365 0.16933008 0.009461369 0.7642113 -0.46675724 0.20755318 0.6731809
0.7869314 -0.41774225 -0.42834565 -0.741587 -0.3723929 0.41111606 0.05029135 -0.007898389
-0.4068675 0.37892288 -0.8647604 -0.35271314 -0.31867373 -0.3149111 0.49734864 0.06045103
-0.12491813 0.34391934 -0.6531755 -0.083660305 -0.24760634 0.7683735 0.06555352 -0.94653195
-0.13577387 -1.6945832 -0.51474994 -0.121693864 -0.57302135 0.3148063 -0.6224174 0.8174817
-0.77595234 -0.25851429 -0.2083126 0.11997484 -0.7392897 0.6846842 -1.5714346 -0.24632995
0.1885516 0.6793796 0.5791785 0.881773 0.5311678 0.38910562 -0.96562064 0.048060637
-0.100734845 0.38825879 -0.6858226 -0.05841047 -1.1595242 0.46862778 0.55856466 -0.40839854
-0.020492367 0.30357215 0.4414793 -0.39431733 -0.2521952 -0.24723847 0.664871 0.050820928
-0.2965471 -0.092848144 0.04634241 0.4662878 0.46979633 -0.08200211 -0.2396354 -0.5687663
-0.1487606 0.30308482 0.14441995 -0.5608999 -0.2514273 0.23691942 -0.5937326 -0.13667136
0.32770997 0.21067886 0.35274908 -0.35548633 -0.20488319 -0.00910222 -0.57428575 0.35359952
0.655162 -0.2969569 -0.20575763 -0.43656343 -0.60717577 -1.1018541 -0.35331914 0.2961781
0.45379364 -0.55092597 -0.045338366 -0.30531898 0.12705375 0.18579163 0.5640552 -0.0142430095
-0.32975438 0.65648824 0.29376593 1.219767 0.82414794 -1.0211828 0.08111778 -0.45267063
-0.06999777 -0.30082947 -0.46299472 -0.11901879 -0.5651895 -0.37373415 0.044882953 -0.5920593
-0.27604163 0.70535684 0.55352193 0.018466515 -0.72243863 -0.7145138 0.4731983 -0.67516714
0.32031047 -0.8138421 -0.37633786 0.22486216 0.4220146 -0.2048286 0.24385934 0.056897808
0.22346117 -0.37252015 -0.30052415 -1.1260923 -1.0809716 0.5573309 -0.6889265 -0.12579851
0.73882395 -0.73079795 0.03497737 -0.2783965 0.22286434 0.32636318 -0.56280506 -0.72491544

network_body._body_endoder.seq_layers.0.bias f4 [128]
00000000: 5be4 893b 026d 1739 3a60 81ba 14fd c43a
00000010: db95 b53b 89af 5ebb 67c3 433b a786 2fbb
00000020: d580 b83a 1d21 78b9 c611 503a a1b9 d3ba
00000030: c411 2539 4eec 403b e7c8 6339 3c51 94b9
00000040: 50aa d4b8 81c2 17ba 9d88 a03a b780 a0ba
00000050: da3c 8aba fd23 aabb abfc a73a ab7e b9ba
00000060: 6c5d 83bb 1b92 af3b 950a 3dbb 51a9 253b
00000070: fa3c 123a cc32 4239 8c4e 76bb 8139 af3a
00000080: 4e15 93ba 5545 52bb 666d ceba a1b1 a63b
00000090: dfda cf3a de3c d53a 0a1a a1ba 47e4 823b
000000a0: 35b5 19ba 98ea 16bb 6d34 3c3b 0baa af3b
000000b0: 9a47 4fbb 6d7b 42bb e17d 493b d17c 91bb
000000c0: 738e cd3b 2581 2cbb 85d9 043b 86d4 12bc
000000d0: c18a 3d3b c9c9 1eba 0d09 f93a 9e9f 0ebb
000000e0: 7616 41bb 3160 b0ba 1028 a5bb 15b4 b43b
000000f0: 56ca 8bbb 4960 1b3b 11bf 923b 97f7 78b8
00000100: 26f3 463a e90a 013b c0d0 49bb 8391 ebbb
00000110: 05e9 b9ba cf63 963b 14ed 1cbb da71 7c3a
00000120: 5a2e d53a 7fc2 72bb dc8c 8c3a 6154 473a
00000130: c71f ebb8 836c 42bb 55b1 983a 32af 7b3b
00000140: 13c4 b739 98fb 25bc 38e7 7cbb aff6 ce3a
00000150: 4ba9 103b 1798 5e3b 7681 edbb d7ac e6ba
00000160: 0317 a83b de01 99ba 0529 793b 4150 d839
00000170: 97e6 5fbb 62b0 a5bb 2421 913a 45f6 cebb
00000180: 7d1a bfbb 4077 6a3a 5143 4fbb 3794 3ebb
00000190: f442 1ebb bed8 933b 68db 86bb 4890 2a3b
000001a0: 07ba d438 7c5c 933b 7c02 d83b 605d f63a
000001b0: fd4b 403b 0b71 723a e736 c6ba a806 e439
000001c0: 3b50 3c3b 0829 b7ba aed3 a93b 9d11 3abb
000001d0: 15a2 8c3a ea42 e0ba f3be 83bb 6cb1 35ba
000001e0: 7797 ccbb 27f0 c2bb ec2a 73ba ca6b 8ab9
000001f0: 1ae0 1e3b cd31 383b 21da 12bb 5ebc 8ebb
0.0042081303 0.00014441091 -0.0009870597 0.0015029036 0.005541546 -0.0033979139 0.0029871108 -0.002678314
0.0014076481 -0.00023663459 0.0007937219 -0.0016153344 0.00015742244 0.0029437724 0.00021723249 -0.00028289284
-0.00010140671 -0.0005789176 0.0012247745 -0.0012245391 -0.00105467 -0.0051922784 0.001281639 -0.001415213
-0.0040089395 0.0053579933 -0.0028845419 0.0025277922 0.0005578544 0.00018520205 -0.0037583439 0.0013368578
-0.0011221559 -0.0032084782 -0.0015749156 0.005087093 0.0015858075 0.001626875 -0.0012291085 0.003994498
-0.0005863489 -0.0023028012 0.0028717772 0.005360847 -0.0031628371 -0.0029675618 0.0030745196 -0.004439928
0.006273085 -0.0026322093 0.0020271253 -0.008961802 0.0028921815 -0.000605729 0.001899989 -0.002176262
-0.002946285 -0.0013456402 -0.005040176 0.0055146315 -0.0042660637 0.0023708513 0.0044783433 -5.9358394e-05
0.00075893325 0.001969034 -0.003079459 -0.007188977 -0.0014183825 0.004589535 -0.002394502 0.00096300023
0.0016264424 -0.0037042198 0.0010723132 0.0007603821 -0.00011211592 -0.0029666729 0.0011649529 0.0038403985
0.00035050567 -0.010130785 -0.0038589966 0.001579007 0.0022073563 0.0033965164 -0.007248099 -0.0017599118
0.0051296963 -0.001167353 0.0038018834 0.00041258524 -0.0034164542 -0.005056427 0.0011072499 -0.0063159787
-0.005832015 0.0008944161 -0.0031625817 -0.0029080042 -0.0024148794 0.0045119217 -0.0041155107 0.002602594
0.00010143598 0.004497109 0.006592093 0.0018796138 0.0029342168 0.0009248412 -0.0015122563 0.00043492508
0.0028734345 -0.001397402 0.005182705 -0.0028391846 0.0010729457 -0.0017109786 -0.0040205657 -0.000693104
-0.006243642 -0.0059490385 -0.000927611 -0.0002640172 0.0024242462 0.0028105855 -0.0022407847 -0.004355951

network_body._body_endoder.seq_layers.2.weight f4 [128, 128]
00000000: acb0 573d 128a 13be 3c52 be3d 9a39 57bd
00000010: 74a7 69bc 6151 0bbe f636 cdbd c8b8 68bd
00000020: f2d2 6ebe 5892 1fbd f96c ba3d cdcb 733d
00000030: a4ee babd 66d2 063e 5573 623d 0fdb 69bd
00000040: b754 5e3e 6a71 b03c ada6 5ebd 06a6 0d3e
00000050: e660 c9bd 5324 86ba 7454 d7bd e90d 80ba
00000060: 021f 13bd a4f6 de3b 81df 783d bcb1 b2bc
00000070: 0781 7fbd 7388 fb3c fca9 99bd 1210 babc
00000080: 749e a3bb b5e4 dabc 4222 0fbe 7033 7e3c
00000090: 33f8 b43d 2198 09bd 0835 cbbc a252 54bd
000000a0: e200 ce3d 34be 6cbd 5a8c 8bbd 5403 f8bd
000000b0: 5379 44bc ca11 163d 2582 4c3d d390 00be
000000c0: 604a 493e 66d5 473c 90bf bebd fc83 503d
000000d0: 2227 01bd 8f71 36bd a38d b739 97aa ccbc
000000e0: 44f8 1a3e 3b83 d3ba 776e e23b ae90 7b3d
000000f0: 942c e4bc 6ba6 ccbd 2871 293e f0a1 c6bc
00000100: 1d3f 2a3d ade0 2abd d311 243d e6f9 06bd
00000110: d470 a3bc 9484 613c 1d39 c7bd 7281 ad3d
00000120: 2204 f23c 3b17 e2bd 2c58 2f3e d9d7 9dbd
00000130: 2f9f 1c3d 1724 c7bd 8848 11be c0b7 e7bc
00000140: 842f 553c ead0 64bd cc18 bbbd 6a43 6bbd
00000150: 1298 c7bd 13ca bc3c bc26 23bd b250 55bc
00000160: 4197 3dbb 6073 143c 6f5b 813d c84f debc
00000170: 55a3 11be ded4 e3bd bce0 5abe 0fc1 3a3c
00000180: bad9 55bc f5d3 bb3d 7e68 cd3d 739d fbbb
00000190: 4617 06bd eef5 5bbc 0414 06be 396b babd
000001a0: 8246 723e 50aa f1bd 1dbf fa3c 7269 8cbd
000001b0: 6432 323d fda2 98bd 86b9 b23d 3191 bf3c
000001c0: d457 343c 065e 633d 2ca1 21bd 556c 45ba
000001d0: e91b 033e a023 883b 3700 843d 1afc 4cbd
000001e0: dcbb 703d 8ed0 25bd 2f9f d0bd 807c 9abb
000001f0: ef98 96bd 1c05 9bbd c281 7dbd 247e 52bd
00000200: 494e 3e3d eed1 333d 8340 393c c05d 633d
00000210: 078b 323d 2aac 7abd 6612 b63d d05a 7fbd
00000220: 2733 1cbe 3af0 64bc 546e 16bd 1ad9 613c
00000230: df93 b9bd 52f4 6fbe 5c1e e2bd 1212 87bd
00000240: ca12 adbd 66b1 0dbe 4df2 803d b320 07bd
00000250: 952f 35bd e008 2a3d ce9b 79bd 1f5a a7bd
00000260: 2875 913d 9d3e dabd b142 b2bd 0ca2 8f3c
00000270: a07a 9c3d 0bc6 0d3e aa26 f43d a418 28bb
00000280: 0b28 40bd 3735 af3d c433 a53d 61fa d83d
00000290: c170 1dbe f800 453d 3683 073c e1f9 8dba
000002a0: cd48 d8bb 598c b5bc 52df bb3d 16ea 523b
000002b0: f43a 8cbd 6c64 6e3d e98e 2b3e f501 e43d
000002c0: d70a dc3c 9617 0bbd fe2b ae3d dd21 2c3e
000002d0: a89a 65bd a4cf 5dbe 75b5 0c3e f69f 15be
000002e0: 182d 5f3d a4ff a1bd 768f 44bd fc4e fd3c
000002f0: 971f cc3d 94d5 2a3e 5561 e2bc 5461 95bb
00000300: 9658 0fbe 14e8 88bd 7990 4f3d d034 0c3d
00000310: a120 293c dcc3 123c 750d 063e b549 f33b
00000320: 95cb 483d 4f18 12be 498d 9b3b 2c5c 0a3e
00000330: 1cec 07bd 80e8 06bc 10b2 85bd 8fa6 70bd
00000340: af21 c2bd 65ee 3a3d 3a7f 053e 6747 a53d
00000350: 62cb 043e 5ab2 fcbd 9491 d53d 8f9c 16be
00000360: 52ea 2c3e 6478 c23d d866 0b3d 374e 31bd
00000370: 3fad cbbd 4e91 01be c1d9 3fbd ad9a 10bd
00000380: c8a2 40be cd86 e63a ddc6 2cbc b163 24be
00000390: 9d7f 7b3e 97ea b53c eb1d a3ba 7909 053c
000003a0: e557 003e 9bea 89bd f07c e53d 9b7c 5abd
000003b0: 8d83 89bd ed31 d43d 4c77 853d 8c23 0fbd
000003c0: 1d20 0e3e 107a 16be 7b67 903d d7f7 40be
000003d0: 8165 9ebd 9c3e 59bd 3fde bd3d af78 273d
000003e0: 06d8 4f3b 3512 b3bb ba32 273e cf74 05bd
000003f0: d2a0 ac3d 1e52 09bd f57a de3d 9ec3 b53d
0.05265872 -0.14408138 0.09293029 -0.052545168 -0.014261115 -0.13605262 -0.100202486 -0.056816846
-0.23322657 -0.038957924 0.09102816 0.05952053 -0.09127548 0.13166198 0.05528577 -0.057093676
0.21712004 0.021538455 -0.054358173 0.13832864 -0.09832935 -0.0010234214 -0.10514155 -0.000976977
-0.035918243 0.006804304 0.060760025 -0.021813266 -0.06237891 0.030704712 -0.07503125 -0.022712741
-0.0049932543 -0.026720384 -0.13977912 0.015515193 0.08836403 -0.033592347 -0.02480556 -0.051836617
0.10058762 -0.05779858 -0.06813879 -0.1211001 -0.011991817 0.03663806 0.049928803 -0.12555246
0.19657278 0.012196874 -0.093138814 0.05090712 -0.03153146 -0.04454189 0.00035010008 -0.024983687
0.15133768 -0.0016137132 0.006910141 0.061417274 -0.027853288 -0.09992679 0.16547072 -0.02424714
0.041564096 -0.041718174 0.04005606 -0.032953165 -0.019951262 0.013764519 -0.0972769 0.08471955
0.029542986 -0.11039587 0.17123479 -0.07707185 0.038237747 -0.097236805 -0.14187825 -0.028285861
0.013011817 -0.0558633 -0.09135589 -0.057437338 -0.09745802 0.023045575 -0.03983186 -0.013019728
-0.0028929266 0.009060711 0.06316268 -0.027137652 -0.14222462 -0.111245856 -0.21374792 0.011398568
-0.013052398 0.09171287 0.10029696 -0.0076786815 -0.03273704 -0.013425333 -0.13093573 -0.09102482
0.23659709 -0.11800063 0.030608708 -0.068560496 0.043505087 -0.074529625 0.08726792 0.023384662
0.011007268 0.05550959 -0.039460346 -0.00075310963 0.12803616 0.0041546375 0.064453535 -0.05004511
0.058772907 -0.040482096 -0.10186612 -0.0047145486 -0.073533885 -0.07569334 -0.061891325 -0.05138983
0.046461377 0.043901376 0.011306885 0.05550933 0.043589618 -0.061199345 0.08890228 -0.062342465
-0.15253888 -0.01397329 -0.03672631 0.013784671 -0.09061407 -0.23433045 -0.11040947 -0.065952435
-0.08450849 -0.13837203 0.06296215 -0.03299017 -0.04423483 0.04151237 -0.060939603 -0.08171486
0.07102424 -0.10656474 -0.087041266 0.017533325 0.07640576 0.13845079 0.11921437 -0.0025649453
-0.046913188 0.08555072 0.08066514 0.10594631 -0.15375043 0.048096627 0.008271029 -0.0010831916
-0.0066004754 -0.02216165 0.09173454 0.0032182983 -0.06847182 0.05820124 0.16753735 0.11133186
0.026860638 -0.03395804 0.085044846 0.16809793 -0.056055695 -0.2166124 0.13741095 -0.14611802
0.054486364 -0.07910088 -0.047988378 0.030921452 0.09966963 0.16683036 -0.027634302 -0.0045587216
-0.13998637 -0.066848904 0.05067489 0.034230053 0.010322721 0.008957829 0.13091071 0.007424558
0.049022276 -0.14267085 0.004747067 0.13511723 -0.033184156 -0.008234143 -0.06528103 -0.058752593
-0.09479081 0.045637507 0.13036814 0.080702595 0.1296821 -0.12338705 0.104281574 -0.1470816
0.16886261 0.09495619 0.034033626 -0.043287482 -0.099451534 -0.12653086 -0.046838526 -0.03530376
-0.18812096 0.0017587781 -0.01054546 -0.16053654 0.245604 0.022206588 -0.0012444829 0.008119934
0.12533529 -0.067342006 0.112054706 -0.05334149 -0.067145444 0.10361085 0.06516895 -0.03494601
0.13879438 -0.14695 0.07050987 -0.18844543 -0.07734204 -0.053038225 0.09270906 0.040886577
0.0031714453 -0.005464817 0.16327944 -0.0325821 0.084291115 -0.03352558 0.10863296 0.08875202

network_body._body_endoder.seq_layers.2.bias f4 [128]
00000000: 66b3 073b afcd 373b 2a15 0fbb 4207 6fbb
00000010: fa78 1b3a 669f 2f39 d985 113b 137f 983b
00000020: b55f 833a ef44 1abb 24e2 61bb 9fe1 89bb
00000030: afc9 8d3b 1688 9a3b 5647 f63b 2d05 fb3a
00000040: 180d 333b 5302 583b a3d4 d2ba 3340 b03a
00000050: 65ff 1abc d8b1 703b e696 5eb9 5119 9b3b
00000060: 5f00 ecba fc7a 95ba 8c39 503b b506 463b
00000070: fb85 863a a88a 6aba 150d ff3b d651 8b3b
00000080: 68bf 633b 32e3 50bb 206f 5f3b bdea babb
00000090: 8df2 68bb ae72 703b 37fa 503b e03e cfba
000000a0: d1f2 243b bc38 4339 6f37 dd39 1e0f 09b7
000000b0: 9dc1 12bb 1818 29bb b51e b5bb eb83 93bb
000000c0: cf5b d13a 59d7 963b 200e 063b ab7b 353b
000000d0: 69d0 bb39 2d18 973a 2861 bfbb 50e9 11bc
000000e0: 42cc f43b 2a0d 63bb 664e 103b f99a a2bb
000000f0: 7567 b73b 9667 87bb cd26 1bbc b34a 343b
00000100: 622d 9239 ab4e 11bb dd7d 0dbb f190 16bb
00000110: 2078 273a c59c 5dbb c7b3 09ba e098 053b
00000120: 0e20 323b bbc3 973a b3e6 6e3b 5a2e 8fbb
00000130: e2cb dd3a 436a c0bb 5855 093b 9179 a03b
00000140: 8e1e 193b e579 5a3b 37c1 8bba 0a20 9a3b
00000150: 6542 b5ba 57c1 59b9 75bc b2ba fc37 bd3b
00000160: a7b3 6c3a e9f9 843b 06c4 8dbb 196f d8bb
00000170: cf43 0b39 7e06 d3b8 b83e ba3a 3048 273b
00000180: 6e72 99bb e17a 92bb d7a6 08ba ecc5 0c3b
00000190: 70b6 2fba e1a4 733b 5e88 b2ba d643 283b
000001a0: c389 aebb 051d c2b9 ef27 8cbb 4341 0cba
000001b0: 6ce4 9fbb 93e5 323b d4ab 33bb e5f3 b53b
000001c0: 2180 863b d857 b03b 785f 033b 6235 b4bb
000001d0: 5578 143b 62b6 6bbb c576 203b 8936 19bb
000001e0: e23c 07bc 6012 6aba 2863 423b 9448 8c3b
000001f0: e57a 16bb 3171 68bb a1e7 b8bb dd95 74ba
0.0020706295 0.002804618 -0.0021832683 -0.0036472832 0.00059308077 0.00016748681 0.0022205024 0.0046538203
0.001002303 -0.0023539623 -0.0034467066 -0.0042078043 0.004327021 0.0047159297 0.007515828 0.0019151323
0.0027321037 0.003296037 -0.0016085099 0.0013446867 -0.009460305 0.0036727097 -0.00021227784 0.0047332426
-0.0018005482 -0.001140445 0.0031772582 0.00302164 0.0010263318 -0.0008947053 0.007783542 0.004251699
0.0034751538 -0.00318737 0.0034093335 -0.0057042525 -0.0035544962 0.0036689448 0.003188742 -0.0015811585
0.0025169144 0.00018617784 0.00042193706 -8.169356e-06 -0.0022393235 -0.0025801715 -0.005527342 -0.00450181
0.0015972796 0.004603308 0.0020455196 0.002769212 0.00035822697 0.0011527591 -0.0058404393 -0.008905724
0.0074706385 -0.0034645298 0.0022019385 -0.004962322 0.00559705 -0.0041322215 -0.0094697 0.0027510345
0.00027881103 -0.0022172134 -0.0021589913 -0.0022974575 0.00063884445 -0.0033815366 -0.0005252924 0.002038531
0.002717975 0.0011578718 0.0036453425 -0.004369539 0.0016921724 -0.0058720424 0.002095541 0.0048973043
0.002336416 0.0033336815 -0.0010662441 0.0047035264 -0.0013828991 -0.00020766757 -0.0013636487 0.005774496
0.0009029456 0.004058112 -0.0043263463 -0.0066050407 0.00013281334 -0.00010062473 0.0014209365 0.0025525205
-0.0046828305 -0.0044702147 -0.00052128494 0.0021480275 -0.00067029055 0.0037177133 -0.0013620963 0.00256752
-0.005326481 -0.00037024185 -0.0042772214 -0.0005350301 -0.004879525 0.0027297481 -0.002741565 0.005552756
0.0041046296 0.0053815655 0.0020045917 -0.005499528 0.0022654731 -0.0035966863 0.0024484855 -0.0023378453
-0.008254262 -0.00089291297 0.0029661153 0.004281113 -0.0022961434 -0.0035467858 -0.0056428467 -0.00093301927

action_model._continuous_distribution.log_sigma f4 [1, 2]
00000000: 8042 923a 4be7 a4bb
0.0011158735 -0.005032455

action_model._continuous_distribution.mu.weight f4 [2, 128]
00000000: bf5d 0d3a 09dd ad3c c1d8 a7bb 835a df3c
00000010: f71a 463c d6f9 8e3c c531 833c 6e47 fc3b
00000020: a55e 2abb fdaf 03bd 6f4d b63c 29cc 81bc
00000030: 63e8 25bd fcc4 b23a c6c2 9ebb 3ab9 313c
00000040: 2978 11bc 13ca 003b fff1 d7bc c01c 3a3d
00000050: cdb9 e73c 9034 853c 36ea 93bc f0db 03bc
00000060: 721b 34bc ee4f 903a 3c9c 54bc 1b42 513c
00000070: 23bd 4abc 6832 71bc 5b03 21bb 48fc 6a3c
00000080: 4aac 483c 7cb7 d4bc 37a5 583c 12b1 853c
00000090: ddfb 23bc 528b 9a3b bb7b d1bc af84 203c
000000a0: 46cb 93b9 aec3 503c f89e 4ebc 81c5 68bc
000000b0: d8c0 bfbc 9f0d eebc 3541 ae3b fc44 283c
000000c0: e9f4 c33b 1950 92bc 9f31 84bc a257 47bc
000000d0: 8458 d2bc ef3c b73b 8c65 c0bb 2461 b13b
000000e0: 3754 17bb 7b57 f7bb 9058 ca3c 8910 a4bc
000000f0: 3505 6abb b0c7 5e3c 2502 d43b 7a07 0e3c
00000100: b372 6abc 5543 913c 4345 12bc 28da 393c
00000110: 058e 9bbb 4a80 34bd 76e5 043c a7fc 2bbc
00000120: 540f f1bc acb0 b33c ad0a e33c 6c04 0fbc
00000130: 4569 17bc b193 9139 54d2 883c b14f a73b
00000140: 79e5 67bb 1650 d9bc 74aa e3bc 46d3 28bc
00000150: bf83 e8bc 8596 cebc 3abf 49bc 86ab 9f3b
00000160: 3a1b 4e3c 9d8f 1f3b a7c5 4cbc ab67 a3bc
00000170: 6496 af3c dc42 73bc 8971 71bc 7bb1 023d
00000180: ca59 20bc 7cd6 c93c dfaa 7cbc 8e0f 153d
00000190: f53e b43b 2cc0 543c 6f92 b2bc 0115 8e3c
000001a0: 352d da3b a80c 143c bbe4 35bc a9cb ea3c
000001b0: 86f0 b43c 715b d7ba d63f 0abd cc8f 9a3b
000001c0: e1b4 16bd 3ce8 bc3b f136 0c3c 2dca 163b
000001d0: 4052 27bd 0068 2a3c 3ba6 16bd 0372 473c
000001e0: 21c7 20bb da83 383c ed45 213d 849e e73c
000001f0: 7b35 b6bb 8bcc 283d 5464 bd3a 2a3d 093c
00000200: fcb3 c0bc 19b1 32bc 2b9c bbbc 2813 fa3b
00000210: 605e 27bb 51bf 26bb 5e21 393c c232 8dbc
00000220: fb3e ceba 7139 ff39 1ba3 983c 032c 743c
00000230: cbe8 d4bb d011 b9bc a9dd 91bc 875a 72bc
00000240: ec44 8dbc 3821 bdbc 534f c03b 1f6f 9ebc
00000250: bcaa a93c 255c 0fbd eac6 9cbb 3ab1 c3bc
00000260: a702 c6b9 3865 d13c 866b babc 9c07 8bbc
00000270: 99cd ddbb 3aa3 6abb e4f7 e1bc cab8 a3bc
00000280: 0f24 d53b 35f1 4d3d ceda eebc c3fe 3f3c
00000290: 1194 323c d562 0bbc 43a9 853c 2030 40ba
000002a0: 01f0 8fbb 0942 f43c 6819 983b b598 323a
000002b0: ff66 373b dd60 993c 2deb 713c 63ce 3c3b
000002c0: fa57 453c f893 91bc f06a 8dbc 8df5 c5bb
000002d0: e444 d9ba e7bd 4fbb 301f 7e3c d33f 413c
000002e0: 0518 87bc 46b3 3e39 e329 96bc 9639 5b3c
000002f0: 1b23 83bc 6f05 453d 4553 663c c402 5ebc
00000300: 0b99 16bc a63c 023a 4c95 ed3c 52c0 cb3c
00000310: c6b2 50bd 66d8 37bb 53c5 9b3a 02a0 22bc
00000320: 8eab 94bb 1c1f c8bb 9801 ccbc fbc2 a63b
00000330: e231 b4bc 1179 2a3c 8978 0fbd 73a0 a6bc
00000340: 8820 36bc 4e3c 02bd 46fc af3a 124c 77bc
00000350: e7f8 0f3b ee96 0cbc 8561 f5b9 c60c 16bd
00000360: 517b 4d3b 59a7 50bc da9a 413c 8136 043d
00000370: 0149 44b8 bf43 b8bb a676 47bc 1b35 2f3c
00000380: 41d0 163c 69a8 713c 8498 b0b9 6b3d 2ebc
00000390: 4bee 00bc c677 34bd 1f57 5f3c a5c4 38bc
000003a0: 4fbf 5d3c 738e 573a 67b7 6b3c 7af5 27bc
000003b0: 8a46 223d fa2f 98bc 624f d93c 8129 a5bc
000003c0: 77cd e03b d6d4 f2bc 046d 13bc a105 f43b
000003d0: 410f 9abb 73d0 3b3c bd5b f8bb d77d 42bb
000003e0: e35b 693c 0285 873b be2f b4bc edcd 17bc
000003f0: 8cf1 203a 11b9 4a3c 9320 51ba c181 0ebb
0.00053926924 0.021223562 -0.0051222746 0.027264839 0.01209139 0.017453115 0.016014943 0.007698945
-0.0025996354 -0.032150257 0.02225372 -0.015844421 -0.040504824 0.0013639028 -0.004844996 0.010847384
-0.008878746 0.0019651696 -0.02636051 0.045437574 0.028286839 0.016260415 -0.018056016 -0.008048043
-0.010992872 0.0011010149 -0.012976702 0.012772108 -0.012374195 -0.01472149 -0.002456865 0.014342375
0.012248108 -0.025966398 0.013222984 0.016319785 -0.010008779 0.0047163153 -0.025571695 0.009797259
-0.00028189475 0.012741966 -0.012611143 -0.014207245 -0.023407385 -0.02905923 0.005317832 0.010270353
0.0059801233 -0.01786046 -0.016136942 -0.012166889 -0.025676973 0.0055919806 -0.0058714803 0.0054131914
-0.0023090967 -0.0075482703 0.024700433 -0.020027416 -0.003570867 0.013597414 0.006469982 0.008668775
-0.014309573 0.017732302 -0.008927646 0.011343516 -0.0047471547 -0.04406766 0.008111348 -0.010497249
-0.029426254 0.02193483 0.027715052 -0.008729082 -0.009241407 0.00027766594 0.016701855 0.0051059355
-0.003538458 -0.026527446 -0.02779124 -0.010304278 -0.028383134 -0.025218258 -0.012313658 0.004872742
0.0125797335 0.0024347075 -0.012498296 -0.019946894 0.021434017 -0.0148474835 -0.014736542 0.03190754
-0.009787032 0.024638407 -0.015421598 0.036391787 0.005500669 0.0129852705 -0.02179834 0.017344
0.006658221 0.009036221 -0.011101897 0.028661566 0.022087347 -0.001643045 -0.033752285 0.004716849
-0.036793593 0.005764989 0.008558021 0.002300869 -0.040849924 0.010400772 -0.036779623 0.012173179
-0.0024532753 0.011261905 0.039373327 0.028273828 -0.0055605746 0.041210692 0.0014449456 0.008376399
-0.023523323 -0.010906481 -0.022901615 0.007631678 -0.002553843 -0.0025443623 0.011299459 -0.017236117
-0.0015735322 0.00048680187 0.018632462 0.014903071 -0.0064974776 -0.022591501 -0.017805891 -0.014792091
-0.017244779 -0.023087129 0.005868831 -0.019340096 0.020711295 -0.034999985 -0.0047844546 -0.02388822
-0.0003776748 0.02556096 -0.02275635 -0.016971402 -0.006768894 -0.0035802857 -0.027584024 -0.019985575
0.0065045427 0.05027886 -0.029157069 0.011718455 0.01089956 -0.00850745 0.016316062 -0.000733139
-0.0043926244 0.029816644 0.0046417005 0.0006812916 0.0027984974 0.018722946 0.014765543 0.002880954
0.012044901 -0.017770752 -0.017262906 -0.006041235 -0.0016576317 -0.0031698884 0.015510365 0.011795002
-0.016490946 0.00018186597 -0.01833052 0.013380429 -0.01600795 0.048100885 0.014057939 -0.013550464
-0.009191762 0.0004968144 0.029001854 0.024871979 -0.05095174 -0.0028052568 0.0011884369 -0.009925844
-0.0045370525 -0.006107224 -0.024903104 0.0050891615 -0.021996442 0.010404841 -0.03502706 -0.02034018
-0.0111161545 -0.031795792 0.0013426624 -0.01509382 0.0021968426 -0.008580906 -0.000468027 -0.036633275
0.003135402 -0.012735211 0.011816705 0.03227854 -4.679803e-05 -0.0056233103 -0.012174284 0.010693814
0.009204925 0.014749625 -0.0003368297 -0.01063476 -0.0078693135 -0.044059537 0.013631611 -0.011277352
0.013534381 0.00082228257 0.014386988 -0.010251397 0.039618053 -0.018577565 0.02652711 -0.020161392
0.006860431 -0.029642504 -0.008998159 0.00744696 -0.0047015254 0.011463272 -0.0075792954 -0.0029677057
0.014243099 0.004135729 -0.021995421 -0.009265405 0.0006139509 0.012373225 -0.0007977571 -0.002174482

action_model._continuous_distribution.mu.bias f4 [2]
00000000: dd1b c339 c3ba d0bb
0.00037214058 -0.00636992

action_model._discrete_distribution.branches.0.weight f4 [2, 128]
00000000: c7b3 663c 4778 a8bb 2a6f ebbb 0dd0 523c
00000010: ce28 13bc 0617 e03a 1989 443b 2db3 90bb
00000020: cec5 07bc f45a 203c 44c2 863b 1cad acbc
00000030: 312a 23bb e5b7 66bb 03da b5ba bd75 fbbb
00000040: 1fca a339 ff0b 333c 3ee7 50bc 149f 6aba
00000050: b763 4b3c 2f5b b53b ea6d 693b a5ac c5bc
00000060: 3925 593a 3996 88bb 6d90 65bb d4d6 efbb
00000070: 9c02 513c 5964 473c 1bb3 523b 8145 843b
00000080: c8a0 be3c 380b 973b a05e c53b 952a 8ebb
00000090: 319d 43bb a90a 1e37 6756 1b3c 000c 1fbb
000000a0: 776a 473c e9a9 833b 292c 46bc 7347 a03b
000000b0: 9a49 c43b f2f5 823b 59cd 3eba 43ba 08bb
000000c0: a260 c23c 78fa 81bc 0c32 a939 0843 77bc
000000d0: 15a5 98bc ec0b 2dbc f825 1f3c 3cf6 133b
000000e0: 76a7 b6bc 5fb8 9c3b ac60 2d3c 1401 ac3b
000000f0: b883 27bc a43e 6bbb 7be6 783c a059 61bb
00000100: 982a d93b c471 93bb 74bd 853c 47c3 2739
00000110: 4a68 e53a f3b9 603b bd38 fbbb 24a8 e9bb
00000120: 59df ffba 1dfe c3bb ea58 083b 690f 343c
00000130: 7dd5 813c 5138 09bc 89e9 b5bc 1487 1d3b
00000140: 84f1 073c d289 1cbc 7164 b3bc c472 08bc
00000150: 6db0 e33b 21c1 16ba 3752 c5bb 3431 53bb
00000160: d058 903c 8a46 873b b0e2 2ebc d88f 1c3c
00000170: 026d 9c3b 64d5 6a3b 7297 453c 75d9 e23c
00000180: afda a53b c141 023b 8c88 27bc fefd d93c
00000190: 4fde b43c 0855 463c eb41 11bc 0aaa f53b
000001a0: 0eb2 65bc 651a e4bb 75b1 32bc dd07 923b
000001b0: 61ba 0a3c a142 f43b 063c 50bc ea78 993c
000001c0: 1e27 8d3b aaf4 a0bb b33f e63a d2a4 30bc
000001d0: 3852 023c 8863 1e3c b125 723b 9de7 39bc
000001e0: e9f7 1339 2776 03bb 2e6b ce3b 5f0a 343b
000001f0: 3610 0abc 6b08 9bbb e5d3 8a38 9eb0 eebb
00000200: a236 1bbb 45e1 1c3b cc04 d1ba 51bd 343a
00000210: 8b32 a0bc 6ba3 743c f6e9 18bc 9075 553c
00000220: 9c70 b6bc 27d0 703b 88fe e7bb 58d2 b93b
00000230: 61b9 e33c e988 4e3c 0cc1 293c 1db0 10bc
00000240: 52e2 743b cfc2 1dbc 79bd ba3b b342 203c
00000250: ffce 9bbc 95bd 40bc ed40 c63b 4730 0ebc
00000260: 28eb 12bb eade 12bc 9f89 f2bb caa5 f5bb
00000270: 4a11 15bb fb95 b439 fc42 db3c 175e 07bc
00000280: f900 59bc d448 16bc 69fa 35bb 31a0 fb3b
00000290: 0588 e73b 4607 8e3b 4e04 263b c199 19ba
000002a0: 3b01 adbc 9f94 31bc 571f 913c 5b1b c5bb
000002b0: cb6c 413c bfec 92bb 1488 b13a 977d 643c
000002c0: de22 d3bc dac9 613c 301a 373c 44ed bbbb
000002d0: 19c9 843c 9c03 6c3b 8fab 503c 1b3d 993b
000002e0: 574b f2ba 0f5c abbc 1b65 3b3c 52e4 13bc
000002f0: fe99 0dbb d28e 88ba 5fa3 8d3b f47c 72bc
00000300: a047 57bc a733 823b 9758 17bc b7ea c1bb
00000310: ddf8 923a d2a0 7fbc fac5 c3bc ce1c bd38
00000320: c21b c8bb 5e78 9fbb 82f8 1b3b f5ab d83b
00000330: 8936 093c 6129 46bc 7347 703c c4bc 053c
00000340: 1c2f 8739 e8c8 8abc 69a2 723b e304 443b
00000350: 6abb e3bb 9559 963c cd61 1f3b e8a1 82bb
00000360: 0e3e 2fbc 76ae ae3a dda7 a8bb e035 a9bc
00000370: d619 763b dd9d bbbb 01aa cbbb 93f9 6c39
00000380: b27a 44bb 86cf 9abc 5985 853b c085 e33b
00000390: 2a40 07bc 4ede 0c3c d704 013b fc08 5dbc
000003a0: 54d7 103b d876 323b efa1 533c df38 0bbc
000003b0: bfc0 be38 363a b0bb 62c5 5f3c 7884 b9bb
000003c0: 8928 46bc 2008 073b e3ff abbc ae41 cebb
000003d0: 88a6 f03b 4eba 2ebc 6290 773b 5df1 0cbb
000003e0: 5bb3 b9bb 9f64 4a3c 6381 753b 764e 903b
000003f0: 89dc 9bbc e68f a03b 265f cebb 5387 333c
0.014080948 -0.0051412913 -0.0071848826 0.012866986 -0.008981897 0.0017096705 0.0029988943 -0.0044158907
-0.008286906 0.00978731 0.0041125137 -0.021078639 -0.0024896974 -0.0035204825 -0.0013874177 -0.0076739476
0.00031240375 0.010928153 -0.012750445 -0.0008950096 0.012413911 0.0055345516 0.0035618492 -0.024130175
0.00082834397 -0.0041682986 -0.0035028711 -0.0073193107 0.01275697 0.012169921 0.0032150212 0.004036606
0.023270026 0.0046094917 0.006023243 -0.0043385723 -0.0029848332 9.420016e-06 0.009481049 -0.0024268627
0.012171379 0.0040180576 -0.01209549 0.00489133 0.0059902193 0.003996604 -0.0007278524 -0.0020862974
0.023727719 -0.015866503 0.0003227148 -0.015091665 -0.018633405 -0.010561924 0.009713642 0.0022577187
-0.022296648 0.004782721 0.01058213 0.005249152 -0.010224275 -0.003589549 0.01519167 -0.0034385696
0.006627392 -0.004499646 0.01632569 0.00015999108 0.0017502394 0.0034290522 -0.007666676 -0.0071306396
-0.0019521519 -0.0059812204 0.002080495 0.010990002 0.01584887 -0.008375243 -0.022206085 0.0024036812
0.008297328 -0.009554343 -0.02189848 -0.0083281435 0.006948522 -0.00057508243 -0.0060217637 -0.0032225372
0.017620474 0.004128282 -0.010674164 0.009555779 0.004773737 0.0035832757 0.012060033 0.027691582
0.0050614695 0.0019875618 -0.010225426 0.02661037 0.022078661 0.012105234 -0.008865814 0.007497077
-0.014019502 -0.0069611543 -0.010906567 0.004456504 0.008467288 0.007454232 -0.012709623 0.018734414
0.0043076416 -0.0049119787 0.0017566591 -0.010781484 0.007954173 0.009667285 0.0036948735 -0.011346725
0.00014111366 -0.0020059438 0.006299398 0.0027472002 -0.008426717 -0.004731228 6.619821e-05 -0.007284238
-0.0023683687 0.0023937982 -0.0015946864 0.00068946654 -0.01955535 0.01493154 -0.009333124 0.013028517
-0.022270493 0.0036745162 -0.007079903 0.005670827 0.027798356 0.012605884 0.010360967 -0.008831051
0.0037366343 -0.0096289655 0.0056988564 0.009781527 -0.019019602 -0.01176395 0.00605022 -0.008678502
-0.0022417996 -0.00896428 -0.0074016596 -0.0074965702 -0.00227459 0.0003444402 0.02676534 -0.008262179
-0.013244861 -0.009172637 -0.0027767664 0.0076790084 0.0070657753 0.004334363 0.0025332156 -0.0005859398
-0.02111875 -0.010838657 0.01771514 -0.006015224 0.011805723 -0.0044837887 0.0013544583 0.013945959
-0.025773462 0.013781035 0.011175677 -0.0057350714 0.016209172 0.0036012894 0.012736215 0.004676474
-0.0018485588 -0.02091792 0.01143768 -0.009026604 -0.002160668 -0.001041854 0.004322454 -0.014800299
-0.013139635 0.0039734426 -0.00923743 -0.005917873 0.0011213083 -0.015602307 -0.023898114 9.0175876e-05
-0.0061068246 -0.004866644 0.0023799245 0.0066122958 0.008374819 -0.012094826 0.014665472 0.008162681
0.00025784306 -0.016941503 0.0037023074 0.002991014 -0.0069498317 0.018353263 0.0024319768 -0.003986586
-0.010695947 0.001332714 -0.005146964 -0.020655572 0.003755202 -0.005725606 -0.0062153344 0.00022599688
-0.0029980359 -0.018897783 0.004074734 0.0069434345 -0.008255044 0.008597923 0.0019686723 -0.013490912
0.0022101002 0.002723148 0.012917026 -0.008497446 9.095808e-05 -0.005378033 0.0136579 -0.0056615435
-0.012094625 0.0020604208 -0.02099604 -0.0062944507 0.007344071 -0.010664536 0.0037775268 -0.0021506168
-0.005667133 0.0123530915 0.0037461154 0.0044038845 -0.019026058 0.0048999665 -0.0062979637 0.010957557

action_model._discrete_distribution.branches.0.bias f4 [2]
00000000: a8aa a0ba a9aa a03a
-0.0012257891 0.0012257892

exp_avg f4 [128, 4]
00000000: fbf5 5bb9 121b 8536 3c21 7a39 4146 5d38
00000010: a6c5 f139 1227 5eb8 e07f f339 85e6 0cba
00000020: d1b1 9eb8 707a dd38 1814 dfb9 a153 dc39
00000030: 0515 ecb7 fc25 5e39 8911 da38 cd96 8538
00000040: 3309 4539 3cf2 afb8 8144 da39 546c afb9
00000050: 8514 0c37 96d8 1738 943a 0db8 d6b8 4038
00000060: f125 1db9 5a1c 0639 e1f3 b039 6e91 5eb8
00000070: c473 6d39 9f3e 72b9 06b5 7439 d369 7fb9
00000080: cdd4 e5b8 f70f 44b9 dddc a7b8 3768 9d38
00000090: 2c21 5139 51c2 22b9 aeb0 1db9 8d70 15b9
000000a0: 9a3e 6639 55f2 15ba 1d27 3bba bdeb 4539
000000b0: 68d8 f3b9 6617 bd37 0dd3 4638 f191 293a
000000c0: 95ea aa38 dbf4 c6b8 f163 2d39 c4c2 53b9
000000d0: 7b75 8339 09d1 6339 0f68 b438 70b3 a9b9
000000e0: 30f4 d7b9 264b 1c3a f254 a2b8 7829 cf39
000000f0: 950a ac38 906d cb39 1c0e 29b9 bf62 71b9
00000100: 470c 25b9 80d6 26ba 08a7 23b9 4b69 0139
00000110: 67d9 2839 2038 01b9 7ab8 d6b9 4e96 5d39
00000120: 2891 b039 368f 89b9 d345 d238 5c25 f6b9
00000130: dcc4 2539 b6b4 d3b9 ac05 0aba fbff a038
00000140: 5951 d838 e9a5 1239 3878 1f39 49b7 e3b7
00000150: 7706 9eb8 988c 7939 0190 fa39 c791 85b9
00000160: 66c2 7738 4245 5439 3842 c8b9 720e 4c39
00000170: c595 17b8 b659 82b9 62d6 5ab9 54f8 6837
00000180: 9b30 8138 3892 86b8 4b62 9cb9 c1b7 5339
00000190: 4ff7 cab8 f8c3 8bb9 9f4d ba38 4116 7738
000001a0: 16e2 14b8 ae48 b738 9b5d d838 bb52 f739
000001b0: 1c9c a2b9 4716 88b8 48c7 ebb9 63a6 d039
000001c0: 791e dd38 58d5 b0b8 44fc fa39 c342 b7b9
000001d0: bde8 3dba ba0c fcb8 0b51 0aba da84 9439
000001e0: 8f84 4d39 eb50 05b8 0caa 1839 3a42 62b9
000001f0: 53ca d5b8 309c 3fb9 0adf a639 a130 82b9
00000200: 8f64 34b9 b747 3dba 3a41 e5b9 6317 90b9
00000210: 6965 a538 d47f cb37 1ff6 e2b8 9391 2d38
00000220: 2418 f539 bb9b cfb7 3198 1439 3de8 9fb9
00000230: cb80 5338 9ce6 89b5 57db 243a 314c 44b9
00000240: 3be4 ad38 bca2 8338 81da cc37 39b1 25b8
00000250: 11b5 383a b29f 50b9 7985 793a a69f 6dba
00000260: 22da 4c39 efdb 77b9 e7b9 8539 ba57 a2b9
00000270: fd4c 72b9 71ab a538 9e76 15ba a29b 103a
00000280: ebf2 aeb9 7a7c 98b9 80a1 96b9 6c03 9739
00000290: ea43 fb37 4508 65b9 eef5 9339 25de 2eb9
000002a0: 41ed 6c39 93ea ab39 cc0c 8839 2c1e 66b9
000002b0: ccf5 bf38 cf14 6c38 e796 a3b9 c991 4f39
000002c0: 1083 c1b8 7251 e339 a0cb c6b9 65d9 253a
000002d0: 267e a2b8 0c79 0e39 72ee 54b9 dd59 2939
000002e0: 41e8 c039 e7bf 9ab9 0cb7 5cba 5ba0 c938
000002f0: 4cff 3037 1ec7 4eb9 105d 2739 2656 2db9
00000300: 5e73 ed38 9383 de39 66f3 17ba 34b5 093a
00000310: 4f46 d1b9 ee14 9a39 283d b038 50bb 2838
00000320: adf3 0f37 2be8 cd38 2e8b 56b7 298d ebb7
00000330: 54e8 0137 5415 fd38 c74d 2f39 70a5 07b8
00000340: ea0f 69b8 15ce 3939 9868 0e39 c032 7738
00000350: efd8 a038 4f7c 64b8 73ba c6b9 6a20 113a
00000360: 34a3 12b9 8ba4 f339 e951 303a 05ac ceb9
00000370: aeba 60b9 fb60 27ba 8f95 b7b9 2e5c bdb8
00000380: 78d8 7eb9 af13 0739 a4b7 67b9 50b5 a639
00000390: f5f8 34b9 a254 d9b9 4d4a 00b8 a8e0 0739
000003a0: f543 12b8 653d 3b39 aafe 56ba ec9a 4c39
000003b0: c162 7fb8 da75 ac39 a343 38ba 69b7 5f3a
000003c0: 8319 8039 a636 6bb9 5dd4 f5b8 5010 d139
000003d0: 3a31 3bb9 cbab 41b8 6b6c 5fb6 1a11 7b38
000003e0: 8d7c 3037 c183 9339 3204 97b9 b94a 1539
000003f0: 3991 03ba 4dcd 3d39 def5 4a39 a7d2 b439
-0.00020977102 3.9668603e-06 0.00023854239 5.2755935e-05 0.00046114362 -5.296531e-05 0.00046443846 -0.0005374926
-7.567148e-05 0.00010560907 -0.00042548846 0.00042023978 -2.814318e-05 0.0002118572 0.00010398316 6.370023e-05
0.00018790811 -8.38977e-05 0.0004163124 -0.00033459312 8.349428e-06 3.6202917e-05 -3.3671575e-05 4.594851e-05
-0.00014986821 0.00012789798 0.0003375104 -5.3064367e-05 0.00022645207 -0.00023102247 0.0002333709 -0.00024358118
-0.00010959208 -0.00018697964 -8.0043195e-05 7.505755e-05 0.0001994415 -0.00015521912 -0.00015038505 -0.00014251676
0.0002195783 -0.0005720009 -0.0007139312 0.00018875203 -0.00046509807 2.2541451e-05 4.7403435e-05 0.00064685853
8.149926e-05 -9.4869836e-05 0.00016535797 -0.00020195084 0.00025073797 0.00021726279 8.602451e-05 -0.00032367883
-0.0004118993 0.0005962126 -7.740584e-05 0.00039513013 8.20357e-05 0.00038800808 -0.00016122352 -0.00023020337
-0.000157402 -0.00063643605 -0.00015607115 0.00012341623 0.00016102717 -0.00012323307 -0.00040954706 0.00021132195
0.00033677486 -0.00026237377 0.00010026586 -0.0004694861 0.00015808962 -0.00040379696 -0.00052651274 7.6770746e-05
0.00010314835 0.00013985451 0.00015208207 -2.7145858e-05 -7.535231e-05 0.00023798866 0.00047791007 -0.0002547635
5.9070437e-05 0.00020243696 -0.0003819631 0.00019460337 -3.614069e-05 -0.00024862372 -0.00020869964 1.3886096e-05
6.160253e-05 -6.416853e-05 -0.00029827873 0.00020190982 -9.6781754e-05 -0.00026658154 8.883629e-05 5.8910115e-05
-3.549651e-05 8.739658e-05 0.00010317118 0.0004717315 -0.00031015358 -6.489135e-05 -0.0004497117 0.0003979682
0.00010543777 -8.432072e-05 0.00047871668 -0.0003495422 -0.00072444585 -0.00012018667 -0.00052763586 0.00028327742
0.00019599705 -3.178503e-05 0.00014559197 -0.00021577711 -0.00010194317 -0.00018273364 0.00031828164 -0.00024831764
-0.00017203599 -0.0007220464 -0.0004372688 -0.00027483245 7.886702e-05 2.425901e-05 -0.000108223634 4.138199e-05
0.00046748028 -2.474884e-05 0.00014171076 -0.00030499874 5.0426268e-05 -1.0274412e-06 0.00062887877 -0.000187204
8.291794e-05 6.2768784e-05 2.4420444e-05 -3.9504117e-05 0.0007046024 -0.00019895917 0.0009518485 -0.0009064622
0.00019536217 -0.00023637687 0.00025506245 -0.0003096441 -0.00023107599 7.8997466e-05 -0.0005701574 0.0005516355
-0.00033368854 -0.00029084441 -0.00028730556 0.00028803514 2.9953157e-05 -0.00021842222 0.00028221257 -0.00016676688
0.00022595098 0.00032790433 0.00025949476 -0.00021945749 9.153373e-05 5.6286164e-05 -0.00031202214 0.00019795368
-9.2273694e-05 0.00043357495 -0.00037917215 0.0006326645 -7.748259e-05 0.00013587269 -0.00020306723 0.00016150573
0.00036794136 -0.00029516147 -0.000841961 9.6142954e-05 1.0549858e-05 -0.00019719868 0.0001596103 -0.00016530658
0.000113225295 0.0004244117 -0.0005796462 0.00052531366 -0.0003991597 0.00029388763 8.403725e-05 4.022877e-05
8.580199e-06 9.8184064e-05 -1.2787799e-05 -2.8079916e-05 7.743092e-06 0.00012067953 0.00016718275 -3.2340584e-05
-5.556635e-05 0.00017719746 0.0001358114 5.8936654e-05 7.6698016e-05 -5.4475207e-05 -0.00037904418 0.0005536141
-0.00013984443 0.00046471166 0.0006726073 -0.00039419546 -0.00021431848 -0.00063849956 -0.0003501591 -9.029392e-05
-0.00024303969 0.00012881936 -0.00022098288 0.00031797076 -0.00017258881 -0.00041452522 -3.0586776e-05 0.00012958294
-3.4872402e-05 0.00017856581 -0.00082014 0.00019512669 -6.088871e-05 0.00032894203 -0.00070291216 0.0008534105
0.0002443307 -0.00022431705 -0.00011722066 0.0003987574 -0.00017852048 -4.617478e-05 -3.3292697e-06 5.985899e-05
1.0519417e-05 0.0002813619 -0.0002880409 0.00014237584 -0.0005018893 0.00018100925 0.00019355814 0.00034489224

exp_avg_sq f4 [128, 4]
00000000: f0f2 ee33 9d88 4334 e4e1 4134 0a47 e133
00000010: 0fed 8c34 3c26 4c35 f790 2335 7b58 7634
00000020: fbb6 0634 f57e 0735 ef44 f033 a516 8334
00000030: 4ff7 c032 1b86 9033 3a9b 2e32 e479 f932
00000040: 14c0 2333 11e7 9633 2092 0b33 c6e5 ec32
00000050: 7676 8a33 d656 1334 cea2 ab33 829d 6d33
00000060: dc6b 6c34 0227 e734 fe91 d034 d4f3 4134
00000070: aa36 8933 f2c5 6c34 02d2 0334 3b3c b833
00000080: 1893 5c32 dce6 8233 cafa 6433 fb7a 9e32
00000090: 8002 c232 564c c233 3a6c ce32 4afa c432
000000a0: 20f3 0134 ba6f 0135 a8d8 6534 4fe2 d733
000000b0: 3e36 8134 ad72 2235 4ada c534 397b 5134
000000c0: 2fcb 1434 acb9 a334 545c 4634 af9f 0934
000000d0: a057 8c33 41f8 2c35 0143 0f34 61d9 5334
000000e0: 915e 6033 00ee 8e34 84d7 bd33 6628 c933
000000f0: 924d 2d33 1b9a 6834 d81d 4d33 dcd1 9932
00000100: 954d 6433 f7d5 cd34 cc40 c933 70e5 8f33
00000110: 39c9 1333 fd98 b634 08c3 0934 31e3 4a33
00000120: 00b9 b734 933f 7335 ecf3 3835 756e f734
00000130: 17fa 1b35 1d59 bf35 665c a535 1032 1135
00000140: dcb7 1d34 d41f 9534 c0a1 8f34 5ef7 2534
00000150: 2a25 2c32 6c87 0e33 8008 b232 d4c8 4d32
00000160: d9e9 bd33 61e9 9934 2192 3b34 2085 bb33
00000170: bdbb 2f33 41b9 b834 bb5d 8c33 f3d0 8033
00000180: 5ca9 3532 c111 d333 296d 1233 3673 9532
00000190: 6415 9333 12bc 6634 5f36 0034 87ae e432
000001a0: 33fe 5433 f846 b434 33a1 e933 19ad bf33
000001b0: 3351 7e33 ac37 1434 e39b c133 7156 8f33
000001c0: e66b 3a34 98fa 8c34 1b60 7a34 2980 4134
000001d0: d552 7d34 27e6 8735 9a80 3134 749b f234
000001e0: 1191 a433 316d 2b34 0cf6 c533 fc82 9833
000001f0: 241f c532 1161 2534 21fd ee32 5ae9 c233
00000200: 09a6 4d33 3e4c 9234 9222 aa33 0f98 9733
00000210: d7e2 4d34 3e9b 1635 b17f cc34 5f3c 4834
00000220: c204 0d34 da89 8c34 fc64 7234 f288 2f34
00000230: f50c 9933 e0bb d833 5f47 a833 d106 8233
00000240: 09ab 5f32 0180 9233 6ce6 2533 e007 9b32
00000250: 76c1 6234 d72d f434 2cfd d134 b3a7 5134
00000260: bc4e b833 b898 5134 a15b bc33 edd6 8e33
00000270: b94f 6b33 7061 5e34 19cb d133 564c d033
00000280: 7872 9132 56e1 2934 bbf2 8a33 5526 3c33
00000290: 8cfc 9132 777e d433 78ad b032 9357 3c33
000002a0: 50ba 0f33 5542 5534 96c4 9433 8cb7 5033
000002b0: 5eb6 8d32 8db2 b933 3318 1233 fcdc 3633
000002c0: 3dd3 0633 3980 ad34 f96d 4b33 06ff 4834
000002d0: c4d6 de33 1c8d 2e34 b5eb 6334 5c60 d933
000002e0: 809c 2f33 ea29 8534 3abf c333 4691 2034
000002f0: 69b4 7733 58ab c833 d6cc 2233 b453 3833
00000300: 9a66 a833 a794 c434 448e f333 f256 0834
00000310: c947 1134 3877 1735 bf20 5734 57c0 9034
00000320: 0fb4 f431 5dc0 8333 ba88 5d32 5eb5 8d32
00000330: 4bbd f332 3737 6c33 4ad1 fc32 9dd8 6e32
00000340: 4163 8633 c140 7c34 45a8 5034 41c5 9f33
00000350: de95 ba33 2657 a734 387d f533 58ff d333
00000360: 7eb5 f133 4cb6 3535 2781 2634 223b b534
00000370: 2251 1333 6209 8134 6ddc 7b33 5b93 a133
00000380: 5b92 2f34 6330 9134 5b81 e233 605b 0734
00000390: c8ff da32 203f 5134 325a 7d33 736f 3e33
000003a0: 13b7 0434 2721 5535 8176 8c34 9bbf 6134
000003b0: e581 1734 a43d 9135 4828 8234 b47c 9d34
000003c0: e788 5a33 e1c0 d034 5e4c 0334 3c07 b433
000003d0: f030 b633 26e8 7234 9b90 0c34 68c7 9c33
000003e0: 2f0a d032 4f29 8034 e1c9 3233 d8ef dc33
000003f0: 76bc 1134 49b6 1435 d30b 8734 5c66 4534
1.1126929e-07 1.821049e-07 1.8056704e-07 1.0490301e-07 2.6249515e-07 7.605156e-07 6.0933183e-07 2.2942724e-07
1.254629e-07 5.0476166e-07 1.118841e-07 2.4417128e-07 2.2464205e-08 6.729916e-08 1.0163427e-08 2.9042845e-08
3.812609e-08 7.02695e-08 3.249636e-08 2.7578505e-08 6.447674e-08 1.3722033e-07 7.992422e-08 5.5324115e-08
2.2018452e-07 4.3055485e-07 3.8849242e-07 1.806323e-07 6.389503e-08 2.2051225e-07 1.2276726e-07 8.5791235e-08
1.2839131e-08 6.09559e-08 5.3313478e-08 1.8449546e-08 2.258571e-08 9.0477144e-08 2.4030772e-08 2.2931221e-08
1.210251e-07 4.821883e-07 2.1406106e-07 1.0052883e-07 2.406759e-07 6.051658e-07 3.6852936e-07 1.950947e-07
1.3857492e-07 3.049621e-07 1.8473776e-07 1.2817212e-07 6.535197e-08 6.443625e-07 1.3342289e-07 1.9729988e-07
5.2240072e-08 2.662273e-07 8.8402004e-08 9.36714e-08 4.035025e-08 2.1662747e-07 4.7757425e-08 1.7906977e-08
5.3155947e-08 3.8339905e-07 9.3715784e-08 6.700691e-08 3.4409116e-08 3.4011455e-07 1.2830071e-07 4.723842e-08
3.4221011e-07 9.0617067e-07 6.8900295e-07 4.6087703e-07 5.810593e-07 1.4256544e-06 1.232035e-06 5.408956e-07
1.4688652e-07 2.777657e-07 2.6753514e-07 1.5456814e-07 1.0020168e-08 3.3185117e-08 2.0725793e-08 1.19782335e-08
8.843535e-08 2.8668276e-07 1.7468894e-07 8.7320814e-08 4.091611e-08 3.440746e-07 6.5363075e-08 5.998472e-08
1.05740945e-08 9.8286826e-08 3.4092555e-08 1.7398275e-08 6.849112e-08 2.1488839e-07 1.1940709e-07 2.662206e-08
4.959129e-08 3.357925e-07 1.087923e-07 8.925617e-08 5.9212834e-08 1.3803827e-07 9.0156185e-08 6.67468e-08
1.7361853e-07 2.6259363e-07 2.3318027e-07 1.802115e-07 2.3592595e-07 1.0125267e-06 1.6531195e-07 4.518912e-07
7.6632325e-08 1.596534e-07 9.218283e-08 7.1018775e-08 2.294798e-08 1.5402135e-07 2.7821956e-08 9.0762754e-08
4.788129e-08 2.7250093e-07 7.92253e-08 7.059145e-08 1.9174637e-07 5.610526e-07 3.809087e-07 1.8648414e-07
1.3133379e-07 2.6177332e-07 2.2574744e-07 1.6347965e-07 7.1269746e-08 1.0092458e-07 7.836092e-08 6.0548366e-08
1.3019197e-08 6.8219386e-08 3.8626624e-08 1.8047956e-08 2.1118271e-07 4.5481895e-07 3.911349e-07 1.952565e-07
8.5824894e-08 1.95202e-07 8.7710994e-08 6.651485e-08 5.478771e-08 2.0710809e-07 9.769264e-08 9.69964e-08
1.6932276e-08 1.5821328e-07 6.470278e-08 4.3807024e-08 1.6995067e-08 9.895023e-08 2.0567981e-08 4.385181e-08
3.3464232e-08 1.9861302e-07 6.927546e-08 4.859571e-08 1.6497491e-08 8.647212e-08 3.4015283e-08 4.257616e-08
3.1391426e-08 3.2317055e-07 4.736464e-08 1.8719228e-07 1.0376746e-07 1.6256348e-07 2.1226772e-07 1.01223776e-07
4.08877e-08 2.4803677e-07 9.115179e-08 1.4954011e-07 5.767325e-08 9.344393e-08 3.790486e-08 4.2916966e-08
7.841773e-08 3.6616004e-07 1.1341447e-07 1.2697618e-07 1.3530293e-07 5.642537e-07 2.0035348e-07 2.6962036e-07
7.121805e-09 6.1351535e-08 1.2894981e-08 1.6497037e-08 2.8375004e-08 5.499825e-08 2.9431835e-08 1.39026755e-08
6.2579154e-08 2.3492886e-07 1.9432726e-07 7.439895e-08 8.6885606e-08 3.1169583e-07 1.1431479e-07 9.8719e-08
1.125545e-07 6.769303e-07 1.550694e-07 3.3756902e-07 3.4299894e-08 2.403495e-07 5.8640968e-08 7.5239505e-08
1.6351389e-07 2.704356e-07 1.0547475e-07 1.2606097e-07 2.5494856e-08 1.9487607e-07 5.8988185e-08 4.4339185e-08
1.236006e-07 7.9396926e-07 2.6163255e-07 2.1024464e-07 1.4110226e-07 1.0821282e-06 2.4243695e-07 2.9334262e-07
5.0881592e-08 3.8883357e-07 1.2228108e-07 8.383219e-08 8.483937e-08 2.2622461e-07 1.3091123e-07 7.300588e-08
2.4219018e-08 2.3871914e-07 4.1627462e-08 1.0288176e-07 1.3572739e-07 5.5399556e-07 2.5154313e-07 1.8384293e-07

exp_avg f4 [128]
00000000: b610 0838 5e83 30b8 b871 efb8 61da 3bb8
00000010: cf8d 11b9 c42c aeb6 bb04 73b8 af2b b7b6
00000020: 8196 f037 e3d0 adb7 8fb7 76b9 019c 2bb8
00000030: e4d4 77b8 3d38 4db8 9b44 b738 7b1e 92b7
00000040: 06ad 0e38 c608 c5b8 1f57 3b38 790a ea38
00000050: aac3 6cb8 a305 3c38 186a 3438 5a3a e438
00000060: 37e0 75b8 a35b 00b6 27d4 e0b8 9cfc 44b7
00000070: eacd f4b8 589c b9b7 78e9 54b7 0f68 4b38
00000080: b69c 7639 d427 c737 5b97 edb8 b008 25b9
00000090: 3135 4ab7 5571 8eb9 6aa8 a8b8 d0c8 cab8
000000a0: 95a7 a0b8 a7b1 6238 7f37 1db9 c86e 81b8
000000b0: 0653 58b9 3fb9 6138 817d bdb8 e02b 18b8
000000c0: be7f 2ab9 413c aab7 fc64 3eb7 8c53 3f38
000000d0: 6d3c 0db7 778c 4ab6 76c1 17b9 ce68 f538
000000e0: ad0f ea36 edd9 0338 e9f8 ec37 cbe6 87b9
000000f0: abfe c0b7 78a0 6635 66c0 cfb8 dd53 9238
00000100: 4b72 2639 36a2 5137 c1c1 4c38 9b3d 94b7
00000110: 3b41 5fb8 8bd1 16b9 226e 5238 3818 09b8
00000120: 8d86 edb8 1ee4 f636 6bc5 e0b7 5b71 07b9
00000130: 790d a7b8 f152 2139 dea5 46b8 a0be 83b6
00000140: 70c2 19b8 f3d2 ddb7 1c00 1e36 f01a b438
00000150: 627f 80b8 03e0 4839 0259 7638 3295 bb36
00000160: a28c beb8 19f7 8438 ac3a 4db7 c65e 2f37
00000170: 52ca 9f38 d8ae f638 3a62 8538 3220 2b39
00000180: 731d 1639 96bf 9c36 9937 4b38 cfb5 3e39
00000190: 0956 16b7 5505 94b5 1c55 15b8 7583 40b7
000001a0: 60fa 8537 9131 2ab8 d32a 75b9 9a90 a1b8
000001b0: a47b 1eb9 d6ea a9b7 597b f637 8009 b8b8
000001c0: ee32 c7b8 ad4b e1b7 3f03 ccb8 912c 87b7
000001d0: 6972 9838 483c 99b8 b525 e4b7 8a7f 0937
000001e0: cb9b 85b7 ea54 ad38 cf78 0237 7343 f238
000001f0: b8f2 2eb8 1026 beb7 2edc bc37 d105 1639
3.244049e-05 -4.2084015e-05 -0.0001141759 -4.4787655e-05 -0.00013881105 -5.1908155e-06 -5.794012e-05 -5.4589104e-06
2.8680313e-05 -2.0720478e-05 -0.00023528769 -4.0914867e-05 -5.908766e-05 -4.8928185e-05 8.738899e-05 -1.741875e-05
3.401658e-05 -9.395326e-05 4.4665412e-05 0.0001115994 -5.644901e-05 4.4827942e-05 4.301415e-05 0.00010882756
-5.862137e-05 -1.9126826e-06 -0.00010720669 -1.1741326e-05 -0.00011673181 -2.2126522e-05 -1.2690543e-05 4.8495884e-05
0.00023518768 2.3741195e-05 -0.00011329233 -0.00015738863 -1.2052523e-05 -0.0002716879 -8.042234e-05 -9.669515e-05
-7.660609e-05 5.404805e-05 -0.0001499336 -6.171834e-05 -0.00020630294 5.3816704e-05 -9.035599e-05 -3.6280486e-05
-0.00016260051 -2.0293637e-05 -1.1348395e-05 4.5615758e-05 -8.418324e-06 -3.0182107e-06 -0.00014472552 0.00011702032
6.9755683e-06 3.1435793e-05 2.82493e-05 -0.0002592116 -2.3006773e-05 8.591519e-07 -9.906366e-05 6.977443e-05
0.00015873571 1.2495138e-05 4.8817838e-05 -1.7671662e-05 -5.3228094e-05 -0.00014383176 5.017047e-05 -3.26859e-05
-0.00011326103 7.3579276e-06 -2.679481e-05 -0.00012916831 -7.96569e-05 0.00015385055 -4.7361355e-05 -3.926296e-06
-3.6659127e-05 -2.6443484e-05 2.3543898e-06 8.588086e-05 -6.1272425e-05 0.00019156937 5.8733865e-05 5.590403e-06
-9.086101e-05 6.340276e-05 -1.2232613e-05 1.0452879e-05 7.619396e-05 0.00011762761 6.36023e-05 0.00016319824
0.00014316085 4.671466e-06 4.845075e-05 0.00018187541 -8.960728e-06 -1.1028411e-06 -3.5603633e-05 -1.1474699e-05
1.5971425e-05 -4.057732e-05 -0.00023380974 -7.7040124e-05 -0.00015114114 -2.0255724e-05 2.9382923e-05 -8.775573e-05
-9.498546e-05 -2.685733e-05 -9.728083e-05 -1.6114007e-05 7.269235e-05 -7.306837e-05 -2.7197277e-05 8.195531e-06
-1.5927382e-05 8.265099e-05 7.776732e-06 0.000115520226 -4.1710882e-05 -2.266749e-05 2.2513876e-05 0.00014307282
