results/ppo/MoveToGoal/checkpoint.pt (torch, 441762 bytes, 42 tensors)

network_body._body_endoder.seq_layers.0.weight f4 [128, 4]
0	0xbf095e45	-0.5365947
1	0xbddd9601	-0.108196266
2	0xbf2fdc46	-0.68695486
3	0x3ef57661	0.47941878
4	0x3f610023	0.87890834
5	0xbc458e4f	-0.012057855
6	0xbdc88faa	-0.09793027
7	0xbe83116c	-0.2559923
8	0xbe9fbb46	-0.31197566
9	0xbcb5b596	-0.022181313
10	0xbd8fcd21	-0.07021547
11	0x3f478991	0.77944285
12	0xbf3e7cd9	-0.7440925
13	0xbf36e949	-0.71449715
14	0x3f1076bb	0.5643117
15	0xbd96c14e	-0.07361089
16	0x3e2f2043	0.1710215
17	0x3e226e1f	0.1586232
18	0xbd3d2e6f	-0.04618686
19	0xbe068511	-0.13136698
20	0xbd252b1e	-0.040324323
21	0xbe81c6f0	-0.2534709
22	0xbeaa3de6	-0.3325035
23	0xbf45886a	-0.77161276
24	0x3f00aa50	0.50259876
25	0x3ef35410	0.47525072
26	0xbd2d06d8	-0.042242855
27	0x3f28dabf	0.6595878
28	0xbf117189	-0.56813866
29	0xbe3b469a	-0.18288651
30	0xbe142072	-0.14465502
31	0x3e8c1caf	0.27365634
32	0x3ede8450	0.4346032
33	0xbee23fb8	-0.4418924
34	0x3f43ddd0	0.76510334
35	0x3f38bb79	0.7216106
36	0x3e253d0c	0.16136569
37	0xbe854ccb	-0.2603515
38	0x3edd0dbf	0.4317455
39	0x3bada19f	0.0052988078
40	0xbe321f6c	-0.17394799
41	0xbe0cac69	-0.13737644
42	0x3eaea0d5	0.3410708
43	0x3ebf3e1a	0.37352067
44	0x3edaf128	0.42762113
45	0xbe1f6183	-0.15564542
46	0xbe4ff82e	-0.20309517
47	0xbde9747a	-0.11399169
48	0x3e61f188	0.22064793
49	0x3f1b1fe4	0.60595536
50	0x3f391fa6	0.72313917
51	0xbef1fefb	-0.47264847
52	0x3d5694c4	0.052387968
53	0x3db0beaf	0.0863012
54	0x3f323d44	0.69624734
55	0xbf0abafe	-0.5419158
56	0x3cf4500a	0.029823322
57	0xbe10cc0c	-0.14140338
58	0xbab35333	-0.0013681412
59	0xbf2ecbf2	-0.68279946
60	0xbf0fbf7d	-0.5615156
61	0xbf075c0f	-0.52874845
62	0xbe0be8c5	-0.13663013
63	0x3ec57700	0.38567352
64	0x3d523c12	0.05132682
65	0x3d49e2f4	0.049288705
66	0x3e184260	0.1486907
67	0x3f426290	0.75931644
68	0xbe1a14ef	-0.15047048
69	0x3d8d5861	0.069016226
70	0x3d6f3675	0.058401544
71	0xbda3fc5c	-0.08007118
72	0x3e26d9a5	0.16293962
73	0x3e95e2eb	0.29274687
74	0xbe5234e7	-0.20527993
75	0xbefc834e	-0.49318928
76	0x3e4e903d	0.2017221
77	0x3f02c10d	0.5107582
78	0xbf413287	-0.75467724
79	0xbf3cfe89	-0.7382589
80	0xbf1d6940	-0.61488724
81	0x3f0448b8	0.5167346
82	0x3f21199d	0.6292971
83	0xbf1e2f02	-0.6179048
84	0xbec07b63	-0.37594137
85	0x3cf4d60f	0.029887227
86	0xbdba748a	-0.09104259
87	0xbe9208ca	-0.2852233
88	0xbc25d928	-0.010122575
89	0xbf028e36	-0.50998247
90	0xbe10a5af	-0.14125703
91	0xbf333376	-0.700004
92	0x3f84acec	1.0365272
93	0xbd866f51	-0.06564201
94	0x3f08d548	0.5345044
95	0x3de9e6a2	0.11420943
96	0x3e361f3e	0.17785355
97	0x3cb0395c	0.021511726
98	0xbf6250b6	-0.88404405
99	0xbed79a4e	-0.42109913
100	0xbde99baf	-0.114066474
101	0xbe324931	-0.17410733
102	0xbf21ba9b	-0.6317536
103	0x3f30f501	0.69123846
104	0x3ec12054	0.37719977
105	0xbe784424	-0.24244744
106	0x3ef420f4	0.4768139
107	0xbd995bd4	-0.07488218
108	0x3e6eead5	0.23331769
109	0xbcc44b45	-0.023961673
110	0x3f3df82b	0.742068
111	0x3ebeeee6	0.3729164
112	0xbec0d8a4	-0.37665284
113	0x3f04d092	0.51880753
114	0x3eef28b3	0.4671074
115	0xbdcc1f8d	-0.09966955
116	0xbee4a5b2	-0.44657665
117	0x3d324af4	0.043528512
118	0x3ef8d506	0.48600024
119	0x3f77d1db	0.9680459
120	0x3d1d7b29	0.038447533
121	0xbdfe4335	-0.124151625
122	0xbf90dc03	-1.1317142
123	0x3f66ca65	0.9015258
124	0x3c817875	0.015804509
125	0x3f0511e4	0.51980424
126	0x3f1c09ea	0.6095263
127	0xbea6a991	-0.32551244
128	0xbe7bd36e	-0.24592373
129	0x3e866642	0.26249892
130	0xbeabbc73	-0.33542213
131	0xbf086ff6	-0.5329584
132	0x3d8c0e75	0.06838695
133	0xbeb051d0	-0.34437418
134	0xbf1baf4f	-0.60814375
135	0xbef8e25d	-0.486102
136	0xbefee11a	-0.49781114
137	0xbe7f7ae9	-0.2494923
138	0xbea64caa	-0.32480365
139	0x3e83fa04	0.25776684
140	0x3d5fa0d6	0.054596744
141	0x3f12fcaa	0.57416785
142	0xbdf916af	-0.1216253
143	0x3e88d8cb	0.267279
144	0xbe2d0ae4	-0.16898686
145	0xbf1133f9	-0.5671993
146	0x3e37da9e	0.1795449
147	0xbf6c2c01	-0.92254645
148	0xbe2a6265	-0.16639097
149	0x3e15ebd8	0.14640749
150	0x3e3d6eee	0.18499348
151	0x3efb3c44	0.49069417
152	0x3eecdaa2	0.46260554
153	0x3d682801	0.056678776
154	0x3ec665ad	0.38749447
155	0x3e80b9e6	0.2514183
156	0x3d01511b	0.03157149
157	0x3ed4af35	0.41539922
158	0xbe530371	-0.20606782
159	0xbf5bd8f3	-0.85877913
160	0x3df04885	0.11732582
161	0x3df3029e	0.118657336
162	0xbee3c99a	-0.44489747
163	0xbe5ef8e4	-0.21774632
164	0x3de607c9	0.11231954
165	0x3e9069f0	0.28205824
166	0x3dea6104	0.114442855
167	0xbe42cfe6	-0.1902462
168	0x3e1a249c	0.15053028
169	0x3e14684b	0.1449291
170	0x3d091e02	0.033475883
171	0xbeb3c400	-0.35110474
172	0x3f1d6b99	0.61492306
173	0x3f140c09	0.57830864
174	0xbe04181f	-0.12899826
175	0xbe7a842a	-0.24464479
176	0x3da09f01	0.078428276
177	0xbef9e522	-0.48807627
178	0x3f6b7e4b	0.9198958
179	0x3e44d9fc	0.1922378
180	0x3ea45c85	0.32101837
181	0x3ba638ef	0.005072705
182	0x3f0d2cd2	0.55146515
183	0xbdb6f3f6	-0.089332506
184	0xbd4eff54	-0.05053647
185	0x3e441624	0.19149071
186	0x3ef7ebcf	0.48422095
187	0xbf7bd20b	-0.98367375
188	0x3ee9b647	0.4564688
189	0xbed84129	-0.42237213
190	0x3e021b1d	0.12705655
191	0xbf5a8378	-0.85356855
192	0x3de25009	0.11050422
193	0x3ef76891	0.48321965
194	0x3ec41af7	0.38301823
195	0xbdab674c	-0.08369312
196	0x3bdccd38	0.006738331
197	0x3ec05240	0.37562752
198	0xbdbaaad9	-0.09114618
199	0x3e4de5eb	0.20107238
200	0x3f2442f6	0.64164674
201	0x3f3c49fa	0.7355038
202	0x3c2f2d88	0.010692008
203	0x3e966eae	0.29381317
204	0x3ed83843	0.42230424
205	0xbf1e178e	-0.6175469
206	0x3ed0aecc	0.4075836
207	0xbf450463	-0.7695982
208	0x3f5000c6	0.8125118
209	0x3f17424b	0.5908553
210	0x3ed9ad8e	0.42515224
211	0xbe273ee8	-0.1633259
212	0x3f24e7e0	0.64416313
213	0x3f8df513	1.1090416
214	0x3f15bd10	0.5849161
215	0xbea52d2a	-0.3226102
216	0x3e6dc0e6	0.23218116
217	0x3dc5a72d	0.09651027
218	0xbf202547	-0.6255688
219	0xbf1253e5	-0.5715926
220	0x3cb91b9c	0.022596173
221	0xbdf97a8f	-0.12181579
222	0x3e8387d4	0.25689566
223	0x3f0044c7	0.50104946
224	0x3f1277c7	0.57214016
225	0x3f911b78	1.1336508
226	0xbdbcaf45	-0.092131175
227	0xbe2350f0	-0.15948844
228	0xbf48d1a9	-0.78444916
229	0xbf0fc2fd	-0.56156904
230	0x3e07d2bd	0.13263984
231	0xbf1f579d	-0.6224306
232	0xbca77b45	-0.020444522
233	0x3e11e955	0.14249165
234	0x3eb35628	0.3502667
235	0x3e441d21	0.19151737
236	0xbf0886fa	-0.5333096
237	0x3fb30c9a	1.3988221
238	0xbd9b5538	-0.075846136
239	0x3d8c8db6	0.06862967
240	0xbd62af82	-0.05534316
241	0xbe80eff8	-0.25183082
242	0xbd9ebc6a	-0.07750781
243	0x3d81f59a	0.06345673
244	0x3e24a630	0.1607902
245	0x3d3abb57	0.045588817
246	0xbe775e8c	-0.2415716
247	0x3f4fa820	0.81115913
248	0x3db6b9f8	0.089221895
249	0x3f7a749c	0.9783418
250	0x3cc08e48	0.023505345
251	0xbb218bdb	-0.002465001
252	0x3dd0966b	0.1018494
253	0xbf6625cf	-0.8990144
254	0x3ef2f989	0.47456005
255	0x3f2e7be0	0.6815777

network_body._body_endoder.seq_layers.0.bias f4 [128]
0	0xbbb4738b	-0.005506938
1	0xbb4dcef5	-0.0031403874
2	0x3bbed6fe	0.005823969
3	0x3b798d6f	0.0038078686
4	0x3bd85253	0.0066016107
5	0x3b249464	0.0025112862
6	0xbb71eb28	-0.0036913846
7	0xba5b6917	-0.00083698466
8	0x3ac3fe69	0.001495314
9	0xbb4dbd15	-0.003139322
10	0xbb59371a	-0.0033144415
11	0xbb03a729	-0.002008865
12	0x3b043c83	0.002017767
13	0x3bc39638	0.005968835
14	0xbbe94efa	-0.0071200104
15	0x3bb61dbd	0.0055577443
16	0x3c3f6300	0.011681318
17	0xbbc6a8a4	-0.006062584
18	0xbc2984a3	-0.010346564
19	0x3ba2705a	0.004957241
20	0xbb656f86	-0.00350091
21	0x3b988407	0.0046544108
22	0x3b21da95	0.0024696935
23	0x3aeb2e6d	0.0017942913
24	0xbc3365bd	-0.010949549
25	0x3bbb2568	0.0057112463
26	0x3a9e927a	0.0012098097
27	0xbc2f6094	-0.010704178
28	0x3b888194	0.0041658375
29	0xbb6558b9	-0.003499551
30	0xbbadb12c	-0.0053006615
31	0xbb8d1a8b	-0.0043061427
32	0xbc06bc1e	-0.008223562
33	0xb90f48c1	-0.00013664646
34	0xbad80c96	-0.0016483243
35	0x3b8e2482	0.004337848
36	0xbaf766eb	-0.0018875276
37	0xbb9e4bd5	-0.004830817
38	0x3bd5c65a	0.0065238895
39	0xba4178a0	-0.000738034
40	0x3c00fe7c	0.007873174
41	0xbbc0310f	-0.0058652232
42	0xbb938bed	-0.0045027644
43	0x3c6255eb	0.01381443
44	0xbbed8342	-0.007248313
45	0xbc214aa4	-0.009844456
46	0xbc1899ca	-0.00931401
47	0x3a4d148d	0.00078231917
48	0x3c123d3e	0.008925734
49	0xbba66746	-0.005078229
50	0x3c09064c	0.008363318
51	0xbb4daa33	-0.0031381964
52	0x3c31396a	0.010816911
53	0x3c1a6597	0.009423635
54	0xbc5d56e8	-0.01350949
55	0xbc2d10a9	-0.010563054
56	0x3ad1da9f	0.0016010589
57	0xbc002d33	-0.007823276
58	0xba9ab9ad	-0.0011804603
59	0xbbfb20ca	-0.007663821
60	0x3bbb247a	0.0057111355
61	0x3c85a18f	0.016312389
62	0x3ba54e99	0.00504477
63	0xbbb0ef13	-0.0053995936
64	0x3a2bc240	0.0006552078
65	0x3b686945	0.0035463136
66	0xbc2fc15f	-0.010727256
67	0x3bb1c707	0.0054253372
68	0xbbcb2c21	-0.006200329
69	0xbb24f4c0	-0.0025170296
70	0xb88b7b6b	-6.651025e-05
71	0x3bdd4f6b	0.006753852
72	0xbb17d62e	-0.0023168433
73	0xbb853af3	-0.004065865
74	0x3bcb2861	0.006199882
75	0xbbfca25a	-0.0077097835
76	0x3aa4ffb2	0.001258841
77	0xbc96b0e2	-0.018394891
78	0xbbb4ec55	-0.005521337
79	0x3c0bdd1a	0.008536601
80	0xbc1e9a14	-0.00968029
81	0xbbdbe6ec	-0.0067108776
82	0xbbd74f9c	-0.0065707695
83	0x3ba145f8	0.004921671
84	0x3bf649dc	0.007516129
85	0x3a88e56e	0.0010444352
86	0xbc15c6f1	-0.00914167
87	0xbb6a55c9	-0.0035756698
88	0x3b3cf975	0.0028835211
89	0xbbb37700	-0.0054768324
90	0x3bd19f45	0.0063971602
91	0x3bcb096f	0.006196193
92	0x3b25c004	0.0025291452
93	0xbbb6d85d	-0.0055799917
94	0x3b4ad68a	0.003095063
95	0x3c071b36	0.008246234
96	0x3bbb9061	0.0057239984
97	0xb890d487	-6.9060414e-05
98	0x3a9252b0	0.0011163559
99	0x3b720c0b	0.0036933448
100	0x3b50f62b	0.0031885009
101	0x3b3ac16f	0.0028496643
102	0xbb615bb1	-0.0034386928
103	0xbbf3264c	-0.007420337
104	0xbae3f896	-0.001739281
105	0xbc27cae6	-0.010241246
106	0x3bffa44f	0.0078015695
107	0xbb8e5a8b	-0.0043442897
108	0xbb9fec0e	-0.004880435
109	0xbbfc3aaa	-0.007697423
110	0x39e7b53f	0.00044194792
111	0xbb4341de	-0.0029793899
112	0xbb8dc24d	-0.004326141
113	0x3b594ca7	0.003315726
114	0x3b8cc0b1	0.0042954315
115	0x3b9973b5	0.004682983
116	0xbbf870ce	-0.0075818067
117	0xbc12d743	-0.008962455
118	0x3a993a87	0.0011690416
119	0xbbddba7d	-0.006766616
120	0x399d3c28	0.00029990193
121	0x3b9210a1	0.0044575487
122	0xbc341a24	-0.010992561
123	0x3bb522b1	0.005527817
124	0xbbb2d398	-0.005457353
125	0xbc3ffc55	-0.0117178755
126	0x3b36d9f9	0.0027900918
127	0x3ba6338d	0.0050720633

network_body._body_endoder.seq_layers.2.weight f4 [128, 128]
0	0xbe1b7d22	-0.15184453
1	0xbdce3c8f	-0.100701444
2	0x3e1528ad	0.14566298
3	0x3cdef90a	0.02721836
4	0xbba7e35a	-0.005123538
5	0x3d170404	0.036869064
6	0xbdac592b	-0.08415445
7	0xbd884dc4	-0.066554576
8	0xbdb14579	-0.08655829
9	0xbd9aad6c	-0.07552609
10	0xbe16bc43	-0.14720254
11	0xbd552424	-0.05203642
12	0xbdd31a9c	-0.1030781
13	0x3dde8929	0.10866005
14	0x3d9ec56f	0.07752501
15	0x3e2ae54f	0.16689037
16	0x3e0902e0	0.13380003
17	0x3c9d50da	0.019203592
18	0xbd4bf625	-0.04979529
19	0xbd3d439c	-0.046207055
20	0x3dba2ebb	0.090909444
21	0xbc9c4db3	-0.019080019
22	0xbdddcbee	-0.10829912
23	0x3d0c40b3	0.03424139
24	0x3dc09762	0.09403874
25	0xbc937afa	-0.018002976
26	0x3c29f736	0.010373881
27	0x3db1a0cb	0.08673247
28	0x3b0e5678	0.002171902
29	0x3d977e9d	0.073971964
30	0x3d823993	0.06358638
31	0x3daa3b99	0.083121486
32	0x3bbaa418	0.005695831
33	0x3d59b95e	0.053155296
34	0x3e4c59b0	0.19956088
35	0xbdca0f91	-0.0986625
36	0xbdff4974	-0.12465182
37	0xbd91c49b	-0.07117578
38	0x3e0e5b2e	0.1390197
39	0xbdc7023a	-0.097172216
40	0xbde987a7	-0.11402827
41	0xbb8eb66e	-0.0043552434
42	0x3bb57eb0	0.005538784
43	0x3c9f8bc8	0.019475833
44	0x3a669eb8	0.00087974546
45	0x3e163454	0.14668399
46	0x3cc6fdb0	0.02429089
47	0x3cd93fb8	0.026519641
48	0x3d00469a	0.03131733
49	0xbdb2fe8d	-0.08739958
50	0x3d7d1dc6	0.061795972
51	0xbcc872a1	-0.024468722
52	0x3dcd1ace	0.10014878
53	0xbdf7131f	-0.12064194
54	0x3d59210d	0.053010035
55	0xbd87fe04	-0.066402465
56	0x3cb963bc	0.022630565
57	0x3cf09dc4	0.029372104
58	0x3e2e1dc0	0.17003536
59	0xbddcedfd	-0.1078758
60	0x3e028da9	0.12749352
61	0xbc8d5e86	-0.017256986
62	0x3d15a4b5	0.03653403
63	0xbc179883	-0.00925267
64	0xbd9639f0	-0.073352695
65	0xbd709425	-0.05873503
66	0xbd7a0ca0	-0.061047196
67	0x3e0d230c	0.137829
68	0xbd2a930d	-0.041644145
69	0xbe71e244	-0.2362147
70	0x3d89573c	0.06706092
71	0x3deb5fd6	0.11492889
72	0xbe15bfcb	-0.14623944
73	0xbbce5e7a	-0.0062978836
74	0xbd894233	-0.067020796
75	0xbe448c77	-0.19194208
76	0xbce2fc38	-0.027708158
77	0x3d1ecef8	0.0387716
78	0xbce2d782	-0.027690653
79	0xba0bd769	-0.0005334528
80	0x3ddfdffd	0.10931394
81	0x3d89f917	0.06736963
82	0xbc18063c	-0.00927883
83	0xbc924ffc	-0.017860405
84	0x3ddfe3ed	0.10932145
85	0xbc719118	-0.014744066
86	0x3dc551ec	0.09634766
87	0xbddb070b	-0.10694703
88	0xbd0ea839	-0.0348284
89	0x39b74f4a	0.00034963555
90	0x3d2893c3	0.04115654
91	0x3ba118a6	0.0049162684
92	0xbd5cb66f	-0.05388492
93	0xbd18c6bb	-0.0372989
94	0xbcaf2f6b	-0.021384915
95	0x3ca7dfcd	0.020492459
96	0xbcb576c7	-0.022151364
97	0xbdc5b277	-0.0965318
98	0xbbcb0c75	-0.0061965534
99	0x3d01a86b	0.031654757
100	0x3e26348b	0.16230981
101	0x3d88b77d	0.066756226
102	0x3cc32295	0.023820201
103	0xbd4e7b5a	-0.050410606
104	0x3d4f51c6	0.050615095
105	0x3e655d25	0.22398813
106	0xbe0056d8	-0.12533128
107	0xbdb5a2ff	-0.0886898
108	0xbc655d6b	-0.013999323
109	0xbd891578	-0.06693548
110	0x3d2269fa	0.03965185
111	0x3d501e93	0.050810408
112	0xbc134241	-0.008987964
113	0x3da0fdde	0.07860921
114	0xbd93f30c	-0.07224092
115	0xbd924681	-0.07142354
116	0x3d28d939	0.041222785
117	0xbe2849b2	-0.16434363
118	0x3ddccc77	0.10781186
119	0xbdc9bcbd	-0.09850452
120	0xbaff32ca	-0.0019470092
121	0xbc3b2638	-0.011422686
122	0xbd11020d	-0.035402346
123	0x3d25d1be	0.04048323
124	0x3e0cfe38	0.13768852
125	0xbde490be	-0.1116042
126	0x3c1b6155	0.009483655
127	0xbdb91815	-0.090377964
128	0xbd7038f1	-0.058648054
129	0xbda671ae	-0.081271514
130	0x3d590c04	0.052989975
131	0x3dac59b1	0.08415545
132	0xbce4d3b1	-0.027932974
133	0x3dee0b3c	0.116232365
134	0x3e3e4a20	0.18582964
135	0x3e2e0e22	0.16997579
136	0xb91ce023	-0.00014960817
137	0xbd2ba67c	-0.04190682
138	0xbd60cf44	-0.054885164
139	0xbb196aa4	-0.002340951
140	0xbdb8986e	-0.09013449
141	0x3e20ba3e	0.15696046
142	0x3cdba128	0.026810244
143	0xbdffc14a	-0.12488039
144	0x3d8a441b	0.06751271
145	0x3d7e0b81	0.06202269
146	0xbe16acdf	-0.14714383
147	0x3e6b767a	0.22994414
148	0x3ca0a748	0.019611016
149	0xbb920e86	-0.0044572977
150	0xbd91eeb6	-0.071256086
151	0x3d439bf1	0.04775614
152	0xbe11ecdf	-0.14250515
153	0x3cccfe94	0.025023736
154	0xbdb60c53	-0.088890694
155	0xbd93d534	-0.072184
156	0xbe08c795	-0.13357385
157	0xba70b46b	-0.0009182158
158	0x3d1d41ec	0.038392946
159	0x3e46bdb1	0.19408299
160	0xbd874568	-0.06605035
161	0x3e087e57	0.13329445
162	0x3c7ad949	0.015310594
163	0xbdcff412	-0.101539746
164	0xba2e58b0	-0.0006650789
165	0x3e5974e4	0.21235996
166	0x3d1ea9c1	0.03873611
167	0x3d4493a9	0.047992382
168	0xbe273deb	-0.16332214
169	0x3e4ebf7b	0.20190232
170	0xbd61aa82	-0.05509425
171	0xbdef61b0	-0.11688554
172	0x3d9a2ea0	0.07528424
173	0x3c59b4ba	0.0132877175
174	0x3dbc8e63	0.092068456
175	0xbd3a45fd	-0.045476902
176	0xbc5d902e	-0.013523145
177	0xbc17d292	-0.0092665125
178	0xbb92f875	-0.004485185
179	0x3e16bfaa	0.14721552
180	0x3dbb6de6	0.09151821
181	0x3e8331ae	0.2562384
182	0x3d686068	0.056732565
183	0xbc1246e4	-0.008928034
184	0xbd74f872	-0.05980725
185	0x3bd2a870	0.0064287707
186	0xbc9367d7	-0.01799385
187	0x3d03a155	0.03213628
188	0x3e076d89	0.13225378
189	0xbd19f4b6	-0.03758689
190	0xbde09fba	-0.109679654
191	0x3d67f688	0.056631595
192	0x3dab6d0f	0.08370411
193	0xbdac4dbc	-0.08413264
194	0xbd5e3c04	-0.054256454
195	0x3e0a1a7b	0.13486664
196	0xbcf0f2df	-0.029412685
197	0x3db06648	0.086132586
198	0x3db3aaa7	0.08772784
199	0x3d03c252	0.03216774
200	0xbdaec6b9	-0.08533997
201	0x3e03f7c7	0.12887488
202	0x3e3e4202	0.18579867
203	0x3dcf995c	0.10136673
204	0xbc86b8b4	-0.016445495
205	0x3cb3a7f0	0.021930665
206	0xbd347b91	-0.044063155
207	0xbdc30ef9	-0.0952434
208	0x3d1d1d50	0.038358033
209	0xbba30cee	-0.0049759066
210	0xbd9439f5	-0.07237617
211	0x3bba4684	0.0056846756
212	0x3d0c745a	0.03429065
213	0x3da9801d	0.08276389
214	0x3e369c86	0.17833146
215	0x3d981fb4	0.07427922
216	0x3e0fde2c	0.14049596
217	0xbc045027	-0.00807575
218	0xbd36fcf0	-0.044674814
219	0xbb175f98	-0.002309775
220	0xbc703a01	-0.014662267
221	0x3d987e6f	0.0744599
222	0xbc4134b4	-0.011792351
223	0x3d44764f	0.04796439
224	0xbe1d2093	-0.15344457
225	0xbd84cc96	-0.06484334
226	0xbcca2317	-0.024674935
227	0xbd8e3137	-0.06942981
228	0xbe3eefce	-0.18646166
229	0xbdaa61c2	-0.08319427
230	0xbde0a50d	-0.10968981
231	0xbd9d3a9e	-0.07677196
232	0xbd003c86	-0.03130772
233	0xbd50d514	-0.050984457
234	0x3c0dfe75	0.008666624
235	0x3aff45d8	0.0019475771
236	0x3df7a427	0.120918564
237	0xbc81b814	-0.015834846
238	0x3db692d4	0.08914724
239	0x3d072d40	0.03300214
240	0xbdd18183	-0.102297805
241	0xbdf29f49	-0.118467875
242	0x3bdd59b7	0.0067550796
243	0xbccb03f0	-0.024782151
244	0x3d4f67e2	0.05063618
245	0x3e21a18a	0.15784279
246	0x3df73db5	0.120723166
247	0x3c9b3ae9	0.018948989
248	0x3d53ad9d	0.051679242
249	0xbe0e5413	-0.1389926
250	0xbce1e0e5	-0.027573058
251	0xbe2458ef	-0.1604955
252	0xbcf15277	-0.029458268
253	0x3d4e957a	0.05043552
254	0xbb9390db	-0.004503352
255	0x3af2f69f	0.0018536634

network_body._body_endoder.seq_layers.2.bias f4 [128]
0	0x3ba97ba6	0.0051722107
1	0xbb80429f	-0.003914192
2	0x3c1787c9	0.009248682
3	0x3c5f6b0a	0.01363636
4	0xbbfb5278	-0.007669743
5	0xbc404b6a	-0.01173673
6	0x3b371fe5	0.0027942595
7	0x3bbe8422	0.0058140913
8	0xbb861af3	-0.004092568
9	0xbb6defce	-0.0036306265
10	0xbbc201f3	-0.0059206425
11	0xbc692b75	-0.014231552
12	0x3bc67dbe	0.00605747
13	0x3b4a707f	0.0030889807
14	0xbb4405f2	-0.002991077
15	0xbc019320	-0.0079086125
16	0xbbe71746	-0.007052335
17	0x3bb1c80b	0.0054254583
18	0xbadd0078	-0.0016861102
19	0xbc1c6a90	-0.009546891
20	0x3c4163c6	0.011803573
21	0x3c73fe75	0.01489221
22	0xbb7abbbc	-0.003825887
23	0x3b6aaae4	0.0035807425
24	0x3bcff266	0.006346035
25	0x3bfe0c98	0.007752966
26	0x3a68906b	0.00088716176
27	0xbabcb375	-0.0014396744
28	0xbb805a36	-0.003917004
29	0x3b137879	0.0022502227
30	0x3bec856b	0.007218053
31	0x3bbc1add	0.005740507
32	0x3abc634b	0.0014372853
33	0xbb3fdbcf	-0.0029275303
34	0xbc1061b1	-0.008812354
35	0xbb289209	-0.002572181
36	0xba8784e9	-0.0010339293
37	0xbb282460	-0.0025656447
38	0xbc154ba6	-0.009112274
39	0x3b4d900b	0.0031366374
40	0x3beac58b	0.0071646622
41	0x3bc6389e	0.0060492298
42	0x3b9229dc	0.0044605564
43	0xbc1b1096	-0.009464404
44	0x3bdd3791	0.006751009
45	0x3ba5890f	0.005051739
46	0x3acf6997	0.0015824315
47	0x3c04f2cc	0.008114528
48	0x3bb74a05	0.0055935406
49	0xbbcc36d2	-0.006232121
50	0xbc466e44	-0.01211125
51	0x3ac80a9a	0.0015261949
52	0x3b53ceeb	0.0032319378
53	0x3beb09ab	0.0071727834
54	0x3bb17f70	0.005416803
55	0x3bbd09ae	0.005768976
56	0xbc0aaeee	-0.008464558
57	0xba33cb5a	-0.000685861
58	0x3b5b772b	0.0033487778
59	0xbb94b23b	-0.0045378483
60	0x3c071baf	0.008246346
61	0xb8f19c6e	-0.00011520913
62	0xba4de3c8	-0.00078540714
63	0xbb90afbd	-0.004415481
64	0x3c6983ba	0.0142525975
65	0x3c431653	0.011907178
66	0xbb9b41c3	-0.004738064
67	0xbbc8e65c	-0.0061309766
68	0xbb22caed	-0.0024840191
69	0xbc0a40b1	-0.008438275
70	0x3bb28eab	0.0054491363
71	0x3c1e15cb	0.009648751
72	0x3ac0d4ae	0.0014711821
73	0x3be273c9	0.0069107753
74	0xbc073512	-0.008252399
75	0xbad24556	-0.0016042392
76	0xbbb2e096	-0.0054589016
77	0xbbaa4d12	-0.005197176
78	0x3b9e0576	0.0048224283
79	0x3ba2cee2	0.00496851
80	0xbbadb276	-0.005300815
81	0xbbecc1fc	-0.007225273
82	0x3c826c88	0.015920892
83	0xbbf3bf1b	-0.007438553
84	0x3beef403	0.007292272
85	0xbc0f06ab	-0.008729617
86	0x3a8366e9	0.0010025176
87	0xb996f274	-0.0002879087
88	0xbc0429d6	-0.008066615
89	0xbc478766	-0.012178278
90	0x3c375147	0.011188812
91	0x3b35d81c	0.002774722
92	0x3bcd34d9	0.0062624034
93	0xb9fe7e7e	-0.000485409
94	0xbc57e24e	-0.013176514
95	0xbc2739e5	-0.010206674
96	0xbb4c7ef8	-0.003120361
97	0x3bcd09a1	0.0062572514
98	0x3c6604f1	0.014039264
99	0xbbe1d885	-0.006892266
100	0x3bc0e7ba	0.005886999
101	0x3c385df1	0.011252866
102	0xba3b5fc8	-0.00071477564
103	0xbc247831	-0.0100384215
104	0xbbfc8ec0	-0.007707447
105	0xbb926d6e	-0.0044686114
106	0xbb84a796	-0.004048298
107	0x3b8a094d	0.0042125345
108	0xbbf51544	-0.0074793417
109	0xbc0054b2	-0.007832693
110	0xbbcd813a	-0.0062715085
111	0xbb88554c	-0.004160559
112	0xb85a671f	-5.207129e-05
113	0x3c2b42a6	0.010452902
114	0x3bc1e075	0.00591665
115	0x3b898422	0.0041966597
116	0xbc06a4b2	-0.008217977
117	0x3bf9b2c6	0.0076201884
118	0x3b720a59	0.0036932437
119	0xbbcf1260	-0.006319329
120	0xbbc89270	-0.0061209723
121	0xbbf01f43	-0.0073279454
122	0x3be58ce5	0.0070053213
123	0xbc043a39	-0.008070522
124	0x3c36b60e	0.011151804
125	0xbc02625a	-0.007958019
126	0xbbcedfd6	-0.0063133044
127	0x3c5b3e86	0.013381606

action_model._continuous_distribution.log_sigma f4 [1, 2]
0	0x3adebfda	0.0016994432
1	0x3b8431e0	0.004034266

action_model._continuous_distribution.mu.weight f4 [2, 128]
0	0xbcc17e7a	-0.023619879
1	0x3a51a743	0.0007997641
2	0xbbe33c61	-0.006934688
3	0xbbfda1ff	-0.0077402587
4	0x3c9596cc	0.018260382
5	0x3c4979f8	0.012297146
6	0x3b39c2b6	0.0028344817
7	0xbc20d4d1	-0.009816364
8	0xbac744eb	-0.0015203034
9	0x3c61f408	0.013791092
10	0x3c07ee99	0.008296632
11	0x3cf3abb3	0.029744959
12	0xbc3e78d5	-0.011625488
13	0x3a1b4319	0.0005922779
14	0x3c6439e4	0.013929818
15	0x3c6c8719	0.014436507
16	0x3c67583f	0.014120161
17	0xbbe73533	-0.0070559024
18	0xbaf4d5dc	-0.0018679458
19	0x3d138852	0.036018677
20	0xbcae4ea3	-0.021277731
21	0xbb8f9d81	-0.0043827896
22	0xbb98e5da	-0.0046660723
23	0x3a28d746	0.00064407696
24	0xbc8a9edf	-0.016921459
25	0xbc714e2a	-0.014728108
26	0x3a54f764	0.0008124022
27	0x3c6e3c94	0.01454081
28	0x3bf51661	0.0074794744
29	0xbc1bab25	-0.009501253
30	0xbc01ae71	-0.007915125
31	0xbc3ef7e2	-0.01165578
32	0x3c00f21c	0.007870223
33	0x3c8612d5	0.016366402
34	0x3ccdd52b	0.02512606
35	0x3d244777	0.040107217
36	0x3ca634bd	0.02028882
37	0x3bb23839	0.005438831
38	0x3c94290c	0.018085979
39	0xbcd01548	-0.025400773
40	0xbc2b3404	-0.010449413
41	0xbd59c8cc	-0.05317001
42	0x3be1d560	0.0068918914
43	0x3bc9bedf	0.006156787
44	0xbc25fbe4	-0.010130856
45	0xbc892bd6	-0.016744535
46	0x3981c365	0.00024750378
47	0x3be857ad	0.00709053
48	0xbcb29a14	-0.021801986
49	0x39f9e1bd	0.0004766117
50	0x3b95d626	0.0045726476
51	0x3c8adef7	0.016952021
52	0x3b19b3d2	0.0023453129
53	0x3b7e5287	0.0038806514
54	0x3a533d69	0.0008058162
55	0xbbe19fb0	-0.0068854913
56	0x3c851b36	0.016248327
57	0xbbe6b8d3	-0.0070410757
58	0xbbdc5ddf	-0.0067250575
59	0x3d342917	0.0439845
60	0xbbe92023	-0.0071144267
61	0xbab1f585	-0.0013577199
62	0x3c74f580	0.01495111
63	0x3b3d0216	0.0028840355
64	0xbd0f8e44	-0.035047784
65	0xbc6f1b7e	-0.014593957
66	0x3cb1079a	0.02161007
67	0x3c2364bb	0.0099727465
68	0xbc5a9f17	-0.013343594
69	0x3cce1d3d	0.025160426
70	0xbc183ff4	-0.009292591
71	0xbbeea6f2	-0.007283085
72	0x3bd2c406	0.006432059
73	0xbbc15c96	-0.0059009297
74	0x3c55d6ff	0.013051747
75	0x3cb4b662	0.022059623
76	0x3d1d12ca	0.038347997
77	0x3c364726	0.011125362
78	0x3a8a72d2	0.0010562784
79	0xbb9703b1	-0.0046085943
80	0x3b4e3a33	0.0031467795
81	0x3d0b9e2e	0.0340864
82	0xbc0a675a	-0.0084474925
83	0x3c93fc2c	0.01806458
84	0xbb13e6c8	-0.0022567976
85	0x3c971313	0.018441712
86	0xba90704a	-0.0011019793
87	0x39da61de	0.00041653117
88	0x3c820ed5	0.015876213
89	0x3d0eef1c	0.034896
90	0xbd2d7550	-0.042348206
91	0x3c40b22c	0.0117612295
92	0xbbdbc34d	-0.0067066313
93	0x3c73f8fb	0.014890905
94	0x3d661454	0.05617173
95	0x3ce2e90f	0.027699022
96	0x3b8ab329	0.0042327833
97	0x38ed3b6d	0.000113121096
98	0xbc89b99b	-0.016812136
99	0x3bef3db9	0.007301059
100	0xbc8c5313	-0.017129457
101	0xbb29b448	-0.002589481
102	0xbbb0c969	-0.0053951037
103	0x3c7a51c7	0.015278286
104	0x3cdcf6ed	0.026973212
105	0x3c673f3a	0.0141141955
106	0xbb5f83cc	-0.0034105657
107	0xbbe3c3c0	-0.0069508255
108	0x3d23d4f0	0.039997995
109	0x3c40cbdc	0.011767354
110	0x3c29e5f5	0.010369767
111	0x3b7dc333	0.0038721084
112	0xbc8ba418	-0.01704602
113	0xbd09bf94	-0.03362997
114	0xbcaf5687	-0.021403564
115	0xb913eb40	-0.0001410665
116	0x3b0c388b	0.0021396007
117	0xbce3db69	-0.027814584
118	0x3c3a090b	0.011354695
119	0x3c376fc3	0.01119608
120	0x3ca61216	0.020272296
121	0x3bacfa59	0.005278867
122	0xbc30a5f2	-0.010781752
123	0x3b769293	0.0037623986
124	0xbce250ee	-0.02762648
125	0x3d455ace	0.0481823
126	0xbb089ced	-0.0020845488
127	0xbc99f65f	-0.018794237
128	0x3a9b9823	0.0011870902
129	0xbcaa8ed4	-0.020820059
130	0xbc95243e	-0.018205758
131	0xbc2a9ab3	-0.01041286
132	0xbc6b079a	-0.014345074
133	0xbc3c0bd9	-0.011477434
134	0xbb07fdff	-0.0020750759
135	0x3bb6d927	0.005580086
136	0xbc5134de	-0.012768952
137	0xbba5cc6a	-0.0050597684
138	0xbc131519	-0.008977198
139	0xbad9d7ea	-0.0016620134
140	0x3d069578	0.03285739
141	0x3c286a4c	0.010279249
142	0x3c17ebd8	0.009272538
143	0x3b56ffd8	0.0032806303
144	0x3c0717d8	0.008245431
145	0x3bd0b789	0.0063695353
146	0xbbca5331	-0.006174468
147	0x3c652fcd	0.013988447
148	0xbb3ac7c9	-0.002850043
149	0xbc1caac8	-0.009562202
150	0xbc16da06	-0.009207254
151	0x3ac280bc	0.0014839391
152	0x3c39223e	0.011299668
153	0xbb2a48f0	-0.0025983416
154	0x3c4c953f	0.012486755
155	0x3c909de4	0.017653413
156	0xbd00ddb0	-0.031461418
157	0xbc200007	-0.0097656315
158	0xbb190839	-0.0023350848
159	0x3cc27ec5	0.023742089
160	0x3cb9242f	0.022600261
161	0xbc17bc6f	-0.009261235
162	0xbbf4cb2a	-0.007470508
163	0xbd0859cd	-0.033288766
164	0x3ca8cf83	0.020606762
165	0xbc225fdc	-0.00991055
166	0x3be65eff	0.0070303674
167	0xbcd1e9cb	-0.025624176
168	0x3c717eeb	0.014739732
169	0x3c5626e6	0.013070798
170	0x3d10ef1f	0.035384294
171	0xbb91f8ff	-0.0044547315
172	0x3c82e1a5	0.015976736
173	0xba3efd60	-0.00072856806
174	0x3c8408f1	0.016117545
175	0xbccccb8f	-0.024999408
176	0x3c7dedaf	0.015498563
177	0x3a5103ec	0.00079733017
178	0xbbf1c02b	-0.0073776445
179	0x3d2ea0eb	0.042633932
180	0x3c91ad7d	0.017782921
181	0x3c151374	0.009098876
182	0x3cbb76fd	0.022883886
183	0x3ce5283a	0.027973283
184	0xbbd02b43	-0.0063528134
185	0xbc7d9e70	-0.015479669
186	0xbd08a164	-0.03335704
187	0x3be61d18	0.007022511
188	0xbbe4b0cb	-0.006979083
189	0xbb267dcf	-0.0025404578
190	0x3c3ba6cf	0.0114533445
191	0xbc519ad6	-0.012793263
192	0xbc6e9585	-0.014562015
193	0x3ab12a6c	0.0013516671
194	0xbc08d2a5	-0.008351003
195	0xbb136cab	-0.002249519
196	0xbcb0e462	-0.021593276
197	0xbbc11233	-0.005892062
198	0x3b93e643	0.0045135333
199	0xbcd4b2a8	-0.025964096
200	0x3bfc3823	0.0076971217
201	0x3b61bd9c	0.0034445291
202	0x3b789060	0.003792785
203	0x3d061980	0.032739162
204	0xbc59333a	-0.013256842
205	0xbcbeb3c4	-0.023279078
206	0x3c033d80	0.008010268
207	0xbcbfeff7	-0.023429854
208	0xbc96c42e	-0.018404093
209	0xbcd3689f	-0.025806723
210	0x3c30d450	0.010792807
211	0xbc904744	-0.017612107
212	0x3cdc2c7a	0.026876677
213	0xbcac3971	-0.021023484
214	0x3af4171c	0.001862261
215	0xbb14008c	-0.0022583334
216	0xbca5a9f2	-0.020222638
217	0xbd0a6e43	-0.03379656
218	0x3c55a080	0.013038754
219	0xbcde96a1	-0.027171435
220	0x3c2fafa1	0.010723026
221	0xbb4cc9c2	-0.0031248187
222	0xba835264	-0.0010019061
223	0xbca78b47	-0.020452155
224	0xbc52f146	-0.012874907
225	0x3d1a0620	0.037603498
226	0xbbb4f597	-0.0055224407
227	0xbad603ee	-0.0016328075
228	0xbba036ea	-0.0048893588
229	0x3c883120	0.016624987
230	0xbc0c3c4b	-0.008559297
231	0x3bd4a775	0.006489689
232	0x3c3ba27c	0.0114523135
233	0x3c883f1f	0.016631661
234	0xbccaa814	-0.024738349
235	0x3ca9e059	0.02073686
236	0xbce304c5	-0.027712235
237	0xbd19f34e	-0.03758555
238	0x3a364228	0.0006952607
239	0x3c43531e	0.011921672
240	0xbc88214f	-0.016617445
241	0xbc070508	-0.008240946
242	0x3b17ef34	0.0023183348
243	0x3c83e303	0.016099459
244	0xbaf7833a	-0.0018883713
245	0x3baf8cc5	0.005357357
246	0xbccdf88e	-0.025142934
247	0x3c366b5c	0.011133995
248	0x3ab26626	0.0013610765
249	0xbbedb879	-0.007254657
250	0x3bc273ad	0.0059342
251	0xbc6dc874	-0.014513124
252	0xbc9f52ed	-0.019448722
253	0xb98ce599	-0.00026873944
254	0xbcf03c19	-0.029325532
255	0xbc63d604	-0.013906006

action_model._continuous_distribution.mu.bias f4 [2]
0	0xbc0df108	-0.008663423
1	0x3ba80bc3	0.005128355

action_model._discrete_distribution.branches.0.weight f4 [2, 128]
0	0xba9f0b3c	-0.0012134085
1	0xbc64d272	-0.01396619
2	0x3afd7ed3	0.0019340165
3	0x3c678e34	0.014133025
4	0x3bf305ab	0.007416447
5	0xbba478b2	-0.005019271
6	0xb9b36aa1	-0.00034220985
7	0x3c3433f7	0.0109987175
8	0xbb4278c6	-0.0029674037
9	0xbc4bc0a4	-0.012436066
10	0x3ba3ead2	0.005002358
11	0x3b642afe	0.0034815664
12	0xbbbd3c3f	-0.005775004
13	0xbbd984b1	-0.0066381325
14	0xbc8a038d	-0.016847396
15	0xbc5f71ec	-0.013638001
16	0xbb09f8ec	-0.002105291
17	0xbad0c96d	-0.001592917
18	0xbc1dac72	-0.009623634
19	0xbc4c0760	-0.01245293
20	0x3c85d8db	0.016338756
21	0x3c9f61b6	0.019455772
22	0xbc395f3b	-0.011314209
23	0xbc0c11b4	-0.008549143
24	0x3b3384a9	0.0027392304
25	0x3bd303b3	0.00643965
26	0xbc5f95d1	-0.013646559
27	0xbb3d3438	-0.0028870236
28	0xba496805	-0.00076830416
29	0xbbafb5c7	-0.0053622457
30	0x3bc8a1ed	0.0061228187
31	0xb8870411	-6.438059e-05
32	0xbbcb4511	-0.0062033017
33	0xbb4ac405	-0.003093959
34	0x3a9719f2	0.0011528118
35	0xbab4bafe	-0.0013788638
36	0x3adb91fb	0.001675188
37	0xbbe4b420	-0.0069794804
38	0xbc82d4e6	-0.015970659
39	0xbb931515	-0.004488597
40	0x3be23fff	0.0069046016
41	0xbb6c2a0a	-0.00360358
42	0xbb2e7c17	-0.0026624256
43	0xbbf0f4ab	-0.0073533854
44	0x3bbfd734	0.0058545116
45	0xbbf05678	-0.0073345266
46	0xbb6904a1	-0.0035555738
47	0xbc9871ed	-0.018609012
48	0x3c200d77	0.009768835
49	0xbbe8dd03	-0.007106425
50	0x3b1c0c00	0.0023810863
51	0x3d01b169	0.031663332
52	0x3b83a80b	0.004017835
53	0xbc974612	-0.01846603
54	0xbc068c98	-0.008212231
55	0xbbc39d32	-0.005969667
56	0x3c8fbaae	0.01754507
57	0x3b1d5d74	0.0024012001
58	0x3adff263	0.0017085787
59	0x3b49ec28	0.0030810926
60	0xbaf85c77	-0.0018948455
61	0x3baded64	0.00530784
62	0x3bbdf952	0.0057975436
63	0x3c86b714	0.01644472
64	0x3c3b66ea	0.011438111
65	0x3c635214	0.013874549
66	0x3bf13566	0.007361102
67	0x391b8429	0.00014831185
68	0x3bb245cc	0.0054404493
69	0x3aa45b9a	0.0012539506
70	0x38ddb04f	0.00010570941
71	0x3c47c076	0.012191882
72	0x3a7042d7	0.00091652334
73	0xbbb16f0c	-0.005414849
74	0x3b11830b	0.0022203352
75	0x3b86be8a	0.0041120695
76	0xbc113a43	-0.008863988
77	0x3a01cea3	0.0004951751
78	0x3b6bf731	0.0036005492
79	0x3c232243	0.009956899
80	0x3bdb4f21	0.0066927825
81	0x3b8cf7b2	0.0043019885
82	0xbadf8e76	-0.0017056006
83	0x3a5933b1	0.00082855957
84	0xbc33930b	-0.010960351
85	0xbae0a2e3	-0.0017138388
86	0x3bd51489	0.006502692
87	0xb9ff7815	-0.00048726858
88	0xbc870610	-0.016482383
89	0x3c4f62d5	0.012657841
90	0x3bca5d80	0.006175697
91	0x3bbc25d8	0.005741816
92	0x3c01bd83	0.007918718
93	0x3b825520	0.003977433
94	0x3b63b662	0.003474616
95	0x3bffa42a	0.0078015523
96	0xbc093b79	-0.008375996
97	0xbb2e5977	-0.0026603618
98	0x3c6b1dae	0.014350338
99	0xbb66c1eb	-0.00352108
100	0xbc3ba21e	-0.011452226
101	0x3bbb0077	0.0057068425
102	0xbb9d9ff7	-0.004810329
103	0xbc2d3ae7	-0.010573125
104	0x3c336a13	0.010950583
105	0xbb1a6afa	-0.0023562298
106	0x3bc8a35c	0.0061229896
107	0x3b8f664c	0.0043762084
108	0xbc25df55	-0.010124047
109	0xbba199aa	-0.0049316483
110	0x3b3afc53	0.0028531745
111	0xba92a0b4	-0.0011186809
112	0xbbe2ff0f	-0.006927378
113	0x3c64ec2a	0.0139723215
114	0x3be5c334	0.0070117954
115	0xbbae4999	-0.005318832
116	0x3ba6d1d5	0.005090932
117	0x3954b98d	0.00020287019
118	0xbc1e2f00	-0.00965476
119	0xbbaa6bd2	-0.0052008415
120	0x3b33a5d8	0.0027412083
121	0xbcae325f	-0.021264253
122	0x3b163102	0.0022917395
123	0xbbed9641	-0.0072505777
124	0x3c25b1ff	0.010113238
125	0xba958b64	-0.001140934
126	0x3c4c8db3	0.012484956
127	0x3becf530	0.007231377
128	0xb9d40ee9	-0.000404469
129	0x3c4a7237	0.0123563325
130	0x3bf24e3d	0.0073945806
131	0xbbcd441e	-0.0062642237
132	0x3b628fcd	0.0034570575
133	0x3bde392e	0.0067817187
134	0x3b49c911	0.003079001
135	0x3c4e335c	0.012585487
136	0x3c8e4faf	0.01737198
137	0x3c78ed43	0.015193286
138	0x3bca0599	0.006165218
139	0x3c7ae3c2	0.015313091
140	0x3bd817cc	0.0065946337
141	0x3c1b4a55	0.009478171
142	0xbc431372	-0.011906492
143	0xbbb96a18	-0.0056583993
144	0xbb8d2ec1	-0.004308552
145	0xbbbb5293	-0.0057166307
146	0x3c698b25	0.014254366
147	0xba0eb1b9	-0.0005443353
148	0xbb19afa0	-0.0023450628
149	0xbc43c083	-0.011947754
150	0x3b9ec833	0.004845643
151	0x3bff8b85	0.0077986144
152	0x3bfb4249	0.007667814
153	0x39988175	0.00029088152
154	0xbc417c43	-0.011809411
155	0x3bd42534	0.0064741615
156	0xbbd82c68	-0.0065970905
157	0xbb54cf4b	-0.003247219
158	0x3c04f3d4	0.008114774
159	0xba0d164f	-0.00053820474
160	0xbbaaf117	-0.0052167284
161	0x3b5dd054	0.0033846097
162	0x3b0e9a21	0.0021759348
163	0xb954c293	-0.0002029038
164	0x3c3be8f0	0.011469111
165	0x3c219063	0.009861085
166	0x3c359331	0.011082456
167	0x3c134c2a	0.008990327
168	0xbc0ec996	-0.008715054
169	0x3c5fd8b6	0.013662508
170	0x3c892ddb	0.016745498
171	0xbc68fe4f	-0.014220788
172	0xbb9cfbb6	-0.0047907485
173	0x3bc290c4	0.0059376676
174	0xbc9dda1d	-0.019269044
175	0x3c80d913	0.015728509
176	0xbc9c9364	-0.01911325
177	0xbbee78d7	-0.007277589
178	0xb8d1f5b0	-0.000100116595
179	0xbb623c2c	-0.0034520729
180	0x3aa84770	0.0012838673
181	0x3b71ba00	0.0036884546
182	0x3c60fb87	0.013731844
183	0x3b972ff5	0.004613871
184	0x3b4652f5	0.0030261849
185	0x3cad4c48	0.021154538
186	0xbc37335e	-0.0111816805
187	0xbc1491e0	-0.009067982
188	0xbc9fd780	-0.019511938
189	0xbc5c0cc8	-0.013430782
190	0xbb999c1f	-0.0046878005
191	0xbc027b94	-0.007964034
192	0x3add9953	0.0016906656
193	0xbc66fc36	-0.014098218
194	0x3bbb3a2e	0.0057137227
195	0xbbe48558	-0.0069739036
196	0x3c295122	0.010334285
197	0x3bb14d47	0.0054108235
198	0x3ba2dcd8	0.0049701743
199	0xbc95c335	-0.018281559
200	0x3ba4ea1c	0.005032791
201	0x3c8a9d10	0.016920596
202	0x3be24d2a	0.0069061713
203	0x3bcb33dc	0.0062012505
204	0x3c1b893c	0.009493168
205	0x3bd44bf9	0.006478783
206	0x3bb9ff6b	0.0056762
207	0xbc44d352	-0.012013273
208	0x3c28ee2f	0.010310694
209	0x3bda1930	0.0066558346
210	0xbcc114c0	-0.023569465
211	0x3b98b25e	0.004659935
212	0x3c12e212	0.008965032
213	0x3b23bd20	0.0024984553
214	0x3afec31d	0.001943681
215	0xbbec671c	-0.00721444
216	0x3c6fafd8	0.014629327
217	0x3c055c0d	0.008139622
218	0xbbaafa08	-0.0052177943
219	0xbc5c8c6c	-0.013461214
220	0x3aa6ee33	0.0012735784
221	0xbbb80fd6	-0.005617122
222	0x3b1a8e5d	0.002358339
223	0xbcc96e1c	-0.024588637
224	0x3c27c958	0.010240875
225	0x3aa22a72	0.0012372269
226	0x3b492afe	0.0030695791
227	0x3bc4f90b	0.0060111335
228	0xbb3ea851	-0.0029092024
229	0x3be6c62e	0.007042668
230	0x3ca562b3	0.020188665
231	0x3ba1b1cf	0.0049345265
232	0xbb5bcf76	-0.0033540404
233	0xbbd3aebe	-0.00646004
234	0x3c050d41	0.008120836
235	0x3b6b38aa	0.0035891929
236	0x3c95e262	0.018296424
237	0x3c25554b	0.010091136
238	0xbabf2824	-0.0014584106
239	0x3bdd3457	0.006750624
240	0x398866b0	0.0002601645
241	0xbc440d8c	-0.01196612
242	0xb9bf7f46	-0.00036525185
243	0xb91d7c80	-0.00015019067
244	0x3bbdf23e	0.0057967
245	0xbc8e799e	-0.017391976
246	0x3c7b6219	0.0153432125
247	0x3b5314ee	0.003220852
248	0x3b7fcd8b	0.0039032425
249	0xbc0d1175	-0.008610119
250	0x3b0b4150	0.0021248646
251	0xbc263717	-0.01014497
252	0xbb285999	-0.002568817
253	0xbc01856e	-0.007905347
254	0xbcb8c51b	-0.022554925
255	0xbcaba8fb	-0.0209546

action_model._discrete_distribution.branches.0.bias f4 [2]
0	0x3a81822b	0.0009880712
1	0xba818224	-0.0009880704

exp_avg f4 [128, 4]
0	0x39305ab5	0.00016818459
1	0xb844a470	-4.6883186e-05
2	0x00000000	0.0
3	0x00000000	0.0
4	0xb787946e	-1.6162372e-05
5	0xb7a4a733	-1.9628182e-05
6	0x00000000	0.0
7	0x00000000	0.0
8	0xb94c5afe	-0.00019488853
9	0x385777fe	5.1371746e-05
10	0x00000000	0.0
11	0x00000000	0.0
12	0xb8867de6	-6.413068e-05
13	0x38775686	5.896997e-05
14	0x00000000	0.0
15	0x00000000	0.0
16	0x372bc701	1.02387285e-05
17	0xb584727e	-9.868088e-07
18	0x00000000	0.0
19	0x00000000	0.0
20	0xb6ab4850	-5.1046154e-06
21	0x379996ab	1.8309182e-05
22	0x00000000	0.0
23	0x00000000	0.0
24	0xb6fc29de	-7.515059e-06
25	0x3810f82a	3.4563396e-05
26	0x00000000	0.0
27	0x00000000	0.0
28	0xb813f15e	-3.5272322e-05
29	0x380f0798	3.410093e-05
30	0x00000000	0.0
31	0x00000000	0.0
32	0xb5ef04ff	-1.7808342e-06
33	0xb7c64580	-2.3635803e-05
34	0x00000000	0.0
35	0x00000000	0.0
36	0xb7ce8fb0	-2.4624023e-05
37	0x3754af34	1.2676977e-05
38	0x00000000	0.0
39	0x00000000	0.0
40	0x38cce78c	9.770607e-05
41	0xb6921445	-4.3534988e-06
42	0x00000000	0.0
43	0x00000000	0.0
44	0xb763c08f	-1.3575088e-05
45	0xb6b767e1	-5.465918e-06
46	0x00000000	0.0
47	0x00000000	0.0
48	0x385ea518	5.308268e-05
49	0xb83a5ab3	-4.4430326e-05
50	0x00000000	0.0
51	0x00000000	0.0
52	0xb8887ec6	-6.508599e-05
53	0x38772c0c	5.893041e-05
54	0x00000000	0.0
55	0x00000000	0.0
56	0x36e516c9	6.8273844e-06
57	0xb7791602	-1.4846681e-05
58	0x00000000	0.0
59	0x00000000	0.0
60	0xb886fb79	-6.436458e-05
61	0xb78fe263	-1.7152348e-05
62	0x00000000	0.0
63	0x00000000	0.0
64	0xb617cdc1	-2.2620518e-06
65	0x379ffb07	1.907117e-05
66	0x00000000	0.0
67	0x00000000	0.0
68	0x37bf73d3	2.282291e-05
69	0xb828abb4	-4.0214232e-05
70	0x00000000	0.0
71	0x00000000	0.0
72	0x37eb3922	2.8040788e-05
73	0xb785a0e5	-1.5929758e-05
74	0x00000000	0.0
75	0x00000000	0.0
76	0x38b9923b	8.848725e-05
77	0xb9000f3f	-0.00012212711
78	0x00000000	0.0
79	0x00000000	0.0
80	0x38d2ab52	0.00010045491
81	0xb879371b	-5.9417547e-05
82	0x00000000	0.0
83	0x00000000	0.0
84	0x38893a9d	6.543587e-05
85	0xb8ced724	-9.8629185e-05
86	0x00000000	0.0
87	0x00000000	0.0
88	0xb72badeb	-1.0232888e-05
89	0xb5f900e9	-1.8552211e-06
90	0x00000000	0.0
91	0x00000000	0.0
92	0xb71d93a7	-9.392307e-06
93	0xb7d69594	-2.558044e-05
94	0x00000000	0.0
95	0x00000000	0.0
96	0xb8443ecf	-4.6788537e-05
97	0x37f4579c	2.9127863e-05
98	0x00000000	0.0
99	0x00000000	0.0
100	0x38672f43	5.5118708e-05
101	0xb7b6668b	-2.1743841e-05
102	0x00000000	0.0
103	0x00000000	0.0
104	0xb827feba	-4.0053135e-05
105	0xb61840a7	-2.2687398e-06
106	0x00000000	0.0
107	0x00000000	0.0
108	0xb8254850	-3.940641e-05
109	0x375b8cd1	1.3086204e-05
110	0x00000000	0.0
111	0x00000000	0.0
112	0xb9715abb	-0.00023017351
113	0x39879f3b	0.00025867842
114	0x00000000	0.0
115	0x00000000	0.0
116	0x38825af1	6.215822e-05
117	0xb90960eb	-0.00013101443
118	0x00000000	0.0
119	0x00000000	0.0
120	0xb678166c	-3.696793e-06
121	0xb7bfa699	-2.2846552e-05
122	0x00000000	0.0
123	0x00000000	0.0
124	0x389b7817	7.4133444e-05
125	0xb6a3631a	-4.8693155e-06
126	0x00000000	0.0
127	0x00000000	0.0
128	0x386df7e4	5.673607e-05
129	0x38077778	3.2297772e-05
130	0x00000000	0.0
131	0x00000000	0.0
132	0xb710fee9	-8.64242e-06
133	0xb7c2a17b	-2.3201797e-05
134	0x00000000	0.0
135	0x00000000	0.0
136	0x377f5375	1.5218616e-05
137	0xb813efb5	-3.5270776e-05
138	0x00000000	0.0
139	0x00000000	0.0
140	0xb756829b	-1.2785803e-05
141	0x382ac0fe	4.0710896e-05
142	0x00000000	0.0
143	0x00000000	0.0
144	0x37db9625	2.617675e-05
145	0xb7c5c257	-2.3574727e-05
146	0x00000000	0.0
147	0x00000000	0.0
148	0x390d24b7	0.00013460485
149	0xb89319ae	-7.0142894e-05
150	0x00000000	0.0
151	0x00000000	0.0
152	0x34b35486	3.3402847e-07
153	0xb7db44a7	-2.6138803e-05
154	0x00000000	0.0
155	0x00000000	0.0
156	0xb8829f17	-6.228516e-05
157	0x38c0a967	9.186827e-05
158	0x00000000	0.0
159	0x00000000	0.0
160	0x37f9ca2e	2.977726e-05
161	0x38609bc6	5.3550837e-05
162	0x00000000	0.0
163	0x00000000	0.0
164	0x38834e00	6.2610954e-05
165	0xb8ca753d	-9.653948e-05
166	0x00000000	0.0
167	0x00000000	0.0
168	0xb575b89a	-9.1538243e-07
169	0xb7b33f85	-2.1368041e-05
170	0x00000000	0.0
171	0x00000000	0.0
172	0x3830e480	4.2174477e-05
173	0xb6d1bd8d	-6.250752e-06
174	0x00000000	0.0
175	0x00000000	0.0
176	0xb851edb2	-5.0050854e-05
177	0xb7292715	-1.00822845e-05
178	0x00000000	0.0
179	0x00000000	0.0
180	0xb83ac7e5	-4.4532022e-05
181	0x360b0b5b	2.0719224e-06
182	0x00000000	0.0
183	0x00000000	0.0
184	0xb7bdb8b0	-2.2616558e-05
185	0x3660db2d	3.3506178e-06
186	0x00000000	0.0
187	0x00000000	0.0
188	0xb73b8520	-1.1177064e-05
189	0xb7cc1270	-2.432728e-05
190	0x00000000	0.0
191	0x00000000	0.0
192	0xb6e1f953	-6.7345477e-06
193	0x3837e89b	4.384723e-05
194	0x00000000	0.0
195	0x00000000	0.0
196	0x389db230	7.5195334e-05
197	0xb893c29a	-7.0457536e-05
198	0x00000000	0.0
199	0x00000000	0.0
200	0x388e27a4	6.778471e-05
201	0x380df4e3	3.384509e-05
202	0x00000000	0.0
203	0x00000000	0.0
204	0x36a11cfc	4.801548e-06
205	0xb759feff	-1.2993579e-05
206	0x00000000	0.0
207	0x00000000	0.0
208	0x35852d4a	9.922453e-07
209	0x380fbf93	3.4272274e-05
210	0x00000000	0.0
211	0x00000000	0.0
212	0x39310f78	0.00016885798
213	0xb90406f2	-0.00012591088
214	0x00000000	0.0
215	0x00000000	0.0
216	0xb5e6fdf2	-1.7210243e-06
217	0x370e6282	8.486795e-06
218	0x00000000	0.0
219	0x00000000	0.0
220	0xb85b8329	-5.233582e-05
221	0x376858f6	1.384899e-05
222	0x00000000	0.0
223	0x00000000	0.0
224	0x36a50c5f	4.9188234e-06
225	0x38a733a0	7.9727964e-05
226	0x00000000	0.0
227	0x00000000	0.0
228	0xb8dcb114	-0.00010523401
229	0x381ef8b2	3.790175e-05
230	0x00000000	0.0
231	0x00000000	0.0
232	0xb792654e	-1.745173e-05
233	0xb7bb7262	-2.23454e-05
234	0x00000000	0.0
235	0x00000000	0.0
236	0x389df8d9	7.532695e-05
237	0xb612fcc2	-2.190282e-06
238	0x00000000	0.0
239	0x00000000	0.0
240	0x375b2731	1.3062542e-05
241	0xb745c4de	-1.1787952e-05
242	0x00000000	0.0
243	0x00000000	0.0
244	0x37fe6318	3.0325304e-05
245	0xb7af7565	-2.0916292e-05
246	0x00000000	0.0
247	0x00000000	0.0
248	0x39421f02	0.00018512833
249	0xb8a3dce4	-7.81359e-05
250	0x00000000	0.0
251	0x00000000	0.0
252	0xb84cbf82	-4.8815746e-05
253	0x377732c7	1.473417e-05
254	0x00000000	0.0
255	0x00000000	0.0

exp_avg_sq f4 [128, 4]
0	0x343111f7	1.6490945e-07
1	0x33640ef6	5.3098994e-08
2	0x00000000	0.0
3	0x00000000	0.0
4	0x30489d6b	7.298328e-10
5	0x30b68349	1.3279556e-09
6	0x00000000	0.0
7	0x00000000	0.0
8	0x3448c839	1.8699292e-07
9	0x3303ca82	3.0684994e-08
10	0x00000000	0.0
11	0x00000000	0.0
12	0x32e5b4e8	2.6741375e-08
13	0x325f3975	1.2993373e-08
14	0x00000000	0.0
15	0x00000000	0.0
16	0x3068f57a	8.474995e-10
17	0x30ac6abf	1.2544986e-09
18	0x00000000	0.0
19	0x00000000	0.0
20	0x3234e265	1.0528855e-08
21	0x31445312	2.8568974e-09
22	0x00000000	0.0
23	0x00000000	0.0
24	0x316402ad	3.3179888e-09
25	0x32278956	9.751906e-09
26	0x00000000	0.0
27	0x00000000	0.0
28	0x33487a97	4.6677624e-08
29	0x324d6946	1.1956507e-08
30	0x00000000	0.0
31	0x00000000	0.0
32	0x308ead5a	1.0381129e-09
33	0x305f9b71	8.1347823e-10
34	0x00000000	0.0
35	0x00000000	0.0
36	0x30952027	1.0850315e-09
37	0x30ecf809	1.7241756e-09
38	0x00000000	0.0
39	0x00000000	0.0
40	0x3409a5fa	1.2819501e-07
41	0x32c0604e	2.2395536e-08
42	0x00000000	0.0
43	0x00000000	0.0
44	0x3090384a	1.0493377e-09
45	0x30805fe1	9.340476e-10
46	0x00000000	0.0
47	0x00000000	0.0
48	0x32c1b0f1	2.254862e-08
49	0x32672b09	1.3455755e-08
50	0x00000000	0.0
51	0x00000000	0.0
52	0x3329dbce	3.954829e-08
53	0x326a1c6d	1.3627056e-08
54	0x00000000	0.0
55	0x00000000	0.0
56	0x33110157	3.3761662e-08
57	0x31816acd	3.766536e-09
58	0x00000000	0.0
59	0x00000000	0.0
60	0x3421b8ae	1.506148e-07
61	0x32d81d37	2.5158995e-08
62	0x00000000	0.0
63	0x00000000	0.0
64	0x322b6ddf	9.978492e-09
65	0x31fd2cc6	7.3683593e-09
66	0x00000000	0.0
67	0x00000000	0.0
68	0x32ea6841	2.7288594e-08
69	0x32c1f13b	2.2577856e-08
70	0x00000000	0.0
71	0x00000000	0.0
72	0x3188a559	3.976919e-09
73	0x319ecd84	4.6217696e-09
74	0x00000000	0.0
75	0x00000000	0.0
76	0x33e2e6a8	1.0565901e-07
77	0x3438febc	1.7229007e-07
78	0x00000000	0.0
79	0x00000000	0.0
80	0x3321d5a1	3.7680028e-08
81	0x31b9d815	5.4087743e-09
82	0x00000000	0.0
83	0x00000000	0.0
84	0x3429d072	1.5815183e-07
85	0x33a5a69d	7.713718e-08
86	0x00000000	0.0
87	0x00000000	0.0
88	0x3224da1b	9.595648e-09
89	0x318fe531	4.187904e-09
90	0x00000000	0.0
91	0x00000000	0.0
92	0x302a94a3	6.2056865e-10
93	0x31ad3788	5.041276e-09
94	0x00000000	0.0
95	0x00000000	0.0
96	0x307d7a48	9.2214636e-10
97	0x3151f7b3	3.0554304e-09
98	0x00000000	0.0
99	0x00000000	0.0
100	0x32e8cae9	2.7100628e-08
101	0x31be4845	5.537944e-09
102	0x00000000	0.0
103	0x00000000	0.0
104	0x30cf3079	1.5075009e-09
105	0x30c9e43a	1.4689541e-09
106	0x00000000	0.0
107	0x00000000	0.0
108	0x3063090b	8.259497e-10
109	0x30a7a11b	1.2196638e-09
110	0x00000000	0.0
111	0x00000000	0.0
112	0x352afd56	6.369859e-07
113	0x3481a7cf	2.415022e-07
114	0x00000000	0.0
115	0x00000000	0.0
116	0x33c320c7	9.086357e-08
117	0x32bc40b8	2.1915511e-08
118	0x00000000	0.0
119	0x00000000	0.0
120	0x31cd7bb0	5.980347e-09
121	0x315226e2	3.0581124e-09
122	0x00000000	0.0
123	0x00000000	0.0
124	0x3314a6df	3.4610704e-08
125	0x32c6c157	2.3138155e-08
126	0x00000000	0.0
127	0x00000000	0.0
128	0x3356b127	4.9986877e-08
129	0x3241d864	1.128328e-08
130	0x00000000	0.0
131	0x00000000	0.0
132	0x316d0a11	3.4493761e-09
133	0x31553143	3.1023581e-09
134	0x00000000	0.0
135	0x00000000	0.0
136	0x32f6f733	2.8750582e-08
137	0x32b9dddf	2.163773e-08
138	0x00000000	0.0
139	0x00000000	0.0
140	0x338370dc	6.120692e-08
141	0x336d1f9a	5.5209604e-08
142	0x00000000	0.0
143	0x00000000	0.0
144	0x332bc175	3.9989988e-08
145	0x31a47177	4.7859277e-09
146	0x00000000	0.0
147	0x00000000	0.0
148	0x33b97617	8.636214e-08
149	0x335f7910	5.203134e-08
150	0x00000000	0.0
151	0x00000000	0.0
152	0x306ed238	8.6882634e-10
153	0x30c143d2	1.4061874e-09
154	0x00000000	0.0
155	0x00000000	0.0
156	0x3369d6db	5.444495e-08
157	0x3331c545	4.139044e-08
158	0x00000000	0.0
159	0x00000000	0.0
160	0x31acbba8	5.027193e-09
161	0x3243d7cd	1.1399561e-08
162	0x00000000	0.0
163	0x00000000	0.0
164	0x33a37856	7.612168e-08
165	0x33c40eda	9.129663e-08
166	0x00000000	0.0
167	0x00000000	0.0
168	0x30679210	8.424488e-10
169	0x30cf43f9	1.5080551e-09
170	0x00000000	0.0
171	0x00000000	0.0
172	0x320c7ea0	8.177864e-09
173	0x3305c1e8	3.1142832e-08
174	0x00000000	0.0
175	0x00000000	0.0
176	0x32a25e21	1.8902087e-08
177	0x31c26cac	5.6584977e-09
178	0x00000000	0.0
179	0x00000000	0.0
180	0x305857f0	7.870531e-10
181	0x30b0a138	1.2851507e-09
182	0x00000000	0.0
183	0x00000000	0.0
184	0x331dd021	3.6743703e-08
185	0x3327c3f7	3.9060946e-08
186	0x00000000	0.0
187	0x00000000	0.0
188	0x3000b29d	4.6819953e-10
189	0x3106af91	1.9599364e-09
190	0x00000000	0.0
191	0x00000000	0.0
192	0x333be197	4.3744503e-08
193	0x334aa699	4.718331e-08
194	0x00000000	0.0
195	0x00000000	0.0
196	0x33f2f622	1.13137745e-07
197	0x33ea8355	1.0920363e-07
198	0x00000000	0.0
199	0x00000000	0.0
200	0x32f6ea4a	2.8744711e-08
201	0x339ff77e	7.449033e-08
202	0x00000000	0.0
203	0x00000000	0.0
204	0x2fbf2762	3.477068e-10
205	0x301719ce	5.497015e-10
206	0x00000000	0.0
207	0x00000000	0.0
208	0x30ca8910	1.473639e-09
209	0x31e61443	6.6961845e-09
210	0x00000000	0.0
211	0x00000000	0.0
212	0x338ef8ba	6.6576334e-08
213	0x33b8d449	8.606782e-08
214	0x00000000	0.0
215	0x00000000	0.0
216	0x30a4611a	1.1960168e-09
217	0x315eafd4	3.2405199e-09
218	0x00000000	0.0
219	0x00000000	0.0
220	0x323c81ef	1.0972584e-08
221	0x318cf28b	4.10211e-09
222	0x00000000	0.0
223	0x00000000	0.0
224	0x33733b93	5.663203e-08
225	0x336ee70b	5.5623826e-08
226	0x00000000	0.0
227	0x00000000	0.0
228	0x32b9f92e	2.1650148e-08
229	0x31f45620	7.111126e-09
230	0x00000000	0.0
231	0x00000000	0.0
232	0x33af2f62	8.1576914e-08
233	0x3327fc17	3.9111992e-08
234	0x00000000	0.0
235	0x00000000	0.0
236	0x3358125b	5.0308113e-08
237	0x32435329	1.1369402e-08
238	0x00000000	0.0
239	0x00000000	0.0
240	0x32545c0c	1.2360953e-08
241	0x3195245a	4.3406034e-09
242	0x00000000	0.0
243	0x00000000	0.0
244	0x308c5651	1.0210873e-09
245	0x30d2dbf5	1.5342027e-09
246	0x00000000	0.0
247	0x00000000	0.0
248	0x3360be8b	5.2327362e-08
249	0x335ebead	5.186182e-08
250	0x00000000	0.0
251	0x00000000	0.0
252	0x32460e74	1.1528403e-08
253	0x318fdf09	4.187204e-09
254	0x00000000	0.0
255	0x00000000	0.0
