results/ppo/MoveToGoal/MoveToGoal-1048.pt (torch, 149732 bytes, 14 tensors)

network_body._body_endoder.seq_layers.0.weight f4 [128, 4]
-0.13338357 0.08050423 -0.08055333 0.23562016 0.014808796 -0.18336722 -0.27347893 0.14847213
-0.7095591 0.81779057 -0.3751168 0.33739588 0.17688769 -0.44254228 -0.84683585 0.28401515
-0.43366632 0.27070716 -0.41810378 -0.49017212 -0.15708059 -0.15334852 -0.66496605 -0.26763028
0.8493328 0.426267 0.06781375 -0.25661805 -0.37921166 0.29480493 -0.10693535 1.0454912
0.1878214 -0.8534507 -0.29811025 0.664363 0.25943556 0.07673092 -0.5546519 0.5943335
-0.17506458 0.18888362 -0.50362027 0.38447678 -0.09673904 0.3779443 -0.08632263 0.0682839
0.6821417 0.1632207 -0.1858717 -0.5638866 -0.744277 -0.5433013 0.08160025 -0.05535058
0.6049519 -0.1720018 0.94397557 -0.34216487 0.0856012 0.23464261 -0.2782293 0.43149528
0.26661634 0.21927075 -0.10328729 0.5419522 0.23276041 -0.6860406 -0.095633596 -0.5915402
-0.10632075 0.47654843 -0.64245886 -0.715294 -1.1498786 -0.3442403 0.7155297 -0.46324918
-0.6711775 0.28308675 0.01448104 0.50383055 0.0139434 -0.4034265 -0.5490228 0.5482968
-0.36164585 0.04107416 0.026560104 -0.08595805 0.54294723 0.5468412 -0.34304377 -0.5355898
-0.7705641 -0.5106901 0.10581057 0.71740514 -0.24954994 0.2250335 -0.6456733 0.76696914
0.654206 1.040562 -0.30186483 0.35337722 0.3427724 -0.19602336 -0.1277165 -0.37356034
0.42170262 0.25214955 0.08967743 -0.09804233 0.49358243 -0.18239486 0.34268796 -0.14985986
0.29145318 0.36020285 0.53746736 0.2519392 0.11994169 0.114927664 0.010045859 -0.804248
0.30169174 0.21756116 0.63373244 -0.164554 0.78556335 -0.723685 -0.1919901 -0.17215854
-0.4906853 0.85994405 0.40791667 -0.37075156 -0.5511082 0.21882975 -0.63406754 -0.18325165
0.027731026 0.7290667 0.34339845 0.6898141 0.44662517 -0.30452752 0.29615155 -0.13556585
0.028686874 1.0316553 -1.1975657 -0.5845838 -0.4049673 0.6201465 0.48246834 -0.63089615
-0.0056317565 -0.26219454 0.57071155 0.36736187 0.038993746 0.4753446 -0.7157378 0.38430378
-0.08748389 -0.25259018 -0.8364906 -0.65492195 -0.20715094 -0.31743252 -0.41461462 -0.39569023
0.25251985 0.2439583 0.35024405 -0.08835737 -0.5641487 -0.25675473 -0.9447066 -0.8319948
0.4956486 0.41114685 -0.13476601 0.1325566 -1.3130139 0.24681018 1.0725929 0.32811943
-0.28399867 -0.018181223 0.44810712 -0.15231921 1.0811439 -0.39898223 1.001875 -0.22333351
-0.30441567 -0.09544582 0.35830152 0.010319569 0.06661465 -0.7612543 -0.12341469 0.2084738
-0.38620737 0.39102456 -0.29525787 0.3478372 -0.22091995 0.033976194 -0.43886012 -1.2184045
-0.5815542 0.18158431 0.42969063 -0.28723037 -0.16762371 0.31945306 -0.45743716 -0.44001704
0.03492266 -0.336275 -0.5639813 0.3403362 -0.61325514 -0.19764343 -0.49517125 0.89190364
0.1711067 0.21009353 0.06009159 -0.18165115 -0.73395276 -0.092648715 -0.9153749 0.4982562
-0.26334915 0.7422814 -0.05834724 -0.37070182 -0.16269302 -0.45126387 -0.17362426 -1.0066481
-0.43477646 -0.4140172 -0.30051348 -0.015251981 1.0193567 0.42623678 -0.21356674 -0.8861711
00000000: b495 08be 67df a43d 25f9 a4bd 6946 713e
00000010: 98a0 723c 9ec4 3bbe 6e05 8cbe 1409 183e
00000020: aaa5 35bf b95a 513f 4f0f c0be 27bf ac3e
00000030: 0c22 353e e794 e2be 3cca 58bf 6f6a 913e
00000040: 8309 debe 219a 8a3e b311 d6be d7f7 fabe
00000050: bcd9 20be 6507 1dbe 373b 2abf d606 89be
00000060: e06d 593f ab3f da3e efe1 8a3d 7163 83be
00000070: 0828 c2be acf0 963e ec00 dbbd a8d2 853f
00000080: 4154 403e bf7b 5abf e8a1 98be b213 2a3f
00000090: bdd4 843e 1a25 9d3d abfd 0dbf 3e26 183f
000000a0: 2144 33be b56a 413e 42ed 00bf 24da c43e
000000b0: 1e1f c6bd ea81 c13e ebc9 b0bd 6ed8 8b3d
000000c0: d7a0 2e3f 5423 273e 2755 3ebe df5a 10bf
000000d0: f088 3ebf cb15 0bbf 081e a73d 4ab7 62bd
000000e0: 21de 1a3f 3d21 30be 62a8 713f 3c30 afbe
000000f0: af4f af3d 2746 703e 1274 8ebe f3ec dc3e
00000100: f081 883e 8388 603e 4988 d3bd 61bd 0a3f
00000110: bf58 6e3e 5ba0 2fbf 8cdb c3bd 2e6f 17bf
00000120: b2be d9bd 28fe f33e 2f78 24bf 821d 37bf
00000130: 392f 93bf 4440 b0be f42c 373f ff2e edbe
00000140: 4ad2 2bbf bff0 903e e241 6d3c 0afb 003f
00000150: dc72 643c eb8d cebe c28c 0cbf 2e5d 0c3f
00000160: a529 b9be 613d 283d 9394 d93c c60a b0bd
00000170: 97fe 0a3f c9fd 0b3f 6fa3 afbe 6a1c 09bf
00000180: b043 45bf 96bc 02bf 36b3 d83d dda7 373f
00000190: 058a 7fbe 2f6f 663e d84a 25bf 1758 443f
000001a0: 0b7a 273f 2331 853f 078e 9abe dced b43e
000001b0: dd7f af3e 59ba 48be 1dc8 02be 4d43 bfbe
000001c0: 68e9 d73e bf19 813e cda8 b73d 6bca c8bd
000001d0: d6b6 fc3e b8c5 3abe cc74 af3e dd74 19be
000001e0: 5a39 953e 826c b83e 7697 093f 2dfe 803e
000001f0: fda3 f53d 325f eb3d 6397 243c 32e3 4dbf
00000200: 5777 9a3e 5ac8 5e3e 4a3c 223f d880 28be
00000210: ae1a 493f 6c43 39bf 0e99 44be 544a 30be
00000220: 1b3b fbbe 4b25 5c3f 74da d03e 26d3 bdbe
00000230: 6d15 0dbf e814 603e 4052 22bf 52a6 3bbe
00000240: 2d2c e33c 1ea4 3a3f ecd1 af3e a897 303f
00000250: 0eac e43e 08eb 9bbe 2da1 973e c6d1 0abe
00000260: bc00 eb3c 480d 843f d549 99bf 49a7 15bf
00000270: e057 cfbe ecc1 1e3f 1706 f73e 6982 21bf
00000280: 998a b8bb 5d3e 86be 271a 123f db16 bc3e
00000290: e8b7 1f3d 5e60 f33e 983a 37bf 77c3 c43e
000002a0: c12a b3bd 8053 81be 3f24 56bf f7a8 27bf
000002b0: 601f 54be 8486 a2be 5e48 d4be e997 cabe
000002c0: 484a 813e 34d0 793e 3053 b33e b5f4 b4bd
000002d0: 0d6c 10bf 5b75 83be 4bd8 71bf 9cfd 54bf
000002e0: a7c5 fd3e d781 d23e 1a00 0abe ebbc 073e
000002f0: d710 a8bf cfbb 7c3e b94a 893f 45ff a73e
00000300: 4668 91be caf0 94bc 4c6e e53e 91f9 1bbe
00000310: ec62 8a3f 6647 ccbe 713d 803f 8ab1 64be
00000320: 5fdc 9bbe 1979 c3bd 4c73 b73e 6913 293c
00000330: 436d 883d 90e1 42bf d7c0 fcbd 287a 553e
00000340: f9bc c5be 5f34 c83e 0a2c 97be b817 b23e
00000350: d738 62be 9f2a 0b3d 46b2 e0be aef4 9bbf
00000360: bce0 14bf 3df1 393e 6900 dc3e dc0f 93be
00000370: 8da5 2bbe 5a8f a33e 3435 eabe ea49 e1be
00000380: 100b 0f3d 3d2c acbe 1461 10bf 8c40 ae3e
00000390: 4afe 1cbf 0a63 4abe 1687 fdbe cc53 643f
000003a0: 9836 2f3e c222 573e 9922 763d c202 3abe
000003b0: 54e4 3bbf 9cbe bdbd 0256 6abf 701b ff3e
000003c0: b3d5 86be 2706 3e3f 84fd 6ebd a1cc bdbe
000003d0: 0099 26be 0f0c e7be 8fca 31be d8d9 80bf
000003e0: 059b debe 10fa d3be e7dc 99be 72e3 79bc
000003f0: 487a 823f b53b da3e 3db1 5abe 1cdc 62bf

network_body._body_endoder.seq_layers.0.bias f4 [128]
0.0 0.0 0.0 0.0 0.0 0.0 0.0 0.0
0.0 0.0 0.0 0.0 0.0 0.0 0.0 0.0
0.0 0.0 0.0 0.0 0.0 0.0 0.0 0.0
0.0 0.0 0.0 0.0 0.0 0.0 0.0 0.0
0.0 0.0 0.0 0.0 0.0 0.0 0.0 0.0
0.0 0.0 0.0 0.0 0.0 0.0 0.0 0.0
0.0 0.0 0.0 0.0 0.0 0.0 0.0 0.0
0.0 0.0 0.0 0.0 0.0 0.0 0.0 0.0
0.0 0.0 0.0 0.0 0.0 0.0 0.0 0.0
0.0 0.0 0.0 0.0 0.0 0.0 0.0 0.0
0.0 0.0 0.0 0.0 0.0 0.0 0.0 0.0
0.0 0.0 0.0 0.0 0.0 0.0 0.0 0.0
0.0 0.0 0.0 0.0 0.0 0.0 0.0 0.0
0.0 0.0 0.0 0.0 0.0 0.0 0.0 0.0
0.0 0.0 0.0 0.0 0.0 0.0 0.0 0.0
0.0 0.0 0.0 0.0 0.0 0.0 0.0 0.0
00000000: 0000 0000 0000 0000 0000 0000 0000 0000
00000010: 0000 0000 0000 0000 0000 0000 0000 0000
00000020: 0000 0000 0000 0000 0000 0000 0000 0000
00000030: 0000 0000 0000 0000 0000 0000 0000 0000
00000040: 0000 0000 0000 0000 0000 0000 0000 0000
00000050: 0000 0000 0000 0000 0000 0000 0000 0000
00000060: 0000 0000 0000 0000 0000 0000 0000 0000
00000070: 0000 0000 0000 0000 0000 0000 0000 0000
00000080: 0000 0000 0000 0000 0000 0000 0000 0000
00000090: 0000 0000 0000 0000 0000 0000 0000 0000
000000a0: 0000 0000 0000 0000 0000 0000 0000 0000
000000b0: 0000 0000 0000 0000 0000 0000 0000 0000
000000c0: 0000 0000 0000 0000 0000 0000 0000 0000
000000d0: 0000 0000 0000 0000 0000 0000 0000 0000
000000e0: 0000 0000 0000 0000 0000 0000 0000 0000
000000f0: 0000 0000 0000 0000 0000 0000 0000 0000
00000100: 0000 0000 0000 0000 0000 0000 0000 0000
00000110: 0000 0000 0000 0000 0000 0000 0000 0000
00000120: 0000 0000 0000 0000 0000 0000 0000 0000
00000130: 0000 0000 0000 0000 0000 0000 0000 0000
00000140: 0000 0000 0000 0000 0000 0000 0000 0000
00000150: 0000 0000 0000 0000 0000 0000 0000 0000
00000160: 0000 0000 0000 0000 0000 0000 0000 0000
00000170: 0000 0000 0000 0000 0000 0000 0000 0000
00000180: 0000 0000 0000 0000 0000 0000 0000 0000
00000190: 0000 0000 0000 0000 0000 0000 0000 0000
000001a0: 0000 0000 0000 0000 0000 0000 0000 0000
000001b0: 0000 0000 0000 0000 0000 0000 0000 0000
000001c0: 0000 0000 0000 0000 0000 0000 0000 0000
000001d0: 0000 0000 0000 0000 0000 0000 0000 0000
000001e0: 0000 0000 0000 0000 0000 0000 0000 0000
000001f0: 0000 0000 0000 0000 0000 0000 0000 0000

network_body._body_endoder.seq_layers.2.weight f4 [128, 128]
-0.04115976 -0.0070080506 0.05618744 0.07411384 0.061276592 0.0629168 0.03553371 -0.17306839
0.12842597 0.075563595 -0.12030328 -0.059471283 -0.017765973 0.07163484 0.19988078 -0.09833173
-0.048436243 -0.10356272 -0.036380883 -0.07366033 0.19670515 -0.085164405 0.15135346 -0.07497955
-0.022942826 -0.048862483 -0.11492275 -0.032767467 0.010634021 -0.14629498 -0.050289698 -0.0906887
0.08522162 0.114866585 -0.06133612 -0.22592767 -0.04429511 -0.12832394 -0.045460816 -0.09684339
0.02743977 0.003571836 -0.0019680772 -0.16603377 0.048528228 0.20736536 -0.100264125 -0.09998773
-0.041924816 0.016178379 0.121385716 -0.0259412 -0.06281729 -0.13369732 -0.010477864 -0.10070508
0.051135585 -0.16909048 -0.03630446 0.19271457 0.005054141 0.088451974 0.028572908 0.026016349
-0.01760471 0.0031356267 -0.030539406 0.15103424 0.09012692 -0.07652939 0.035387747 -0.0025544425
0.056302052 -0.07145412 0.1553606 -0.00545418 -0.090520695 -0.13025542 0.23179221 0.009455157
-0.043409444 0.054606058 0.0013200984 -0.0056191194 -0.06448238 0.034777697 0.05983914 -0.07333192
-0.013468423 0.011989868 0.011253112 -0.04960038 0.039878782 -0.14585184 -0.041023936 0.024807459
-0.02704446 0.02803128 -0.063239284 -0.11549184 -0.075300224 0.075827986 0.10901568 0.04424772
0.11355038 0.027287386 -0.029500047 0.004824935 0.05359544 0.057092514 0.043881606 -0.026527548
-0.1302561 0.00074401154 -0.06549947 0.12146179 -0.12626806 -0.041568473 0.043772534 0.0753831
0.0041412516 -0.011547867 -0.00864392 0.040256046 0.03853846 -0.21158719 0.004088948 -0.085464925
0.0069223456 0.038873628 0.1265008 0.0102987755 -0.03950563 0.1229028 -0.056405354 0.046137173
-0.105661586 0.06522511 0.030277139 -0.039403576 -0.07168289 0.25960803 -0.062974304 0.09625433
-0.02071813 0.03978792 -0.14945406 0.0631104 0.01796525 -0.13377042 0.08689861 0.09455197
-0.11022935 -0.05367067 -0.09420494 0.040201727 0.00586681 0.0064961617 -0.119627 -0.10622564
0.24770044 -0.090378486 -0.105472244 0.019641751 0.017012913 0.012756044 -0.048018873 0.057033103
0.036679126 0.16368377 -0.09648802 0.06497529 0.23071545 -0.04422222 -0.13195278 -0.010704565
-0.086431086 -0.10237993 0.14296275 0.07626036 0.055009395 -0.064284325 0.10114318 -0.07502096
-0.1421387 -0.04913312 -0.065865085 -0.18019462 0.099881314 -0.061990663 -0.06127619 0.08912256
-0.050716028 0.01638393 -0.09517426 0.08947521 0.09225859 0.0051771514 0.1416948 -0.02937972
-0.0030618068 -0.18507352 0.061511207 -0.06158413 0.11204761 0.033729505 -0.07857607 -0.010072439
-0.001553309 -0.004567638 -0.030442445 -0.018158857 0.117220245 -0.02804518 -0.019110212 -0.029231146
-0.20440519 -0.03318754 0.07733301 0.02754473 -0.03622026 -0.017957328 -0.13131723 -0.11904749
0.0328292 -0.034265637 0.11729985 0.06389274 0.07540575 -0.0043001855 -0.0084755365 0.010098319
0.07795183 0.09089139 0.008143566 0.06745864 0.03791218 -0.15120986 -0.08507646 0.1652812
0.023048373 -0.061305407 0.019682406 0.06785081 -0.09237213 0.030802658 0.13396645 -0.03461096
0.24134041 0.010599439 0.059788305 0.071495175 -0.025360106 0.041949462 -0.1142026 0.06529757
00000000: 2397 28bd caa3 e5bb cd24 663d ffc8 973d
00000010: 2afd 7a3d 86da 803d cc8b 113d d738 31be
00000020: 1982 033e 16c1 9a3d 9161 f6bd 2998 73bd
00000030: f289 91bc 49b5 923d 8cad 4c3e 2562 c9bd
00000040: 1565 46bd b118 d4bd 1f04 15bd 3adb 96bd
00000050: 136d 493e ad6a aebd 67fc 1a3e e18e 99bd
00000060: 98f2 bbbc 0724 48bd 9e5c ebbd 2e37 06bd
00000070: 513a 2e3c 5ace 15be 92fc 4dbd ffba b9bd
00000080: ac88 ae3d 2c3f eb3d 953b 7bbd 9559 67be
00000090: ca6e 35bd 5a67 03be 1f35 3abd d455 c6bd
000000a0: 5ec9 e03c 7715 6a3b dbfa 00bb c204 2abe
000000b0: 89c5 463d 9657 543e 4757 cdbd 5ec6 ccbd
000000c0: 5bb9 2bbd 8588 843c 1399 f83d a482 d4bc
000000d0: 5aa6 80bd f3e7 08be 59ab 2bbc 773e cebd
000000e0: 8c73 513d 0e26 2dbe fcb3 14bd f856 453e
000000f0: 359d a53b 4f26 b53d bb11 ea3c 3d20 d53c
00000100: c137 90bc 167f 4d3b c72d fabc b8a8 1a3e
00000110: 7694 b83d 71bb 9cbd bef2 103d 6f68 27bb
00000120: fb9c 663d 8a56 92bd d916 1f3e fab8 b2bb
00000130: ea62 b9bd ad61 05be f05a 6d3e cee9 1a3c
00000140: 1ace 31bd 9aaa 5f3d 2707 ad3a 9720 b8bb
00000150: 570f 84bd 0f73 0e3d e319 753d 0c2f 96bd
00000160: a9aa 5cbc 2771 443c f95e 383c c529 4bbd
00000170: ef57 233d 2f5a 15be b708 28bd 0339 cb3c
00000180: 588c ddbc dba1 e53c 9983 81bd fc86 ecbd
00000190: 0137 9abd b44b 9b3d 9d43 df3d 193d 353d
000001a0: 1a8d e83d cc89 df3c 15aa f1bc 7d1a 9e3b
000001b0: e486 5b3d d7d9 693d 33bd 333d 4d50 d9bc
000001c0: db61 05be c509 433a 9624 86bd f5c0 f83d
000001d0: 6a4c 01be b443 2abd d44a 333d 7462 9a3d
000001e0: 56b3 873b 4433 3dbc 3a9f 0dbc 86e3 243d
000001f0: 81da 1d3d 50aa 58be 95fc 853b 3c08 afbd
00000200: d8d4 e23b f439 1f3d 6d89 013e 32bc 283c
00000210: a8d0 21bd 77b4 fb3d 4d09 67bd 55fa 3c3d
00000220: 1a65 d8bd be94 853d c307 f83c a565 21bd
00000230: 7bce 92bd 58eb 843e acf8 80bd fd20 c53d
00000240: 11b9 a9bc a8f8 223d 7c0a 19be 0740 813d
00000250: dc2b 933c 1dfb 08be e6f7 b13d 77a4 c13d
00000260: edbf e1bd c7d5 5bbd 85ee c0bd 91aa 243d
00000270: 5f3e c03b c1dd d43b 00ff f4bd d48c d9bd
00000280: 2fa5 7d3e 5b18 b9bd d501 d8bd bde7 a03c
00000290: aa5e 8b3c bafe 503c 70af 44bd 8b9b 693d
000002a0: da3c 163d b89c 273e 839b c5bd c411 853d
000002b0: ac40 6c3e 5c22 35bd a11e 07be 3362 2fbc
000002c0: c802 b1bd 92ac d1bd d464 123e 642e 9c3d
000002d0: 8851 613d 80a7 83bd 2824 cf3d 97a4 99bd
000002e0: cf8c 11be cf3f 49bd 46e4 86bd f084 38be
000002f0: 938e cc3d ece9 7dbd befc 7abd e485 b63d
00000300: 9cbb 4fbd 9737 863c b9ea c2bd c73e b73d
00000310: 12f2 bc3d 18a5 a93b 7118 113e bdad f0bc
00000320: 98a8 48bb ea83 3dbe 2df3 7b3d a43f 7cbd
00000330: 3879 e53d f327 0a3d 7eec a0bd df06 25bc
00000340: 6798 cbba 20ac 95bb 6f62 f9bc e2c1 94bc
00000350: 2b11 f03d 01bf e5bc 058d 9cbc 2876 efbc
00000360: 984f 51be a8ef 07bd c560 9e3d 7ca5 e13c
00000370: b25b 14bd 3f1b 93bc 0678 06be 2ccf f3bd
00000380: e977 063d 205a 0cbd e73a f03d 32da 823d
00000390: 546e 9a3d 92e8 8cbb fadc 0abc 6b73 253c
000003a0: 36a5 9f3d 4425 ba3d 976c 053c c127 8a3d
000003b0: cd49 1b3d c2d6 1abe 913c aebd 7a3f 293e
000003c0: f1cf bc3c 611b 7bbd ff3c a13c 5ef5 8a3d
000003d0: 992d bdbd db55 fc3c 802e 093e 39c4 0dbd
000003e0: f121 773e 45a9 2d3c 95e4 743d 106c 923d
000003f0: ffbf cfbc 33d3 2b3d 0ee3 e9bd bbba 853d

network_body._body_endoder.seq_layers.2.bias f4 [128]
0.0 0.0 0.0 0.0 0.0 0.0 0.0 0.0
0.0 0.0 0.0 0.0 0.0 0.0 0.0 0.0
0.0 0.0 0.0 0.0 0.0 0.0 0.0 0.0
0.0 0.0 0.0 0.0 0.0 0.0 0.0 0.0
0.0 0.0 0.0 0.0 0.0 0.0 0.0 0.0
0.0 0.0 0.0 0.0 0.0 0.0 0.0 0.0
0.0 0.0 0.0 0.0 0.0 0.0 0.0 0.0
0.0 0.0 0.0 0.0 0.0 0.0 0.0 0.0
0.0 0.0 0.0 0.0 0.0 0.0 0.0 0.0
0.0 0.0 0.0 0.0 0.0 0.0 0.0 0.0
0.0 0.0 0.0 0.0 0.0 0.0 0.0 0.0
0.0 0.0 0.0 0.0 0.0 0.0 0.0 0.0
0.0 0.0 0.0 0.0 0.0 0.0 0.0 0.0
0.0 0.0 0.0 0.0 0.0 0.0 0.0 0.0
0.0 0.0 0.0 0.0 0.0 0.0 0.0 0.0
0.0 0.0 0.0 0.0 0.0 0.0 0.0 0.0
00000000: 0000 0000 0000 0000 0000 0000 0000 0000
00000010: 0000 0000 0000 0000 0000 0000 0000 0000
00000020: 0000 0000 0000 0000 0000 0000 0000 0000
00000030: 0000 0000 0000 0000 0000 0000 0000 0000
00000040: 0000 0000 0000 0000 0000 0000 0000 0000
00000050: 0000 0000 0000 0000 0000 0000 0000 0000
00000060: 0000 0000 0000 0000 0000 0000 0000 0000
00000070: 0000 0000 0000 0000 0000 0000 0000 0000
00000080: 0000 0000 0000 0000 0000 0000 0000 0000
00000090: 0000 0000 0000 0000 0000 0000 0000 0000
000000a0: 0000 0000 0000 0000 0000 0000 0000 0000
000000b0: 0000 0000 0000 0000 0000 0000 0000 0000
000000c0: 0000 0000 0000 0000 0000 0000 0000 0000
000000d0: 0000 0000 0000 0000 0000 0000 0000 0000
000000e0: 0000 0000 0000 0000 0000 0000 0000 0000
000000f0: 0000 0000 0000 0000 0000 0000 0000 0000
00000100: 0000 0000 0000 0000 0000 0000 0000 0000
00000110: 0000 0000 0000 0000 0000 0000 0000 0000
00000120: 0000 0000 0000 0000 0000 0000 0000 0000
00000130: 0000 0000 0000 0000 0000 0000 0000 0000
00000140: 0000 0000 0000 0000 0000 0000 0000 0000
00000150: 0000 0000 0000 0000 0000 0000 0000 0000
00000160: 0000 0000 0000 0000 0000 0000 0000 0000
00000170: 0000 0000 0000 0000 0000 0000 0000 0000
00000180: 0000 0000 0000 0000 0000 0000 0000 0000
00000190: 0000 0000 0000 0000 0000 0000 0000 0000
000001a0: 0000 0000 0000 0000 0000 0000 0000 0000
000001b0: 0000 0000 0000 0000 0000 0000 0000 0000
000001c0: 0000 0000 0000 0000 0000 0000 0000 0000
000001d0: 0000 0000 0000 0000 0000 0000 0000 0000
000001e0: 0000 0000 0000 0000 0000 0000 0000 0000
000001f0: 0000 0000 0000 0000 0000 0000 0000 0000

action_model._continuous_distribution.log_sigma f4 [1, 2]
0.0 0.0
00000000: 0000 0000 0000 0000

action_model._continuous_distribution.mu.weight f4 [2, 128]
0.005477615 -0.015369318 0.021870067 -0.002256234 -0.007827815 0.0022889483 0.0017530917 0.012554134
0.026516056 0.05318601 -0.002666873 -0.025727466 0.0072440617 -0.018993918 -0.01999714 0.010613262
-0.026487125 -0.0013782642 -0.007414728 -0.031221142 -0.0018452827 -0.0061966716 0.014417201 -0.012056748
0.010613251 -0.012809472 -0.00046190247 -0.021310996 -0.0062263864 0.015410865 -0.038861506 -0.029655997
-0.005469339 0.012245502 -0.00414928 -0.015496895 0.00022629915 0.005095611 -0.015353649 -0.018621322
-0.014544259 0.02249135 0.048230436 -0.0037722897 0.013290328 0.011162034 -0.015028042 0.0059555075
-0.01905918 0.0014084076 0.006964203 -0.005196272 0.02950338 0.015871076 0.014074057 -0.025397321
0.012994121 -0.00719563 -0.0130945165 0.0009655459 0.026341146 -0.010476477 0.036096822 0.008094505
-0.03003238 -0.010326329 -0.008200677 0.025385141 -0.02881788 -0.018407086 0.003189625 -0.016344398
-0.019760748 -0.040133182 -0.018016672 0.028987763 0.016560422 -0.022340177 0.012897583 0.020999994
-0.009336995 -0.0046084803 -0.0011214575 -0.006053734 0.017262323 -0.0134308925 -0.037994877 -0.018808004
0.022347016 -0.021669624 -0.006377694 0.0029259424 -0.0070612854 -0.0090539595 0.029048508 0.0014912067
0.0003189833 -0.0016547379 0.023519395 -0.0007322981 0.00096806895 0.0017806179 0.010756494 -0.00058234617
-0.009749103 -0.015694946 -0.021094821 0.0117361555 0.004624822 -0.025957262 0.012860487 0.008606499
-0.0124595985 0.0036718638 -0.023106895 -0.012535663 -0.020285938 0.02264209 0.022892676 0.0016744257
-0.04127459 0.014642087 0.003451417 -0.012701899 0.0063861446 0.019413467 -0.014111887 -0.017926598
0.009723172 0.015713241 0.0025982726 0.019714734 -0.019525314 0.024104243 0.05721107 -0.018423904
-0.049360607 -0.029898912 -0.03005833 -0.023313623 0.020956611 -0.0001245691 -0.016328009 0.039733764
0.037689183 0.00760405 0.029001007 -0.024108455 0.044946533 0.0046777376 -0.015607312 0.020570425
0.016516361 0.0075599435 -0.012321256 0.0136739705 0.0073365965 0.0027208605 0.0034307812 0.004174908
-0.016347334 -0.0032400393 0.01042623 -0.0015624735 -0.018984819 -0.03938535 -0.042084735 -0.005684522
-0.002171626 0.004780819 0.039507065 0.00093116984 -0.005954016 0.021557907 -0.0014268373 0.016543016
-0.014098065 -0.0017543111 0.006867792 -0.017546562 0.012696109 -0.0019815285 0.012277006 -0.019934926
0.0037967775 0.009521595 0.011072446 0.0052353907 -0.0014403205 -0.016239895 0.008949408 0.005711113
-0.023455938 0.025119767 -0.016152257 0.011433755 -0.005627907 0.018191773 -0.0028716305 0.017641393
0.01560808 -0.009034117 0.017633379 -0.01721638 0.030085636 -0.017307706 -0.010265773 0.02713269
0.0032696978 0.003732764 -0.029425357 -0.012674305 -0.02375663 -0.027050942 -0.0024877887 0.0028422119
0.014427911 -0.009423705 0.012189201 0.025164878 -0.00015680148 -0.011319551 -0.027313892 0.0011492813
-0.0118844835 0.019935967 0.008048561 0.0351475 -0.0018207474 -0.017874474 0.019566642 -0.004053715
-0.030669147 -0.012495692 -0.01121248 -0.0012866299 0.00091366965 0.0023133548 -0.030505126 0.016161865
-0.00065145706 -0.0015202774 0.017905517 0.0064630657 0.007285101 -0.005867102 0.0092925755 -0.011548518
0.008894279 -0.0033666694 -0.008415869 0.023335721 -0.0030238433 0.010244993 0.025025168 -0.0061680516
00000000: 917d b33b 98cf 7bbc db28 b33c 53dd 13bb
00000010: 3c40 00bc 2e02 163b ffc7 e53a dbaf 4d3c
00000020: 3338 d93c 93d9 593d b4c6 2ebb 68c2 d2bc
00000030: 985f ed3b 2299 9bbc 0bd1 a3bc 3fe3 2d3c
00000040: 87fb d8bc dfa6 b4ba 3ff7 f2bb 7bc3 ffbc
00000050: 6add f1ba 730d cbbb 2036 6c3c ab89 45bc
00000060: 33e3 2d3c d2de 51bc 802b f2b9 6694 aebc
00000070: b706 ccbb da7d 7c3c 3e2d 1fbd 22f1 f2bc
00000080: 2438 b3bb 5ca1 483c aff6 87bb b0e6 7dbc
00000090: b74a 6d39 15f9 a63b df8d 7bbc be8b 98bc
000000a0: 0b4b 6ebc c83f b83c 478d 453d 8538 77bb
000000b0: adbf 593c f7e0 363c 2d38 76bc 6b26 c33b
000000c0: ff21 9cbc 519a b83a f833 e43b 7d45 aabb
000000d0: 13b1 f13c 0f04 823c e096 663c 0b0e d0bc
000000e0: 4be5 543c 52c9 ebbb 628a 56bc b01c 7d3a
000000f0: 63c9 d73c 88a5 2bbc 43da 133d d19e 043c
00000100: 7706 f6bc c32f 29bc 225c 06bc 80f4 cf3c
00000110: 7a13 ecbc 75ca 96bc 0709 513b b0e4 85bc
00000120: 4be1 a1bc b162 24bd b397 93bc bf77 ed3c
00000130: b9a9 873c bf02 b7bc 6250 533c 2e08 ac3c
00000140: 32fa 18bc bc02 97bb dffd 92ba 675e c6bb
00000150: b769 8d3c 3f0d 5cbc 84a0 1bbd 3e13 9abc
00000160: 1711 b73c 7f84 b1bc fafb d0bb 2bc1 3f3b
00000170: 5b62 e7bb 0f57 14bc 23f7 ed3c 9874 c33a
00000180: 373d a739 cae3 d8ba bfab c03c b2f7 3fba
00000190: 02c6 7d3a 9f63 e93a 013c 303c 97a8 18ba
000001a0: b4ba 1fbc b092 80bc 0ccf acbc 0149 403c
000001b0: d28b 973b 53a4 d4bc cbb4 523c 4602 0d3c
000001c0: 5823 4cbc a7a3 703b ac4a bdbc 6262 4dbc
000001d0: b22e a6bc e87b b93c 6c89 bb3c 6778 db3a
000001e0: 8b0f 29bd 5de5 6f3c 2b31 623b a01b 50bc
000001f0: dd42 d13b fe08 9f3c 8b35 67bc cdda 92bc
00000200: f04d 1f3c 0eb9 803c c847 2a3b cb80 a13c
00000210: 8df3 9fbc 4376 c53c 2856 6a3d baed 96bc
00000220: 592e 4abd 90ee f4bc e33c f6bc 36fc bebc
00000230: 33ad ab3c c39e 02b9 51c2 85bc dfbf 223d
00000240: f95f 1a3d 652b f93b 8593 ed3c 187f c5bc
00000250: db19 383d b547 993b d0b5 7fbc 4f83 a83c
00000260: 524d 873c 67b9 f73b 18df 49bc ca08 603c
00000270: d567 f03b 7750 323b f5d6 603b abcd 883b
00000280: d8ea 85bc d756 54bb c7d2 2a3c e9cb ccba
00000290: 0d86 9bbc 8852 21bd 0b61 2cbd 3a45 babb
000002a0: d751 0ebb 6ba8 9c3b 29d2 213d c019 743a
000002b0: e819 c3bb 359a b03c b704 bbba 3885 873c
000002c0: 92fb 66bc eaf0 e5ba 370b e13b cfbd 8fbc
000002d0: 5703 503c 88dc 01bb 7f25 493c 924e a3bc
000002e0: 5bd3 783b 7700 1c3c 3469 353c a48d ab3b
000002f0: 23c9 bcba 8709 85bc 8aa0 123c 4a24 bb3b
00000300: ab26 c0bc f8c7 cd3c bd51 84bc a554 3b3c
00000310: 4e6a b8bb ea06 953c f731 3cbb af84 903c
00000320: 08b9 7f3c d503 14bc e073 903c 5e09 8dbc
00000330: 2776 f63c e4c8 8dbc c631 28bc 6045 de3c
00000340: 6d48 563b 63a1 743b 720d f1bc e3a7 4fbc
00000350: 449d c2bc f099 ddbc 2b0a 23bb 6744 3a3b
00000360: 0b63 6c3c e265 1abc 37b5 473c 9326 ce3c
00000370: 146b 24b9 a375 39bc 62c1 dfbc 7ba3 963a
00000380: 23b7 42bc c150 a33c 1dde 033c d3f6 0f3d
00000390: 25a6 eeba 7d6d 92bc 394a a03c 07d5 84bb
000003a0: dd3d fbbc bbba 4cbc 8db4 37bc 23a4 a8ba
000003b0: 5583 6f3a a79b 173b e3e5 f9bc e365 843c
000003c0: 8bc6 2aba 0b44 c7ba 97ae 923c 20c8 d33b
000003d0: dbb7 ee3b d240 c0bb e33f 183c ff35 3dbc
000003e0: 4fb9 113c 57a3 5cbb b7e2 09bc 8e2a bf3c
000003f0: ac2b 46bb 9dda 273c 9501 cd3c 5e1d cabb

action_model._continuous_distribution.mu.bias f4 [2]
0.0 0.0
00000000: 0000 0000 0000 0000

action_model._discrete_distribution.branches.0.weight f4 [2, 128]
8.191223e-05 0.014605939 -0.0234481 0.007873009 -0.0056839115 -0.0030167976 -0.007432297 -0.00028959653
-0.019933883 0.014730373 0.0049574734 0.010089936 0.002472719 -0.0094966795 -0.0045455266 -0.0012258734
-0.01763904 0.0018294128 0.01344353 -0.00287028 -0.0032779712 0.012746597 0.005552649 0.015345387
-0.0066785426 -0.0022476276 0.008240199 0.0034077272 -0.013595062 0.0070498697 0.0010337223 -0.004810089
-2.6177173e-05 0.0030690765 0.00047366056 0.017026974 -0.0022543238 0.008070581 -0.0031946579 0.012477186
-0.008862953 0.007572031 0.0066365288 0.01113633 0.0024629696 -0.005781805 0.00559222 -0.012853145
-0.003563434 0.01751863 0.0065329345 0.016832387 0.0007296395 -0.0013987628 -3.8601665e-05 0.0009922754
0.0013714404 0.011535431 0.012303519 5.4039032e-05 -0.010119245 0.0055700857 -0.00801451 0.0016276323
-0.0026953532 0.0020037703 0.0055124178 0.0011564315 -0.0028252674 0.0014178979 0.0058200387 0.004090424
-0.0145865055 0.0129839955 -0.007253632 -0.0010233123 -0.0004341073 -0.0042584366 0.012279894 -0.00852435
0.0063907406 0.0008646656 0.008459779 0.0016370872 -0.00582171 -0.007094301 -0.003848843 -0.007324829
0.010407691 0.010040296 0.0049475394 0.0001625874 0.01301112 0.0087693 -0.0020150037 0.007926545
-0.013115972 -0.002027117 0.002365227 -0.02335109 0.0005711502 0.006183215 -0.007030719 -0.0028409255
-0.014099193 0.00262849 -0.002223241 -0.004589463 -0.0001181116 0.019221183 0.013788818 0.014995542
0.010520637 -0.013174473 0.01120095 0.0032373413 0.0015670167 -0.005877392 0.016063334 -0.0004921616
-0.01125613 0.01492548 0.0032239675 -0.013977515 -0.0069438475 0.008616109 0.0018789152 -0.0031529178
-0.002231154 0.009698381 0.007883892 0.008859239 0.006127587 -0.0040504737 -0.011489215 0.0009993425
-0.0049481452 -0.009117492 0.012722536 -0.0011686318 0.009128004 -0.0014809318 0.013833349 0.0029521969
-0.0059269625 -0.0009388346 -0.00042154847 0.0076239533 -0.0108772805 0.009816197 -0.00900443 0.015609785
-0.010069415 -0.012917133 0.0033213594 -0.012111101 0.005048359 0.010675386 0.0037914824 -0.003917251
0.0026597779 0.0043907478 0.010686343 0.013328971 -0.0071324566 -0.011183574 0.018852323 0.0049653808
0.0049268524 0.0070406953 0.0037080322 0.008981012 -0.007481081 -0.0032117837 0.014054916 -0.014088295
-0.0010836164 -0.0031553356 -0.0030512942 0.01782028 -0.010551592 0.011479701 -0.0056624054 -0.010832355
0.0029805296 -0.016551688 0.0090624895 0.008128374 -0.008051248 0.0010895723 0.0049555553 0.0033290691
0.009574795 -0.0031986372 0.011655076 0.022411179 0.009658105 0.004935706 -0.022804469 0.0041811233
0.019629756 0.009803612 -0.0006034924 0.0026687763 0.024648722 0.002322912 -0.010960948 -0.008060702
0.0059981463 -0.0040197354 -0.018914966 0.0019512838 -0.003964964 0.0004226671 0.012082365 -0.011826299
-0.0037484844 0.0074044405 0.01122772 -0.005810449 -0.0027550214 -0.011751386 -0.010401603 -0.003939669
-0.006438117 0.0059339353 0.0067836777 -0.0020421534 -0.0014462442 0.0047799484 -0.0114816055 -0.008168367
-0.0060146763 0.013694795 0.011179798 0.0064008455 -0.0004811217 0.015680028 0.0014582275 0.0036221973
0.0028234567 0.0029577278 0.0039275447 -0.0030965905 -0.012663786 0.0057378933 -0.014409347 -0.007130574
-0.003245667 -0.0059363456 -0.0027775317 0.0005708458 -0.0016925235 0.0023357891 0.019244662 0.0049435343
00000000: 4bc8 ab38 c04d 6f3c 3b16 c0bc cbfd 003c
00000010: 1b40 babb 77b5 45bb a08a f3bb fdd4 97b9
00000020: 624c a3bc aa57 713c 4d72 a23b 4250 253c
00000030: 570d 223b f697 1bbc a4f2 94bb 7cad a0ba
00000040: bf7f 90bc e8c8 ef3a 4042 5c3c 4f1b 3cbb
00000050: 3bd3 56bb 1ad7 503c fff2 b53b 386b 7b3c
00000060: add7 dabb ef4c 13bb e601 073c 2d54 5f3b
00000070: d3bd 5ebc 9802 e73b f77d 873a f39d 9dbb
00000080: 0d97 dbb7 8f22 493b a555 f839 277c 8b3c
00000090: 47bd 13bb 783a 043c 775d 51bb 1c6d 4c3c
000000a0: eb35 11bc cd1e f83b 3d77 d93b 2775 363c
000000b0: c669 213b 4c75 bdbb f13e b73b ff95 52bc
000000c0: 8088 69bb 3b83 8f3c 3a12 d63b 13e4 893c
000000d0: 4745 3f3a b156 b7ba 39e8 21b8 3d0f 823a
000000e0: e7c1 b33a 1bff 3c3c b394 493c f8a7 6238
000000f0: 31cb 25bc 4485 b63b 4b4f 03bc 4756 d53a
00000100: 86a4 30bb b051 033b 83a1 b43b 6793 973a
00000110: 1f28 39bb c2d8 b93a 06b6 be3b f708 863b
00000120: 3dfc 6ebc d3ba 543c e0af edbb aa20 86ba
00000130: e598 e3b9 5b8a 8bbb 9c31 493c b7a9 0bbc
00000140: 6b69 d13b baaa 623a e39a 0a3c 8893 d63a
00000150: 0bc4 bebb 4f77 e8bb df3c 7cbb 1f05 f0bb
00000160: 0585 2a3c 0e80 243c f81e a23b 397c 2a39
00000170: 982c 553c 1cad 0f3c 270e 04bb 57de 013c
00000180: 60e4 56bc 61d9 04bb ed01 1b3b c94a bfbc
00000190: 3eb9 153a 919c ca3b f261 e6bb d22e 3abb
000001a0: 4d00 67bc bf42 2c3b cbb3 11bb 3563 96bb
000001b0: afb2 f7b8 be75 9d3c 7fea 613c ddaf 753c
000001c0: c05e 2c3c bfd9 57bc 3084 373c 9329 543b
000001d0: 5b64 cd3a 2397 c0bb 4197 833c 6804 01ba
000001e0: a26b 38bc 008a 743c 3349 533b f201 65bc
000001f0: 3789 e3bb 952a 0d3c ef45 f63a 2fa1 4ebb
00000200: 8d38 12bb f5e5 1e3c 712b 013c 5726 113c
00000210: edc9 c83b d6b9 84bb 433d 3cbc 5ffc 823a
00000220: 0d24 a2bb 8861 15bc 2f72 503c c72c 99ba
00000230: a08d 153c d31b c2ba 45a5 623c a579 413b
00000240: f736 c2bb 201c 76ba 4703 ddb9 5bd2 f93b
00000250: 9f36 32bc 1dd4 203c 5187 13bc 2fc0 7f3c
00000260: 30fa 24bc 62a2 53bc 2aab 593b a46d 46bc
00000270: b46c a53b d0e7 2e3c 857a 783b 485c 80bb
00000280: ab4f 2e3b 43e0 8f3b c515 2f3c c261 5a3c
00000290: 62b7 e9bb 4f3b 37bc 3070 9a3c a2b4 a23b
000002a0: 6f71 a13b a2b5 e63b 7502 733b 1825 133c
000002b0: db23 f5bb ca7c 52bb 9746 663c 98d2 66bc
000002c0: 2208 8eba bfc9 4ebb 39f8 47bb d6fb 913c
000002d0: 96e0 2cbc 5b15 3c3c b38b b9bb 317a 31bc
000002e0: fd54 433b 6897 87bc d67a 143c df2c 053c
000002f0: 62e9 03bc fbcf 8e3a 3662 a23b 832c 5a3b
00000300: 9adf 1c3c 3aa0 51bb eff4 3e3c a697 b73c
00000310: 073d 1e3c b4bb a13b 70d0 babc ce01 893b
00000320: 95ce a03c 549f 203c b033 1eba a3e6 2e3b
00000330: 1eec c93c ff3b 183b 8c95 33bc 0911 04bc
00000340: 198c c43b fcb7 83bb 8ff3 9abc 38c2 ff3a
00000350: 87ec 81bb 6b99 dd39 1df5 453c 18c3 41bc
00000360: 22a9 75bb f3a0 f23b 79f4 373c 9465 bebb
00000370: 978d 34bb e388 40bc 7c6b 2abc 5718 81bb
00000380: d7f6 d2bb 7571 c23b 9d49 de3b a6d5 05bb
00000390: e78f bdba 1da1 9c3b 581d 3cbc 9dd4 05bc
000003a0: c316 c5bb 2260 603c 792b 373c 2fbe d13b
000003b0: 103f fcb9 6773 803c ff21 bf3a 6362 6d3b
000003c0: be09 393b 70d6 413b a2b2 803b 2bf0 4abb
000003d0: c57b 4fbc f004 bc3b 2f15 6cbc 97a7 e9bb
000003e0: 42b5 54bb ad85 c2bb 4007 36bb d0a4 153a
000003f0: aad7 ddba 0a14 193b fba6 9d3c 5ffd a13b

action_model._discrete_distribution.branches.0.bias f4 [2]
0.0 0.0
00000000: 0000 0000 0000 0000

network_body._body_endoder.seq_layers.0.weight f4 [128, 4]
-0.28374875 0.33291316 0.54805726 0.7087516 -0.28700405 0.12393322 -0.15627736 -0.6007282
-0.05883816 0.9507072 -0.3959928 -0.10724491 -0.7829446 0.8114654 0.17081635 -0.36795554
-0.90095943 0.8036288 0.4328661 0.7218459 -0.08293835 0.561915 0.12591165 -0.1667676
0.7200535 0.10194105 0.40486294 0.39921758 -0.055293478 -0.08439097 -0.5947304 0.57482064
-0.3110998 -0.24118717 1.061646 -0.30498803 -0.27877924 1.0317307 0.00638312 0.44771948
-0.04012423 -0.62587523 0.021204501 0.13984627 0.74913245 0.20126311 -0.02523704 0.26467332
-0.4523526 -0.8870982 -0.79890436 -0.17451458 -0.5207982 0.53359115 0.23113225 -0.20048232
-0.69718164 -0.31558475 0.29164436 0.5180257 0.036337215 -0.5836109 0.2959222 -0.33164766
0.04404003 0.6078384 0.11740194 -0.22894073 -0.6653028 -0.025687862 0.40097174 -0.15128131
0.7106607 0.06405576 -0.3210823 0.09810473 -0.54471326 -0.45699838 -0.6503526 -0.7979504
1.0248051 -0.78549224 -0.14894605 -0.60340285 -1.1848726 -0.52497184 -0.587598 -0.29211563
-1.2326111 -0.10286093 0.5689873 0.04951761 -0.4642039 -0.79871666 0.070511065 0.62073517
-0.21268965 0.0032294395 -0.18162233 0.26642904 0.16475351 0.19719109 0.13742603 -0.04282553
-0.12983409 -0.66613 -0.3072574 0.2740798 0.40859354 -0.21955593 0.46945742 -0.19581316
0.16954002 -0.27567524 0.4388644 1.230234 -0.35971984 0.26082864 0.62912434 0.41366488
0.9179469 -0.05958277 -0.5343792 0.9563788 0.16838546 0.60642195 0.49721718 0.096313015
-0.04155068 -0.9812241 -0.5789176 -0.70208496 -0.28340188 -0.83861166 0.41076896 -0.21632025
0.2933108 0.1873847 0.44467905 -0.3045169 -0.059388515 0.48541996 1.0910184 0.372098
-0.29976603 -2.0304039 -0.18425773 -0.9553566 0.03140983 -0.02903189 0.7350197 -0.008570048
0.13913555 0.026850007 -0.09879266 -1.0162615 0.6371214 -0.8602261 -0.01869819 -0.44272897
-0.64346784 -0.24893454 0.22539023 0.15983722 -0.046225 -0.3884166 -0.097244754 -0.39362228
0.24494444 -0.20136115 -0.09422425 -0.08629128 -0.0024320486 0.39056984 -0.100779474 -0.1517598
0.8249704 -0.02455604 0.245137 0.1591263 -0.35511392 -0.039198786 -0.2546549 -1.2087643
1.2881392 -0.21737175 1.2980739 0.7172728 0.6325532 0.54476196 0.11777485 -0.16852054
0.58540124 -0.19161592 0.027258692 0.5817465 0.44918248 -0.37096572 0.12702021 -0.5016448
-0.26475534 0.04393954 0.22419503 -0.4412154 0.6491663 0.024612052 -0.23264739 1.0679325
0.75282776 -0.8574258 -0.21489646 0.09294613 -0.23398252 -0.49728546 -0.8268225 -0.06104471
-0.47048643 -0.22636454 0.39862055 -0.02306929 -0.41538724 0.33445027 -0.07473021 -0.40102407
-0.32149026 0.23993732 -0.82700056 -0.18066242 0.09005323 0.18012711 -0.16338666 -0.2512947
0.043342907 -1.0899596 0.19528577 -0.7293721 0.6394953 -0.236186 -0.22704312 0.14670432
-0.25443983 0.06593019 -0.24608962 0.6794267 -0.70874715 -0.1690193 -0.35311523 -1.3568548
-0.3421523 0.62058705 -0.25749096 0.7541924 0.36502132 0.4747226 0.56932014 0.37633523
00000000: 8447 91be 9873 aa3e 7b4d 0c3f bf70 353f
00000010: 32f2 92be b3d0 fd3d 2c07 20be 53c9 19bf
00000020: 4800 71bd 8c61 733f 91bf cabe 38a3 dbbd
00000030: 0f6f 48bf 32bc 4f3f 7bea 2e3e ab64 bcbe
00000040: 47a5 66bf 9eba 4d3f a0a0 dd3e e5ca 383f
00000050: 95db a9bd a9d9 0f3f fcee 003e 20c5 2abe
00000060: 6d55 383f 78c6 d03d 324a cf3e 3f66 cc3e
00000070: 6a7b 62bd 2cd5 acbd 4040 18bf 7227 133f
00000080: 7948 9fbe c5f9 76be 04e4 873f 6427 9cbe
00000090: 27bc 8ebe c00f 843f 7e29 d13b 7d3b e53e
000000a0: 4e59 24bd 5c39 20bf 10b5 ad3c dc33 0f3e
000000b0: 25c7 3f3f eb17 4e3e e9bd cebc 4383 873e
000000c0: c39a e7be de18 63bf ff84 4cbf f3b3 32be
000000d0: 0853 05bf 6e99 083f efad 6c3e 3d4b 4dbe
000000e0: 7f7a 32bf 5394 a1be 6952 953e 559d 043f
000000f0: 55d6 143d 8667 15bf 1d83 973e b9cd a9be
00000100: 5263 343d 4c9b 1b3f 6e70 f03d 706f 6abe
00000110: 4951 2abf 5a6f d2bc 2b4c cd3e 7de9 1abe
00000120: dced 353f ab2f 833d e664 a4be 22eb c83d
00000130: 5472 0bbf b1fb e9be 827d 26bf 7a46 4cbf
00000140: d02c 833f 0516 49bf 5085 18be 9c78 1abf
00000150: e8a9 97bf 8e64 06bf d36c 16bf 2e90 95be
00000160: 33c6 9dbf c0a8 d2bd 27a9 113f fad2 4a3d
00000170: 22ac edbe b278 4cbf 1b68 903d 80e8 1e3f
00000180: 51cb 59be 01a5 533b 34fb 39be 6369 883e
00000190: 25b5 283e 76ec 493e 69b9 0c3e d369 2fbd
000001a0: 3af3 04be 7f87 2abf d850 9dbe 3054 8c3e
000001b0: 2c33 d13e 45d3 60be b95c f03e 3f83 48be
000001c0: e69b 2d3e 4e25 8dbe d6b2 e03e 4f78 9d3f
000001d0: 332d b8be 558b 853e 4b0e 213f e2cb d33e
000001e0: 91fe 6a3f 100d 74bd 13cd 08bf 3ed5 743f
000001f0: 3d6d 2c3e 783e 1b3f 4093 fe3e c23f c53d
00000200: 0c31 2abd 8131 7bbf f233 14bf d7bb 33bf
00000210: 0d1a 91be 41af 56bf 4f50 d23e 0e83 5dbe
00000220: d52c 963e c6e1 3f3e f9ac e33e a4e9 9bbe
00000230: 5f41 73bd f788 f83e 7ea6 8b3f a183 be3e
00000240: ef7a 99be 23f2 01c0 0fae 3cbe 4092 74bf
00000250: 98a7 003d 49d4 edbc 402a 3c3f 6369 0cbc
00000260: 8d79 0e3e 8cf4 db3c ce53 cabd db14 82bf
00000270: 631a 233f c737 5cbf f22c 99bc 5fad e2be
00000280: 4fba 24bf b2e8 7ebe b2cc 663e 5eac 233e
00000290: 6d56 3dbd 8ade c6be 4228 c7bd dc88 c9be
000002a0: b7d2 7a3e 9e31 4ebe a5f8 c0bd 7cb9 b0bd
000002b0: 0163 1fbb c5f8 c73e 7865 cebd ec66 1bbe
000002c0: 4331 533f c029 c9bc 3205 7b3e 01f2 223e
000002d0: 7ed1 b5be e88e 20bd 2162 82be cab8 9abf
000002e0: bfe1 a43f b396 5ebe 4927 a63f 319f 373f
000002f0: 02ef 213f 8575 0b3f f133 f13d a690 2cbe
00000300: dbdc 153f f736 44be 9f4d df3c 57ed 143f
00000310: 3ffb e53e 38ef bdbe 9611 023e cb6b 00bf
00000320: 038e 87be f2f9 333d 6293 653e fce6 e1be
00000330: c32f 263f 379f c93c 1e3b 6ebe 03b2 883f
00000340: 52b9 403f 4280 5bbf d10d 5cbe 8a5a be3d
00000350: 1d99 6fbe 339c febe a4aa 53bf 050a 7abd
00000360: 99e3 f0be 1bcc 67be fe17 cc3e cffb bcbc
00000370: a3ad d4be 113d ab3e 270c 99bd 0753 cdbe
00000380: 5f9a a4be 21b2 753e 4fb6 53bf 92ff 38be
00000390: d46d b83d 3e73 383e d54e 27be b3a9 80be
000003a0: 5588 313d cc83 8bbf fef8 473e 21b8 3abf
000003b0: f7b5 233f beda 71be fe7d 68be a839 163e
000003c0: f045 82be 6806 873d ebfe 7bbe e9ee 2d3f
000003d0: 7470 35bf 6513 2dbe 85cb b4be 6bad adbf
000003e0: 962e afbe cbde 1e3f dbd5 83be c112 413f
000003f0: 13e4 ba3e d70e f33e f7be 113f 03af c03e

network_body._body_endoder.seq_layers.0.bias f4 [128]
0.0 0.0 0.0 0.0 0.0 0.0 0.0 0.0
0.0 0.0 0.0 0.0 0.0 0.0 0.0 0.0
0.0 0.0 0.0 0.0 0.0 0.0 0.0 0.0
0.0 0.0 0.0 0.0 0.0 0.0 0.0 0.0
0.0 0.0 0.0 0.0 0.0 0.0 0.0 0.0
0.0 0.0 0.0 0.0 0.0 0.0 0.0 0.0
0.0 0.0 0.0 0.0 0.0 0.0 0.0 0.0
0.0 0.0 0.0 0.0 0.0 0.0 0.0 0.0
0.0 0.0 0.0 0.0 0.0 0.0 0.0 0.0
0.0 0.0 0.0 0.0 0.0 0.0 0.0 0.0
0.0 0.0 0.0 0.0 0.0 0.0 0.0 0.0
0.0 0.0 0.0 0.0 0.0 0.0 0.0 0.0
0.0 0.0 0.0 0.0 0.0 0.0 0.0 0.0
0.0 0.0 0.0 0.0 0.0 0.0 0.0 0.0
0.0 0.0 0.0 0.0 0.0 0.0 0.0 0.0
0.0 0.0 0.0 0.0 0.0 0.0 0.0 0.0
00000000: 0000 0000 0000 0000 0000 0000 0000 0000
00000010: 0000 0000 0000 0000 0000 0000 0000 0000
00000020: 0000 0000 0000 0000 0000 0000 0000 0000
00000030: 0000 0000 0000 0000 0000 0000 0000 0000
00000040: 0000 0000 0000 0000 0000 0000 0000 0000
00000050: 0000 0000 0000 0000 0000 0000 0000 0000
00000060: 0000 0000 0000 0000 0000 0000 0000 0000
00000070: 0000 0000 0000 0000 0000 0000 0000 0000
00000080: 0000 0000 0000 0000 0000 0000 0000 0000
00000090: 0000 0000 0000 0000 0000 0000 0000 0000
000000a0: 0000 0000 0000 0000 0000 0000 0000 0000
000000b0: 0000 0000 0000 0000 0000 0000 0000 0000
000000c0: 0000 0000 0000 0000 0000 0000 0000 0000
000000d0: 0000 0000 0000 0000 0000 0000 0000 0000
000000e0: 0000 0000 0000 0000 0000 0000 0000 0000
000000f0: 0000 0000 0000 0000 0000 0000 0000 0000
00000100: 0000 0000 0000 0000 0000 0000 0000 0000
00000110: 0000 0000 0000 0000 0000 0000 0000 0000
00000120: 0000 0000 0000 0000 0000 0000 0000 0000
00000130: 0000 0000 0000 0000 0000 0000 0000 0000
00000140: 0000 0000 0000 0000 0000 0000 0000 0000
00000150: 0000 0000 0000 0000 0000 0000 0000 0000
00000160: 0000 0000 0000 0000 0000 0000 0000 0000
00000170: 0000 0000 0000 0000 0000 0000 0000 0000
00000180: 0000 0000 0000 0000 0000 0000 0000 0000
00000190: 0000 0000 0000 0000 0000 0000 0000 0000
000001a0: 0000 0000 0000 0000 0000 0000 0000 0000
000001b0: 0000 0000 0000 0000 0000 0000 0000 0000
000001c0: 0000 0000 0000 0000 0000 0000 0000 0000
000001d0: 0000 0000 0000 0000 0000 0000 0000 0000
000001e0: 0000 0000 0000 0000 0000 0000 0000 0000
000001f0: 0000 0000 0000 0000 0000 0000 0000 0000

network_body._body_endoder.seq_layers.2.weight f4 [128, 128]
0.06054673 0.060447995 -0.019548729 0.15249969 -0.018545264 -0.036354918 -0.029648155 0.039976258
0.028262815 0.10831613 0.016242743 -0.037606977 -0.09204053 0.042344995 0.007216841 -0.031820964
-0.09316138 -0.055304505 0.041002423 0.07356081 -0.08065695 -0.19690213 0.035808392 -0.027410535
-0.09396761 -0.24173512 0.08126788 -0.084055126 0.08662996 0.1813339 -0.03417166 0.014180632
-0.02574342 -0.0863367 0.046355575 0.2918345 -0.04105217 -0.111398906 0.0066110333 0.0040553
0.020477131 0.018256363 -0.004825025 0.060955975 -0.02587505 -0.06920739 -0.07552724 -0.10690989
0.022015963 0.123509936 0.016081162 0.045787957 0.108797096 -0.074738964 -0.06836782 -0.056449696
0.05025666 -0.023374425 0.11767245 0.037962917 -0.06464496 0.040105894 0.10474658 0.106425144
0.13715005 -0.07397408 -0.015789934 0.053327315 -0.008718387 -0.077536985 0.08796482 0.15579249
-0.07035876 0.009294206 -0.019855894 0.2287054 0.04297812 0.07658925 -0.00047678698 -0.03732054
-0.12180734 -0.033429738 -0.021439167 0.12110077 -0.09541225 -0.03075666 -0.042013638 0.0805638
-0.11444194 0.018241541 0.06596409 -0.10636173 -0.04932773 -0.04089439 0.0074532777 0.01167006
-0.17371614 0.09133896 -0.06545981 0.030245656 -0.020508677 -0.14306611 0.046814952 -0.110486254
0.014749655 -0.080242254 0.044855673 -0.030697975 -0.016935784 -0.046870593 -0.04052737 -0.026975835
0.07815693 0.11786881 -0.07490375 -0.015359529 0.08174151 0.039910927 0.039711677 0.15308586
0.1140099 0.05409785 0.089995265 -0.042514857 0.20483886 0.069893755 -0.013667955 -0.11750026
-0.04477824 -0.031045489 0.071949296 -0.13242924 -0.020602966 -0.1636326 0.016569212 -0.004887433
-0.049243577 0.09563158 -0.07659198 -0.08278979 0.123525575 -0.14458632 -0.06371197 -0.132275
0.08147509 0.097995095 -0.05753878 0.15800393 -0.09459489 -0.0061862394 0.052478146 0.096095674
-0.042679083 0.054531053 -0.07660886 0.019448323 0.06334886 0.100745715 0.12314619 0.055470455
-0.00810653 -0.08637197 0.027559737 -0.12488457 -0.11900724 -0.009304485 0.17238212 0.04084623
0.028176153 0.15758222 0.024278004 0.022421071 -0.033073913 0.10062801 0.1797444 -0.15228237
0.044850625 0.047214467 -0.061827723 -0.0010877268 -0.017452586 0.03875666 0.070110045 0.04521328
-0.10705364 -0.011101778 -0.14306986 -0.03817249 0.037469205 -0.10059206 -0.06409191 -0.021897824
-0.06691023 -0.004737589 0.017143095 -0.028507162 -0.21404822 -0.067886315 0.1326912 -0.11065921
0.031979628 -0.05937555 0.004949106 0.018314103 0.028227169 0.03322087 0.08479237 -0.038463492
-0.04178999 0.058297608 0.10044462 -0.084011294 0.005694677 0.087742254 0.08166693 -0.16399847
-0.18993092 -0.02334217 0.00013284512 -0.060316052 0.051026102 0.150785 -0.16726999 -0.17018713
-0.06548284 -0.044645492 0.24509831 0.12815149 0.03103804 0.054920577 0.044075523 -0.023825806
-0.002825068 0.18995671 0.08831374 -0.21572514 0.00094468717 -0.02784999 -0.052643288 -0.119837195
0.027107209 0.094722584 0.046617463 0.025687858 -0.04173724 -0.07576419 -0.06951267 -0.09260333
0.03786174 -0.10242506 0.16953148 -0.023260161 -0.046372656 0.016279368 -0.011933308 0.14848675
00000000: d9ff 773d 5198 773d a824 a0bc e128 1c3e
00000010: 3dec 97bc e5e8 14bd b0e0 f2bc 25be 233d
00000020: 6b87 e73c d9d4 dd3d 800f 853c c609 1abd
00000030: bf7f bcbd f271 2d3d 407b ec3b b356 02bd
00000040: 65cb bebd fa86 62bd 28f2 273d 0da7 963d
00000050: 792f a5bd b6a0 49be d2ab 123d 0f8c e0bc
00000060: 1772 c0bd 6989 77be c66f a63d 1825 acbd
00000070: 0c6b b13d 98af 393e 95f7 0bbd e255 683c
00000080: dde3 d2bc 4cd1 b0bd 58df 3d3d 556b 953e
00000090: 5226 28bd 1c25 e4bd 5ea1 d83b 52e2 843b
000000a0: a8bf a73c 5e8e 953c 3e1b 9ebb f9ac 793d
000000b0: eaf7 d3bc 9bbc 8dbd 07ae 9abd 93f3 dabd
000000c0: d25a b43c c7f2 fc3d a4bc 833c 278c 3b3d
000000d0: 03d1 de3d be10 99bd 6d04 8cbd cc37 67bd
000000e0: edd9 4d3d b97b bfbc 41fe f03d 017f 1b3d
000000f0: 9464 84bd 1446 243d 6085 d63d 6df5 d93d
00000100: 1071 0c3e b97f 97bd e459 81bc be6d 5a3d
00000110: 91d7 0ebc b6cb 9ebd e626 b43d 1188 1f3e
00000120: 4118 90bd ba46 183c d4a8 a2bc c031 6a3e
00000130: d309 303d d3da 9c3d 44f9 f9b9 6cdd 18bd
00000140: 2076 f9bd 9fed 08bd 31a1 afbc ae03 f83d
00000150: 7f67 c3bd 64f5 fbbc 7e16 2cbd a2fe a43d
00000160: 8960 eabd 496f 953c 2e18 873d 2ed4 d9bd
00000170: e00b 4abd e080 27bd a03a f43b c833 3f3c
00000180: a5e2 31be ec0f bb3d cb0f 86bd bdc5 f73c
00000190: d001 a8bc ec7f 12be 09c1 3f3d 9e46 e2bd
000001a0: 89a8 713c 0d56 a4bd 95ba 373d 527a fbbc
000001b0: eabc 8abc 61fb 3fbd 0700 26bd 6dfc dcbc
000001c0: be10 a03d 3465 f13d 2367 99bd 89a6 7bbc
000001d0: 1868 a73d a479 233d b6a8 223d 8ac2 1c3e
000001e0: 067e e93d b595 5d3d 704f b83d 0f24 2ebd
000001f0: 47c1 513e 7524 8f3d 8fef 5fbc faa3 f0bd
00000200: 6369 37bd 1c53 febc 275a 933d 889b 07be
00000210: 8dc7 a8bc 4e8f 27be 28bc 873c c226 a0bb
00000220: a2b3 49bd 7dda c33d 42dc 9cbd b28d a9bd
00000230: fafa fc3d 700e 14be 6c7b 82bd 1973 07be
00000240: 69dc a63d a7b1 c83d c9ad 6bbd c8cb 213e
00000250: f7ba c1bd f0b5 cabb 53f3 563d cfcd c43d
00000260: 43d0 2ebd f45b 5f3d 1be5 9cbd 1752 9f3c
00000270: 0cbd 813d c553 ce3d 1234 fc3d fd34 633d
00000280: 40d1 04bc cae3 b0bd f5c4 e13c 7bc3 ffbd
00000290: 11ba f3bd d771 18bc f084 303e 604e 273d
000002a0: add1 e63c 3c5d 213e aae2 c63c 65ac b73c
000002b0: 8378 07bd 0f16 ce3d ea0e 383e e9ef 1bbe
000002c0: 4ab5 373d f563 413d 113f 7dbd 0e92 8eba
000002d0: baf8 8ebc 4ebf 1e3d db95 8f3d 8f31 393d
000002e0: f03e dbbd 3be4 35bc e880 12be c25a 1cbd
000002f0: 4f79 193d 3603 cebd 9f42 83bd 1163 b3bc
00000300: 3b08 89bd c73d 9bbb ad6f 8c3c da87 e9bc
00000310: 752f 5bbe fb07 8bbd 34e0 073e 4ca1 e2bd
00000320: 12fd 023d c733 73bd 1c2c a23b 7507 963c
00000330: aa3c e73c 9b12 083d 9fa7 ad3d e58b 1dbd
00000340: fb2b 2bbd 79c9 6e3d e9b5 cd3d 1d0e acbd
00000350: 6a9a ba3b 36b2 b33d fe40 a73d 37ef 27be
00000360: 407d 42be 1438 bfbc 574c 0b39 f70d 77bd
00000370: bf00 513d 6267 1a3e d348 2bbe 8945 2ebe
00000380: de1b 86bd 31de 36bd 0dfb 7a3e 253a 033e
00000390: 7d43 fe3c 66f4 603d 8988 343d 562e c3bc
000003a0: c724 39bb 0384 423e d6dd b43d 0de7 5cbe
000003b0: e2a4 773a aa25 e4bc 7da0 57bd 346d f5bd
000003c0: f00f de3c eafd c13d f4f1 3e3d 586f d23c
000003d0: abf4 2abd 412a 9bbd a95c 8ebd d1a6 bdbd
000003e0: e914 1b3d 3bc4 d1bd a999 2d3e 188c bebc
000003f0: 41f1 3dbd 4f5c 853c ec83 43bc e90c 183e

network_body._body_endoder.seq_layers.2.bias f4 [128]
0.0 0.0 0.0 0.0 0.0 0.0 0.0 0.0
0.0 0.0 0.0 0.0 0.0 0.0 0.0 0.0
0.0 0.0 0.0 0.0 0.0 0.0 0.0 0.0
0.0 0.0 0.0 0.0 0.0 0.0 0.0 0.0
0.0 0.0 0.0 0.0 0.0 0.0 0.0 0.0
0.0 0.0 0.0 0.0 0.0 0.0 0.0 0.0
0.0 0.0 0.0 0.0 0.0 0.0 0.0 0.0
0.0 0.0 0.0 0.0 0.0 0.0 0.0 0.0
0.0 0.0 0.0 0.0 0.0 0.0 0.0 0.0
0.0 0.0 0.0 0.0 0.0 0.0 0.0 0.0
0.0 0.0 0.0 0.0 0.0 0.0 0.0 0.0
0.0 0.0 0.0 0.0 0.0 0.0 0.0 0.0
0.0 0.0 0.0 0.0 0.0 0.0 0.0 0.0
0.0 0.0 0.0 0.0 0.0 0.0 0.0 0.0
0.0 0.0 0.0 0.0 0.0 0.0 0.0 0.0
0.0 0.0 0.0 0.0 0.0 0.0 0.0 0.0
00000000: 0000 0000 0000 0000 0000 0000 0000 0000
00000010: 0000 0000 0000 0000 0000 0000 0000 0000
00000020: 0000 0000 0000 0000 0000 0000 0000 0000
00000030: 0000 0000 0000 0000 0000 0000 0000 0000
00000040: 0000 0000 0000 0000 0000 0000 0000 0000
00000050: 0000 0000 0000 0000 0000 0000 0000 0000
00000060: 0000 0000 0000 0000 0000 0000 0000 0000
00000070: 0000 0000 0000 0000 0000 0000 0000 0000
00000080: 0000 0000 0000 0000 0000 0000 0000 0000
00000090: 0000 0000 0000 0000 0000 0000 0000 0000
000000a0: 0000 0000 0000 0000 0000 0000 0000 0000
000000b0: 0000 0000 0000 0000 0000 0000 0000 0000
000000c0: 0000 0000 0000 0000 0000 0000 0000 0000
000000d0: 0000 0000 0000 0000 0000 0000 0000 0000
000000e0: 0000 0000 0000 0000 0000 0000 0000 0000
000000f0: 0000 0000 0000 0000 0000 0000 0000 0000
00000100: 0000 0000 0000 0000 0000 0000 0000 0000
00000110: 0000 0000 0000 0000 0000 0000 0000 0000
00000120: 0000 0000 0000 0000 0000 0000 0000 0000
00000130: 0000 0000 0000 0000 0000 0000 0000 0000
00000140: 0000 0000 0000 0000 0000 0000 0000 0000
00000150: 0000 0000 0000 0000 0000 0000 0000 0000
00000160: 0000 0000 0000 0000 0000 0000 0000 0000
00000170: 0000 0000 0000 0000 0000 0000 0000 0000
00000180: 0000 0000 0000 0000 0000 0000 0000 0000
00000190: 0000 0000 0000 0000 0000 0000 0000 0000
000001a0: 0000 0000 0000 0000 0000 0000 0000 0000
000001b0: 0000 0000 0000 0000 0000 0000 0000 0000
000001c0: 0000 0000 0000 0000 0000 0000 0000 0000
000001d0: 0000 0000 0000 0000 0000 0000 0000 0000
000001e0: 0000 0000 0000 0000 0000 0000 0000 0000
000001f0: 0000 0000 0000 0000 0000 0000 0000 0000

value_heads.value_heads.extrinsic.weight f4 [1, 128]
0.07666694 0.028489904 -0.052735955 -0.12839998 -0.20718518 -0.0029701097 0.05251947 0.16989657
0.004170003 -0.034765746 -0.057138488 -0.035662796 -0.015394108 0.14090121 -0.13898975 0.100801885
-0.12304629 -0.17913137 -0.06895035 -0.08003443 -0.09643075 0.21460709 -0.16282682 0.20694728
-0.07426187 0.034950946 -0.07613103 -0.120860405 -0.04655804 -0.15100694 -0.15859494 0.030846037
-0.111303344 -0.20622677 -0.06141481 0.04971201 0.18834719 0.11035478 -0.045585226 0.043192945
-0.0150858015 0.12567282 -0.11127453 -0.015287903 0.21463668 -0.1016215 -0.15680338 -0.14471965
0.07217449 0.0009936402 -0.057454724 -0.09833856 -0.09520882 -0.14050828 0.07901166 0.1506462
0.012196407 0.031123132 0.06680201 -0.008770291 0.005046743 -0.21297541 -0.044116527 0.08452924
0.043869898 -0.10583165 -0.11161373 0.1428119 0.120405845 0.07119324 -0.028402545 -0.09866226
0.1368841 -0.08339604 -0.009170469 0.2052687 0.12772314 0.018814402 -0.12382623 0.20851272
-0.047177006 0.07878518 0.039537616 -0.16860677 -0.15345195 0.105373524 0.16713811 -0.114168935
-0.12540008 -0.126686 -0.08383158 -0.08043404 -0.13547496 0.19518287 -0.080411606 -0.0057592257
-0.05133986 -0.093665764 0.17649303 0.17612192 0.096781924 -0.07989853 0.18537517 0.19909357
-0.09597838 0.024795704 0.049215075 0.155889 -0.17278117 -0.111951225 0.13666971 -0.085759886
0.10774549 0.07627045 0.20597866 -0.17701995 -0.17978124 -0.009180637 -0.044275876 0.16945928
0.10689091 0.15738927 -0.04081905 -0.029799975 0.18824801 0.047030784 -0.026798641 0.058241393
00000000: 8e03 9d3d a963 e93c a801 58bd 497b 03be
00000010: 5a28 54be 2ca6 42bb a81e 573d 5ef9 2d3e
00000020: 85a4 883b 8766 0ebd 0c0a 6abd 2713 12bd
00000030: 9237 7cbc 6848 103e 5453 0ebe 3871 ce3d
00000040: b1ff fbbd 376e 37be d735 8dbd 17e9 a3bd
00000050: 7c7d c5bd f6c1 5b3e 13bc 26be fde9 533e
00000060: 9b16 98bd b928 0f3d 96ea 9bbd a985 f7bd
00000070: a5b3 3ebd 90a1 1abe b666 22be d4b0 fc3c
00000080: 02f3 e3bd 1c2d 53be 198e 7bbd d29e 4b3d
00000090: 16de 403e b001 e23d 93b7 3abd 16eb 303d
000000a0: 702a 77bc 60b0 003e e7e3 e3bd 1d7a 7abc
000000b0: b8c9 5b3e ef1e d0bd 1191 20be 6331 14be
000000c0: 38d0 933d 083d 823a a555 6bbd ba65 c9bd
000000d0: d8fc c2bd 67e1 0fbe ddd0 a13d ff42 1a3e
000000e0: 70d3 473c f0f5 fe3c 7ecf 883d 44b1 0fbc
000000f0: 265f a53b 3a16 5abe 88b3 34bd ab1d ad3d
00000100: ecb0 333d 44be d8bd bd95 e4bd 483d 123e
00000110: 5797 f63d c3cd 913d 74ac e8bc 700f cabd
00000120: 582b 0c3e 8bcb aabd bc3f 16bc f531 523e
00000130: dbc9 023e a920 9a3c 9b98 fdbd 5c84 553e
00000140: ad3c 41bd 205a a13d 32f2 213d 41a7 2cbe
00000150: 8222 1dbe 13ce d73d 4126 2b3e 67d1 e9bd
00000160: e168 00be fab9 01be e4af abbd 9aba a4bd
00000170: f3b9 0abe 05de 473e d7ae a4bd e3b7 bcbb
00000180: bf49 52bd d6d3 bfbd 97ba 343e 4e59 343e
00000190: 9a35 c63d d7a1 a3bd fdd2 3d3e 2fdf 4b3e
000001a0: 5090 c4bd 5c20 cb3c bf95 493d 5ea1 1f3e
000001b0: 8ced 30be af46 e5bd 25f3 0b3e e1a2 afbd
000001c0: aba9 dc3d af33 9c3d 12ec 523e b844 35be
000001d0: 9318 38be 626a 16bc 9f5a 35bd bc86 2d3e
000001e0: 9fe9 da3d a72a 213e e031 27bd 141f f4bc
000001f0: 16c4 403e 5aa3 403d d388 dbbc 878e 6e3d
