results/ppo/MoveToGoal/MoveToGoal-1128.onnx (onnx, 77316 bytes, 7 tensors)

network_body._body_endoder.seq_layers.0.weight f4 [128, 4]
00000000: b8a9 823e 0ee6 8cbf 264f 71bf 1869 f1be
00000010: 3c3d 243d 0a5e ce3e 2bb6 0bbd 8227 5f3f
00000020: 87c5 5c3f b952 923d 3eb5 f4be 4267 91be
00000030: 628e c13e 218f 133f 7d5d 1f3f 5866 423e
00000040: 8738 b0bd a221 78be 225e 74be bb55 b63d
00000050: 285f 8abf 0f52 1e3e 06b3 2abf 3a3d 86bd
00000060: e2af 19bd 66b5 813d 8b79 07be 7216 883e
00000070: dba0 4cbe 8a2d 0ebd a89e 9abe d02f d2bd
00000080: 83cd 503e 2b58 c53d f3e4 0abf 7717 243f
00000090: 8363 e73e 9d95 b43e 73ca 91bf a72c ad3e
000000a0: d091 45bf c544 16bf ed03 a2be 4a37 71bf
000000b0: 6c31 d9be 5079 f93e 4c0f 973e 6f5e d83e
000000c0: caaa 013f 1e79 ad3e e20b 423f 2009 0b3e
000000d0: 1d04 6bbf 3dac aebe fa40 22bf 433f 443e
000000e0: 142d 7e3e d438 47bf a0e8 51be 0599 41bd
000000f0: c0bd fb3e b617 47bd 723d eabe 8b6f 61be
00000100: af16 f53e 6ab3 243f d0a5 8c3e fb8a 11bf
00000110: 09a8 22bf 3569 64bf c0ae cbbe a7cd 1e3f
00000120: 2044 cd3e a260 e43e 4de9 b5be 8956 733f
00000130: 7b65 7ebe 1406 bf3d a865 ef3c 7c49 c5be
00000140: 8e22 aa3e 61cf 4b3e 8608 2dbf 9cac 9d3c
00000150: bedf 8f3f 8f94 2b3e 5d26 a8bd 659e 29bf
00000160: 59df 9cbe 5c7b 0cbe 9ff8 a43d 0477 ea3e
00000170: 1bbf 473f 6787 4cbf a92a 313f 74ab 7b3f
00000180: 2d1f e53e 2a6d 5fbe 31eb e53e 82e3 80be
00000190: fc71 9abf c321 babe f195 3cbf a35f e6bb
000001a0: 54e8 023d f3cc 4c3f f47c 8e3d 4dbb db3e
000001b0: e667 5dbf 59a1 c1bd 1fca 27bf ab6a 3b3f
000001c0: 0f9b 7b3d 70dd 69bf 01c4 a03f 204e a3be
000001d0: 424e 5f3e 8b93 223f 2ce7 223f 86a9 1ebe
000001e0: dba8 5fbf 9508 4e3e 711a 803d f6c8 103c
000001f0: 8064 863f baf6 4b3f c84c ea3e 4cde 39bf
00000200: 542c 29bf 3470 d8be 3762 7bbf bacf 033f
00000210: 75f0 57bb 138b 91be 7653 82be dd6d d7be
00000220: f623 b9be 117c 413e 80fb 91be 6925 ffbc
00000230: fc6a 483e 5299 663e a905 42be fc2e 93bf
00000240: be5e 7dbe 3775 9cbe 8853 d13d 94fa 113f
00000250: 3bce c9be 0e1a 15bf ddf6 483f 6f84 5b3d
00000260: 2fa4 ddbe f58d 9e3d 1134 a1bd 0437 9c3e
00000270: 107e a0be 3f5e 0f3f f57f 87be 9b3d ae3e
00000280: b8e0 363f 0adc 81bf d99a e4be 35d5 95bf
00000290: 7c68 16be 48f1 7abd 2fc2 fdbe 3117 25be
000002a0: e3e9 fd3d b9be 35bf c73d adbb 1ef9 16bf
000002b0: 9872 06bf cf7b c63e a3b9 dc3e 3e7e 263e
000002c0: c796 7dbe 4425 2d3e df26 acbe c7d1 d73e
000002d0: 50aa 2abf e5c2 f73c c40f 033f 1e2f 51bf
000002e0: ce78 bc3d b471 ac3e aaf4 923e f73a fd3e
000002f0: f3cd 17bf 49b9 0e3f 7b4b 273f 943a 39bf
00000300: 4cca f1bb 6200 93be ed00 18bf d908 7b3e
00000310: d899 743a d7c8 55be ef08 84bc 13e6 2c3e
00000320: 9021 513e 69a3 413e a69f 53be 01a7 883f
00000330: c6e1 e03d 96d9 133e 54c2 efbc da0c 07bf
00000340: 4360 bf3f 0d21 95bd dee2 743d 7ace 2a3f
00000350: fef4 903e 4a0d 7cbf f962 b93e 585a a0bd
00000360: e2ba 38be 4fec 563f 4617 34be 4646 b2be
00000370: ebad 2bbd 89da 2ebe dc89 ebbd 8262 9f3d
00000380: b824 ea3d 8f90 dfbd 965f 5e3f 03bb 82bf
00000390: 9cd3 953e 5186 203f 73b0 133e 3f91 583d
000003a0: 10bc b5be 7904 173e e4ff d2bd 5aae b93d
000003b0: b309 bb3e 83fe 083f 4980 33be dc08 a0be
000003c0: 27b9 733f 1688 d83e e19b a93e ab03 22bf
000003d0: 1f1b 1dbf c2e3 b43e 59a2 94be 584a 5e3e
000003e0: 96fa 0d3e ca52 e5be 0ddc c53e 744b aabe
000003f0: f25c 0bbf bf57 403e 4c4d 053f 2e1b a23e
0.2552011 -1.1007707 -0.94261396 -0.47150493 0.04009746 0.4030612 -0.034109276 0.8716966
0.862389 0.07144684 -0.47794527 -0.28399092 0.37803942 0.5764027 0.62252027 0.18984354
-0.08604532 -0.2423158 -0.23864034 0.089030705 -1.0810289 0.1546099 -0.6667942 -0.06554647
-0.03752125 0.06333427 -0.13229959 0.26579624 -0.19983236 -0.0347114 -0.3019917 -0.10263026
0.20390896 0.09635957 -0.542556 0.64098305 0.4519311 0.35270396 -1.1389908 0.3382313
-0.7717562 -0.58698684 -0.3164362 -0.9422499 -0.42420518 0.48725367 0.29503858 0.42259547
0.5065123 0.33881468 0.7579938 0.135777 -0.9180315 -0.34115782 -0.63380396 0.19164757
0.24821883 -0.7782109 -0.20498896 -0.04726507 0.49168205 -0.048606597 -0.45750004 -0.22015207
0.4786887 0.64336264 0.27470255 -0.5685269 -0.6353765 -0.89223033 -0.3978176 0.6203255
0.40091038 0.44604975 -0.35529557 0.9505392 -0.24843399 0.09327331 0.029223278 -0.38532627
0.33229488 0.19903328 -0.6759113 0.019247346 1.1240156 0.1675589 -0.08210442 -0.66257316
-0.3063915 -0.13718933 0.08055233 0.45793927 0.7802598 -0.7989411 0.6920572 0.9830849
0.44750348 -0.21818987 0.44906 -0.25173575 -1.2066035 -0.36353883 -0.7366629 -0.0070304438
0.031959847 0.8000023 0.06957427 0.42916337 -0.8648666 -0.09454603 -0.6554279 0.7320964
0.061427172 -0.9135351 1.2559816 -0.31895542 0.21807197 0.6350638 0.6363399 -0.15494356
-0.8736703 0.20120461 0.06255043 0.008836975 1.049942 0.7967335 0.45761704 -0.72604823
-0.66083264 -0.42273104 -0.9819674 0.5148884 -0.003294972 -0.28426418 -0.254543 -0.42076007
-0.3616025 0.18894984 -0.28512192 -0.031145768 0.19572061 0.22519425 -0.18947472 -1.1498713
-0.24743173 -0.30558178 0.102210104 0.57022977 -0.39415154 -0.5824288 0.78501683 0.053593095
-0.43289325 0.0774192 -0.07871259 0.30510724 -0.31346178 0.56003183 -0.2646481 0.34031376
0.71436644 -1.0145276 -0.4464939 -1.1705691 -0.14688295 -0.06126526 -0.49562213 -0.16122128
0.12398126 -0.70994145 -0.0052869054 -0.5897387 -0.52518606 0.38766333 0.4311038 0.16259095
-0.24764548 0.16908747 -0.33623406 0.42152235 -0.66666126 0.0302443 0.5119593 -0.8171252
0.09202729 0.336805 0.2870229 0.4945905 -0.5929863 0.5575147 0.6534955 -0.7235501
-0.007378852 -0.2871123 -0.5937641 0.24515094 0.0009330786 -0.20877396 -0.016117541 0.16884641
0.2042296 0.18909992 -0.2066637 1.0675966 0.10980563 0.14438471 -0.029267468 -0.52753985
1.4951252 -0.072816946 0.05978667 0.6672131 0.28311914 -0.9845778 0.36208323 -0.07829732
-0.1804004 0.8395433 -0.17587003 -0.3481924 -0.041913908 -0.17075552 -0.11500904 0.07782461
0.11432785 -0.10916244 0.868646 -1.0213321 0.29263008 0.6270495 0.14422779 0.052872892
-0.35495043 0.147478 -0.103027135 0.09066458 0.36530837 0.53513354 -0.17529406 -0.3125676
0.95204395 0.42291325 0.3312674 -0.63286847 -0.6136951 0.35330015 -0.2903011 0.21708047
0.13865122 -0.44789726 0.38644448 -0.3326069 -0.544387 0.18783472 0.5207107 0.3166136

network_body._body_endoder.seq_layers.0.bias f4 [128]
00000000: 0000 0000 0000 0000 0000 0000 0000 0000
00000010: 0000 0000 0000 0000 0000 0000 0000 0000
00000020: 0000 0000 0000 0000 0000 0000 0000 0000
00000030: 0000 0000 0000 0000 0000 0000 0000 0000
00000040: 0000 0000 0000 0000 0000 0000 0000 0000
00000050: 0000 0000 0000 0000 0000 0000 0000 0000
00000060: 0000 0000 0000 0000 0000 0000 0000 0000
00000070: 0000 0000 0000 0000 0000 0000 0000 0000
00000080: 0000 0000 0000 0000 0000 0000 0000 0000
00000090: 0000 0000 0000 0000 0000 0000 0000 0000
000000a0: 0000 0000 0000 0000 0000 0000 0000 0000
000000b0: 0000 0000 0000 0000 0000 0000 0000 0000
000000c0: 0000 0000 0000 0000 0000 0000 0000 0000
000000d0: 0000 0000 0000 0000 0000 0000 0000 0000
000000e0: 0000 0000 0000 0000 0000 0000 0000 0000
000000f0: 0000 0000 0000 0000 0000 0000 0000 0000
00000100: 0000 0000 0000 0000 0000 0000 0000 0000
00000110: 0000 0000 0000 0000 0000 0000 0000 0000
00000120: 0000 0000 0000 0000 0000 0000 0000 0000
00000130: 0000 0000 0000 0000 0000 0000 0000 0000
00000140: 0000 0000 0000 0000 0000 0000 0000 0000
00000150: 0000 0000 0000 0000 0000 0000 0000 0000
00000160: 0000 0000 0000 0000 0000 0000 0000 0000
00000170: 0000 0000 0000 0000 0000 0000 0000 0000
00000180: 0000 0000 0000 0000 0000 0000 0000 0000
00000190: 0000 0000 0000 0000 0000 0000 0000 0000
000001a0: 0000 0000 0000 0000 0000 0000 0000 0000
000001b0: 0000 0000 0000 0000 0000 0000 0000 0000
000001c0: 0000 0000 0000 0000 0000 0000 0000 0000
000001d0: 0000 0000 0000 0000 0000 0000 0000 0000
000001e0: 0000 0000 0000 0000 0000 0000 0000 0000
000001f0: 0000 0000 0000 0000 0000 0000 0000 0000
0.0 0.0 0.0 0.0 0.0 0.0 0.0 0.0
0.0 0.0 0.0 0.0 0.0 0.0 0.0 0.0
0.0 0.0 0.0 0.0 0.0 0.0 0.0 0.0
0.0 0.0 0.0 0.0 0.0 0.0 0.0 0.0
0.0 0.0 0.0 0.0 0.0 0.0 0.0 0.0
0.0 0.0 0.0 0.0 0.0 0.0 0.0 0.0
0.0 0.0 0.0 0.0 0.0 0.0 0.0 0.0
0.0 0.0 0.0 0.0 0.0 0.0 0.0 0.0
0.0 0.0 0.0 0.0 0.0 0.0 0.0 0.0
0.0 0.0 0.0 0.0 0.0 0.0 0.0 0.0
0.0 0.0 0.0 0.0 0.0 0.0 0.0 0.0
0.0 0.0 0.0 0.0 0.0 0.0 0.0 0.0
0.0 0.0 0.0 0.0 0.0 0.0 0.0 0.0
0.0 0.0 0.0 0.0 0.0 0.0 0.0 0.0
0.0 0.0 0.0 0.0 0.0 0.0 0.0 0.0
0.0 0.0 0.0 0.0 0.0 0.0 0.0 0.0

network_body._body_endoder.seq_layers.2.weight f4 [128, 128]
00000000: 3d03 5e3e d3c5 e33d 88ef c63d e2de d4bd
00000010: 1732 55bd c298 5ebd 9028 c23d 6c71 78bd
00000020: 6fe9 703b 909c 15be 39d4 6b3d 66ba a9bc
00000030: efad b7bd 6ce9 b1bd 00aa 05be 2122 263c
00000040: 7925 02be bf96 0ebd 1217 1fbe da2f 1d3e
00000050: cb3e 123d 5bca 1fbd 7526 9fbd 83d5 1cbe
00000060: f018 0b3d d2ad 8e3d 8f8e a33d 70c3 a6bd
00000070: 88cf 1fbc b1da 233e 6703 91bd 7864 183d
00000080: 2d13 a03d 6ef4 fe3d f185 ad39 cbe8 75bd
00000090: 43c6 a4bc 15b4 7e3c a9a5 b7bd b745 1c3e
000000a0: a953 053e c20e 1bbc c432 043d 1f78 7ebd
000000b0: bb1a 9a3d 36df c5bd 6027 c73d 04e6 3d3e
000000c0: e6cc f03d 2505 243e fd02 4cbd 0f9f d3bd
000000d0: 1a24 053e 3953 153d 841d 273e 9f83 b13d
000000e0: c925 9e3d dbdb b6ba b464 23be c9c9 63bd
000000f0: 1a11 c83d eff9 013e 4108 1d3d d626 963d
00000100: 3132 973d cd1d 403c 3db9 afbd bac2 253d
00000110: a524 21be cc2d e53d c567 b83b d51c 99bd
00000120: ca73 76bd 6b81 acbd 96ba a13c 8a69 c03c
00000130: 6993 11bc eea9 14bc 539f 683d c517 0ebd
00000140: 6260 54be 32bd 1e3d 2c7c 013e b61b f43d
00000150: 0011 133d aa80 be3d 28bb ef3a d4d0 753d
00000160: ecfe 87bd 5926 b43d 3ddf 28bd f09a 36bd
00000170: c498 eb3d d6c3 753c c6fd e23d 37fe dcbc
00000180: d931 d83d 735b fa3a a38b a5bd 4f98 723d
00000190: 9ee7 60be 9d72 be3d 3a50 85bc 8b54 ce3d
000001a0: ec00 0e3e 30f8 213e 5056 c03d d1c2 c13d
000001b0: 5861 aa3d 3e9b cbbd 64d1 94bd 242c b3bb
000001c0: 8d09 ddbc 1b4a 7abe 7ee0 9cbc 6f90 ae3d
000001d0: 5f26 e23d 5dfc 82bd 9434 123b 5379 b9bd
000001e0: 9240 3fbd fecb 963d 9cd8 8abd edd4 67bd
000001f0: 1710 1bbe cb88 0fbe f401 efbd 2ca8 cf3c
00000200: 7886 09be a829 c7bc ed65 e6bd 4cc5 d53d
00000210: dbcb ad3d 5c01 72bd aca2 59bd 282b bd3d
00000220: 447b 9f3d d769 f8bc 678f 92bd 162b febd
00000230: 605c 1bbe 1ab4 dbbd 27b0 e13c 8431 86bd
00000240: 6135 e83d f718 d13c dd8f 74bd 8b97 65bd
00000250: 871e a3bd e001 a03c 3e39 c43c 2790 e8bd
00000260: df82 ab3d 7087 c9bd 1396 01bd da3b 2dbd
00000270: f6ef 493d 82a2 c63c 2249 f73d 131d 99bd
00000280: 22f4 03be 946e 89bd df18 fe3c c554 5abd
00000290: f0d2 613d 6550 bb3d 5ba8 b33d ae07 06bd
000002a0: d735 e73b 920d 1ebc 170a 643d fe05 233c
000002b0: c5af edbd 40b2 a13d d1b0 e13d 710b 80bd
000002c0: 7b59 0ebe d9bf aabd b065 0d3e 5125 0b3e
000002d0: 7d82 4cbe a9ea 81bc e7d2 90bd ec93 b73c
000002e0: 326b febc 5f42 6a3d 1ad9 46bd caf5 e53d
000002f0: f6d1 86bd 25c0 b0bb 3fc9 04be 9708 c7bd
00000300: 0b64 063d 4188 22bd 5543 fc3d 8b6e bebd
00000310: 463e 1cbe 310f 1dbd 0aa6 0f3e 5e4a c6bd
00000320: 43cf 99bd 8a8a b5bd 0347 dcbd 57f0 273e
00000330: 4841 de3d f9f0 7d3d b571 3c3e e6a2 9dbd
00000340: a0eb 283c 8f7e 6fbd 8846 15be 99ba 0b3e
00000350: bdb7 0e3e 85da 183e edf0 823b 7802 453d
00000360: 0a0e c33d 20cb abbc 05b5 e0bd bd08 4e3d
00000370: 248c 3d3d 81e1 953d 5f8d 083e c5bd c83d
00000380: 2f79 a6bc 1ecd 10be 7788 173e 796f 033d
00000390: 019c d63d 6071 debc 2950 93bd 444e 2dbe
000003a0: 1a23 853d b022 713e 1a94 2bbd 33db 833d
000003b0: f474 ddbd da7c aabd 2421 363d b718 433e
000003c0: bff9 1b3d b06c 083d a770 babd fa9a f1bd
000003d0: c3c8 4dbd 86c3 ea3d 75d8 883d 61a8 f1bd
000003e0: 38f5 0f3d 057e 1db9 7841 67bc cdec 29be
000003f0: 4da7 893d 39e6 a43c a2cc ff3d 613d 6abd
0.21680923 0.11121716 0.09713656 -0.10394074 -0.052049723 -0.0543449 0.09480393 -0.060655043
0.003676023 -0.14610505 0.05757544 -0.020718765 -0.08968722 -0.086871 -0.13053131 0.010139973
-0.12709607 -0.03481173 -0.15536144 0.15350285 0.035704415 -0.03901134 -0.07771007 -0.15315823
0.03395933 0.06966747 0.07986175 -0.081427455 -0.009754069 0.16001393 -0.07080727 0.03720519
0.078161575 0.12448965 0.00033096925 -0.06003646 -0.02011407 0.015545865 -0.08967144 0.15260969
0.13020195 -0.009463968 0.032274976 -0.062126275 0.0752463 -0.09661715 0.09724307 0.18544775
0.11757831 0.16017587 -0.049807537 -0.103330724 0.13002053 0.03645632 0.16319853 0.08667683
0.07722051 -0.001395102 -0.15956384 -0.05561236 0.09768887 0.12692998 0.03833795 0.07331626
0.0738262 0.011725855 -0.08580253 0.04046891 -0.15736635 0.11190376 0.0056276047 -0.074762024
-0.06016902 -0.08423122 0.019742291 0.023487825 -0.008885243 -0.0090737175 0.05679257 -0.034690637
-0.20739892 0.03875465 0.12645024 0.11919348 0.035904884 0.093018845 0.001829003 0.060013607
-0.06640419 0.08796377 -0.04122852 -0.044581354 0.11503747 0.015000304 0.1108356 -0.026976688
0.10556383 0.001910074 -0.08083274 0.059227284 -0.21963355 0.092992045 -0.016273607 0.10074719
0.13867539 0.15817332 0.09391463 0.094609864 0.08319348 -0.099417195 -0.072665006 -0.0054679085
-0.026982093 -0.24442331 -0.019150015 0.08523642 0.11042475 -0.06395791 0.002230917 -0.09056344
-0.04669244 0.07363127 -0.06779596 -0.056599546 -0.15142857 -0.14017026 -0.116702944 0.025348745
-0.13430202 -0.024311855 -0.112499095 0.10438022 0.08486148 -0.059083328 -0.05313365 0.09236747
0.07787183 -0.030323906 -0.07156258 -0.12410562 -0.15171957 -0.10727711 0.027549816 -0.06552413
0.11338306 0.0255246 -0.05970751 -0.056052726 -0.07964807 0.019532144 0.023953076 -0.1135562
0.08374571 -0.09840286 -0.031637263 -0.042293407 0.04930111 0.024247412 0.12074496 -0.074762486
-0.12886098 -0.06710544 0.031017719 -0.0533035 0.055132806 0.091461934 0.08772346 -0.032722168
0.0070559788 -0.00964679 0.055673685 0.009950159 -0.11605791 0.078953266 0.11020053 -0.06252182
-0.13901322 -0.08337373 0.13808322 0.13588454 -0.19971652 -0.015858965 -0.070714764 0.022409402
-0.031056974 0.057192203 -0.048546888 0.11228521 -0.065830156 -0.005393999 -0.12967394 -0.09718435
0.032810252 -0.039680723 0.1231753 -0.09298428 -0.1525813 -0.038344566 0.14028183 -0.09682153
-0.07510235 -0.08864315 -0.10755732 0.16400276 0.10852295 0.061997388 0.18402751 -0.07697086
0.010310084 -0.058470305 -0.14577687 0.136454 0.13937278 0.14927109 0.0039960057 0.048098058
0.09524162 -0.020970881 -0.10972027 0.050301302 0.046276227 0.07318402 0.13335179 0.09801821
-0.020321457 -0.14140746 0.14798151 0.03208873 0.10478974 -0.02715367 -0.07193024 -0.16924387
0.06500836 0.23548388 -0.041889288 0.06438293 -0.10813323 -0.08324595 0.0444652 0.19052397
0.038079973 0.033306777 -0.09103518 -0.117971376 -0.05024029 0.114630744 0.06681911 -0.11799694
0.03514597 -0.00015019633 -0.01411473 -0.16594239 0.06721363 0.02012931 0.124902025 -0.05718744

action_model._continuous_distribution.log_sigma f4 [1, 2]
00000000: 0000 0000 0000 0000
0.0 0.0

action_model._continuous_distribution.mu.weight f4 [2, 128]
00000000: 098c 20bb 9f53 eeba c836 16bc 04ae bdbc
00000010: fd8d 4e3b 2fa3 87bc 2a3b b63c ccfe 44bc
00000020: bdc2 af3b 1f4b 9ebc 0b29 d63c 07bb 5ebc
00000030: a7eb 48bc f7f0 793b 3ad7 71bc 70e7 68bc
00000040: 43d0 f8ba 7746 933c 2144 3b3c 0f16 eebb
00000050: cf79 ffbc a7d0 643b 17b8 4b3b aa9b aeba
00000060: 4a3d fd3c 862d cb3b f4a5 8c3b 8400 aa3c
00000070: 4d9b c73c 7a2a 7dbc 27b8 09bd eff5 5b3c
00000080: 5684 ae3c e2c5 d83b fcc8 113b b860 573c
00000090: 853c 4dba 1ee7 883c 2139 88bc ddc0 57bd
000000a0: 57e5 f43b 95c4 f0bb 737a 9c3c d45e 093d
000000b0: 6a76 bfbc 35b4 a3bc 1580 8ebc faad 7fbc
000000c0: 8003 583c ebaa 16bd 4cd2 003b 4032 873c
000000d0: deb3 0f3d 0051 2fbc 7f3c a7bb 8a24 74bc
000000e0: a4f6 80ba 5874 d33c 175f d2bb 23a3 eebc
000000f0: 187c 80bc 05fd ee3b 078c e0bb 4168 12bc
00000100: 64f5 bcbc 375d b1bc 6824 f7bb eb46 7e3b
00000110: 7227 6bbb 4db3 02bd abd9 143b bd30 fb3b
00000120: c39e 833c 8f4b 31bc 0df3 84bc 6f20 843c
00000130: 9fde 2abc 1890 f938 d3af 25bd abba 92bb
00000140: 00f3 bc3a c3ab 1dbb 7462 b63c ad45 dfbc
00000150: 5f08 c13c 50af cf3c 00ef a0bc 1773 503c
00000160: c05e 1dbd 8fbf e83c e60e 2abc 5b73 05bc
00000170: 04df b73b 93cb 9039 8aaa a73b 93e2 6a3a
00000180: 82a9 703c 3022 8d3c 02a7 4abc 8f44 e93a
00000190: 15ea 37bc 23c5 63bb 179d 88ba 88c4 c138
000001a0: 3b8f ecbc 2c82 0ebc d039 4cbc 13fb 23bc
000001b0: f52b e4ba 28d3 c23c c792 853b 23b3 1e39
000001c0: cb7f b9bb 5708 b53c c322 853c 258e 1cbb
000001d0: 5a66 733b cd7c ba3c 2f6e 08bc 4f1c babb
000001e0: afb8 a33c b477 8b3a 3326 3a3b 83d3 e2bb
000001f0: a553 853b cb70 763c 87bc 87bc f7b1 f43c
00000200: 921e 2f3b fd4f 9f3c 2f7d 763c 5f30 a23c
00000210: d7da cabb 3f23 cb3b 9533 b23b 839f d8bb
00000220: 1d5e 9dbb d62a 133c cfa7 673b 97a0 8bbb
00000230: a53a 1b3c a7dd 863c 2d89 e13c 269c c0bc
00000240: 0089 eabc c262 e73b eacb 713b f54a 65bc
00000250: b2ae 90bc 2fbd 2cbc d163 843c dfed 88bc
00000260: e74e a6bc 2fa6 823b 404f 29bb 8bb1 b13c
00000270: 0fd1 1fbc 606f 703c 83f8 ecbb dea0 a43c
00000280: 0011 64bd 9a77 0f3b 5066 263c 3c9f 983b
00000290: 20d0 7d3c 9543 4c3b 385e dbbb f86e 61bc
000002a0: 939b 54bc 7ab0 df3c 153a 733b 7df9 a1bc
000002b0: b077 f1bb 17b9 55bc cdfd 373b d26e d4bc
000002c0: d2d4 06bd abcf 723c 3fcb 82bc 1847 88bb
000002d0: a872 103d c803 65bc da08 3ebb e3d7 f53b
000002e0: 6c96 4038 a27f 4fbc b5da c13c 0bd8 683c
000002f0: 0aca d63c 01ee 203c 4ed7 b2bb 12a5 523c
00000300: d969 c3bc 6353 493c 93e9 6dbb dcfb 9fbc
00000310: b340 45bb 67f2 0b3d fa62 11bb 3aef 7b3b
00000320: f3de 51bc 2b46 e33b 63f3 643c 740c 3b3c
00000330: 03f0 453c 24ea 49bc 5570 37bc d3f8 273c
00000340: 6adc 703b 3861 aabc f529 11bc 5f20 1fbc
00000350: 7695 843c 332f 6bbc d355 7abc 5bd1 5bbc
00000360: 72ea 3cbd f63b 34bc ed10 e73b b439 4bbc
00000370: d36a a2bc 579a 743c 271c 41bc f3ed 20bc
00000380: ca8a 03bd 190c 07bd b71c e0ba 53fb bbbc
00000390: d319 4cbc edbe d53c 42cb 353c e0cb 86bb
000003a0: e6b5 283c 4449 c53c 7493 82bb 90a2 c7bc
000003b0: 1340 acbc 55f3 53bb 3897 d0bb 1929 1a3d
000003c0: e9b0 10bc 0a03 65bc 3dda 133d 9726 67bc
000003d0: 9772 13bc 11ea 9a39 cce8 063b 587d e93c
000003e0: be2e 923c 4a16 bb3b a3a6 2b3c 46cc 31bc
000003f0: b853 9c3c e299 483c e5f0 0ebd 09f2 1bbb
-0.002449753 -0.001818288 -0.009168334 -0.023154266 0.0031517737 -0.016557304 0.022245008 -0.012023639
0.005363791 -0.01932293 0.026142618 -0.0135943955 -0.012263215 0.003813801 -0.014760787 -0.014215335
-0.0018982965 0.017977936 0.011429817 -0.007265813 -0.031186013 0.0034914406 0.0031085068 -0.0013321538
0.030913014 0.006200495 0.004292244 0.020752199 0.024366045 -0.015452022 -0.033622887 0.013425334
0.021303337 0.0066153863 0.002224504 0.013145618 -0.00078291475 0.016711768 -0.016628804 -0.052674163
0.0074736285 -0.007347653 0.019101357 0.0335377 -0.023371894 -0.01998339 -0.017395059 -0.015605444
0.013184428 -0.036784094 0.0019656597 0.016503453 0.035083644 -0.010700464 -0.0051036472 -0.01490129
-0.000983913 0.025812313 -0.006420027 -0.029130524 -0.015684173 0.007293346 -0.00685263 -0.008935989
-0.02306623 -0.021650894 -0.0075421818 0.0038799595 -0.0035881666 -0.031909276 0.0022712748 0.007665722
0.016066914 -0.010821237 -0.016229177 0.016128747 -0.010429054 0.00011900085 -0.040450882 -0.004477819
0.0014415681 -0.0024058677 0.022263743 -0.027254904 0.023563562 0.02535215 -0.019645214 0.012722752
-0.03842044 0.028411655 -0.010379529 -0.008145179 0.0056113023 0.00027617495 0.0051167654 0.0008960154
0.014688851 0.017228216 -0.012368919 0.0017796921 -0.011225243 -0.0034754954 -0.0010422793 9.239564e-05
-0.028876891 -0.008698028 -0.012464955 -0.010008591 -0.001740812 0.023782328 0.004076335 0.00015134788
-0.005660986 0.022098703 0.016251927 -0.0023888436 0.0037139864 0.022764588 -0.008327051 -0.005679644
0.019985525 0.0010640533 0.0028404116 -0.006922187 0.004068809 0.01504154 -0.016569389 0.029870017
0.0026721102 0.019447321 0.0150444945 0.019798456 -0.0061906385 0.00619927 0.005438278 -0.006610812
-0.004802479 0.008982381 0.0035347824 -0.004261087 0.009474431 0.016463114 0.02753123 -0.023511957
-0.02862978 0.0070613334 0.0036895224 -0.013994922 -0.017661426 -0.010543152 0.016160877 -0.016714988
-0.020301295 0.003987096 -0.002583459 0.021691104 -0.009754433 0.014674991 -0.0072317733 0.020096239
-0.055680275 0.0021891356 0.010156229 0.004657654 0.015491515 0.0031168212 -0.0066945814 -0.013759367
-0.012976545 0.02730583 0.0037113477 -0.019772286 -0.007369004 -0.013044617 0.002807486 -0.02593175
-0.032917805 0.01482002 -0.015966056 -0.0041588657 0.035265595 -0.013977952 -0.0028996975 0.0075025423
4.591646e-05 -0.012664707 0.023663858 0.014211665 0.026219387 0.00982237 -0.005457795 0.012856739
-0.023854183 0.012287947 -0.003630255 -0.019529276 -0.0030098378 0.03416672 -0.0022184239 0.003844215
-0.012809503 0.006935855 0.013974044 0.011416543 0.012081149 -0.01232389 -0.011196216 0.010252195
0.003675247 -0.02079831 -0.008860101 -0.009712308 0.01618455 -0.014354515 -0.015279251 -0.013416613
-0.046122022 -0.011000624 0.0070515783 -0.012403894 -0.019826328 0.014929376 -0.011786497 -0.0098223565
-0.03211478 -0.03297052 -0.0017098401 -0.02294699 -0.012457329 0.026092017 0.011095824 -0.0041136593
0.010297274 0.024082787 -0.003984863 -0.024369508 -0.021026647 -0.0032341082 -0.006365683 0.03763685
-0.008831241 -0.013977775 0.0360968 -0.014108322 -0.008999488 0.00029547562 0.0020585535 0.028502151
0.017844554 0.005709444 0.010476741 -0.010851925 0.019082889 0.01224372 -0.034897704 -0.0023795387

action_model._continuous_distribution.mu.bias f4 [2]
00000000: 0000 0000 0000 0000
0.0 0.0

action_model._discrete_distribution.branches.0.weight f4 [2, 128]
00000000: 9ab5 dc3b cb03 cbbb acdf 00bc e73b 913b
00000010: c7af cf3a 7fd5 15ba 299d 99bc 6579 5b3c
00000020: ca48 7a3c 16db a33b 189c 3ebc 1ac8 10ba
00000030: 56c8 81bc 28b3 973c 58bb 6fbc e9a1 84bc
00000040: 3881 2bbc 5745 93bb 1a94 b2bb 4f5b d83a
00000050: 6087 20bc ea7a 84bb 4928 49bc cc1a adbc
00000060: f482 04bb fff9 d63a f5a9 cfbb 7f55 1f3c
00000070: e68b 4a3c 4c76 8a3b 8bbb 9cbb f4cb be3c
00000080: 1a6f 483b ecd0 0bbb 8882 04bc 11f8 a5bc
00000090: 97fd 13bc 47a2 833c c5fa b8bb 02e9 23bb
000000a0: 0b3a ed3a 21be 34bb cd10 ea3a 929d ce3b
000000b0: a034 eb3a 8cee caba 9e79 893b 5a43 0d3b
000000c0: 12a4 62bb d256 6cbb 8fb6 3e3a ee2d 8eba
000000d0: f48e a3bb 4375 193b 03bf 983b f119 2c3b
000000e0: 7bb3 333c be91 473c 4759 07bc cd3e 4dbc
000000f0: 04da 14bb cba2 9f3b 6312 953a 2f1c 9538
00000100: 0607 1f3b f728 db3b cb51 813b 7fa9 e73a
00000110: 7871 ef3b 3b81 91bb 53ba 553c ccc1 afbb
00000120: d06b 53ba d071 ee3b d151 06bc 0f2f 803a
00000130: 6f99 593c a0b2 5a3c cdf2 04bc 80d7 d03b
00000140: 071b dfbb 0bb0 d63b 4c9a 443c 3bbb 0abc
00000150: 826d 0b3c f32f 8c3a f7b8 aa3b 1f30 6b3c
00000160: 7146 9a3a 0299 a4bc 2a9a 9abb 2323 71b7
00000170: 4bec 0a3b 671c f63a 759c 88bb 5304 eebb
00000180: 68a8 faba 207f 5aba 2e74 adbb 71dc 393b
00000190: 5b8f b8bc fab0 52bb a7d4 f939 0f22 a6ba
000001a0: 6446 933b 5039 9ebb 6980 a5bc 27e1 80bc
000001b0: 6a72 4a3b 1741 443c aba7 c13b f22e 283b
000001c0: 7f33 113c 1562 9ebb f919 c73c bc50 443c
000001d0: 45d1 cfbb 9d6f 06bc 6afe 203b 7462 293b
000001e0: a3c0 13bc 6fee 8fbc bfdb d33b ef74 10bc
000001f0: 3062 6d3b ec54 0bbc 3775 13bc 1f6f 193b
00000200: 41b3 a7bb 052e 80bc 03fe aebb 5ba8 933b
00000210: 3772 5b3b 7d7c 77bb e23f 1a3a e4c7 01bc
00000220: facf 96ba c849 bfbb 4f4d 693c dbb4 38bc
00000230: 0da2 113b b9b7 0c3c c38a f93b 5543 663c
00000240: 0964 1fb9 db1d e4b9 d6b3 013c 9af0 803c
00000250: 73b7 6a3b ed1e 8fbc c67a 303c 0595 d6bb
00000260: 9587 f4bb 3f7e 0cbb 26ba 8dbb 12a2 baba
00000270: 48f6 9a3c 1366 9ebb 90f7 6f3b 5021 3f3c
00000280: 7884 12bc 8964 9c3c 94bb 9bba d232 83bc
00000290: b71d 023b a7a9 4bbb 1fb8 ef3b 8119 123c
000002a0: bfd6 04bc 70ba 40bb 6421 4bbc 65f9 683c
000002b0: b2ea e63b 5d1e f6bb d41d 2ebb d0df 6dba
000002c0: c723 46bc ed64 d4bb 057d 6b3c 5bd5 8abb
000002d0: 0a1e 62bb adab e1bb f701 d23a 5f4b 68bb
000002e0: 3cc4 8c3b b5db 2cbc 4b56 32bb 8f43 b9ba
000002f0: 7d90 36bb 8b5b d6bb 9a2d 233c e094 173c
00000300: 99ec b13b 7f29 063c ad42 5b39 a1ce b1ba
00000310: 227e dabb 03ae d5bb cb6f 2a3c 1ed7 1bba
00000320: 73e6 5bbb 20e4 44bb eba9 7d3c 54df 423b
00000330: e7ac c6bb 434f 393b 1f2e ccb7 98ab 0fbb
00000340: 1fb3 3ebc 7d61 343c 1dc7 3f3b 0a0b 11bb
00000350: 5853 b83b f1b4 a43b 1bbe 21bc caf5 f139
00000360: 6d22 26bc d263 eaba d9cd 9bbb 0129 93bb
00000370: 6b59 003c c098 e0ba 7a75 e03b 8bac 133c
00000380: 28eb dbbb 90c1 0a3c eea2 41bb 4383 973b
00000390: 7647 8338 666b 2e3c 22e5 d03b ec4e 263c
000003a0: d5b1 ef3b b8fa e63a bfa4 5c3b 3703 a6bc
000003b0: 3342 32bc b00f 68bc 0f6c 5b3b 6354 acbb
000003c0: 96ac cbbb 4e1f 1bbc b57e 87bb dc80 98bc
000003d0: e169 21bc eb57 77ba c9bb cc3c 9771 ae3b
000003e0: dc02 143c 0f62 723c 8a0b 97bc 6186 9ebc
000003f0: b7f3 5cbb 3b66 e43b ccf2 86bb 26d9 90bc
0.006735516 -0.0061955205 -0.0078658275 0.0044321897 0.0015845232 -0.00057157123 -0.018751698 0.013395642
0.015276143 0.0050004823 -0.011633895 -0.00055229815 -0.015842598 0.018518046 -0.014632069 -0.016190486
-0.01046782 -0.00449435 -0.005449784 0.0016506704 -0.009797901 -0.004042973 -0.012277671 -0.021130942
-0.0020219656 0.0016401409 -0.006337399 0.009724974 0.012362456 0.004225528 -0.004783099 0.023290612
0.00305838 -0.0021334244 -0.008087762 -0.020259889 -0.0090326285 0.01606859 -0.0056451284 -0.002501071
0.0018098963 -0.0027579146 0.001785779 0.006305405 0.0017944761 -0.001548247 0.004195406 0.0021555037
-0.0034582657 -0.003606249 0.0007275128 -0.0010847428 -0.0049914066 0.002341584 0.0046614422 0.002626058
0.010968084 0.012180744 -0.0082610315 -0.01252718 -0.0022712955 0.0048717014 0.0011373278 7.110123e-05
0.002426566 0.006688233 0.003946518 0.0017674415 0.0073072277 -0.0044404543 0.013044911 -0.0053636786
-0.00080650765 0.007276751 -0.0081982175 0.000977965 0.01328121 0.013348252 -0.008114529 0.006373346
-0.006808642 0.0065517477 0.011999678 -0.008467491 0.008509995 0.0010695442 0.005210038 0.014354735
0.0011770261 -0.020092491 -0.004718085 -1.43729e-05 0.002119797 0.0018776775 -0.0041690418 -0.007263699
-0.0019123675 -0.0008334983 -0.0052933907 0.0028360153 -0.022529295 -0.0032148943 0.0004765142 -0.0012674945
0.004494475 -0.0048286095 -0.020202832 -0.015732361 0.003089095 0.011978409 0.00590988 0.0025662747
0.008862375 -0.0048334696 0.024304377 0.011982139 -0.0063420855 -0.008205322 0.0024565705 0.0025846036
-0.009018096 -0.017569749 0.0064654048 -0.008816942 0.0036221854 -0.008504134 -0.009000114 0.002341218
-0.0051178043 -0.015646944 -0.005340339 0.0045061535 0.0033484825 -0.003776341 0.0005884153 -0.007921193
-0.0011506074 -0.005837653 0.014239623 -0.011273588 0.0022221834 0.008588725 0.0076154186 0.014054139
-0.00015200688 -0.00043509793 0.007916411 0.015739728 0.003581491 -0.017470801 0.010771459 -0.006548526
-0.0074624517 -0.0021437553 -0.004325169 -0.0014238975 0.018916264 -0.0048339455 0.0036616065 0.011665657
-0.008942716 0.019090908 -0.0011881464 -0.016015444 0.0019854137 -0.0031076462 0.00731565 0.008917213
-0.00810784 -0.0029408 -0.012398098 0.014219617 0.007047021 -0.007510944 -0.0026568072 -0.0009074183
-0.012093491 -0.006481758 0.014373069 -0.0042368597 -0.0034502768 -0.0068869204 0.0016022314 -0.0035445315
0.004295854 -0.010550429 -0.002721208 -0.0014134514 -0.0027857118 -0.0065416745 0.009959603 0.009251803
0.005429816 0.008188604 0.00020910306 -0.0013565609 -0.0066678682 -0.006520988 0.01040263 -0.0005944836
-0.0033554106 -0.00300432 0.015482406 0.0029735165 -0.006063092 0.0028276003 -2.4340172e-05 -0.0021922346
-0.0116393855 0.011009571 0.0029262968 -0.0022131824 0.0056251697 0.0050264527 -0.009871985 0.0004615023
-0.010140044 -0.0017882532 -0.0047547636 -0.004490972 0.007833819 -0.0017135367 0.006849942 0.009013305
-0.0067113824 0.008469 -0.0029546577 0.004623802 6.2598774e-05 0.010645723 0.006374971 0.010150652
0.0073149004 0.0017622327 0.0033667532 -0.020265205 -0.010880041 -0.014163896 0.0033481156 -0.005259083
-0.006215642 -0.009467913 -0.0041349777 -0.018616132 -0.009851904 -0.0009435403 0.024991887 0.0053235996
0.009033885 0.014793887 -0.01843812 -0.019351186 -0.0033714601 0.0069701946 -0.004118299 -0.01768167
