results/ppo/MoveToGoal/MoveToGoal-896.onnx (onnx, 77316 bytes, 7 tensors)

network_body._body_endoder.seq_layers.0.weight f4 [128, 4]
00000000: ea99 a7be 9a39 1d3e 0f9f 4a3f 4330 243f
00000010: 1ad4 a23e a53e 5d3e 646b 83be d9c0 713e
00000020: f2d6 17bf 578a 973f 71d8 23bf b519 7d3b
00000030: 6feb 863e 527e b1be efa4 bf3e 5120 0e3f
00000040: b749 3fbc 350f 5abf 092e 093f e02c 6dbe
00000050: 7c02 46bf d86a d8be b9ec ac3e b4a2 e6bd
00000060: bf1e 193f 5951 ac3f 4076 febe 85e6 f43d
00000070: 5ab9 a83e 7730 cebe 38f1 85bf 64d1 02bf
00000080: 7a5d f13e b967 64be 81b4 d2ba 15fc b53d
00000090: d54b c5be c749 813f 6de5 3b3e f383 d8be
000000a0: 4ddd 72be 0e56 3f3f a693 b8bd 7b58 ddbd
000000b0: 8eae 64be 9128 eebe ad3e 203f 22a6 e1be
000000c0: c481 103f 3fdd e6bd ef1d ac3e f94b d43c
000000d0: 16bf 9abe 242a de3e 0707 f93e 9e78 b93d
000000e0: f305 d33e 3d0e 41bf 9902 82bd eaa7 55bc
000000f0: 18d6 a93e 2f82 c2be 11d4 4a3f 821b e1bd
00000100: cb52 abbe 96ca 223d 6896 9c3d 5307 47bf
00000110: 3447 65be 56f6 cf3d 5aef ebbe c690 093f
00000120: 7235 8fbe fdcb 6f3e f0fd ca3e 6fa3 e33e
00000130: 50bf c93c 75ad 913e 90e5 563e 537a 933e
00000140: 239b 17bf 15de 873e 3b59 d5bd 7203 193c
00000150: 1009 fc3d 633d 053f 4710 8b3b 1e2c 1b3d
00000160: 4473 ac3e 0fd3 a33f 1ace 163e 2a0f 033f
00000170: 2844 8b3e a1c4 89be 7e57 d0bd 427a 723e
00000180: f067 4c3f 06b4 90be 3d37 d8bd ddf0 c4bd
00000190: 52c5 ac3e d82f 053f 0dc6 cbbc a70e b9be
000001a0: 499e 56bf d548 353f 4420 e9be 1a2a 00bf
000001b0: ffb9 803f b7c6 053f 7443 f1bb 8871 293e
000001c0: df0c 70bd c2e9 003e 2102 903e 5116 083f
000001d0: b147 06be dfb8 47be 4b6a c43e 1fa4 283e
000001e0: 6094 94be 0d35 973e f248 563f 7dbd 9e3e
000001f0: 97ef 1d3e 8d8a efbe 9b53 4ebd ef56 643f
00000200: adc2 31bd 8161 d23c 717b fa3b 717e 60be
00000210: 7fc7 adbc f290 24bf 81c8 8cbe 4dba 92be
00000220: fc20 bbbe 9149 083f aa7e 1e3e b822 3c3e
00000230: 65af 4d3f fcbd 86be a3fd ad3f d664 563e
00000240: 704b e63e d6fb abbe 9509 233d 2080 4b3f
00000250: 90d7 ffbe a6f8 883c c1b4 fcbd cdca 9b3d
00000260: b108 ffbe 453a 95be b23f 733d 68db 6abe
00000270: c04e cf3f 3455 a03e b223 b83c 363e d9bf
00000280: c268 6cbf 1d78 8f3e b424 c1be 0a99 993e
00000290: 78ee a43e 844d 04be 56b0 20bf fc22 e03e
000002a0: 3d3b ab3d 8422 8bbe 7843 62bf f20e 223e
000002b0: b07d 78bd 8b04 e9be bd61 10bf 43cb 96be
000002c0: b589 c4be 35b9 1cbf df6c b9be 7ec5 233f
000002d0: 787b 02bf f312 acbe 45cc 2bbf 123b b1be
000002e0: ff50 193f c81d 14bf 5ab7 193e 53e9 c8be
000002f0: f085 873f 1276 00be 2f83 20be f937 3fbf
00000300: 4653 8b3c 2b93 e53e d9c6 ad3d 1ef6 6d3b
00000310: feee 6a3f c162 26be 0308 bc3e df77 cbbe
00000320: 8b1b 36be 2bee 3bbd 8cff a1bd 5cd8 ad3e
00000330: e4cd bcbe 3b78 8fbe c9e5 dbbe 60b0 86bf
00000340: 7d87 1e3f 1187 6b3f d92c 15bf 43c1 2d3f
00000350: 4e3b 473e b310 aabe e11e 6ebe 1972 49bf
00000360: 850c 283f 8151 493f da54 76bf 58ce 71bf
00000370: e3c6 2a3d fc05 173e ecb4 3dbf bc81 983c
00000380: 05b7 ff3e 9d7d 07bf 2455 b73c b1a2 cb3e
00000390: 9a2b a83e 28f9 093e 2fa7 1cbf 2eda 8fbd
000003a0: 12b6 f9bd a1b8 a83e 6e77 8d3e fa25 80be
000003b0: 4f1a 06bf 5d58 ff3e 3bc8 5a3e e0cb dd3e
000003c0: daa6 25bd 5792 223f c337 d3be 7b18 babf
000003d0: edb1 82bf bb4a 1bbd e273 bd3e e57b 76be
000003e0: bf4f 2ebf 27e4 debc 71f2 b3be deb2 22bf
000003f0: e46c 0d3f 5111 853e 8659 23bf 14dd 62be
-0.32734615 0.15354005 0.79148954 0.6413614 0.31802446 0.21605928 -0.2566787 0.23608722
-0.59312356 1.1839093 -0.6400214 0.003862006 0.26351497 -0.34666687 0.37430522 0.5551806
-0.01167529 -0.85179454 0.5358587 -0.2316165 -0.7734754 -0.42269015 0.33774355 -0.11261502
0.5981254 1.3462325 -0.49699593 0.119580306 0.32953912 -0.4027135 -1.0464239 -0.51100755
0.4714163 -0.22305192 -0.0016075523 0.088859715 -0.38534418 1.010064 0.18349238 -0.4228817
-0.23717232 0.74740684 -0.09012537 -0.10807892 -0.22332212 -0.46515325 0.62595636 -0.44072062
0.56448007 -0.11272668 0.33616588 0.025915133 -0.30223912 0.43391526 0.48638174 0.09056209
0.41215476 -0.7541235 -0.06348152 -0.013040522 0.33171153 -0.37989947 0.7922984 -0.10991575
-0.33461604 0.039743982 0.07645875 -0.7774555 -0.22390443 0.10154407 -0.46081048 0.5373653
-0.27970463 0.23417659 0.39646864 0.44460627 0.024627358 0.2845265 0.20986009 0.28804263
-0.59221095 0.26536623 -0.1041741 0.0093392 0.12306416 0.52046794 0.004243884 0.03788387
0.3368169 1.2798785 0.14727059 0.51195014 0.27200437 -0.26907828 -0.10172938 0.2367945
0.79846096 -0.28262347 -0.10557411 -0.096162535 0.33744293 0.5202613 -0.024874711 -0.3614399
-0.83835274 0.7081426 -0.4553243 -0.5006424 1.0056762 0.5225634 -0.0073627774 0.16547215
-0.058606025 0.12589172 0.28126624 0.5315905 -0.13113286 -0.19504116 0.38362345 0.16468857
-0.2901945 0.29532662 0.83705056 0.31003943 0.15423428 -0.46785393 -0.0503727 0.8919515
-0.043398548 0.02568126 0.00764411 -0.21923234 -0.021213291 -0.6428367 -0.27496722 -0.2865776
-0.36548603 0.53237253 0.15478006 0.18372619 0.80345756 -0.26316822 1.3593029 0.20936903
0.4497943 -0.33590573 0.03980406 0.7949238 -0.4996915 0.016720127 -0.123391636 0.076070406
-0.4981132 -0.2914602 0.059386916 -0.2293526 1.6195908 0.31315005 0.022477958 -1.697211
-0.9234735 0.28021327 -0.37723315 0.29999572 0.32213187 -0.12920195 -0.6276907 0.4377669
0.08360908 -0.2717477 -0.883842 0.15826014 -0.06066674 -0.4551128 -0.56399137 -0.2945195
-0.38386312 -0.61220104 -0.36215875 0.63973224 -0.5096965 -0.33608207 -0.67108566 -0.3461538
0.59889215 -0.5785794 0.1501135 -0.39240512 1.058775 -0.1254504 -0.15675043 -0.7469478
0.017007481 0.44838843 0.08485193 0.0036310027 0.91770923 -0.16248609 0.36724862 -0.39739892
-0.17783944 -0.04588143 -0.0791007 0.33954132 -0.36875832 -0.28021416 -0.4294875 -1.0522575
0.6192549 0.9200297 -0.5827156 0.6787302 0.19456217 -0.33215865 -0.23253967 -0.78689724
0.65644103 0.7863999 -0.96223223 -0.9445548 0.04169358 0.14748377 -0.7410419 0.01861655
0.4994432 -0.52926046 0.022379465 0.3977256 0.32845765 0.13473952 -0.611926 -0.07024036
-0.1219293 0.3295336 0.2763018 -0.25028974 -0.52383894 0.49872103 0.21365444 0.43319607
-0.040442325 0.63504547 -0.4125348 -1.4538721 -1.0210549 -0.037913065 0.37002474 -0.240707
-0.6809043 -0.0272084 -0.35145906 -0.6355418 0.5524428 0.25989774 -0.63808477 -0.22154647

network_body._body_endoder.seq_layers.0.bias f4 [128]
00000000: 0000 0000 0000 0000 0000 0000 0000 0000
00000010: 0000 0000 0000 0000 0000 0000 0000 0000
00000020: 0000 0000 0000 0000 0000 0000 0000 0000
00000030: 0000 0000 0000 0000 0000 0000 0000 0000
00000040: 0000 0000 0000 0000 0000 0000 0000 0000
00000050: 0000 0000 0000 0000 0000 0000 0000 0000
00000060: 0000 0000 0000 0000 0000 0000 0000 0000
00000070: 0000 0000 0000 0000 0000 0000 0000 0000
00000080: 0000 0000 0000 0000 0000 0000 0000 0000
00000090: 0000 0000 0000 0000 0000 0000 0000 0000
000000a0: 0000 0000 0000 0000 0000 0000 0000 0000
000000b0: 0000 0000 0000 0000 0000 0000 0000 0000
000000c0: 0000 0000 0000 0000 0000 0000 0000 0000
000000d0: 0000 0000 0000 0000 0000 0000 0000 0000
000000e0: 0000 0000 0000 0000 0000 0000 0000 0000
000000f0: 0000 0000 0000 0000 0000 0000 0000 0000
00000100: 0000 0000 0000 0000 0000 0000 0000 0000
00000110: 0000 0000 0000 0000 0000 0000 0000 0000
00000120: 0000 0000 0000 0000 0000 0000 0000 0000
00000130: 0000 0000 0000 0000 0000 0000 0000 0000
00000140: 0000 0000 0000 0000 0000 0000 0000 0000
00000150: 0000 0000 0000 0000 0000 0000 0000 0000
00000160: 0000 0000 0000 0000 0000 0000 0000 0000
00000170: 0000 0000 0000 0000 0000 0000 0000 0000
00000180: 0000 0000 0000 0000 0000 0000 0000 0000
00000190: 0000 0000 0000 0000 0000 0000 0000 0000
000001a0: 0000 0000 0000 0000 0000 0000 0000 0000
000001b0: 0000 0000 0000 0000 0000 0000 0000 0000
000001c0: 0000 0000 0000 0000 0000 0000 0000 0000
000001d0: 0000 0000 0000 0000 0000 0000 0000 0000
000001e0: 0000 0000 0000 0000 0000 0000 0000 0000
000001f0: 0000 0000 0000 0000 0000 0000 0000 0000
0.0 0.0 0.0 0.0 0.0 0.0 0.0 0.0
0.0 0.0 0.0 0.0 0.0 0.0 0.0 0.0
0.0 0.0 0.0 0.0 0.0 0.0 0.0 0.0
0.0 0.0 0.0 0.0 0.0 0.0 0.0 0.0
0.0 0.0 0.0 0.0 0.0 0.0 0.0 0.0
0.0 0.0 0.0 0.0 0.0 0.0 0.0 0.0
0.0 0.0 0.0 0.0 0.0 0.0 0.0 0.0
0.0 0.0 0.0 0.0 0.0 0.0 0.0 0.0
0.0 0.0 0.0 0.0 0.0 0.0 0.0 0.0
0.0 0.0 0.0 0.0 0.0 0.0 0.0 0.0
0.0 0.0 0.0 0.0 0.0 0.0 0.0 0.0
0.0 0.0 0.0 0.0 0.0 0.0 0.0 0.0
0.0 0.0 0.0 0.0 0.0 0.0 0.0 0.0
0.0 0.0 0.0 0.0 0.0 0.0 0.0 0.0
0.0 0.0 0.0 0.0 0.0 0.0 0.0 0.0
0.0 0.0 0.0 0.0 0.0 0.0 0.0 0.0

network_body._body_endoder.seq_layers.2.weight f4 [128, 128]
00000000: 53a4 843d caef a8bc e732 e8bc bff1 42bd
00000010: ea35 3e3e 0a62 e4bb a007 cb3d 2cc5 463d
00000020: 6e88 ee3b 4955 9a3d 81a7 abbc 8e91 493d
00000030: 5467 9b3d bb8f ba3d 95a5 1c3e e474 e5bd
00000040: 2f31 7d3d b59c 9ebd bd5a 6cbc a379 5dbe
00000050: 144a 7cbd adc2 b03d 94bd 8bbd b1dc 9a3d
00000060: 27fb c53d 0e8f 06be 4bab e03d 9a19 fabd
00000070: 3166 5c3d 53ec 053c 9f2b 553d 3ab3 c13c
00000080: f1b3 cd3d 93f7 93bd bcab 553c 61d5 703d
00000090: 5e01 40bd 4901 69be ea22 51bc 2396 27be
000000a0: 35ab 583d 69be 27bc 3312 9eba 0616 d9bd
000000b0: 4cdd e4bc 8ec6 e8bd c477 643e d967 113c
000000c0: 0ea8 283d f728 0dbb ab83 0a3d 3c22 943d
000000d0: 8446 0a3d e6d9 10be 3897 90bc 5b9a 043c
000000e0: 7d5e 543d cb47 9fbd 01ab 25be 47d8 31bd
000000f0: c9e3 7c3d 0c59 b93d 066f 803e 83b0 123d
00000100: 1bb8 c63c 646a 24bd b0d6 c4bd 2cab 56bc
00000110: de1e b3bd f320 e8ba e83a 41bc 9c04 87bd
00000120: 79ac 29be 6713 3e3d c324 afbd 96e2 423d
00000130: e359 4b3d 836c b03d b18e 91bb 7723 13bd
00000140: 1d88 953d 3890 cdbd cfba da3d 0bf7 583c
00000150: 0dd7 343d 37b9 fdbc 79dc 8bbd 6f7c a1bc
00000160: ef8e d8bd 1fad ae3d 4706 403d 6fbd bb3c
00000170: e096 e33d 16d7 4bbd c736 ddbd f1d4 1dbe
00000180: 2f12 dabc b86c 373b 88e1 27bc ba79 eabd
00000190: 6604 823d 6193 ff3c 84ec 363e 8c64 4c3d
000001a0: 3d48 f03d 45e2 ae3d 0589 1e3d 4431 a03c
000001b0: 6e08 323c 4c2d 0cbd 4139 b7bb f0c9 843d
000001c0: 160d 863d 1e02 763d 7985 e0bd 69fc 80bc
000001d0: 6740 ddbc 03f5 6d3c 885c 90bd 29d3 223d
000001e0: a8ad fd3d 1668 183d d5e8 33bd 3a05 9d3c
000001f0: 2443 de3c 290a c1bc a090 dc3a 2593 ca3d
00000200: 26a2 4d3c 3c2a 2cbe 0fc4 20be df13 87bd
00000210: fadc 87bc 0803 5a3d 104c e13d fd4b 08bc
00000220: 9637 72bc 76ab 193e 268b d63d abbb 21bc
00000230: a44e c3bd 3242 17be 3d3a b9bc 6a8a 03bd
00000240: 39e4 273d fa4f cf3c 1498 02bd 85bd 983d
00000250: 3344 403c c7b9 9a3d ec42 a03c 819a 06bc
00000260: 9a44 bdbc 9ec4 a1bd a1d6 923c 2798 fabd
00000270: 34e4 81bc 133f a13d 93c3 973c a1f8 a1bd
00000280: b199 2fbe 6899 bcbd c432 033d dc0e ccbb
00000290: 2428 a23d b58e adbd 6d47 c5bd 6ab6 03bd
000002a0: 08ee a3bb 46a9 4abd 0d60 1c3d 758c 0fbb
000002b0: 43ad 8dbc 159e 79bd 8cbb 96bd a0e7 f13d
000002c0: d62f 88ba 7505 afbd edea f13b 2041 303d
000002d0: 2267 523d b4a3 22bd ec4e 54bd 9de5 bebc
000002e0: 8a01 16bd b814 31be 0a2a 19bd af26 303d
000002f0: d959 8b3c 038a 46be 1220 a93c dde0 183c
00000300: 6eeb 2c3c f918 3bbe c18e d53c a5c9 9dbd
00000310: 39a9 66bd 69c6 973b 9ce3 f0bb 6213 ac3d
00000320: 44b0 7b3d 0ad7 103d 1acb e83d 7561 7d3d
00000330: 6a4f 533c f336 83bc f5ae 09bd a743 2fbe
00000340: 79c1 6c3d 16e2 c43d 3bfc 40bb aeed 25bd
00000350: e9c5 c63b a6fd a4bd 0881 a9bd 7c6d a73c
00000360: c7c4 773d 4e98 793c 5edc fdbd 645d d33c
00000370: d949 16be 0f84 1ebe 6fc6 853d 3358 393e
00000380: 478a 963c f706 703d 024c acbd 45df 72bd
00000390: 2856 87bc 3c7c c2bd 1f71 e13d ba25 223d
000003a0: 5bfd be3c 2783 9ebc ba6f 963c 4c76 16bd
000003b0: 5fc9 fcbd b0a2 143c 99d4 223e e5ed 34bc
000003c0: 98c3 78bb d672 97be e38c bfbd e421 88ba
000003d0: a2f5 b0bd 953b f9bc 6795 f33c d69e e23c
000003e0: 6273 d9bd 7aa2 943d e092 05be cd93 443d
000003f0: 93c6 253d a4a7 043d 1a9a 19be 75e0 76bd
0.06476655 -0.020622153 -0.028344585 -0.04759383 0.18575254 -0.006969695 0.09913564 0.04852788
0.0072794473 0.07535798 -0.020953896 0.049211077 0.07588068 0.09109446 0.1529754 -0.11203936
0.061814483 -0.07744733 -0.014425931 -0.21628432 -0.061594084 0.086308815 -0.068232685 0.07561625
0.09667044 -0.13140509 0.109701715 -0.12211914 0.053808395 0.00817402 0.052043553 0.023645032
0.10044087 -0.072249554 0.013041433 0.058797244 -0.046876304 -0.22754396 -0.012764672 -0.16365866
0.05289765 -0.010238268 -0.0012059867 -0.10599904 -0.027937554 -0.11365996 0.22311312 0.008874857
0.041175894 -0.002153931 0.033816975 0.07233092 0.033758655 -0.14145622 -0.017650232 0.008093442
0.051847924 -0.07777365 -0.16178514 -0.04341915 0.06174067 0.090501875 0.25084704 0.035812866
0.02425771 -0.040140525 -0.09611261 -0.013102334 -0.08746122 -0.0017710015 -0.0117938295 -0.06592676
-0.165697 0.046405222 -0.085519336 0.04757937 0.04964627 0.08614447 -0.004442059 -0.035922494
0.07301352 -0.10037273 0.10680162 0.013242493 0.0441504 -0.030972106 -0.06829161 -0.019712655
-0.105741374 0.08529114 0.046880987 0.022917477 0.111127615 -0.04976567 -0.108014636 -0.15413262
-0.026619999 0.0027988385 -0.010246642 -0.11448999 0.06348495 0.031198205 0.17863661 0.049900576
0.11732528 0.08539251 0.03870489 0.019554742 0.010866268 -0.034222886 -0.005591542 0.06483829
0.06545465 0.060060613 -0.10962958 -0.015745359 -0.027008248 0.014523747 -0.07048899 0.03975216
0.12386638 0.03720864 -0.043923218 0.019167531 0.027131625 -0.023564415 0.001682777 0.09891347
0.012550866 -0.16812986 -0.1569979 -0.06595587 -0.016584862 0.053225547 0.11000836 -0.008318898
-0.0147837605 0.15006813 0.10475759 -0.009871404 -0.09536484 -0.14771345 -0.022610778 -0.032114424
0.040989134 0.02530669 -0.031883314 0.07458023 0.01173501 0.075549655 0.01956316 -0.008215548
-0.023104 -0.0789883 0.017924609 -0.12236052 -0.015855886 0.078733586 0.018525874 -0.0790875
-0.17148472 -0.092089474 0.032030836 -0.0062273573 0.079178125 -0.08474485 -0.09632764 -0.032156385
-0.005002741 -0.049477838 0.03817754 -0.0021903787 -0.017294532 -0.060941774 -0.073599905 0.11811757
-0.0010390233 -0.08545963 0.0073827417 0.043030858 0.051367886 -0.0397069 -0.05183308 -0.023302848
-0.03662256 -0.1729306 -0.037393607 0.04300564 0.017010616 -0.19388585 0.020645175 0.009330955
0.010554178 -0.18271245 0.026069047 -0.07704476 -0.056313727 0.0046318066 -0.007351352 0.084021345
0.061447397 0.035361327 0.113668635 0.06186052 0.012897352 -0.016017413 -0.033614118 -0.17115651
0.057801697 0.09613435 -0.0029447216 -0.040509872 0.006066073 -0.08056192 -0.08276564 0.020437948
0.060490396 0.015234066 -0.12395547 0.025801368 -0.14676608 -0.15480064 0.06531989 0.18100052
0.018376483 0.058600392 -0.08412935 -0.059294958 -0.016520575 -0.09496352 0.11007904 0.03958676
0.023314169 -0.019349648 0.018363822 -0.03673391 -0.12343096 0.009071991 0.15901412 -0.011043047
-0.003795838 -0.295798 -0.09353044 -0.0010386077 -0.08640601 -0.030423919 0.029734327 0.02766363
-0.10617711 0.072575524 -0.1304431 0.047992516 0.04047258 0.032386437 -0.15000191 -0.060272653

action_model._continuous_distribution.log_sigma f4 [1, 2]
00000000: 0000 0000 0000 0000
0.0 0.0

action_model._continuous_distribution.mu.weight f4 [2, 128]
00000000: 1339 2c3d c504 3d3c fa58 30bc db1b 5ebc
00000010: a012 a83c f12f 25bc 35d4 4fbc db1f 613b
00000020: 3f5e 0bbd 490d 8e3c 313d 9abc 6f5e 883b
00000030: 4c9e 10bd 4340 b3bc 0a9d 5c3c 63fa afbc
00000040: 58b4 1bbc d38b 213b def9 123d afd6 bf3c
00000050: 519e 363c 725a 5bbc 3a33 083c f3b9 5d3b
00000060: 7b96 38bd 20e9 703b 2e02 043c 7ac7 f73a
00000070: 6a29 d83b 9f07 80bc efaa 89bc e3fd 393b
00000080: 23d9 0ebc 3a5b babb 5c37 c3bc abfd ba3c
00000090: 129f ec3c bd5a d03c debd 4539 354b f137
000000a0: 5dc7 7ebc 203c d83c 3384 833b 5345 dfbc
000000b0: ab1e d5bc 1427 ae3c 226a 92bb 6f81 353b
000000c0: 5bc4 38bc 2bf5 3cbb f72d 3d3c 3039 a5bc
000000d0: 0182 383c 3ee8 39bc 1a16 733a c726 4ebc
000000e0: c383 adbc 12e4 623c a857 37bd 8de8 2fbc
000000f0: 8afb 063d 600f aaba 5d78 4dbc e382 003c
00000100: 2f67 1ebd 2dbc 60bc e87d 7bbc df15 adbc
00000110: 660a 4cbb 9d7e f5ba 674a c3bc cb2b 103b
00000120: d99d 1abc 332b 433c fdfa 86bc 6082 963c
00000130: 9b16 f93b 45aa dfbc 98b2 f93b 375d 1cbd
00000140: fe3f 8cbc a5d8 073c 23cb a239 1b4b b53c
00000150: 0ddc df3a 9b1f 02bd a563 163c 6339 e43b
00000160: 5db8 713c 95d4 96bb aaca b3bc f14d 95bc
00000170: 8a67 ce3c c07d 933c 2879 e73c e34d 883b
00000180: 117b 86bc dd87 bd3c d30e 153c 300d cf3b
00000190: 4847 d9bb d049 97bb 7571 a4bc 0656 97bc
000001a0: 27a9 923c 1cc2 c5bc 8fd6 df3c db53 89bc
000001b0: 4c73 1b3d 8a18 663c 20e6 e43b 43f4 7ebc
000001c0: 6b18 8c3b 5fc7 a0bc 40f9 16bc b797 b43b
000001d0: 38c9 adbc 378e b23c ce84 43bc 4a79 6bbb
000001e0: c9ed c7bc d798 493b b249 613c 23fb d7bc
000001f0: ab54 083d 137e ff3b c53e 143d 3f4b 723a
00000200: 9059 1c3c 14c4 a73c cf39 1f3b 27dd ce3c
00000210: 2367 6e3c 40a8 4bbc f2a4 4e3c 9f25 50bc
00000220: ddfc dfba 1dbe 893c e487 12bc a60d 26bc
00000230: 2571 ea3a 9328 dbbc e888 d3bb b7c6 3b3c
00000240: 5089 f9bc 296c 283c f2c3 98bb 02f3 433b
00000250: 7ba2 e13b 7bd8 89bb 3788 dfbc c859 2f38
00000260: d645 26b7 bfd0 463c 5811 233b d7de 343d
00000270: f813 ac3c 9aab b0bc 42c7 e03b 38ec dbbc
00000280: fb5b b53c ff58 b3bb 9de5 f23b 2642 483b
00000290: d575 7b3c e881 f93c 2f2b d83b 90ef 73bb
000002a0: 25a7 0c3d 3f52 b83b 83d4 c33c f89d f63a
000002b0: 3271 e73c 2cb4 ba3b e700 3cbb 1986 1d3d
000002c0: a1bc 84bc 7151 1b3c 8ccd a4bc 18ae 313d
000002d0: 9b31 d43b 67d9 9f3c 07e1 d7bc 8ff1 3c3c
000002e0: f7ce 9abc fac6 f839 a65d 0f3d d5a1 68bc
000002f0: 8b2a 7c3c 4895 4e3d 7a68 253c ad37 5d39
00000300: 89f2 32bc a789 253b 692d 153c 00a4 b4bc
00000310: 8ef7 163a 3855 c03b 1f98 a83c d041 b5bb
00000320: 5010 7d3b 6c75 323c fb8b 94bc e3aa 723b
00000330: 5aa2 c23c eb96 a93c 0200 18bc 1515 123b
00000340: eb16 14bc c792 ad3c 9c9b 8cbc b8d9 153c
00000350: ffb9 a5bc 9d8a a13c c2ce abbc 4416 c8bb
00000360: 9796 6dbc 3a8f afbc d70f c8bc 4175 c43c
00000370: ec5e 34bc 3bb3 22bc eb3e a9bb 27ac b33b
00000380: c63b 16bc f5d3 edbc 4719 8cbc 03ab 9a3c
00000390: 2a0b 4cbc f5d7 8c3c 247b 453c bb94 6ebc
000003a0: affd 94bb c21e 12bd df44 13bc 3247 2cbc
000003b0: 4ddb a53c 2b48 aabb 2df2 e3bc 2f5a cdba
000003c0: 62aa bbbc f289 083c b2c4 e9ba 88ef d23b
000003d0: f68c c03a 0710 c0bc edc4 69bc af0e 1a3d
000003e0: 9fc5 373c 1324 b3bc 8f83 e93c 5501 f4bc
000003f0: a049 123d cd1d e7bc 738d c83b b19f 3abc
0.042046618 0.011536782 -0.010763401 -0.013556446 0.020516694 -0.010082231 -0.012684871 0.0034351263
-0.034025427 0.01734032 -0.018828006 0.004161648 -0.035307214 -0.021881228 0.013465175 -0.021481698
-0.0095034465 0.0024649992 0.035882823 0.023417799 0.011146144 -0.013388263 0.008312995 0.0033832758
-0.045065384 0.0036760047 0.00805716 0.0018904053 0.006596734 -0.015628634 -0.01680514 0.0028380088
-0.008718762 -0.0056871446 -0.023830108 0.022826036 0.028884444 0.025433892 0.00018858115 2.876446e-05
-0.015550462 0.026395857 0.004013562 -0.027254736 -0.0260156 0.021258868 -0.0044682184 0.0027695557
-0.011277284 -0.0028832655 0.011546603 -0.02016887 0.011261464 -0.011346875 0.0009273008 -0.012582487
-0.021180993 0.0138483215 -0.04476133 -0.010736597 0.03295473 -0.0012974553 -0.012540904 0.007843706
-0.038672622 -0.01371674 -0.015349843 -0.021128593 -0.0031134128 -0.001872975 -0.023839189 0.002199876
-0.009437048 0.011912155 -0.016477102 0.018372715 0.0076015717 -0.02730287 0.007620167 -0.038174834
-0.017120358 0.008291398 0.00031050397 0.02213054 0.001707913 -0.031768423 0.009179031 0.006964849
0.014753428 -0.0046029785 -0.021947224 -0.018225642 0.025195856 0.018004298 0.028256014 0.0041596754
-0.016416105 0.023136074 0.009097773 0.0063187107 -0.006630812 -0.0046169534 -0.020073632 -0.018473636
0.017902924 -0.02414041 0.02732399 -0.016763618 0.037951753 0.0140439365 0.006985441 -0.015561166
0.004275372 -0.019626318 -0.009214699 0.00551125 -0.021214113 0.021796329 -0.011933519 -0.0035930448
-0.024405377 0.0030761266 0.0137504805 -0.026364869 0.03328387 0.0077970116 0.036192674 0.000924278
0.009542838 0.02047924 0.0024295931 0.025251938 0.014550957 -0.012430251 0.012612568 -0.012704282
-0.0017088909 0.016814286 -0.008943532 -0.01013509 0.0017886503 -0.026752746 -0.0064555295 0.0114609515
-0.030460984 0.010279694 -0.0046620304 0.0029899483 0.0068858243 -0.0042067147 -0.027286632 4.1806867e-05
-9.910631e-06 0.01213473 0.0024882164 0.04415783 0.021005616 -0.021566201 0.006859691 -0.026846036
0.022138586 -0.0054732556 0.007412626 0.0030557006 0.015347918 0.030457452 0.0065969448 -0.0037221648
0.03433909 0.005625039 0.023905044 0.0018815389 0.028252218 0.0056977477 -0.0028687061 0.038457964
-0.016203227 0.009479866 -0.020117544 0.04337892 0.00647564 0.019512845 -0.026352419 0.011532201
-0.018897517 0.00047450495 0.03500142 -0.01419874 0.015391002 0.050435334 0.01009571 0.00021096943
-0.010922083 0.002525905 0.009105065 -0.022050858 0.00057589344 0.005869534 0.02058035 -0.005531527
0.003861446 0.010892253 -0.018133154 0.0037028126 0.023759056 0.020701846 -0.009277346 0.0022290398
-0.009038667 0.021188153 -0.017164044 0.0091461465 -0.020230291 0.019719416 -0.020972613 -0.00610617
-0.014501235 -0.0214306 -0.024421616 0.023981692 -0.011008959 -0.009930427 -0.005164971 0.0054831686
-0.009169525 -0.029031733 -0.017101897 0.018880373 -0.012453834 0.01719282 0.012053285 -0.014561827
-0.004546843 -0.035673864 -0.008988588 -0.010515021 0.020246172 -0.0051965914 -0.02782544 -0.0015667136
-0.022908393 0.00833367 -0.0017835109 0.0064372458 0.0014690447 -0.023445142 -0.014268142 0.03761166
0.01121655 -0.021867787 0.028505115 -0.029785791 0.035714746 -0.028212452 0.0061203777 -0.011390612

action_model._continuous_distribution.mu.bias f4 [2]
00000000: 0000 0000 0000 0000
0.0 0.0

action_model._discrete_distribution.branches.0.weight f4 [2, 128]
00000000: 2523 bfbb adcd 4b3b 18dd 39bc fba4 3e3b
00000010: 7177 bcbb bce2 12bc d0da dfbb 10ea f038
00000020: 15a3 50bc 122d 7dbc f7d3 9dba 91c5 95bb
00000030: 6564 213c 7b0d 7fbb 3f18 5fbc 912d 053c
00000040: 9534 673a 294c 26bc e39c 013a 8711 c33b
00000050: d1ea 273b 5015 6e3c 5f2d 83bc c38a 5a3a
00000060: d5dd 733b bb52 3a3c 15e3 6dbc 83c1 29bc
00000070: 7ac9 27bc c61f 98b9 0b23 91bc ea4c e53b
00000080: 5956 1fbc 393d 89bb c8a4 3abc 941f 0ebb
00000090: ce1a c938 5807 8e3c 3027 573c e3a5 58bb
000000a0: 7834 b13b 0758 67bc cf3a bfbc 373a bf3b
000000b0: 3357 4b3b a68e a1ba a9ca 1b3b 1b69 5939
000000c0: 53f8 683b 6981 873b 63be 43ba 5f9c 863a
000000d0: 322a 93bc 9266 cf3b 1227 aa3a a744 14bc
000000e0: a9c6 3b3a ab88 d4ba 6aa7 cf38 f7da e23b
000000f0: 80f5 da3b 8f97 263c 3394 2bbc fbe1 93bb
00000100: bb72 473b c75c 203b 8b03 1f3c ff6d f9bb
00000110: 23e0 823b eedb 45bc 5e98 84bc 4aec 353c
00000120: af1c 22bc 002b 593c 5c0e 09bb 116f 33b9
00000130: 9d98 cabb ff6f 95bb 26b5 873b 7b2d 3dbc
00000140: bb6a 963b 884b b13b 53ad 1abc 6409 493b
00000150: b34f 9fbb 13f4 2abc ca7c f03b 638f 4ebc
00000160: 5b80 54bc 6007 553c 82d8 113c 272c 57bb
00000170: bcb9 11bc 627b 4dbc a5c8 dabc 9b34 4dbb
00000180: 63fb 023c 14a4 aabc ed39 6ebb 2db3 3aba
00000190: 6463 b0bb e1ac cc3a a86b 50bc f6e5 11bc
000001a0: fc70 cb3a 7fc0 433c d72e 5139 4020 fd3b
000001b0: c3a6 fbbb b0fd 2a3b 3d08 7dbb a564 53bc
000001c0: 3da5 5b3a 33c9 713c b489 473c bf01 6a3b
000001d0: b32e fa3a af1c 943c 5cc0 233c 2828 a2bb
000001e0: 5293 e4bb 7d65 a13b edc3 66bc 4226 f93b
000001f0: b615 8bbc 0e36 8dbc c77d 913b 3b4c 0d3c
00000200: d3c3 8e3c e839 e4bb ae06 a43b 4704 e9bb
00000210: 975d 3c3b ee98 2a3c a401 bc3b 6e2b c0bc
00000220: 6bac 97ba 9b43 97bc f70c 1b3c 619c 97bb
00000230: f21c 5e3b 1014 d43b 2917 97bc 63f6 6b3b
00000240: 8242 563b bfc4 89bb c8dd e53b bf15 52bb
00000250: d6e0 28bc 6a8b 8d3b fe99 133c a5a1 f9bb
00000260: 3b97 b039 87fb fd39 f852 21bb 767f 073c
00000270: b012 41bb 0a71 d93b a274 a1ba 36c7 36bc
00000280: e5d9 ceba dacf 9337 e525 563c 6fce 0f3c
00000290: 9719 bcb7 ec72 443a 7213 ccbb 48f8 1a3b
000002a0: 255d bfbb 0b7c 933c 6e5a 07bc f79c 83bb
000002b0: 6771 663b 0aa9 5e3c d702 573c cb31 773b
000002c0: 6f40 85bb da37 60bc 10c7 af3b 3b52 cdbb
000002d0: e7ff debb 3930 23bc 1018 25bc 1b48 4bba
000002e0: c99f 153c 2f4f 563b 6195 273c dcd2 94bb
000002f0: 5e03 26bb f18c 0a3b 5c6c 243c 156d ea3b
00000300: e0a1 6c3b 088f fcbb 442e 89bb 003e 74bc
00000310: 581b 7cbc 4f49 5b3b efc1 033c bff5 70bc
00000320: 87b2 05bc d3f1 4bbb a07f e53b 84d9 b03a
00000330: 9d46 bfbb 69b7 0abc 5b2a 1f3c 059d 1e3c
00000340: 80e8 35bc 9276 fbba 9c90 433c 67b9 423a
00000350: d65f 2abc ba76 bdbb 1d2f e93a 9fed b6ba
00000360: 7feb 183b 1d60 e6ba 30c6 52bc 7388 363c
00000370: 108b f8bb 0f08 45bc 2e5c c8ba 4269 5abb
00000380: 0fd4 6b3c 711a 4abb 91f3 8cbb d5a9 223c
00000390: 2fb6 e7bb 01db c5bc 0142 c0bb f5b7 5b3b
000003a0: 9f95 c83a 233e 343b 873e c13b 188e 33ba
000003b0: bd38 60bc d582 6cbb 931a 533b 675f 6ebc
000003c0: 75a1 b2bc 8e0c 28bc 2716 7d3a c799 063b
000003d0: 9f29 ff3a 600e 223c 0b71 f3bb 3f04 f3bb
000003e0: 50b8 0b3c 7c52 05bb 0fae aa3b 7b1c 46ba
000003f0: aaa8 9e3b 1597 e23b ab13 c73c 0d08 c2bb
-0.005833047 0.0031097934 -0.011344217 0.0029090035 -0.005751543 -0.0089651905 -0.0068315044 0.00011487689
-0.012734194 -0.01545264 -0.001204132 -0.004570671 0.009850596 -0.0038917947 -0.013616621 0.00812854
0.0008819786 -0.010149994 0.00049443374 0.005953017 0.002562214 0.0145314485 -0.016012846 0.0008336717
0.003721108 0.011372264 -0.014519473 -0.010361078 -0.010240907 -0.00029015372 -0.017716905 0.0069976943
-0.009725177 -0.0041882065 -0.011391826 -0.0021686302 9.58942e-05 0.017337486 0.013131902 -0.003305786
0.005407866 -0.014120108 -0.023343472 0.005835797 0.0031027317 -0.0012325838 0.0023771918 0.00020733888
0.0035548403 0.0041353 -0.00074670295 0.0010269991 -0.017964456 0.006329366 0.0012981615 -0.009049571
0.00071630866 -0.0016215047 9.9017125e-05 0.0069230753 0.006682098 0.01016797 -0.010472345 -0.004513023
0.0030433375 0.0024469362 0.009705435 -0.0076119895 0.0039940043 -0.012076361 -0.016185936 0.011103699
-0.009894534 0.013254881 -0.00209131 -0.00017112146 -0.0061827437 -0.00456047 0.0041414676 -0.011546488
0.00459036 0.0054106154 -0.009440738 0.0030675763 -0.004861796 -0.010434168 0.0073390948 -0.012607428
-0.012970055 0.013002247 0.008901717 -0.0032832713 -0.00889438 -0.012541624 -0.026707003 -0.0031311873
0.007994506 -0.020830192 -0.0036350444 -0.0007122036 -0.005382942 0.0015615487 -0.01272098 -0.008904925
0.0015521343 0.01194775 0.00019949242 0.0077247918 -0.0076797917 0.002609115 -0.0038609647 -0.0129024135
0.00083788094 0.014757442 0.012178827 0.0035706607 0.0019087404 0.018080084 0.0099945925 -0.0049486347
-0.0069755698 0.0049254284 -0.014084798 0.0076034376 -0.016978126 -0.01723769 0.0044400427 0.008624132
0.01742736 -0.006964911 0.005005679 -0.0071111056 0.0028742307 0.010412438 0.0057375003 -0.023458209
-0.001157177 -0.018464854 0.00946354 -0.004626796 0.0033891764 0.006472118 -0.01844366 0.0036005012
0.003269345 -0.004204362 0.007014964 -0.0032056419 -0.010307511 0.004319598 0.009008883 -0.0076181465
0.0003368201 0.00048443323 -0.0024616104 0.008270135 -0.0029460602 0.0066357898 -0.0012318084 -0.011155894
-0.001578149 1.7620554e-05 0.013070558 0.008777245 -2.2423263e-05 0.00074939313 -0.006227904 0.0023646522
-0.005839961 0.018003484 -0.008261306 -0.0040165144 0.0035162808 0.013590107 0.013123236 0.0037718888
-0.004066519 -0.013685191 0.0053643063 -0.006265906 -0.0068054083 -0.009960228 -0.010076538 -0.000775458
0.009132334 0.0032701006 0.010228486 -0.004541738 -0.0025331597 0.0021141137 0.0100356005 0.007154117
0.0036107227 -0.0077074803 -0.0041864235 -0.01490736 -0.015387379 0.0033460443 0.008041843 -0.014707028
-0.00816024 -0.003111948 0.0070037395 0.0013492559 -0.005837275 -0.00846658 0.009714688 0.009680991
-0.011102796 -0.0019185117 0.011936333 0.000742814 -0.010398826 -0.0057819756 0.001779053 -0.0013956315
0.0023333726 -0.0017576251 -0.012864634 0.0111409305 -0.007584937 -0.012025847 -0.0015286261 -0.0033326899
0.01439382 -0.0030838514 -0.0043014963 0.009928186 -0.0070712785 -0.02415228 -0.0058672433 0.0033526395
0.001530338 0.0027502857 0.0058973464 -0.0006849482 -0.013685402 -0.0036088724 0.0032211884 -0.014549113
-0.021805504 -0.0102568995 0.0009654485 0.0020538436 0.001946736 0.009891123 -0.0074292473 -0.0074162777
0.00852783 -0.0020343354 0.0052087377 -0.00075573445 0.0048418837 0.006914983 0.02430137 -0.00592137
