results/SelfPlay1/1v1/1v1-135703.onnx (onnx, 81810 bytes, 9 tensors)

network_body._body_endoder.seq_layers.0.weight f4 [128, 12]
-0.20610282 -0.15332243 -0.676602 -0.1967374 0.21535335 -0.4459682 -0.18889433 -0.24319097
0.030293452 -0.44041616 0.6904379 -0.31099927 -0.14022459 -0.5663584 0.10746927 -0.20183593
-0.24099782 0.24974407 -0.23641288 -0.28358734 0.29591143 0.37542543 -0.7529886 0.024966808
0.57307774 0.2641285 -0.09956246 -0.06558508 0.019050878 -0.12947734 -0.20886071 0.252606
0.3429023 0.16758092 -0.24739157 0.4348643 -0.22063501 -0.027477002 0.07376499 -0.24213986
-0.21604285 -0.1660008 0.5245609 -0.17643604 -0.34258643 0.15524817 -0.057717405 -0.1311204
-0.04244018 -0.011298364 0.18770836 -0.28713226 0.23882952 0.5283185 -0.2584198 0.0134716565
-0.11662396 -0.0038380704 0.50875604 0.5904169 -0.19314416 0.32310152 0.2802748 -0.28675953
0.1666746 0.3132304 -0.5446469 0.27328885 0.43664417 0.03339483 -0.064778954 -0.038392503
0.06567152 -0.72565424 0.08554305 -0.30871397 -0.30474672 -0.16179195 0.42415395 -0.08910226
-0.09957545 0.62852204 -0.10635451 -0.14689259 -0.19924927 0.068602145 0.27456978 -0.12517029
-0.39291257 0.19413823 0.15459 0.014118995 0.3036901 0.17163084 -0.14922042 0.29681286
-0.47096816 -0.11218913 -0.20740485 -0.036414996 0.33407125 -0.27445197 -0.046452634 -0.7046462
-0.4448884 -0.19678451 0.0042358567 -0.0046674786 0.08930145 -0.046320952 0.072241716 0.108722426
0.032060735 -0.19370897 -0.05175921 -0.25242782 -0.1974686 -0.012956617 0.24518998 0.036745228
-0.13262242 -0.33302397 0.13766794 -0.16495739 -0.22450262 -0.2794967 -0.054599635 -0.29130596
0.34853792 0.22165856 -0.32020646 0.5068844 0.36836258 -0.038778912 -0.1679252 0.51167023
-0.10462541 -0.32374403 -0.44346276 0.05912562 0.54076487 0.025882773 -0.4090814 0.11279915
-0.3887251 -0.075814515 0.19261153 -0.051697664 0.11976561 -0.33701095 0.1504464 -0.16407575
-0.0023849444 0.34726393 -0.050551996 -0.16879663 0.07416215 -0.074890636 -0.4496406 -0.2722228
-0.42790526 -0.15486246 -0.12777135 0.29536778 0.6983773 0.26628622 -0.42161816 0.05727012
-0.35899484 -0.1419865 -0.11025973 -0.05987329 -0.28122386 -0.11128847 0.26634294 -0.07428717
0.2520228 -0.10563502 -0.5533027 -0.39910337 0.24298957 -0.04578114 -0.5775449 0.318508
-0.1317277 0.111003615 0.0717564 0.11964284 -0.15956312 0.08393821 0.53334254 -0.42687643
0.45751038 0.47453123 -0.29509756 0.3377418 0.13291773 -0.11693555 0.7675241 0.07773457
0.5824489 -0.5907254 0.18464252 0.31306756 0.4474976 -0.28076962 0.48260057 -0.5047147
0.104701295 0.036722638 0.1643974 0.20362955 0.28682107 -0.284325 -0.17321132 -0.3701242
-0.23664068 0.117693745 0.5127864 -0.4357511 0.61217827 0.04609889 0.1105021 0.6254512
-0.07153548 0.60695505 -0.03222979 0.39371657 -0.45703363 0.26758155 -0.00013678029 -0.3453148
0.12064977 -0.15341389 0.586735 0.06052079 0.23858202 -0.035817385 0.31441057 0.53661865
-0.2884654 -0.1934435 0.7407518 0.033899006 0.15862203 0.37868714 -0.105128 0.16462542
0.2753691 0.10541423 0.06319319 -0.0010355043 -0.41825187 -0.13822015 0.030342253 -0.19432218
00000000: 9e0c 53be 8e00 1dbe ca35 2dbf 8775 49be
00000010: 9785 5c3e f255 e4be 846d 41be 0e07 79be
00000020: f929 f83c 3a7e e1be 8ac0 303f 4c3b 9fbe
00000030: 0997 0fbe ddfc 10bf d918 dc3d 14ae 4ebe
00000040: 22c8 76be e9bc 7f3e 3816 72be 5c32 91be
00000050: b481 973e c337 c03e dcc3 40bf 3187 cc3c
00000060: 39b5 123f da3b 873e 67e7 cbbd 7851 86bd
00000070: 9610 9c3c b595 04be 95df 55be 9355 813e
00000080: e490 af3e 559a 2b3e 3754 7dbe 89a6 de3e
00000090: 25ee 61be 7317 e1bc 1912 973d 83f3 77be
000000a0: 563a 5dbe 1dfc 29be a049 063f a6ab 34be
000000b0: 7d67 afbe 60f9 1e3e 1669 6cbd 6d44 06be
000000c0: c1d5 2dbd c61c 39bc 9f36 403e 0003 93be
000000d0: ba8f 743e e23f 073f 9a4f 84be 39b8 5c3c
000000e0: 8bd8 eebd 2388 7bbb d63d 023f 9025 173f
000000f0: 95c7 45be 906d a53e 2e80 8f3e 25d2 92be
00000100: bfac 2a3e bc5f a03e fb6d 0bbf 84ec 8b3e
00000110: d38f df3e 04c9 083d d4aa 84bd 7541 1dbd
00000120: ca7e 863d 7ac4 39bf 3231 af3d c20f 9ebe
00000130: c307 9cbe caac 25be b52a d93e 3f7b b6bd
00000140: 37ee cbbd d2e6 203f 65d0 d9bd 036b 16be
00000150: 0008 4cbe 487f 8c3d 6994 8c3e a42c 00be
00000160: d62b c9be 2ccc 463e d74c 1e3e 5b53 673c
00000170: 457d 9b3e ffbf 2f3e 3dcd 18be dbf7 973e
00000180: bd22 f1be 6ac3 e5bd f061 54be e427 15bd
00000190: 630b ab3e f884 8cbe 1e45 3ebd b263 34bf
000001a0: 6ac8 e3be e181 49be f1cc 8a3b a6f1 98bb
000001b0: aee3 b63d 0abb 3dbd 77f3 933d dda9 de3d
000001c0: 1e52 033d a55b 46be 7701 54bd 383e 81be
000001d0: 3535 4abe fe47 54bc 1513 7b3e 2a82 163d
000001e0: 2cce 07be 1e82 aabe d3f8 0c3e 97ea 28be
000001f0: 04e4 65be 311a 8fbe dea3 5fbd 0e26 95be
00000200: 9073 b23e 76fa 623e 1af2 a3be 2dc3 013f
00000210: 059a bc3e a3d6 1ebd 95f4 2bbe d2fc 023f
00000220: d945 d6bd c7c1 a5be 8d0d e3be b52d 723d
00000230: 916f 0a3f 1c08 d43c 1e73 d1be 3e03 e73d
00000240: fa06 c7be a444 9bbd f53b 453e eec0 53bd
00000250: ac47 f53d b38c acbe 9f0e 1a3e 7903 28be
00000260: ba4c 1cbb 94cc b13e 9c0f 4fbd 06d9 2cbe
00000270: 53e2 973d 4360 99bd 4b37 e6be c960 8bbe
00000280: 6616 dbbe 4494 1ebe 7ed6 02be 723a 973e
00000290: dbc8 323f ab56 883e 56de d7be 1394 6a3d
000002a0: 2cce b7be e964 11be dacf e1bd b23d 75bd
000002b0: 93fc 8fbe 36eb e3bd 1a5e 883e df23 98bd
000002c0: 2209 813e 2c57 d8bd 3fa5 0dbf 4757 ccbe
000002d0: 42d2 783e 0185 3bbd fcd9 13bf 7b13 a33e
000002e0: a0e3 06be dd55 e33d 05f5 923d 4e07 f53d
000002f0: 8464 23be cce7 ab3d 2389 083f 8c8f dabe
00000300: cd3e ea3e c2f5 f23e 0717 97be 7eec ac3e
00000310: 961b 083e e87b efbd 767c 443f 4d33 9f3d
00000320: 5f1b 153f c839 17bf ee12 3d3e 644a a03e
00000330: 681e e53e 09c1 8fbe 6c17 f73e fc34 01bf
00000340: a26d d63d 7a6a 163d cb57 283e 4484 503e
00000350: 36da 923e 0c93 91be 4f5e 31be eb80 bdbe
00000360: ef51 72be 6b09 f13d f845 033f c51a dfbe
00000370: b7b7 1c3f 31d2 3c3d ed4e e23d 921d 203f
00000380: 3281 92bd 6861 1b3f 6203 04bd 3895 c93e
00000390: 5000 eabe 7300 893e ae6c 0fb9 1acd b0be
000003a0: 3a17 f73d 8818 1dbe 4434 163f a6e4 773d
000003b0: d84e 743e 40b5 12bd 6cfa a03e d75f 093f
000003c0: bdb1 93be 0e16 46be e9a1 3d3f afd9 0a3d
000003d0: d06d 223e 48e3 c13e 594d d7bd 9193 283e
000003e0: 2efd 8c3e 6ae3 d73d 6e6b 813d c2b9 87ba
000003f0: 1c25 d6be 9589 0dbe 5190 f83c 65fc 46be

network_body._body_endoder.seq_layers.0.bias f4 [128]
0.0012425005 -0.00039618724 -0.0011291456 0.00037548796 -0.00079088163 -0.0015904958 0.000743901 -0.00043952322
0.00041480482 0.0012249959 -0.001146618 -8.3932064e-05 -0.00028085875 -0.0002982481 -0.001433929 0.0013091142
0.0010855491 0.0010359861 -0.00029470708 0.00015624946 -0.0019648843 0.0009242079 -0.0010973867 0.001389494
-0.0004004547 0.0017384843 0.00027124 0.0021219782 -0.0009997111 -0.000533878 -0.00014237674 -0.001750447
-0.0004809547 4.801912e-05 0.00031367203 -0.00054369186 -0.0003623397 -0.0017309468 -0.0016912951 0.00071701786
-0.00021094015 -0.00039500397 -0.00031500717 0.00040410395 0.00013743364 -0.0007026937 -0.0004242314 -0.00238962
-0.0008372077 0.00033631935 0.0010324385 -7.795714e-05 -0.0021897138 -0.00027498917 -0.00054266123 0.0014726432
0.0002388641 0.0006081312 -0.0010553263 9.789989e-05 -0.001607813 -0.001105457 -0.00050712045 0.00082489534
0.00021303211 0.00039948698 -6.477728e-05 -0.00012417331 -0.00024221311 0.0019815813 0.00027660336 -0.00014109125
0.0013127554 -0.0012768633 0.0006196975 -0.00085553376 -0.0015169444 1.527557e-05 -0.00020569714 0.0006600519
-0.0007840501 0.0013460038 -0.001059159 -0.0016349003 0.0013677021 -0.00065004686 -0.0007599773 0.00019550938
-6.5553315e-05 -0.00029758562 -0.0013156398 -0.00038755973 0.0001810954 -5.390913e-05 -9.312509e-05 -0.00013784709
-0.0008243967 -0.0003051597 -0.00018388817 0.0001340308 0.0010804588 0.00043318782 0.0010750637 -0.0006609482
-0.00029737194 0.00042690567 5.8401107e-05 0.0011277695 0.0010803685 -0.0015555978 -0.0002770783 -0.001584496
-4.180674e-05 0.0006738299 -0.00031862085 0.00055221404 -0.00029030922 0.0005644387 0.0015165792 -0.0010319473
-0.0010671774 0.00018387848 -1.5091196e-05 0.0010129432 -0.0011259648 0.000819568 0.00070173753 -0.0011945616
00000000: 66db a23a 5ab7 cfb9 d7ff 93ba 24dd c439
00000010: 2b53 4fba 2f78 d0ba 5a02 433a cf6f e6b9
00000020: 297a d939 0b90 a03a 1e4a 96ba af04 b0b8
00000030: 3940 93b9 2f5e 9cb9 acf2 bbba 9596 ab3a
00000040: fc48 8e3a edc9 873a ea82 9ab9 e5d6 2339
00000050: 4ac5 00bb 8b46 723a 30d6 8fba af1f b63a
00000060: 1ff4 d1b9 dadd e33a 3735 8e39 e310 0b3b
00000070: bd08 83ba f2f3 0bba f74a 15b9 416f e5ba
00000080: a628 fcb9 2368 4938 5974 a439 8b86 0eba
00000090: 69f8 bdb9 f0e0 e2ba 72ae ddba 41f6 3b3a
000000a0: d12f 5db9 8918 cfb9 8c27 a5b9 eadd d339
000000b0: 101c 1039 fa34 38ba 606b deb9 2c9b 1cbb
000000c0: 0f78 5bba 0554 b039 e352 873a ec7c a3b8
000000d0: 4d81 0fbb 6c2c 90b9 6141 0eba b505 c13a
000000e0: 9877 7a39 fe6a 1f3a e052 8aba 9a4f cd38
000000f0: 41bd d2ba fbe4 90ba 47f0 04ba ca3d 583a
00000100: 5f61 5f39 3c72 d139 0ad9 87b8 8534 02b9
00000110: 96fa 7db9 6bdd 013b 1305 9139 e5f1 13b9
00000120: c310 ac3a 6c5c a7ba 3273 223a e645 60ba
00000130: 35d4 c6ba 0924 8037 68b0 57b9 5507 2d3a
00000140: b688 4dba 656c b03a 7bd3 8aba 274a d6ba
00000150: 7844 b33a e867 2aba 3739 47ba a601 4d39
00000160: ab79 89b8 4405 9cb9 8c71 acba 6331 cbb9
00000170: 6de4 3d39 7d1c 62b8 274c c3b8 0c8b 10b9
00000180: 531c 58ba d7fd 9fb9 1bd2 40b9 9e8a 0c39
00000190: 2e9e 8d3a 7c1d e339 27e9 8c3a 7c43 2dba
000001a0: 96e8 9bb9 4fd2 df39 b6f3 7438 aad1 933a
000001b0: 279b 8d3a 33e5 cbba d244 91b9 ddae cfba
000001c0: a559 2fb8 f6a3 303a 910c a7b9 75c2 103a
000001d0: a534 98b9 d7f6 133a f4c7 c63a 6842 87ba
000001e0: 88e0 8bba 81cf 4039 3130 7db7 bcc4 843a
000001f0: 1c95 93ba 47d8 563a cff4 373a d692 9cba

network_body._body_endoder.seq_layers.2.weight f4 [128, 128]
0.0103566395 0.11396504 0.05328641 0.034491047 -0.08205859 -0.09610182 -0.076202706 -0.080902494
-0.016852971 0.03790649 0.0628751 0.015080858 0.07813524 -0.031944983 -0.022886977 -0.06333249
0.04246831 -0.044739537 0.12453425 0.018872842 0.07401998 0.0003421254 -0.02210745 -0.088004574
0.0011960012 -0.23362304 0.06617353 -0.0641152 0.06783985 0.048864502 -0.1415509 -0.008395461
0.19244438 0.010882583 0.00805725 0.05406716 0.07037499 -0.15421736 0.03857983 -0.0671685
0.013657893 -0.17398825 -0.057069674 -0.055650122 0.00484235 -0.10015786 -0.09374538 0.025371408
-0.008624916 -0.068981536 -0.06268671 -0.10293171 0.0015269014 -0.03628821 0.017699009 0.06873469
0.11293683 -0.03278273 0.021292163 -0.15040419 -0.006637974 -0.05752196 -0.08984045 0.03875146
-0.021336924 -0.058069468 -0.079005145 0.036697276 0.16953723 0.020093257 -0.14449878 0.03735362
0.13218074 -0.0075095817 -0.05219608 -0.002520234 0.09729299 -0.17458542 -0.09748127 0.07970979
0.06355345 -0.0030297842 0.14222123 0.03536243 -0.044465467 0.05233598 -0.019583741 0.000805724
0.11533248 0.053365428 0.19391303 -0.20501916 0.06796097 -0.08152091 0.09214462 0.040124033
-0.06455126 -0.07161349 -0.06484937 -0.15170926 0.12531178 0.13169846 -0.074078694 -0.027197178
-0.09354985 0.1162846 0.032553356 -0.12953915 0.1434126 -0.07856601 0.04535885 0.1832272
-0.13334598 -0.13595645 0.045499723 0.033319294 0.13607407 -0.14577927 0.0777651 0.034398984
0.074156776 -0.027316382 0.110478394 0.058463085 0.05561077 0.0071607083 -0.18335171 -0.038573757
0.10757829 -0.005013318 -0.016949967 0.0799859 0.04809343 0.07521979 0.050024055 0.13052699
0.014465748 0.024489623 -0.058210727 0.025904022 -0.1070708 -0.047000688 0.13246188 -0.038119745
0.049285553 0.063441746 0.018594837 -0.1088845 -0.01677721 -0.06767602 0.016808378 -0.0017698411
0.16857323 0.0067651523 -0.07633374 0.011807961 -0.08222863 -0.066670984 0.08609612 0.05229355
-0.045994703 -0.013190941 0.068381734 0.039523922 -0.011083386 -0.036151778 0.03473041 0.049128238
-0.10579556 0.0984153 -0.1916453 -0.0607146 0.08122894 -0.042014126 0.027281998 0.15111315
-0.10971661 -0.1655762 -0.08593958 0.13331428 0.003944029 -0.15496476 0.019458449 -0.027609386
-0.115226835 -0.008362531 -0.028141724 -0.12193469 0.022614105 -0.20367534 0.07454633 0.023732856
0.10234923 -0.078014426 -0.044503376 -0.07299902 -0.013024273 -0.019651294 0.16026536 -0.13613348
-0.042691287 -0.04923297 -0.026733488 -0.023331681 -0.045990106 -0.056349494 -0.087205954 -0.0934992
0.007242257 -0.004355118 0.11828438 -0.048085384 -0.12427298 -0.072463766 -0.091796465 0.11185355
0.031245967 -0.014180143 0.006673209 -0.29056242 -0.029725978 0.1834268 0.035405584 -0.0861609
0.045196027 0.027008498 -0.041282043 -0.048102666 0.05611604 -0.07569068 -0.010366583 -0.009522706
0.06638552 0.07263817 -0.119909495 -0.096185885 0.008925097 0.18832825 0.005396032 0.07263552
0.10879253 -0.20368643 0.0031346593 -0.023764791 -0.014504491 0.015638795 0.010533645 -0.017832922
-0.1117965 -0.018961495 -0.035135128 -0.013825936 0.101659894 0.033759695 0.07644072 -0.122033246
00000000: e5ae 293c 8166 e93d da42 5a3d 7c46 0d3d
00000010: 560e a8bd 08d1 c4bd 2a10 9cbd 35b0 a5bd
00000020: 3e0f 8abc d643 1b3d a9c4 803d b415 773c
00000030: 5e05 a03d bed8 02bd 787d bbbc 77b4 81bd
00000040: 40f3 2d3d ce40 37bd d00b ff3d 389b 9a3c
00000050: ca97 973d 4b5f b339 af1a b5bc be3b b4bd
00000060: 24c3 9c3a e13a 6fbe fd85 873d d44e 83bd
00000070: 9fef 8a3d 2526 483d b8f2 10be 1e8d 09bc
00000080: 2410 453e dd4c 323c 8e02 043c 8775 5d3d
00000090: c320 903d 28eb 1dbe e205 1e3d a38f 89bd
000000a0: 5bc5 5f3c fa29 32be e4c1 69bd 62f1 63bd
000000b0: 93ac 9e3b 901f cdbd 94fd bfbd b3d7 cf3c
000000c0: 854f 0dbc 3146 8dbd e461 80bd dccd d2bd
000000d0: 4f22 c83a f2a2 14bd 83fd 903c c6c4 8c3d
000000e0: 6d4b e73d 2f47 06bd e76c ae3c 8e03 1abe
000000f0: 5d83 d9bb 269c 6bbd 45fe b7bd dab9 1e3d
00000100: c6ca aebc 40da 6dbd 73cd a1bd e24f 163d
00000110: 2b9b 2d3e 9d9a a43c 7df7 13be 1c00 193d
00000120: 635a 073e f012 f6bb 8fcb 55bd 832a 25bb
00000130: 8c41 c73d 85c6 32be 43a4 c7bd e33e a33d
00000140: 5028 823d 588f 46bb 71a2 113e 32d8 103d
00000150: 6c21 36bd 415e 563d 156e a0bc 3937 533a
00000160: 6f33 ec3d b595 5a3d 2391 463e 8bf0 51be
00000170: 1f2f 8b3d 6ff4 a6bd 52b6 bc3d 1959 243d
00000180: 7333 84bd 18aa 92bd bfcf 84bd ac59 1bbe
00000190: bb51 003e f6db 063e 92b6 97bd 9ecc debc
000001a0: 1097 bfbd 9f26 ee3d ab56 053d e9a5 04be
000001b0: c1da 123e 37e7 a0bd 34ca 393d e99f 3b3e
000001c0: d98b 08be 2b38 0bbe eb5d 3a3d d079 083d
000001d0: 0057 0b3e 2947 15be 4f43 9f3d f3e5 0c3d
000001e0: 82df 973d 9bc6 dfbc 7f42 e23d fd76 6f3d
000001f0: 1ec8 633d 60a4 ea3b 8dc0 3bbe 84ff 1dbd
00000200: 0252 dc3d c246 a4bb a8da 8abc a6cf a33d
00000210: 9efd 443d d50c 9a3d 06e6 4c3d dea8 053e
00000220: bf01 6d3c 769e c83c 5f6e 6ebd ac34 d43c
00000230: f047 dbbd cb83 40bd 16a4 073e 7323 1cbd
00000240: a6df 493d bfed 813d 3354 983c d6fe debd
00000250: 5c70 89bc ba99 8abd b9b1 893c 03fa e7ba
00000260: 769e 2c3e 36ae dd3b dd54 9cbd 2e76 413c
00000270: 7c67 a8bd cc8a 88bd 2a53 b03d c331 563d
00000280: f164 3cbd d11e 58bc b90b 8c3d d6e3 213d
00000290: 1797 35bc e313 14bd 7941 0e3d b13a 493d
000002a0: 58ab d8bd f68d c93d aa3e 44be dfaf 78bd
000002b0: 5c5b a63d 0117 2cbd 7f7e df3c 68bd 1a3e
000002c0: 1ab3 e0bd cf8c 29be 1701 b0bd 8a83 083e
000002d0: ea3c 813b 15af 1ebe 5367 9f3c 142d e2bc
000002e0: 0cfc ebbd ff02 09bc 7989 e6bc e5b8 f9bd
000002f0: 3741 b93c 4590 50be bfab 983d 686b c23c
00000300: 799c d13d 07c6 9fbd 2c49 36bd 8380 95bd
00000310: c363 55bc c0fb a0bc 9a1c 243e 9366 0bbe
00000320: 0fdd 2ebd 83a8 49bd 3000 dbbc 1522 bfbc
00000330: 1f60 3cbd bace 66bd 0999 b2bd 827c bfbd
00000340: 7450 ed3b 61b5 8ebb 153f f23d 2ef5 44bd
00000350: d582 febd e267 94bd c9ff bbbd 7913 e53d
00000360: 8bf7 ff3c d553 68bc efaa da3b 99c4 94be
00000370: e583 f3bc 3cd4 3b3e 7205 113d 2075 b0bd
00000380: 781f 393d ed40 dd3c 5c17 29bd 4d07 45bd
00000390: efd9 653d b703 9bbd 9ad8 29bc 2005 1cbc
000003a0: 22f5 873d 52c3 943d 1c93 f5bd 1bfd c4bd
000003b0: 923a 123c 1fd9 403e 32d1 b03b eec1 943d
000003c0: 9ece de3d 2d93 50be db6e 4d3b 61ae c2bc
000003d0: 3fa4 6dbc ee1c 803c 4f95 2c3c 5916 92bc
000003e0: 90f5 e4bd 2355 9bbc dae9 0fbd 2e86 62bc
000003f0: 1033 d03d 9b47 0a3d f48c 9c3d 91ec f9bd

network_body._body_endoder.seq_layers.2.bias f4 [128]
-0.00097135594 -0.0010796923 -0.0015819472 0.00034349653 -0.0009846784 -0.00037273584 -0.00033383718 -0.00084204116
0.00023986389 -0.0013807093 0.00015885152 -0.00093427027 0.0009358312 -0.00034792488 -0.0014738755 0.00050944946
0.0008480712 -0.00052040647 -0.000111506255 0.00085138634 0.00068520516 -0.0012544106 0.001388822 -0.0005177703
0.0007773236 -0.00020555157 9.470327e-05 0.0007061312 -0.0006497884 0.00034820518 0.00013985572 -0.00024707612
0.0008697454 -4.089896e-05 -0.00076291873 2.9898953e-05 -0.00048207288 -0.00029517943 -0.0005247957 0.00040144642
0.00028854937 0.00031897056 0.00065623503 0.00060804334 6.2464e-05 0.00012581308 0.0011847938 -0.00016703669
0.0008259839 0.00040313555 -0.00032880314 -0.00042245473 0.0006546362 -0.00039512673 -0.0005124626 5.4353663e-05
0.00089466 0.001146833 0.0011608319 0.00026374857 -0.0008511487 0.0010136075 0.00035576892 3.511125e-05
0.00020197988 -0.00060624664 0.0010422003 -0.0002322394 -0.00042089596 -0.0007002056 5.762801e-05 -0.0013804871
-0.00027970836 -0.00030162476 -0.0008433682 0.0015254035 0.00040587207 -0.0005028835 0.0002472699 0.00040307426
0.000824554 5.9237766e-05 -0.0002234974 0.0008941528 0.00013436703 0.0010013523 -0.00082978257 0.00013069468
0.00029163688 0.00083013746 0.00039166163 0.000700233 -0.00019455272 0.00012111837 0.00033009058 0.00010931889
-0.00010689742 -0.00011094276 -0.0005108959 -0.00033432373 0.00019974801 -0.00072009244 0.00015831026 -0.0002669407
-0.00030909153 -0.0009910697 -0.00062514853 0.0009115424 -0.0009041146 0.0006895455 -0.000117585856 0.00028213387
-0.0012494627 -0.00074619235 0.0007352777 0.000514808 0.000701358 -3.1508098e-05 0.00052038464 -0.0005023204
-0.0008088677 -0.0007678598 -0.0007229824 -0.0011082494 0.00028601516 -3.9693106e-05 4.4259405e-06 0.0007343679
00000000: 98a2 7eba 7684 8dba 5759 cfba 5317 b439
00000010: 5310 81ba c26b c3b9 de06 afb9 6dbc 5cba
00000020: f983 7b39 ebf8 b4ba 6191 2639 d1e9 74ba
00000030: 9252 753a b069 b6b9 0e2f c1ba 938c 053a
00000040: 1851 5e3a e36b 08ba 77d8 e9b8 922f 5f3a
00000050: 579f 333a 096b a4ba 2209 b63a faba 07ba
00000060: 4ec5 4b3a 5489 57b9 6e9b c638 aa1b 393a
00000070: 9056 2aba 4f8f b639 3ca6 1239 ff89 81b9
00000080: a0ff 633a ed8a 2bb8 9cfe 47ba 83cf fa37
00000090: babe fcb9 50c2 9ab9 7192 09ba 3a79 d239
000000a0: 7148 9739 813b a739 3007 2c3a 1965 1f3a
000000b0: 1bff 8238 b1ec 0339 154b 9b3a 9226 2fb9
000000c0: d786 583a f05b d339 3663 acb9 ea7c ddb9
000000d0: e49b 2b3a 0329 cfb9 c856 06ba cdf9 6338
000000e0: 9e87 6a3a 5451 963a 0e27 983a bc47 8a39
000000f0: 9f1f 5fba 06db 843a 7f86 ba39 6b44 1338
00000100: 90ca 5339 86ec 1eba 709a 883a 4a85 73b9
00000110: b3ab dcb9 018e 37ba 9bb5 7138 76f1 b4ba
00000120: d2a5 92b9 6423 9eb9 7b15 5dba 0cf0 c73a
00000130: 3acb d439 f1d3 03ba 01a4 8139 b653 d339
00000140: e226 583a 1176 7838 a05a 6ab9 9465 6a3a
00000150: e0e4 0c39 cf3f 833a c485 59ba 160b 0939
00000160: d7e6 9839 959d 593a ef57 cd39 d78f 373a
00000170: d900 4cb9 ee00 fe38 0210 ad39 2242 e538
00000180: 1e2e e0b8 f1a9 e8b8 a5ed 05ba 2c48 afb9
00000190: 7373 5139 96c4 3cba 1600 2639 2df4 8bb9
000001a0: 900d a2b9 c8e6 81ba 02e1 23ba 93f4 6e3a
000001b0: 1b02 6dba 9dc2 343a 6d98 f6b8 5eeb 9339
000001c0: 03c5 a3ba 1f9c 43ba a7bf 403a 2ef4 063a
000001d0: 57db 373a 9027 04b8 6c6a 083a 27ae 03ba
000001e0: 310a 54ba 334a 49ba 8786 3dba ae42 91ba
000001f0: 4ef4 9539 267c 26b8 8a82 9436 9882 403a

action_model._continuous_distribution.log_sigma f4 [1, 2]
0.0010028309 0.000758254
00000000: 6c71 833a 91c5 463a

action_model._continuous_distribution.mu.weight f4 [2, 128]
-0.027735965 0.011449329 -0.0032930467 -0.018080048 -0.0029955606 0.0030240077 -0.0025547836 -0.014602915
-0.018773891 0.0022692643 -0.012059955 0.010284065 0.005319079 0.02138579 -0.008418416 -0.0053033624
-0.008319779 0.0071398513 -0.012833097 -0.028446475 0.0014245153 0.0056959745 0.011035561 0.013948726
0.0034204617 -0.0050871265 0.027721262 0.020546826 -0.031654447 -0.0010328991 0.0056766164 -0.010384402
0.0032252464 0.0070451475 -0.019013021 -0.01097349 0.03438883 -0.018931158 -0.009527038 0.016023425
0.022428127 0.029075796 -0.010603778 -0.005641852 0.00476066 -0.0037760346 -0.0077879997 -0.031832736
-0.016205458 -0.011352589 -0.01795587 -0.02638261 -0.008858806 -0.018582333 0.006422578 -0.016788023
0.018520009 -0.0014735431 0.0198307 -0.014995303 0.010914384 -0.023371026 -0.034946475 -0.004605417
0.009587088 -0.006927539 -0.008378051 0.009257769 -0.015523057 0.02784434 -0.008351704 0.015629342
0.018262003 -0.023969136 0.016775256 -0.018331647 0.018094363 -0.024519004 0.007544502 -0.0012878792
0.022956053 0.0065847063 0.020993538 -0.030280877 -0.0072518154 0.021551618 -0.006521835 0.004234392
-0.034576286 0.01339828 0.032735966 -0.0036570625 -0.022038624 0.046584316 -0.0068231304 -0.0030778158
0.010599805 0.004038203 0.015457035 -0.004100447 0.005661775 0.010964924 -0.011697121 -0.0041824556
0.0049077654 -0.0041088234 0.00040273252 0.0011273694 -0.0021445954 -0.0022413277 -0.020253738 0.016242933
-0.014169257 -0.0049368227 0.004509943 0.0074389386 -0.02676841 -0.011375453 0.016952638 0.009984415
0.006679399 -0.017199462 -0.032006644 -0.013281545 0.035533983 0.01576414 -0.008886721 0.02853943
-0.025160974 0.0133253075 -0.013244726 0.010784475 0.0015895019 -0.010154494 -0.008796763 0.011559999
0.015954377 -0.02713519 0.0075569367 0.03376694 0.01635418 0.021395499 -0.041098226 -0.01808778
-0.016296115 0.019018427 -0.007917124 0.03646918 -0.037649725 -0.018062202 0.007712175 -0.018140115
0.0033590852 -0.008480944 -0.027381612 0.0034456986 0.017425364 0.030142348 -0.012897249 0.013207978
0.019525254 -0.0075688045 0.021058703 -0.010862719 -0.03180328 -0.023807978 -0.023642514 0.006742578
0.005388637 -0.023287851 0.014089332 0.034078334 -0.041929077 -0.0060685654 0.031782962 -1.9500807e-05
0.021449955 0.007263891 -0.0056256247 0.004926159 0.019766726 0.02699426 0.00059273577 0.003666941
-0.021403054 -0.03443853 -0.048828766 -0.0072771106 -0.01843709 0.027689049 0.025553789 -0.0016446377
0.023026003 -0.012817721 0.05636677 -0.01288001 0.0120106535 -0.0056888605 0.012669382 -0.037345584
-0.015004206 0.0043965396 0.026263267 0.021250963 -0.0042660264 -0.0028549964 -0.005539703 7.7812394e-05
-0.042353597 0.005874289 -0.015922936 0.016684534 -0.008448243 -0.013841943 -0.0031331293 -0.022409752
-0.019819215 0.005524448 0.0014778107 0.015136925 0.00491241 -0.0047510676 0.03462746 0.008875505
0.023387786 0.011067412 -0.033803534 -0.003985747 -0.014713067 -0.012650205 0.013415001 -0.0029636102
0.0037115782 0.00021438443 -0.023289401 0.012076648 -0.011271767 0.018931307 -0.010593656 0.003467047
-0.023108196 -0.0043937573 -0.017677 0.012307918 -0.012750592 0.011335297 0.023752442 -0.010526634
0.009559887 -0.014086202 -0.0037457556 0.010575027 0.012467704 -0.008262447 0.009781525 -0.011896454
00000000: 8936 e3bc f795 3b3c 28d0 57bb 9c1c 94bc
00000010: 2b51 44bb 6e2e 463b 286e 27bb 1141 6fbc
00000020: b4cb 99bc f0b7 143b 1e97 45bc 7f7e 283c
00000030: ab4b ae3b 4131 af3c 65ed 09bc d4c7 adbb
00000040: af4f 08bc 6af5 e93b e941 52bc 9508 e9bc
00000050: cdb6 ba3a 4ca5 ba3b 7fce 343c 3289 643c
00000060: d329 603b e9b1 a6bb b317 e33c d151 a83c
00000070: 18a8 01bd 5862 87ba e902 ba3b 5723 2abc
00000080: a85e 533b fbda e63b 32c1 9bbc 27ca 33bc
00000090: 4ddb 0c3d 8415 9bbc 4b17 1cbc 8f43 833c
000000a0: 31bb b73c 5d30 ee3c 78bb 2dbc 49df b8bb
000000b0: 50ff 9b3b 5977 77bb 7a32 ffbb 0b63 02bd
000000c0: 4fc1 84bc 3600 3abc 3018 93bc 5820 d8bc
000000d0: 8724 11bc fa39 98bc 7d74 d23b 0987 89bc
000000e0: 46b7 973c e723 c1ba fe73 a23c dcae 75bc
000000f0: 3fd2 323c 9874 bfbc 0924 0fbd 0ae9 96bb
00000100: 2913 1d3c 6900 e3bb 1844 09bc e6ad 173c
00000110: 6c54 7ebc d019 e43c 96d5 08bc 1b09 803c
00000120: 329a 953c ec5a c4bc 436c 893c 402c 96bc
00000130: a13a 943c 14dc c8bc df37 f73b 0ece a8ba
00000140: 550e bc3c 85c4 d73b a4fa ab3c 9a0f f8bc
00000150: a3a0 edbb 058d b03c 1eb5 d5bb a8c0 8a3b
00000160: dd9f 0dbd 7684 5b3c 2616 063d 54ab 6fbb
00000170: 588a b4bc 32cf 3e3d 9194 dfbb 2eb5 49bb
00000180: ceaa 2d3c e752 843b 813f 7d3c 0b5d 86bb
00000190: 6986 b93b 39a6 333c 48a5 3fbc fb0c 89bb
000001a0: 52d1 a03b 4fa3 86bb d825 d339 3dc4 933a
000001b0: 578c 0cbb 3de3 12bb 2beb a5bc e60f 853c
000001c0: 2c26 68bc 12c5 a1bb 25c8 933b 57c2 f33b
000001d0: 6d49 dbbc 1c60 3abc 42e0 8a3c ac95 233c
000001e0: dcde da3b e3e5 8cbc 6619 03bd d69a 59bc
000001f0: 158c 113d cc23 813c 9c99 11bc 86cb e93c
00000200: 631e cebc 6452 5a3c 6800 59bc 5eb1 303c
00000210: d556 d03a 095f 26bc 4c20 10bc 2666 3d3c
00000220: c1b2 823c 9e4a debc 2ea0 f73b 344f 0a3d
00000230: 34f9 853c 9d45 af3c 9d56 28bd d32c 94bc
00000240: 6e7f 85bc 88cc 9b3c d3b6 01bc b560 153d
00000250: 9936 1abd 2ff7 93bc 6ab6 fc3b 949a 94bc
00000260: 1924 5c3b a8f3 0abc 674f e0bc 3bd1 613b
00000270: a3bf 8e3c 16ed f63c fc4e 53bc 4666 583c
00000280: 6df3 9f3c bc03 f8bb 4d83 ac3c 8cf9 31bc
00000290: 2844 02bd f308 c3bc f2ad c1bc d8f0 dc3b
000002a0: 2a93 b03b 2ac6 bebc f1d6 663c b995 0b3d
000002b0: d3bd 2bbd d1da c6bb da2e 023d aa95 a3b7
000002c0: d1b7 af3c ef05 ee3b 2957 b8bb 9e6b a13b
000002d0: d4ed a13c 1123 dd3c d361 1b3a 1051 703b
000002e0: 7555 afbc 6b0f 0dbd ac00 48bd d474 eebb
000002f0: 6109 97bc 25d4 e23c 2e56 d13c e290 d7ba
00000300: 07a1 bc3c 6b01 52bc d8e0 663d ad06 53bc
00000310: 55c8 443c 9f69 babb 3d93 4f3c aff7 18bd
00000320: 34d4 75bc d910 903b 1026 d73c 8016 ae3c
00000330: 06ca 8bbb e41a 3bbb 6686 b5bb 362f a338
00000340: f77a 2dbd 1c7d c03b d170 82bc 01ae 883c
00000350: 806a 0abc 51c9 62bc 3055 4dbb a894 b7bc
00000360: e85b a2bc 6e06 b53b 19b3 c13a dd00 783c
00000370: 48f8 a03b d8ae 9bbb 86d5 0d3d 916a 113c
00000380: be97 bf3c 1754 353c 9375 0abd df9a 82bb
00000390: 130f 71bc ce42 4fbc 98ca 5b3c 2139 42bb
000003a0: f33d 733b 62cc 6039 6ac9 bebc 22dd 453c
000003b0: 38ad 38bc d415 9b3c 0491 2dbc 6537 633b
000003c0: 664d bdbc 82f9 8fbb 5bcf 90bc 26a7 493c
000003d0: dce7 50bc aeb7 393c 7b94 c23c e777 2cbc
000003e0: 13a1 1c3c d0c9 66bc 5a7b 75bb e142 2d3c
000003f0: 5745 4c3c 375f 07bc b042 203c 58e9 42bc

action_model._continuous_distribution.mu.bias f4 [2]
9.58321e-05 0.0004194215
00000000: 78f9 c838 cde5 db39

action_model._discrete_distribution.branches.0.weight f4 [2, 128]
-0.01510569 -0.00091830746 -0.01101621 0.0016170229 0.0029259308 -0.0027013896 7.412504e-05 0.015480649
-0.022421597 -0.006448575 -0.00052020786 -0.0008746838 0.0062937215 -0.0015306446 0.005228191 -0.02435077
-0.0011650362 0.012769182 0.0015322627 0.009886518 -0.002592252 0.0036816513 -0.012810403 0.0125788795
-0.0058086156 -0.00017212867 0.006051695 0.0074594053 -0.0068785204 0.0015082231 0.0008673656 0.010968213
-0.0052877613 -0.007971033 -0.0031723392 0.009474831 0.002486256 -0.00019203132 0.0069084093 -0.0033608354
-0.0013452346 -0.002901262 0.014502666 -0.021766312 -0.00085974834 0.008211441 -0.0054748612 -0.0012526186
0.0012843569 -0.0017259885 0.0051842784 -0.009359692 -0.006806851 0.0073110797 0.002355324 -0.0006390473
-0.008254789 0.010189275 -0.007897554 0.00091055554 -0.0006263468 -0.009015547 -0.021241503 -0.016024483
-0.015490855 -0.0035109853 -0.0029501738 0.014743749 -0.0007137061 -0.004954161 -0.014078663 -0.0006080161
-0.0019956701 0.0032367131 -0.002640849 0.0011192067 -0.008541521 -0.0009947919 -0.0013528586 0.004814059
0.012101773 -0.0101336995 0.011410442 -0.011045511 -0.015795523 -0.00527302 0.004197736 -0.0013307782
0.009308711 -0.0027309007 0.0009288396 -0.013293639 0.0009850947 0.0027103587 0.012325121 0.0005835639
-0.0024215472 -0.008048773 0.0055460264 -0.006218203 -0.0053178663 -0.004625452 0.018951276 -0.00724181
0.003587836 0.009578641 -0.004133074 0.0029246085 0.012515106 0.009678714 -0.0074806204 0.0023811997
0.008497664 -0.0022041313 -0.0018858467 0.0023760675 -0.0099932905 8.09538e-05 0.004911405 -0.0006938984
0.0050900425 -0.00048418093 -0.0007212842 -0.006370705 0.00846723 0.0044950424 0.012932538 -0.003791242
0.018845368 -0.005809059 -0.0004918707 0.0010260544 -0.008836949 0.013511272 0.0047688317 0.0071429587
0.00039020946 -0.011911971 0.006471426 -0.0016807583 0.0008878718 -0.0034864328 0.002925732 0.018603792
-0.0005630114 0.018266404 -0.0055194777 -0.003926326 0.011933056 0.012797294 0.009340186 -0.013102319
0.0026495347 -0.00072590366 -0.0011590204 0.0073948293 0.0061210655 0.0010239572 0.013160066 0.010430509
0.0064416495 0.004802208 0.001952776 0.0127130505 0.0078023896 0.0104258815 -0.0025547629 0.017192306
-0.0056881136 0.00084035395 -0.009258179 -0.014361382 0.0007349664 0.0044317087 -0.01005945 -0.0029663553
0.0058707627 -0.004012731 0.00041829707 0.006584636 0.0065513 0.010610382 -0.006534763 0.023064593
-0.0021892954 -0.003943988 -0.011344125 -0.009323148 0.0009264992 -0.0044169584 -0.0050466307 -0.0030009197
0.008848261 -0.016693529 0.0029410562 -0.0034330497 -0.005793738 -0.0076241856 -0.011181869 -0.00080651924
0.010894058 0.0041727372 0.0018445347 -0.018155573 0.008976665 0.009346073 -0.0013450137 -0.005862032
0.010898006 0.014661628 0.0015026111 0.0033324917 -0.006786052 -0.0113933105 -0.0035047587 0.0057927216
0.007876227 0.009422549 0.005213817 0.007325011 -0.014052182 0.004478206 0.00029562987 -0.00636809
-0.0054620323 0.0062024584 -0.0072482927 0.0012539454 0.008962153 0.008067722 -0.011423184 -0.00017790038
-0.028508881 0.004369281 0.0025570225 0.017341767 0.0054477965 -0.0038944667 0.0026689828 -0.002078707
0.0074810013 -0.0027692127 -0.007698196 0.007833054 0.005376461 0.020829419 0.0092420345 -0.0055432436
-0.011956664 -0.005378278 -0.0021393641 -0.0038578687 -0.0032069583 -0.0012921182 -0.0017325354 0.0036001375
00000000: db7d 77bc 92ba 70ba 557d 34bc 49f2 d33a
00000010: f9c0 3f3b cc09 31bb 9473 9b38 8ca2 7d3c
00000020: 7fad b7bc 914e d3bb 8f5e 08ba 094b 65ba
00000030: 903b ce3b e99f c8ba 3f51 ab3b 447b c7bc
00000040: 21b4 98ba d535 513c 34d6 c83a 10fb 213c
00000050: c6e2 29bb dc47 713b b9e2 51bc a517 4e3c
00000060: 3356 bebb 707d 34b9 4c4d c63b 076e f43b
00000070: 3665 e1bb 92af c53a ec5f 633a 05b4 333c
00000080: f544 adbb f098 02bc 05e7 4fbb 523c 1b3c
00000090: 74f0 223b 045c 49b9 f05f e23b 7641 5cbb
000000a0: 9552 b0ba 1923 3ebb 979c 6d3c 444f b2bc
000000b0: bc60 61ba 4889 063c 7766 b3bb e82e a4ba
000000c0: de57 a83a 903a e2ba e1e0 a93b 6559 19bc
000000d0: 010c dfbb c891 ef3b c85b 1a3b bd85 27ba
000000e0: 183f 07bc ebf0 263c be64 01bc 59b2 6e3a
000000f0: 6c31 24ba f2b5 13bc a902 aebc c745 83bc
00000100: 5bcd 7dbc 8f18 66bb b457 41bb c48f 713c
00000110: 0118 3bba 8456 a2bb 31aa 66bc 4563 1fba
00000120: cac9 02bb 091f 543b 1812 2dbb 58b2 923a
00000130: bcf1 0bbc ad63 82ba 6752 b1ba 41bf 9d3b
00000140: 8446 463c d107 26bc ddf2 3a3c 3bf8 34bc
00000150: 9d65 81bc 4cc9 acbb 298d 893b 826d aeba
00000160: 9083 183c e9f8 32bb 5f7d 733a 90cd 59bc
00000170: 4b1e 813a 46a0 313b 4eef 493c 4ffa 183a
00000180: d2b2 1ebb 00df 03bc 71bb b53b 11c2 cbbb
00000190: 7f41 aebb 1b91 97bb b53f 9b3c b54c edbb
000001a0: e621 6b3b bbef 1c3c bd6e 87bb caaa 3f3b
000001b0: 290c 4d3c 7893 1e3c fe1f f5bb e70d 1c3b
000001c0: c939 0b3c 3073 10bb 842e f7ba ccb7 1b3b
000001d0: e6ba 23bc bec5 a938 daef a03b bce6 35ba
000001e0: 5fca a63b aad9 fdb9 9014 3dba 59c1 d0bb
000001f0: 23ba 0a3c 264b 933b ffe2 533c 7c76 78bb
00000200: 9a61 9a3c eb59 bebb e2f0 00ba ac7c 863a
00000210: dac8 10bc 625e 5d3c dc43 9c3b 7b0f ea3b
00000220: 0795 cc39 6d2a 43bc 420e d43b e44c dcba
00000230: 11c0 683a a37c 64bb a3bd 3f3b fb66 983c
00000240: 0e97 13ba 6da3 953c bcdc b4bb 69a8 80bb
00000250: dd82 433c beab 513c 9407 193c 1cab 56bc
00000260: d1a3 2d3b 924a 3eba 45ea 97ba 5350 f23b
00000270: 3893 c83b 4d36 863a 519d 573c bae4 2a3c
00000280: 7914 d33b d75b 9d3b 4af4 ff3a 664a 503c
00000290: 30ab ff3b 51d1 2a3c cf6d 27bb e1d6 8c3c
000002a0: 5b63 babb 334b 5c3a 9eaf 17bc 014c 6bbc
000002b0: c3aa 403a de37 913b 64d0 24bc 2f67 42bb
000002c0: 875f c03b 3a7d 83bb e24e db39 eec3 d73b
000002d0: 4aac d63b 2bd7 2d3c 9121 d6bb f5f1 bc3c
000002e0: 487a 0fbb 923c 81bb b5dc 39bc 1ec0 18bc
000002f0: 4fe0 723a 22bc 90bb 355e a5bb 14ab 44bb
00000300: 4cf8 103c dec0 88bc bcbe 403b 04fd 60bb
00000310: 66d9 bdbb 4ed4 f9bb 2834 37bc 976c 53ba
00000320: fe7c 323c 75bb 883b 50c4 f13a ffba 94bc
00000330: dd12 133c 4520 193c 2c4b b0ba 4a16 c0bb
00000340: 8d8d 323c 5337 703c 43f3 c43a ef65 5a3b
00000350: 885d debb 02ab 3abc 18b0 65bb dfd0 bd3b
00000360: 4a0b 013c 0961 1a3c abd8 aa3b a506 f03b
00000370: 203b 66bc eabd 923b c5fe 9a39 69ab d0bb
00000380: d9fa b2bb fe3d cb3b 1683 edbb 6d5b a43a
00000390: ffd5 123c 7b2e 043c 4e28 3bbc c58a 3ab9
000003a0: 758b e9bc 302c 8f3b b893 273b 5210 8e3c
000003b0: 6e83 b23b 4f3a 7fbb 1aea 2e3b eb3a 08bb
000003c0: 3023 f53b ae7b 35bb 2641 fcbb 3656 003c
000003d0: 062d b03b 75a2 aa3c e76b 173c 19a4 b5bb
000003e0: e2e5 43bc 443c b0bb 9334 0cbb 4cd4 7cbb
000003f0: d52b 52bb 4b5c a9ba 3e16 e3ba 49f0 6b3b

action_model._discrete_distribution.branches.0.bias f4 [2]
-0.000417144 0.0004171441
00000000: 1fb4 dab9 22b4 da39
