results/SelfPlay1/1v1/1v1-1000019.onnx (onnx, 285586 bytes, 9 tensors)

network_body._body_endoder.seq_layers.0.weight f4 [256, 10]
-0.55283797 0.68138975 0.37035152 0.5587136 -0.44810385 0.0191167 -0.06245423 0.374988
0.08231021 0.21704762 0.325957 -0.7626457 0.013445949 0.18707956 -0.12406595 0.37218916
-0.3783596 -0.42232206 0.1910538 -0.06273419 0.29235944 0.12674434 -0.07082097 0.572212
-0.6593845 -0.4810567 -0.28068176 0.12361828 0.9088415 -0.112215154 0.53099364 0.4805334
0.31447056 -0.2888867 -0.15282385 -0.17299943 -0.033756267 -0.050426602 -0.66617864 -0.07831112
0.11644423 0.2167154 0.24549922 -0.093577646 0.32823178 -0.07591617 -0.124229975 -0.23085786
0.21413569 -0.21328153 -0.023732947 -0.020301284 -0.17368886 -0.13725689 0.20191672 -0.0145732965
-0.30490363 -0.45536882 0.26655656 0.38030016 -0.032123953 0.22491081 0.24744512 0.11090337
0.28593206 -0.29369545 -0.24009238 -0.32425702 -0.17363402 -0.38774347 0.6262125 0.116610676
-0.19861014 -0.45990813 -0.2836808 -0.4468907 -0.21252783 -0.13098924 -0.0468499 -0.30542767
-0.063565016 -0.20332493 0.03353265 -0.14816256 -0.51432085 0.10266879 0.07606304 -0.16198727
-0.121520765 -0.17978616 0.9200783 -0.45651454 3.8035734e-05 -0.27376947 0.44383883 -0.24447696
0.19884571 -0.4800997 -0.1953752 0.21845248 0.62478614 -0.2869879 0.090594895 -0.19809653
-0.6643156 -0.22148491 0.24034971 0.51817113 -0.14897405 -0.742568 -0.4891298 -0.50908893
-0.02735059 -0.07815581 0.019253695 -0.1276905 0.46228686 -0.123822235 0.38298342 0.005636557
0.77627677 -0.09199761 0.32990664 0.12065163 0.115481004 -0.57875586 0.30274117 -0.44310698
0.37562793 -0.47453514 0.3848602 0.3123647 -0.2649545 0.33941457 0.11466008 0.4257209
-0.20431384 0.30134144 -0.29343665 -0.18065698 0.513444 0.039137114 -0.4906258 0.21457861
0.29027337 0.1649929 -0.41794446 -0.09761477 -0.1269915 -0.13482703 -0.1305103 0.20302631
0.14983554 0.09302466 -0.14338642 0.30709463 -0.20061225 -0.21118328 -0.2987485 -0.35388905
-0.19836847 0.0033503536 0.5092489 -0.32956925 0.0698269 0.5746344 -0.3176741 0.150414
-0.9316568 0.6945521 0.03350879 -0.353939 -0.2664305 -0.051069025 0.18983048 0.034328487
0.2246229 -0.12160789 0.20841104 -0.22180091 0.19733623 0.09531024 -0.3907117 0.023187252
-0.11834903 0.1257911 -0.055562403 0.26648164 0.09282738 0.396191 -0.446302 -0.040946722
-0.015894243 0.15074384 0.44014668 -0.362557 0.1045306 0.35216776 0.030489774 0.5589359
-0.48910594 0.08214921 -0.013126828 -0.15622671 -0.44927588 -0.32553568 -0.377416 0.044695113
0.38824284 0.26036766 -0.055454742 0.032480188 0.15366997 -0.15478772 -0.034574352 0.38780475
-0.06608339 -0.22856991 -0.45113906 0.23153184 -0.22869511 -0.40957242 0.29702863 0.081566274
0.31195015 0.078680135 -0.051871274 -0.5153406 0.4270728 -0.37827495 -0.147053 -0.25480765
-0.08427593 0.26578614 0.31543717 0.016808184 -0.39337328 0.21090527 -0.07366482 0.4362954
-0.60751957 0.14192809 -0.35323474 -0.5303444 0.03688579 0.28935456 0.1101644 0.5978395
0.384672 0.32326528 -0.30548015 0.12521917 0.4750245 -0.4137982 -0.3645114 0.02313891
00000000: ca86 0dbf 8f6f 2e3f b79e bd3e db07 0f3f
00000010: de6d e5be a09a 9c3c 02d0 7fbd 6dfe bf3e
00000020: 4192 a83d bb41 5e3e d6e3 a63e c03c 43bf
00000030: 664c 5c3c c991 3f3e 4a16 febd 948f be3e
00000040: 59b8 c1be 993a d8be 9ba3 433e c87a 80bd
00000050: 23b0 953e 45c9 013e 960a 91bd 7c7c 123f
00000060: 6ccd 28bf 104d f6be 85b5 8fbe 952b fd3d
00000070: d6a9 683f 0fd1 e5bd 33ef 073f 7908 f63e
00000080: 4902 a13e f5e8 93be db7d 1cbe c326 31be
00000090: 0344 0abd 208c 4ebd af8a 2abf 9561 a0bd
000000a0: 507a ee3d a4ea 5d3e 2664 7b3e a3a5 bfbd
000000b0: ff0d a83e f079 9bbd 496c febd 0166 6cbe
000000c0: 6346 5b3e 7966 5abe 996b c2bc e14e a6bc
000000d0: 7edb 31be 128d 0cbe 42c3 4e3e d6c4 6ebc
000000e0: 541c 9cbe 1a26 e9be 1a7a 883e b4b6 c23e
000000f0: 6894 03bd 054f 663e 4162 7d3e 4e21 e33d
00000100: b065 923e 405f 96be c7da 75be 0405 a6be
00000110: 1ecd 31be 5086 c6be 764f 203f 94d1 ee3d
00000120: 7560 4bbe 1479 ebbe 9c3e 91be dcce e4be
00000130: e5a0 59be 0b22 06be aee5 3fbd 0461 9cbe
00000140: 602e 82bd 6934 50be 8859 093d edb7 17be
00000150: 88aa 03bf 0444 d23d f0c6 9b3d fedf 25be
00000160: e1df f8bd dd19 38be 408a 6b3f 46bc e9be
00000170: 8f88 1f38 832b 8cbe d83e e33e 2b58 7abe
00000180: 369e 4b3e a1cf f5be 7010 48be 02b2 5f3e
00000190: fcf1 1f3f 14f0 92be d189 b93d d1d9 4abe
000001a0: 9610 2abf f1cc 62be 3c1e 763e dda6 043f
000001b0: a78c 18be f018 3ebf 396f fabe a753 02bf
000001c0: 580e e0bc 2710 a0bd edb9 9d3c 4cc1 02be
000001d0: ddb0 ec3e 8396 fdbd 6716 c43e deb2 b83b
000001e0: 13ba 463f 3e69 bcbd 86e9 a83e 3418 f73d
000001f0: 4e81 ec3d 5829 14bf e400 9b3e ebde e2be
00000200: 4e52 c03e 45f6 f2be 650c c53e 44ee 9f3e
00000210: 1ea8 87be bfc7 ad3e e7d2 ea3d 17f8 d93e
00000220: a637 51be 6d49 9a3e 543d 96be 25fe 38be
00000230: 1171 033f 3d4e 203d 4e33 fbbe 7fba 5b3e
00000240: b69e 943e e6f3 283e d1fc d5be 41ea c7bd
00000250: 0f0a 02be 1910 0abe 7ea4 05be 21e6 4f3e
00000260: 7d6e 193e b783 be3d e4d3 12be 823b 9d3e
00000270: 4c6d 4dbe 6e40 58be 90f5 98be f230 b5be
00000280: 1b21 4bbe 9b91 5b3b 235e 023f 4dbd a8be
00000290: 6801 8f3d 3d1b 133f 2ea6 a2be 2106 1a3e
000002a0: 0f81 6ebf 2bce 313f 8340 093d 7e37 b5be
000002b0: 9469 88be c12d 51bd ec62 423e 079c 0c3d
000002c0: 8c03 663e 8f0d f9bd b469 553e c71f 63be
000002d0: 8212 4a3e 0432 c33d 5d0b c8be 31f3 bd3c
000002e0: fa60 f2bd 62cf 003e 6795 63bd 4870 883e
000002f0: 481c be3d 8cd9 ca3e b281 e4be c0b7 27bd
00000300: a534 82bc 985c 1a3e e85a e13e 12a1 b9be
00000310: 2414 d63d 554f b43e b1c5 f93c 6c16 0f3f
00000320: 186c fabe d83d a83d e811 57bc e5f9 1fbe
00000330: 7d07 e6be 9dac a6be ac3c c1be 3912 373d
00000340: c4c7 c63e e94e 853e 8324 63bd f209 053d
00000350: a95b 1d3e ac80 1ebe d69d 0dbd 588e c63e
00000360: ba56 87bd 3b0e 6abe b3fb e6be af16 6d3e
00000370: 0d2f 6abe 7ab3 d1be 2314 983e 380c a73d
00000380: eeb7 9f3e 0d23 a13d f976 54bd 5ded 03bf
00000390: 49a9 da3e 41ad c1be 1095 16be 2676 82be
000003a0: dc98 acbd 1f15 883e fb80 a13e 51b1 893c
000003b0: 3968 c9be 8df7 573e 95dd 96bd 1c62 df3e
000003c0: 6786 1bbf 9955 113e 2fdb b4be a7c4 07bf
000003d0: 8e15 173d 4826 943e df9d e13d 020c 193f
000003e0: baf3 c43e 0783 a53e e567 9cbe 7439 003e
000003f0: 6936 f33e 5cdd d3be 3da1 babe d08d bd3c

network_body._body_endoder.seq_layers.0.bias f4 [256]
-0.0009323463 -8.431884e-05 0.0035129783 5.8719528e-05 0.00013237908 0.00095959293 -0.00013918929 0.003926169
0.0035759052 0.004170668 0.0019151017 0.002142417 -0.00015221025 0.0032140135 -0.000103723905 0.005596781
0.0010206238 0.0035590318 0.0019164013 -0.0015086506 0.0040797475 0.00049202796 0.0016873904 -0.0019481009
0.0006106639 3.9896142e-05 0.00042730395 0.0002607345 0.0015282197 -0.0023675123 0.0011828733 0.0015792074
0.0030801843 -0.0010521021 0.0015291424 -0.002427087 9.8608165e-05 0.0010299999 -0.0028056472 0.0021639664
0.0011265881 0.0032204369 3.724285e-05 0.00090109976 -0.005041787 0.00058839715 -0.0014933523 -0.0014936678
-0.00083545153 0.0021053627 0.003261853 0.0012733918 -0.00029432797 0.0010409255 -0.0008432828 1.51863005e-05
-0.0017617344 0.0018113881 -0.00407104 -0.00027873358 -0.0016049868 0.0014669205 0.002184489 -0.0028434552
-0.0015936972 0.0012279504 -0.00114693 0.0032221568 0.0016260034 0.004654792 0.0023871947 0.002502742
0.0042433944 0.0047778175 0.0022921308 0.0010079796 -0.0024186359 -0.00156356 0.0017380693 0.0018331206
0.0010321077 -0.0014178888 0.00096039707 0.003855615 0.0013698327 0.0017466702 0.0030406457 0.0006951823
-0.0019246624 0.0024159378 0.00048043465 0.00094493537 -0.002892498 -0.0035670958 0.0013012446 0.00024976025
-0.0019196707 0.0026640408 -0.0010589078 0.00038491492 5.4031632e-05 0.00020936952 0.0026861622 0.0049632043
-2.3803792e-05 -0.00056392245 0.0021043962 0.00052635674 0.0022047572 -0.0009468059 -0.0014992837 0.0034353482
0.0013077563 0.004213642 -0.0022427654 -0.00036952875 0.00072948396 0.0012575001 -0.0014423355 0.0007568213
0.0046991436 0.00472363 0.0009961808 0.0019802796 0.0023049864 -0.0014426793 0.00037963828 0.0044092145
0.002563726 0.00032885655 0.0026414555 0.0017715425 0.002503364 0.00087556825 -6.948231e-05 -0.0019442603
-0.0019855993 0.0051432913 -0.0024729897 0.005450924 -0.00027290027 -0.0021906092 0.0024982535 -0.0034775506
0.0016508475 0.0034150863 0.00197751 -0.0021830779 -0.002440696 -0.0012174832 1.975015e-05 0.0016326298
-0.001221352 0.0001215355 0.0013376469 -0.0019677165 -0.0010530422 0.0012554891 0.0016338159 0.0007990358
-0.0010930462 0.0025928905 -0.0020646018 0.0030541173 0.00069985894 0.0015194907 0.0027385808 -0.0024206787
0.0013586726 -0.0010176365 -0.0032052146 0.003238146 0.0020525728 -0.0004775314 -0.004812857 -0.00011858271
-0.0021629008 0.0008287572 -0.0027971165 -0.0029934256 0.00085251854 0.005839106 0.00046103247 0.00023444218
0.0012502581 -0.0038251763 0.0037573592 0.0030085347 0.00039679286 -0.00046500837 0.00082386134 -0.0033923127
0.0016914256 0.0003078806 0.0028526 -6.0341405e-05 0.001806418 0.0014698434 0.004514746 -0.0015257477
0.0005097633 0.00082462275 0.0010956231 0.0035138528 0.0005557068 0.0030453957 0.0052654804 0.0009324891
0.0016683296 -0.0005981324 -0.00012941934 -0.0002013864 -0.00034483874 -0.004078649 0.0039147353 -0.00049409334
0.00132563 -0.0009521323 0.0007681694 0.0058202683 0.0026883527 -0.00018060383 0.0009515574 -0.002332882
-0.0010954816 0.00033198655 0.0003518807 -0.0020498424 -0.00085986865 0.0014077706 0.0024139886 -0.0028959406
0.002332382 0.0015933473 -0.0005990251 -0.001962399 0.004101403 -0.00058843876 -0.0012295032 0.0021318728
0.00078635936 0.0012161331 -0.0018086319 0.0034098008 0.0005174475 0.00025372134 -0.0019415707 0.0051081264
-0.0008282975 -0.0003763753 0.0017797373 -5.154075e-05 0.0005788483 0.00016351807 0.00097353314 -0.0011314412
00000000: b368 74ba 55d4 b0b8 ff39 663b 9d49 7638
00000010: 3dcf 0a39 318d 7b3a 57f3 11b9 18a7 803b
00000020: bc59 6a3b 19aa 883b 2604 fb3a cb67 0c3b
00000030: a19a 1fb9 33a2 523b 5986 d9b8 3465 b73b
00000040: 74c6 853a a53e 693b c22f fb3a eabd c5ba
00000050: 67af 853b 70fb 003a 6d2b dd3a 6b57 ffba
00000060: f614 203a 2856 2738 c407 e039 31b3 8839
00000070: 8b4e c83a 4428 1bbb a40a 9b3a 68fd ce3a
00000080: ebdc 493b b0e6 89ba 816d c83a c30f 1fbb
00000090: dbcb ce38 1001 873a f3de 37bb 55d1 0d3b
000000a0: 06aa 933a f70d 533b 3535 1c38 c837 6c3a
000000b0: 9335 a5bb aa3e 1a3a 97bc c3ba 2dc7 c3ba
000000c0: 3402 5bba 20fa 093b d0c4 553b f0e7 a63a
000000d0: 0850 9ab9 aa6f 883a c00f 5dba aac8 7e37
000000e0: ffe9 e6ba 196c ed3a 5c66 85bb fd22 92b9
000000f0: 6c5e d2ba af45 c03a a529 0f3b 4359 3abb
00000100: 9be3 d0ba 2ef3 a03a 9654 96ba d22a 533b
00000110: 9f1f d53a 3a87 983b 7b72 1c3b 0b05 243b
00000120: 2c0c 8b3b 3d8f 9c3b 9337 163b 2f1e 843a
00000130: fa81 1ebb 5ef0 ccba eecf e33a 5245 f03a
00000140: ca47 873a 74d8 b9ba 28c3 7b3a 7cae 7c3b
00000150: f58b b33a 87f0 e43a 9245 473b e53c 363a
00000160: f444 fcba b654 1e3b d9e2 fb39 8ab5 773a
00000170: 1090 3dbb f0c5 69bb 868e aa3a 41f2 8239
00000180: 769d fbba 3097 2e3b 0dcb 8aba 68ce c939
00000190: 06a0 6238 348a 5b39 530a 303b 60a2 a23b
000001a0: 41ae c7b7 32d4 13ba e9e9 093b 34fb 093a
000001b0: b07d 103b 1233 78ba 9d83 c4ba 9423 613b
000001c0: 0569 ab3a 9712 8a3b 5cfb 12bb 4fbd c1b9
000001d0: d73a 3f3a b4d2 a43a c00c bdba 6b65 463a
000001e0: 46fb 993b aec8 9a3b 4892 823a 94c7 013b
000001f0: 410f 173b 4918 bdba 300a c739 2c7b 903b
00000200: 2f04 283b 616a ac39 451c 2d3b 1a33 e83a
00000210: 7b0f 243b 6486 653a 08b7 91b8 8dd6 feba
00000220: d420 02bb 0e89 a83b e211 22bb aa9d b23b
00000230: 0e14 8fb9 5390 0fbb bdb9 233b 9ee7 63bb
00000240: 4061 d83a a4cf 5f3b 1d99 013b f811 0fbb
00000250: 15f4 1fbb f593 9fba 20ad a537 f7fd d53a
00000260: c615 a0ba e0e0 fe38 fb53 af3a cef4 00bb
00000270: 3c06 8aba 398f a43a c425 d63a 6376 513a
00000280: 8b44 8fba 7ced 293b 454e 07bb 9627 483b
00000290: bd76 373a a629 c73a c379 333b 40a4 1ebb
000002a0: 7d15 b23a 3762 85ba 940e 52bb 1337 543b
000002b0: 7584 063b 2e5d fab9 2cb5 9dbb 9caf f8b8
000002c0: 74bf 0dbb f440 593a d44f 37bb 592d 44bb
000002d0: 8d7b 5f3a f955 bf3b bbb6 f139 98d4 7539
000002e0: b3df a33a cfaf 7abb 073e 763b d62a 453b
000002f0: a308 d039 5ecc f3b9 66f8 573a 9051 5ebb
00000300: d3b2 dd3a 096b a139 b0f2 3a3b 1717 7db8
00000310: 54c5 ec3a c3a7 c03a 6ff0 933b 99fb c7ba
00000320: a3a1 053a 7f2b 583a 039b 8f3a ab48 663b
00000330: daac 113a 4395 473b 0d8a ac3b 4972 743a
00000340: daab da3a fccb 1cba bdb4 07b9 402b 53b9
00000350: 79cb b4b9 30a6 85bb 2e47 803b 0b86 01ba
00000360: c3c0 ad3a 8498 79ba fa5e 493a f3b7 be3b
00000370: 132f 303b 7960 3db9 f071 793a 44e3 18bb
00000380: 4396 8fba 7b0e ae39 a17c b839 a656 06bb
00000390: cf68 61ba f184 b83a 0234 1e3b d2c9 3dbb
000003a0: e0da 183b ddd7 d03a e507 1dba 989b 00bb
000003b0: 1065 863b 7541 1aba 4827 a1ba e4b6 0b3b
000003c0: af23 4e3a a866 9f3a 9e0f edba f776 5f3b
000003d0: 50a5 073a e705 8539 4d7c feba 1262 a73b
000003e0: 1b22 59ba 3d54 c5b9 1346 e93a 752d 58b8
000003f0: dabd 173a 0c76 2b39 b434 7f3a de4c 94ba

network_body._body_endoder.seq_layers.2.weight f4 [256, 256]
-0.030737482 -0.04650454 -0.026530804 0.0298905 0.051080722 -0.023265073 0.10288926 -0.09006946
0.062465485 0.004639544 -0.0109493155 0.017816214 0.024812635 0.039637536 -0.034110054 0.028068163
0.024075873 0.0051863487 -0.031467583 0.033969894 0.02983782 0.055690687 -0.026718352 0.10989226
-0.03219642 -0.065516435 -0.026530115 0.050081726 -0.025117585 -0.09145861 -0.050832015 -0.07117957
-0.13172214 -0.0063248635 0.011038994 -0.046593763 0.11840466 0.006688472 0.0683022 0.09977934
0.07372606 0.11059418 -0.051446673 0.07855485 -0.027726354 0.041108586 -0.048904717 0.06021084
0.01533487 -0.062000383 0.020789543 -0.006479939 -0.0006703437 -0.009843688 0.10669687 0.06942555
0.033154726 -0.037126984 -0.036977693 -0.0075461497 -0.010142012 0.06450568 -0.013705835 -0.048518747
0.013563495 -0.03497348 0.03085363 0.03321476 0.008312733 -0.102577925 0.052243687 -0.083962195
0.084128395 0.11426615 0.02471112 -0.02506875 0.15566105 -0.04316008 0.027366998 0.010007141
-0.004098284 0.018732486 -0.029589893 0.0580265 0.012242211 0.019756667 0.09206233 -0.07774056
-0.0015879428 0.070626944 0.028845917 -0.0017726286 0.022890491 -0.07891925 -0.04339758 -0.03509389
-0.036948226 0.019676907 -0.04808277 0.038974524 0.051932488 0.05345268 0.062066756 -0.02334423
0.052464034 -0.10374235 0.029385148 -0.08240402 0.027067618 -0.061281484 0.031607732 -0.033304792
-0.0730161 0.095473625 0.022331465 -0.053590704 -0.06570746 -0.04130764 0.0011116915 0.0107971
0.060758326 -0.04217029 -0.14781982 0.067470804 -0.14542149 0.09996667 0.121124424 -0.01938408
-0.114475496 -0.05096157 -0.037735384 -0.040329326 0.035665926 -0.025441125 0.0053644143 -0.024700386
0.112720996 0.054201245 0.074584074 0.025199303 -0.147692 -0.01261954 0.02321606 0.036135707
-0.010331138 -0.038254295 -0.01295858 0.036599673 0.0957198 0.16150965 -0.010591018 0.021751111
-0.056202408 -0.0015293651 -0.08025574 -0.023950027 0.09133149 -0.036449835 -0.11350647 0.097743884
-0.09419925 -0.04303612 -0.059195526 0.012867467 -0.008477336 -0.012409688 0.02098854 -0.013315998
0.06679399 -0.10311327 0.072574496 -0.07928937 0.011485848 0.08626686 0.0013956728 0.03641836
-0.017017106 -0.17870735 0.030320035 -0.04265913 -0.042086065 0.029367067 -0.09915372 -0.08433696
-0.078824475 0.00075791875 -0.031561483 0.07795965 0.00589755 0.07489873 0.039373856 0.010039053
-0.0013127519 -0.04120852 -0.018475084 0.031524654 0.011660473 -0.09716176 -0.09628671 0.107656576
-0.02224602 0.006592471 0.07595822 0.05722603 0.039954867 0.020640291 0.055545297 0.058306925
0.06658441 -0.10598134 0.017512241 0.022249926 0.08435558 0.034132827 0.0015896437 0.054962616
0.011096357 -0.041487787 -0.11303715 0.0021682712 -0.06335362 0.084516004 -0.033044774 -0.053094637
0.023209183 0.0808852 0.09552425 0.026866596 0.03616969 0.05021409 -0.070585564 -0.020628603
0.033263035 -0.09821702 -0.032586887 -0.011393556 -0.057499256 -0.007896591 -0.0049601058 0.01690344
-0.09616102 0.04134085 0.059875578 -0.03855922 -0.05092681 0.06498966 0.008402367 0.09536102
0.04550493 0.041458484 -0.017591013 0.0036841575 -0.08619368 -0.05077708 0.03463755 -0.0016637809
00000000: 2ccd fbbc 8b7b 3ebd 2157 d9bc ecdc f43c
00000010: 053a 513d 6596 bebc 9bb7 d23d 5676 b8bd
00000020: cfdb 7f3d 5107 983b c264 33bc 4ff3 913c
00000030: de43 cb3c f85a 223d fcb6 0bbd 34ef e53c
00000040: c43a c53c 3ff2 a93b 27e4 00bd 0424 0b3d
00000050: 726e f43c eb1b 643d 72e0 dabc 310f e13d
00000060: 65e0 03bd 7b2d 86bd af55 d9bc 7f22 4d3d
00000070: 65c3 cdbc a74e bbbd 3b35 50bd 98c6 91bd
00000080: 2be2 06be cd40 cfbb e6dc 343c 1ad9 3ebd
00000090: 247e f23d f82a db3b 06e2 8b3d 1c59 cc3d
000000a0: b0fd 963d 347f e23d bfb9 52bd 5de1 a03d
000000b0: 6122 e3bc 7a61 283d 5050 48bd a49f 763d
000000c0: 1b3f 7b3c 1df4 7dbd d54e aa3c ab55 d4bb
000000d0: 01ba 2fba 6c47 21bc e383 da3d fc2e 8e3d
000000e0: 40cd 073d 7712 18bd ec75 17bd b145 f7bb
000000f0: ae2a 26bc 8e1b 843d 708e 60bc 98bb 46bd
00000100: 6c39 5e3c 5a40 0fbd c0c0 fc3c 330c 083d
00000110: 2132 083c 6014 d2bd 7afd 553d 5ff4 abbd
00000120: 824b ac3d 5f04 ea3d fa6e ca3c fb5c cdbc
00000130: 9c65 1f3e a0c8 30bd c130 e03c fef4 233c
00000140: e64a 86bb df74 993c 8166 f2bc 32ad 6d3d
00000150: 8e93 483c bcd8 a13c 2d8b bc3d 7136 9fbd
00000160: 8522 d0ba dca4 903d 464e ec3c 8c57 e8ba
00000170: d784 bb3c 6aa0 a1bd a9c1 31bd 9cbe 0fbd
00000180: 0657 17bd 7731 a13c 70f2 44bd c0a3 1f3d
00000190: 29b7 543d 33f1 5a3d b639 7e3d 663c bfbc
000001a0: 87e4 563d df76 d4bd 1fb9 f03c 70c3 a8bd
000001b0: e9bc dd3c 4b02 7bbd 1c77 013d 9b6a 08bd
000001c0: 7789 95bd ad87 c33d 7af0 b63c ed81 5bbd
000001d0: a291 86bd 3332 29bd 2db6 913a 52e6 303c
000001e0: b9dd 783d c1ba 2cbd 145e 17be 222e 8a3d
000001f0: 5fe9 14be 53bb cc3d 1510 f83d 5dcb 9ebc
00000200: 2172 eabd 14bd 50bd 6b90 1abd 5d30 25bd
00000210: 6f16 123d e869 d0bc f8c7 af3b 7758 cabc
00000220: 44da e63d 2002 5e3d 89bf 983d c56e ce3c
00000230: 923c 17be 30c2 4ebc 9b2f be3c 0903 143d
00000240: ef43 29bc 89b0 1cbd 3950 54bc 8ae9 153d
00000250: be08 c43d c962 253e f385 2dbc 632f b23c
00000260: 7f34 66bd fa74 c8ba 1f5d a4bd d932 c4bc
00000270: 010c bb3d 6c4c 15bd 1576 e8bd f22d c83d
00000280: 89eb c0bd a446 30bd 0277 72bd 11d2 523c
00000290: 86e4 0abc 0152 4bbc 29f0 ab3c 582b 5abc
000002a0: 4acb 883d 0d2d d3bd f0a1 943d 7762 a2bd
000002b0: 232f 3c3c aeac b03d 02ef b63a 6b2b 153d
000002c0: 7567 8bbc 0fff 36be b961 f83c 57bb 2ebd
000002d0: 7062 2cbd 3493 f03c 1b11 cbbd dbb8 acbd
000002e0: ba6e a1bd 11af 463a 9d46 01bd 4fa9 9f3d
000002f0: 3c40 c13b 8164 993d 7b46 213d d77a 243c
00000300: a510 acba 44ca 28bd 0f59 97bc ff1f 013d
00000310: 920b 3f3c bffc c6bd f731 c5bd 0d7b dc3d
00000320: 493d b6bc a805 d83b fc8f 9b3d d765 6a3d
00000330: b7a7 233d d415 a93c 7783 633d 3ed3 6e3d
00000340: 685d 883d bf0c d9bd d575 8f3c 7a45 b63c
00000350: 9ec2 ac3d ddce 0b3d 975b d03a 7b20 613d
00000360: 7fcd 353c 19ef 29bd 0580 e7bd 8e19 0e3b
00000370: 8bbf 81bd ba16 ad3d f559 07bd c379 59bd
00000380: 2f21 be3c 24a7 a53d 38a2 c33d 5617 dc3c
00000390: ab26 143d 4aad 4d3d 2a8f 90bd 51fd a8bc
000003a0: d23e 083d 0126 c9bd d479 05bd 0aac 3abc
000003b0: 5784 6bbd b460 01bc 6288 a2bb 1579 8a3c
000003c0: 12f0 c4bd 0655 293d 1840 753d 46f0 1dbd
000003d0: a198 50bd 4d19 853d 15aa 093c a34c c33d
000003e0: 6163 3a3d 5fd0 293d 071b 90bc e871 713b
000003f0: 5086 b0bd a1fb 4fbd 1be0 0d3d 3913 daba

network_body._body_endoder.seq_layers.2.bias f4 [256]
-0.0026304943 -0.00056807796 8.3381834e-05 -0.00014027572 0.0011499027 0.00058229594 0.0005555987 0.0031362465
0.0029790157 0.0038361952 -0.00092674914 -0.0010485972 0.0046928804 -0.0014080679 0.0026218148 0.0035663468
-0.00012391679 -0.0024815917 0.00018639452 6.368521e-05 0.0007578933 -0.0011183245 0.0027651042 -6.376379e-05
0.0022957146 -0.0016067597 0.0015796367 -0.0015789471 0.0008674465 0.0011605052 0.0013640751 0.0005697346
-0.0026691803 -1.0524388e-05 0.0011326976 0.0017683712 0.0008106121 -0.00017838945 -0.0031379347 8.999447e-05
-0.00205455 0.0030006825 0.0011702579 0.0002588152 -0.0027934671 -0.0012499563 -0.0039315103 -0.0015466755
0.0022492178 0.003518934 -0.00062824815 0.0016557549 0.00070335035 0.004202088 0.0017084363 0.001613514
0.00014201012 -0.0012546167 0.0012433032 0.00085374987 0.0026861178 0.0004610249 0.0030924354 0.0001569575
-0.0010119851 -0.0010208981 -0.0031925517 0.0016127962 0.0009802977 6.708968e-06 -0.0015821363 -0.0007939452
0.0022130804 -0.0019103293 0.0032642705 -0.00086789724 -0.0017007742 0.0005980225 0.0002283192 -0.00019703916
0.002396402 -0.002079029 0.00092156563 0.0019259197 0.002454741 0.0012563627 0.0021728263 0.0006254264
0.0015681265 0.0037762993 0.001760774 0.0024509663 -0.002995371 0.0011543131 0.0014795806 -0.0022473244
0.0015977481 0.004098383 -0.001751458 0.00013158807 0.0049080094 -0.0009768476 0.001235127 -0.0003747956
0.0029146352 -0.0023906329 0.0009929462 -0.0032791493 0.0009562087 -0.002382603 0.0010656747 -0.0004809405
-0.0004094573 -0.00048343578 -0.0006899128 -8.268034e-05 -0.001327274 -0.0008947634 0.003534754 -0.0001302747
0.0024887687 -0.0010847078 -0.0008707174 -0.00044931562 0.00031823353 0.0024993976 0.00025258865 -0.0003000659
0.002082848 -0.001771417 0.0045109876 0.0036874856 0.0008193459 -0.0018689635 -0.0017453881 0.0010473662
0.0014818788 -0.0010494047 0.001511411 0.0013068517 0.0011499036 -0.00021602637 0.00266888 -0.00080571236
-0.0022412082 0.0015820226 -0.001994352 0.0021057518 1.2982099e-05 0.0009058341 0.00046471384 -0.0036998123
-0.00017255664 0.00054937694 0.003483782 0.0024377333 -0.000549412 0.00090047857 0.0019223087 0.0012595002
-0.00047674982 -0.00040994672 -0.0025417747 0.00012393956 0.0037426127 -0.0007304459 0.00093809277 0.001569352
-0.0007509293 0.0005476576 0.0010596066 -9.842205e-05 0.003817425 -0.00019846365 0.0029910398 0.002081888
0.0004373527 -0.00017738849 -0.0003900988 -0.00019164507 0.0019240244 0.0012195482 -0.0026584347 0.0018943624
0.00031301702 0.0027177988 0.0041926666 0.00017398047 -0.00086007855 0.00097078976 0.0017343878 -0.004139466
0.0017788009 -0.000978289 -0.0007540183 -0.00090671773 0.0033439433 0.0004110051 0.0001837809 0.005086995
0.0029355972 0.003942323 -0.0014462022 0.0006383189 -0.0002835798 0.0008306864 0.0012811256 -0.0043563936
-0.00033849294 0.003498314 -0.0015819189 0.0010096303 0.0040266197 -0.0001589627 -0.00010771697 0.00065423554
0.0013284243 0.0011236037 0.0016622583 0.0016903917 0.00065488735 0.005164399 0.0026087433 0.0014767658
-0.0032140613 0.0033648633 -0.00039017986 0.0032742855 0.0009369793 -7.888106e-05 0.001176685 -0.0012306523
0.0026545008 0.0035354241 0.003647633 0.0005233027 0.000520368 0.00023951253 0.0009564516 -0.0010760239
-0.0023305141 0.00030749245 -1.9190034e-05 0.00089519453 0.00093348353 0.0019270867 -0.0008742544 -0.0015756574
-0.002762496 -0.0019869772 0.0012486359 -0.00037314257 0.002246761 0.0005613334 -0.0012253236 0.0011480157
00000000: 5f64 2cbb 11eb 14ba 48dd ae38 fa16 13b9
00000010: 55b8 963a 38a5 183a 99a5 113a 7c89 4d3b
00000020: 973b 433b ad68 7b3b 15f1 72ba 1571 89ba
00000030: bcc6 993b eb8e b8ba c1d2 2b3b 5fb9 693b
00000040: a9ef 01b9 33a2 22bb e672 4339 bd8e 8538
00000050: 5cad 463a be94 92ba c036 353b edb8 85b8
00000060: b373 163b e999 d2ba d00b cf3a acf4 ceba
00000070: 5965 633a 181c 983a c4ca b23a 3e5a 153a
00000080: 6aed 2ebb e791 30b7 0677 943a b1c8 e73a
00000090: 427f 543a 0e0e 3bb9 cfa5 4dbb 6abb bc38
000000a0: a1a5 06bb 19a7 443b 5763 993a 97b1 8739
000000b0: 9a12 37bb 93d5 a3ba e6d3 80bb d1b9 caba
000000c0: 9d67 133b ea9d 663b 05b1 24ba ea05 d93a
000000d0: 0b61 383a abb1 893b 9ced df3a 8c7c d33a
000000e0: 8de8 1439 f371 a4ba 55f6 a23a 2fce 5f3a
000000f0: 9409 303b b7b5 f139 75aa 4a3b f594 2439
00000100: 96a4 84ba a8cf 85ba 213a 51bb 7664 d33a
00000110: 557d 803a 991d e136 af5f cfba c320 50ba
00000120: 5409 113b 0464 faba 5fed 553b 9983 63ba
00000130: 83ec deba 9cc4 1c3a f868 6f39 4c9c 4eb9
00000140: f40c 1d3b 5240 08bb 3995 713a 246f fc3a
00000150: b8df 203b 89ac a43a fa65 0e3b a8f3 233a
00000160: 9889 cd3a ca7b 773b c5c9 e63a 64a0 203b
00000170: fc4d 44bb 524c 973a 7dee c13a d947 13bb
00000180: 886b d13a ba4b 863b 2e91 e5ba e7fa 0939
00000190: 5ed3 a03b 9109 80ba fce3 a13a 3780 c4b9
000001a0: 7703 3f3b 2aac 1cbb bf25 823a ffe6 56bb
000001b0: 14aa 7a3a 7225 1cbb 1cae 8b3a be26 fcb9
000001c0: 6eac d6b9 a775 fdb9 44db 34ba ab64 adb8
000001d0: edf7 adba 8e8e 6aba 55a7 673b 599a 08b9
000001e0: 9c1a 233b c12c 8eba db40 64ba 1f92 ebb9
000001f0: 95d8 a639 efcc 233b e06d 8439 2a52 9db9
00000200: 6480 083b e42e e8ba e8d0 933b bea9 713b
00000210: 5fc9 563a 02f8 f4ba 82c5 e4ba c747 893a
00000220: 9a3b c23a 2e8c 89ba 8a1a c63a ab4a ab3a
00000230: 5db8 963a 2385 62b9 60e8 2e3b 7136 53ba
00000240: 3ce1 12bb df5b cf3a adb3 02bb a700 0a3b
00000250: b1cd 5937 7f75 6d3a d6a4 f339 8d78 72bb
00000260: 52f0 34b9 1004 103a 2a50 643b 61c2 1f3b
00000270: 6a06 10ba 180e 6c3a faf5 fb3a d015 a53a
00000280: 47f4 f9b9 1eee d6b9 e793 26bb c6f5 0139
00000290: 9f46 753b 657b 3fba 57ea 753a b7b2 cd3a
000002a0: 03da 44ba ae90 0f3a 7fe2 8a3a f067 ceb8
000002b0: c42d 7a3b ae1a 50b9 5205 443b 4970 083b
000002c0: 7c4c e539 5c01 3ab9 2d86 ccb9 55f4 48b9
000002d0: 8c2f fc3a 3fd9 9f3a 2239 2ebb 414c f83a
000002e0: 6f1c a439 191d 323b a362 893b 876e 3639
000002f0: e576 61ba 997c 7e3a 6654 e33a 5ca4 87bb
00000300: a726 e93a ef39 80ba 50a9 45ba ccb0 6dba
00000310: 0f26 5b3b 2c7c d739 4fb5 4039 cfb0 a63b
00000320: 2663 403b 9a2e 813b 7e8e bdba db54 273a
00000330: 70ad 94b9 6cc2 593a 71eb a73a 14c0 8ebb
00000340: c177 b1b9 f843 653b 6458 cfba 9255 843a
00000350: bcf1 833b 3aaf 26b9 1ce6 e1b8 0181 2b3a
00000360: 861e ae3a e245 933a 22e0 d93a 2290 dd3a
00000370: bfac 2b3a 1e3a a93b 73f7 2a3b 0a90 c13a
00000380: 00a3 52bb 0a85 5c3b 0e91 ccb9 6595 563b
00000390: 9e9f 753a f26c a5b8 ff3a 9a3a d74d a1ba
000003a0: 22f7 2d3b 93b2 673b 200d 6f3b 402e 093a
000003b0: 4e69 083a a825 7b39 61ba 7a3a 5f09 8dba
000003c0: 8abb 18bb f036 a139 49fa a0b7 7dab 6a3a
000003d0: 05b5 743a 4d96 fc3a 382e 65ba 4a86 ceba
000003e0: fe0a 35bb f237 02bb 45a9 a33a 59a2 c3b9
000003f0: 653e 133b 7226 133a 0a9b a0ba 0479 963a

action_model._continuous_distribution.log_sigma f4 [1, 2]
0.0010468105 -0.00037801996
00000000: 2235 893a fb30 c6b9

action_model._continuous_distribution.mu.weight f4 [2, 256]
-0.0053487937 -0.005648818 -9.75346e-05 -0.0030493827 -0.0017796482 -0.013258503 0.010244801 0.0026506227
0.014056093 -0.0034696888 0.011740576 0.0042192694 0.017998146 0.00023550937 0.00965007 -0.005537368
-0.0055910014 0.0069722757 0.004957467 -0.004838426 -0.008466061 -0.00016290459 0.00725578 -0.028603343
0.0018356557 -0.010356413 0.008759774 -9.768662e-05 -0.029995771 -0.020858698 -0.032463115 0.008130425
-0.0072144037 0.004217941 0.005478729 0.020861482 -0.0038229336 0.0080970945 0.00072689244 -0.011195391
-0.0059810593 0.008830571 0.0060797473 -0.021420226 -0.0023375107 0.012777521 -0.016150232 -0.0074321385
0.036864012 -0.0101507325 0.014631168 -0.010258967 -0.010117247 0.013471159 0.0064981957 -0.0012427579
-0.0015942593 -0.008895874 0.00016840712 -0.00040925512 0.011167564 0.0025266253 -0.0041264757 0.0040475307
-0.0027325058 0.008055386 0.01317183 -0.0054239654 -0.016014833 0.0116285235 -0.007545937 -0.0106301475
0.036027882 -0.009425397 0.01673869 -0.015228386 -0.005160009 0.0046961596 -0.023730379 -0.0026141282
-0.008568581 -0.0030684685 -0.006560233 -0.008377488 -0.016741589 0.0037051917 0.0071822163 -0.021982305
0.015059818 0.026467673 -0.0019073434 0.018856943 -0.026281578 -0.012710014 0.012667881 -0.002416023
-0.026907224 0.0092401765 -0.009854455 -0.019401267 -0.00012283713 0.0009183751 0.01465906 -0.019043757
-0.017480781 0.0011966992 0.010432425 -0.019205945 -0.0035762324 -0.0038127848 -0.017142106 -0.007300087
0.0035373673 0.009685882 -0.015732758 0.007446156 0.004631351 0.0053057084 0.0066627963 0.013362236
-0.012596948 0.010502648 0.013339832 0.0016411451 0.0045681093 -0.013786595 0.00026189865 -0.0058708587
-0.0010410435 -0.0022285955 -0.010285062 -0.011906991 0.027013805 0.0017100526 -0.018540237 -0.02382432
0.00952207 0.0040881466 -0.0035414542 0.015309639 0.007796162 0.00903838 0.005963075 -0.012951625
-0.015000342 -0.009614128 0.011365861 0.00918367 -0.023254117 0.008167955 -0.017856903 0.013031947
-0.012923258 -4.0909348e-05 0.008580585 -0.010135483 -0.009129283 0.0076063955 -0.009579057 -0.010770903
-0.01990508 0.002819432 -0.0023140092 -0.0100623695 0.025794074 -0.00010843525 0.010836337 0.004334023
-0.022165535 0.0035580134 -0.003532536 -0.033747505 0.0017357387 -0.004168968 0.0042749876 -0.021086358
0.0020025878 -0.012722706 -0.009025054 0.0071500815 0.002257691 -0.015575296 -0.004182386 -0.0018352178
-0.0028087832 -0.020359723 -0.015012985 0.0069679604 0.008401958 -0.002583695 0.0017040975 0.001609121
0.011951237 -0.003938829 -0.0016448202 -0.0024666905 0.007487714 0.0021809284 -0.0057015996 0.027553082
0.015490172 0.0074740495 0.002366098 0.0074444283 -0.008112461 -0.039483726 -0.005925677 -0.0058196103
0.008207619 0.016244812 -0.0031985654 -0.004155248 0.028488738 -0.0070087663 -0.008937916 0.0023507262
0.019156044 0.005661492 0.0060681878 -0.00583465 -0.0019091752 -0.002056177 0.0026341327 0.010668551
-0.0018045411 0.01277489 -0.019033842 -0.0030565348 -0.012082742 -0.0053624716 0.0028581638 0.0017321842
-0.009511451 0.010471633 0.020637268 0.013856845 0.015434571 0.0077740084 0.002944165 -0.010835819
-0.00845338 0.0014951394 0.041981667 0.005791794 0.015197232 0.023409616 -0.018640596 -0.003750643
-0.018318016 -0.013482827 0.021056956 -0.0066178204 0.0049985894 0.0024701066 -0.0009101399 0.0048586517
00000000: ef44 afbb b819 b9bb 7d8b ccb8 27d8 47bb
00000010: 1643 e9ba 313a 59bc cfd9 273c 12b6 2d3b
00000020: 874b 663c b863 63bb 8b5b 403c cc41 8a3b
00000030: d970 933c 11f3 7639 541b 1e3c cf72 b5bb
00000040: b834 b7bb b077 e43b 3f72 a23b a98b 9ebb
00000050: 3cb5 0abc 5ed1 2ab9 e5c1 ed3b 8f51 eabc
00000060: 629a f03a f2ad 29bc 2885 0f3c 1bdd ccb8
00000070: b1b9 f5bc dcdf aabc 0bf8 04bd 7935 053c
00000080: ce66 ecbb a736 8a3b e986 b33b b3e5 aa3c
00000090: 2f8a 7abb ada9 043c ed8c 3e3a e06c 37bc
000000a0: c3fc c3bb 19ae 103c 9e38 c73b 7879 afbc
000000b0: ec30 19bb cf58 513c 7e4d 84bc 4c89 f3bb
000000c0: b8fe 163d 424f 26bc 91b7 6f3c 3a15 28bc
000000d0: cfc2 25bc 23b6 5c3c d1ee d43b 09e4 a2ba
000000e0: 77f6 d0ba 00c0 11bc 7196 3039 4b91 d6b9
000000f0: 29f8 363c bd95 253b 6337 87bb 26a1 843b
00000100: d713 33bb bdfa 033c a9ce 573c 85bb b1bb
00000110: 8a31 83bc 9085 3e3c e843 f7bb 122a 2ebc
00000120: f991 133d fb6c 1abc 941f 893c 7b80 79bc
00000130: 4b15 a9bb 3ee2 993b 3666 c2bc cb51 2bbb
00000140: 3c63 0cbc 5c18 49bb 39f7 d6bb bb41 09bc
00000150: a825 89bc cdd2 723b cc58 eb3b 3c14 b4bc
00000160: 74bd 763c bcd2 d83c d3ff f9ba e079 9a3c
00000170: 774c d7bc aa3d 50bc f28c 4f3c 2456 1ebb
00000180: 8a6c dcbc 1c64 173c 9474 21bc 68ef 9ebc
00000190: d7cd 00b9 1cbf 703a 8e2c 703c a701 9cbc
000001a0: db33 8fbc 90da 9c3a c3ec 2a3c c955 9dbc
000001b0: 395f 6abb eadf 79bb 9a6d 8cbc 9135 efbb
000001c0: 2dd3 673b 89b1 1e3c fce1 80bc e2fe f33b
000001d0: 97c2 973b 82db ad3b 9653 da3b 48ed 5a3c
000001e0: 6e63 4ebc 4c13 2c3c 508f 5a3c b11b d73a
000001f0: 14b0 953b 2ce1 61bc 714f 8939 5560 c0bb
00000200: a073 88ba a10d 12bb ad82 28bc 8a15 43bc
00000210: 0e4c dd3c d823 e03a b2e1 97bc 382b c3bc
00000220: 7502 1c3c dcf5 853b be17 68bb 48d5 7a3c
00000230: f276 ff3b b715 143c e665 c33b 0d33 54bc
00000240: ffc3 75bc 9384 1dbc e037 3a3c 1b77 163c
00000250: 6b7f bebc e3d2 053c a448 92bc f383 553c
00000260: 13bc 53bc 1496 2bb8 9595 0c3c 4c0f 26bc
00000270: fd92 15bc 123f f93b 7af1 1cbc 7178 30bc
00000280: fa0f a3bc 38c6 383b a2a6 17bb a3dc 24bc
00000290: 184e d33c bb67 e3b8 e48a 313c 6c04 8e3b
000002a0: 7f94 b5bc 8f2d 693b 1f82 67bb d33a 0abd
000002b0: ba81 e33a d79b 88bb 3215 8c3b 4cbd acbc
000002c0: d93d 033b e672 50bc d2dd 13bc 3b4b ea3b
000002d0: c5f5 133b 872f 7fbc 660c 89bb b18b f0ba
000002e0: 9013 38bb 6fc9 a6bc 06f9 75bc 7d53 e43b
000002f0: 5ea8 093c 3653 29bb 065c df3a 24e9 d23a
00000300: 1fcf 433c 4b11 81bb 0297 d7ba 33a8 21bb
00000310: 7f5b f53b e8ed 0e3b 7cd4 babb 00b7 e13c
00000320: 7eca 7d3c dfe8 f43b 8a10 1b3b 64f0 f33b
00000330: 21ea 04bc b0b9 21bd 2e2c c2bb 6eb2 bebb
00000340: 4079 063c d713 853c 069f 51bb bf28 88bb
00000350: 3761 e93c cba9 e5bb 5670 12bc a40e 1a3b
00000360: 23ed 9c3c 0984 b93b a6d7 c63b 9730 bfbb
00000370: 4a3d faba edc0 06bb 6aa1 2c3b 25cb 2e3c
00000380: 5a86 ecba c64d 513c dcec 9bbc 2550 48bb
00000390: b1f6 45bc acb7 afbb 0850 3b3b 750a e33a
000003a0: ebd5 1bbc 3691 2b3c 7d0f a93c d207 633c
000003b0: 48e1 7c3c 1cbd fe3b e4f2 403b b888 31bc
000003c0: 0c80 0abc 8ef8 c33a f8f4 2b3d 17c9 bd3b
000003d0: d0fd 783c 86c5 bf3c 2ab4 98bc 59cd 75bb
000003e0: aa0f 96bc 13e7 5cbc a37f ac3c 4dda d8bb
000003f0: 35cb a33b 83e1 213b 7496 6eba 5335 9f3b

action_model._continuous_distribution.mu.bias f4 [2]
0.0009962564 0.00067977293
00000000: d194 823a ca32 323a

action_model._discrete_distribution.branches.0.weight f4 [2, 256]
-0.005494793 -0.00015685476 -0.006664823 0.0030489552 -0.001712258 -0.008317519 -0.008097749 0.010027983
0.0045012585 -0.003522641 0.0043223016 -0.010152075 -0.0018221595 0.0022819517 0.0012040737 -0.0032677397
0.004030925 -0.0062492853 0.0063795843 0.013143739 0.0014058372 0.0064281495 0.0016751502 0.0054413
-0.0010344684 -0.0035366293 0.0006102002 0.01409687 0.00943048 0.005772556 -0.010832804 -0.008806388
0.00728245 -0.0019590566 0.0025434361 0.009162092 0.008821604 -0.0067421766 0.00048398724 0.00829248
0.0018251432 0.0009320423 -0.0065953135 0.009107425 -0.0014929184 -0.004077396 -0.0024686928 0.010060965
0.0107351 0.005411496 0.007830142 -0.0059092185 -0.0034115985 -0.00069763424 0.00056293997 -0.0066885147
0.007966251 0.0026218817 0.0027718109 -0.011900465 -0.00091014284 -0.0023025945 0.0056904526 -0.0013468383
0.0032977893 -0.001498062 -0.006512064 -0.00012910822 0.0033234525 -0.0009315797 0.0042503993 -0.0012141371
-0.002998656 -0.0015635103 -0.001640757 0.009431 -0.0012640676 -0.013887748 -0.0013745187 -0.001904697
-0.006859505 -0.0064214226 -0.0040116175 0.0017500418 -0.0059935777 -0.0060881195 -0.0020731958 0.0052987933
0.007468066 -0.0076371823 -0.008778895 0.007001008 0.009063789 -0.0077664475 0.0028699075 -0.008004003
-0.0053067855 -0.0037535266 7.027584e-05 0.0018119594 0.008674043 -0.000699093 -0.00012373198 0.0039354954
-0.0003118682 0.0032962023 -0.0037690946 -0.004013434 -0.0068939175 -0.008360504 0.0052432255 0.012564182
-0.0018720124 -0.0111485645 0.020428274 0.0034176256 0.0015715706 0.0026343996 0.017090945 -0.005087161
-0.008670678 -0.0058493204 9.271923e-05 -0.00581536 0.00017780103 0.00068901153 -0.0042336583 -0.0060461345
0.00030803686 -0.010266322 0.0006255817 -0.008911954 0.004735733 0.0039816536 -0.0021202713 0.007150494
-0.00016818936 0.0062772096 0.0079806745 -0.013524313 0.003135837 -6.648878e-05 0.0055838632 -0.0020462777
-0.00015353643 0.004535719 -0.0061940444 0.0009636843 -0.01066396 0.003817185 0.00011599769 -0.0034506137
0.008197109 -0.0055012517 0.002853601 0.0058293054 0.006376154 0.01515385 -0.00012969467 -0.003161649
-0.002970654 0.0049226247 -0.0059673283 -0.003606851 -0.01249358 0.00053277856 -0.0010615152 1.0976631e-05
0.008691506 0.00092954317 -0.00024942282 -0.0060620806 0.004291855 -0.0033863115 0.002429925 -0.0061617554
0.005954984 -0.0017350197 -0.0028040777 0.0013900746 0.00439319 0.0027870992 -0.007861744 0.0023385393
0.0037111687 0.0017916652 -0.0052432674 -0.0022393945 0.003287481 -0.0012910101 0.007911517 0.0026241355
-0.000714217 -0.008176798 0.01649461 -0.005539381 0.006828281 -0.0018755804 -0.009284463 -0.008213271
0.0010846533 -0.0040853815 -0.002722053 0.00014269855 0.006386883 0.0044407956 -0.0014937359 -0.005380205
0.0033104727 -0.0028570474 0.012339667 0.0057290364 0.0053895754 0.0044074194 -0.0054153046 -0.0051662275
0.0017706874 -0.0050905957 -0.00096232054 0.0030622184 0.00545586 0.002181018 0.00084606884 -0.009176193
0.001767208 -0.00096405606 -0.0024220056 0.00022391969 0.0015745448 -0.0007521221 -0.0019090237 0.0022350762
0.007205132 0.010098004 -0.0038268305 0.01125495 -0.0011953327 -0.013526114 -0.0062188273 -0.0016405671
-0.0051186676 0.0006667928 0.001947314 -0.0027757543 -0.011273579 -0.0038138498 0.010626239 -0.0035623154
0.0065901983 0.006590969 -0.008178298 -0.0031892506 -0.00080539065 0.0063866787 0.003411213 0.0068827868
00000000: aa0d b4bb 6179 24b9 9664 dabb fbd0 473b
00000010: d86d e0ba 3446 08bc 6cac 04bc 694c 243c
00000020: 4b7f 933b 1cdc 66bb 18a2 8d3b e454 26bc
00000030: 87d5 eeba cc8c 153b 02d2 9d3a 9327 56bb
00000040: da15 843b cec6 ccbb d50b d13b d658 573c
00000050: 1244 b83a 3aa3 d23b b790 db3a ef4c b23b
00000060: 0097 87ba cbc6 67bb d8f5 1f3a 8ff6 663c
00000070: 4d82 1a3c b627 bd3b 137c 31bc ab48 10bc
00000080: 9ea1 ee3b 8463 00bb c7af 263b 991c 163c
00000090: 7d88 103c 7aed dcbb abbf fd39 2fdd 073c
000000a0: a539 ef3a 4d54 743a 801d d8bb 4f37 153c
000000b0: 07ae c3ba ad9b 85bb cbc9 21bb bfd6 243c
000000c0: 46e2 2f3c eb52 b13b ff49 003c 1ea2 c1bb
000000d0: 2095 5fbb 71e1 36ba 4392 133a 542b dbbb
000000e0: e184 023c e0d3 2b3b 45a7 353b 2bfa 42bc
000000f0: a796 6eba 20e7 16bb fa76 ba3b 6588 b0ba
00000100: b91f 583b 9f5a c4ba 2763 d5bb 3961 07b9
00000110: 48ce 593b 4135 74ba ef46 8b3b ae23 9fba
00000120: 1985 44bb b3ee ccba ab0e d7ba 7b84 1a3c
00000130: 12af a5ba 7089 63bc 3229 b4ba 07a7 f9ba
00000140: b3c5 e0bb cc6a d2bb e373 83bb a961 e53a
00000150: c665 c4bb d97e c7bb 74de 07bb 80a1 ad3b
00000160: aeb6 f43b 5441 fabb 5bd5 0fbc b668 e53b
00000170: 4980 143c af7d febb 0f15 3c3b 3923 03bc
00000180: 8be4 adbb bafd 75bb 0e61 9338 457f ed3a
00000190: 931d 0e3c 5643 37ba 0dbe 01b9 54f5 803b
000001a0: 3e82 a3b9 1905 583b ea02 77bb 2083 83bb
000001b0: 5fe6 e1bb 7ffa 08bc 5dcf ab3b 00da 4d3c
000001c0: 505e f5ba 78a8 36bc 3259 a73c 3efa 5f3b
000001d0: 29fd cd3a e4a5 2c3b 4f02 8c3c 33b2 a6bb
000001e0: 760f 0ebc a8ab bfbb 4272 c238 c78e bebb
000001f0: 1a70 3a39 c89e 343a 80ba 8abb a71e c6bb
00000200: 0280 a139 1334 28bc 14fe 233a 7203 12bc
00000210: 352e 9b3b 8878 823b 40f4 0abb b14e ea3b
00000220: fd5b 30b9 0db1 cd3b 60c1 023c 1595 5dbc
00000230: 9d82 4d3b e46f 8bb8 d7f8 b63b d81a 06bb
00000240: 9ffe 20b9 5ea0 943b 69f7 cabb c29f 7c3a
00000250: e4b7 2ebc bd29 7a3b c943 f338 b123 62bb
00000260: 2b4d 063c d843 b4bb 7b03 3b3b c203 bf3b
00000270: 0eef d03b db47 783c a6fe 07b9 ab33 4fbb
00000280: 4eaf 42bb f84d a13b 9489 c3bb eb60 6cbb
00000290: dfb1 4cbc 2aaa 0b3a 8a22 8bba 4528 3837
000002a0: d266 0e3c 96ac 733a f7c4 82b9 6ba4 c6bb
000002b0: b0a2 8c3b e1ec 5dbb 603f 1f3b 8de8 c9bb
000002c0: 0722 c33b 9a69 e3ba 9ec4 37bb 2a33 b63a
000002d0: c0f4 8f3b c4a7 363b 8bce 00bc 2e42 193b
000002e0: 1437 733b 4fd6 ea3a b7cf abbb cec2 12bb
000002f0: c772 573b 1c37 a9ba 4f9f 013c b0f9 2b3b
00000300: 4b3a 3bba faf7 05bc b41f 873c b283 b5bb
00000310: c6bf df3b 09d6 f5ba dc1d 18bc f590 06bc
00000320: ed2a 8e3a aade 85bb 7964 32bb 5aa1 1539
00000330: 0f49 d13b 1884 913b 76c9 c3ba 6e4c b0bb
00000340: 84f4 583b 4d3d 3bbb 512c 4a3c a4ba bb3b
00000350: 099b b03b 1d6c 903b de72 b1bb 7549 a9bb
00000360: 6916 e83a 03cf a6bb 3d44 7cba 80af 483b
00000370: 12c7 b23b 69ef 0e3b b8ca 5d3a be57 16bc
00000380: a9a1 e73a b5b8 7cba 83ba 1ebb fccb 6a39
00000390: f560 ce3a 0f2a 45ba 3538 faba 5b7a 123b
000003a0: 0719 ec3b 1972 253c 90cb 7abb af66 383c
000003b0: b6ac 9cba a29c 5dbc 4ec7 cbbb 4c08 d7ba
000003c0: 7fba a7bb b5cb 2e3a 043d ff3a 6ee9 35bb
000003d0: d1b4 38bc c8f1 79bb ad19 2e3c bc75 69bb
000003e0: 97f2 d73b 0ef9 d73b 45fe 05bc bf02 51bb
000003f0: da20 53ba 5847 d13b a88e 5f3b 0089 e13b

action_model._discrete_distribution.branches.0.bias f4 [2]
-0.00047604842 0.00047604824
00000000: 2396 f9b9 1d96 f939
