results/Charge2/MoveToGoal/checkpoint.pt (torch, 466338 bytes, 42 tensors)

network_body._body_endoder.seq_layers.0.weight f4 [128, 12]
00000000: 4d72 713e 2a79 0abf 7c6a 6b3d 32ce e73d
00000010: 81b9 dabd 3015 67bd 9101 bdbe dbf9 03bf
00000020: bb10 61be e7ed a7be f5fd 8f3e 0695 113f
00000030: 4622 9d3e cc07 893e 06eb 4fbe 4644 64be
00000040: fa90 cd3e 83bf e93d 2c85 cebe 8695 80be
00000050: 0089 183e f6e0 10bd e1ac 7ebe dbff 313e
00000060: 7fe5 57bc ffe7 7f3d e6a2 88be 16e3 1f3e
00000070: 1964 443e 30ef 89be f917 afbe 986b e7bb
00000080: b5cc 2e3e 8d25 93be 6dca 41be 72bf 043e
00000090: cdd2 43bf f773 88be a30d a9bd 6945 cabd
000000a0: 3714 003e da54 e43e f3fe 1cbe 1e36 bebe
000000b0: 3174 38be ed9c fdbc 81cf a2bb 80f8 1a3f
000000c0: f9e7 b13e 7178 3fba 439a 843e cd54 2b3d
000000d0: 597f ddbe 7c9f 9d3d 87ca ffbd c8f2 be3e
000000e0: df30 dc3e e2ab aebd 5297 91be d03a 803d
000000f0: 62a4 a5bd 8e4e 8bbd afaa cabd 6dfe db3e
00000100: 2748 7d3e 2d22 54bd 3cb2 f4be 8075 393e
00000110: 5003 00be a658 6ebe dc1d 91bd 7544 b83d
00000120: e7e0 1abe 15ff 19be 14be a53e 0497 9c3e
00000130: 9f7a 1e3e c695 773d 6e2c afbe 576d 99be
00000140: 96bb dcbe 643a 09ba a090 db3e ee2c 8f3e
00000150: 45ea fe3d 614c 593e 394d 303e 02c3 a93c
00000160: 70b2 e4bd 444a 293e d47a 1c3e a713 afbe
00000170: ec8d 69be 8566 4c3e 0fcd 763e f4df 8bbe
00000180: bd02 293e 6ad8 f1bd cbe3 053f 8808 1cbf
00000190: 78c1 793e 884a af3e 2a17 b43e 7be9 883d
000001a0: 979e 49be 50d1 2dbf bda1 1cbe df6b d83e
000001b0: bf52 c13e 04eb 13bd e07b fabd 71a0 863d
000001c0: f93b 33be bf51 4dbe 3487 91be 811b 053e
000001d0: 85f0 b4bd 49d2 b03e e9d3 c73d e8ba c13e
000001e0: 8c9b aebe 5b61 5b3e 3a77 b5be 64a8 873d
000001f0: 57bb 9dbd f0f8 0bbf c637 043e 23ca 563e
00000200: 99e7 b9be 34ac 063e 9c24 963c 52cb b4be
00000210: 3f75 2abe 119a 63be 3752 83bd b92b 7d3d
00000220: a098 853e aa45 acbe 374e 29bf 5dc6 8b3d
00000230: b7ef 81be 9de8 e73d 6b15 b53d 0e01 08bf
00000240: f5d1 9abe bedf ac3e 37da 88bc 7ea7 63bc
00000250: 98bf 88bd 8925 c5bc 9e57 92bc bb72 0ebe
00000260: 8013 42be e851 31be 1050 593d 7475 073e
00000270: 17a9 663f 4752 e13e 4e29 783e 8b61 a3bb
00000280: 9ce2 a43d ff14 bd3e 36e2 ca3d 7727 dc3e
00000290: 3a68 4c3f f482 533e 1d0e 8cbe 4378 97be
000002a0: 5249 a93e af7e e0be 398c 00be 7029 25be
000002b0: ccd0 853e 0315 aa3e 62b3 1bbb 489f cbbe
000002c0: 0335 ba3d 85fa 75be cda9 0dbe 41c8 273e
000002d0: 0219 34be 675d 833e 9e15 5e3d d738 993e
000002e0: c4bd ef3d c31d 00be 6b87 78bd 9aaa a8be
000002f0: 8cd5 fa3d 7793 243e eec8 dd3e 60b4 6abe
00000300: 78d5 7c3d b024 87be acc4 c1be 7cff d93e
00000310: b4a8 8d3e db32 debe 8bda b73e ed6d 92bc
00000320: b4a8 5cbe 7f62 8abc e870 c8be f962 303e
00000330: 8214 75be c732 b03e 50d2 e1be 9772 033c
00000340: 8a2c 833e 05f5 d5be 7372 72bc 21a8 a9be
00000350: c535 483e 092b 403d 5703 d73e efaf 383d
00000360: 3ba4 053f 7f64 8d3e baed 27be 3f39 4e3e
00000370: 6ac6 9bbe 9f88 2cbe cbe7 13be 6e84 debc
00000380: 92ce a8bd f12e 0abe 1909 43be 6d72 87bf
00000390: 72cf 7d3e a56e 24bd f30a 163e 914d e53d
000003a0: 18ed 06bf dbc1 ad3e 0448 b93e e313 b5be
000003b0: 4a0e 64be ef97 05bf 25d5 98be 90d3 65be
000003c0: 2ee0 9f3e 12a3 d73e 14d7 f1bc 4f0f cd3e
000003d0: 740d caba a40d 843e bb4d c43d 0e14 183c
000003e0: 2617 98be b400 16be 8f34 f93d f524 bcbe
000003f0: ec97 a1bd 03bf 2cbe 0927 9f3e b1bf 24be
0.23578759 -0.5409113 0.0574746 0.113186255 -0.10679913 -0.05641669 -0.36915258 -0.51553124
-0.21979038 -0.32798693 0.2812344 0.56868017 0.3069021 0.2676376 -0.20304498 -0.22291669
0.4014967 0.11413481 -0.40335977 -0.25114077 0.14896011 -0.03537079 -0.24870636 0.17382757
-0.013177275 0.062477108 -0.26686782 0.1561397 0.19178809 -0.26940298 -0.34197977 -0.0070623867
0.17070277 -0.28739586 -0.18924876 0.12963656 -0.7649353 -0.26650974 -0.08254554 -0.0987652
0.12507711 0.44595987 -0.1533163 -0.37150663 -0.18013074 -0.030958617 -0.004968584 0.6053543
0.34747294 -0.0007304019 0.25898942 0.04182892 -0.4326122 0.07696435 -0.12489801 0.37294602
0.43006036 -0.08528878 -0.2843576 0.062612176 -0.08087994 -0.068020925 -0.098958366 0.4296755
0.24734555 -0.051790405 -0.47792232 0.18111229 -0.12501264 -0.23276004 -0.07085773 0.08997432
-0.15124856 -0.15038712 0.3237158 0.30583966 0.15476464 0.06044557 -0.34213585 -0.29966232
-0.43111867 -0.0005234836 0.42883778 0.27963966 0.12447027 0.21220542 0.17216958 0.02072287
-0.11166847 0.16532236 0.1528123 -0.3419468 -0.22808045 0.19960983 0.24101661 -0.273193
0.16504951 -0.11808856 0.5230071 -0.6095052 0.24390209 0.3423655 0.35173923 0.06685158
-0.19689403 -0.6789751 -0.15296073 0.422698 0.37758443 -0.0361128 -0.122306585 0.065735705
-0.17503347 -0.20050715 -0.28423464 0.12998773 -0.08834938 0.34535435 0.097572155 0.3783791
-0.34103048 0.21423857 -0.35442525 0.06623915 -0.07701748 -0.54676723 0.12911901 0.20975547
-0.36309507 0.13151628 0.018328004 -0.3531137 -0.16646288 -0.2222674 -0.064121656 0.061809275
0.26093006 -0.336469 -0.6613497 0.06824944 -0.253782 0.11323664 0.08841976 -0.5312661
-0.3023831 0.33764452 -0.016705615 -0.013894914 -0.066771686 -0.02406575 -0.017864045 -0.13910954
-0.18952751 -0.17316401 0.05305487 0.13228399 0.9010176 0.44008085 0.24234506 -0.0049859933
0.08051035 0.3693008 0.099064276 0.4299886 0.7984654 0.20655423 -0.27354518 -0.2958394
0.3306375 -0.43846652 -0.1255349 -0.16129088 0.26135862 0.33219156 -0.0023758044 -0.3976996
0.090921424 -0.24021347 -0.13834305 0.16384985 -0.17587665 0.25657198 0.054219835 0.29926178
0.11706117 -0.12511353 -0.06067602 -0.3294266 0.12247762 0.16071878 0.4331736 -0.2292037
0.061727017 -0.26395178 -0.3784536 0.42577732 0.27667773 -0.43398175 0.35908923 -0.017874682
-0.2154873 -0.01689267 -0.3914864 0.17225255 -0.23933604 0.3441374 -0.44105768 0.008022926
0.25619918 -0.41788498 -0.014797795 -0.33136085 0.19551761 0.04691604 0.41994736 0.04508966
0.5220372 0.27615735 -0.16399279 0.20139025 -0.30424815 -0.16848992 -0.14443891 -0.027162757
-0.08242525 -0.13494469 -0.19046439 -1.0581795 0.24786165 -0.04014458 0.14652614 0.11196435
-0.52705526 0.33936962 0.36187756 -0.35366735 -0.22271076 -0.5218496 -0.29850116 -0.22443986
0.31225723 0.421166 -0.029521503 0.40050742 -0.0015415386 0.25791657 0.095851384 0.009282125
-0.2970516 -0.14648706 0.12168228 -0.36746946 -0.07890305 -0.1686974 0.3108447 -0.1608875

network_body._body_endoder.seq_layers.0.bias f4 [128]
00000000: 53df 673b 7512 84bb 26a0 50bb 0fa0 91ba
00000010: e7a0 aebb 8981 c8bb 7e6e 39bb c667 77bb
00000020: 2ea3 faba c7e5 8cbb abb3 8cb7 7bc5 003c
00000030: 8f97 90ba a100 0a3c 03c1 003b 69a0 563b
00000040: 5888 5c39 e496 203b 56e2 3cbb b8b0 363b
00000050: 3fb4 58bb 2f24 d93b a1dd 103b 474e b83a
00000060: 4abc b0bb a74a b8bb 8f74 0e3a 2b0b 55bb
00000070: 2ed8 bbbb 757a c23a 8c32 efba 1d55 5c3b
00000080: efb0 f4b9 dee7 2bbb bdb3 88bb 5337 4eba
00000090: 55ee 6939 701c a03a 2527 3e3b 822b 4dbb
000000a0: 6b8b dcba 104c 9c3a 70a3 87ba 5f72 093a
000000b0: b9f6 fc3a db0a 143b a753 923b 936a 1bbb
000000c0: a132 cabb 22b4 893b f40a 483b 15ea f53a
000000d0: 3c71 64bb 5f95 b739 4215 1f3b 09f1 ed38
000000e0: dd5d 213b 1a56 dd3b 125a 90b9 0570 4c3b
000000f0: 9cd9 773b 98fb 92ba b17b c9bb a772 543b
00000100: 943d 903b 5043 1f3a b9ae 92bb 770d 88bb
00000110: 45b6 4a3b 168b 3f3a e876 113b b5c4 053b
00000120: 91a5 263b 3d0e 0c3a 60ab e83b 2ea2 1ab9
00000130: 61f7 b4bb 3e87 eeba a19e 9f3b 9ca4 8f3a
00000140: 9a46 f9bb 2bf5 73bb cc9a c03b 1456 ae3a
00000150: 1496 923b c491 493b d51b 35ba 98ee 5eba
00000160: b2bc 3d3b b731 f838 90f3 cdbb d8aa 2cba
00000170: bac7 15bb 2d2a 8cbb 43ff 613b f552 653b
00000180: 7de8 a93b 17c6 5ebb 5b61 8f3b c27a 6c3b
00000190: 7cd8 9c3a d449 b138 5d57 ecba d3f6 123c
000001a0: 7890 9bba 8962 5cba 4baf 2e3c d372 3a3a
000001b0: 11c9 90bb c0e1 a83b ed30 8fbb c27f f5ba
000001c0: b676 18bb 19a8 2e3b 9f4f 853b 1a94 043b
000001d0: 021f 923b 3044 113c c304 953b dcda 0cbc
000001e0: c617 ae3b 5a5c 3abb 99c7 bf39 ca36 93b9
000001f0: 5ff2 2cbb 54c2 fe3a cbf8 283b c2e6 8f3b
0.0035380914 -0.0040305206 -0.0031833737 -0.0011110323 -0.0053292396 -0.0061189574 -0.0028294618 -0.0037751063
-0.0019122118 -0.0042998525 -1.6772965e-05 0.007859583 -0.0011031496 0.0084230015 0.0019646294 0.003274942
0.00021031627 0.0024504 -0.002882143 0.0027876329 -0.003306642 0.006626628 0.0022104757 0.0014061414
-0.0053935396 -0.0056241336 0.00054342387 -0.0032507877 -0.0057325577 0.001483752 -0.0018249317 0.0033620067
-0.00046671132 -0.0026230733 -0.004171817 -0.00078665203 0.00022309397 0.0012215506 0.0029015031 -0.003130645
-0.0016826218 0.0011924524 -0.0010348391 0.0005243178 0.0019299603 0.0022589478 0.0044655385 -0.0023714646
-0.006170586 0.0042023817 0.0030524107 0.0018761778 -0.0034857532 0.0003501577 0.0024274145 0.00011345937
0.0024622597 0.006754649 -0.00027532928 0.0031194699 0.0037818914 -0.0011213897 -0.0061487784 0.003241697
0.004401872 0.0006075399 -0.004476395 -0.0041519958 0.0030931395 0.0007306797 0.0022196118 0.0020411436
0.0025428275 0.0005342698 0.0071005076 -0.00014747001 -0.005522654 -0.0018198264 0.004871205 0.0010959092
-0.0076072933 -0.003722499 0.005877828 0.00133008 0.004473457 0.003075705 -0.00069087493 -0.0008504181
0.0028951582 0.000118348216 -0.0062851384 -0.0006586737 -0.0022854642 -0.0042774887 0.0034484423 0.0034992073
0.0051851855 -0.0033992582 0.0043756193 0.0036083912 0.0011966373 8.453769e-05 -0.0018031407 0.00896998
-0.0011868617 -0.0008407017 0.01066191 0.0007112447 -0.0044185002 0.0051538646 -0.004369846 -0.0018730091
-0.0023264117 0.0026650487 0.0040683295 0.0020229877 0.004459263 0.008866355 0.004547687 -0.008597102
0.0053128926 -0.0028436393 0.0003657907 -0.00028078846 -0.0026389582 0.0019436576 0.0025783058 0.004391522

network_body._body_endoder.seq_layers.2.weight f4 [128, 128]
00000000: 53c9 88bd 6555 033d 7cf0 babc cd04 e4bb
00000010: 5ff8 67bd 6e64 4f3d bf6a da3d 41bc 1a3d
00000020: 4106 6a3d 6f54 bf3d 001a b4bc 3721 933b
00000030: 58f2 c53c fd19 e03c a276 80bd 3827 07bc
00000040: 3a76 173c 6a14 e93c 69f8 833d 3a9d fabd
00000050: e011 4c3d b505 47bd 6404 40bd ccfb 993d
00000060: 2f0a 2abd d4ec ebbc dd0f 263e 0aea 323d
00000070: 5984 083d 8942 e3bd 2842 4b3d cb59 9a3c
00000080: 18fd 17be 2aee b0bd 2ab3 9f3c fbb3 6dbd
00000090: 1baa 82bc 8fc7 723d ca2c b43c 69f5 493c
000000a0: 476e 2ebe 5e76 233a b04a f3bd 1bb8 6b3d
000000b0: 466f dc3d 11da 153e 2d77 acbd 9754 80bd
000000c0: 5d04 963d 3b7d 09bd 42d8 83bd 7044 643d
000000d0: 1690 41bd 7c7b d63c 1fe4 203e 48b9 a03d
000000e0: fa42 17bd 871a e3bd 3d34 443e 437d a8bc
000000f0: 58e3 553d 68dc 80bd 4e2a 343d 834f 13be
00000100: e1c1 a43c 9339 a23c 1325 b7bc bdfc a83d
00000110: 672e fb3c 475f 1bbe 64cc e23d 51ae 843c
00000120: b306 e03d dbda ebbd 17ce a83d 7790 ee3d
00000130: dcd8 54bd 19af 10bd f246 d33d a484 3abd
00000140: 40bc f33b e001 f9bd 8742 d3bc d1f6 83bc
00000150: 9055 34be eacd c83c 91b7 db3c fd12 d9bd
00000160: cf2e aa3c 452d 89bd d042 05be db3c fe3d
00000170: d63c 1fbd 4637 d83c d04f 8a3d 4861 d4bd
00000180: f830 4abe 762f f2bd f223 ed3d 3429 e5bd
00000190: 0700 20bd d15b f7bd 8974 043c a21b aebc
000001a0: 0f00 ffbc db8b fe3b 2b9c 72bd 8c2d e3bc
000001b0: 46dc 993c 1920 ed3b 7a1d 8fbd 220e 163d
000001c0: 6d08 2d3e 388d babb c0f6 783d b56d 20bd
000001d0: f430 793d a8b1 ae3d d2ce 97bb 97de 8a3c
000001e0: 8418 0b3e f020 a33c ee44 a9bd 6fd4 e2bc
000001f0: 0345 42bc af0b ef3c 00a6 003d 892c 24be
00000200: c3ef 1abd 5043 86bb 6260 d53c 59d6 24bc
00000210: 948b 89bd 5ebb a0bd 92de b4bb 02a3 84bd
00000220: d90b d33d f274 683d 1994 823c 82c7 d83c
00000230: a5e4 81bd 6946 e33d 0acf 7bbc 3a50 263d
00000240: 9432 d3bd a51d 903d e114 d6bd 5132 92bd
00000250: d70e ed3b bab8 b93d ec62 7cbe 187c 52bd
00000260: bfbc 853d bc12 c3bd 9249 a73d 72c0 45bd
00000270: da25 983d 2fe9 00be 42a0 fe3d 5c65 8cbd
00000280: 0f8c 8fbd 43d8 053e 8e56 293d 2985 4bbe
00000290: d2ac 253d 022e ee3d 3412 8ebd bcfb ffbc
000002a0: 9047 273d 9b46 9dbd 910f ef3b 649d 273d
000002b0: ed00 103e 0aed 433d 8ea4 10be bcd1 27be
000002c0: ecfc 48bc 5ed2 043e c5c7 17bd 99d9 fcbc
000002d0: 2774 1a3e b169 3ebe e16a 3dbc 7c13 28be
000002e0: 1b82 ccbc a3ea 06b8 1f06 b5bd 28fd dd3d
000002f0: 27e1 bb3d c378 08be 42d7 cc3d 4d07 24be
00000300: 1e7c 4a3d d119 15bb 16c4 b2bd 589b 843d
00000310: 9480 d03d 1648 ae3d 3122 8dbc c39d 703d
00000320: 8316 33bd 296a db3d e74b 29be 1a33 e2bd
00000330: 87b7 18be ed32 f63c 344f 96bd 4a09 183e
00000340: 6dc4 42bc 3ba8 a23b 839f d7bd 06a6 3c3e
00000350: d2cb bc3d 375b 17bd 3272 2e3e 12cb b93d
00000360: de67 34be 673f 3fb8 2dc3 a23d 6866 a3bd
00000370: 31b0 61bc 6de2 e63d 36a0 98bd 90de 173d
00000380: d87a 51bd bce7 043e 2f80 563d 1f43 773c
00000390: 7621 cbbc 47f2 0f3e ea67 5c3d c1da 9b3c
000003a0: 4458 b1bd cc42 0ebd 12df 87bd 43e0 89bc
000003b0: bc78 35be 61f9 ea3c ef23 4dbe 436c 043e
000003c0: 7365 883d 1382 013d 1332 adbc eb89 ecbc
000003d0: 6038 d7bd 0a40 b4bd 36c5 953c e6f2 b63d
000003e0: ac94 063e d53a 0ebd 7cf6 153e 85d0 7d3d
000003f0: 5976 103d 3364 c9bb 2904 853d f78d 11bd
-0.066790245 0.03206386 -0.02281975 -0.00695858 -0.05663335 0.050632887 0.106648915 0.03777719
0.05713487 0.09342276 -0.021985054 0.0044900435 0.02416341 0.027356142 -0.062726274 -0.008249097
0.009244496 0.028452117 0.06443865 -0.1223702 0.049821734 -0.048589427 -0.046879187 0.075187296
-0.041513618 -0.028799452 0.16216989 0.04368023 0.03332934 -0.11096675 0.04962364 0.018841645
-0.14842641 -0.08639176 0.019494612 -0.05803297 -0.015950253 0.059272345 0.021994013 0.012326577
-0.17034255 0.00062355946 -0.1187948 0.057548624 0.10763411 0.14633967 -0.084211685 -0.06266134
0.07325051 -0.033566695 -0.06437732 0.05572933 -0.04725655 0.026181929 0.15712021 0.078478396
-0.03692911 -0.11089044 0.19160552 -0.020567542 0.052218765 -0.06292039 0.043985657 -0.143858
0.02011198 0.019802844 -0.022356546 0.08251331 0.030661775 -0.15173064 0.11074141 0.016196402
0.10938778 -0.11516353 0.082424335 0.11648648 -0.051964626 -0.035323236 0.10316266 -0.045536652
0.0074382126 -0.12158561 -0.025788559 -0.016108902 -0.17610765 0.02451225 0.02682093 -0.10599325
0.020774273 -0.066980876 -0.13013768 0.12413951 -0.038876377 0.026393544 0.06753504 -0.103701174
-0.19745243 -0.11825459 0.11579122 -0.111894995 -0.039062526 -0.120780595 0.008084425 -0.02125341
-0.031127958 0.007768137 -0.059230965 -0.02773168 0.018781792 0.0072364924 -0.06988044 0.03663457
0.16897745 -0.005693104 0.060782194 -0.039167125 0.0608377 0.08529979 -0.004632809 0.016951842
0.1358357 0.019913167 -0.082651004 -0.027689187 -0.011857274 0.029180376 0.03140831 -0.16032614
-0.03782631 -0.0040973797 0.026046935 -0.01006087 -0.067160755 -0.078482375 -0.0055196965 -0.06476404
0.10304994 0.056752153 0.01593976 0.02646232 -0.063424386 0.11097414 -0.015369186 0.040603854
-0.103123814 0.07036904 -0.10453201 -0.07138503 0.007234435 0.09068437 -0.2464711 -0.051387876
0.06530141 -0.09525058 0.08168329 -0.048279233 0.074290946 -0.12588952 0.124329105 -0.0685527
-0.07009136 0.13070779 0.04134231 -0.19875015 0.040448017 0.11629869 -0.06937066 -0.031247966
0.04083973 -0.076794825 0.007295557 0.040921584 0.14062853 0.04783348 -0.14125273 -0.16388601
-0.0122673325 0.12970874 -0.03705575 -0.030865477 0.15083371 -0.18595006 -0.011561126 -0.16413683
-0.024964383 -3.2166612e-05 -0.08839058 0.10839301 0.09173804 -0.13327317 0.10001995 -0.1601841
0.049434774 -0.0022750983 -0.08728807 0.06474942 0.10180774 0.08509843 -0.017228218 0.058744203
-0.04372264 0.10713608 -0.1653286 -0.11044903 -0.1491376 0.03005358 -0.073393255 0.14847293
-0.011887652 0.0049639023 -0.10528471 0.18422708 0.09218563 -0.036952224 0.1703575 0.09071936
-0.17617747 -4.5596997e-05 0.07947383 -0.07978517 -0.013774917 0.11273656 -0.07452433 0.037077487
-0.051142544 0.12979025 0.05236834 0.0150916865 -0.024796229 0.14057265 0.053810038 0.019025208
-0.086594135 -0.03473167 -0.06634344 -0.01683057 -0.17721838 0.028683366 -0.20033239 0.12931924
0.06659975 0.03161819 -0.021142041 -0.028874358 -0.105087996 -0.08801277 0.018282514 0.08933048
0.13142651 -0.034724075 0.14644808 0.061966438 0.035269115 -0.006145978 0.06494934 -0.03553578

network_body._body_endoder.seq_layers.2.bias f4 [128]
00000000: 6328 ee3b d519 a63b 81cc 1d3b 5f2a 123a
00000010: ba1a 38bb 3aea f5b8 4f27 dd3a 8aed 31ba
00000020: 592a 223b d278 40bb 89e1 daba ee60 623b
00000030: caae 483b 7c84 ce3b 2a53 a4ba 9150 09bb
00000040: 09c0 28bb a8e6 0c3c c3ca 913b 9011 073b
00000050: 7f6b 6fbb 184a 48bb d16e d43a 749c b5bb
00000060: 3e51 5cbb 6431 c8bb e548 133b 91f3 ad39
00000070: 9b8e e83b 3bed 14bb aed4 07bb cae2 33ba
00000080: 6d87 3439 1a35 2c3a d42f 0a3a 185d a5bb
00000090: dd6f 033a 4fdd bb3b be63 9fba 3ddd a93b
000000a0: 0a9e 70bb 1119 57ba b1ac 8cba 509e 98bb
000000b0: 70e7 97bb 1e46 51bb 9705 9dbb 2499 953b
000000c0: 4cf8 8ebb 3398 bbb9 006a babb 6b7d 2e3b
000000d0: 582b d33a 5b2a 42ba 7d59 4cbb 96c8 d63a
000000e0: e20d 2a3b 3a06 433a c63d 193b 5342 bd3b
000000f0: a953 963b 3bf6 d63b d9f0 81ba 7cd8 4a39
00000100: b834 cf3b 339c 6b3a 2fc9 ac3b 1f3b a43b
00000110: 1e11 76bb daf5 fd3a d059 8dbb 738d d439
00000120: f22f c2ba 7bc4 8cba 9e13 8e3b 17da 08bb
00000130: eeed 9f3b 0d23 e13b f967 80bb 9563 823b
00000140: 9a82 2e3a 91bf b13a a75b 5dbb e497 deba
00000150: 1b79 caba 058c a3bb 91f1 18bb 9b13 97bb
00000160: e612 e0bb c385 0cbb d9ff 0e3b be54 37bb
00000170: 42f5 e63b 0f84 15ba e8cc b43b 2505 afbb
00000180: 79db 7ebb add6 67ba 67da 4f3b b552 b1bb
00000190: d88b 0c3a 24b4 fe3a d1e7 2f3b 98d7 34bb
000001a0: 8db3 8d3b 4168 b73a 70e6 8d3b 7287 3f3a
000001b0: 9682 933b bc8d d83b d011 bf3b b39d 9cbb
000001c0: 816b 63b9 e232 b7bb ccd0 ac3b d100 793b
000001d0: 190c c43b 111b 0abb 69a2 9dbb f70d 7abb
000001e0: 534b 4abb ff96 a938 4baf 90bb 24c3 b93a
000001f0: a202 a23a 76d1 a4bb 8333 9cba baf9 643b
0.007267998 0.0050689974 0.0024078193 0.0005575772 -0.0028092102 -0.000117261385 0.0016872677 -0.000678741
0.002474448 -0.002936889 -0.0016699295 0.0034542638 0.003062176 0.0063024145 -0.0012536992 -0.0020952562
-0.0025749227 0.008599915 0.00444922 0.0020609833 -0.0036532579 -0.0030561741 0.0016207342 -0.0055423323
-0.003361776 -0.0061094034 0.0022473868 0.00033178602 0.007097078 -0.0022724408 -0.0020726132 -0.00068621023
0.00017216588 0.0006569192 0.0005271409 -0.005046498 0.00050139223 0.005733169 -0.0012160463 0.0051838444
-0.0036715292 -0.00082053343 -0.0010732618 -0.004657544 -0.004635744 -0.0031932662 -0.004791926 0.004565375
-0.0043630954 -0.00035780817 -0.0056889057 0.0026625048 0.001611094 -0.0007406824 -0.003118127 0.0016386684
0.0025948216 0.00074395875 0.0023382767 0.0057757287 0.00458761 0.0065601147 -0.0009913697 0.00019344868
0.0063234232 0.0008987814 0.0052730064 0.0050119306 -0.0037546824 0.0019375638 -0.004313685 0.0004054118
-0.0014815314 -0.0010739708 0.0043358346 -0.0020881945 0.0048806584 0.0068706335 -0.0039186445 0.0039791563
0.00066570344 0.001356112 -0.0033776553 -0.0016982523 -0.0015447469 -0.004991057 -0.0023337344 -0.0046104915
-0.0068381904 -0.0021442033 0.0021819978 -0.0027974094 0.00704828 -0.0005703577 0.005517591 -0.0053411894
-0.003888814 -0.000884394 0.0031715871 -0.005411471 0.00053614145 0.0019432348 0.0026841054 -0.0027594324
0.0043243826 0.0013992862 0.004330449 0.00073062547 0.004501651 0.006608693 0.005830981 -0.0047795414
-0.00021688455 -0.0055907825 0.005273914 0.0037994871 0.0059828875 -0.0021073262 -0.0048106206 -0.0038155296
-0.003086765 8.086673e-05 -0.004415428 0.0014172536 0.0012360404 -0.0050298525 -0.0011917207 0.0034938888

action_model._continuous_distribution.log_sigma f4 [1, 2]
00000000: 087d 9b3b 3eb6 b63b
0.0047451295 0.005575924

action_model._continuous_distribution.mu.weight f4 [2, 128]
00000000: 483e 2e3d 4b13 9b3c d160 063c 1ea4 debb
00000010: 3ded 51bb 4753 6fbc 6464 533c 2156 deb8
00000020: 00a4 28bc 1d20 dcbb 760d cdbb ccc4 d93c
00000030: 31f3 a83c a6b1 023d d0aa 89bb 2795 abba
00000040: 3a62 04bc 8135 1f3c 90eb 12bb 765c c83c
00000050: 9b66 f0b8 8f8d 1bbd 9a24 403b 9a01 343b
00000060: 34e3 1cbc 17b3 8fba 8017 213c acd8 21bb
00000070: a769 293d 3ee0 78bb f49c acbc 9675 13bc
00000080: 2971 203c 1179 1e3d ff66 82bb b10f a2bc
00000090: 1109 ecbb a3ef 393c d34c 33bd 25a6 983c
000000a0: b70e 94bc 1fc9 e5bc bd5e 75bc ec52 d7bc
000000b0: 0c8e 9bbb 3e31 20bc 678a 9bbb bf90 323d
000000c0: 3712 7abb 6743 753c 8a41 0ebc 9e0c 43bb
000000d0: 0c46 c9ba d696 27bc c324 ff3b 4dee dbbc
000000e0: e713 91bb 7160 893c 0a7b 6e3c d5fb 02bd
000000f0: 1198 eb39 eb29 5d3c 00f2 60bc 1eda b239
00000100: 0368 cf3b 8809 d2bc 1788 dd3b d9af 7bbc
00000110: 946c f8bc 2aa2 433c 1aa7 a3bb 3c76 163c
00000120: 8140 66bd e03e e23b d288 873c a27a 9e3b
00000130: d66a 963c 463b 113c 6c45 cfbb c0fd 5d3b
00000140: 54e3 d3bb 62df 58ba f3d3 e6bc 13e3 68bb
00000150: fcd7 c9bc cebb 28bb fad6 a83b aa55 30bc
00000160: e800 abbc a7c4 8dbc e9bb 833c 6b85 82ba
00000170: c37d 053d cdd2 2e3c 269e 82bc 0cb5 5b3b
00000180: f33c eaba f1a2 cbbb 6c40 babb 52ec 31bb
00000190: a112 b13b 28e3 3fbc a5e9 ec3c 46b8 903a
000001a0: 989b 1fbc ce0d 38bb 7001 283b 42be d3bc
000001b0: 7076 46bc 9922 713c 889d 443c e86f 9cbc
000001c0: 5428 fdbb 62d0 4bbc 13cf 483b 54b2 c93c
000001d0: d210 88bc a28a b4ba bc8b dabb 0a6e 83b7
000001e0: fa75 93bc 7d44 c73b 545d 1cbd 8e39 873c
000001f0: f18a 7bbb 8655 68bc 3cd5 b1bc bbf0 2abc
00000200: b014 db3b 41ef 13bc 956b bd3b 0afc adbb
00000210: 1ee6 183b 3c92 f0bb 36b3 f8bb 1382 bf3c
00000220: a076 96bc 7ccc 373d 67b8 efbb 17f5 92bc
00000230: 7191 263b 8d37 81bc 552b bcba 93f2 423c
00000240: 0b99 143d 2af1 bbbc 6a4f 59bc 0444 543c
00000250: 1784 8f3c e051 e53a 262f 253c a708 0f3d
00000260: 4e33 cb3c 1a41 e73c 890d 233c c26c 103c
00000270: 00b6 26bd 3fc9 adba 075d 16bd 1030 7ebc
00000280: 195a 363c 992f 183c 2cd2 653a 72a1 97ba
00000290: 52df fdbc ac99 82bc 0506 1bbb 0a02 aa3a
000002a0: ddc7 a7bc 22db 9abc f5bd 62bc a36b 71bb
000002b0: 88b6 b53c 7eb8 f63a 1464 cc3c de8e e53c
000002c0: 9d88 a33c f665 773c 9510 103c d5fd 9d3c
000002d0: 8726 f3bb 6f28 bcbb 7978 d73c 7ad6 4c3c
000002e0: 3c40 ac3c 7fe6 8f3c 96b8 14bc 556d ecbb
000002f0: ae6f 99bc 05ba 6a3c 86a0 d33b 719c 943a
00000300: cb55 cdbb bd94 1ebd 590d 61bb af3d 75bc
00000310: e544 18bc 26f3 dabc c869 253d 94e2 0e3d
00000320: 123b bf3b e99c 6b3b aaee bcbb 1e46 d0bb
00000330: 117b e0ba dd2a 52bc 3024 4b3b 34b3 33bb
00000340: 8d6b fcbc 68d3 483d 005d 68bb 2193 d53a
00000350: efd0 8c3c 1443 c63c 6d38 523b 6d5d 793c
00000360: f1f4 d23b 0f24 55bb 4b71 ef3c 342f 59bc
00000370: 6f25 8f3b 2c8e e43c 45b1 8d3c 55ed 973b
00000380: 2252 843c 6ee3 59bc 4a3b e23b db85 3d3c
00000390: e4d7 93bc 273a b9bb fde9 a33c e05d a33c
000003a0: 24de 8e3c a683 47bc d59f e6bc 34d2 c8b9
000003b0: 2bbe 063d 38bf 8f3b 1a3f 56bb a263 38bb
000003c0: 31b9 a13c b17e a03c efe3 903c 3944 c33c
000003d0: 0a4e 5fbc 91e7 e63b faf6 4f3c cfaf 693c
000003e0: 2cdc 703b 0bb2 bdbb 058f 01bd 3bf5 d33b
000003f0: ef2c 153d e0bd e53c 28b5 67bc 90b8 c5bc
0.042539865 0.018930098 0.008201794 -0.0067944666 -0.0032032274 -0.014607257 0.012902353 -0.00010601828
-0.010293007 -0.0067176954 -0.006257708 0.026583098 0.020623775 0.0319077 -0.0042012706 -0.0013090716
-0.00808006 0.009717346 -0.0022418238 0.024458151 -0.000114632036 -0.037976798 0.0029318691 0.0027466775
-0.009575654 -0.0010963407 0.009832263 -0.0024695797 0.041360524 -0.0037975456 -0.021070935 -0.009000203
0.0097926045 0.038689677 -0.0039795632 -0.019782873 -0.0072032292 0.011348638 -0.043774437 0.018633911
-0.018073423 -0.028050004 -0.014976201 -0.026284657 -0.004747158 -0.009777365 -0.0047467235 0.043595072
-0.003815783 0.014969683 -0.008682618 -0.002976216 -0.0015355959 -0.010228833 0.0077863648 -0.02684703
-0.0044274214 0.01676962 0.014555702 -0.031978447 0.0004493599 0.013498764 -0.013729572 0.00034113316
0.006329538 -0.02563931 0.006760608 -0.01536175 -0.030325212 0.011940518 -0.0049942853 0.009183463
-0.05621386 0.006904468 0.016544733 0.0048363963 0.01836149 0.00886423 -0.0063254144 0.003387317
-0.0064663086 -0.0008273033 -0.028177237 -0.0035535737 -0.024639122 -0.0025746706 0.0051525803 -0.010762611
-0.020874456 -0.017305685 0.016080813 -0.0009957975 0.03259064 0.010670376 -0.015944552 0.003352466
-0.0017870947 -0.0062144925 -0.005683949 -0.0027148915 0.005403832 -0.011711873 0.028920004 0.0011041246
-0.009741686 -0.00280844 0.0025635622 -0.025847558 -0.012113199 0.014717721 0.012000449 -0.01909633
-0.0077257548 -0.012439819 0.0030641004 0.024621166 -0.016609583 -0.0013774226 -0.0066694897 -1.5667658e-05
-0.018000592 0.0060811625 -0.038174942 0.016506936 -0.0038382376 -0.014180547 -0.021708123 -0.010433371
0.0066858158 -0.009029211 0.005780647 -0.0053095864 0.002333052 -0.0073416512 -0.007589723 0.023377454
-0.018367112 0.044872746 -0.0073156836 -0.017939134 0.002541628 -0.015773559 -0.0014356176 0.0118986545
0.036278766 -0.022942144 -0.013263563 0.012955669 0.01751904 0.0017495714 0.010082042 0.03492036
0.024804737 0.028229285 0.0099519575 0.008814992 -0.040700912 -0.0013258829 -0.03670981 -0.015514389
0.011129879 0.009288692 0.0008766975 -0.00115685 -0.030990276 -0.015942417 -0.002365471 0.0012970578
-0.020481044 -0.018903319 -0.013839235 -0.0036837838 0.022181764 0.0018823294 0.024950065 0.028022226
0.019962603 0.015099993 0.008793016 0.019286076 -0.0074203643 -0.0057421247 0.026302563 0.012502307
0.021026723 0.017565964 -0.009077212 -0.007215182 -0.01873001 0.014326577 0.006458345 0.0011338127
-0.006266331 -0.038716067 -0.0034340231 -0.01496832 -0.0092937695 -0.02672727 0.040384084 0.03488405
0.005835899 0.003595168 -0.0057657557 -0.006356015 -0.001712652 -0.012827602 0.0030996911 -0.0027420046
-0.030813003 0.049029738 -0.0035455823 0.0016294458 0.017189471 0.024201907 0.003207709 0.015220028
0.0064378907 -0.0032522713 0.029228827 -0.013255883 0.004368476 0.027899824 0.017296443 0.0046364465
0.016152445 -0.013298852 0.0069040405 0.011567558 -0.01804728 -0.0056526843 0.020009035 0.019942224
0.01743991 -0.0121773835 -0.028152386 -0.00038303586 0.032896202 0.0043868087 -0.003269142 -0.0028135558
0.019741626 0.019591661 0.017686812 0.023836242 -0.013629446 0.007046648 0.012693161 0.014263107
0.0036752326 -0.0057890466 -0.031630535 0.0064684427 0.036419805 0.028044641 -0.014142312 -0.024135858

action_model._continuous_distribution.mu.bias f4 [2]
00000000: c950 853b 64cc 54bb
0.004068468 -0.003247046

action_model._discrete_distribution.branches.0.weight f4 [2, 128]
00000000: 48b5 cbbb 0448 cbba b089 b53a 6289 adbc
00000010: ea98 0cbc bb18 edbb 5546 753c a8dd 01bc
00000020: ca8f 4fbb 630f b53b cb0f 053c 5ddd 05bc
00000030: 1dfb 4739 2998 4c3b a345 8a3b 8011 f2bb
00000040: 183e 643b b2fa a3bc 0005 483b 4583 2b3b
00000050: 941b 913b a316 203b 0ccf e0bb 870b 40bc
00000060: 83a5 3c3c 40cd 503c a208 29bb 5d7e 94bc
00000070: c501 8ebc 303a c6ba 3d2c 873c 4ed1 683c
00000080: 9f93 32bc c015 b2bb 9042 0b3c ac9f 043b
00000090: b136 aa3a 89d2 b23b bf5d 8cbb d401 3bbc
000000a0: fcf7 95b6 f629 7fbc 07ee d63b ca86 73bc
000000b0: 418a 28bc 5397 093b ecdd af3b aa3f e03b
000000c0: 6c45 b7bb 0f76 37bc 5195 b03b 77bf 48bb
000000d0: 6044 073c e33b 1b3b 294a 003c 10fd eb3b
000000e0: 55ec 6aba 862b 01bc 7ea6 c3bb e291 07bc
000000f0: ad5e db3b c395 2abc 1b16 1c3c 9f09 d4bb
00000100: 3c42 6fbb 8f0f b5b9 d663 143c f37e 1c3c
00000110: 26e0 aeba 2cd3 80ba d192 2cbb dec9 6c3b
00000120: 400c 0abc a0c1 1238 7d9d 72bc 5618 6e3c
00000130: 65d2 223a 8986 833c 8459 ff3a 474f 7cbc
00000140: f179 abbb b662 27bc b121 49bb 19e5 a1bb
00000150: d182 3a3c 8d09 fbbb c47f 0e3c 3744 f13b
00000160: 0c06 3d3b 3d37 0abc 3516 ceba 46a9 393c
00000170: 1e20 30bb f453 063c 0cb6 91bc 3bd1 aebb
00000180: b5b9 c8bb a6e8 7b3b e677 70bc 5847 3b3c
00000190: 248d 063c 1c6f 563c 1c47 14bb c4cf 993a
000001a0: 587a 03bc e7b8 a7bb ff6f 80bc 72e3 ef3b
000001b0: 266c c73a fd0f 20bc 012b 643c 7e03 093a
000001c0: 5382 0c3c 7d40 5b3a 880e d0bb 248d 593b
000001d0: e4a3 333c b52d 22bc 2ac2 ec39 d619 033c
000001e0: 2772 70bb de8e 903c a30b 78bb ee42 8ebb
000001f0: 32a4 25ba c95f 693a 23c2 cdbb 485d 933b
00000200: 831f 76bb 60fe a63a 70e8 d93a d2d6 87ba
00000210: a014 36bb 5b90 6ebb fa6a 04bb c25c 563c
00000220: 30ce fc3b ce1e c23a 4d5b b6b9 fa55 8dbc
00000230: 267f d1ba c63e a43b b807 793c 88a7 5bbc
00000240: 3a58 66bb 31f9 38ba d8c8 b73a 1b47 603c
00000250: 55b9 0c3c 8ed2 e1ba c5bf 29bc 1723 3ebc
00000260: 6fdf 8e3a a12c 34bb ae72 1a3c 2821 503b
00000270: 2ee2 8ebb beac 7b3c dc2c b93a da6e 7fbb
00000280: d9a2 9bbc 9037 99bb 1a08 c03c 3345 51bb
00000290: c2b0 953c b591 ab3c a97d 323a f454 9b3b
000002a0: 359e 4abc 177b 4ebb e8ea 6c3a 9bac f93b
000002b0: 4df5 2aba 9deb 08bc 2589 a9bb 871f 943b
000002c0: 527f 4c3b dac4 203c ad66 91bb da32 b73b
000002d0: 1e23 a7bb 29b3 823c 62c8 81bc 3a59 e8bb
000002e0: 1206 72bb 55de 55bb ac24 f23b 16fe bfbb
000002f0: 4b59 143c a2b2 f4bb 32ca 5fbb 374d 2c3c
00000300: a6fd 8f3b 0ec3 ab3c 60ec 52bb dac6 033c
00000310: 782d 18bb 6ad5 f1bb f90b 583c dd42 1e3a
00000320: a512 533b 91eb ccbb 275c 63bc a753 bf3b
00000330: 94cd 573b 0435 323c 5022 bc3b aa9c 1abc
00000340: 0fb8 95bc f7fc e6ba 5aff 0abc cb37 c13b
00000350: c0cd f2bb 3468 8dbb f8a8 7ebb 9543 a93b
00000360: 3b9b 58bc aed8 9b3b 437d 1ebc 5859 ad3b
00000370: 4c64 fdbb 6a10 8cba 024a 8dbc 6752 3bba
00000380: aa9a 65bc 5dff 2ebc e2d3 e0bb 7fbf 38bb
00000390: 163f a7bc a886 82bb 4fc5 a93a aefb 6b3b
000003a0: 84bb 543b 2037 1b3a 0e69 c8ba 8a7c 323b
000003b0: a795 4c3b 6013 113c b1a3 cbbb afa6 51bb
000003c0: d159 60bb 5d17 cfbc 5f2e bf3b ce39 823b
000003d0: 4486 3d3c 14bf b4bb 7e57 7b3a 3afe 58bc
000003e0: aee9 9f3a cb24 4e39 3930 eebb 8e28 90bb
000003f0: fac4 e3bb b813 a93b 4743 b93a 54ba 24bc
-0.006216679 -0.0015509133 0.0013850238 -0.021183673 -0.008581379 -0.007235614 0.014970382 -0.007926382
-0.0031671398 0.005525516 0.008121441 -0.008170453 0.00019071666 0.0031218624 0.004219727 -0.00738734
0.003482705 -0.020017002 0.0030520558 0.0026170772 0.0044283364 0.0024427555 -0.0068606194 -0.011721498
0.01151407 0.012744248 -0.00257925 -0.018126661 -0.017334828 -0.0015123542 0.016500587 0.014210058
-0.010899453 -0.0054347217 0.008499756 0.0020236773 0.001298627 0.0054572267 -0.0042836363 -0.01141401
-4.469415e-06 -0.015573969 0.006559137 -0.014863679 -0.010286869 0.0020994737 0.0053670313 0.006843527
-0.0055929925 -0.011197581 0.0053888937 -0.00306317 0.008256048 0.0023686818 0.007830181 0.0072017983
-0.0008961608 -0.007883912 -0.005970775 -0.008274527 0.006694636 -0.010411683 0.009526755 -0.0064708735
-0.0036507985 -0.00034534602 0.009057006 0.009551751 -0.0013341948 -0.0009828559 -0.0026332627 0.0036131064
-0.008425772 3.498944e-05 -0.014808056 0.014532169 0.0006211161 0.016055362 0.0019481634 -0.015399761
-0.0052330424 -0.010216406 -0.0030690248 -0.0049406406 0.011383728 -0.0076610507 0.008697454 0.007362868
0.0028842716 -0.008436021 -0.0015723171 0.011331862 -0.0026874612 0.008198727 -0.017787002 -0.005335001
-0.0061256536 0.003843823 -0.0146770235 0.011430584 0.0082123615 0.013088014 -0.0022625392 0.0011734893
-0.0080247745 -0.0051184776 -0.015678404 0.0073208148 0.0015214726 -0.009769437 0.013926269 0.00052266556
0.008575994 0.00083637965 -0.0063493885 0.0033195699 0.010964368 -0.009898593 0.0004515809 0.008001765
-0.0036689134 0.01764625 -0.0037848733 -0.0043414747 -0.00063187175 0.0008902518 -0.0062792464 0.004497204
-0.0037555404 0.0012740605 0.0016625058 -0.0010363704 -0.002778329 -0.003640196 -0.0020205365 0.013083639
0.007715009 0.0014810206 -0.0003478177 -0.01725291 -0.0015983328 0.005012366 0.015199594 -0.013406642
-0.0035147802 -0.00070561754 0.0014021648 0.013688828 0.0085891085 -0.0017228888 -0.010360663 -0.011605046
0.0010900329 -0.0027492421 0.009426756 0.0031758044 -0.004360459 0.015361009 0.0014127749 -0.0038975985
-0.01899855 -0.004675813 0.023441363 -0.0031932115 0.018272761 0.020943502 0.0006808886 0.004740352
-0.012366821 -0.0031506473 0.00090376893 0.007619453 -0.0006521538 -0.008356956 -0.0051738196 0.00452036
0.0031203819 0.009812558 -0.0044372887 0.005590779 -0.005100622 0.01595457 -0.01584262 -0.0070907148
-0.0036929888 -0.003263374 0.0073896255 -0.005859147 0.009054492 -0.0074675838 -0.0034147617 0.010516456
0.004394251 0.020967033 -0.0032184348 0.008043015 -0.002322046 -0.0073801773 0.013186448 0.0006037185
0.0032207158 -0.0062536676 -0.013876951 0.0058388296 0.003292893 0.010876898 0.005741395 -0.009436766
-0.018276243 -0.0017622997 -0.008483732 0.0058965436 -0.007409781 -0.0043154005 -0.0038858037 0.005165527
-0.013220604 0.004756055 -0.009673419 0.0052901916 -0.0077329036 -0.0010686044 -0.017247204 -0.0007145763
-0.014013926 -0.010681001 -0.006861196 -0.0028190312 -0.020415824 -0.0039833374 0.0012952479 0.0036008167
0.00324604 0.0005920995 -0.0015290098 0.0027234876 0.003121713 0.008854717 -0.006214582 -0.003199022
-0.0034233222 -0.025279695 0.0058343853 0.003974176 0.011567656 -0.0055159424 0.00095879275 -0.013244206
0.0012200379 0.00019659397 -0.007268932 -0.0043993657 -0.0069509717 0.0051598214 0.001413443 -0.01005419

action_model._discrete_distribution.branches.0.bias f4 [2]
00000000: 05ab 8dbb 03ab 8d3b
-0.0043233656 0.0043233647

exp_avg f4 [128, 12]
00000000: 907f f738 510e 3f3a 909b d8ba cb13 45b9
00000010: b4b9 b6b7 e882 d836 002f 36ac e2d1 88ab
00000020: 059c feb4 0000 0000 7cc8 cbb7 047a bcb8
00000030: faff be39 9a1e 0439 edbd 82ba 9604 1e3a
00000040: 2ac7 2cb7 f19a c8b6 4b95 202b 3033 712a
00000050: 4847 6236 0000 0000 5d17 1439 52e8 2bb7
00000060: 39c2 a4b7 f331 0f3a db9b 33ba d82a 643a
00000070: 93a5 e8b6 40d1 13b7 14c7 04ac 136f 47ab
00000080: 468c 8f36 0000 0000 7c32 ca38 a8aa 1538
00000090: cdc3 a6b8 52fa cfb8 426b 6638 de2a 1739
000000a0: a65d 4436 4bb7 45b5 016d 8e2a c8ec d529
000000b0: b72e bab3 0000 0000 e20e dd37 4c8d 5c35
000000c0: 854f 8437 becc 1eb9 8f1c 4d3a 1851 5038
000000d0: ca77 3437 cca7 dab5 c467 c12b 2040 112b
000000e0: a2bb 0b34 0000 0000 9906 62b6 4557 5b38
000000f0: 2773 6b38 0bb8 0d3a c56e 95ba 3664 203a
00000100: 34f7 0db7 e3f2 9fb6 32af 15aa 6bc5 60a9
00000110: 1dd2 5536 0000 0000 a8fa a938 9e34 9db7
00000120: 1a70 0eb9 39f8 86b9 11ef 433a 6507 b439
00000130: ac65 7337 63dc 0ab6 211f d62c 5fce 202c
00000140: b54a b5b4 0000 0000 556c 8237 917d 8038
00000150: 5860 14b8 b26d 253a d062 17bb e2aa 953a
00000160: 358f e2b6 92d1 6bb5 b413 ff2b c98f 3f2b
00000170: 00d9 3736 0000 0000 77f9 1f39 2b0f 24b9
00000180: 19d4 8039 d54c 4bb9 57b0 d6ba 0e4b 1439
00000190: 8c02 80b7 43fa 0937 f21e f22b 70d5 352b
000001a0: 6bce 62b3 0000 0000 b2ec 1a38 9a26 51b9
000001b0: a06f 1fb8 8ed7 d337 bd5b 39b9 53fc 0a38
000001c0: de80 0037 af66 d6b5 b24e 462c e3ed 942b
000001d0: 7733 3735 0000 0000 cf22 4eb8 821b 34b8
000001e0: 5bea a135 0c17 1eb9 0dd7 1f39 a154 70b9
000001f0: 416b ed36 85eb a035 3819 14a9 eb6c 5ea8
00000200: 92fe 02b5 0000 0000 a6af 89b8 d267 40b8
00000210: f3b9 9138 cc7d 1fb9 d53c 3239 960a 9bb9
00000220: 1b65 2936 fec8 07b6 1859 252b e159 782a
00000230: ee25 a2b5 0000 0000 ee8f 9237 be0f 4c37
00000240: 8b2a 0039 a105 3dba ec3e 6dba 3189 c538
00000250: 4b59 3bb7 fa4e 7a37 2180 5d2b f05a a62a
00000260: 5b98 ccb5 0000 0000 482f 9db8 0d24 d9b8
00000270: 25a0 f7b9 b680 0a3a aced 053b 078f fcb9
00000280: 9395 c137 ab27 49b7 b5db 032d ec0c 462c
00000290: 1057 e7b5 0000 0000 1895 3cb8 f176 2b39
000002a0: 15da 23b7 cc8f e738 f8e3 86b9 16f7 7fb7
000002b0: f16b 6bb6 7e1a 4ab4 0644 2a2d 7dbd 7f2c
000002c0: 30bc 64b5 0000 0000 5c9a 04b8 f8f2 1336
000002d0: 41fa 3cb9 35b5 273a 03bc 113a e9ea a538
000002e0: f377 2337 38fc fbb6 4969 bba9 a1ce 0ca9
000002f0: a19c c335 0000 0000 4036 7c38 978d 8e38
00000300: e077 dab8 269b dcb9 ac8d 033a d398 f9b9
00000310: 25e1 0337 31bf 0737 1837 b52a 1a17 082a
00000320: 5ab8 67b6 0000 0000 3ac4 b1b8 4712 f4b7
00000330: bf45 3339 e1be f0b9 05cc b039 679d 1eba
00000340: 0d5a 2037 b7fe 3f36 76f6 1b2a 6742 6a29
00000350: fc7b 0eb6 0000 0000 159a 22b8 9ade 0cb8
00000360: 48a7 93b8 9de8 9ab9 4f6d ad39 4f72 afb9
00000370: caa2 b135 7ebf d636 5368 f42a 8b8c 372a
00000380: 653c f2b5 0000 0000 931f 61b8 0f1d ecb6
00000390: 16c8 55b8 361b 27b9 b67b 8b39 6f99 5cb9
000003a0: 1b7d 3936 badf 4836 9ee6 fd2b cfad 3e2b
000003b0: 3658 dbb4 0000 0000 2763 33b8 0141 e2b7
000003c0: acfc f138 f59f 0e3a a52e 3dba 0316 183a
000003d0: 5988 d3b6 6d57 24b7 1503 5a2b 14bb a32a
000003e0: c815 4e36 0000 0000 4f9b fa38 2794 0638
000003f0: 71e7 9db9 b427 e439 1d15 e33a 7af0 a9b9
0.00011801638 0.0007288205 -0.0016525853 -0.00018794757 -2.1782565e-05 6.452541e-06 -2.5889846e-12 -9.721635e-13
-4.7424706e-07 0.0 -2.4292844e-05 -8.987266e-05 0.0003643034 0.00012599901 -0.0009974815 0.0006027905
-1.029837e-05 -5.978502e-06 5.7050604e-13 2.1422859e-13 3.3718115e-06 0.0 0.00014123083 -1.02464855e-05
-1.9640765e-05 0.000546246 -0.00068515324 0.0008703894 -6.933414e-06 -8.810603e-06 -1.8868839e-12 -7.085315e-13
4.278062e-06 0.0 9.641514e-05 3.5683304e-05 -7.9519676e-05 -9.917155e-05 5.4936165e-05 0.00014416451
2.9260787e-06 -7.3654945e-07 2.5299904e-13 9.500175e-14 -8.669797e-08 0.0 2.6352183e-05 8.2162e-07
1.5772655e-05 -0.00015144327 0.0007824385 4.966659e-05 1.0756727e-05 -1.6291101e-06 1.3742276e-12 5.160334e-13
1.3013644e-07 0.0 -3.3680465e-06 5.2294945e-05 5.613561e-05 0.00054061477 -0.001140081 0.0006118448
-8.461811e-06 -4.766845e-06 -1.3294642e-13 -4.9909224e-14 3.1861775e-06 0.0 8.105236e-05 -1.874036e-05
-0.00013583936 -0.00025743412 0.00074742833 0.00034337785 1.4507601e-05 -2.0691884e-06 6.085702e-12 2.2851927e-12
-3.3768234e-07 0.0 1.5547654e-05 6.126904e-05 -3.5375677e-05 0.00063105964 -0.0023099668 0.0011418725
-6.7519964e-06 -8.7849287e-07 1.8124308e-12 6.8056373e-13 2.7395436e-06 0.0 0.00015256355 -0.0001564591
0.00024572088 -0.00019388211 -0.0016379458 0.0001414234 -1.5259975e-05 8.224105e-06 1.7203723e-12 6.460032e-13
-5.280746e-08 0.0 3.69369e-05 -0.00019946173 -3.8012513e-05 2.5253536e-05 -0.0001767715 3.313676e-05
7.659399e-06 -1.5974127e-06 2.8181177e-12 1.0582059e-12 6.8247704e-07 0.0 -4.9146645e-05 -4.2940963e-05
1.2063641e-06 -0.0001507664 0.00015243534 -0.0002291971 7.0756364e-06 1.1989474e-06 -3.2884475e-14 -1.2347093e-14
-4.879922e-07 0.0 -6.565386e-05 -4.5873057e-05 6.9487745e-05 -0.00015210285 0.00016998065 -0.0002957179
2.5241814e-06 -2.023356e-06 5.874342e-13 2.2058008e-13 -1.208098e-06 0.0 1.7471579e-05 1.2163013e-05
0.0001222288 -0.00072106166 -0.00090502086 9.419246e-05 -1.1166859e-05 1.4919549e-05 7.8692787e-13 2.9550624e-13
-1.5243526e-06 0.0 -7.49515e-05 -0.00010354081 -0.00047230828 0.00052834617 0.0020435853 -0.0004817175
2.3077044e-05 -1.19897695e-05 7.495273e-12 2.8144665e-12 -1.723618e-06 0.0 -4.4961547e-05 0.0001635214
-9.766333e-06 0.000110417226 -0.00025728322 -1.5256714e-05 -3.508056e-06 -1.8822354e-07 9.6784854e-12 3.6342867e-12
-8.521047e-07 0.0 -3.161501e-05 2.2046133e-06 -0.00018022304 0.00063975464 0.0005559327 7.9115685e-05
9.743485e-06 -7.509745e-06 -8.322732e-14 -3.1265467e-14 1.4574217e-06 0.0 6.0132006e-05 6.797461e-05
-0.000104173785 -0.00042077265 0.0005018364 -0.00047606844 7.860629e-06 8.091142e-06 3.2190288e-13 1.2087241e-13
-3.452899e-06 0.0 -8.476568e-05 -2.9095578e-05 0.00017096753 -0.00045918583 0.00033721342 -0.00060506765
9.55771e-06 2.8609481e-06 1.3852274e-13 5.2016032e-14 -2.1231817e-06 0.0 -3.876731e-05 -3.3585915e-05
-7.040665e-05 -0.0002954648 0.00033078573 -0.00033463768 1.3234906e-06 6.3999896e-06 4.3415496e-13 1.6302426e-13
-1.8047982e-06 0.0 -5.3673586e-05 -7.036731e-06 -5.0969502e-05 -0.00015936498 0.00026604318 -0.00021037993
2.763997e-06 2.9932548e-06 1.804074e-12 6.774277e-13 -4.085611e-07 0.0 -4.276927e-05 -2.697157e-05
0.00011538839 0.00054407056 -0.00072167284 0.000580162 -6.304163e-06 -9.795517e-06 7.7453435e-13 2.9084428e-13
3.070907e-06 0.0 0.000119498574 3.2086067e-05 -0.0003011781 0.0004351713 0.0017325018 -0.0003241336

exp_avg_sq f4 [128, 12]
00000000: f064 0736 9bfa 7436 5230 4337 a630 fa35
00000010: 1a75 1631 ef54 1c31 db52 952b 449a 9e2b
00000020: d29d a02d 0000 0000 2b49 2534 340b 4a34
00000030: 957d 8b34 6b66 5235 7e55 7035 7aa7 1e35
00000040: 2573 e92e 5b47 f02e ffa3 b72a 9ed4 8c2b
00000050: 8208 132c 0000 0000 3097 c831 d5fb 0c32
00000060: 2574 ec35 6ee3 1a36 df82 3736 8571 8536
00000070: 6d74 b52f 7891 c82f d5bf 0c2c 3c48 7c2b
00000080: a72e b92c 0000 0000 0047 c432 ad32 f032
00000090: 425a f433 d2cf ac34 ddce 1f35 9fa6 ae34
000000a0: c5bd 112f 1dd2 f82e 46f7 4529 6403 9928
000000b0: 3209 912b 0000 0000 1203 0332 328d 2d32
000000c0: 75f2 e434 2231 d735 09b3 3736 19ba f834
000000d0: 735b f02f f208 fe2f df13 092a 6620 ef2a
000000e0: dcb8 8d2c 0000 0000 6760 ee32 4186 1133
000000f0: 7136 2435 53cd d235 04e4 1736 97c5 1936
00000100: e659 0830 f17f 1530 6ae4 6d2a 5249 922a
00000110: 8a6d be2c 0000 0000 6554 0a33 3627 3833
00000120: 8eb8 5135 3707 f735 0bc0 8136 ffbd 8b35
00000130: 1530 4630 7503 4730 b1b1 fa2a 12f8 692b
00000140: d64d d92c 0000 0000 af90 4c33 c628 7533
00000150: ac83 c135 e422 cd36 a863 d636 647a d436
00000160: 03ea 9f30 5a5b b930 dcd4 1a2b 9813 1c2c
00000170: 5c3b af2d 0000 0000 9e28 bb33 12cf b233
00000180: 176e 4b35 1329 c535 ebc6 8636 1ca8 ba34
00000190: a473 5230 bf68 5930 dcb3 072b d6ee df2b
000001a0: b335 132d 0000 0000 9092 3533 5868 7b33
000001b0: 8719 9f34 fa8a 6335 22df 8635 5f8c 6b35
000001c0: 764d 342f 1384 4c2f ff41 5a2a 2912 aa2a
000001d0: 05ff dc2b 0000 0000 f83b 3c32 fb3c 7132
000001e0: 1f25 0f35 95ee b635 ff1c 9a35 3f8f f635
000001f0: c8a3 172f 9479 092f d3c1 6d2b 72f5 ba2a
00000200: 501b ba2b 0000 0000 b8b0 0a32 50c4 3032
00000210: 49a5 a435 a182 aa35 ea22 3836 4515 2536
00000220: 8ccd 1630 7ed2 1430 3475 a02b cd9b ff2a
00000230: 2b31 2f2d 0000 0000 d2e6 1f33 2583 0733
00000240: 9510 2e35 e6a9 0336 7289 2536 1fa0 1f36
00000250: d4f7 0a30 0c97 1730 e0ef d62a c451 b12a
00000260: 1ffb db2c 0000 0000 fc7a 0133 0394 2e33
00000270: 5d1c 6235 6ffc 4936 8055 c436 29f2 2d36
00000280: 3520 a630 134c aa30 82a5 322b 6fc3 ab2b
00000290: 5366 562d 0000 0000 7b43 ad33 a219 cb33
000002a0: 4522 3c35 c6d5 de35 9634 5636 0208 d034
000002b0: 34b5 0430 8fa9 f32f 36c7 0b2b b84d e42a
000002c0: b0e2 af2c 0000 0000 dcec f632 4040 1f33
000002d0: 80c0 0735 d021 d135 f382 0336 b016 ea35
000002e0: 8b0c c52f 0f68 d72f 865d a12a c27a be2b
000002f0: d626 ad2c 0000 0000 b8af c532 5c2c 0433
00000300: 3707 cd34 ad37 6435 5657 7e35 2658 5835
00000310: bc11 f72e fdd0 0a2f 0cdf f629 1bbb cd29
00000320: f64a 2c2c 0000 0000 920b e731 edbe 1d32
00000330: 95bd 3235 5671 0f36 584e b235 6d9e 6336
00000340: 131b 832f 2610 992f 5b1c d52a 9631 2e2a
00000350: 6694 6f2c 0000 0000 9aa1 6d32 7bd6 aa32
00000360: b27c 5a34 23a1 e334 74ce eb34 d260 f634
00000370: 2db7 5a2e 4065 812e bb7d 8a2a 22e7 212b
00000380: 7907 d52b 0000 0000 308e 6c31 54a4 5831
00000390: 037a c034 955b 2635 3d94 5d35 f9b8 5d35
000003a0: 1da7 292f da75 462f a3a9 962a 8213 502b
000003b0: b5f1 ff2b 0000 0000 ba25 2932 0fab 5832
000003c0: 82b9 f234 ef5e 9c35 e303 b635 5e04 b735
000003d0: f801 762f aa41 872f 3ea8 c82a 6ddb 8b2b
000003e0: b364 a72c 0000 0000 4fe0 8a32 61c1 9132
000003f0: 63c7 f734 989c 8535 89c5 7736 2dda d234
2.017532e-06 3.6504705e-06 1.1634156e-05 1.864061e-06 2.1894437e-09 2.2749267e-09 1.0610084e-12 1.1269393e-12
1.825998e-11 0.0 1.5393441e-07 1.8816792e-07 2.598214e-07 7.8380134e-07 8.9531375e-07 5.91033e-07
1.0616067e-10 1.0926612e-10 3.2621125e-13 1.0006611e-12 2.089468e-12 0.0 5.837954e-09 8.2063325e-09
1.7617173e-06 2.308017e-06 2.7345302e-06 3.9769243e-06 3.3006434e-10 3.648315e-10 2.0001685e-12 8.962863e-13
5.2631957e-12 0.0 2.284969e-08 2.7962722e-08 1.1378553e-07 3.2188706e-07 5.953314e-07 3.2531258e-07
1.3255093e-10 1.1315058e-10 4.3957263e-14 1.6987883e-14 1.0305422e-12 0.0 7.625902e-09 1.0102029e-08
4.264472e-07 1.6033048e-06 2.7373337e-06 4.6329004e-07 4.3720724e-10 4.6208687e-10 1.2174939e-13 4.247741e-13
4.0279845e-12 0.0 2.7750685e-08 3.3882547e-08 6.1173984e-07 1.5705976e-06 2.2633476e-06 2.291379e-06
4.9604265e-10 5.43877e-10 2.1129076e-13 2.5985686e-13 5.412286e-12 0.0 3.2207385e-08 4.28765e-08
7.812713e-07 1.8405034e-06 3.8668563e-06 1.0411603e-06 7.210031e-10 7.240069e-10 4.453222e-13 8.3122495e-13
6.1761525e-12 0.0 4.762904e-08 5.708059e-08 1.4417942e-06 6.113538e-06 6.3892985e-06 6.3323405e-06
1.1635283e-09 1.3486485e-09 5.500719e-13 2.217981e-12 1.9921557e-11 0.0 8.715254e-08 8.326437e-08
7.5783595e-07 1.4689598e-06 4.0166683e-06 3.4767515e-07 7.656189e-10 7.9092993e-10 4.821124e-13 1.5911393e-12
8.367906e-12 0.0 4.2275644e-08 5.853539e-08 2.9634631e-07 8.476633e-07 1.0048718e-06 8.774859e-07
1.6398424e-10 1.8600614e-10 1.9385187e-13 3.0210667e-13 1.5702722e-12 0.0 1.0956676e-08 1.4041912e-08
5.332567e-07 1.3629493e-06 1.1482333e-06 1.8370118e-06 1.3791557e-10 1.250327e-10 8.44683e-13 3.321055e-13
1.3223676e-12 0.0 8.072838e-09 1.0289185e-08 1.2267056e-06 1.2704005e-06 2.743846e-06 2.4599296e-06
5.486178e-10 5.4141214e-10 1.1401214e-12 4.5405208e-13 9.958516e-12 0.0 3.7230002e-08 3.1551412e-08
6.484418e-07 1.9619415e-06 2.466692e-06 2.378605e-06 5.055629e-10 5.514813e-10 3.8180483e-13 3.1498252e-13
6.2522344e-12 0.0 3.0147007e-08 4.0647148e-08 8.4232835e-07 3.009827e-06 5.8512087e-06 2.5919965e-06
1.2087243e-09 1.239075e-09 6.346799e-13 1.2204525e-12 1.2187212e-11 0.0 8.068215e-08 9.457587e-08
7.0085326e-07 1.6602505e-06 3.1919094e-06 3.8748846e-07 4.8278825e-10 4.432192e-10 4.965918e-13 4.0554864e-13
4.9989665e-12 0.0 2.874588e-08 3.7078507e-08 5.0571543e-07 1.5581554e-06 1.9596744e-06 1.7440962e-06
3.5843004e-10 3.918221e-10 2.866424e-13 1.3534384e-12 4.9212674e-12 0.0 2.3013726e-08 3.077399e-08
3.8189475e-07 8.501764e-07 9.4749464e-07 8.0594543e-07 1.123541e-10 1.2625274e-10 1.0963287e-13 9.1362864e-14
2.4484282e-12 0.0 6.7243002e-09 9.182014e-09 6.6586045e-07 2.137463e-06 1.3284834e-06 3.3917852e-06
2.3847999e-10 2.7842012e-10 3.7856076e-13 1.5471508e-13 3.404632e-12 0.0 1.383196e-08 1.988814e-08
2.0348196e-07 4.2399287e-07 4.3922375e-07 4.5891517e-07 4.9730154e-11 5.8842264e-11 2.4600967e-13 5.751945e-13
1.5136634e-12 0.0 3.4423344e-09 3.1525547e-09 3.5851562e-07 6.197309e-07 8.254463e-07 8.2598086e-07
1.5429831e-10 1.8049864e-10 2.6763062e-13 7.3923517e-13 1.8185927e-12 0.0 9.845673e-09 1.2611749e-08
4.5210987e-07 1.1650535e-06 1.3561188e-06 1.3635834e-06 2.2374269e-10 2.4603014e-10 3.5643878e-13 9.937447e-13
4.7576053e-12 0.0 1.6167318e-08 1.696816e-08 4.6152408e-07 9.954847e-07 3.6920849e-06 3.9274292e-07

exp_avg f4 [128]
00000000: b848 70b9 9e7f 7338 12db 1a39 e9bc 9537
00000010: 89b5 e638 c8ae 1c38 c681 0339 6bd9 bdb8
00000020: 3f4b 81b9 9888 6fb7 b00c 64b8 cb5f 54b7
00000030: bc50 61b9 e3f6 8139 433a 33b8 3b46 4439
00000040: fc13 e5b8 0a73 c9b8 0588 93b8 f9ff 3ab7
00000050: dffa ef38 0f9c 8b39 0bfd 3138 77d5 bc38
00000060: d837 9ab9 9079 8638 4ebf 03b9 3a2d 2f37
00000070: 20d5 0539 1d4a 1bb8 03af 4938 3145 34b8
00000080: e111 5939 826f 6b38 e464 7837 8705 3bb9
00000090: db2c 85b9 04e3 75b9 f63d 34b6 e686 e038
000000a0: 2f8a 11b8 526e 55b8 e499 dcb8 3512 35b8
000000b0: f8e3 0a39 b1bf 0039 ecc0 34b8 edba 9e39
000000c0: e4be 0f39 8a28 1ab9 9288 bc37 2447 1139
000000d0: 298d ce38 ac4c 9d37 aa98 e238 4882 db37
000000e0: 7f62 3737 9a27 3638 e344 10b9 3d53 2339
000000f0: 83ff 0238 623f cc37 4011 6ab8 b4c7 1cb9
00000100: a031 3538 9175 f538 e8f4 2538 a326 c638
00000110: 9f1e 1138 3de2 b0b8 71f8 91b6 5f35 cbb7
00000120: 03d5 8c39 9ac6 2039 1e29 9c39 2cc9 a738
00000130: e398 8638 6f8f 8eb8 b40f 2bb9 dbb3 afb8
00000140: 2219 05b9 fbbe 2738 d827 8339 fc06 a3b8
00000150: cae2 fe38 3ef4 d238 647f 4138 f894 e438
00000160: 2432 4db7 22fa 13b8 506b 8c37 16ed 83b7
00000170: f90a 36b6 c1e3 6f38 212a 55b9 f6de f9b7
00000180: 00fe 99b8 dce3 87b8 c7e3 48b9 51bd 8938
00000190: d449 fe37 ecdc 46b9 8e65 4f38 11b0 5a39
000001a0: 4622 d638 1cd0 1fb8 a4d1 b337 538d f339
000001b0: f2b3 4739 044e a738 f3b6 d8b9 15db a2b9
000001c0: 0422 39b9 0363 b138 b92e 4238 5092 7d38
000001d0: e2e4 a8b8 e6fc 3137 5b92 28b7 0451 e2b8
000001e0: 9295 dc38 8f7f 2738 b357 8539 7a5b e337
000001f0: 0724 06b8 2d46 8bb8 f430 19b9 05ac 3739
-0.00022915273 5.8054567e-05 0.00014768195 1.7850152e-05 0.00011001068 3.7356076e-05 0.00012541478 -9.0527195e-05
-0.0002466086 -1.4277313e-05 -5.4371252e-05 -1.2658488e-05 -0.00021487748 0.00024788742 -4.2731186e-05 0.0001871818
-0.00010923293 -9.6058546e-05 -7.034842e-05 -1.1146062e-05 0.000114431365 0.0002662842 4.2435753e-05 9.0042995e-05
-0.00029414776 6.412261e-05 -0.000125644 1.0441343e-05 0.00012763264 -3.7023903e-05 4.8085127e-05 -4.2979784e-05
0.00020701393 5.6132216e-05 1.4805442e-05 -0.00017835769 -0.00025401157 -0.0002344959 -2.6858156e-06 0.00010706279
-3.4699387e-05 -5.08859e-05 -0.00010519082 -4.317072e-05 0.0001324563 0.00012278442 -4.3095017e-05 0.0003027538
0.00013708655 -0.00014701686 2.2474942e-05 0.0001385478 9.8491386e-05 1.8751562e-05 0.00010804956 2.6167501e-05
1.0930583e-05 4.3429063e-05 -0.00013758572 0.000155759 3.123238e-05 2.434821e-05 -5.5806013e-05 -0.00014951715
4.319998e-05 0.00011704409 3.9567152e-05 9.4485724e-05 3.4599212e-05 -8.434474e-05 -4.350259e-06 -2.4224339e-05
0.00026861587 0.00015332774 0.00029785273 8.000652e-05 6.418095e-05 -6.797804e-05 -0.0001631368 -8.378151e-05
-0.00012693231 3.9993767e-05 0.00025015953 -7.7737466e-05 0.000121539066 0.00010059074 4.6133428e-05 0.00010899635
-1.2230626e-05 -3.5280485e-05 1.6739272e-05 -1.5726819e-05 -2.71265e-06 5.7194153e-05 -0.00020328957 -2.9786937e-05
-7.34292e-05 -6.479744e-05 -0.0001915834 6.567932e-05 3.0313538e-05 -0.00018965051 4.9447226e-05 0.0002085569
0.00010210699 -3.810237e-05 2.1436084e-05 0.00046453867 0.00019045154 7.977712e-05 -0.00041335038 -0.00031062277
-0.00017655647 8.45846e-05 4.629672e-05 6.0456165e-05 -8.053497e-05 1.0608905e-05 -1.0047656e-05 -0.0001079161
0.00010518277 3.99347e-05 0.00025433078 2.7103106e-05 -3.1981643e-05 -6.641108e-05 -0.00014609454 0.00017516322
