results/Charge3/Charge/Charge-14118.onnx (onnx, 289373 bytes, 10 tensors)

network_body._body_endoder.seq_layers.0.weight f4 [256, 12]
-0.64841694 -0.21201901 0.5754181 0.21908198 -0.06979722 -0.16865191 -0.3487414 0.058360703
-0.4091332 -0.124051936 0.12921627 -0.18128256 -0.35830742 -0.039385144 -0.56746 -0.27770704
0.10090016 0.13223447 0.14276017 -0.17500527 -0.14888485 -0.04282379 0.62301904 0.3322933
-0.4236186 -0.041600168 -0.0019143556 -0.12575679 -0.145312 0.3575278 -0.16202356 0.059352398
0.0545974 0.38999158 -0.2989936 0.37264964 0.051875375 0.037864197 -0.028014982 -0.2005178
-0.32933015 0.13118158 -0.4820141 -0.050172627 -0.0038344287 -0.5294227 0.038916342 0.36857396
-0.38121158 -0.13053557 -0.35989746 0.20855743 0.17181733 -0.42847446 0.4799994 0.075141065
0.3231171 0.11839624 -0.39663965 -0.2783407 -0.16771242 0.12627 0.35341802 -0.55601776
0.31442717 0.18056306 -0.2749423 0.07886393 0.17900495 -0.30021134 0.12931722 0.09397414
-0.07802478 0.11178364 -0.19480695 0.41708425 -0.26591772 0.10977683 -0.25243238 -0.30801895
0.027597474 -0.12833324 0.47679335 -0.24043459 -0.069831386 -0.18877336 0.29453948 -0.1886252
-0.0087985275 -0.08222837 -0.1330568 0.085643224 -0.0682347 -0.5359824 0.14129588 0.31759518
-0.3591571 -0.29235333 0.02155991 0.28809515 -0.24386391 -0.12739745 0.16406402 0.047919974
0.108783014 -0.42033222 -0.004509898 0.073438846 0.38063055 0.91537565 -0.33775607 0.028891701
0.26514277 -0.41275376 -0.37317923 0.25965342 0.38086975 0.2890882 -0.2119914 0.6432017
0.28633708 0.10491168 0.67453533 0.09213409 -0.35812938 -0.21190454 0.5363933 -0.430432
-0.398009 -0.15287332 0.19729923 -0.032403972 0.12348958 0.45567405 -0.2621688 0.21361664
0.24017487 -0.19965151 -0.19630301 1.1629996 0.21927041 -0.5153531 0.35026816 0.1851553
0.08493967 0.27610254 0.09546324 0.30752817 -0.29677156 0.15522794 -0.22526771 0.3878718
-0.12893455 -0.2751166 0.021966087 -0.011368507 -0.4477348 -0.3778421 -0.14946045 -0.29912704
-0.024720173 -0.9696872 0.030720618 -0.19165224 -0.1744864 -0.32457808 -0.14597145 0.29179752
-0.4433243 -0.4824212 0.22323439 -0.01165385 0.050529934 0.09620268 0.7432422 -0.009718912
0.5350976 -0.04001413 -0.048199184 -0.12182626 -0.32463402 -0.21927243 -0.30493835 0.41473034
-0.123358086 -0.037351884 -0.15337965 0.23429248 0.13880228 0.25642735 0.0060484135 -0.14018218
0.2199341 -0.45595565 0.7907429 0.033862654 0.010975017 -0.103859544 -0.19628797 -0.21819922
-0.3464855 -0.09584016 -0.18575402 -0.15333867 0.26079568 0.1313308 -0.23194332 -0.65335524
0.008162962 -0.2684638 -0.31347707 -0.26873696 -0.26328364 0.037273865 -0.31618768 0.2707384
-0.18588816 0.08536095 0.26544142 0.036889397 -0.3569239 -0.13133942 -0.24176192 0.10884623
-0.14725433 0.009000492 -0.45024377 0.40480426 -0.105194435 0.016247544 -0.18199372 -0.12126165
0.45514387 -0.061692283 0.2538595 -0.15226145 -0.13293646 0.16028257 0.43289915 0.35877517
-0.06265866 0.19331096 0.100359984 0.01815826 -0.16519676 -0.022850167 0.3361734 -0.3661017
0.2514894 -0.09163302 0.06770572 -0.18209861 0.4336797 0.33012947 0.22027427 0.36288548
00000000: a7fe 25bf 831b 59be 9a4e 133f 0757 603e
00000010: d8f1 8ebd 16b3 2cbe 3c8e b2be a20b 6f3d
00000020: e879 d1be f10e febd 4551 043e 23a2 39be
00000030: 1274 b7be 5152 21bd 0f45 11bf 9e2f 8ebe
00000040: bea4 ce3d 7968 073e b92f 123e 9534 33be
00000050: 4575 18be 0068 2fbd 2d7e 1f3f 5922 aa3e
00000060: 8ae4 d8be f064 2abd 1deb faba 63c6 00be
00000070: abcc 14be e20d b73e 81e9 25be 801b 733d
00000080: 86a1 5f3d faac c73e b015 99be efcb be3e
00000090: 467b 543d 7d17 1b3d ad7f e5bc 8a54 4dbe
000000a0: f69d a8be 7754 063e 8dca f6be d081 4dbd
000000b0: 0a4b 7bbb 3f88 07bf be66 1f3d bab5 bc3e
000000c0: 2a2e c3be 1eab 05be 7b44 b8be 1490 553e
000000d0: e2f0 2f3e 0161 dbbe 7bc2 f53e 8fe3 993d
000000e0: 9b6f a53e ba79 f23d 5a14 cbbe ac82 8ebe
000000f0: cebc 2bbe ec4c 013e 35f3 b43e 2e57 0ebf
00000100: 99fc a03e 86e5 383e 3dc5 8cbe 6a83 a13d
00000110: 134d 373e 4db5 99be bc6b 043e 8475 c03d
00000120: 75cb 9fbd d2ee e43d 797b 47be 118c d53e
00000130: 5e26 88be add2 e03d d13e 81be a9b4 9dbe
00000140: 1914 e23c ca69 03be 421e f43e 7c34 76be
00000150: c203 8fbd ce4d 41be e1cd 963e f726 41be
00000160: b327 10bc 5967 a8bd 0b40 08be b765 af3d
00000170: a2be 8bbd 2436 09bf deaf 103e d69b a23e
00000180: 70e3 b7be 56af 95be 699e b03c 3581 933e
00000190: 76b7 79be 7a74 02be 6600 283e bc47 443d
000001a0: a1c9 de3d c935 d7be c4c7 93bb 1b67 963d
000001b0: 02e2 c23e 0f56 6a3f 5dee acbe 4aae ec3c
000001c0: cbc0 873e 7654 d3be 5911 bfbe 4bf1 843e
000001d0: 5c01 c33e 5e03 943e 4614 59be dea8 243f
000001e0: c69a 923e efdb d63d 59ae 2c3f ccb0 bc3d
000001f0: bc5c b7be 81fd 58be 1251 093f 9561 dcbe
00000200: d6c7 cbbe d38a 1cbe cf08 4a3e 07ba 04bd
00000210: 1be8 fc3d 1c4e e93e fd3a 86be 52be 5a3e
00000220: 67f0 753e 7271 4cbe a803 49be 2cdd 943f
00000230: 6c88 603e 2eee 03bf 5956 b33e 5a99 3d3e
00000240: daf4 ad3d 505d 8d3e 3b82 c33d 5574 9d3e
00000250: 71f2 97be 13f4 1e3e 94ac 66be 2297 c63e
00000260: 6b07 04be 15dc 8cbe 39f2 b33c f942 3abc
00000270: 7f3d e5be 8574 c1be 290c 19be 2e27 99be
00000280: f681 cabc 6c3d 78bf cea9 fb3c 7c40 44be
00000290: 90ac 32be 192f a6be 8a79 15be 7c66 953e
000002a0: 67fb e2be e9ff f6be 8e97 643e caef 3ebc
000002b0: 7af8 4e3d e905 c53d 1f45 3e3f 123c 1fbc
000002c0: 28fc 083f dbe5 23bd 826c 45bd 0c80 f9bd
000002d0: 6e36 a6be f488 60be e120 9cbe 8957 d43e
000002e0: 2aa3 fcbd 4afe 18bd 8e0f 1dbe 5eea 6f3e
000002f0: 2f22 0e3e 724a 833e c531 c63b eb8b 0fbe
00000300: 6836 613e 0573 e9be 206e 4a3f 91b3 0a3d
00000310: 8fd0 333c 50b4 d4bd b7ff 48be 9e6f 5fbe
00000320: 8c66 b1be d947 c4bd 4d36 3ebe d004 1dbe
00000330: 0387 853e 957b 063e 8d82 6dbe 4a42 27bf
00000340: f2bd 053c 1674 89be 1180 a0be e497 89be
00000350: 1dcd 86be 7bac 183d 5ae3 a1be 399e 8a3e
00000360: 7759 3ebe b9d1 ae3d f0e7 873e 5619 173d
00000370: bbbe b6be d77d 06be 7090 77be c6ea de3d
00000380: d7c9 16be cd76 133c 5a86 e6be 8142 cf3e
00000390: 2e70 d7bd 9219 853c 905c 3abe 0758 f8bd
000003a0: 9e08 e93e 0cb1 7cbd dff9 813e 6dea 1bbe
000003b0: 7f20 08be 1d21 243e f5a4 dd3e 61b1 b73e
000003c0: 2f53 80bd 4ff3 453e 8989 cd3d a2c0 943c
000003d0: 5729 29be 4630 bbbc eb1e ac3e af71 bbbe
000003e0: 38c3 803e 18aa bbbd 4ca9 8a3d 0f78 3abe
000003f0: 440b de3e bb06 a93e 948f 613e 20cc b93e

network_body._body_endoder.seq_layers.0.bias f4 [256]
0.00021304541 0.0026396313 0.00021013229 0.0058964575 -0.0014790946 0.0014483798 -0.00079499156 -0.00020088794
0.0044222497 0.0016721118 -0.0011414335 -0.0020391466 -0.0013713294 0.0031065296 0.008053606 0.0015246257
-0.0010287749 0.006732133 -0.002743664 0.0038240994 -0.00084438815 0.0014684256 -0.007089992 0.0012883602
0.00039944696 0.0019464814 0.0016795011 0.00013441795 -0.00013018996 -0.0016608811 0.0022378638 0.0040524965
-0.0021573808 -0.0009269234 0.0028980514 -0.0032892213 -0.0013063861 -0.0029882893 0.003008413 -0.0017406343
-0.00065926067 0.0037339304 -0.0050616707 0.0047966894 -0.002948039 0.0038025558 0.0047136317 -0.0038825003
0.004891245 0.003596326 -0.00214078 0.008880404 0.00037056278 0.0036976626 0.004884406 0.001344833
0.00590103 -0.0009815872 -0.0051386054 -0.003452735 -0.003121621 0.0027770167 0.0008585059 0.008540144
-0.003653033 0.003878562 0.0013167586 0.0029566446 0.003971543 -0.0049767615 -0.0016917253 -0.0054143583
0.0017259195 0.0026083835 -0.0015719675 0.0018324455 -0.00067216693 -0.00039301533 -0.00071703584 0.011976502
0.00017474644 0.00034012093 -0.001189286 -0.0019630983 -0.010142938 -0.0007048668 -0.0003415065 0.0041015144
0.0017910041 0.0036786282 -0.007240795 0.00089828734 0.00050634803 -0.0015929795 -0.0013257647 -0.0037470136
-0.006956771 0.0043033664 0.0072670532 0.004211058 -0.003663988 0.00077382085 -0.0022808462 0.010245241
-0.0024387161 -0.002980317 -0.0036626393 -0.002978928 0.002918412 -0.0030193657 -0.0023314136 0.0025050673
0.005012146 -0.0053408947 0.0012861978 0.0023696485 0.0008918839 -0.0053164545 -0.004158316 -0.0075986153
-0.0017844338 -0.0021381623 0.0023982185 -0.001612299 0.0047724047 0.002107023 -0.0016141908 0.0006273195
0.0024403164 0.000783044 -0.00096980773 -0.0007994488 -0.0039978344 0.00511109 0.002383941 -0.0012166512
0.0054191374 -0.007452614 0.01031385 0.0063364613 0.0032978419 0.0023919975 0.00094089325 -0.0024968954
-0.0006691395 -0.00036736781 -0.0023671342 0.0011563214 0.0022089956 0.0032914774 -0.0034071375 0.0025042072
-0.0060965116 0.005133262 -0.002163179 -0.0034536305 -0.0027583474 -0.00025166408 -0.0009336714 0.00092859066
0.0036930523 0.0018081131 -0.0020695582 -0.0028133998 0.001011397 -0.0017903736 -0.004297271 -0.0016822524
0.0034911234 -0.0052117747 0.0042938353 0.001006749 -0.0034843038 -0.0011677562 -0.00017560051 -0.0005000715
-0.002219344 -0.006554372 0.0020046027 0.0038211134 -0.0012136041 0.001173846 -0.002687291 -0.0075322976
0.007003458 0.004988973 0.0047552222 6.2190564e-05 -0.0022510018 0.00916949 0.0015144931 -0.003110997
-0.003374737 0.0033818637 0.0073157824 0.0006131704 -0.001015779 0.0052764853 -0.00725699 -0.0019093088
0.00494624 -0.0022100322 -0.0011731527 0.005098344 0.001100584 -0.0052449894 0.0044855135 0.0027573393
0.006103242 0.0009450424 -0.005665901 -0.00039344397 0.003913368 -0.0013720894 -0.0022784842 0.0038654248
-0.002888069 0.00048741154 -0.00063000416 -0.0025266504 -0.0041941265 -0.0061780657 0.0014971114 -0.0013962814
-0.0059181275 -0.0028638951 0.004153345 -0.0052809347 0.006755613 -0.00021680926 0.0020882844 -0.0019730707
0.0022856134 0.0048098746 0.0028918488 -0.0019240663 -0.006273724 -0.001793265 0.0032477838 0.00011025694
-0.0012923566 -0.0026369935 0.002775974 -0.005940041 0.003896187 -0.0019279151 -0.0012033321 -0.0024027396
-0.002525075 0.004757759 0.0036884388 0.00030931667 -0.004265521 0.004786421 0.0019829592 0.004901776
00000000: f164 5f39 aafd 2c3b f556 5c39 1237 c13b
00000010: 2ede c1ba 90d7 bd3a fb66 50ba 72a5 52b9
00000020: 85e8 903b c32a db3a 279c 95ba 34a3 05bb
00000030: 2ebe b3ba eb96 4b3b 46f3 033c f3d5 c73a
00000040: f5d7 86ba 3a99 dc3b 0bcf 33bb be9d 7a3b
00000050: ee59 5dba 3078 c03a 2a53 e8bb 32de a83a
00000060: dd6c d139 1421 ff3a b522 dc3a 8bf2 0c39
00000070: 9a83 08b9 ecb1 d9ba 20a9 123b ceca 843b
00000080: d862 0dbb c7fc 72ba 3ced 3d3b fa8f 57bb
00000090: 0b3b abba 2dd7 43bb cb28 453b ff25 e4ba
000000a0: 3cd2 2cba f5b4 743b 5fdc a5bb 8c2d 9d3b
000000b0: e333 41bb 4d34 793b cf74 9a3b 8c71 7ebb
000000c0: bd46 a03b 57b0 6b3b 544c 0cbb 1d7f 113c
000000d0: 1848 c239 7c54 723b 5e0d a03b 1c45 b03a
000000e0: 6d5d c13b 9aa8 80ba bf61 a8bb 4847 62bb
000000f0: 1c94 4cbb 9cfe 353b 5b0d 613a f6eb 0b3c
00000100: b967 6fbb 792f 7e3b 1697 ac3a 44c4 413b
00000110: b823 823b 1a14 a3bb e2bc ddba ee6a b1bb
00000120: 4038 e23a 6af1 2a3b 7a0a ceba ab2e f03a
00000130: 5c34 30ba a00d ceb9 76f7 3bba 1739 443c
00000140: 243c 3739 4252 b239 d1e1 9bba 53a7 00bb
00000150: 912e 26bc cfc6 38ba 3a0c b3b9 ff65 863b
00000160: 20c0 ea3a 2415 713b 3144 edbb 0b7b 6b3a
00000170: 71bc 043a 86cb d0ba 48c5 adba 7590 75bb
00000180: a0f5 e3bb 4103 8d3b 7620 ee3b eafc 893b
00000190: 851f 70bb 3dda 4a3a 407a 15bb a8db 273c
000001a0: ded2 1fbb 6c51 43bb e408 70bb 1e3a 43bb
000001b0: d442 3f3b 8de0 45bb a1ca 18bb 0e2c 243b
000001c0: ee3c a43b ac02 afbb a395 a83a 1b4c 1b3b
000001d0: 51cd 693a a735 aebb 7c42 88bb cefd f8bb
000001e0: aae3 e9ba 6920 0cbb 6e2b 1d3b c753 d3ba
000001f0: d561 9c3b fb15 0a3b 4193 d3ba b372 243a
00000200: b7ed 1f3b 3145 4d3a b23a 7eba 1a92 51ba
00000210: 4400 83bb ee7a a73b e53b 1c3b 0a78 9fba
00000220: 0593 b13b 0f35 f4bb 6cfb 283c 17a2 cf3b
00000230: 9b20 583b 0fc3 1c3b 47a6 763a f4a2 23bb
00000240: 3169 2fba 469b c0b9 ec21 1bbb b58f 973a
00000250: ccc4 103b d4b5 573b 484a 5fbb a01d 243b
00000260: 3fc5 c7bb ec34 a83b 1fc4 0dbb 4e56 62bb
00000270: 64c5 34bb c8f1 83b9 a1c1 74ba aa6c 733a
00000280: 2307 723b 35fe ec3a 6da1 07bb 0461 38bb
00000290: da90 843a f8aa eaba 1fd0 8cbb 067f dcba
000002a0: 55cb 643b 89c7 aabb 4db3 8c3b e4f4 833a
000002b0: eb58 64bb 650f 99ba 6721 38b9 3b17 03ba
000002c0: 6a72 11bb 0fc6 d6bb a75f 033b a56b 7a3b
000002d0: cc11 9fba bcdb 993a 431d 30bb 7ed1 f6bb
000002e0: 447d e53b 8a7a a33b b2d1 9b3b 4e6c 8238
000002f0: 8b85 13bb a13b 163c f581 c63a dee1 4bbb
00000300: b12a 5dbb 42a2 5d3b 3bb9 ef3b 2bbd 203a
00000310: e323 85ba 5ee6 ac3b 0bcc edbb c641 faba
00000320: 1214 a23b 30d6 10bb 79c4 99ba 0210 a73b
00000330: 7941 903a 29de abbb 37fb 923b 7ab4 343b
00000340: b4fd c73b b9bc 773a 06a9 b9bb 2847 ceb9
00000350: b63b 803b aed7 b3ba 9f52 15bb 1153 7d3b
00000360: c245 3dbb 458b ff39 dd26 25ba 2996 25bb
00000370: e26e 89bb 5f71 cabb b93a c43a 6e03 b7ba
00000380: daec c1bb 30b0 3bbb c818 883b b10b adbb
00000390: 305e dd3b 4b57 63b9 99db 083b a24e 01bb
000003a0: 3bca 153b 279c 9d3b 2c85 3d3b f430 fcba
000003b0: d093 cdbb fd0b ebba c5d8 543b be39 e738
000003c0: 4b64 a9ba 69d1 2cbb 1eed 353b ada4 c2bb
000003d0: 2c57 7f3b 19b2 fcba 20b9 9dba 4877 1dbb
000003e0: bb7b 25bb fae6 9b3b bcb9 713b c82b a239
000003f0: c9c5 8bbb 69d7 9c3b 89f4 013b 149f a03b

network_body._body_endoder.seq_layers.2.weight f4 [256, 256]
0.04430232 -0.015396438 0.12169383 0.03136506 -0.090078555 -0.018925548 0.013470858 -0.051258404
0.053627193 -0.04807227 0.03796407 0.032181516 -0.020442208 -0.012025562 0.1256046 0.056683518
0.072370626 0.07970055 0.017831517 0.06432088 0.05288244 0.036592454 0.05205501 0.046311423
0.058543406 0.12654355 0.05032759 -0.013688488 0.042710826 -0.1485726 -0.06860471 -0.011100257
-0.055184215 0.111432314 0.025283 0.06972662 -0.004682809 -0.025608094 0.08649288 0.0048918813
-0.03892951 0.06288006 -0.017463902 -0.00028821302 -0.0070705162 0.012106574 -0.020448683 0.109051816
-0.033047926 -0.007908518 -0.110211164 0.041732024 -0.010801094 0.061122146 -0.0849794 -0.077996425
-0.023855425 -0.11466504 -0.0031321177 -0.046465643 -0.022246877 -0.05580545 0.010686749 0.010779587
0.006392025 0.008074682 0.07911255 -0.10822117 0.082426995 0.00860146 0.076242425 0.016480373
-0.025158247 -0.07421511 -0.022225326 -0.0076791123 -0.02854356 0.026105696 -0.1004215 0.1268052
0.04497194 -0.079336256 0.04713193 -0.1539407 -0.110634126 -0.09380264 -0.10105364 0.039534185
-0.04848258 0.049451802 0.049798146 -0.022511201 -0.12780136 -0.023856081 0.054407794 -0.13930294
-0.0063324086 0.049429484 0.0063229306 -0.009348869 0.009930879 0.06778204 -0.052082147 -0.011241902
-0.064202726 7.142495e-05 -0.08856088 -0.014169483 -0.030151654 0.01844938 0.018517455 0.068086915
-0.041550986 -0.06389125 0.08499738 0.030502746 0.041227702 0.06624534 0.035311982 0.08319216
0.09981295 0.03234871 -0.083573185 -0.038648743 0.011428943 0.0834717 0.08544196 0.08444399
-0.111627094 -0.059385538 0.104309045 0.05443596 0.08028073 -0.0717878 0.009633209 0.11260324
-0.019825056 -0.03868259 -0.016533956 0.115026124 0.08359453 -0.0153942825 0.09441089 -0.054938402
-0.08794045 -0.052186094 0.034928452 -0.116718076 0.08445942 -0.12712151 0.022008236 0.022565525
0.032146122 -0.02689499 -0.09491623 -0.061500564 0.033087082 0.021164212 0.07011649 0.035592396
0.0062288777 -0.029539512 0.025033178 -0.07115287 -0.045317188 0.05912214 -0.039049484 -0.037221678
-0.010326566 -0.01206186 -0.013186279 0.10772148 -0.03423743 -0.11000596 -0.03599135 -0.01770353
0.06538244 -0.07114392 -0.022315752 -0.030530505 0.06729556 0.021091681 -0.03212282 -0.047884706
0.063398905 -0.019497111 0.03668289 0.079362035 -0.024438426 -0.008941635 -0.009305249 0.10028536
0.040977765 -0.022908233 0.022943042 0.05367156 -0.055118896 -0.06840191 -0.06367558 -0.037399855
-0.07113084 0.12551492 -0.019642908 -0.03170075 0.088369556 0.030024316 0.02773636 -0.11062538
0.063437454 0.056895614 -0.14439395 -0.058375437 -0.010657801 0.00316638 0.057732288 0.03390105
0.07334726 -0.12845595 -0.05213399 0.08106511 0.032620117 -0.050814815 0.084568776 -0.07780774
0.098239996 0.04925591 0.1794417 -0.0277051 0.043151565 -0.02952125 0.09964837 -0.01976482
-0.02308998 -0.06652588 -0.0002111842 0.032058008 -0.019419987 -0.025890328 -0.0039889473 0.026244262
-0.012234079 0.08441433 -0.1234028 0.08068679 0.014372863 -0.036989395 -0.06660676 -0.030039165
-0.03673154 -0.047841888 0.022253355 -0.0028479514 -0.06525777 -0.008865192 0.086256064 0.011074203
00000000: 5976 353d 5741 7cbc 9d3a f93d a678 003d
00000010: 1b7b b8bd c009 9bbc e0b4 5c3c 55f4 51bd
00000020: 30a8 5b3d 6ee7 44bd 3680 1b3d c4d0 033d
00000030: 6b76 a7bc dd06 45bc 7e9e 003e fa2c 683d
00000040: 0d37 943d 0b3a a33d 6713 923c aaba 833d
00000050: 429b 583d f8e1 153d a237 553d 0cb1 3d3d
00000060: 36cb 6f3d a294 013e 4e24 4e3d ae45 60bc
00000070: 8cf1 2e3d 6a23 18be a080 8cbd dadd 35bc
00000080: d808 62bd a036 e43d 4b1e cf3c d5cc 8e3d
00000090: 4072 99bb 11c8 d1bc 2e23 b13d 134c a03b
000000a0: 8d74 1fbd 43c7 803d 7510 8fbc 4c1b 97b9
000000b0: caaf e7bb a75a 463c ff83 a7bc 8f56 df3d
000000c0: 435d 07bd bb92 01bc 64b6 e1bd 33ef 2a3d
000000d0: 12f7 30bc 375b 7a3d ae09 aebd 97bc 9fbd
000000e0: 746c c3bc 81d5 eabd 3744 4dbb c252 3ebd
000000f0: 153f b6bc 4194 64bd 7917 2f3c dd9c 303c
00000100: 3174 d13b ac4b 043c c305 a23d 10a3 ddbd
00000110: 7ccf a83d 23ed 0c3c fd24 9c3d d901 873c
00000120: ab18 cebc 17fe 97bd e311 b6bc 10a1 fbbb
00000130: 2fd4 e9bc 9ddb d53c caa9 cdbd 39d9 013e
00000140: 7f34 383d 0c7b a2bd 690d 413d a2a2 1dbe
00000150: 2594 e2bd 991b c0bd 36f5 cebd 99ee 213d
00000160: ab95 46bd f98d 4a3d 24f9 4b3d 6969 b8bc
00000170: 5cde 02be d46d c3bc b5da 5e3d 6ea5 0ebe
00000180: 1880 cfbb 9276 4a3d 9630 cf3b 002c 19bc
00000190: 20b5 223c 4fd1 8a3d 1754 55bd f42f 38bc
000001a0: b87c 83bd fac9 9538 685f b5bd 1f27 68bc
000001b0: 9a00 f7bc 2723 973c ebb1 973c 2771 8b3d
000001c0: 5e31 2abd 6ad9 82bd 1b13 ae3d e5e0 f93c
000001d0: 61de 283d a3ab 873d 4ca3 103d a760 aa3d
000001e0: bb6a cc3d 1580 043d 6b28 abbd 254e 1ebd
000001f0: 7640 3b3c 36f3 aa3d 32fc ae3d f8f0 ac3d
00000200: bf9c e4bd 403e 73bd fb9f d53d 3ef8 5e3d
00000210: 396a a43d 7b05 93bd 9bd4 1d3c 879c e63d
00000220: 2868 a2bc a371 1ebd 3872 87bc d192 eb3d
00000230: 9c33 ab3d 4d38 7cbc 7f5a c13d 1707 61bd
00000240: 1f1a b4bd 16c1 55bd 2311 0f3d e309 efbd
00000250: 0ff9 ac3d 242c 02be 9e4a b43c 56db b83c
00000260: a7ab 033d e252 dcbc 7163 c2bd 04e8 7bbd
00000270: 5286 073d 9260 ad3c 3c99 8f3d 55c9 113d
00000280: 9d1b cc3b d9fc f1bc 6112 cd3c 99b8 91bd
00000290: 849e 39bd 0f2a 723d 5af2 1fbd c275 18bd
000002a0: c230 29bc 1c9f 45bc 430b 58bc 149d dc3d
000002b0: 8c3c 0cbd ce4a e1bd aa6b 13bd fe06 91bc
000002c0: 3be7 853d e7b3 91bd 86cf b6bc 1c1b fabc
000002d0: 41d2 893d 76c8 ac3c 3893 03bd c122 44bd
000002e0: 49d7 813d 68b8 9fbc cc40 163d 9088 a23d
000002f0: 1833 c8bc ef7f 12bc 0b75 18bc 6962 cd3d
00000300: 4dd8 273d 0caa bbbc 0cf3 bb3c b6d6 5b3d
00000310: 5ac4 61bd 4d16 8cbd 5868 82bd 9730 19bd
00000320: 0cad 91bd fc86 003e 2aea a0bc a5d8 01bd
00000330: 19fb b43d 8ef5 f53c 5d37 e33c 8f8f e2bd
00000340: 7feb 813d 600b 693d 02dc 13be 151b 6fbd
00000350: 0f9e 2ebc 0b83 4f3b b178 6c3d d4db 0a3d
00000360: 1737 963d f589 03be 738a 55bd 7705 a63d
00000370: ac9c 053d 3223 50bd 6532 ad3d aa59 9fbd
00000380: 0d32 c93d 91c0 493d 91bf 373e cef5 e2bc
00000390: b2bf 303d 8cd6 f1bc 7214 cc3d d5e9 a1bc
000003a0: 3327 bdbc b83e 88bd 5471 5db9 424f 033d
000003b0: aa16 9fbc f417 d4bc b7b5 82bb 35fe d63c
000003c0: 7271 48bc 6ce1 ac3d 9bba fcbd 1e3f a53d
000003d0: 287c 6b3c 3182 17bd 2069 88bd b214 f6bc
000003e0: d073 16bd dbf5 43bd ab4c b63c b2a4 3abb
000003f0: dea5 85bd 4f3f 11bc 05a7 b03d 9370 353c

network_body._body_endoder.seq_layers.2.bias f4 [256]
0.0010672397 -0.006157604 -0.0009157547 0.0033758478 -0.0029052082 -0.0006926466 0.0047479775 0.0004894749
0.0006553874 -0.0008336275 -0.00078323035 0.0010208854 0.00016482279 -0.0019419498 0.0036807233 0.0025473714
-0.0016625755 -0.00076958694 0.0018247297 -0.0031719243 0.00023074927 -0.0030670227 -0.0014378914 -0.0027630676
0.004346749 0.002112633 -0.0017233188 -0.00047146913 0.00556232 0.0031577272 0.0028222098 -0.0012968378
-3.9819253e-05 -0.003615983 0.004923398 -0.00084816513 0.0005577433 -6.5061e-05 0.0027617079 -0.0015589888
-0.0010359138 0.0019173616 -0.00029336338 -0.0054147756 -0.0009252378 0.00059583085 -0.0012507442 -6.364453e-05
-0.0010485741 0.0022072687 0.0028515188 -0.00033862903 -0.0013560666 0.0010593892 -0.00066443614 -0.002057983
0.001382089 -0.00083060784 0.0004010816 -0.0016224333 -0.0017898675 0.007874216 0.0044032126 -0.0018422566
-0.00052855554 -0.0006920067 0.0039302185 -0.00024196504 0.00025737906 0.0033691921 -0.0017136824 0.0103530735
-0.0012477305 0.002971747 -0.0025795333 -0.00016907137 -0.00072042906 -0.0015355623 0.0021152305 -0.0017653651
0.0011632731 0.0055615753 -0.0007621732 0.0034209327 0.0033357004 -0.0007556173 -0.0014102614 0.00068457355
-0.0011363587 -0.0013112448 0.0064865826 0.0044200094 0.0063061165 -0.0015056372 -0.0022020433 0.00036982525
-0.0017107914 -0.0017602989 8.201981e-06 0.00073046895 -0.001802819 0.0026194844 -0.0014092453 0.008389805
0.00042301448 -0.0012910995 0.0013918637 -0.0028276215 -0.00083449343 0.0054667452 -0.0010841773 -0.0012412771
-0.003171598 0.0039849915 -0.00088804244 0.0013356357 0.0036143267 -0.0005419282 -0.0007729947 -0.005957463
0.001139535 -0.0008715715 -0.0016027961 0.001522632 0.0017136257 0.006343508 0.0062622344 0.005695078
-0.00025697998 -0.002064911 0.006998502 -0.0012676179 -0.00045568528 -0.0010761394 -0.0017151075 0.00092693034
-0.0014905493 -0.0013874767 -0.0017960987 0.0019446124 -0.0008186214 0.0009380673 0.0029582148 -3.4039716e-05
0.0021609317 0.0032665173 -0.0032896725 -0.0030598307 -0.0017076771 0.0024195649 -0.0006929517 0.00029626285
-0.0006738185 -0.0021661054 -0.000910737 -0.0016931578 -0.0020653699 -0.00389029 0.0064311475 0.0041940575
-0.0011874738 -0.0024660467 -0.00055763865 -0.0014244415 -0.001772728 -0.0020625407 0.0035203763 0.0029695393
-0.0019458462 -0.0023194593 0.00324129 -0.0017284025 -0.0021503349 0.0021303347 -0.0019349098 0.0040451195
0.0014179619 0.003939875 0.0037198258 -0.006726507 -0.0013277505 0.006359579 0.00015458952 -0.0016506816
-0.0013156431 0.001831562 -0.00254971 -0.00085647096 0.0038757552 -0.0056966445 -0.0018999701 -0.0019411314
0.0014705521 -0.0015843264 -0.0019586734 0.0021247633 -0.0012836132 0.0010173006 0.0070233834 0.0015806031
0.012885853 -0.004271335 -0.003768848 0.0023864352 0.005848087 -0.001500537 0.003849024 -0.0017892156
-0.001217852 -0.0010490472 -0.0027355822 -0.0008552524 0.00014250689 -0.0020731506 -0.0023158684 0.0008331515
0.0011073065 -0.00262299 0.0003127313 0.0015219218 -0.0027190624 -0.0007976078 0.0047167214 0.0026584768
-0.0017385429 -0.0008439199 -0.0017179502 -0.001222261 0.006140757 -0.00063436676 0.0006791754 0.0031667592
-0.0005382826 0.005265844 -0.00051755534 0.0026922817 -0.0022519727 0.0053561097 0.0027747047 0.0079855295
0.00088804093 -0.00047763155 -0.0015182236 0.004054657 0.0011320993 0.0008091867 -0.0020828946 -0.0025890495
-0.0014285726 -4.340889e-05 0.0016510304 0.00013629202 0.00017707227 0.0009188242 0.0015229543 -0.0014235982
00000000: 9fe2 8b3a bac5 c9bb 420f 70ba 543d 5d3b
00000010: 4e65 3ebb ba92 35ba ec94 9b3b 1b50 003a
00000020: 4ece 2b3a cb87 5aba b351 4dba 3bcf 853a
00000030: 48d4 2c39 0689 feba 4a38 713b cdf1 263b
00000040: c7ea d9ba 1bbe 49ba c52b ef3a 0fe0 4fbb
00000050: 49f5 7139 1a00 49bb a177 bcba 9514 35bb
00000060: 2c6f 8e3b 1a74 0a3b fce0 e1ba 842f f7b9
00000070: 1f44 b63b dff1 4e3b d3f4 383b a8fa a9ba
00000080: 9903 27b8 21fa 6cbb 7554 a13b 6657 5eba
00000090: 8535 123a 5c71 88b8 c5fd 343b fc56 ccba
000000a0: 80c7 87ba fb4f fb3a 91ce 99b9 6e6e b1bb
000000b0: a88b 72ba 8831 1c3a 03f0 a3ba e678 85b8
000000c0: 4f70 89ba d3a7 103b 8ce0 3a3b 058a b1b9
000000d0: 0bbe b1ba 34db 8a3a 8e2d 2eba 3adf 06bb
000000e0: 3627 b53a 26bd 59ba 4348 d239 d4a7 d4ba
000000f0: fd99 eaba db02 013c d348 903b e077 f1ba
00000100: c38e 0aba c967 35ba 10c9 803b ffb7 7db9
00000110: d5f0 8639 aacd 5c3b a49d e0ba f09f 293c
00000120: e38a a3ba a4c1 423b 630d 29bb c048 31b9
00000130: 2ddb 3cba ec44 c9ba ae9f 0a3b d363 e7ba
00000140: f878 983a e03d b63b 94cc 47ba ba31 603b
00000150: c49b 5a3b 9e14 46ba 85d8 b8ba f474 333a
00000160: dff1 94ba 13de abba 668d d43b bad5 903b
00000170: 8aa3 ce3b cd58 c5ba 2850 10bb 1be5 c139
00000180: a23c e0ba d4b9 e6ba 3d9b 0937 f17c 3f3a
00000190: 914c ecba a8ab 2b3b 6db6 b8ba 6575 093c
000001a0: 0bc8 dd39 1c3a a9ba 326f b63a 9e4f 39bb
000001b0: e8c1 5aba 6222 b33b f41a 8eba 59b2 a2ba
000001c0: 96da 4fbb 8894 823b 85cb 68ba 7f10 af3a
000001d0: 57de 6c3b 3010 0eba cca2 4aba d236 c3bb
000001e0: 735c 953a 2c7a 64ba ea14 d2ba 0d93 c73a
000001f0: bd9b e03a 34dd cf3b 6e33 cd3b c79d ba3b
00000200: 45bb 86b9 7553 07bb b153 e53b 3326 a6ba
00000210: 0be9 eeb9 3f0d 8dba 75cd e0ba 3efd 723a
00000220: 895e c3ba fedb b5ba 126b ebba 5de2 fe3a
00000230: c198 56ba a1e8 753a 9cde 413b dec5 0eb8
00000240: 6b9e 0d3b 1113 563b 8c97 57bb 7187 48bb
00000250: 23d4 dfba 9091 1e3b 34a7 35ba ba53 9b39
00000260: 32a3 30ba 38f5 0dbb 87be 6eba f3ec ddba
00000270: 285b 07bb 3cf4 7ebb 60bc d23b 4e6e 893b
00000280: 02a5 9bba 669d 21bb 7f2e 12ba 53b4 baba
00000290: e25a e8ba b12b 07bb 1db6 663b 9a9c 423b
000002a0: c40b ffba 1202 18bb d36b 543b 908b e2ba
000002b0: a2ec 0cbb 169d 0b3b cd9c fdba ec8c 843b
000002c0: e8da b93a 111a 813b 52c8 733b 086a dcbb
000002d0: ea07 aeba 0464 d03b 4f19 2239 af5b d8ba
000002e0: a871 acba 0611 f03a 0919 27bb cb84 60ba
000002f0: 6200 7e3b ebaa babb 6b08 f9ba 906d feba
00000300: 8abf c03a 2ca9 cfba 165d 00bb 9d3f 0b3b
00000310: e93e a8ba f256 853a 6924 e63b 3d2c cf3a
00000320: 2f1f 533c 8ef6 8bbb c7fe 76bb bd65 1c3b
00000330: 4fa1 bf3b abad c4ba e83f 7c3b 1d84 eaba
00000340: 55a0 9fba 2f80 89ba 7447 33bb 0433 60ba
00000350: e76d 1539 b2dd 07bb d3c5 17bb da67 5a3a
00000360: 0a23 913a 78e6 2bbb 16f6 a339 397b c73a
00000370: 4c32 32bb 8e16 51ba ba8e 9a3b d739 2e3b
00000380: d2df e3ba 813a 5dba d82c e1ba 4634 a0ba
00000390: 6738 c93b a24b 26ba b10a 323a 6789 4f3b
000003a0: 891b 0dba 1a8d ac3b 8dac 07ba fe70 303b
000003b0: d595 13bb 4e82 af3b d2d7 353b bdd5 023c
000003c0: 6bcb 683a 9f6a fab9 21ff c6ba eedc 843b
000003d0: f362 943a 9a1f 543a 2c81 08bb 0bad 29bb
000003e0: f13e bbba f111 36b8 6367 d83a 9ce9 0e39
000003f0: 7aac 3939 40dd 703a de9d c73a 0798 baba

action_model._continuous_distribution.mu.weight f4 [2, 256]
0.004393327 0.008599248 -0.016475359 -0.011116822 -0.013707287 -0.010674325 -0.010030258 -0.010599282
0.005252845 0.020925624 0.0048150527 -0.009728902 0.032533288 -0.0035992526 0.0016110174 -0.008664893
-0.010815152 -0.01226596 -0.002553749 0.0017960492 0.009849035 -0.026538385 -0.010721019 0.012873454
-0.01856984 -0.012719273 -0.011555136 -0.0032159877 -0.00062314176 -0.0038802295 0.0035078644 0.002132066
-0.008203353 -0.0102423895 0.00605762 0.0065863854 0.011139374 0.0055035055 -0.013143513 -0.0029071725
-0.011677959 -0.013077702 0.0017182349 -0.012259106 -0.01905746 0.006569621 0.0085035665 -0.0018543102
0.019478856 0.0018275039 -0.0014327891 0.0092847645 -0.003516292 -0.018501638 -0.011165069 0.003295053
0.0091966875 -0.00256941 -0.0045132996 -0.0042914823 -0.018505024 0.024904942 0.016703323 -0.0040235557
-0.022615878 0.0005603634 -0.0221018 -0.005023776 0.010974715 0.0035765893 0.015083692 0.01917817
-0.009425839 0.006321406 -0.011873528 0.0049522105 -0.014834681 0.011124058 0.014441066 0.009864817
-0.017486513 -0.0072080037 0.006034551 -0.0030516263 0.005397644 -0.008310097 0.0045440043 0.012544444
0.0072356686 -0.013194583 0.010095284 0.028491272 0.011936002 -0.009762349 -0.008078927 -0.012596148
-0.021029104 -0.022830246 0.008987311 0.0003309313 0.0046407166 -0.013946384 -0.020190105 -0.02104612
0.0032716133 0.01972192 -0.003498092 0.023749916 -0.023274094 -0.013590054 0.015909646 0.021576306
-0.022083446 -0.009988058 0.00436213 0.015925143 -0.010521863 0.0056475145 8.736043e-06 0.00906853
0.0076289494 0.009282403 0.0013992515 -0.00089342135 -0.0072044632 -0.010925161 0.0005074456 0.013544418
0.0017952739 -0.0035682118 0.0048727673 0.0029927138 -0.005147319 0.021287885 0.00481434 0.013323019
-0.011178586 -0.014060791 0.005987255 -0.0024577542 0.010327595 0.007410473 -0.011151936 -0.014156435
0.012732277 0.0041292347 -0.009172377 0.004330394 0.0017953241 -0.0021350507 -0.0038006662 -0.0032574253
0.0009955679 0.0068787723 0.00285511 0.003836334 -0.004726122 -0.010956276 0.0070033115 0.015537525
0.0027220217 -0.018099269 0.0006095524 0.01200031 -0.008574203 0.01427161 -0.0039006593 -0.011996562
0.009106114 0.0049506566 0.01926151 0.0034197795 -0.01101709 -0.015138769 0.00064694445 0.0010501946
0.01066218 -0.012281257 -0.009999778 -0.005150648 0.0061544995 0.008809901 0.016545126 0.0009573458
0.008085939 -0.005713952 -0.004790132 6.7083696e-05 0.018431524 0.0019328083 -0.005920378 -0.003027676
-0.00013235694 0.001740751 0.020097196 0.01300584 0.012258749 -0.026983894 -0.009647147 0.0015984862
-0.012495269 -0.0005412979 0.0021407534 0.0036517158 0.019759862 -0.0014695163 -0.005067534 0.003709657
0.008216785 0.0011055358 0.016989417 0.015058113 -0.012132784 0.0011006872 -0.022202434 -0.011172115
0.0042098006 -0.009051001 0.015586842 -0.019069685 0.016024744 -0.011139509 0.013306939 -0.0009587527
0.015148662 -0.0014987867 0.007182783 0.00021111366 -0.0043933685 -0.017569147 0.0015019778 0.010524847
0.010457244 0.006279965 0.017413493 0.008800216 -0.0026156772 -0.0016266631 -0.0052529173 0.0067369384
-0.0038960204 -0.030845292 0.0051154243 0.012295571 0.005151327 -0.0029208995 -0.01230488 0.0012550234
0.0030052413 0.027841745 -0.013342194 -0.0040038927 0.006653264 0.007663454 0.0030314238 -0.0025063166
00000000: e6f5 8f3b dce3 0c3c 55f7 86bc 5523 36bc
00000010: 8794 60bc 5de3 2ebc f455 24bc 9ca8 2dbc
00000020: 0f20 ac3b 376c ab3c 97c7 9d3b f965 1fbc
00000030: a041 053d 70e1 6bbb c628 d33a 32f7 0dbc
00000040: 0932 31bc 2af7 48bc cc5c 27bb 6969 eb3a
00000050: d95d 213c 0767 d9bc 36a7 2fbc 2eeb 523c
00000060: c71f 98bc 7f64 50bc c151 3dbc 52c3 52bb
00000070: 565a 23ba 734b 7ebb 33e4 653b 22ba 0b3b
00000080: 5b67 06bc b2cf 27bc 007f c63b 9bd2 d73b
00000090: ec81 363c c056 b43b e457 57bc 4386 3ebb
000000a0: e954 3fbc dc43 56bc 6536 e13a 6bda 48bc
000000b0: 641e 9cbc fa45 d73b 8b52 0b3c 530c f3ba
000000c0: 1f92 9f3c db88 ef3a 6dcc bbba 201f 183c
000000d0: 9771 66bb bf90 97bc b2ed 36bc d1f1 573b
000000e0: b4ad 163c 8c63 28bb 4de4 93bb 909f 8cbb
000000f0: d997 97bc 7305 cc3c 68d5 883c 08d8 83bb
00000100: ef44 b9bc 5ae5 123a d60e b5bc 7d9e a4bb
00000110: 4bcf 333c 3665 6a3b 9721 773c 8a1b 9d3c
00000120: d66e 1abc cc23 cf3b 3089 42bc 2746 a23b
00000130: 290d 73bc ae41 363c 399a 6c3c 0ba0 213c
00000140: e03f 8fbc 1e31 ecbb 7cbd c53b cbfd 47bb
00000150: b8de b03b 1327 08bc dfe5 943b 3687 4d3c
00000160: 3019 ed3b 182e 58bc b166 253c 8766 e93c
00000170: 398f 433c 42f2 1fbc 7a5d 04bc 1360 4ebc
00000180: 3a45 acbc 7f06 bbbc 843f 133c d980 ad39
00000190: 2711 983b 607f 64bc b865 a5bc ea68 acbc
000001a0: 9068 563b dd8f a13c 3f40 65bb 2f8f c23c
000001b0: 50a9 bebc d1a8 5ebc f254 823c cbc0 b03c
000001c0: 58e8 b4bc f4a4 23bc 33f0 8e3b 7275 823c
000001d0: e463 2cbc c90e b93b 0591 1237 2c94 143c
000001e0: 44fc f93b 3815 183c 1767 b73a 7e34 6aba
000001f0: 6b13 ecbb 72ff 32bc 1906 053a 68e9 5d3c
00000200: 654f eb3a a9d8 69bb bcab 9f3b 6821 443b
00000210: d7aa a8bb ee63 ae3c 9cc1 9d3b cb48 5a3c
00000220: 6326 37bc 3b5f 66bc bc30 c43b 4612 21bb
00000230: 1335 293c 8ed3 f23b 9cb6 36bc 64f0 67bc
00000240: 0a9b 503c 884e 873b bd47 16bc fae5 8d3b
00000250: 1551 eb3a 35ec 0bbb 9914 79bb 877a 55bb
00000260: b77d 823a 5367 e13b cc1c 3b3b 016b 7b3b
00000270: 96dd 9abb f481 33bc 097c e53b 1a91 7e3c
00000280: f263 323b eb44 94bc 5eca 1f3a f39c 443c
00000290: d07a 0cbc 79d3 693c 34a2 7fbb 3a8d 44bc
000002a0: cf31 153c 1e39 a23b 50ca 9d3c 611e 603b
000002b0: 0681 34bc 9908 78bc b597 293a afa6 893a
000002c0: 6db0 2e3c 5337 49bc 1cd6 23bc c4c6 a8bb
000002d0: afab c93b 6757 103c a589 873c 64f6 7a3a
000002e0: e37a 043c 1a3c bbbb 8af6 9cbb 49af 8c38
000002f0: b5fd 963c 4956 fd3a bbff c1bb f96b 46bb
00000300: 4cc9 0ab9 e929 e43a e0a2 a43c 7216 553c
00000310: ecd8 483c 540d ddbc 110f 1ebc 4c84 d13a
00000320: f5b8 4cbc e3e5 0dba e24b 0c3b a051 6f3b
00000330: 6fdf a13c c99c c0ba 8e0d a6bb b71d 733b
00000340: b29f 063c a0e7 903a 642d 8b3c 4eb6 763c
00000350: 96c8 46bc ef44 903a e1e1 b5bc 3f0b 37bc
00000360: 5ef2 893b a64a 14bc f45f 7f3c 0738 9cbc
00000370: 5346 833c 7d82 36bc 5905 5a3c ce54 7bba
00000380: 1832 783c f072 c4ba 8d5d eb3b 645e 5d39
00000390: 3ff6 8fbb 2ced 8fbc 03de c43a 6870 2c3c
000003a0: dc54 2b3c 2ac8 cd3b bea6 8e3c c82e 103c
000003b0: c86b 2bbb c235 d5ba aa20 acbb 89c1 dc3b
000003c0: 6054 7fbb 44af fcbc 4a9f a73b 5d73 493c
000003d0: 76cc a83b 906c 3fbb 689a 49bc 997f a43a
000003e0: 95f3 443b 5f14 e43c 3899 5abc 1633 83bb
000003f0: a003 da3b b61d fb3b daaa 463b 0441 24bb

action_model._continuous_distribution.mu.bias f4 [2]
-0.0005462338 -0.001582976
00000000: 2131 0fba dc7b cfba

action_model._continuous_distribution.log_sigma.weight f4 [2, 256]
-0.0030800058 -0.01949218 0.00094896095 0.025884755 0.017816946 -0.010187669 0.0046480717 0.002501423
0.014277211 -0.004783893 0.009139499 0.022156585 0.003566324 0.023821741 -0.005802472 0.0022733973
-0.016776998 -0.012398151 0.0069628637 0.026761692 0.02050075 -0.007911188 -0.004551642 -0.0032554779
0.0015058306 -0.019316882 0.017065777 0.0133359665 -0.01671309 8.868974e-05 -0.0022362878 -0.0011738942
0.0067910138 -0.007344274 -0.013786456 0.016852485 0.01806809 0.019937728 -0.004751533 -0.0042657773
-0.017449299 -0.00010828278 0.0019403787 0.020836867 -0.023225918 0.0014209202 -0.011088357 -0.0036639466
-0.0024797271 0.009664249 0.009190268 -0.012869109 -0.016089275 -0.011160529 -0.008567501 0.018518467
-0.011956343 -0.012546844 0.020786727 0.005039634 -0.009464933 -0.0017177404 -0.005684431 -0.009880498
0.004761352 -0.0010677811 -0.0034402667 -0.015931295 -0.012713774 -0.006422969 -0.00484985 0.009154902
0.0027662686 -0.0049513327 -0.0024670563 0.008052563 -0.013645817 0.030584078 0.013365719 0.011336793
0.01808253 -0.0007599111 -0.018275602 0.014766619 0.014018314 -0.013647189 0.02379063 -0.004694019
-0.012972462 0.0049715606 -0.022317195 0.021175262 0.0063161454 0.023184292 0.0028103006 0.0027361538
-0.00016339902 -0.00024237798 -0.019020418 0.0043263417 -0.0018798617 0.008704147 0.00049242575 0.023917424
0.011290707 -0.007308471 0.011604392 0.0090016825 -0.014266277 0.0014841498 -0.00501167 -0.007796405
0.004207097 -0.0034467762 0.00521931 -0.004559261 -0.015862556 -0.02392844 0.016255302 -0.005012203
-0.006095989 -0.03251718 -0.0040473286 -0.0041799503 0.004331388 0.012236709 -0.0024640379 0.00034891602
0.008730284 0.003369014 -0.009349944 0.0005226801 -0.00783209 0.005741895 -0.0019247722 -0.01215019
-0.021395236 0.0068200165 -0.004706598 0.0017872051 -0.0038120328 0.01788699 0.010258388 0.0058561205
-0.003310832 0.004025562 -0.014745525 -0.019170363 -0.00022267201 0.006783802 -0.014141961 0.0020147793
-0.009416805 0.007707619 -0.009436964 0.008257658 0.005850667 -0.00019217451 0.0051436136 -0.01669849
-0.027589258 0.0012303451 0.009104818 0.0018385332 0.007615012 -0.0092114415 0.00041397725 0.010857596
0.00815676 0.0034578757 -0.011504372 -0.007903149 -0.010741935 0.014694543 0.01078635 -0.023618365
0.0064505874 0.005131407 0.013639303 -0.007893293 0.00975617 -0.007925604 0.0049108886 0.0077113835
-0.01723493 -0.012208953 -0.00092295895 0.021377685 0.0071536484 0.0022156632 0.005313388 -0.023154283
0.015864054 0.0014678864 0.014492139 0.0014775082 0.0027738526 -0.028910106 0.0003044926 0.006406163
0.0041521126 0.008634142 -0.008162619 -0.012773305 -0.005258175 -0.0093323365 0.01135 -0.014149225
-0.002518881 -0.002334429 0.011996588 -0.004592568 0.008377167 -0.007022994 0.020368572 -0.007015623
0.003303048 6.310062e-05 -0.0170456 -0.0040650456 7.278e-05 0.0017942956 -0.01958362 0.01904519
0.003538522 -0.00028959336 -0.003975052 -0.022938944 -0.008167207 -0.013036779 -0.0030663623 -0.0052689887
0.0035724454 0.006367471 -0.011861233 0.0046262834 -0.009467586 0.00410423 -0.00420371 -0.0038229492
-0.000274712 0.0024255041 -0.00445138 -0.014515992 0.0055068047 0.011872425 0.019491835 -0.0042446926
0.028496664 0.01476562 -0.00072858477 0.031453267 -0.026370503 -0.0093128625 0.017893774 -0.018532937
00000000: ecd9 49bb 10ae 9fbc b1c3 783a 440c d43c
00000010: d8f4 913c 2eea 26bc da4e 983b eaee 233b
00000020: f7ea 693c 34c2 9cbb d6bd 153c ba81 b53c
00000030: fdb8 693b d025 c33c aa22 bebb 47fd 143b
00000040: ea6f 89bc 9d21 4bbc bc28 e43b 563b db3c
00000050: 30f1 a73c ed9d 01bc f125 95bb db59 55bb
00000060: 4a5f c53a 703e 9ebc 87cd 8b3c 197f 5a3c
00000070: e4e9 88bc f1fe b938 af8e 12bb 5add 99ba
00000080: 2787 de3b 3ca8 f0bb 96e0 61bc 390e 8a3c
00000090: 8803 943c 7254 a33c bfb2 9bbb efc7 8bbb
000000a0: d5f1 8ebc e015 e3b8 4e54 fe3a 14b2 aa3c
000000b0: 4844 bebc 2c3e ba3a f1ab 35bc d31e 70bb
000000c0: eb82 22bb cc56 1e3c c792 163c f5d8 52bc
000000d0: a8cd 83bc a7da 36bc b45e 0cbc 0ab4 973c
000000e0: 8ae4 43bc 4791 4dbc ed48 aa3c 8423 a53b
000000f0: ce12 1bbc ce25 e1ba 7744 babb d0e1 21bc
00000100: 1e05 9c3b caf4 8bba 1976 61bb 5982 82bc
00000110: 6f4d 50bc c577 d2bb 7eeb 9ebb 71fe 153c
00000120: 494a 353b ca3e a2bb 56ae 21bb e6ee 033c
00000130: b492 5fbc 768b fa3c e3fb 5a3c f5bd 393c
00000140: d021 943c c534 47ba b7b6 95bc b0ef 713c
00000150: 12ad 653c 7698 5fbc 91e4 c23c 49d0 99bb
00000160: 738a 54bc 79e8 a23b 8dd2 b6bc be77 ad3c
00000170: abf7 ce3b fcec bd3c 052d 383b 0b51 333b
00000180: 1756 2bb9 d826 7eb9 b5d0 9bbc fcc3 8d3b
00000190: b165 f6ba d79b 0e3c 2216 013a 79ee c33c
000001a0: a8fc 383c e67b efbb 5920 3e3c cb7b 133c
000001b0: 1abd 69bc ce87 c23a ef38 a4bb fc78 ffbb
000001c0: b0db 893b 4fe3 61bb bf06 ab3b da65 95bb
000001d0: 31f2 81bc 9305 c4bc d729 853c 683d a4bb
000001e0: ddc0 c7bb bc30 05bd 749f 84bb f7f7 88bb
000001f0: 51ee 8d3b 7a7c 483c b27b 21bb b7ee b639
00000200: 7709 0f3c adca 5c3b 8230 19bc 7804 093a
00000210: 2b52 00bc 8226 bc3b a348 fcba 9711 47bc
00000220: 1045 afbc 727a df3b ce39 9abb a740 ea3a
00000230: 4cd3 79bb bd87 923c cc12 283c b3e4 bf3b
00000240: 8bfa 58bb dde8 833b 3797 71bc 2a0b 9dbc
00000250: 107d 69b9 a84a de3b afb3 67bc 630a 043b
00000260: f148 1abc 3290 fc3b 7f9d 1abc 214b 073c
00000270: f4b6 bf3b 7482 49b9 c28b a83b 46cb 88bc
00000280: de02 e2bc 8843 a13a 602c 153c f0fa f03a
00000290: 5a87 f93b 96eb 16bc 160b d939 0fe4 313c
000002a0: eea3 053c 879d 623b d57c 3cbc 367c 01bc
000002b0: f1fe 2fbc 61c1 703c 3bb9 303c 4d7b c1bc
000002c0: 735f d33b 5d25 a83b 6277 5f3c df52 01bc
000002d0: 58d8 1f3c 64da 01bc 85eb a03b c6af fc3b
000002e0: 4530 8dbc 0f08 48bc baf2 71ba 4120 af3c
000002f0: 2769 ea3b a934 113b ee1b ae3b 0dae bdbc
00000300: 55f5 813c 1866 c03a 7070 6d3c f3a8 c13a
00000310: 86c9 353b e3d4 ecbc 4ea4 9f39 caea d13b
00000320: 720e 883b 3776 0d3c 81bc 05bc 2047 51bc
00000330: c54c acbb a8e6 18bc 5af5 393c 27d2 67bc
00000340: d013 25bb 38fd 18bb 568d 443c 417d 96bb
00000350: 6340 093c 2521 e6bb fedb a63c 50e3 e5bb
00000360: f377 583b e354 8438 37a3 8bbc 1334 85bb
00000370: 77a1 9838 922e eb3a d46d a0bc a904 9c3c
00000380: 8ce6 673b 90d4 97b9 2741 82bb 74ea bbbc
00000390: c0cf 05bc 3798 55bc 06f5 48bb 7ba7 acbb
000003a0: b01f 6a3b 38a6 d03b 9e55 42bc 1498 973b
000003b0: ef1d 1bbc c77c 863b 46bf 89bb 728a 7abb
000003c0: 3807 90b9 35f5 1e3b e2dc 91bb 7cd4 6dbc
000003d0: 6d72 b43b 8f84 423c 57ad 9f3c 1017 8bbb
000003e0: d671 e93c 80eb 713c 7ffe 3eba 24d5 003d
000003f0: f406 d8bc fa94 18bc f795 923c 63d2 97bc

action_model._continuous_distribution.log_sigma.bias f4 [2]
-0.0011181544 -0.00031912644
00000000: 098f 92ba 6d50 a7b9

action_model._discrete_distribution.branches.0.weight f4 [2, 256]
-0.009534054 -0.004519736 0.0013704086 -0.003208851 0.0015868437 -0.004147047 -0.0026486649 0.0014711558
-0.013249797 -0.007009691 -0.011477811 0.009555461 0.00091084535 0.0020235043 -0.0058361418 0.00837526
0.0040625785 -0.004526318 -0.010718601 -0.004107066 -0.002383764 -0.004263848 -0.0028774752 0.0074198022
0.012019046 0.007967529 -0.005987975 -0.006904721 -0.016401518 0.010314726 0.002297354 0.0035858683
-0.0035922271 -0.0077615185 -0.012819793 -0.0023273944 -0.00015973841 0.0020779043 0.0071034674 0.0032805684
-0.009456965 0.01601628 0.009907095 -0.0023810195 -0.003290992 -0.010015843 -0.00855153 -0.0022551706
-0.0007050997 -0.013904149 0.015519379 0.00797381 -0.01234256 0.0009160564 0.0034602864 0.00023653207
-0.0012200841 0.000804087 0.0038618045 0.0047946973 -0.0018332007 -0.017940871 -0.018691992 0.010294553
0.00061154144 -0.00027676657 0.0019534386 0.0022854186 0.0045766835 0.008371076 0.006762259 -0.022608494
0.0069141802 -0.0010956486 -0.00082572387 -0.0053946497 -0.006041595 -0.00704371 -0.0070480094 0.00021593875
0.011145696 -0.019362904 -0.0027815234 0.0063418755 0.009212572 0.0023644655 0.0023323428 0.0061201034
-0.007517641 0.0029634396 0.0031686726 0.008376541 0.0033706487 -0.0022415796 -0.004689239 -0.0025685101
-0.004741061 -0.00792025 -0.0076228483 0.0039668125 0.0011004678 0.0013926429 -0.009572938 0.0067428914
-0.0059505985 -0.0013050082 -0.002839 0.005614803 -0.0066607604 -0.007717495 0.0015279324 -0.0067210584
0.0005622932 0.013948095 -0.0077122245 -0.008055305 0.0007568684 -0.001354932 -0.009578869 0.00986949
0.0033408138 -0.0033841233 -0.0070792083 -0.00082890113 0.0029491093 -0.012319427 -0.011219011 -0.017806962
0.0028480764 -0.007290433 -0.008590853 -0.011842368 -0.0021338305 5.3964028e-05 0.0010694587 0.0055328673
-0.008411679 -0.006255615 -0.00010289299 0.00180771 0.009630262 -0.006493356 0.002374799 0.008699112
-0.006888367 0.011019949 -0.0078054527 0.002280461 0.0010063808 0.0013591277 -0.0019924091 0.0124189425
-0.0065116454 -0.0033412217 0.00013937103 0.0074341306 -0.010704671 -0.00017948593 0.019188426 -0.01052651
-0.001168179 -0.005955629 -0.004724802 0.0054010935 0.00046515526 -0.00837901 -0.012357034 0.010500823
-0.0038853183 -0.001817797 -3.839084e-06 -0.0041362215 -0.00015706045 -0.0070309644 0.0078078476 0.011594013
-0.018912258 -0.007698074 -0.01017044 0.0029126145 -0.010226259 -0.009861637 -0.007924131 -0.0085608205
-0.005719618 0.0053672404 -0.013477375 -0.0069448547 0.010246465 -0.004753035 0.00065263896 -0.009777984
-0.0025528548 0.0065623363 -0.006235065 -0.005863959 0.005166414 -0.0019340863 -0.00720151 -0.007150351
0.006009872 -0.0035494673 -0.0029389486 0.010120188 -8.47237e-05 -0.0039958176 0.0021793186 -0.0054108663
-0.00060104264 -0.00302121 -0.004720865 -0.0015552815 -0.0016245703 -0.001994516 0.0025115248 0.010365462
0.012112855 -0.0025038763 0.0050967177 0.0013215472 -6.2965984e-05 -0.0061031803 0.0062995763 -0.007465589
-0.0029632712 0.007957973 0.0059488704 -0.00793109 -0.011265734 -0.006854143 0.0044884807 -0.006604393
-0.0069183074 0.0118288575 -0.0031117687 -0.001738055 0.007825327 0.0026471242 0.009631806 -0.012394588
-0.015800644 0.0024716011 0.0029726117 0.010792718 0.003301053 -0.015991673 0.00060046307 0.0010604637
0.004053828 0.0062470348 -0.0011544863 0.006688778 -0.018805243 0.0020342018 0.0048962506 0.005596209
00000000: b934 1cbc 4b1a 94bb 489f b33a 964b 52bb
00000010: a4fd cf3a f4e3 87bb 3995 2dbb ccd3 c03a
00000020: ad15 59bc 8db1 e5bb 6e0d 3cbc 828e 1c3c
00000030: ccc5 6e3a c59c 043b 1b3d bfbb 6338 093c
00000040: 611f 853b 8251 94bb 129d 2fbc 9194 86bb
00000050: ec38 1cbb c0b7 8bbb 0694 3cbb d021 f33b
00000060: 88eb 443c 3d8a 023c c636 c4bb ff40 e2bb
00000070: 7a5c 86bc 19ff 283c 348f 163b e300 6b3b
00000080: 926b 6bbb 5654 febb 1c0a 52bc 3387 18bb
00000090: 747f 27b9 732d 083b 34c4 e83b cefe 563b
000000a0: 63f1 1abc 9334 833c 5e51 223c e10a 1cbb
000000b0: afad 57bb 7e19 24bc b71b 0cbc 7ccb 13bb
000000c0: 71d6 38ba 3ace 63bc fe44 7e3c 95a4 023c
000000d0: 7338 4abc 8123 703a f9c5 623b 9805 7839
000000e0: 3beb 9fba 5dc9 523a 5416 7d3b d61c 9d3b
000000f0: 0248 f0ba bcf8 92bc f31f 99bc 7caa 283c
00000100: da4f 203a fb1a 91b9 4305 003b f6c6 153b
00000110: 01f8 953b d626 093c f195 dd3b 7335 b9bc
00000120: 5990 e23b de9b 8fba 6475 58ba 9ac5 b0bb
00000130: 92f8 c5bb ecce e6bb fdf2 e6bb 9e6d 6239
00000140: 709c 363c f49e 9ebc 384a 36bb 82cf cf3b
00000150: 54f0 163c 26f5 1a3b 38da 183b 268b c83b
00000160: 8b56 f6bb 4436 423b 81a9 4f3b c23d 093c
00000170: 1ae6 5c3b 77e7 12bb 30a8 99bb 7354 28bb
00000180: e75a 9bbb f0c3 01bc 16c9 f9bb 09fc 813b
00000190: 923d 903a 5789 b63a d0d7 1cbc 79f3 dc3b
000001a0: 3dfd c2bb cf0c abba 840e 3abb 62fc b73b
000001b0: 8242 dabb 0ae3 fcbb e744 c83a 533c dcbb
000001c0: dc66 133a 8d86 643c d4b6 fcbb 66fa 03bc
000001d0: 9468 463a f997 b1ba b0f0 1cbc a4b3 213c
000001e0: 8ef1 5a3b 2bc8 5dbb b4f8 e7bb 9d4a 59ba
000001f0: d845 413b 6cd7 49bc f1cf 37bc e8df 91bc
00000200: cba6 3a3b 96e4 eebb a6c0 0cbc 7e06 42bc
00000210: bcd7 0bbb 6f57 6238 142d 8c3a 0e4d b53b
00000220: 24d1 09bc e7fb ccbb 41c8 d7b8 aff0 ec3a
00000230: 3fc8 1d3c 38c6 d4bb 84a2 1b3b b886 0e3c
00000240: cfb7 e1bb 048d 343c e2c4 ffbb c973 153b
00000250: 89e8 833a c224 b23a 1493 02bb d278 4b3c
00000260: a45f d5bb 66f8 5abb 2024 1239 029a f33b
00000270: a562 2fbc 6334 3cb9 0c31 9d3c 6277 2cbc
00000280: 951d 99ba 7027 c3bb 83d2 9abb a8fb b03b
00000290: 15e0 f339 1d48 09bc 2875 4abc a50b 2c3c
000002a0: d3a0 7ebb 2543 eeba 7bd1 80b6 2489 87bb
000002b0: 98b0 24b9 0164 e6bb f9d8 ff3b d1f4 3d3c
000002c0: e1ed 9abc 2040 fcbb eba1 26bc 90e1 3e3b
000002d0: 0a8c 27bc b492 21bc 37d4 01bc af42 0cbc
000002e0: a26b bbbb addf af3b 35d0 5cbc aa91 e3bb
000002f0: cae0 273c 59bf 9bbb dc15 2b3a d633 20bc
00000300: cc4d 27bb de08 d73b 844f ccbb 7426 c0bb
00000310: 064b a93b 2b81 fdba a5fa ebbb 7e4d eabb
00000320: 76ee c43b 2e9e 68bb 609b 40bb 25cf 253c
00000330: b1ad b1b8 59ef 82bb e6d2 0e3b a34d b1bb
00000340: 4a8f 1dba 7eff 45bb 7cb1 9abb 96da cbba
00000350: 89ef d4ba 6db6 02bb 6598 243b e6d3 293c
00000360: ff74 463c 1318 24bb 5e02 a73b c437 ad3a
00000370: 9b0c 84b8 30fd c7bb ad6c ce3b e6a1 f4bb
00000380: 7133 42bb 2862 023c beee c23b 67f1 01bc
00000390: ea93 38bc b898 e0bb 1b14 933b aa69 d8bb
000003a0: f8b2 e2bb d3cd 413c d1ee 4bbb 73cf e3ba
000003b0: cd35 003c 607b 2d3b b9ce 1d3c ac12 4bbc
000003c0: 5a70 81bc 96fa 213b 26d0 423b f1d3 303c
000003d0: 7b56 583b f800 83bc 6568 1d3a 42ff 8a3a
000003e0: f9d5 843b edb3 cc3b 2252 97ba 892d db3b
000003f0: 740d 9abc 3e50 053b ba70 a03b 6760 b73b

action_model._discrete_distribution.branches.0.bias f4 [2]
0.0009914906 -0.0009914906
00000000: e7f4 813a e7f4 81ba
