results/Charge3/Charge/Charge-123436.onnx (onnx, 289373 bytes, 10 tensors)

network_body._body_endoder.seq_layers.0.weight f4 [256, 12]
-0.6292322 -0.24262363 0.5506796 0.21765079 -0.0005304212 -0.15517274 -0.38402966 0.06048235
-0.55977786 -0.124051936 0.061144 -0.15601358 -0.41858706 -0.08707047 -0.51399845 -0.17095724
0.058382068 -0.037924152 0.19129755 -0.2042443 0.11148753 -0.04282379 0.7366952 0.41465488
-0.41955754 -0.050076365 -0.045680024 -0.16987002 -0.10312179 0.23629937 -0.14945893 0.047550797
0.14010285 0.38999158 -0.31522924 0.31031427 0.02419502 0.0024841423 0.020437963 -0.35750994
-0.3147625 0.20571631 -0.45419925 -0.052127354 0.18433255 -0.5294227 0.21111645 0.584007
-0.39316177 -0.20094149 -0.3382682 0.23121075 0.24876602 -0.34564152 0.48858377 0.051169503
0.13124844 0.11839624 -0.58958644 -0.41568837 -0.14560317 0.115338475 0.34957868 -0.62854546
0.43674806 0.20909308 -0.23787701 0.062137075 0.23104273 -0.30021134 0.2554675 0.23405567
-0.10274761 0.085042074 -0.15179083 0.55915844 -0.38884446 -0.015569269 -0.24311063 -0.31666157
0.2661363 -0.12833324 0.60277563 -0.2801975 -0.058807567 -0.20321372 0.27486002 -0.2967649
0.19756404 -0.034067262 -0.114239626 0.10100663 -0.11019441 -0.5359824 0.21951398 0.48728645
-0.35319567 -0.28158683 0.023161264 0.39043766 -0.3414549 -0.12494366 0.17778681 0.06956998
0.048530165 -0.42033222 -0.16696951 -0.039384093 0.32281235 0.9693258 -0.30717134 0.082376845
0.20254767 -0.4670783 -0.30700877 0.27612987 0.5515224 0.2890882 -0.17811076 0.59236103
0.29373765 0.11701088 0.67386955 0.04943825 -0.31625235 -0.18038309 0.55196625 -0.41426262
-0.3013107 -0.15287332 0.29937446 0.05666662 0.05710439 0.51290154 -0.23385465 0.2750694
0.21997423 -0.2504125 -0.16228347 1.1404877 0.34690583 -0.5153531 0.43360555 0.18075256
0.082510985 0.29016444 0.09253909 0.2882156 -0.21303286 0.061410952 -0.20681697 0.38128686
-0.049800806 -0.2751166 0.036320884 -0.120566495 -0.44576046 -0.40702355 -0.16894974 -0.2660937
-0.045305356 -1.0649279 0.07168827 -0.24645175 -0.04419371 -0.32457808 -0.0780651 0.287971
-0.43407822 -0.45487273 0.21524023 0.10813813 -0.06672987 0.25168884 0.7865437 -0.020344736
0.41084805 -0.04001413 -0.14211188 -0.096095055 -0.3242832 -0.24784885 -0.30101988 0.3452857
-0.043243647 0.08244127 -0.16965435 0.24528997 -0.008021507 0.25642735 -0.20254779 -0.29079068
0.23080403 -0.43528354 0.78681314 -0.033328556 0.16157493 -0.006381153 -0.1879199 -0.20273256
-0.41033727 -0.09584016 -0.17072433 -0.08297957 0.25649709 0.22578675 -0.24952918 -0.60237604
-0.0116489995 -0.2017393 -0.31464776 -0.27399138 -0.3650702 0.037273865 -0.4557837 0.123096086
-0.1812503 0.091676906 0.24837956 0.0032959464 -0.25810677 -0.11973118 -0.24350761 0.11430981
-0.20382379 0.009000492 -0.48667702 0.38249436 -0.14575109 -0.039477002 -0.13102737 -0.30163065
0.41813704 -0.16650897 0.28617808 -0.15820739 0.16415425 0.16028257 0.62637717 0.48406398
-0.06432274 0.1563354 0.08715535 -0.104489386 -0.034271296 -0.05664992 0.32470253 -0.3474252
0.1123068 -0.09163302 -0.0018151922 -0.28335157 0.40338537 0.34508157 0.22423062 0.44173867
00000000: 5d15 21bf 5472 78be 57f9 0c3f d9df 5e3e
00000010: f70b 0bba 9ae5 1ebe 899f c4be 57bc 773d
00000020: 9a4d 0fbf f10e febd 2272 7a3d 06c2 1fbe
00000030: 0b51 d6be 0152 b2bd 6795 03bf 6a0f 2fbe
00000040: 0922 6f3d 5b56 1bbd 81e3 433e 6b25 51be
00000050: 9353 e43d 0068 2fbd 0e98 3c3f a54d d43e
00000060: 3fd0 d6be e01c 4dbd fa1a 3bbd 68f2 2dbe
00000070: 8431 d3bd 76f8 713e c30b 19be a0c4 423d
00000080: 1f77 0f3e faac c73e ba65 a1be 83e1 9e3e
00000090: a234 c63c fecc 223b 846d a73c 8b0b b7be
000000a0: 8d28 a1be 4ca7 523e ce8c e8be 7e83 55bd
000000b0: acc1 3c3e 3f88 07bf e92e 583e 7c81 153f
000000c0: 804c c9be 9bc3 4dbe 7d31 adbe 83c2 6c3e
000000d0: 85bc 7e3e edf7 b0be a727 fa3e 1d97 513d
000000e0: fe65 063e ba79 f23d 23ef 16bf 1bd5 d4be
000000f0: ff18 15be 9436 ec3d fafb b23e 5be8 20bf
00000100: 719d df3e 7f1c 563e 0896 73be 7283 7e3d
00000110: 7796 6c3e 4db5 99be a3cc 823e 4aac 6f3e
00000120: 576d d2bd 8a2a ae3d 0e6f 1bbe 0225 0f3f
00000130: 9f16 c7be 3f16 7fbc fef1 78be 7721 a2be
00000140: 0443 883e ca69 03be 814f 1a3f 0c76 8fbe
00000150: 34e0 70bd 4217 50be 74ba 8c3e 92f1 97be
00000160: 3a4e 4a3e 1d8a 0bbd 77f6 e9bd 90dc ce3d
00000170: 9bad e1bd 2436 09bf 46c8 603e 9c7d f93e
00000180: 10d6 b4be 262c 90be b1bc bd3c 72e7 c73e
00000190: 2dd3 aebe 76e2 ffbd bf0d 363e b57a 8e3d
000001a0: 91c7 463d c935 d7be 0efa 2abe 3751 21bd
000001b0: a947 a53e bc25 783f 9045 9dbe 31b5 a83d
000001c0: a868 4f3e e324 efbe 4130 9dbe e560 8d3e
000001d0: 9230 0d3f 5e03 943e ab62 36be f9a4 173f
000001e0: c864 963e 66a3 ef3d b782 2c3f c37f 4a3d
000001f0: d4eb a1be 58b6 38be a94d 0d3f 3b1a d4be
00000200: 6545 9abe d38a 1cbe 9c47 993e 421b 683d
00000210: 4be6 693d 844d 033f 9877 6fbe e5d5 8c3e
00000220: ed40 613e 1136 80be a32d 26be 80fb 913f
00000230: a49d b13e 2eee 03bf 8c01 de3e 3317 393e
00000240: 85fb a83d 6f90 943e 2285 bd3d ff90 933e
00000250: 4925 5abe 0d8a 7b3d d4c7 53be 0838 c33e
00000260: eefb 4bbd 15dc 8cbe 35c5 143d 91eb f6bd
00000270: b73a e4be 6465 d0be 2901 2dbe 6f3d 88be
00000280: 1c92 39bd 8f4f 88bf 4dd1 923d d95d 7cbe
00000290: 7704 35bd 192f a6be 98e0 9fbd ef70 933e
000002a0: 803f debe 14e5 e8be ef67 5c3e 8677 dd3d
000002b0: aca9 88bd 5cdd 803e ee5a 493f 01aa a6bc
000002c0: ad5a d23e dbe5 23bd c785 11be 7ccd c4bd
000002d0: 7308 a6be 17cc 7dbe 471f 9abe 4ac9 b03e
000002e0: 4020 31bd f8d6 a83d dfb9 2dbe 4b2d 7b3e
000002f0: a46c 03bc 724a 833e b068 4fbe 84e2 94be
00000300: e457 6c3e 7cdd debe 966c 493f 8683 08bd
00000310: e673 253e fe18 d1bb 136e 40be 2099 4fbe
00000320: ba17 d2be d947 c4bd 5cd2 2ebe 31f1 a9bd
00000330: 9653 833e a434 673e 9484 7fbe 5135 1abf
00000340: 72db 3ebc bf94 4ebe 8319 a1be 9948 8cbe
00000350: 7bea babe 7bac 183d 7b5c e9be cd19 fc3d
00000360: ae99 39be 1ac1 bb3d 3657 7e3e ce00 583b
00000370: 9226 84be 9f35 f5bd 0f5a 79be 431b ea3d
00000380: 2fb7 50be cd76 133c bb2d f9be 4dd6 c33e
00000390: c63f 15be a3b2 21bd 0a2c 06be 556f 9abe
000003a0: 0f16 d63e 5481 2abe ef85 923e 1e01 22be
000003b0: 0d18 283e 1d21 243e 415a 203f 3cd7 f73e
000003c0: a4bb 83bd 6316 203e 817e b23d 88fe d5bd
000003d0: 0f60 0cbd bf09 68bd 693f a63e b7e1 b1be
000003e0: 1c01 e63d 18aa bbbd beeb edba 7513 91be
000003f0: 8788 ce3e 88ae b03e b69c 653e 922b e23e

network_body._body_endoder.seq_layers.0.bias f4 [256]
-0.036792744 0.06661994 -0.038482543 0.088080876 -0.0019628971 0.017985092 0.06737959 0.00263239
-0.03097238 0.028715262 0.016020104 0.035153143 -0.02041712 -0.016401738 -0.01729182 -0.020681573
0.0022828537 -0.025760507 -0.023007644 0.078590386 -0.019326162 0.0055741533 0.007620261 -0.036126744
0.020438027 -0.0034640387 0.08652817 0.0053768875 -0.024546336 -0.014742146 -0.018204944 0.030342331
0.022947693 0.03947496 -0.0022990906 -0.024599139 0.033592757 0.03254483 -0.012915074 0.0014962956
-0.023471732 -0.027655248 0.029632604 -0.0061040097 0.053104725 0.09832363 -0.0042555896 0.016260995
0.005697751 0.030539202 0.021700306 0.015677646 -0.049931344 -0.0059504732 -0.040352333 0.0057399026
-0.014072785 0.015186353 -0.004001624 0.046066247 0.049213998 -0.033590596 0.015665064 0.028680822
0.0023469548 0.0126457615 0.02670273 -0.048052844 0.0060232077 -0.013373679 -0.07493636 -0.036515072
0.06053806 -0.018704139 -0.036032744 0.001091809 -0.011115622 -0.032232072 0.027833208 -0.0009159689
-0.041653212 -0.023892103 0.045319714 -0.005691048 -0.0099710785 -0.014703765 0.03327862 -0.012205291
0.013023331 0.006627845 -0.04490861 -0.007883647 -0.03927437 -0.021399816 -0.022269024 0.015798753
-0.041098654 0.07452801 0.061608553 -0.0035978598 0.009218788 0.0117148515 0.0020144936 0.035040528
-0.01973675 -0.028773118 0.0432886 -0.009140651 -0.003821873 -0.018297091 -0.0038177862 -0.033554446
0.0051005264 -0.025808387 0.00031459468 0.006153664 -0.023208566 0.057601742 0.04067043 -0.029773638
0.0109579265 -0.04626415 -0.038256925 0.028554758 0.011716097 0.0010494963 0.06492502 0.0028429646
-0.024610698 -0.076125935 -0.033540275 0.023333782 0.009979545 0.044946786 0.016380085 0.025465593
-0.060713906 -0.04619872 -0.028485939 -0.0073342705 0.009441397 -0.009265454 -0.056422245 0.002352905
-0.012086006 -0.02224123 0.011556275 -0.041320145 -0.05332763 0.021896835 -0.04873247 0.017194182
-0.059001867 0.026074037 -0.035581514 -0.05069509 0.016439399 -0.036059793 0.045113087 -0.0033601262
-0.016429454 0.0037533925 0.011282545 0.01445042 0.014125111 -0.014148548 0.002192255 0.024195155
0.0017006672 0.036762312 -0.035573382 0.037484247 0.0025258653 -0.0256193 -0.036230516 -0.025442477
0.03144787 0.01144837 0.061921813 0.0070611686 -0.010235027 0.007930095 -0.03069442 -0.01747618
0.049242213 -0.05142108 -0.030219192 0.034977894 -0.034382615 -0.014084011 -0.021866037 -0.018305173
-0.027787343 0.015316592 -0.0037071377 0.044353116 -0.0741251 -0.049605988 0.0035663128 -0.027160864
0.03703742 0.043761645 -0.024185006 0.1409922 -0.0135310255 0.011096396 -0.038004402 0.029716063
0.08076108 -0.020066814 -0.009381888 0.0069599324 0.13738714 -0.057691727 0.010590728 -0.027236108
-0.0275371 -0.028544294 -0.052412756 0.016369838 0.03850666 -0.03125059 -0.00960129 -0.0073431064
-0.008562773 0.008788144 -0.029292302 -0.05040129 -0.008113396 0.030628936 0.007199773 -0.019167207
-0.010472062 -0.05018784 -0.008580111 0.014091226 0.000743717 0.0053295153 -0.009362057 -0.06440166
-0.01473877 -0.027268501 -0.006900891 0.0068577356 0.021383999 -0.015797665 -0.020520082 -0.038343836
-0.006414568 0.019063463 -0.0013227938 0.009702074 0.0047131795 -0.043533094 -0.0034323223 0.020172972
00000000: fdb3 16bd 0970 883d df9f 1dbd bf63 b43d
00000010: f3a3 00bb 7955 933c 4ffe 893d 2d84 2c3b
00000020: cab9 fdbc 453c eb3c 983c 833c befc 0f3d
00000030: ce41 a7bc f05c 86bc 93a7 8dbc 676c a9bc
00000040: ee9b 153b b307 d3bc 877a bcbc fff3 a03d
00000050: e651 9ebc 63a7 b63b 62b3 f93b a3f9 13bd
00000060: a66d a73c ed04 63bb ae35 b13d 9a30 b03b
00000070: 6615 c9bc 0b89 71bc 8922 95bc 7b90 f83c
00000080: cdfc bb3c 7fb0 213d 57ac 16bb 2284 c9bc
00000090: 8f98 093d ba4d 053d bf99 53bc 591f c43a
000000a0: ca47 c0bc 428d e2bc 13c0 f23c 2504 c8bb
000000b0: 5784 593d e65d c93d 7972 8bbb c735 853c
000000c0: 33b4 ba3b 592d fa3c d7c4 b13c 686e 803c
000000d0: cf84 4cbd 30fc c2bb 7d48 25bd cb15 bc3b
000000e0: 8a91 66bc 2ed0 783c 0e20 83bb f6af 3c3d
000000f0: 9e94 493d 4b96 09bd 0554 803c 0bf4 ea3c
00000100: 5ecf 193b 2b30 4f3c afbf da3c 0fd3 44bd
00000110: 545e c53b 461d 5bbc 3c78 99bd d490 15bd
00000120: c2f6 773d 6c39 99bc 1297 13bd 081b 8f3a
00000130: 4c1e 36bc c705 04bd 7802 e43c a21d 70ba
00000140: 8f9c 2abd 5fb9 c3bc 2aa1 393d f97b babb
00000150: bc5d 23bc 0fe8 70bc 2a4f 083d b3f8 47bc
00000160: cf5f 553c 652e d93b 17f2 37bd 6a2a 01bc
00000170: 29de 20bd ab4e afbc 876d b6bc 636c 813c
00000180: 1057 28bd 24a2 983d 4059 7c3d 12ca 6bbb
00000190: 660a 173c a6ef 3f3c 9805 043b a886 0f3d
000001a0: f7ae a1bc 9ab5 ebbc 634f 313d abc2 15bc
000001b0: 6478 7abb c8e3 95bc d333 7abb 6370 09bd
000001c0: 5122 a73b 1c6c d3bc 2ff0 a439 ada4 c93b
000001d0: e41f bebc ceef 6b3d 0996 263d d8e7 f3bc
000001e0: e088 333c 7a7f 3dbd 4bb3 1cbd abeb e93c
000001f0: dff4 3f3c 418f 893a 69f7 843d 0851 3a3b
00000200: 609c c9bc eae7 9bbd 8761 09bd 7d26 bf3c
00000210: 3f81 233c 1f1a 383d 872f 863c 389d d03c
00000220: 25af 78bd de3a 3dbd 585b e9bc 5254 f0bb
00000230: 17b0 1a3c 21ce 17bc 031b 67bd 3233 1a3b
00000240: 6204 46bc 3d33 b6bc 8856 3d3c 503f 29bd
00000250: 136e 5abd fe60 b33c b39b 47bd d0da 8c3c
00000260: f1ab 71bd 3899 d53c ecbd 11bd a8a5 4fbd
00000270: ebab 863c 6fb3 13bd 80c8 383d 9035 5cbb
00000280: 1097 86bc 7afb 753b 6cda 383c 74c1 6c3c
00000290: 026d 673c 50cf 67bc f0ab 0f3b eb34 c63c
000002a0: ece8 de3a 1494 163d 65b5 11bd 1589 193d
000002b0: fd88 253b 91df d1bc 7366 14bd be6c d0bc
000002c0: 7bcf 003d f291 3b3c baa1 7d3d 6061 e73b
000002d0: d1b0 27bc 3bed 013c dd72 fbbc 352a 8fbc
000002e0: 34b2 493d e99e 52bd 3d8e f7bc fb44 0f3d
000002f0: c9d4 0cbd a0c0 66bc 6720 b3bc bbf4 95bc
00000300: 48a2 e3bc 71f2 7a3c 73f3 72bb 9dab 353d
00000310: e7ce 97bd a62f 4bbd cdb8 693b 7680 debc
00000320: 8db4 173d 693f 333d a21f c6bc 4260 103e
00000330: 3cb1 5dbc a8cd 353c 81aa 1bbd 1a6f f33c
00000340: 1166 a53d 2963 a4bc 7eb6 19bc 2510 e43b
00000350: 37af 0c3e 294e 6cbd bc84 2d3c 421e dfbc
00000360: 7c95 e1bc b9d5 e9bc c2ae 56bd 0a1a 863c
00000370: 29b9 1d3d 9e00 00bd bb4e 1dbc 719e f0bb
00000380: df4a 0cbc 26fc 0f3c 69f6 efbc 9571 4ebd
00000390: 0dee 04bc 89e9 fa3c 13ec eb3b 8c04 9dbc
000003a0: 0393 2bbc c491 4dbd 9893 0cbc e3de 663c
000003b0: 01f6 423a 37a3 ae3b 5063 19bc 04e5 83bd
000003c0: e27a 71bc 3162 dfbc df20 e2bb dbb6 e03b
000003d0: 7f2d af3c 1b6a 81bc bb19 a8bc 6d0e 1dbd
000003e0: 4c31 d2bb fb2a 9c3c 9861 adba 73f5 1e3c
000003f0: 0471 9a3b c24f 32bd d0f0 60bb ca41 a53c

network_body._body_endoder.seq_layers.2.weight f4 [256, 256]
0.044004805 0.115900174 0.14030491 0.03363419 -0.08336381 -0.021450642 0.0315746 -0.05377826
0.070261754 -0.016025031 0.047645092 0.037439574 -0.020123383 0.0110509135 0.13486002 0.0883758
0.068922564 0.11730824 0.012459327 0.16320845 0.038163647 0.062886454 0.059653793 0.053535096
0.09151206 0.10546684 0.062036507 -0.0067325984 -0.029584182 -0.21508536 -0.03832403 -0.06721186
-0.058947835 0.14495765 0.053900827 0.0949598 -0.009587665 -0.015389327 0.10321224 0.00045187463
-0.015576882 0.05794858 -0.027975043 -0.010592109 0.0032220327 0.006789778 0.017625038 0.12047784
-0.030114094 0.02058068 -0.107990764 0.115364775 0.0005443693 0.03805728 -0.07999929 -0.07468562
-0.003987824 -0.115132645 -0.003775368 -0.06976359 -0.0043971785 -0.046838343 0.010991278 0.07366604
0.008837397 -0.08107788 0.07494131 -0.19988765 0.10894681 -0.039408926 0.06648823 0.023846012
-0.056076888 -0.07442287 -0.11205102 0.050618254 -0.07489306 0.044347078 -0.07794875 0.15385984
0.04893972 -0.060943674 0.03620761 -0.11703556 -0.1311246 -0.06305987 -0.0965573 0.053618386
-0.05616046 0.016351074 0.050947044 0.0090933405 -0.17424017 -0.0018249745 0.081746355 -0.12525675
-0.055931825 0.04233769 0.056075636 -0.03486992 -0.01760377 0.100832604 -0.049640503 -0.001187263
-0.06366845 0.0093262205 -0.09217641 -0.00048246828 -0.017745424 0.009009735 0.034052122 0.08236404
0.024451857 -0.06424364 0.14655748 0.034628704 -0.009648249 0.071180455 0.03391526 0.1236496
0.1217905 0.036533564 -0.10984573 -0.049938265 0.07689417 0.09053858 0.103872046 0.08657969
-0.110447556 -0.0490695 0.12559041 0.06314514 0.06634865 -0.09735005 -0.09621672 0.13738097
-0.008071109 -0.08030381 -0.0041235513 0.12797911 0.10087301 0.030863672 0.10411695 -0.055635184
-0.07662461 -0.07528899 0.05329568 -0.13458242 0.03658996 -0.09641512 0.0388318 0.04698156
0.029471576 -0.09209872 -0.08687152 -0.047035087 0.04248878 0.02682733 0.093855046 0.019457418
0.04186701 -0.053876426 0.029846964 -0.0690016 -0.05066502 0.07724065 -0.034985546 -0.033564195
0.0095086815 -0.019746024 0.0009285616 0.111884706 -0.11435476 -0.09533645 -0.010877268 -0.009109539
0.06401306 -0.06941279 0.02137566 -0.085739024 0.06635877 0.010493905 -0.031148488 -0.07836978
0.1795708 -0.012198336 0.06127412 0.07700005 -0.016266584 0.02963954 -0.008383539 0.10539155
0.038687263 0.014540601 0.038449697 0.085292205 -0.047296494 -0.05809075 -0.015919067 -0.018775947
-0.12002773 0.11878775 -0.024896137 -0.003704201 0.105123796 0.027844034 0.035696313 -0.1519838
0.030434402 0.059693776 -0.20561323 -0.066700794 0.017700532 0.016257226 0.06278235 0.04326938
0.057219934 -0.14389987 -0.08264197 0.0823038 0.04223172 -0.19686638 0.054871157 -0.0861478
0.08252951 0.050616536 0.19552457 -0.028944233 0.043132707 -0.0065451614 0.082017146 -0.033968404
-0.020434726 -0.04916044 0.038555082 0.04159603 -0.049988236 -0.032598168 0.0004455476 0.020710725
-0.012089227 0.04641166 -0.16839483 0.12685867 0.05548666 0.006976103 -0.18489978 -0.02527227
-0.03767152 -0.040904243 0.036285684 0.006703152 -0.06164498 -0.022868741 0.1280126 0.016334241
00000000: 623e 343d 125d ed3d 17ac 0f3e 01c4 093d
00000010: a5ba aabd 42b9 afbc 5e54 013d 9846 5cbd
00000020: 65e5 8f3d ed46 83bc 8027 433d 3d5a 193d
00000030: cbd9 a4bc e40e 353c bf18 0a3e 5ffe b43d
00000040: 4627 8d3d 4d3f f03d 3422 4c3c 1e20 273e
00000050: 7c51 1c3d 9dca 803d 8957 743d 9e47 5b3d
00000060: ad6a bb3d 00ff d73d fe19 7e3d 219d dcbb
00000070: 875a f2bc 563f 5cbe a8f9 1cbd 5fa6 89bd
00000080: 4973 71bd c76f 143e 1dc7 5c3d 497a c23d
00000090: 9515 1dbc 8423 7cbc f060 d33d 96e9 ec39
000000a0: 2e36 7fbc 7d5b 6d3d eb2b e5bc 868a 2dbc
000000b0: bd28 533b c97c de3b 6262 903c 16bd f63d
000000c0: d5b1 f6bc d098 a83c 432a ddbd 5e44 ec3d
000000d0: 01b4 0e3a f3e1 1b3d abd6 a3bd c6f4 98bd
000000e0: 4bac 82bb aaca ebbd 2a6c 77bb 37e0 8ebd
000000f0: 3516 90bb 90d9 3fbd c314 343c 39de 963d
00000100: bbca 103c 290c a6bd d47a 993d 59af 4cbe
00000110: 811f df3d 416b 21bd fb2a 883d b658 c33c
00000120: e1b0 65bd 056b 98bd 017b e5bd 1655 4f3d
00000130: 8861 99bd 48a5 353d 98a3 9fbd 6f8d 1d3e
00000140: 0475 483d 13a0 79bd 6e4e 143d 57b0 efbd
00000150: 8745 06be 8825 81bd d5bf c5bd f49e 5b3d
00000160: 8308 66bd b0f2 853c d9ad 503d 3cfc 143c
00000170: 046c 32be fc33 efba a26a a73d 4e43 00be
00000180: c518 65bd 496a 2d3d 91af 653d c3d3 0ebd
00000190: c835 90bc 5381 ce3d d753 4bbd f09d 9bba
000001a0: 9b64 82bd 01cd 183c fcc6 bcbd ccf3 fcb9
000001b0: da5e 91bc 919d 133c 3d7a 0b3d 7aae a83d
000001c0: 434f c83c 2b92 83bd 2a13 163e d4d6 0d3d
000001d0: b013 1ebc 0fc7 913d baea 0a3d 003c fd3d
000001e0: 4c6d f93d 38a4 153d ccf6 e0bd 118c 4cbd
000001f0: b17a 9d3d 4b6c b93d deba d43d b150 b13d
00000200: 5432 e2bd 1afd 48bd c69a 003e 3d52 813d
00000210: cde1 873d 775f c7bd 460d c5bd 99ad 0c3e
00000220: af3c 04bc 5376 a4bd db1e 87bb f50c 033e
00000230: 8296 ce3d d0d5 fc3c 443b d53d b8e1 63bd
00000240: 5ded 9cbd 1d31 9abd 924c 5a3d f9cf 09be
00000250: 5bdf 153d 4a75 c5bd 180e 1f3d bc6f 403d
00000260: 606e f13c 419e bcbd b2e9 b1bd dda7 40bd
00000270: b708 2e3d fdc4 db3c 1337 c03d 2a65 9f3c
00000280: be7c 2b3d 87ad 5cbd 9f81 f43c b650 8dbd
00000290: 2086 4fbd 5930 9e3d 014d 0fbd 9c7a 09bd
000002a0: 4dca 1b3c 6ac2 a1bc b76a 733a cf23 e53d
000002b0: d432 eabd c23f c3bd 9236 32bc 2d40 15bc
000002c0: 4719 833d 4b28 8ebd 021c af3c f197 afbd
000002d0: 1be7 873d a1ee 2b3c 1d2b ffbc 5680 a0bd
000002e0: 68e1 373e 88db 47bc 92fa 7a3d 34b2 9d3d
000002f0: 8041 85bc 9fce f23c 1c5b 09bc 86d7 d73d
00000300: 8976 1e3d b33b 6e3c 6e7d 1d3d aead ae3d
00000310: f8b9 41bd 91f0 6dbd b468 82bc 04d0 99bc
00000320: 19d1 f5bd fe46 f33d fcf2 cbbc 2ec2 72bb
00000330: 254b d73d 2c19 e43c 4c36 123d a4a1 1bbe
00000340: 9151 f93c 7681 743d 468c 52be 6d9a 88bd
00000350: b500 913c e02d 853c 0894 803d 3c3b 313d
00000360: 735f 6a3d 7d5a 13be 3140 a9bd e58e a83d
00000370: 2bfb 2c3d 5797 49be 94c0 603d 426e b0bd
00000380: 3b05 a93d 4953 4f3d 9837 483e 751c edbc
00000390: ecab 303d cb78 d6bb 9bf8 a73d 7422 0bbd
000003a0: ba66 a7bc 755c 49bd efeb 1d3d 9960 2a3d
000003b0: 77c0 4cbd a885 05bd 6398 e939 8aa9 a93c
000003c0: e511 46bc 271a 3e3d b26f 2cbe 3de7 013e
000003d0: fb45 633d cb97 e43b 5e56 3dbe cb07 cfbc
000003e0: 744d 1abd 358b 27bd 4ca0 143d 1da6 db3b
000003f0: 727f 7cbd 3a57 bbbc bc15 033e 63cf 853c

network_body._body_endoder.seq_layers.2.bias f4 [256]
-0.0029179477 0.0255755 0.0051894914 -0.009913144 -0.0037310787 0.0061636698 -0.004167322 -0.020906294
0.0012527239 -0.005070403 -0.013077411 -0.022131639 0.0040136585 -0.031495105 0.008142698 -0.001833779
0.015342403 -0.011418779 -0.0031826976 -0.030871408 0.0069696163 0.00021572028 0.014330235 0.008184271
-0.029166467 -0.024660245 -0.031241335 -0.003374692 0.009549597 -0.013435552 0.0022279387 -0.008513095
-0.014061256 -0.020245781 0.023964837 -0.008221817 -0.03769023 -0.033285994 -0.017128857 -0.04187823
0.001779145 -0.011017038 -0.005180524 -0.014967288 -0.005962155 -0.0065594 -0.003795746 0.010641434
0.0068748537 -0.003075537 -0.01971768 0.005081752 0.0009200498 0.0067507275 -0.014297829 -0.034710087
0.0062256306 -0.0076811495 -0.016069062 -0.017209336 -0.00055733643 0.010134666 0.013778283 -0.00043561962
-0.044436067 -0.021503199 -0.04754017 0.018414073 -0.03699879 -0.040026397 -0.0016574076 0.011345063
-0.04175623 -0.023385795 0.0020213518 -0.03632271 -0.0043423567 -0.0022069854 0.025458477 -0.011673168
-0.010859219 -0.014149876 0.0040506674 -0.011988796 0.019150164 -0.008418232 -0.01480503 -0.016096354
0.002602388 0.014232496 1.5688072e-06 -0.015144761 0.008026541 -0.010843391 0.0034674625 0.01781083
-0.010571232 -0.011098928 -0.018000226 -0.017726257 -0.022725705 -0.0030925437 -0.008678084 0.02842053
0.00018703911 -0.005888966 -0.028132686 -0.02349182 0.0002827509 -0.0017213576 -0.0152301295 -0.022218052
0.039897457 -0.012508418 -0.014210916 -0.003489368 -0.027586592 0.012964723 -0.032355245 -0.0015006331
-0.023063028 0.015429954 -0.0044742865 -0.002540009 -0.00046463055 0.007221726 0.005916364 0.019936765
-0.04823278 0.0013202965 0.018941844 0.012474468 0.007982008 -0.004347718 0.019161064 0.0032301093
0.01693279 -0.0076020486 -0.0014857907 -0.033760585 -0.0024499837 -0.006307553 -0.030694775 -0.0179215
-0.00024943016 -0.0065413364 -0.0067179454 -0.010351011 0.011690656 -0.01616053 0.028582808 -0.027431086
-0.0036207086 -0.032474294 -0.023131993 -0.0013660912 0.004671356 -0.035075713 -0.03267479 0.030344438
0.0047227293 -0.022225326 0.00047190863 -0.04185602 0.001930033 0.008723683 0.007353443 -0.017575929
-0.009599037 -0.018824771 0.01740121 0.011443626 -0.027618952 -0.003654452 -0.035685282 0.014576188
0.0061440067 0.0127183255 0.008607209 -0.013505676 -0.0022482404 0.023675602 0.0037045984 0.0004881647
0.047391053 -0.009359622 -0.0026853173 -0.026852338 -0.021455187 0.0046713483 -0.0047273124 0.013088787
-0.0061592893 -0.041091904 -0.023370342 0.004451408 -0.009696174 0.007826639 0.0013786117 0.032777384
0.023494862 -0.01577717 0.0022720252 -4.4840697e-05 0.017555535 -0.012552008 0.01508542 0.02137742
0.0050516804 0.0003003597 -0.022022316 0.04254151 -0.017661415 0.0012882891 -0.024448462 -0.019498548
-0.009678327 -0.030437991 0.0021826602 -0.013320236 -0.022177732 -0.0125850765 0.002787067 -0.0017725899
-0.021853555 0.014293433 -0.018450558 0.011068093 0.012173409 0.012440792 -0.03688273 0.0036609604
0.010002946 -0.017729197 -0.00056723255 -0.02963908 0.0031322213 -0.022733081 -0.0088370815 0.0013969158
-0.00017154892 -0.0070558093 0.024709756 0.013576526 -0.04044509 -0.0030249665 -0.0010990434 -0.019809281
0.0076853503 -0.04342306 -0.023746194 -0.02222107 0.0232721 -0.0017126384 -0.020562004 -0.030230157
00000000: 0a3b 3fbb b683 d13c 9c0c aa3b bd6a 22bc
00000010: 1d85 74bb 9cf8 c93b 088e 88bb ad43 abbc
00000020: 7032 a43a a025 a6bb a342 56bc 694d b5bc
00000030: 0285 833b 0301 01bd f368 053c 6a5b f0ba
00000040: b45e 7b3c d515 3bbc ce94 50bb 09e6 fcbc
00000050: 6161 e43b f932 6239 5dc9 6a3c 5217 063c
00000060: 84ee eebc 4804 cabc d4ed ffbc f029 5dbb
00000070: ea75 1c3c ca20 5cbc 9c02 123b 827a 0bbc
00000080: 2f61 66bc 7bda a5bc e851 c43c cdb4 06bc
00000090: 1261 1abd e556 08bd d151 8cbc 8288 2bbd
000000a0: 3332 e93a ce80 34bc 63c1 a9bb 5b39 75bc
000000b0: 2e5e c3bb 3cf0 d6bb 0dc2 78bb 6959 2e3c
000000c0: 7446 e13b f38e 49bb f986 a1bc d384 a63b
000000d0: 7f2f 713a 3535 dd3b 7141 6abc 2a2c 0ebd
000000e0: 6000 cc3b 27b2 fbbb 44a3 83bc 98fa 8cbc
000000f0: 371a 12ba df0b 263c 4fbe 613c e063 e4b9
00000100: 9802 36bd 7a27 b0bc 7bb9 42bd 1cd9 963c
00000110: 0b8c 17bd b8f2 23bd 5f3d d9ba a5e0 393c
00000120: 9508 2bbd 9193 bfbc a878 043b 1fc7 14bd
00000130: 544a 8ebb 12a3 10bb 4c8e d03c d140 3fbc
00000140: deea 31bc e2d4 67bc 76bb 843b a86c 44bc
00000150: cee0 9c3c a0ec 09bc cc90 72bc 80dc 83bc
00000160: d38c 2a3b 6a2f 693c ce8f d235 bb21 78bc
00000170: c181 033c 7aa8 31bc 5e3e 633b 05e8 913c
00000180: f632 2dbc 47d8 35bc 3675 93bc a836 91bc
00000190: 422b babc 46ac 4abb 862e 0ebc 2cd2 e83c
000001a0: ee1f 4439 3af8 c0bb 8576 e6bc eb71 c0bc
000001b0: 2f3e 9439 2d9f e1ba cb87 79bc a202 b6bc
000001c0: 846b 233d 1cf0 4cbc e7d4 68bc e1ad 64bb
000001d0: 47fd e1bc fd69 543c ef86 04bd e4b0 c4ba
000001e0: adee bcbc ebcd 7c3c 099d 92bb 4876 26bb
000001f0: a899 f3b9 3aa4 ec3b 0fde c13b 6d52 a33c
00000200: bc8f 45bd cd0d ad3a ed2b 9b3c b661 4c3c
00000210: f8c6 023c 4d77 8ebb aaf7 9c3c 3eb0 533b
00000220: a2b6 8a3c 9b1a f9bb ddbe c2ba 8a48 0abd
00000230: e88f 20bb 97af cebb 9c73 fbbc 1cd0 92bc
00000240: f3c5 82b9 b558 d6bb 3622 dcbb 4997 29bc
00000250: 2a8a 3f3c 1663 84bc 7e26 ea3c 28b7 e0bc
00000260: 6949 6dbb c403 05bd 4e7f bdbc 6a0e b3ba
00000270: 2d12 993b 8dab 0fbd 00d6 05bd e694 f83c
00000280: 20c1 9a3b e311 b6bc 816a f739 3871 2bbd
00000290: 29f9 fc3a c7ed 0e3c 27f5 f03b 65fb 8fbc
000002a0: 4745 1dbc 6836 9abc fb8c 8e3c 0c7e 3b3c
000002b0: 2441 e2bc 887f 6fbb bb2a 12bd f7d0 6e3c
000002c0: aa53 c93b 8660 503c 4005 0d3c e946 5dbc
000002d0: 3757 13bb 56f3 c13c d9c8 723b 5bf0 ff39
000002e0: 1f1d 423d 1a59 19bc 26fc 2fbb 6ff9 dbbc
000002f0: cac2 afbc 1c12 993b 92e7 9abb 5a72 563c
00000300: ddd3 c9bb fc4f 28bd 2973 bfbc 1edd 913b
00000310: b4dc 1ebc 4e3b 003c 88b2 b43a 9441 063d
00000320: 4c78 c03c 203f 81bc 42e6 143b 5513 3cb8
00000330: a0d0 8f3c f0a6 4dbc d628 773c b31f af3c
00000340: 9188 a53b 9979 9d39 2568 b4bc 0240 2e3d
00000350: acae 90bc cfdb a83a 2448 c8bc 6bbb 9fbc
00000360: d891 1ebc 1859 f9bc f60a 0f3b 1e3d 5abc
00000370: 13ae b5bc a331 4ebc 3aa7 363b 3f56 e8ba
00000380: 3a06 b3bc 012f 6a3c a025 97bc f256 353c
00000390: fa72 473c 77d4 4b3c 5812 17bd b9ec 6f3b
000003a0: 65e3 233c d23c 91bc 55b2 14ba a8cd f2bc
000003b0: f445 4d3b ba3a babc 68c9 10bc b718 b73a
000003c0: d0e1 33b9 6b34 e7bb 1d6c ca3c 1470 5e3c
000003d0: c0a9 25bd 843e 46bb c70d 90ba 1347 a2bc
000003e0: 64d5 fb3b 61dc 31bd 6187 c2bc f608 b6bc
000003f0: 22a5 be3c 9c7a e0ba a671 a8bc 3ca5 f7bc

action_model._continuous_distribution.mu.weight f4 [2, 256]
0.0151862865 0.05297636 -0.03573607 -0.0142421285 -0.01886106 -0.011007674 -0.01038312 -0.010424315
0.0045304084 0.03948513 0.018698769 -0.0108825145 0.06928347 0.0030378404 0.00065102964 -0.026416048
-0.019301057 -0.020478167 -0.0014129382 -0.011533483 0.043405496 -0.03160277 -0.0061260164 0.02606436
-0.047885682 -0.020303711 -0.014901177 -0.007401906 -0.0008504969 -0.0052994518 0.0029865864 -0.01185515
-0.049173787 -0.01749116 0.011800672 0.054032814 0.016524568 0.010103949 -0.016005605 -0.007433688
-0.0013703939 -0.01110577 0.0011467516 -0.017765319 -0.0007693912 0.0040755114 0.009558563 -0.022588922
0.026540792 0.00039397355 0.0029264633 -0.00782205 -0.01529711 -0.018556787 -0.037410636 0.011234133
0.01940081 -0.04793516 0.0031723864 -0.006100503 -0.016419945 0.017901441 0.014896545 -0.027253002
-0.020027265 -0.0069040502 0.017055478 -0.030945932 0.021613784 0.005080069 0.026978757 0.010809938
0.011185852 -0.044330325 -0.01558965 0.00829994 -0.0131199425 0.057993393 0.0076389606 0.013751548
-0.0312254 -0.01563238 -0.0031900897 0.0059189256 -0.0037741717 -0.011438571 0.021381987 0.048361227
0.020023396 -0.017166676 0.011675693 0.028011154 0.0021466848 -0.022526745 -0.017421475 -0.016080268
-0.026802987 -0.033500675 0.02029968 -0.0069229202 0.0015974572 -0.010273227 -0.027878784 -0.047040712
0.01499207 0.030990276 -0.0001875655 0.01533255 -0.02657208 -0.016898911 0.014993528 0.025420135
-0.029766954 -0.01752357 -0.0075587593 0.04088601 0.020181948 0.0021353906 0.005261094 0.02050195
0.013081258 0.00086263585 0.00342865 -0.014836646 -0.018653432 -0.016200071 0.0099256765 0.0071051447
0.032725517 -0.015041814 0.02475406 0.018838268 0.001186997 0.018191328 0.040182162 0.016986107
-0.029047295 -0.030041631 0.008321997 0.019794317 0.017316526 0.0066082757 -0.04783688 -0.027379353
0.014541562 0.021011263 -0.011843599 -0.0082690725 -0.015757892 -0.015112958 -0.020589035 -0.0151677355
0.000529679 0.01799364 -0.0018609423 0.01253133 -0.037794318 0.015059082 -0.03210613 0.01287923
0.0064530284 -0.016744716 0.0030933889 0.020398632 -0.009501415 0.016508697 0.024240216 -0.023965728
0.035567906 0.0020676525 0.033179373 0.0031763287 -0.017524542 -0.0103710415 -7.55139e-05 -0.010460108
0.01775191 -0.021784304 -0.0060704206 -0.0013012531 -0.0018966494 0.023881845 0.022539858 0.02614165
-0.009589933 0.00877307 -0.016666409 -0.005642041 0.025434515 -0.0057117133 -0.024616139 0.0028088645
-0.024423407 0.023698281 0.026317375 0.0026715412 0.027094577 -0.0372331 -0.016182035 0.008626267
-0.012650316 0.04307984 0.022079622 -0.007942218 0.020178001 -0.011436458 0.0161955 0.001738331
0.014110911 -0.0013643756 0.010170328 0.0320913 -0.022919787 -0.0006198044 -0.053774744 -0.010286253
0.0052481354 0.019936986 0.005347074 -0.037423246 0.008410629 -0.025526503 0.014787074 -0.011661206
0.03397178 0.00036561774 0.02364458 0.018049309 -0.00796669 -0.02388476 0.026508072 0.015351317
0.0053383 0.008796359 0.028006582 0.015189263 -0.033076692 -0.0029052554 -0.022134008 0.021244884
-0.003895386 -0.039470557 0.002170765 0.038657665 0.0024198226 -0.003045074 -0.01511506 0.01853481
-0.0016195792 0.06386885 -0.0082959235 -0.024879925 0.0041835844 -0.0019320827 0.013434849 -0.044194553
00000000: e7cf 783c bdfd 583d fc5f 12bd d157 69bc
00000010: 8282 9abc 8859 34bc f61d 2abc bfca 2abc
00000020: d273 943b 29bb 213d 292e 993c 934c 32bc
00000030: 7ee4 8d3d 8116 473b dca9 2a3a 7866 d8bc
00000040: 401d 9ebc d4c1 a7bc 5732 b9ba eff6 3cbc
00000050: f6c9 313d e871 01bd c0bc c8bb ed84 d53c
00000060: c723 44bd f853 a6bc 1124 74bc b08b f2bb
00000070: e1f3 5eba 06a7 adbb 9bba 433b 1a3c 42bc
00000080: 746a 49bd 9f49 8fbc 9b57 413c 8351 5d3d
00000090: 885e 873c 098b 253c 301e 83bc 4b96 f3bb
000000a0: ca9e b3ba faf4 35bc 994e 963a 9388 91bc
000000b0: f8b0 49ba de8b 853b 859b 1c3c 670c b9bc
000000c0: 136c d93c 3c8e ce39 e8c9 3f3b 0e28 00bc
000000d0: bba0 7abc 6704 98bc e53b 19bd 5e0f 383c
000000e0: 73ee 9e3c a957 44bd d0e7 4f3b bae6 c7bb
000000f0: 1f83 86bc 0ba6 923c a310 743c b041 dfbc
00000100: 3810 a4bc 5f3b e2bb eeb7 8b3c 5382 fdbc
00000110: 640f b13c b576 a63b 8e02 dd3c 2b1c 313c
00000120: dd44 373c b793 35bd bb6b 7fbc 79fc 073c
00000130: 07f5 56bc 7b8a 6d3d 3f50 fa3b 2c4e 613c
00000140: 69cc ffbc 7a0f 80bc d310 51bb 8cf3 c13b
00000150: 1858 77bb d868 3bbc 4729 af3c 6c16 463d
00000160: 1b08 a43c 21a1 8cbc 684b 3f3c a677 e53c
00000170: 65af 0c3b 028a b8bc 7bb7 8ebc c4ba 83bc
00000180: f091 dbbc 0138 09bd 844b a63c aad9 e2bb
00000190: c561 d13a 0951 28bc 0c62 e4bc c3ad 40bd
000001a0: 4da1 753c 52df fd3c 3bad 44b9 6035 7b3c
000001b0: b1ad d9bc 966f 8abc 6aa7 753c e33d d03c
000001c0: d4d9 f3bc 978d 8fbc 78af f7bb 1778 273d
000001d0: 9d54 a53c e9f1 0b3b 4165 ac3b b5f3 a73c
000001e0: c652 563c 8322 623a 34b3 603b 6715 73bc
000001f0: 15cf 98bc 03b6 84bc 4e9f 223c 46d2 e83b
00000200: 310b 063d f171 76bc 07c9 ca3c b652 9a3c
00000210: 0395 9b3a fb05 953c 0d96 243d 7326 8b3c
00000220: 98f4 edbc de19 f6bc fc58 083c b127 a23c
00000230: 63db 8d3c 3c8a d83b 9bf0 43bd aa4a e0bc
00000240: bb3f 6e3c d01f ac3c a80b 42bc 017b 07bc
00000250: b216 81bc 579c 77bc 56aa a8bc 1882 78bc
00000260: 28da 0a3a 6667 933c ddea f3ba 3550 4d3c
00000270: 37ce 1abd 5eba 763c b881 03bd 6803 533c
00000280: ed73 d33b 372c 89bc 74ba 4a3b 081b a73c
00000290: d3ab 1bbc 3f3d 873c 6b93 c63c c653 c4bc
000002a0: a7af 113d 7481 073b 18e7 073d f429 503b
000002b0: a18f 8fbc 4deb 29bc 375d 9eb8 df60 2bbc
000002c0: 746c 913c ff74 b2bc 61ea c6bb cf8e aaba
000002d0: fe98 f8ba dca3 c33c 82a5 b83c 0327 d63c
000002e0: 181f 1dbc ecbc 0f3c fe87 88bc dfe0 b8bb
000002f0: 0b5c d03c 5329 bbbb c9a7 c9bc ed14 383b
00000300: 9913 c8bc e622 c23c 8997 d73c 0615 2f3b
00000310: 72f5 dd3c bc81 18bd 3090 84bc 3055 0d3c
00000320: 4543 4fbc 7c74 303d 53e0 b43c 1420 02bc
00000330: 564c a53c fb5f 3bbc 6dac 843c b6d8 e33a
00000340: 7331 673c d9d4 b2ba 73a1 263c 2b72 033d
00000350: 47c2 bbbc 5f7a 22ba e842 5cbd ac87 28bc
00000360: 8df8 ab3b e452 a33c 8236 af3b 1e49 19bd
00000370: bccc 093c f51c d1bc 7c45 723c a50e 3fbc
00000380: fe25 0b3d 62b0 bf39 47b2 c13c 25dc 933c
00000390: b886 02bc f9a9 c3bc 7527 d93c 1784 7b3c
000003a0: e8ec ae3b 9b1e 103c 0f6e e53c 63dc 783c
000003b0: 6d7b 07bd 1966 3ebb 6152 b5bc c009 ae3c
000003c0: bb49 7fbb e1ab 21bd 6543 0e3b 8057 1e3d
000003d0: e395 1e3b dd8f 47bb 28a5 77bc 50d6 973c
000003e0: 0f48 d4ba accd 823d a0eb 07bc fcd0 cbbc
000003f0: 7316 893b f03d fdba d71d 5c3c 5905 35bd

action_model._continuous_distribution.mu.bias f4 [2]
-0.0045373654 -0.0034807995
00000000: 2eae 94bb 201e 64bb

action_model._continuous_distribution.log_sigma.weight f4 [2, 256]
0.0025509396 -0.0056145554 -0.013288892 0.022826875 0.0257831 -0.009933752 0.0074018273 0.006109518
0.0149432495 -0.0034927775 0.0127684185 0.018051581 0.0090692295 0.021548612 -0.01136867 0.007601608
-0.012164873 -0.012888158 0.0028533624 0.033403073 0.016511787 -0.007890737 0.07147267 -0.004839749
-0.0040088883 -0.023500036 0.027872842 0.012670219 -0.016257165 0.0037250358 -0.0015339237 0.0058182213
0.011158737 0.0016985232 -0.019714737 0.0368538 0.0125473505 0.021197656 -0.01597783 0.012020068
-0.009742812 -0.0022027164 -0.0006916835 0.05639003 -0.01328178 0.0076702903 -0.0048621283 0.014882697
-0.0035734 0.008852591 0.021488879 -0.0019437494 -0.016998801 -0.008097108 -8.761618e-05 0.01730018
0.007369834 -0.009491439 0.030698707 0.020982645 -0.004029056 -0.0028482582 -0.010935329 -0.008360614
0.0059189503 0.005853132 0.006547707 -0.018331759 -0.0033670077 -0.012880027 0.002415266 0.0064078504
0.010060832 0.011365705 -0.004859412 0.019293148 -0.01405158 0.05024739 0.012495611 0.0073771584
0.049404133 0.002438154 -0.007988272 0.04468419 0.0060939575 -0.012885166 0.028922891 0.03040235
-0.005973554 -0.002444321 -0.011744243 0.022029774 0.009512063 0.027649404 -0.007640926 0.07093016
0.0007515287 0.0021914984 0.00016207101 0.03467989 0.02032646 0.051521916 0.0019867513 0.026374863
0.0075936783 0.006439448 0.027837431 0.013874706 -0.012502791 -0.008869423 -0.00743926 0.015205144
0.0065814853 -0.010243038 0.013089209 0.0023600787 -0.007242727 -0.013933141 0.007208494 -0.00389417
0.023341063 -0.03693978 -0.007060355 -0.0069431476 0.015332968 0.009507236 -0.0043827645 -0.006644604
0.023938103 -0.002649357 -0.018455354 -0.0025278113 -0.0052894275 0.0070125535 -0.0057637915 -0.015053528
-0.023203865 0.0022810127 -0.003780401 -0.0064714774 -0.0064546443 0.023744091 0.017438926 -0.0022960564
-0.0020949105 0.002710426 -0.015678875 -0.012727996 0.0092636775 0.0010403768 -0.013476456 0.023608727
-0.0070896866 0.01283419 -0.009098296 0.0088473 0.00517463 0.003763418 0.009678522 -0.018299382
-0.02548831 0.0029125756 0.008912263 0.014738344 -0.0013677786 -0.00942484 -0.006300139 0.02597536
0.014524743 0.003992707 -0.0041345526 -0.0108982595 -0.016845249 0.013300774 0.00846976 -0.026584398
-0.005883079 -0.0029041183 0.013379306 0.04097099 0.007284502 -0.011985091 0.0051631103 0.0044491785
-0.017362427 -0.010543486 -0.0059698736 0.031308964 0.015509769 0.0024005102 0.023766745 -0.024403047
0.042603325 -0.0034389806 0.024597108 -0.010164773 -2.2384482e-05 -0.02697256 0.0032983585 -0.0013506715
0.050894003 0.008798854 -0.008231375 -0.007614267 -0.0085003935 -0.011556145 0.014750841 -0.024584914
-0.009508457 -0.0033943101 0.0041693146 -0.00091688114 0.009168418 -0.00834551 0.03040238 -0.010011089
0.00831533 0.025501357 -0.012216697 0.009913968 0.008738126 0.009669954 -0.017289216 0.018524548
0.025920276 0.054410156 0.0071517164 -0.012494228 -0.013750226 -0.01597386 0.021390174 -0.0066630845
0.0010531544 0.0028137327 -0.009683557 0.0069686375 -0.018291716 -0.00883332 -0.014087486 -0.0062966994
-0.0038466763 0.002151644 -0.0009625762 -0.017736625 -9.481732e-06 0.0011557797 0.014313849 0.018757554
0.069632575 0.027094483 6.599362e-05 0.030071625 -0.024586726 -0.010543703 0.023180513 0.016768161
00000000: aa2d 273b 4efa b7bb a7b9 59bc 6dff ba3c
00000010: 1437 d33c 2dc1 22bc 078b f23b 5a32 c83b
00000020: 88d4 743c 15e7 64bb a132 513c e9e0 933c
00000030: 1b97 143c b786 b03c a843 3abc e916 f93b
00000040: 2d4f 47bc da28 53bc 7aff 3a3b a9d1 083d
00000050: ba43 873c 2648 01bc 4360 923d c296 9ebb
00000060: fe5c 83bb 2683 c0bc 9655 e43c c096 4f3c
00000070: bf2d 85bc bb1f 743b f00d c9ba c7a6 be3b
00000080: 23d3 363c fba0 de3a cd80 a1bc 03f4 163d
00000090: 6793 4d3c b5a6 ad3c f0e3 82bc d2ef 443c
000000a0: 51a0 1fbc 735b 10bb 1852 35ba 3bf9 663d
000000b0: d39b 59bc 0f57 fb3b 7d52 9fbb 8ed6 733c
000000c0: b42f 6abb 750a 113c 7209 b03c 68c5 feba
000000d0: 1241 8bbc bca9 04bc 94be b7b8 1bb9 8d3c
000000e0: a67e f13b fb81 1bbc db7b fb3c cce3 ab3c
000000f0: 2c06 84bb d8a9 3abb 182a 33bc f5fa 08bc
00000100: c1f3 c13b a1cb bf3b 268e d63b 7c2c 96bc
00000110: 04a9 5cbb c006 53bc 7049 1e3b f2f8 d13b
00000120: 30d6 243c 3937 3a3c b43b 9fbb aa0c 9e3c
00000130: 9938 66bc 35d0 4d3d 64ba 4c3c 17bc f13b
00000140: fd5b 4a3d 70c9 1f3b 3ee1 02bc c506 373d
00000150: d2af c73b 4e1c 53bc b3ef ec3c 590e f93c
00000160: cebd c3bb e730 20bb ed6a 40bc c977 b43c
00000170: 7cd8 1b3c 0181 e23c bc60 fabb d543 913d
00000180: 3d02 453a 3e9f 0f3b 9bf1 2939 800c 0e3d
00000190: ad83 a63c a508 533d 2834 023b 1910 d83c
000001a0: 64d4 f83b 0102 d33b 530b e43c bc52 633c
000001b0: 82d8 4cbc 0e51 11bc 09c5 f3bb ff1e 793c
000001c0: 80a9 d73b 6ad2 27bc 1f74 563c 8dab 1a3b
000001d0: 6654 edbb d447 64bc 3b35 ec3b 5535 7fbb
000001e0: c235 bf3c 2b4e 17bd 8d5a e7bb 5883 e3bb
000001f0: 2137 7b3c 3dc4 1b3c 4b9d 8fbb faba d9bb
00000200: d719 c43c d6a0 2dbb af2f 97bc a3a9 25bb
00000210: ef52 adbb 90c9 e53b 30de bcbb 13a3 76bc
00000220: 0816 bebc 0b7d 153b 9bc0 77bb b00e d4bb
00000230: 7b81 d3bb f882 c23c 14dc 8e3c 6f79 16bb
00000240: c44a 09bb 67a1 313b fc70 80bc 1689 50bc
00000250: aec6 173c 415d 883a 5acc 5cbc 1767 c13c
00000260: 9a50 e8bb 7f46 523c 0511 15bc 44f4 103c
00000270: f18f a93b ada3 763b aa92 1e3c 96e8 95bc
00000280: dccc d0bc e9e0 3e3b be04 123c 1879 713c
00000290: 0947 b3ba a56a 1abc 6571 cebb 47ca d43c
000002a0: 30f9 6d3c 41d5 823b 247b 87bb 9d8e 32bc
000002b0: 0cff 89bc 7deb 593c c0c4 0a3c 86c7 d9bc
000002c0: d8c6 c0bb 0553 3ebb e034 5b3c 32d1 273d
000002d0: d5b2 ee3b 1d5d 44bc 4f2f a93b 6aca 913b
000002e0: a63b 8ebc 96be 2cbc ee9e c3bb d43d 003d
000002f0: b01c 7e3c e151 1d3b 7ab2 c23c e6e8 c7bc
00000300: d380 2e3d 8560 61bb e07f c93c 268a 26bc
00000310: 4fc6 bbb7 8ff5 dcbc 4629 583b 0409 b1ba
00000320: 3b76 503d 1229 103c e4dc 06bc 1a81 f9bb
00000330: 3c45 0bbc fc55 3dbc 83ad 713c 4d66 c9bc
00000340: 5cc9 1bbc 1373 5ebb bf9e 883b da5a 70ba
00000350: 2237 163c 9bbb 08bc 690e f93c 8d05 24bc
00000360: 063d 083c 39e8 d03c 8b28 48bc 326e 223c
00000370: 5b2a 0f3c ba6e 1e3c 1da2 8dbc cbc0 973c
00000380: c256 d43c 2fdd 5e3d f258 ea3b 97b4 4cbc
00000390: a148 61bc 9ddb 82bc 723a af3c 0156 dabb
000003a0: ff09 8a3a 9a66 383b c8a7 1ebc 2b59 e43b
000003b0: 82d8 95bc a1b9 10bc 33cf 66bc 8b54 cebb
000003c0: 8518 7cbb 9902 0d3b 6555 7cba 664c 91bc
000003d0: bb13 1fb7 887d 973a a284 6a3c 71a9 993c
000003e0: 869b 8e3d 40f5 dd3c 0e66 8a38 c558 f63c
000003f0: 1a6a c9bc 7fbf 2cbc 0fe5 bd3c 625d 893c

action_model._continuous_distribution.log_sigma.bias f4 [2]
-0.037514567 -0.037809163
00000000: e0a8 19bd c8dd 1abd

action_model._discrete_distribution.branches.0.weight f4 [2, 256]
-0.041137613 0.059251 0.011317771 -0.018889183 -0.0039722873 0.013577023 -0.011692718 0.006506139
-0.02655649 -0.011308541 -0.01896729 0.012420605 -0.016694473 -0.008513578 -0.025442654 -0.012747198
-0.034999736 -0.00878651 -0.007445768 0.0008515164 0.002014604 -0.0004166068 0.021841286 -0.023952736
0.062639266 0.032123175 -0.004283567 -0.011870721 -0.02713834 6.295525e-05 0.013216321 -0.01960241
0.018666742 -0.012680858 -0.06230198 -0.008883541 0.10068305 0.00937325 0.026912332 0.07817345
0.0011877944 0.010861209 0.011995268 0.014436814 -0.0025362957 -0.02058835 -0.010275294 0.03723331
-0.021756902 -0.028756276 0.017910063 -0.017994352 -0.022911578 -0.0015985847 0.002402783 -0.004655601
0.014248669 0.027925534 0.005337719 0.005139236 -0.003150104 -0.0421914 -0.056505863 0.013060346
0.066025265 -0.013985413 0.072328985 -0.0009243945 0.07276196 0.10869653 0.0135451555 -0.06015397
0.038975324 0.0524518 0.0063967924 -0.015876243 0.0029220278 0.012352717 -0.030387543 -0.019794893
0.024832698 -0.022413084 -0.04541869 0.013716857 0.05982182 0.0016467373 0.02521705 0.0123757245
-0.033940148 -0.005071094 -0.0021877165 -0.011268082 -0.008623837 -0.015110461 0.046231285 0.0105051445
-0.0041957055 -0.018803604 -0.0066019366 0.022142218 0.00471386 0.0027218156 -0.0034166882 0.057943255
-0.03676574 -0.0046427874 0.016300404 -0.0003053432 -0.0013287996 -0.061200015 -0.006656482 -0.0050421227
0.08540211 0.016976068 -0.018442146 -0.023682766 0.0443591 -0.014992711 0.053748727 0.025596179
-0.0016226255 -0.0004027265 -0.00047628288 -0.007006796 0.0035617116 -0.025204876 -0.04448496 -0.05133359
0.0706841 -0.05255037 -0.0044571045 -0.0043500965 -0.025665388 -0.0059710275 0.02832285 -0.006163293
0.0009997808 0.0015908043 -0.029026208 0.062787734 0.00016927588 -0.019287163 0.09478062 0.020172505
-0.011583557 0.01190191 -0.026924182 -0.0010940137 -0.0054131383 0.0020488782 -0.0025476713 0.022758901
-0.015742647 -0.0100472765 0.024625525 0.0014967701 -0.052285776 0.038750585 0.0466436 -0.019349352
-0.001999459 -0.0005233452 -0.020518955 0.045599386 0.012446997 -0.025146859 -0.06007329 0.010758497
0.011951298 -0.009789972 0.0018058878 -0.026638336 0.037724923 -0.025770476 0.021948038 0.012299698
-0.06916632 -0.01637321 -0.03559651 0.012158835 -0.008867757 -0.041595306 -0.011886964 0.005158494
0.0974563 -0.0082103005 -0.021610606 -0.013201271 0.008214507 -0.012219496 -0.0069752554 -0.0520962
-0.0024839558 0.03158368 -0.01363456 -0.012554333 -0.009993417 -0.0051849806 -0.033571478 0.076812774
0.008857961 -0.0044581927 0.028506327 0.011005199 0.0012089883 -0.0001608117 0.039040357 -0.009276835
0.0026451836 -0.030891124 -0.006274562 0.056357946 -0.008297484 -0.027894882 0.009934559 0.031114494
0.01882224 0.019718278 -0.0024508357 0.01610213 -0.010415053 -0.0010422453 -0.010404002 -0.042440012
-0.0028702838 0.020253692 -0.025514156 -0.020711169 -0.06263952 -0.015295077 0.027739467 -0.07319156
-0.023081878 0.021411043 -0.017774789 0.03834698 0.0067747245 0.029624803 0.021163302 -0.053653535
-0.026719926 0.024189249 -0.007525241 -0.025497822 0.1086151 -0.056447934 -0.01590461 -0.015863193
0.013464835 0.035205126 0.0061370353 0.015674673 -0.034477554 -0.010108751 -0.001427243 0.032960363
00000000: ea7f 28bd 2db1 723d 2c6e 393c 7dbd 9abc
00000010: f629 82bb 2972 5e3c d092 3fbc 7331 d53b
00000020: ff8c d9bc 7547 39bc 4a61 9bbc cb7f 4b3c
00000030: d9c2 88bc 897c 0bbc 1d6d d0bc a0d9 50bc
00000040: e25b 0fbd 4bf5 0fbc a1fb f3bb 4c38 5f3a
00000050: 7207 043b 056c dab9 7fec b23c 8738 c4bc
00000060: 0449 803d 9793 033d 2a5d 8cbb 6a7d 42bc
00000070: 3951 debc d806 8438 4589 583c 3c95 a0bc
00000080: ffea 983c 60c3 4fbc 5c30 7fbd 468c 11bc
00000090: ea32 ce3d 4392 193c 4077 dc3c 6719 a03d
000000a0: c4af 9b3a 36f3 313c cd87 443c 6388 6c3c
000000b0: fb37 26bb e6a8 a8bc b559 28bc f581 183d
000000c0: 883b b2bc 4892 ebbc 20b8 923c e468 93bc
000000d0: 10b1 bbbc 9a87 d1ba 0278 1d3b 038e 98bb
000000e0: 4073 693c 17c4 e43c 08e8 ae3b 0967 a83b
000000f0: fa71 4ebb e4d0 2cbd b172 67bd 10fb 553c
00000100: 4138 873d 1323 65bc 3821 943d 1153 72ba
00000110: 3904 953d 499c de3d 80ec 5d3c 0264 76bd
00000120: 97a4 1f3d b3d7 563d 2f9c d13b e50e 82bc
00000130: 7e7f 3f3b 0d63 4a3c 4cef f8bc e628 a2bc
00000140: f16d cb3c a59b b7bc f308 3abd abbc 603c
00000150: ba07 753d 56d7 d73a fd93 ce3c 8dc3 4a3c
00000160: d304 0bbd 6b2b a6bb cb5f 0fbb c39d 38bc
00000170: fe4a 0dbc de91 77bc 045d 3d3d c51d 2c3c
00000180: 217c 89bb 040a 9abc 0f55 d8bb 9963 b53c
00000190: b976 9a3b 7d60 323b 84ea 5fbb e855 6d3d
000001a0: ac97 16bd 8622 98bb 6d88 853c 7816 a0b9
000001b0: 1e2b aeba deac 7abd 9e1e dabb 6438 a5bb
000001c0: 4de7 ae3d 6511 8b3c fc13 97bc 5c02 c2bc
000001d0: e3b1 353d fda3 75bc a027 5c3d 14af d13c
000001e0: 47ae d4ba 0925 d3b9 9bb5 f9b9 4499 e5bb
000001f0: 9b6b 693b 757a cebc dd35 36bd 2c43 52bd
00000200: d3c2 903d 0f3f 57bd e70c 92bb 418b 8ebb
00000210: 3840 d2bc 9ca8 c3bb 5205 e83c 73f5 c9bb
00000220: 140b 833a 8982 d03a 5fc8 edbc db96 803d
00000230: a67f 3139 1d00 9ebc 571c c23d cf40 a53c
00000240: f6c8 3dbc 3b00 433c 1a90 dcbc 0265 8fba
00000250: b260 b1bb 7946 063b d5f6 26bb e070 ba3c
00000260: b9f6 80bc 559d 24bc 78bb c93c 452f c43a
00000270: 9c29 56bd efb8 1e3d 5c0d 3f3d 8882 9ebc
00000280: 5b09 03bb 1a31 09ba 5e17 a8bc 6cc6 3a3d
00000290: 7dee 4b3c c900 cebc 690f 76bd 6844 303c
000002a0: 61cf 433c 1e66 20bc 8ab3 ec3a a438 dabc
000002b0: 7385 1a3d 9b1c d3bc 5fcc b33c ac84 493c
000002c0: 12a7 8dbd 1c21 86bc a5cd 11bd da35 473c
000002d0: 124a 11bc d75f 2abd 8ac1 42bc 9608 a93b
000002e0: 2b97 c73d 7f84 06bc ba08 b1bc 254a 58bc
000002f0: 2496 063c 4834 48bc af90 e4bb d362 55bd
00000300: ddc9 22bb e45d 013d 7d63 5fbc b0b0 4dbc
00000310: 6ebb 23bc c5e6 a9bb 3f82 09bd 0450 9d3d
00000320: fb20 113c 0816 92bb 1a86 e93c 264f 343c
00000330: ea76 9e3a 909f 28b9 c8e8 1f3d defd 17bc
00000340: d15a 2d3b 620f fdbc d79a cdbb 97d7 663d
00000350: 2cf2 07bc cf83 e4bc 90c4 223c d3e3 fe3c
00000360: 1931 9a3c 3a88 a13c 339e 20bb 9de8 833c
00000370: e6a3 2abc f39b 88ba 8c75 2abc 94d5 2dbd
00000380: 5f1b 3cbb 12eb a53c 1003 d1bc 78aa a9bc
00000390: 2649 80bd 3498 7abc e13d e33c 75e5 95bd
000003a0: 3516 bdbc 3666 af3c 6f9c 91bc b911 1d3d
000003b0: 82fe dd3b b7af f23c a95e ad3c cfc3 5bbd
000003c0: bfe3 dabc 8828 c63c 4c96 f6bb cfe0 d0bc
000003d0: 9871 de3d f335 67bd 624a 82bc 87f3 81bc
000003e0: 9c9b 5c3c 4033 103d 2f19 c93b 2c68 803c
000003f0: 5638 0dbd 2d9f 25bc 5412 bbba 7201 073d

action_model._discrete_distribution.branches.0.bias f4 [2]
-0.011464491 0.011464422
00000000: 8fd5 3bbc 45d5 3b3c
