results/Charge3/Charge/Charge-8449655.onnx (onnx, 289373 bytes, 10 tensors)

network_body._body_endoder.seq_layers.0.weight f4 [256, 12]
0.32493764 0.12300911 -0.85506856 0.20997475 0.40612957 0.09370078 -0.12466841 -0.4664928
-0.8332713 -0.27658454 0.9939256 -0.8083543 0.69368756 0.19380644 -0.016747555 0.4083947
0.8953095 0.7272592 -0.19763544 0.4909861 -0.42128375 0.0970614 0.59471124 -0.05924774
-0.21336228 -0.2639035 0.112214126 0.036794104 -0.6477344 -2.612743 0.43340912 -0.026661912
-0.28096724 0.09210915 -0.96805966 1.1508727 0.2950858 0.69989026 0.14722006 0.38117236
0.49761465 0.009955173 -0.91844684 0.49228558 -1.2840109 0.2421659 -0.54255307 0.44775465
-0.40798792 0.2861457 0.4079377 -0.048178524 0.14469379 -0.16118076 -0.62282157 0.16336219
-0.37861416 0.126086 -0.31713632 0.08149513 -0.5081929 -0.32777876 -0.5309061 0.2914608
0.2682753 0.010522226 -0.16754538 0.6382484 -0.48392805 0.34659922 -0.086854436 0.27142525
-0.13240151 -0.23832425 0.12098335 0.044454228 -2.0883777 0.21668747 -0.19554745 0.45614016
0.02878612 0.015214373 -0.47019467 0.9196084 -0.019472513 0.502188 0.18992494 0.29638174
0.030806607 0.09056441 -0.6693494 0.36474052 0.7614772 0.476595 -0.6866539 -1.7652826
0.23144306 -0.38329798 -0.07700724 0.039387956 -0.14483926 -1.2343752 0.10886375 0.060222965
1.9105216 0.08806951 -0.011889477 1.0404481 -0.28069168 -0.017056327 0.00076117704 0.581582
0.97552896 -0.7281604 0.111034356 0.954199 0.5951021 0.21435636 -0.4592956 -1.7695473
0.15553543 0.118352205 0.21768059 0.34896708 -0.09351156 0.5255123 0.0055885725 -0.003690095
-1.2135606 0.7530799 -1.0452708 0.6009 -0.036665373 -0.008662519 0.38235694 -0.19017911
-0.16389245 -0.26986486 -1.0607744 -0.7025682 0.28979227 -0.02931998 -0.40408206 0.6281166
0.20472318 -0.48371086 -0.42474324 0.59608746 -0.12705503 -0.28894386 0.15735051 -0.66556644
-1.6276051 -0.25445876 -0.09826378 -1.3279583 -0.86691326 -0.19758938 -0.6755749 0.50088835
-1.4752856 -0.75512004 0.3289335 0.05653717 -0.38856295 0.34004477 -0.21907434 -0.31734437
0.7087087 0.72141826 -0.41485956 0.88742435 0.026986467 -0.37259912 0.59030586 0.079691626
-0.5356834 -0.23446406 0.7579594 -1.8747934 -0.011427244 0.066559725 -0.27731568 0.077542305
0.7864195 0.44770235 0.515181 0.021251712 -0.27240416 -0.06288074 -0.62769884 -0.4176583
0.9245721 -0.09438467 0.13722584 0.5607324 -0.029430006 0.976076 0.058451008 0.13069935
-0.85670006 -0.16535722 -0.34585664 -0.7702974 -0.25368798 0.7240854 -0.28511155 -0.48645845
-0.006723142 -0.393709 -0.08253883 -0.24228908 -0.9402971 -0.1507895 0.0017279716 0.3589045
0.1320815 -0.79645133 -0.5836787 0.44221032 0.7075471 -0.2139616 -0.05051317 0.08059491
0.1589814 0.03354602 0.18753998 -1.6319107 0.092073865 0.8109299 -0.28832883 0.2760513
0.21679763 0.98452854 -0.22258928 -0.35142627 -1.6934638 -0.13462916 -0.21126193 0.16111591
0.578055 0.65363944 -0.3353709 -0.11880291 0.22090565 -0.74139607 0.05128224 0.17822494
0.72226024 -0.20152617 0.23996392 -0.97843415 0.078974314 -0.04700163 0.26619655 -0.022997925
00000000: 3a5e a63e 33ec fb3d c6e5 5abf 9f03 573e
00000010: 37f0 cf3e 32e6 bf3d 2752 ffbd 25d8 eebe
00000020: 4551 55bf 7d9c 8dbe e871 7e3f 4ff0 4ebf
00000030: 8295 313f 3275 463e 2b32 89bc 1c19 d13e
00000040: 0133 653f a92d 3a3f f260 4abe 8862 fb3e
00000050: 81b2 d7be 21c8 c63d ff3e 183f c2ad 72bd
00000060: a47b 5abe 5c1e 87be 85d0 e53d 6ab5 163d
00000070: ecd1 25bf 2e37 27c0 cde7 dd3e 156a dabc
00000080: f0da 8fbe b9a3 bc3d c2d2 77bf cc4f 933f
00000090: 7c15 973e 022c 333f dbc0 163e 0629 c33e
000000a0: 59c7 fe3e 061b 233c 551f 6bbf db0c fc3e
000000b0: 785a a4bf 56fa 773e c2e4 0abf 1940 e53e
000000c0: cbe3 d0be b081 923e 36dd d03e d856 45bd
000000d0: 9c2a 143e 920c 25be 3c71 1fbf 6b48 273e
000000e0: b7d9 c1be b01c 013e b15f a2be ebe6 a63d
000000f0: ee18 02bf 9ed2 a7be 76e9 07bf 5a3a 953e
00000100: 615b 893e 6a65 2c3c 0491 2bbe 3f64 233f
00000110: 6bc5 f7be 7475 b13e bde0 b1bd 40f8 8a3e
00000120: 4394 07be 460b 74be 1ec6 f73d a315 363d
00000130: fba7 05c0 52e3 5d3e 973d 48be 348b e93e
00000140: ded0 eb3c b545 793c 5bbd f0be 756b 6b3f
00000150: d284 9fbc 658f 003f af7b 423e 59bf 973e
00000160: 235e fc3c d579 b93d 7b5a 2bbf 45bf ba3e
00000170: 2bf0 423f 4304 f43e 8dc8 2fbf c8f4 e1bf
00000180: 69ff 6c3e a23f c4be f9b5 9dbd 4455 213d
00000190: be50 14be 0200 9ebf f5f3 de3d 5bac 763d
000001a0: f98b f43f ca5d b43d 15cc 42bc 672d 853f
000001b0: d2b6 8fbe b6b9 8bbc ba89 473a 8fe2 143f
000001c0: 44bc 793f b868 3abf fb65 e33d 6346 743f
000001d0: 9c58 183f 3c80 5b3e cb28 ebbe 8780 e2bf
000001e0: ae44 1f3e a462 f23d a9e7 5e3e d0ab b23e
000001f0: fd82 bfbd f987 063f 5820 b73b 85d5 71bb
00000200: f455 9bbf d8c9 403f 6fcb 85bf 95d4 193f
00000210: 6e2e 16bd 3ded 0dbc 4ac4 c33e 50be 42be
00000220: 6cd3 27be ba2b 8abe 75c7 87bf 82db 33bf
00000230: a75f 943e 7430 f0bc d8e3 cebe 40cc 203f
00000240: f4a2 513e f3a8 f7be f277 d9be 3099 183f
00000250: b71a 02be 73f0 93be 7e20 213e 9062 2abf
00000260: 5d55 d0bf 6b48 82be 853e c9bd 8afa a9bf
00000270: 07ee 5dbf df54 4abe 7af2 2cbf 383a 003f
00000280: 29d6 bcbf 8c4f 41bf f969 a83e 8593 673d
00000290: b9f1 c6be 591a ae3e 0655 60be f67a a2be
000002a0: ef6d 353f deae 383f 7968 d4be 3e2e 633f
000002b0: b912 dd3c 50c5 bebe 491e 173f 5d35 a33d
000002c0: 8c22 09bf 5917 70be a109 423f 3bf9 efbf
000002d0: 5639 3bbc 7750 883d 52fc 8dbe 80ce 9e3d
000002e0: ca52 493f 3e39 e53e e7e2 033f 1218 ae3c
000002f0: 8f78 8bbe 9ec7 80bd dfb0 20bf 4fd7 d5be
00000300: c2b0 6c3f c04c c1bd ee84 0c3e 298c 0f3f
00000310: 3217 f1bc 1ee0 793f 536a 6f3d 0dd6 053e
00000320: b250 5bbf 6753 29be 1f14 b1be 3632 45bf
00000330: 64e3 81be a95d 393f 24fa 91be 1511 f9be
00000340: ce4d dcbb 3a94 c9be 1e0a a9bd a11a 78be
00000350: 50b7 70bf 9068 1abe 1b7d e23a 55c2 b73e
00000360: 5f40 073e 3ce4 4bbf f86b 15bf 6469 e23e
00000370: cf21 353f c018 5bbe e6e6 4ebd f20e a53d
00000380: 05cc 223e 8d67 093d 7b0a 403e 73e2 d0bf
00000390: 3991 bc3d 1a99 4f3f d69f 93be 9956 8d3e
000003a0: 3300 5e3e 100a 7c3f 72ee 63be 25ee b3be
000003b0: 6cc3 d8bf 3adc 09be 0c55 58be 92fb 243e
000003c0: 6afb 133f ea54 273f bcb5 abbe f14e f3bd
000003d0: 1735 623e 22cc 3dbf 530d 523d 9980 363e
000003e0: 0ce6 383f e05c 4ebe 1ab9 753e a97a 7abf
000003f0: 49bd a13d c884 40bd ea4a 883e 2566 bcbc

network_body._body_endoder.seq_layers.0.bias f4 [256]
0.053214356 -0.14304917 0.062770195 -0.8417521 -0.32478037 0.14289047 -0.50357336 -0.32971781
-0.29827136 0.104976065 -0.15792687 0.038664937 -0.3574647 -0.15538782 0.16527173 0.3116333
-0.52737033 0.039958313 -0.08282999 -0.10727917 0.14541695 -0.86893153 -0.45010987 -0.28914848
-0.43151507 0.006826505 -0.93937564 0.024247002 -0.30059314 0.22385271 -0.48671928 -0.21004498
-0.28750053 -0.024575243 -0.09730151 0.6330591 -0.15662137 0.037940815 0.022506054 -0.8255301
-0.04437091 0.3553201 -0.15962896 -0.16860592 0.28523558 -0.45103627 -0.32604212 -0.6564138
0.11720616 -0.43645117 0.15507829 -0.458403 -0.28190503 -0.098174475 0.34937727 0.120780095
-0.28906476 -0.75645095 -0.24799517 -0.035081327 0.07975399 -0.13803807 -0.0961447 0.15245387
0.21459334 0.12713432 -0.21607251 -0.35887316 0.041325048 -0.0572163 -0.2972026 -0.23442663
-1.0457635 -0.07056037 -0.5783544 -0.41889933 0.60984886 0.5123938 -0.09333451 -0.076176964
-0.012512073 -0.5006271 -0.16711861 -0.36655575 -0.39303416 -0.21195444 -0.061822817 0.003583032
-0.47854555 -0.2680337 -0.6947638 -0.40654483 -0.37687933 -0.43851277 -0.7131995 -0.5764485
-0.09610636 0.03199334 -0.23612906 -0.124016896 -0.45112148 -0.15940315 -0.21681656 0.15397021
0.272368 -0.21476912 -0.025401222 -0.5386642 -0.01562357 -0.055959348 -0.7219753 0.2565773
-0.45473853 -0.49050525 0.27973887 0.021097718 -0.39958498 -0.61856955 0.33882347 -0.13880919
0.11470364 0.93952155 -0.6526377 -0.10017021 0.87614447 0.089163065 0.10509797 -0.15932404
0.313549 -1.0554988 -0.17172992 0.4768424 -0.36766103 0.24231131 -0.15637419 -0.059972286
0.5264466 -0.29546458 -0.014494358 -0.35374436 0.17224708 -0.39525977 0.35441443 0.27097917
-0.2711839 0.5966239 0.1489601 0.24573982 -0.5881403 -0.059442516 -0.48613036 -0.35183504
-0.26305595 -0.028438378 -0.36834088 0.17468375 -0.3727832 0.42952162 -0.27025723 -0.11498648
-0.5706712 0.4193526 -0.6690865 0.23795664 0.21201706 -0.5724486 -0.3177229 -0.14403038
0.15415332 -0.6661465 -0.5935061 0.11567652 -0.46475622 -0.69651115 0.5078967 -0.39477497
0.16079043 -0.008401273 -0.5758022 -0.30557954 0.49454245 -0.12556894 -0.22795859 -0.42069936
-0.984193 -0.112159885 0.41352364 -0.39591634 0.58610576 -0.06581905 0.44943747 0.7642096
-0.188513 -0.11979593 -0.08657371 -0.23580693 -0.16106619 -0.3872609 0.18433264 -0.1063405
-0.068060346 -0.44707868 -0.16748711 -0.054452322 -0.058930293 -0.72425735 -0.25261942 0.030240988
-0.43936017 -0.079530604 -0.020637477 -0.30923763 0.010857006 0.02556489 -0.14972089 0.15239856
0.096066624 0.013912616 0.35938826 -0.3383056 -0.4348637 -0.020641474 -0.41682836 0.078583844
-0.13100135 -0.08087084 -0.14919944 -0.69221413 0.036396444 -0.68115926 -0.39475828 -0.22653174
0.23991078 0.6418626 0.30637032 -0.54183555 -0.6023691 -0.30766684 -0.3349108 -0.26525313
0.23270187 0.39642662 -0.9425157 0.13540493 -0.18457803 -0.7360175 -0.061892226 -0.7067423
-0.16984418 -0.046834957 0.19477579 -0.3772913 -0.0049665 0.15323664 -0.5138473 -0.7682299
00000000: 4cf7 593d 7b7b 12be a98d 803d 117d 57bf
00000010: 9d49 a6be e151 123e 2fea 00bf c6d0 a8be
00000020: 06b7 98be b1fd d63d 95b7 21be 205f 1e3d
00000030: 9d05 b7be fc1d 1fbe fe3c 293e 668e 9f3e
00000040: be01 07bf 54ab 233d c5a2 a9bd 2eb5 dbbd
00000050: 2ee8 143e 4c72 5ebf cd74 e6be 450b 94be
00000060: 8bef dcbe e0b0 df3b ec7a 70bf a6a1 c63c
00000070: 58e7 99be a539 653e 4533 f9be 0816 57be
00000080: 4533 93be 0552 c9bc 0446 c7bd 2910 223f
00000090: 5a61 20be d467 1b3d 9e5e b83c f155 53bf
000000a0: 45be 35bd 84ec b53e c675 23be 08a7 2cbe
000000b0: 660a 923e 3aee e6be feee a6be bc0a 28bf
000000c0: c909 f03d 8776 dfbe d8cc 1e3e ccb3 eabe
000000d0: db55 90be b30f c9bd 94e1 b23e 8e5b f73d
000000e0: 4c00 94be c5a6 41bf 72f2 7dbe 70b1 0fbd
000000f0: 0f56 a33d da59 0dbe 83e7 c4bd de1c 1c3e
00000100: 5bbe 5b3e 802f 023e 1d42 5dbe 39be b7be
00000110: 7444 293d a45b 6abd f02a 98be 890d 70be
00000120: 94db 85bf f581 90bd 090f 14bf f979 d6be
00000130: 0e1f 1c3f 3d2c 033f 2a26 bfbd ab02 9cbd
00000140: 70ff 4cbc 1929 00bf 2421 2bbe 32ad bbbe
00000150: c63b c9be 960a 59be ec39 7dbd 4dd1 6a3b
00000160: ec03 f5be b73b 89be 0adc 31bf a526 d0be
00000170: 54f6 c0be bf84 e0be 3e94 36bf 2192 13bf
00000180: 69d3 c4bd 730b 033d d1cb 71be 92fc fdbd
00000190: 65f9 e6be 943a 23be 2905 5ebe 5eaa 1d3e
000001a0: d273 8b3e 70ec 5bbe 3916 d0bc e6e5 09bf
000001b0: 01fa 7fbc a135 65bd 60d3 38bf 1a5e 833e
000001c0: 7dd3 e8be 8123 fbbe ef39 8f3e 1fd5 ac3c
000001d0: 6796 ccbe 935a 1ebf 457a ad3e ff23 0ebe
000001e0: bee9 ea3d 7c84 703f 4413 27bf 0a26 cdbd
000001f0: 014b 603f 209b b63d 9b3d d73d d725 23be
00000200: 7f89 a03e 961a 87bf f8d9 2fbe b024 f43e
00000210: 113e bcbe 7520 783e 8e20 20be 80a5 75bd
00000220: 34c5 063f 2247 97be be79 6dbc fb1d b5be
00000230: 8a61 303e 7d5f cabe cf75 b53e c8bd 8a3e
00000240: 9ed8 8abe 58bc 183f ff88 183e 38a3 7b3e
00000250: 5d90 16bf ff79 73bd 14e6 f8be b923 b4be
00000260: 45af 86be 9af7 e8bc 2d97 bcbe 4ce0 323e
00000270: 71dd bebe 42ea db3e 285f 8abe 087e ebbd
00000280: 8217 12bf 62b5 d63e 4149 2bbf e8aa 733e
00000290: 001b 593e fe8b 12bf 93ac a2be b37c 13be
000002a0: 5eda 1d3e 9488 2abf 04f0 17bf d0e7 ec3d
000002b0: 87f4 edbe 8e4e 32bf 8505 023f f21f cabe
000002c0: 3fa6 243e 7ea5 09bc c667 13bf ec74 9cbe
000002d0: ab34 fd3e 2595 00be fa6d 69be e865 d7be
000002e0: 13f4 7bbf 15b4 e5bd 5fb9 d33e 8cb5 cabe
000002f0: 070b 163f 23cc 86bd ab1c e63e 3ea3 433f
00000300: 8d09 41be 9257 f5bd 8f4d b1bd 5f77 71be
00000310: 89ee 24be 1047 c6be b2c1 3c3e 0cc9 d9bd
00000320: 3963 8bbd 7fe7 e4be be81 2bbe 6609 5fbd
00000330: e460 71bd ee68 39bf 5557 81be f3bb f73c
00000340: d1f3 e0be f1e0 a2bd ed0f a9bc 6554 9ebe
00000350: 95e1 313c 766d d13c 6f50 19be 5e0e 1c3e
00000360: 94be c43d bef1 633c bd01 b83e 6436 adbe
00000370: 74a6 debe 4f18 a9bc 876a d5be 91f0 a03d
00000380: 3825 06be 9c9f a5bd bdc7 18be f234 31bf
00000390: 7014 153d 7460 2ebf c21d cabe f0f7 67be
000003a0: 2cab 753e 1b51 243f 92dc 9c3e bcb5 0abf
000003b0: dd34 1abf 8286 9dbe 6e79 abbe 42cf 87be
000003c0: 6649 6e3e 6ef8 ca3e b548 71bf 97a7 0a3e
000003d0: 0602 3dbe a56b 3cbf b482 7dbd 10ed 34bf
000003e0: a2eb 2dbe 03d6 3fbd 4e73 473e 532c c1be
000003f0: 06be a2bb 11ea 1c3e 7f8b 03bf b7aa 44bf

network_body._body_endoder.seq_layers.2.weight f4 [256, 256]
-0.0034874082 -0.08564322 0.12012057 -0.14735417 0.046843395 0.35935482 -0.16698562 0.06508168
0.20961268 -0.07710365 0.18797326 0.014061235 0.35040203 -0.01980314 -0.025744686 -0.12957375
-0.21672948 0.02077248 0.24366236 0.10894119 0.3518128 -0.037066635 0.0006892623 0.22048295
-0.07478482 -0.017677912 0.17832732 0.0280712 -0.2368019 -0.4142071 0.08938087 -0.027427744
-0.11408024 0.06870603 -0.094629146 -0.034346707 0.11439964 0.22185813 -0.004006247 0.060139775
-0.06130109 -0.10657534 0.04380031 0.33255106 -0.5997928 0.04437108 0.12340968 -0.16999637
-0.033363868 -0.50861186 -0.13612856 -0.11907566 -0.14173067 -0.067983426 -0.123397134 0.029300077
0.07323631 0.11226872 -0.098704286 0.052466877 -0.019997373 -0.0509825 0.112760924 0.11319944
-0.01868292 -0.056817763 -0.14195456 -0.33070993 -0.059806507 0.17232226 0.38210475 -0.026359178
0.043422475 -0.11923717 0.18690659 0.006544371 0.14993201 0.040506717 0.037677757 0.13386294
0.1208302 -0.2206593 -0.10366013 -0.043015856 -0.07611279 0.34789446 0.049149312 0.15969467
-0.16643895 -0.0004987373 0.09421498 -0.05789286 0.1779515 -0.020571202 -0.026061777 0.06607889
-0.09545444 0.18592422 0.13937005 0.25525156 0.102354854 0.20025602 0.13601467 0.24319455
-0.1611877 -0.19623278 -0.0069391653 0.05694387 -0.20584975 0.015048024 -0.0064796032 -0.030033614
0.110591166 -0.011378794 -0.026970332 -0.13370982 0.10734398 0.06581251 0.10722662 0.0014136151
-0.012729828 -0.15058829 0.27344865 -0.0739791 -0.19290464 -0.05247923 0.045976404 -0.090854794
-0.021155665 -0.05561557 0.25409982 -0.06756648 0.10320954 0.005234258 0.14257364 0.12269111
-0.2170807 0.13921623 0.33002824 -0.078876905 0.15677986 -0.14009815 0.11481971 0.28221983
0.124514475 0.17854123 -0.13571139 -0.062036 0.34567785 -0.078966066 -0.06106264 0.2951809
0.20907596 0.013469075 0.16773304 0.13298428 0.14148363 -0.14492293 0.18884704 0.019628966
-0.03404644 0.54896384 -0.050813537 -0.19905274 0.080275476 -0.16137928 0.026835227 0.20344676
-0.29143536 -0.3118612 -0.1132594 0.049141917 -0.026061332 0.0015894278 0.092182316 -0.20070809
0.08911266 -0.11000716 -0.15868941 -0.0780766 -0.039019015 0.15769777 -0.4424416 -0.00088412774
0.019936368 0.16508113 0.08890309 0.13543634 -0.10464882 0.21615735 0.110217825 -0.3256117
-0.35655525 -0.0043284656 -0.064968936 0.07182069 0.010691154 -0.2688209 0.09307397 -0.13768171
0.20897076 0.04041497 0.2121029 0.15923999 0.24302614 0.053966194 0.17057122 -0.034191366
0.088859 0.41710395 0.22613998 -0.07973547 0.12607005 0.0061965557 0.07674996 -0.20171311
0.11113923 -0.09714187 0.17957596 -0.120418884 -0.18227886 -0.09784559 0.104104996 0.19666412
0.02162477 -0.031980406 0.15683392 -0.06708995 -0.19126628 0.18540528 0.07465167 0.31229416
0.19796234 -0.06605625 -0.14715186 -0.024281248 0.06488858 -0.12775198 0.1849633 -0.026642876
0.37358668 0.00024064991 0.09615321 -0.0032821381 0.16612738 0.205714 -0.011903268 -0.033335898
0.1696443 0.05604289 0.13205051 0.2294604 -0.38746443 0.2228028 -0.12851182 -0.019144678
00000000: 008d 64bb b665 afbd c601 f63d 03e4 16be
00000010: dcde 3f3d 5bfd b73e 47fe 2abe 8b49 853d
00000020: b5a4 563e 85e8 9dbd 107c 403e 1861 663c
00000030: e567 b33e 323a a2bc 85e6 d2bc fbae 04be
00000040: 55ee 5dbe 0c2b aa3c a082 793e 8f1c df3d
00000050: cf20 b43e 2fd3 17bd 9caf 343a 48c6 613e
00000060: c928 99bd 45d1 90bc 709b 363e 93f5 e53c
00000070: 337c 72be f412 d4be 510d b73d 26b0 e0bc
00000080: e7a2 e9bd bfb5 8c3d edcc c1bd 22af 0cbd
00000090: 5c4a ea3d c72e 633e d646 83bb 2055 763d
000000a0: da16 7bbd 2c44 dabd f467 333d 2244 aa3e
000000b0: 058c 19bf 73be 353d 37be fc3d 8713 2ebe
000000c0: 8da8 08bd 6334 02bf 4965 0bbe f1dd f3bd
000000d0: d821 11be e53a 8bbd a3b7 fcbd b706 f03c
000000e0: ebfc 953d 25ed e53d 7925 cabd 82e7 563d
000000f0: 88d1 a3bc 07d3 50bd 33ef e63d 1cd5 e73d
00000100: ec0c 99bc beb9 68bd 895c 11be d052 a9be
00000110: abf7 74bd 3f75 303e 3ca3 c33e 34ef d7bc
00000120: c4db 313d 9e32 f4bd 7164 3f3e 2a72 d63b
00000130: c787 193e 5fea 253d fe53 1a3d 5e13 093e
00000140: d375 f73d 83f4 61be c34b d4bd 6531 30bd
00000150: 06e1 9bbd 391f b23e ca50 493d 0087 233e
00000160: f96e 2abe b2bd 02ba c9f3 c03d 1021 6dbd
00000170: eb38 363e f084 a8bc 827f d5bc 5e54 873d
00000180: 9e7d c3bd eb62 3e3e 06b7 0e3e 55b0 823e
00000190: 6c9f d13d ea0f 4d3e 6e47 0b3e fe07 793e
000001a0: 630e 25be 3ff1 48be f061 e3bb fa3d 693d
000001b0: 47ca 52be fd8b 763c da52 d4bb 0e09 f6bc
000001c0: 9f7d e23d 1f6e 3abc e3f0 dcbc 3aeb 08be
000001d0: 29d7 db3d b6c8 863d a199 db3d 0d49 b93a
000001e0: c590 50bc d133 1abe 7601 8c3e 5b82 97bd
000001f0: cb88 45be 76f4 56bd c151 3c3d 1412 babd
00000200: a54e adbc 27cd 63bd 5f19 823e 4b60 8abd
00000210: 865f d33d 2384 ab3b d3fe 113e 7a45 fb3d
00000220: 674a 5ebe b38e 0e3e 76f9 a83e 378a a1bd
00000230: e68a 203e e475 0fbe 9926 eb3d 1e7f 903e
00000240: 7201 ff3d 83d3 363e edf7 0abe 7619 7ebd
00000250: b0fc b03e f6b8 a1bd d21c 7abd f321 973e
00000260: 0218 563e 65ad 5c3c 36c2 2b3e 082d 083e
00000270: 16e1 103e ad66 14be 1e61 413e edcc a03c
00000280: 4874 0bbd e588 0c3f db21 50bd 7bd4 4bbe
00000290: 7867 a43d 9c40 25be 8dd5 db3c 5954 503e
000002a0: 0437 95be 45ac 9fbe 8bf4 e7bd 0949 493d
000002b0: 937e d5bc 5954 d03a 15ca bc3d 6c86 4dbe
000002c0: b380 b63d 6f4b e1bd 7a7f 22be a0e6 9fbd
000002d0: 67d2 1fbd 867b 213e b587 e2be cfc4 67ba
000002e0: 9851 a33c 070b 293e d312 b63d d3af 0a3e
000002f0: 1f52 d6bd 5a58 5d3e e2b9 e13d 94b6 a6be
00000300: 698e b6be cdd5 8dbb 6f0e 85bd ba16 933d
00000310: f329 2f3c e5a2 89be 919d be3d 6ffc 0cbe
00000320: 6efc 553e 2b8a 253d 8131 593e cf0f 233e
00000330: d8db 783e a80b 5d3d 39aa 2e3e 3f0c 0cbd
00000340: b5fb b53d a68e d53e 3d91 673e 5a4c a3bd
00000350: 8218 013e 7a0c cb3b 152f 9d3d e28d 4ebe
00000360: f79c e33d 51f2 c6bd c3e2 373e 2d9e f6bd
00000370: 4fa7 3abe 4563 c8bd 0035 d53d 5262 493e
00000380: 6e26 b13c e3fd 02bd 1299 203e 7566 89bd
00000390: 4fdb 43be e2da 3d3e fae2 983d 05e5 9f3e
000003a0: a4b6 4a3e 8048 87bd faae 16be 78e9 c6bc
000003b0: 4ee4 843d 6ad1 02be 0567 3d3e 2942 dabc
000003c0: c146 bf3e f856 7c39 f9eb c43d 2419 57bb
000003d0: 4c1d 2a3e b1a6 523e ed05 43bc 398b 08bd
000003e0: 3cb7 2d3e 3b8d 653d 4038 073e abf7 6a3e
000003f0: bd61 c6be 6b26 643e 9a98 03be 4dd5 9cbc

network_body._body_endoder.seq_layers.2.bias f4 [256]
0.06561386 -0.09158152 -0.25431123 -0.11870635 0.10757466 0.29155365 -0.07819995 -0.31459582
0.20010324 0.037485473 -0.16079982 0.13022767 -0.18046679 0.014739828 0.08339075 -0.09011457
-0.10538246 -0.27523497 0.061186153 0.057773326 -0.23612434 -0.6222068 0.03601782 -0.47922355
0.23887743 -0.17876819 -0.016927475 0.13304362 0.10628964 -0.051512215 0.020203063 -0.37628904
-0.29674578 -0.08113392 -0.08689086 0.0040015997 -0.07260253 -0.048848655 -0.23731434 0.005370173
-0.32748812 -0.43387476 0.2253387 -0.16345596 -0.102951035 0.23170869 -0.6233246 -0.18694599
0.04115399 0.06702577 -0.46904027 -0.06829502 -0.017620366 -0.051693577 0.058311984 -0.368602
0.06960022 -0.2270391 -0.1606564 -0.22479889 0.017726311 -0.21543367 0.06684377 -0.055500608
0.13546744 -0.21924984 -0.16695243 -0.0022504057 -0.3514966 -0.18759747 0.2811296 -0.0819455
-0.0060088257 0.16815716 0.18779697 -0.23071645 -0.17224711 -0.44392705 -0.23255844 -0.14705756
-0.012431563 -0.077594414 0.18514206 0.038698394 0.009376889 -0.00960961 0.09749604 -0.2038959
-0.26382598 0.25902787 -0.16899408 0.005568294 -0.0024900865 -0.1595746 -0.37143862 0.0978521
-0.039272316 -0.21892244 -0.2057847 -0.07338422 -0.15004507 0.12553622 -0.058922347 -0.48457026
0.09586278 0.017118258 -0.2130938 -0.12736022 0.29854888 -0.076757826 -0.020164985 -0.08871729
-0.088438116 -0.036856845 -0.34352607 -0.21158606 -0.5938145 -0.18609525 -0.13729978 -0.37122768
0.062237747 -0.068838045 -0.08572971 -0.16639091 -0.30273086 0.14343831 0.23298636 0.031345896
-0.13760945 -0.045376632 -0.024156636 0.09913087 -0.07572038 -0.1452395 0.0569977 -0.19573948
-0.1959646 0.042472444 -0.02261366 -0.060570713 -0.069536224 -0.26671064 0.12376837 -0.13418643
-0.21428093 -0.48300436 -0.021111334 0.09953216 -0.17972118 -0.009251538 0.17512262 -0.171332
-0.261231 -0.016917955 0.0814922 -0.00040134945 0.47508717 -0.22350547 -0.13569736 0.1259906
-0.030866763 0.08467978 -0.44016516 -0.14239933 -0.041781414 -0.1168382 -0.05189039 0.19190305
-0.04223932 0.049358714 0.15979385 0.19193877 -0.327991 0.15654038 -0.016504422 -0.15051025
0.14078991 -0.14751509 0.10553548 -0.20087335 -0.025225135 0.15895045 0.1740817 0.22878774
-0.026303424 -0.094308525 0.13158287 0.15000777 -0.42174155 -0.26415578 0.13864315 -0.19996142
0.16849905 -0.1390959 0.10258248 -0.12617078 -0.34662762 0.06778398 0.18504976 -0.17016943
-0.10113035 -0.037738267 0.19988316 -0.1694641 -0.03331384 -0.12640914 -0.050202508 -0.08367508
-0.016781237 0.07756354 -0.22889763 -0.08753023 -0.3028025 -0.23388378 -0.16534865 -0.23936863
0.17228481 0.13671872 -0.36483175 0.09960947 -0.18240543 -0.06469304 0.11875884 -0.33548295
0.19685102 -0.3019091 0.1405288 0.046038862 -0.354323 0.08027432 -0.015505629 -0.10856834
0.027873393 0.10110104 -0.20520893 -0.085240565 0.025480084 0.11698584 -0.36766383 0.15509814
0.01056222 -0.47847 -0.45129582 0.1758361 -0.4797718 0.06726214 -0.52946997 -0.14284053
0.18232477 0.18957789 0.04250736 -0.3185488 -0.08212488 -0.5801555 -0.17806996 0.086507045
00000000: 8f60 863d 188f bbbd 1535 82be 511c f3bd
00000010: 1a50 dc3d 8546 953e 4c27 a0bd b412 a1be
00000020: dde7 4c3e 5e8a 193d b5a8 24be 675a 053e
00000030: 49cc 38be 527f 713c c5c8 aa3d fd8d b8bd
00000040: c2d2 d7bd 99eb 8cbe 559e 7a3d b9a3 6c3d
00000050: 94ca 71be f248 1fbf 6c87 133d ca5c f5be
00000060: 499c 743e 020f 37be 7dab 8abc 963c 083e
00000070: 62ae d93d 79fe 52bd e580 a53c f5a8 c0be
00000080: 10ef 97be 8a29 a6bd d6f3 b1bd da1f 833b
00000090: a3b0 94bd 8715 48bd 8802 73be 47f8 af3b
000000a0: 86ac a7be d524 debe 30bf 663e 0061 27be
000000b0: fed7 d2bd 0b45 6d3e 3392 1fbf c56e 3fbe
000000c0: 1691 283d cf44 893d 0c26 f0be 42de 8bbd
000000d0: 9658 90bc a5bc 53bd 8cd8 6e3d 67b9 bcbe
000000e0: 8f8a 8e3d f07c 68be 1c83 24be ae31 66be
000000f0: c536 913c a59a 5cbe 63e5 883d 9b54 63bd
00000100: fab7 0a3e 0883 60be 94f5 2abe 8b7b 13bb
00000110: 5df7 b3be 8d19 40be 38f0 8f3e 0bd3 a7bd
00000120: afe5 c4bb 6431 2c3e d94d 403e ef40 6cbe
00000130: 8c61 30be 684a e3be cd23 6ebe 4296 16be
00000140: c1ad 4bbc d2e9 9ebd e195 3d3e 3582 1e3d
00000150: 86a1 193c a071 1dbc 01ac c73d 16ca 50be
00000160: 3314 87be 4d9f 843e c90c 2dbe 3c76 b63b
00000170: b830 23bb 8667 23be 342d bebe af66 c83d
00000180: 02dc 20bd 342d 60be 39b9 52be 774a 96bd
00000190: 6aa5 19be 918c 003e 8f58 71bd 9819 f8be
000001a0: b553 c43d 973b 8c3c 4335 5abe b86a 02be
000001b0: 66db 983e 3533 9dbd 0a31 a5bc 69b1 b5bd
000001c0: 0b1f b5bd 34f7 16bd a6e2 afbe 04aa 58be
000001d0: 3a04 18bf c18f 3ebe 5098 0cbe 8e11 bebe
000001e0: 02ed 7e3d f6fa 8cbd 0f93 afbd 6162 2abe
000001f0: 8aff 9abe 7ee1 123e fa93 6e3e 8e64 003d
00000200: 7ee9 0cbe d9dc 39bd 23e4 c5bc 2005 cb3d
00000210: 4913 9bbd aab9 14be 6c76 693d ee6f 48be
00000220: f2aa 48be 96f7 2d3d 4840 b9bc ff18 78bd
00000230: 0269 8ebd 4c8e 88be 457a fd3d 2b68 09be
00000240: 766c 5bbe 594c f7be adf1 acbc 84d7 cb3d
00000250: d408 38be c393 17bc 5853 333e a871 2fbe
00000260: 12c0 85be 8697 8abc 62e5 a63d 366c d2b9
00000270: a03e f33e 9ede 64be 40f4 0abe ae03 013e
00000280: 4bdc fcbc 986c ad3d 545d e1be 21d1 11be
00000290: fd22 2bbd de48 efbd 058b 54bd 3c82 443e
000002a0: 2303 2dbd 5d2c 4a3d 00a1 233e 998b 443e
000002b0: 70ee a7be 1f4c 203e 4834 87bc 5c1f 1abe
000002c0: 3b2b 103e 320e 17be fc22 d83d beb1 4dbe
000002d0: f1a4 cebc e8c3 223e 7942 323e 5547 6a3e
000002e0: 477a d7bc d424 c1bd a9bd 063e a39b 193e
000002f0: 82ee d7be 6d3f 87be 78f8 0d3e b0c2 4cbe
00000300: 048b 2c3e 286f 0ebe c316 d23d ea32 01be
00000310: 2d79 b1be 54d2 8a3d af7d 3d3e e540 2ebe
00000320: 6e1d cfbd 7193 1abd 2cae 4c3e ff87 2dbe
00000330: 1874 08bd 6671 01be 25a1 4dbd d75d abbd
00000340: ce78 89bc a2d9 9e3d 2464 6abe 0d43 b3bd
00000350: ee08 9bbe 3b7f 6fbe 2851 29be 0d1d 75be
00000360: 6e6b 303e feff 0b3e 3acb babe 0d00 cc3d
00000370: 7dc8 3abe c97d 84bd d637 f33d 6cc4 abbe
00000380: 5093 493e d493 9abe c8e6 0f3e 3f93 3c3d
00000390: d369 b5be dd66 a43d 520b 7ebc 1459 debd
000003a0: be56 e43c 100e cf3d 4a22 52be 9b92 aebd
000003b0: 9cbb d03c 4696 ef3d 6f3e bcbe 0cd2 1e3e
000003c0: 290d 2d3c 05fa f4be 3f10 e7be 610e 343e
000003d0: a6a4 f5be bcc0 893d 588b 07bf ca44 12be
000003e0: 58b3 3a3e b520 423e 331c 2e3d d418 a3be
000003f0: 1731 a8bd 1285 14bf f957 36be 9b2a b13d

action_model._continuous_distribution.mu.weight f4 [2, 256]
-0.22399458 0.1331831 -0.19332536 -0.0844514 0.031889364 0.14485416 -0.10527366 -0.027843941
0.34726846 0.17500299 -0.13687962 -0.19606765 0.48795903 0.23930138 0.43057102 -0.13002738
0.49037138 -0.009148055 -0.23683453 0.06117717 -0.23566493 0.34747285 0.04813465 -0.06732029
-0.08279318 -0.004034079 0.1567345 -0.36013204 -0.12340038 0.13779189 -0.59769195 -0.058357626
0.25417447 0.14575732 -0.2173164 -0.2479659 -0.45149326 0.37754735 0.21610098 0.07010484
-0.10594957 0.16173582 -0.6592163 0.14108415 -0.337768 0.5477907 -0.19152449 0.3424337
-0.18372113 -0.06825373 0.008637075 -0.16151325 0.124992676 -0.26849478 -0.31387553 0.059749853
0.0593204 0.3061195 -0.2006411 -0.18617113 -0.17441767 0.045693226 0.013270765 -0.1772583
-0.14829376 0.12423963 0.37822276 0.18185912 0.10859463 0.16001455 0.110427044 -0.121596426
-0.12520629 -0.39165053 -0.098296106 0.28036252 0.07125949 -0.29191655 -0.13902043 0.15336348
0.18431726 0.23560718 -0.20440872 -0.22401604 0.37776405 0.50729614 -0.093304835 -0.14615689
0.0237577 0.110906824 0.11323612 0.23391874 0.15859307 -0.24857008 0.1935531 -0.0273721
0.17593561 0.010974196 -0.08897059 -0.18508103 -0.34512573 -0.21508329 -0.49344093 -0.06669457
-0.09883322 -0.45536909 -0.025647962 -0.12214437 -0.19381824 0.30564988 -0.0068997405 -0.03795007
0.2796148 0.21278542 -0.349059 0.22458255 0.035115447 0.15607853 0.5769657 0.22791058
0.05916303 -0.28099552 -0.092330575 -0.35784566 0.2011826 -0.05267299 -0.5100928 -0.28181696
0.03764931 -0.20787619 -0.31489775 -0.03798057 0.19034497 0.06947217 -0.19177525 0.4521467
-0.005640655 0.7000619 -0.11738058 0.3787159 0.3157704 0.4705443 -0.2776173 0.108344555
0.311924 0.22174825 -0.24444956 0.18312606 -0.2281038 0.2151337 -0.39068833 -0.06795997
0.24916802 -0.32157478 -0.38577622 0.2722177 -0.37654322 0.20982872 -0.48523024 0.27495226
0.4276375 -0.16775566 -0.22657262 0.2770879 0.17856604 0.18590282 0.15997492 -0.7086333
0.008845116 -0.02218245 1.0200406 0.22443105 0.27815083 0.55565554 0.27474952 -0.014686079
-0.4166117 -0.08388924 0.2326341 0.30234778 1.1441244 -0.34228912 -0.22363886 0.32771954
-0.07327348 -0.13161801 -0.23329763 0.2661438 0.08899517 0.31941375 0.20974432 0.17750397
0.051596966 0.13346574 0.11447033 -0.2428182 -0.06783376 0.3386336 0.554318 -0.018345011
-0.088436976 -0.10574805 0.6262431 -0.06143082 0.10307623 0.33618632 -0.17272727 0.36281
0.42743486 -0.33186454 -0.06610351 0.42135432 0.6751717 -0.34437162 -0.2352892 0.061614957
-0.16544555 0.29401308 0.02610607 -0.38241434 0.12773307 0.18135265 0.41210693 0.048278775
0.11367077 -0.28482977 0.2963822 -0.20129575 -0.021816796 -0.22606698 -0.021461746 0.017342843
0.09307866 -0.22441858 0.018768163 0.08428191 0.14468357 -0.3212363 -0.02744465 -0.27625248
-0.15227662 0.08363567 0.20340623 -0.2882544 -0.3273652 0.19563058 0.3563336 -0.22522567
-0.19769898 -0.17089279 0.28809214 -0.15931295 -0.22512215 -0.0130461445 0.0026836419 0.349235
00000000: d65e 65be 2761 083e 15f7 45be dbf4 acbd
00000010: 6c9e 023d a654 143e b799 d7bd fa18 e4bc
00000020: 2ccd b13e fc33 333e 2c2a 0cbe f5c5 48be
00000030: c4d5 f93e 6c0b 753e ce73 dc3e e625 05be
00000040: f511 fb3e b9e1 15bc c084 72be ea94 7a3d
00000050: 2652 71be f6e7 b13e d728 453d 38df 89bd
00000060: 798f a9bd 4f30 84bb 027f 203e 3a63 b8be
00000070: 57b9 fcbd 5119 0d3e 5702 19bf 6808 6fbd
00000080: 2823 823e 6841 153e 3188 5ebe c6ea 7dbe
00000090: 202a e7be e34d c13e 9349 5d3e 2093 8f3d
000000a0: 17fc d8bd 139e 253e 66c2 28bf 5d78 103e
000000b0: edef acbe 033c 0c3f ff1e 44be 7853 af3e
000000c0: 6421 3cbe 9dc8 8bbd 8582 0d3c bb63 25be
000000d0: 29fc ff3d 2678 89be 4bb4 a0be 43bc 743d
000000e0: f3f9 723d b2bb 9c3e dc74 4dbe a5a3 3ebe
000000f0: 8c9a 32be d228 3b3d 9f6d 593c 3383 35be
00000100: 52da 17be 5971 fe3d 6aa6 c13e 4739 3a3e
00000110: dd66 de3d dbda 233e 9327 e23d 8c07 f9bd
00000120: 1436 00be 6b86 c8be 784f c9bd ad8b 8f3e
00000130: 7ff0 913d 1676 95be 5f5b 0ebe 510b 1d3e
00000140: aabd 3c3e 0243 713e 8550 51be 7664 65be
00000150: 4a6a c13e 29de 013f 9b16 bfbd 27aa 15be
00000160: 829f c23c 1e23 e33d 57e8 e73d 6588 6f3e
00000170: 3966 223e 2889 7ebe c932 463e 743b e0bc
00000180: 7728 343e 1dcd 333c 3636 b6bd e285 3dbe
00000190: 52b4 b0be cb3e 5cbe 4aa4 fcbe 2a97 88bd
000001a0: 1269 cabd 2326 e9be ad1b d2bc d426 fabd
000001b0: 4a78 46be 247e 9c3e 3817 e2bb 8871 1bbd
000001c0: ac29 8f3e 6ce4 593e dcb7 b2be f8f8 653e
000001d0: 37d5 0f3d 0dd3 1f3e 06b4 133f 6461 693e
000001e0: ef54 723d a5de 8fbe d017 bdbd 8c37 b7be
000001f0: d002 4e3e a2bf 57bd 7195 02bf 504a 90be
00000200: 2a36 1a3d 7fdd 54be 473a a1be 8491 1bbd
00000210: cbe9 423e 6d47 8e3d bb60 44be c67f e73e
00000220: 3ed5 b8bb 4237 333f 3b65 f0bd 0de7 c13e
00000230: a8ac a13e 2feb f03e db23 8ebe c0e3 dd3d
00000240: 81b4 9f3e f911 633e fc50 7abe 6685 3b3e
00000250: 0b94 69be 024c 5c3e 4d08 c8be 992e 8bbd
00000260: e725 7f3e 73a5 a4be 7684 c5be 1e60 8b3e
00000270: 46ca c0be 57dd 563e 1970 f8be 8bc6 8c3e
00000280: 4df3 da3e 24c8 2bbe a702 68be 77de 8d3e
00000290: 04da 363e 4f5d 3e3e 77d0 233e fe68 35bf
000002a0: 1beb 103c f8b7 b5bc b190 823f 41d1 653e
000002b0: c969 8e3e 713f 0e3f f8ab 8c3e e19d 70bc
000002c0: 214e d5be 1fce abbd a237 6e3e 54cd 9a3e
000002d0: ab72 923f 8540 afbe 9601 65be dbca a73e
000002e0: 6810 96bd dfc6 06be 93e5 6ebe 0044 883e
000002f0: 1a43 b63d 338a a33e 37c7 563e 9ac3 353e
00000300: 5757 533d 3eab 083e 6c6f ea3d 56a5 78be
00000310: 6dec 8abd 6261 ad3e c9e7 0d3f 4748 96bc
00000320: 721e b5bd 6f92 d8bd 7851 203f e29e 7bbd
00000330: a119 d33d 9d20 ac3e 6bdf 30be 3bc2 b93e
00000340: bed8 da3e 26ea a9be 4761 87bd c1bb d73e
00000350: 0dd8 2c3f 7a51 b0be a7ef 70be f75f 7c3d
00000360: 8f6a 29be e288 963e 66dc d53c d0cb c3be
00000370: 75cc 023e 82b4 393e aeff d23e f7bf 453d
00000380: 38cc e83d 35d5 91be 68bf 973e 7920 4ebe
00000390: 23b9 b2bc 1a7e 67be 8bd0 afbc 9412 8e3c
000003a0: 06a0 be3d fccd 65be b1bf 993c fe9b ac3d
000003b0: ee27 143e 1679 a4be 9ad3 e0bc f770 8dbe
000003c0: 67ee 1bbe 2e49 ab3d b949 503e 1596 93be
000003d0: 699c a7be 6253 483e 5c71 b63e 8fa1 66be
000003e0: 9a71 4abe 85fe 2ebe d080 933e ef22 23be
000003f0: 6c86 66be 7fbf 55bc 0ae0 2f3b eece b23e

action_model._continuous_distribution.mu.bias f4 [2]
-0.053049788 0.011337034
00000000: bc4a 59bd f8be 393c

action_model._continuous_distribution.log_sigma.weight f4 [2, 256]
0.0007802757 0.00037579844 -0.026347943 -0.0070524006 -0.021560507 0.07277055 -0.017031185 0.020046575
0.016937047 -0.011086569 -0.02187884 -0.07425462 0.060197357 0.009531885 -0.012901804 0.012441328
0.2958657 -0.0015096914 0.026397198 -0.031727515 -0.017710883 0.0023237148 -0.012008508 -0.102619685
0.06823809 0.006042741 0.022513498 -0.045217548 0.019571772 0.039471317 -0.031577587 -0.019058933
0.02230984 -0.015902447 -0.019817604 0.012516269 -0.010720065 0.096941896 -0.024519518 0.00819953
-0.008342209 -0.013165669 -0.07058793 -0.02063145 -0.0496741 0.023254685 -0.02547909 0.009051957
0.010746259 0.03586702 0.00014106804 0.08792645 -0.0019907414 -0.061357543 -0.03413938 -0.019821202
-0.02080931 0.011264721 0.03572488 -0.011794839 -0.057055697 0.022133064 0.1095863 -0.016363012
-0.018623836 0.022117661 -0.04418345 -0.044449076 0.037033133 0.06393201 -0.035914153 0.0038175476
-0.026243063 -0.18043976 0.027144067 0.011076585 -0.0039369585 -0.04042259 0.008983345 -0.13232984
0.015228974 -0.0050866157 -0.0085712485 0.07855396 -0.023766667 0.6713467 0.02565094 -0.05461156
0.008265983 -0.04003103 0.0074931174 0.03095426 0.024877826 0.032188997 0.0121007925 -0.0017980225
-0.022526557 0.023820033 -0.0058150855 -0.013254812 0.03126437 0.039069723 0.02005256 0.06775412
0.029052919 -0.010617731 0.0058320677 -0.009931327 -0.047973853 0.09001435 -0.047119174 0.0050534206
0.054972094 -0.015657043 -0.012804632 -0.024736565 0.010169614 -0.01492887 0.012588505 0.01630432
0.013282466 -0.011250458 0.030058373 -0.00035511135 0.008871541 -0.07740379 0.0032694286 -0.097066574
0.04548928 -0.013319831 -0.026321568 -0.0023987242 0.006316296 0.0027143243 -0.045042522 0.014426425
0.0330132 -0.06422595 0.039075248 0.048200052 -0.0042326394 -0.0009002612 -0.023507405 -0.0008885841
0.049995173 -0.0051659136 0.02500437 -0.020886805 -0.00038926545 0.0137170395 0.0067863176 -0.065259926
0.01742015 -0.0726357 -0.025052164 0.0592747 0.035970654 0.02280014 0.040643733 0.022614636
-0.015761966 0.026590819 0.012013348 0.07372261 0.0017602909 -0.009778284 0.04904504 -0.0046756584
0.03413501 -0.015507392 -0.04189942 -0.011279773 0.053360574 -0.016248701 0.07830953 -0.023114227
0.10461885 0.0017295083 0.02894626 -0.04367617 0.038515527 -0.024238052 -0.031572066 0.03676329
-0.016538553 -0.015874773 0.007563976 -0.006245395 0.0109671755 -0.028061947 -0.012110661 0.003396257
0.01030022 0.00048719463 -0.0028332712 -0.025306335 0.013641202 0.049066335 -0.025907101 0.039022885
-0.07704441 -0.027174434 -0.018925497 0.040690526 -0.006389213 -0.11820543 -0.01742808 0.12783909
0.035283662 0.03173589 0.015281587 0.0025266784 0.057251096 -0.034624875 -0.0076261167 0.0035278338
-0.032517057 -0.013914977 -0.026480883 -0.012993405 0.019186689 -0.037666395 0.004383118 0.007004339
0.024437949 0.02378893 -0.058715068 0.065822154 0.025392823 -0.002573778 0.00057733717 0.011773673
-0.004493036 -0.0410023 -0.055386126 -0.02201187 -0.021005932 -0.03003448 -0.008366082 -0.012136538
-0.03248775 -0.0467254 -0.001624818 -0.008522171 -0.01887608 -0.0011467098 0.0858987 -0.005373516
0.022375649 -0.007896023 0.101554245 -0.015106967 -0.0103420485 -0.0038184049 9.671781e-05 -0.021088293
00000000: 6a8b 4c3a d006 c539 a4d7 d7bc d317 e7bb
00000010: a99f b0bc ba08 953d fc84 8bbc b738 a43c
00000020: 90bf 8a3c 71a4 35bc 413b b3bc ce12 98bd
00000030: 8191 763d a02b 1c3c 1762 53bc b6d6 4b3c
00000040: b67b 973e d6e0 c5ba f03e d83c b6f4 01bd
00000050: 6a16 91bc 7749 183b 55bf 44bc 452a d2bd
00000060: 69c0 8b3d 2f02 c63b 3a6e b83c 0936 39bd
00000070: fb54 a03c adac 213d 8057 01bd 7b21 9cbc
00000080: 20c3 b63c d945 82bc 8758 a2bc 0a11 4d3c
00000090: 36a3 2fbc 7989 c63d 28dd c8bc 5257 063c
000000a0: c3ad 08bc d1b4 57bc 6890 90bd 4903 a9bc
000000b0: 1277 4bbd 9c80 be3c 86b9 d0bc a94e 143c
000000c0: 1411 303c 4ce9 123d aaeb 1339 c812 b43d
000000d0: 1977 02bb 0c52 7bbd bcd5 0bbd 1360 a2bc
000000e0: 4978 aabc aa8f 383c 4054 123d 243f 41bc
000000f0: 3cb3 69bd 6650 b53c c86e e03d b90b 86bc
00000100: 0491 98bc 1930 b53c b5f9 34bd 3c10 36bd
00000110: 0eb0 173d c9ee 823d b81a 13bd d22f 7a3b
00000120: b1fb d6bc 33c5 38be 3c5d de3c 917a 353c
00000130: 9a01 81bb 2892 25bd e12e 133c 7981 07be
00000140: f282 793c a0ad a6bb 6c6e 0cbc e6e0 a03d
00000150: 50b2 c2bc 61dd 2b3f ec21 d23c 5fb0 5fbd
00000160: 0c6e 073c 94f7 23bd d388 f53b ca93 fd3c
00000170: 95cc cb3c 9cd8 033d 6742 463c a0ab ebba
00000180: 9d89 b8bc 3b22 c33c 798c bebb b62a 59bc
00000190: 110f 003d 9307 203d 4445 a43c acc2 8a3d
000001a0: 6300 ee3c fef5 2dbc ee1a bf3b 01b7 22bc
000001b0: 3b80 44bd 7259 b83d 0900 41bd 2a97 a53b
000001c0: 6b2a 613d 3343 80bc 85ca 51bc 56a4 cabc
000001d0: 749e 263c 3898 74bc 0440 4e3c a390 853c
000001e0: b39e 593c d753 38bc fa3c f63c 3d2e bab9
000001f0: f159 113c e185 9ebd e943 563b d7ca c6bd
00000200: f852 3a3d 6c3b 5abc 54a0 d7bc ea33 1dbb
00000210: eef8 ce3b cee2 313b 827e 38bd d05c 6c3c
00000220: d938 073d e588 83bd 5e0d 203d 6b6d 453d
00000230: f4b1 8abb 82ff 6bba 9a92 c0bc dfef 68ba
00000240: bdc7 4c3d d346 a9bb f7d5 cc3c ce1a abbc
00000250: 5316 ccb9 6fbd 603c c25f de3b ffa6 85bd
00000260: b4b4 8e3c 07c2 94bd 323a cdbc 07ca 723d
00000270: f755 133d 5cc7 ba3c 0b7a 263d 5442 b93c
00000280: 3d1f 81bc fdd4 d93c a2d3 443c e1fb 963d
00000290: 90b9 e63a 1835 20bc 74e3 483d 4436 99bb
000002a0: 27d1 0b3d b712 7ebc ba9e 2bbd ccce 38bc
000002b0: 9e90 5a3d ff1b 85bc bf60 a03d 0c5a bdbc
000002c0: 6842 d63d abb0 e23a b520 ed3c c9e5 32bd
000002d0: 75c2 1d3d e18e c6bc b651 01bd 1b95 163d
000002e0: dc7b 87bc d00b 82bc 3bdb f73b 2ca6 ccbb
000002f0: abaf 333c 2be2 e5bc cb6b 46bc bd93 5e3b
00000300: 41c2 283c 286e ff39 67ae 39bb 3b4f cfbc
00000310: 597f 5f3c c8f9 483d 213b d4bc 76d6 1f3d
00000320: 76c9 9dbd eb9c debc a509 9bbc 1cab 263d
00000330: 9a5c d1bb b015 f2bd 55c5 8ebc 40e8 023e
00000340: 9a85 103d 7efd 013d 9f5f 7a3c a196 253b
00000350: 2080 6a3d d0d2 0dbd 81e4 f9bb 3b33 673b
00000360: 9b30 05bd a5fb 63bc 70ee d8bc 4ae2 54bc
00000370: 672d 9d3c 1448 1abd 42a0 8f3b a784 e53b
00000380: 1832 c83c 01e1 c23c 367f 70bd c4cd 863d
00000390: 9c04 d03c d4ac 28bb 7158 173a 5de6 403c
000003a0: 513a 93bb 07f2 27bd 90dc 62bd 3d52 b4bc
000003b0: a214 acbc df0a f6bc e411 09bc 54d8 46bc
000003c0: e011 05bd 2263 3fbd d8f7 d4ba 93a0 0bbc
000003d0: 02a2 9abc 324d 96ba a8eb af3d 5214 b0bb
000003e0: 234d b73c 525e 01bc acfb cf3d 3683 77bc
000003f0: b271 29bc 343e 7abb fbd4 ca38 5bc1 acbc

action_model._continuous_distribution.log_sigma.bias f4 [2]
-0.7873869 -0.62872136
00000000: 3092 49bf e2f3 20bf

action_model._discrete_distribution.branches.0.weight f4 [2, 256]
0.08446071 -0.40317377 -0.05172496 -0.9344814 -0.3072787 -0.6398106 -0.40904886 0.57625294
-1.4508781 0.72767115 -0.2390095 0.50033885 -0.19438301 -0.025620064 0.3723149 -0.20591334
0.22112803 0.85987747 -0.027411351 0.68090546 0.37041068 0.89441425 -1.6878031 0.5551418
0.04053901 -0.46221426 0.057539117 -0.05333115 0.20626235 0.115217745 -0.79224676 -0.16806492
-0.013455087 0.7931317 0.0902636 0.27011794 -0.8288886 -0.42415035 -0.30046532 0.1943552
0.5228076 -0.2677609 0.14616174 0.041581687 0.9790188 0.2456351 0.80636066 -0.39508712
-0.6462663 -0.011422039 -0.73123133 -0.8908342 0.7715389 -0.116866775 0.02827342 1.0064408
-0.5967681 0.18874933 -1.2494279 0.38583386 0.2665809 -0.49168104 -0.6353711 0.5016218
-0.23132698 0.7873458 0.15015072 0.17821845 -0.7469681 0.2827513 0.06837912 -0.13424994
-0.097452044 0.7312285 -0.24703781 -0.23949136 0.09955884 -0.24867178 -0.31059983 -0.63901687
-0.18276389 -0.017986933 -0.3074248 1.0628353 0.2607224 0.25440615 0.21919547 -0.39058998
-0.18245374 -0.074330285 -0.111744255 0.7929511 0.056857586 -0.32627237 -0.72043395 0.024851726
0.09802446 -0.3680049 -0.61198026 -0.06333692 -0.16859406 0.5700053 0.3727177 -0.8474545
-0.59897625 -0.117202036 -0.3810754 -0.34348834 -0.3729166 -0.79340696 0.4245125 -1.3140156
0.4353718 0.065386906 -0.5571159 0.27043775 -0.69581014 -1.1127229 0.5458997 0.46302906
-0.44221732 -0.88382286 0.873303 0.32641578 0.38862517 0.83956194 -0.0877927 -0.20146209
-0.8413872 -0.10093722 -0.15871425 0.60597384 0.2555882 -0.6146692 -0.2772904 -0.05686639
-1.0720243 -0.6045109 0.078708746 0.75645894 -0.5078993 0.13274013 0.16147034 0.2784415
-0.7058217 0.45916343 0.17201938 1.1728511 -0.015739555 0.335386 -0.5331143 -0.7299905
0.41543546 0.6035534 -0.115577206 -0.17406833 -0.264483 0.1017584 0.36521664 0.020602688
0.021397425 -0.017934505 -0.1463564 -0.13105051 0.6525115 0.43354368 0.4993493 -0.14919722
-1.4892055 0.010107826 -0.12860823 -0.053076126 0.4240985 -0.16912907 -0.653493 -1.210598
0.53896767 -0.6465951 0.022908796 -0.09083554 0.28026855 0.81064606 -0.05955734 0.122090146
0.36404383 -0.5954113 0.39366844 -0.6284616 1.1708989 0.4547422 0.018181305 0.20886025
-0.6458168 0.6196909 0.8781191 -0.015445663 -0.29886028 0.47110137 -1.4760303 0.49885395
-0.95037895 0.25764227 -0.18430717 -0.16118462 0.27260375 0.15159161 -0.39826077 -1.0846467
0.71158034 0.43635872 0.15493658 -0.101134025 0.3693367 0.33254015 -0.21496758 -0.5871934
0.4019933 0.450934 -0.83218867 -0.15115148 0.07868154 0.073424175 -1.260546 -0.5658961
-0.0212209 -0.58728564 -1.0200969 -0.13823853 -0.9398898 0.17605382 0.3870573 0.85173297
-0.018052487 -0.034559485 -0.56491166 -1.5304141 -0.0056644166 0.13463584 -0.73423785 -0.050888814
-0.052982904 -0.5103918 -0.58904606 -0.6455012 -0.614732 0.09810724 0.8049945 0.19041073
0.07436351 -0.31162223 -1.0546237 0.24687214 0.18902284 0.6501938 0.8755021 -0.03783201
00000000: bdf9 ac3d cb6c cebe 8ddd 53bd 2c3a 6fbf
00000010: a253 9dbe a1ca 23bf da6e d1be 5085 133f
00000020: 60b6 b9bf a848 3a3f e8be 74be 3516 003f
00000030: 570c 47be 2be1 d1bc 0fa0 be3e f2da 52be
00000040: 636f 623e ee20 5c3f c58d e0bc d24f 2e3f
00000050: 78a6 bd3e 55f8 643f ef09 d8bf c61d 0e3f
00000060: 3c0c 263d 59a7 ecbe 23ae 6b3d c471 5abd
00000070: 7036 533e 48f7 eb3d afd0 4abf 3619 2cbe
00000080: ba72 5cbc ae0a 4b3f 1fdc b83d e64c 8a3e
00000090: 0b32 54bf 3c2a d9be 97d6 99be 0d05 473e
000000a0: b8d6 053f f517 89be 6cab 153e 8f51 2a3d
000000b0: faa0 7a3f c587 7b3e a76d 4e3f dc48 cabe
000000c0: b571 25bf 8123 3bbc fa31 3bbf b60d 64bf
000000d0: 9383 453f d957 efbd a99d e73c 0dd3 803f
000000e0: cbc5 18bf 8147 413e 41ed 9fbf 048c c53e
000000f0: 4b7d 883e 9ebd fbbe aea7 22bf 496a 003f
00000100: fbe0 6cbe 7f8f 493f 1cc1 193e e67e 363e
00000110: 4d39 3fbf c7c4 903e 5a0a 8c3d d178 09be
00000120: f094 c7bd ca31 3b3f 7bf7 7cbe 393d 75be
00000130: 81e5 cb3d d1a3 7ebe f106 9fbe 9c96 23bf
00000140: 7526 3bbe 5559 93bc c966 9dbe fd0a 883f
00000150: 687d 853e 8641 823e c774 603e 69fb c7be
00000160: 27d5 3abe 7a3a 98bd 2cda e4bd d8fe 4a3f
00000170: 80e3 683d 2c0d a7be 5c6e 38bf d995 cb3c
00000180: 0cc1 c83d 236b bcbe bdaa 1cbf cab6 81bd
00000190: eca3 2cbe deeb 113f dbd4 be3e c7f2 58bf
000001a0: 8256 19bf 9f07 f0bd 511c c3be b4dd afbe
000001b0: edee bebe b81c 4bbf b459 d93e aa31 a8bf
000001c0: 0de9 de3e 92e9 853d 269f 0ebf d176 8a3e
000001d0: 9d20 32bf b46d 8ebf 15c0 0b3f 2512 ed3e
000001e0: 4f6a e2be 3742 62bf c990 5f3f f81f a73e
000001f0: e1f9 c63e 88ed 563f a9cc b3bd 144c 4ebe
00000200: 2765 57bf 2cb8 cebd fd85 22be 1a21 1b3f
00000210: 75dc 823e f65a 1dbf 02f9 8dbe bbec 68bd
00000220: 1838 89bf 3ac1 1abf 0d32 a13d 4ba7 413f
00000230: b005 02bf 07ed 073e 7b58 253e e28f 8e3e
00000240: bbb0 34bf 7817 eb3e d925 303e fc1f 963f
00000250: 3df0 80bc b7b7 ab3e 2e7a 08bf a8e0 3abf
00000260: f5b3 d43e 7a82 1a3f beb3 ecbd f83e 32be
00000270: 516a 87be b566 d03d adfd ba3e f8c6 a83c
00000280: a749 af3c 62eb 92bc 74de 15be 1b32 06be
00000290: fe0a 273f 70f9 dd3e b6aa ff3e 28c7 18be
000002a0: 499e bebf 4c9b 253c e0b1 03be 5a66 59bd
000002b0: 7023 d93e 2c30 2dbe 514b 27bf e0f4 9abf
000002c0: c9f9 093f 4287 25bf 3aab bb3c fc07 babd
000002d0: 5c7f 8f3e 8086 4f3f 66f2 73bd 660a fa3d
000002e0: f463 ba3e e06c 18bf e98e c93e dce2 20bf
000002f0: 04e0 953f f8d3 e83e f6f0 943c 76df 553e
00000300: 4054 25bf 10a4 1e3f 6acc 603f ce0f 7dbc
00000310: 3704 99be 3334 f13e 90ee bcbf c969 ff3e
00000320: 094c 73bf b0e9 833e 05bb 3cbe 950d 25be
00000330: b892 8b3e d53a 1b3e d6e8 cbbe b4d5 8abf
00000340: 212a 363f 696a df3e b2a7 1e3e 5b1f cfbd
00000350: b319 bd3e b442 aa3e 7620 5cbe 4f52 16bf
00000360: 11d2 cd3e d2e0 e63e 510a 55bf 74c7 1abe
00000370: ca23 a13d 6a5f 963d 9259 a1bf 91de 10bf
00000380: 74d7 adbc 5a58 16bf 8992 82bf 678e 0dbe
00000390: 9e9c 70bf 7447 343e 602c c63e 2c0b 5a3f
000003a0: cfe2 93bc 3f8e 0dbd 0d9e 10bf 9ce4 c3bf
000003b0: 929c b9bb fadd 093e 03f7 3bbf ca70 50bd
000003c0: 9a04 59bd 09a9 02bf b9cb 16bf 913f 25bf
000003d0: 145f 1dbf 73ec c83d 1f14 4e3f 08fb 423e
000003e0: e54b 983d f38c 9fbe e9fd 86bf 0dcc 7c3e
000003f0: 348f 413e 1a73 263f e820 603f bdf5 1abd

action_model._discrete_distribution.branches.0.bias f4 [2]
-0.059143048 0.059151616
00000000: fb3f 72bd f748 723d
