results/SelfPlay2/1v1/1v1-4735831.onnx (onnx, 306068 bytes, 9 tensors)

network_body._body_endoder.seq_layers.0.weight f4 [256, 30]
000000 5f c6 33 be ca 47 c8 3e e5 c2 41 be d0 5c ba 3d
       -0.17556141 0.3911727 -0.18922003 0.09099734
000010 b0 f1 0b bf 3f 6d 8b be c3 26 6e be cb fd e8 bd
       -0.5466566 -0.27231786 -0.23256974 -0.11376532
000020 eb 3a 90 be 25 1d d6 be 19 f4 1c be dd 7c 13 3e
       -0.2816995 -0.4181911 -0.15327491 0.144031
000030 16 17 66 3d 77 a5 ad 3c 54 9e 10 3e d3 8c b1 bd
       0.05617436 0.021197064 0.14122897 -0.08669438
000040 22 7e 0b be c1 8a e8 be 32 99 85 3d 2f b5 75 bc
       -0.13622335 -0.4541836 0.0652336 -0.014996811
000050 2c 0f 86 bd 16 e6 93 3d e1 58 4e 3e 06 45 ea 3e
       -0.065458626 0.0722162 0.20151092 0.45755786
000060 ee 25 b4 be e7 10 45 3d 8a 28 6b bd b4 ba ac bd
       -0.35185188 0.048111822 -0.057411708 -0.08434048
000070 bf 8d 59 be aa d3 93 be b4 e5 14 3e 27 36 db 3d
       -0.21245478 -0.28872424 0.1454075 0.10703688
000080 e8 a0 76 3d bb fb eb bd 09 e8 73 be 11 51 7d be
       0.060212046 -0.11522623 -0.23818983 -0.24737956
000090 ff ee 23 3d 40 29 76 bd 44 58 3f 3d 1f e9 87 be
       0.040022846 -0.060097933 0.046715036 -0.26545045
0000a0 43 f1 c5 3d 1f 2f 92 3d cf 1a 5d 3e 88 5c 9b 3d
       0.09665158 0.07137894 0.21592258 0.07586008
0000b0 02 4a db bd 82 45 22 3e 78 31 c5 3d a4 83 db bc
       -0.10707475 0.15846828 0.09628576 -0.02679617
0000c0 fc d0 7c 3e fe 5e a6 3e b6 ee 2c 3e 29 bc 60 be
       0.24689096 0.32494348 0.16887936 -0.21946777
0000d0 01 95 7b bb d0 bd 9d be 3e ad 06 3e e5 59 c8 bd
       -0.0038388374 -0.30808878 0.13152024 -0.09782771
0000e0 6c 8b 6f 3e 0d 4b 4f bc e3 67 88 3e 12 49 7b be
       0.23393029 -0.012652171 0.2664176 -0.24539593
0000f0 53 85 01 be 78 75 31 3e d7 75 4a be 1f 70 52 3c
       -0.12648515 0.17329967 -0.19771515 0.012844115
000100 83 43 e7 bc 59 7e 1d be ed 8e 0d 3e 42 56 43 be
       -0.028230434 -0.15380229 0.13824053 -0.19075873
000110 fa ca d9 3d 97 c2 e8 3d 6a c4 d0 bc 95 09 c1 be
       0.10634418 0.1136524 -0.025484283 -0.37702623
000120 54 8a 27 3e 8c 70 3d be 4f c1 59 be ce b8 02 3d
       0.16361362 -0.18499964 -0.21265148 0.031914525
000130 44 95 18 be f2 f2 b1 3c d6 d7 e1 bd 33 9b aa bd
       -0.1490069 0.02172229 -0.110274956 -0.08330383
000140 b5 ad 5b bd f2 db 26 3d 51 c9 c6 bd 06 16 08 3e
       -0.053632457 0.0407371 -0.09706367 0.13289651
000150 b3 af 56 bd 50 39 4f 3e 2f 02 15 3e a7 f5 f7 3d
       -0.052413654 0.20236707 0.14551614 0.12107401
000160 05 28 a7 3c 76 c2 1c 3e aa cc 88 3d 68 16 8e be
       0.020404825 0.15308556 0.066796616 -0.2775147
000170 39 ee 71 3e 9c 50 4b 3e 35 d0 99 be 4f 32 25 3e
       0.23626031 0.19854969 -0.30041662 0.16132472
000180 8b 96 38 be 01 ea a9 3c 30 d7 27 be 18 29 7b 3e
       -0.18026178 0.020741465 -0.16390681 0.24527395
000190 22 ac 8e be 5d 77 4b 3e 42 9d 40 3d 2f fe 9c 3d
       -0.27865702 0.19869752 0.047024973 0.07665669
0001a0 5f 53 49 bd 97 c7 85 bb 12 57 87 3e 30 31 19 3d
       -0.049151774 -0.004082631 0.26433617 0.037400424
0001b0 5b 75 10 3e e7 29 95 3d 5b d3 80 3e c3 3b e3 be
       0.14107268 0.07283383 0.2516125 -0.44381532
0001c0 50 7c 0a bc 6d 1c dc 3d e8 82 00 3e 3f a7 e6 bc
       -0.00845249 0.10747609 0.12549937 -0.028155921
0001d0 da b4 1f be b1 b3 02 3c 94 55 29 be bb 1d 9f 3d
       -0.15596333 0.007977412 -0.16536552 0.077693425
0001e0 57 9e 87 bd 8e 16 85 3d de 3e 4e 3e d9 24 76 3e
       -0.06621998 0.064984426 0.2014117 0.24037494
0001f0 27 8f f2 3d 25 2a 0e 3e ec e6 b3 3c 29 74 a0 bd
       0.118437104 0.13883264 0.021960698 -0.07834656
000200 4c 21 9f be d7 af 38 be dd 03 4e 3e f1 1e c3 bd
       -0.3108009 -0.18035828 0.20118661 -0.09527386
000210 36 68 00 bd fc cf 9e be 09 8c 4c bc 96 88 a6 3d
       -0.031349383 -0.31018054 -0.012484559 0.081315205
000220 eb f0 1e bd 3a 78 45 bd d4 63 88 bd 3c 4a e8 3d
       -0.038803976 -0.04821036 -0.06659666 0.11342284
000230 0f db 18 3e da 93 18 bd e4 77 9b 3e 15 a9 78 3e
       0.14927314 -0.037250377 0.30364907 0.2428325
000240 1d 58 0a 3e 12 83 87 3e a8 bc 46 3e cb 55 01 be
       0.13510175 0.26467186 0.19407904 -0.12630384
000250 e8 e7 56 3d 86 e1 c5 bd 45 45 a0 3d c7 e8 aa be
       0.052467257 -0.09662156 0.07825712 -0.3338072
000260 00 bc a4 3d d6 fd 16 3e c4 71 9f 3e a8 e0 d3 3e
       0.08043671 0.14745268 0.31141484 0.41382337
000270 8e 85 5a bd 19 84 40 3e 0f 8b fd 3d 00 43 2c be
       -0.053350024 0.18800391 0.12380039 -0.16822433
000280 52 82 82 bd 6f f5 01 be c8 99 c6 be 59 69 68 3e
       -0.06372513 -0.12691282 -0.387892 0.22696437
000290 e7 2a 07 be 88 93 33 3e b0 ed 19 3e 19 86 81 be
       -0.1319996 0.17536747 0.15032077 -0.2529762
0002a0 50 47 83 bc a6 cd b8 3d bf 6f 96 3e 2d eb 2e 3c
       -0.016025215 0.09023599 0.2938213 0.010676187
0002b0 01 2b e7 bd 27 24 b8 3e 81 8c 49 be 49 ab 69 3e
       -0.11287499 0.35965082 -0.19682504 0.22819246
0002c0 05 29 8c 3e b8 94 72 be f6 51 17 be 8f 58 37 be
       0.27375045 -0.23689544 -0.1477736 -0.17904876
0002d0 3c 60 81 be 8c 56 39 3e bc bc 6f bd 64 cf c3 be
       -0.25268734 0.18099421 -0.0585296 -0.38244164
0002e0 41 bd 9c be b5 4d ae 3e 29 d6 4e 3d 5c ae 74 bd
       -0.3061314 0.3404366 0.050497208 -0.059736595
0002f0 06 bf 7d 3d ef 43 ed bd 8e 7b 7b 3e f1 07 ad be
       0.061949752 -0.11585223 0.24558851 -0.3379512
000300 d4 90 05 3d 8f d7 93 be 9e 5f 4b be 63 15 2a 3d
       0.032608822 -0.28875396 -0.19860694 0.041524302
000310 1b 77 f8 3d 24 5e 55 bc 26 da 3c 3e d5 7f 88 3e
       0.121320926 -0.013022933 0.18442592 0.26660028
000320 56 25 72 be 3b 2a 7c 3e 81 f2 6e 3e 71 55 d7 3d
       -0.23647055 0.24625485 0.23334695 0.105143435
000330 c0 69 aa 3d 19 b5 5e 3c f4 c3 00 be 01 46 ac 3e
       0.083209515 0.013592982 -0.1257475 0.3364716
000340 d8 4d e4 bd 64 ac ac 3d 86 5d 23 bd ac 8b 3b be
       -0.1114766 0.084313184 -0.039884113 -0.18315
000350 1c 7b c5 3d 92 ef e2 3c 63 6e 46 3c ee 17 55 3e
       0.09642622 0.027702127 0.012111279 0.2080991
000360 3b f4 52 3e 84 8f ec 3c 3f 76 ec bd 3b 60 ba be
       0.20600979 0.028877027 -0.11545991 -0.36401543
000370 d2 24 f3 3d ed 7d c8 bd d3 57 2b 3e 58 9f 11 3c
       0.11872257 -0.097896434 0.16732721 0.008888088
000380 59 b6 f3 bd cb f9 3f be 1f 64 47 be f4 fe b0 bd
       -0.119000144 -0.18747632 -0.19471787 -0.086423784
000390 e4 fd 07 be a9 c5 99 3e 78 3b 6c be d9 3c 71 be
       -0.13280445 0.30033615 -0.2306956 -0.23558368
0003a0 e9 04 64 3c 44 51 35 3e d6 b2 f4 3d 98 fc 4a 3d
       0.013917186 0.17706782 0.11948173 0.0495573
0003b0 46 0e d4 be a0 ca 5a 3e 95 bd 71 be 86 c3 96 3d
       -0.4141714 0.21366358 -0.23607476 0.07361512
0003c0 24 88 31 be 7d 67 ac be 37 0e 87 be 17 bb a2 bd
       -0.1733709 -0.33672705 -0.26378033 -0.07945841
0003d0 ab 23 7d bd 32 49 f3 bd 2d 42 ab bb 55 8a 8f be
       -0.061801594 -0.11879195 -0.0052263946 -0.28035226
0003e0 c9 d6 2c bd bb 68 10 be 54 a3 26 3e 71 9c 8d 3d
       -0.042197023 -0.14102452 0.16273242 0.069146045
0003f0 36 3f 55 3d f9 93 78 3e 5c 1d 6e be 45 b1 9f be
       0.052062236 0.24275197 -0.23253387 -0.31189933

network_body._body_endoder.seq_layers.0.bias f4 [256]
000000 ef f2 68 3c fc ca 8b bb 4f 3a af 3a 50 62 8d b7
       0.014218076 -0.004266141 0.0013368818 -1.685429e-05
000010 94 50 dd ba 2d 22 d1 ba 39 10 0e 3b 3a a1 ba ba
       -0.0016884976 -0.001595562 0.002167715 -0.0014238723
000020 e6 ca bd 3b 43 c6 28 3b 01 42 fe 3b 48 e0 82 3b
       0.0057920096 0.0025752939 0.007759333 0.0039940216
000030 25 05 a3 3b e1 9d a7 3b f1 ec ff 39 fa 6f ba 3b
       0.0049749785 0.005115256 0.00048813925 0.005689618
000040 f0 21 51 3b c8 ae 13 bb d5 ad 63 3b 6e ef 67 3c
       0.0031911097 -0.0022534598 0.0034741063 0.014156206
000050 01 3d 28 3a b6 a9 fc b9 ea cd b8 3b a1 fe ed 3b
       0.00064177817 -0.0004819163 0.0056397812 0.00726302
000060 1c d5 81 bb 2b be 5b 3a 6c ac 10 3c 6a 27 9d ba
       -0.003962172 0.0008382524 0.008830171 -0.0011989896
000070 01 2a ac bb f8 77 af 3a 1f b2 97 3b 36 3f 88 3b
       -0.0052540307 0.0013387194 0.004629388 0.004157926
000080 62 12 12 bb c9 f0 23 bb 90 73 d3 3b 1b 18 f2 3b
       -0.002228879 -0.0025015345 0.006452985 0.0073881275
000090 16 a8 b8 bb 60 02 2d 3c 32 c1 08 bb fe 97 1b bc
       -0.005635272 0.010559648 -0.0020867107 -0.009496687
0000a0 21 a0 3f 3c 36 17 4d 3a 5d c0 3d 3c 47 3f 6c 3b
       0.011695893 0.0007823588 0.0115815075 0.0036048458
0000b0 b6 bf 00 3a 5d 33 c6 3b cf a9 a0 3b ed 80 0f bc
       0.00049113797 0.0060486034 0.0049030553 -0.008758766
0000c0 df e9 cf bb 6d f1 96 bb ae 53 52 3c 49 26 e6 3b
       -0.0063450183 -0.004606417 0.012837334 0.007023607
0000d0 de 28 6f 3b 4c 13 15 3c 2f 5c 38 3c 45 9d b8 3b
       0.0036492865 0.009098839 0.011252447 0.0056339824
0000e0 5d 22 84 3a 48 70 7a 3a d7 05 3b bc 21 0a 09 3c
       0.0010081042 0.00095534744 -0.011414967 0.008364231
0000f0 8b 14 50 bb bb 8f 33 3c 0e 56 c1 3a 55 9c 07 3c
       -0.0031750526 0.010959561 0.0014750378 0.008277019
000100 fc 21 b4 bb 9e 35 0f bc d6 a1 64 bb 53 97 27 3c
       -0.0054972153 -0.008740811 -0.00348865 0.01022895
000110 5e da 65 ba 62 7c ea 3b bd 88 1f 3c 9b 39 d7 3b
       -0.0008768196 0.007155941 0.009737191 0.0065681464
000120 0d 04 b9 3b 11 88 12 bb a8 06 8f 3a 78 2c 03 3c
       0.005646235 -0.0022358934 0.0010912018 0.008006208
000130 1d d5 c4 ba 8a 86 16 3a c0 76 c4 3b c9 d3 c7 3a
       -0.0015017126 0.0005742094 0.0059956014 0.0015245612
000140 3e f4 c3 3b 6b 90 d9 3b d2 9d b3 ba 50 76 44 3c
       0.0059800437 0.0066395304 -0.001370365 0.0119910985
000150 df 17 e3 ba 3a 07 85 3b b8 31 50 bb 4a f9 42 3a
       -0.001732584 0.0040596994 -0.0031767916 0.00074376597
000160 00 1c 61 ba 72 8e cb 3b d8 7b 1b bc 51 f1 a2 b9
       -0.0008587241 0.006212049 -0.009489976 -0.00031078843
000170 ae 82 7f b8 5b e8 5f bb 8e e5 ac 3b 60 6e a7 3b
       -6.0918443e-05 -0.0034165594 0.0052763885 0.0051095933
000180 16 f2 3f 3a 78 f9 b0 3a 7f f4 98 3b f8 4c ce ba
       0.00073221454 0.0013502082 0.004667818 -0.0015739491
000190 2c 58 7c 3b 07 67 1c bb 6d 8c ad bb 93 ee e2 3b
       0.0038504703 -0.002386512 -0.005296281 0.006925413
0001a0 f9 21 b9 3b 72 3e 3d bb 0d f8 14 3b 68 a7 58 bb
       0.005649802 -0.0028876332 0.0022730858 -0.0033058766
0001b0 93 32 7a bb 15 34 4f 3c 25 95 7c 3b 3a 02 44 3b
       -0.0038177117 0.012646695 0.0038541046 0.0029908554
0001c0 db f2 0a ba 23 2f 99 3b eb 8c 1c 3c 74 bb 10 3b
       -0.00053004705 0.0046748086 0.009555082 0.0022084387
0001d0 36 25 00 bc fd ae 8f bb f9 96 23 bb e0 c7 94 bb
       -0.007821372 -0.004384874 -0.0024961813 -0.0045404285
0001e0 5c df b8 3b 8c cd 9c ba 4e 8a 6b 3c fc 1a 8a bb
       0.005641861 -0.0011963113 0.014376236 -0.0042146426
0001f0 d2 94 9c 3a 94 9a 96 3a 15 15 00 3a 23 85 60 3b
       0.0011946207 0.001149016 0.0004885954 0.0034259043
000200 5b 8c 3a 3c dd bc 4a bb df c0 47 bb 82 6f 6c 3b
       0.011386002 -0.0030935325 -0.003047995 0.0036077206
000210 8d 87 b0 3b ea 10 6b 38 87 42 9a 3b e4 49 71 bb
       0.0053872527 5.604412e-05 0.0047076377 -0.0036817724
000220 29 eb 25 3c 20 dd cc bb 33 0e 60 ba 7b ca bb 3b
       0.010126867 -0.006251946 -0.0008547038 0.0057309247
000230 c5 ef 07 bb b0 07 e6 3b 17 23 15 3c 7f 71 eb ba
       -0.002074228 0.0070199594 0.009102604 -0.0017962902
000240 20 4c 0c 3c 22 5f a4 3b ef bf 61 3b 92 c6 a4 bb
       0.0085630715 0.0050162235 0.0034446677 -0.0050285542
000250 94 95 19 3c 21 cd 66 3a 2a 65 08 3c 38 ab 6a bb
       0.009374041 0.00088043703 0.008324901 -0.003580762
000260 6a 0e 00 3c 51 a3 68 38 e2 b2 df 3b f5 d2 40 3c
       0.007815937 5.546521e-05 0.0068267444 0.011769046
000270 ea 0b f2 3a b0 76 be 3b be dc b2 3b 15 b9 0f 3c
       0.0018466685 0.0058124885 0.0054584434 0.008772154
000280 c3 ba ff 3b ad 4e 9f 3b 68 55 1d 3b ff f7 35 3c
       0.007804246 0.004861674 0.0024007205 0.01110649
000290 65 bf 95 3b fe 8d 35 3c 9f c4 a7 3b 44 97 39 3c
       0.004569935 0.011081217 0.0051198746 0.011327568
0002a0 c3 ba b0 b9 43 42 73 bb 34 29 e0 3b 7b 8f ed bb
       -0.00033708484 -0.0037118352 0.0068408493 -0.00724977
0002b0 45 f2 88 bb b9 29 6d bb a3 21 1a 3b b0 46 0c bc
       -0.0041792714 -0.0036188199 0.0023518584 -0.008561775
0002c0 f7 55 ee ba 4c 56 52 bb 30 01 9e 3a ef 02 b5 b9
       -0.0018183579 -0.0032094894 0.0012054797 -0.00034525196
0002d0 1d 3b 0a 3c 87 19 fd 3b 09 45 23 3c eb e2 d9 3a
       0.008436945 0.0077239904 0.00996519 0.0016623413
0002e0 00 68 31 3c bb b0 82 3c 94 2b c3 3b 60 3f ca bb
       0.010828018 0.015953412 0.0059561227 -0.0061721057
0002f0 29 63 3d 3c c1 30 93 3b 2a 93 f8 3b 22 9e 19 3c
       0.011559286 0.004491896 0.0075859027 0.009376081
000300 f9 42 0d 3b 9a d4 8b 3b fb 30 41 3c fb 1d a2 3b
       0.0021554811 0.0042672874 0.011791463 0.0049474216
000310 fc 56 3d 3c 2a c4 17 3c 4b 07 5f 3b 98 d8 11 3c
       0.011556383 0.009263078 0.0034031447 0.008901738
000320 47 4e 0f 39 d8 85 fe 3b c4 ef ca 3a 18 6a 96 3b
       0.00013666703 0.0077674203 0.0015482833 0.004590284
000330 86 8e 3f bb 32 0a 55 bb ef 1d 2a 3c 51 f4 18 3b
       -0.0029229238 -0.0032507298 0.010383113 0.0023338983
000340 bc 10 17 3c 26 c3 32 3b 21 0c 4b 3b 0b 7a 3d bb
       0.009220298 0.0027276962 0.0030982571 -0.0028911855
000350 eb c8 9b bb c7 c6 ce 3b 4d d4 38 ba eb 7a 0e 3c
       -0.004754176 0.006310317 -0.0007050678 0.008696298
000360 be d1 b7 3b 9c f8 32 3b a2 07 a3 bb c2 7f 08 3c
       0.00560972 0.0027308827 -0.004975275 0.008331241
000370 9d 3c de 3b d2 7e a7 b8 86 44 87 bb 82 e7 8e ba
       0.006782128 -7.986803e-05 -0.0041280417 -0.0010902735
000380 2b 74 21 3c 8d 3f a0 3b fe ad 9c 3b 6f a9 ba 3b
       0.009854357 0.0048903883 0.0047814837 0.0056964676
000390 ce 09 cc 3b 78 34 1c 3b ab 24 83 ba 5e 6a 9e bb
       0.0062267547 0.0023834985 -0.0010005435 -0.0048344573
0003a0 4c 69 40 bb 5e 66 12 bb 88 55 63 3b bf 90 32 3c
       -0.0029359637 -0.0022338848 0.0034688432 0.010898768
0003b0 49 de 85 ba 06 a5 1d 3c f6 89 91 3a d0 6b 16 3c
       -0.0010213341 0.009621864 0.0011103738 0.009180978
0003c0 f4 23 a2 bb e7 af 28 3c 37 48 2e 3c 58 82 d1 3b
       -0.0049481336 0.010295845 0.010637335 0.006393712
0003d0 a8 53 8d 3a 30 85 04 3c b6 8a 19 bb b0 33 66 3c
       0.0010782378 0.008088395 -0.0023428625 0.014050409
0003e0 e9 31 51 3b 1f 93 01 3c 9c 0f 22 bb d9 5b 12 3c
       0.0031920618 0.007908612 -0.0024728542 0.008933031
0003f0 6a b2 0d 3c e7 38 5a 3c 1c 01 6b bb fb 61 87 bb
       0.008648494 0.013319231 -0.0035858816 -0.004131553

network_body._body_endoder.seq_layers.2.weight f4 [256, 256]
000000 fb 49 b9 bc c5 ea 11 3d 95 c8 ed 3b d3 f5 44 bc
       -0.022618284 0.035624284 0.0072565773 -0.0120215
000010 92 cc 97 3b cb 7a 14 bd 60 f3 6a bd 96 a6 2e 3d
       0.004632541 -0.036249917 -0.057361007 0.042639337
000020 5c 67 a1 3c 1e 44 3d 3d 0a cc 52 3d 4e fd 86 bc
       0.019702606 0.04620754 0.051464118 -0.016478207
000030 aa 3b b7 bd 46 c4 1c 3d 1b ae 74 bd bb d8 48 bd
       -0.08946927 0.03827312 -0.059736352 -0.049034815
000040 70 2b 80 bd 05 cf c9 3d 77 41 ca bc d7 ee 09 3c
       -0.06258285 0.09853939 -0.02468942 0.00841876
000050 ea 2b ad 3d 6a 0b 53 3d 91 d5 a0 bd 3d 59 9b 3d
       0.084556416 0.051524557 -0.078532346 0.0758538
000060 a1 8e 53 bd 21 ce 11 3c 62 57 04 3d d0 0f e2 bc
       -0.051649693 0.008899243 0.032309897 -0.02759543
000070 d2 ad b7 3d c0 e0 17 3d 91 f4 fc bb b4 92 ed bc
       0.089687005 0.037079573 -0.0077195843 -0.029000618
000080 bd 45 36 bb 72 1e 44 bc a6 08 f6 bd 1a 7e a9 3c
       -0.0027812563 -0.011970149 -0.12013368 0.020690013
000090 f8 65 be bd f6 34 df 3d 09 68 41 3c 74 a1 52 3d
       -0.09296793 0.10898773 0.011804589 0.051423505
0000a0 08 7b db 3b 41 5c 22 3e c5 d1 a6 3d 2a af b9 bc
       0.006698016 0.15855505 0.08145479 -0.022666533
0000b0 7f af 4e bd fa 6c 2f 3d cc 6b 87 3b 82 5d 9c bc
       -0.050460335 0.042828538 0.0041327234 -0.019087557
0000c0 c8 ee 57 3d 34 31 19 bb 47 4a 67 3d c8 86 51 bd
       0.052717954 -0.0023375275 0.05646732 -0.051153928
0000d0 6d 73 1f bd 32 6c 01 3d f4 b3 47 3d c0 10 88 bd
       -0.038928438 0.031597324 0.0487556 -0.0664382
0000e0 c1 43 55 bd ff 16 80 3c 19 88 9a 3c 3f b3 b3 bd
       -0.05206657 0.015635965 0.018863725 -0.08774423
0000f0 1c 29 da 3c bf c5 33 3a 89 76 fb 3c 81 c7 a5 3c
       0.02663093 0.00068577746 0.03069617 0.020236732
000100 6b 09 90 3c 63 b3 b7 3d a0 1e 0e 3e b1 2e ca 3c
       0.017582616 0.08969762 0.1387887 0.024680467
000110 a7 62 84 3d 17 ee b4 3d 07 3f c5 39 c9 60 b1 bb
       0.06464129 0.088344745 0.00037621727 -0.005413149
000120 d3 7a 99 3d e3 54 0b bd be ae 54 3d 7d 9e 75 3a
       0.0749413 -0.0340165 0.05192446 0.0009369625
000130 4f 51 a9 bd 7e 43 fc bd e1 9c c3 3b 08 5b 8e bc
       -0.082674615 -0.123175606 0.005969629 -0.017377391
000140 50 17 1c 3c 4a 79 fa 3c 11 84 e2 bc 14 03 48 3d
       0.0095270425 0.030575413 -0.027650865 0.04883106
000150 c4 d8 58 3d 2a c9 cd 3d 46 cd 97 3d ea ee 8d 3d
       0.0529411 0.100481346 0.074122 0.06930335
000160 83 d9 bc 3c 2f 21 e0 bc 98 98 51 3d 5d f1 a1 bd
       0.023052936 -0.027359573 0.051170915 -0.079073645
000170 25 51 c7 3d be e5 85 bd 24 f1 9e bd 29 23 cf 3b
       0.09732274 -0.065379605 -0.07760838 0.00632133
000180 1b 1e 70 bd 40 a6 03 3d 62 3f f3 3c 27 f8 af bc
       -0.05862246 0.03214097 0.02969331 -0.021480633
000190 e3 e1 23 3d de 24 b8 3d 6b fd 1e bd d7 f9 56 3d
       0.040010344 0.08991407 -0.038815897 0.05248436
0001a0 51 50 00 bc 2a f3 bc 3d d3 3a 87 3d d2 44 c7 bc
       -0.007831649 0.09226067 0.06603017 -0.024324808
0001b0 6f 11 1c 3d 90 dc 45 3d 78 65 fd bd 26 90 8c 3c
       0.038102563 0.048306048 -0.12372869 0.01715858
0001c0 23 f8 88 bd 83 5c c8 bd bb 7b 3e bd a4 0b f3 bd
       -0.06687953 -0.0978327 -0.046504717 -0.11867455
0001d0 d4 dc 98 3d 6b e1 e2 3c a4 04 c1 bc 9b bc b9 bd
       0.074639946 0.027695378 -0.023561783 -0.09069177
0001e0 37 92 15 3d a9 77 13 3b 5b 64 58 3d fb e4 65 bc
       0.036516394 0.0022501743 0.05283008 -0.014031644
0001f0 f3 be 3f 3c 94 43 00 be d5 87 99 3d 49 3a 9d 3d
       0.011703241 -0.12525779 0.07496611 0.07677133
000200 5f 22 9b 3d 2d 01 07 3d 69 d0 d8 bd 16 53 19 3d
       0.07574915 0.032960106 -0.10586626 0.037432753
000210 91 2f 17 3d a7 54 c3 3b 4d 3c d7 bd 76 64 84 3d
       0.036910597 0.005961019 -0.10509548 0.06464474
000220 91 48 1e be b9 83 4b bd 7d bb 81 3d b4 7c aa 3c
       -0.1545737 -0.049686167 0.06334589 0.020811416
000230 8e 7d a3 bd 72 af 45 3c dc 5d a6 3c ad 6c 17 bd
       -0.07982932 0.012065755 0.020308428 -0.036968876
000240 77 ea f1 bc 44 f6 41 bd fe 89 6d 3c b8 db 0e bc
       -0.029530747 -0.047353998 0.014498232 -0.008719377
000250 e7 12 8e 3d 01 ae 4e 3d ab 0f 4b 3d 20 7f 3c 3d
       0.06937199 0.05045891 0.04957549 0.046019673
000260 64 2c f4 3c 1c 58 71 bd f4 09 4d bd d8 8a b5 3d
       0.029806323 -0.05892192 -0.05005832 0.08864373
000270 54 bb cf 3c 46 b1 3a bc 87 b8 93 bc 59 d2 5a 3c
       0.02535788 -0.011394804 -0.018032325 0.013355815
000280 7f 18 15 bc 12 4c 63 bc e5 62 6a 3d df da fa bd
       -0.009100079 -0.013873117 0.05722322 -0.122487776
000290 79 97 20 3d 7d 6d 84 3d 9d 67 43 bc 1b dd a6 bd
       0.039206956 0.06466196 -0.011926559 -0.08147641
0002a0 1c 73 44 3d dc f9 5c 3d aa f9 83 bc 9b 29 02 be
       0.04796134 0.053949222 -0.01611026 -0.12711184
0002b0 90 ef ea 3b df f1 19 3d 9d 12 8a 3c 1d db 98 3d
       0.0071696714 0.037584182 0.016854579 0.074636675
0002c0 26 74 aa bd 9b 0d d0 3d cd f3 53 3d 1b a0 a7 bd
       -0.08322935 0.10158845 0.05174618 -0.081848346
0002d0 57 c2 d3 3c ff a2 8d 3c a5 b2 ca bd 2e 8d e2 3a
       0.025849504 0.017289637 -0.09897355 0.0017284506
0002e0 f7 17 0c 3e 99 6b 7a bd 21 0a 96 bc 7a 88 e1 bd
       0.13681017 -0.06113777 -0.018315377 -0.11012359
0002f0 30 65 80 3c a1 96 7d 3d 3b f0 20 3d 65 cc a3 bc
       0.01567325 0.06191123 0.0392916 -0.019994924
000300 03 48 33 bd 9e ff 81 bd 99 d2 aa bc ed 0a 19 be
       -0.043769848 -0.06347583 -0.020852374 -0.14945574
000310 9c de e3 3c 24 ce f4 bb 85 fb d2 bd c6 31 89 3c
       0.02781611 -0.007470863 -0.1030188 0.016747367
000320 5f 02 89 3c ab 14 4a 3d c7 64 aa bd 4d 8b bf bc
       0.016724763 0.049336117 -0.08320003 -0.023381853
000330 45 23 a1 bd 72 c5 b5 bd a1 16 a7 bd 60 82 25 bd
       -0.07868055 -0.0887555 -0.08158613 -0.04040754
000340 cf 34 6b 3d c7 e6 34 bd 03 84 d8 bc 7d eb 47 bc
       0.05742341 -0.0441654 -0.026430136 -0.012202141
000350 71 8c 5d bd ab 1b 0c be 0c 67 be 3b fb b6 72 3d
       -0.054089013 -0.1368243 0.005810624 0.059256535
000360 d4 f9 f3 3c d9 1f 6b 3d 3d 78 2f bd 1b d5 3a be
       0.029782213 0.05740342 -0.042839278 -0.18245356
000370 f5 16 34 bd f7 9b 4b bc ce 9c 86 bd 69 4b 7b bd
       -0.043967206 -0.012427322 -0.06572877 -0.061351214
000380 3b 27 39 bc 60 11 22 bc b7 f0 4e bc 7f c9 3b 3c
       -0.011300857 -0.009891838 -0.012630633 0.011461615
000390 dc 61 a4 3d 58 46 a2 bd 3b b1 e2 bc ea be 88 3d
       0.08026478 -0.07923573 -0.0276724 0.06677039
0003a0 bc 78 24 bd a5 6f 02 3e 91 c1 06 bd ed 4d 0f 3c
       -0.040154204 0.12737902 -0.032899443 0.008746606
0003b0 1e a0 57 3d 5b 10 96 3c f1 48 15 3d 84 0e 07 bc
       0.052642934 0.018318346 0.036446515 -0.008243207
0003c0 d6 6d 84 bc 23 d4 24 3e 80 03 d0 3c 4a 96 67 bd
       -0.016165655 0.16096549 0.025392294 -0.05653981
0003d0 a8 d7 41 bd cf 6b 3c 3d 82 2d 07 bd 7d 0f b8 bd
       -0.047324806 0.04600125 -0.033002384 -0.08987329
0003e0 c8 06 72 3c 0f 95 c5 bc 78 7e 9d bc 7b e3 db bc
       0.014772125 -0.024118928 -0.019225344 -0.02684187
0003f0 11 f2 df 3d 1b 91 be bb f3 0f 24 3d 71 9f 72 3b
       0.109348424 -0.0058156378 0.040054273 0.0037021304

network_body._body_endoder.seq_layers.2.bias f4 [256]
000000 e8 dd 83 bb 2e 42 71 3b f4 a0 f2 3b b5 af 84 3b
       -0.004024256 0.0036813128 0.007404441 0.004049266
000010 7d 8c fb 3a 32 9c 2f bb 5a ff 08 3c 9c 37 db 3b
       0.0019191649 -0.002679598 0.008361662 0.0066899788
000020 af 4f 9e 3b 41 53 17 3c e7 de 94 3b f2 10 94 3a
       0.0048312764 0.009236158 0.0045431736 0.0011296554
000030 0c dd 70 3b 0d e8 a7 3b d1 3d 42 ba e1 21 90 3b
       0.0036752848 0.005124098 -0.0007409724 0.00439857
000040 f6 ec 41 39 21 f0 ba 3b 50 20 d4 3b 02 f3 6e 3b
       0.00018494189 0.005704895 0.0064735785 0.0036460762
000050 01 91 9c bb b1 6e 96 3b f4 28 1d 3c 1e 32 f9 3b
       -0.004778028 0.004590832 0.0095922835 0.0076048514
000060 a2 33 37 ba 73 14 95 bb d3 3a 5e ba dc ed 19 3c
       -0.000698859 -0.004549557 -0.00084773934 0.009395089
000070 da 4a 52 3a fa 5e 6d 3a 84 7e 35 3b 99 c6 6e bb
       0.0008022018 0.0009054985 0.0027693817 -0.0036434291
000080 a9 2b 00 3c db 06 00 3b 08 9a b3 3a 3a 71 7c b8
       0.007822909 0.0019535336 0.0013702521 -6.0186932e-05
000090 60 87 c0 b9 bd da 29 38 08 f4 27 3c 0a 22 91 3b
       -0.00036721956 4.0496456e-05 0.010251053 0.0044291066
0000a0 77 04 ac ba 0e e0 00 3a 37 db 95 3a 7c 19 4f 3b
       -0.0013123889 0.0004916199 0.0011433129 0.0031600883
0000b0 f9 f7 3e ba e3 b7 03 3c 7d 08 26 3b 85 6c 34 3b
       -0.00072848756 0.0080394475 0.002533465 0.0027530503
0000c0 1c 06 4d bb da c1 c9 3b 10 dc 51 39 69 93 16 3b
       -0.003128416 0.006157142 0.00020013773 0.0022976047
0000d0 1f cc 81 ba 63 79 c6 3b b9 90 19 3c 46 d2 17 3c
       -0.0009902752 0.006056951 0.0093728835 0.009266442
0000e0 68 99 ff 3a 89 c3 27 3b ea 78 05 3c ae 8b 20 3b
       0.0019500675 0.0025598726 0.008146504 0.0024497318
0000f0 cb 71 36 3b e3 59 3d 3c 60 83 89 3b 1d 0c 78 3a
       0.0027838822 0.011557075 0.0041965693 0.0009462254
000100 97 b6 f9 3a 12 b4 94 bb 25 c7 bd ba eb 11 ad 3b
       0.0019051608 -0.0045380676 -0.0014478905 0.005281677
000110 43 d9 a3 bb ed df cf 3a 6b 84 56 3b b1 1f b5 3a
       -0.005000265 0.0015859582 0.0032732736 0.0013818649
000120 38 6f c7 3b 94 6b 33 3a 44 f2 16 bb 32 2e 25 bb
       0.0060862564 0.00068443385 -0.0023032585 -0.0025204537
000130 f1 2d d8 b9 75 4c cc 3b 11 2c 61 bb 82 50 81 3b
       -0.0004123296 0.0062347003 -0.003435854 0.003946365
000140 33 f4 e7 b9 cf 99 04 bb 6d 62 99 3b cc 42 3c bb
       -0.00044241696 -0.0020233279 0.0046809227 -0.0028726337
000150 e9 1c ef bb 9a e8 dc 3b 79 c6 34 3b fd 26 7a 39
       -0.0072971475 0.0067415955 0.002758412 0.00023856382
000160 6c c9 8d 39 7a 7e e1 bb ce 5e 96 3b 34 b2 4c 3b
       0.00027043687 -0.0068815323 0.0045889383 0.0031234147
000170 06 02 5c 3b 5c ff 9a b9 f0 cd 39 3b ae e8 95 bb
       0.0033570542 -0.00029563427 0.0028351508 -0.0045748567
000180 c1 3c ca 3b b4 4c 43 39 88 66 7e bb 7c 6b ae 3b
       0.006171793 0.00018625223 -0.0038818438 0.0053228717
000190 04 5c fb ba 16 72 1f 3c 66 18 da b9 88 31 c9 bb
       -0.0019177203 0.00973179 -0.00041598378 -0.006139938
0001a0 63 c5 ef 3b 52 be 21 3b cc ba ca 3a 3a ff b0 3b
       0.0073172315 0.002468009 0.0015467047 0.005401519
0001b0 02 bb 7e 3b 18 c5 87 3b fe 07 b7 3b 7e a4 d8 3a
       0.003886879 0.0041433685 0.0055856695 0.0016528515
0001c0 5c 86 e4 b8 2d 0d 63 bb 63 da d6 3a d1 dc b8 3b
       -0.000108969136 -0.0034645305 0.0016391989 0.0056415577
0001d0 7e c1 b7 3b 64 5e c9 3b 4e 2b 9d 3b 02 90 32 bb
       0.005607783 0.0061452854 0.004796422 -0.002724648
0001e0 a2 c0 ac 3b c3 29 c3 3b e0 4e b3 3a f2 dc ef 3a
       0.005271987 0.005955906 0.0013680123 0.00183001
0001f0 9e 09 14 3c ff 08 18 bb d5 8a 2b bc 8d 4c 1a 3c
       0.009035496 -0.0023198721 -0.010470112 0.009417665
000200 3e 7b 55 3a 29 cc 1a 3b ee 94 f6 3b 94 a5 2b bc
       0.00081436697 0.0023620224 0.007525078 -0.010476489
000210 7d 90 0b bb fa 9a 9c 3b dc b5 c4 3b 4a 5c af 3b
       -0.0021295839 0.004779217 0.0060031246 0.005351578
000220 5f 8d 24 bb f8 ed b5 b9 55 60 c7 ba b4 13 49 bb
       -0.0025108678 -0.0003470031 -0.0015211204 -0.003068191
000230 91 51 65 3b f9 17 93 3b 55 f5 24 3b 83 8e 95 3b
       0.0034991244 0.0044889417 0.0025170643 0.004564108
000240 7d ce f1 3b 65 16 07 3c d1 2b c9 39 3e dd 6b 3a
       0.0073793516 0.008245085 0.00038370353 0.0008997506
000250 a9 44 8f 3a 79 26 d4 3a 8f 74 31 ba ef 1a 01 3c
       0.0010930497 0.0016185782 -0.0006769383 0.007879957
000260 70 23 22 3a c1 15 9b 3b dc 29 f0 39 5b 29 4c bb
       0.000618509 0.004732818 0.00045807555 -0.003115258
000270 ff a5 5c 3b ab 62 27 39 03 42 a1 39 e1 ef 87 3b
       0.0033668277 0.00015963118 0.00030757496 0.004148469
000280 45 06 11 3c b9 20 a2 3b dc 70 8d 3a 13 8b b6 3b
       0.008851592 0.0049477485 0.0010791081 0.005570778
000290 f7 d2 36 3c a9 07 06 3c 9a 36 cf 3b f8 35 37 bb
       0.011158696 0.008180537 0.0063236477 -0.0027955752
0002a0 21 43 d5 ba 9f ad 39 3c 18 35 50 3a d9 27 3e 3c
       -0.0016270616 0.011332898 0.0007942482 0.01160618
0002b0 c5 8c aa ba ec d8 2e 3b ce 28 b0 bb e8 83 04 3c
       -0.0013011923 0.0026679588 -0.005375958 0.0080880895
0002c0 0f 52 64 3c 6d 03 2c 3b ff 49 8c bb de eb fb 3b
       0.01393558 0.002624716 -0.004281282 0.0076880297
0002d0 95 54 37 3b 07 e9 36 3b 78 43 25 3c a7 2d 14 3c
       0.0027973999 0.0027909891 0.010086887 0.0090440875
0002e0 e5 a6 a1 3a 0a bc 99 3b b0 f2 0d bb 8d d0 3b bc
       0.0012333064 0.0046916055 -0.0021659546 -0.011463297
0002f0 b8 be f0 ba dd ea a6 3b 0b 28 00 3c d7 3b 05 3a
       -0.0018367385 0.005093916 0.007822047 0.0005082464
000300 ec 9e 89 3b 1a b5 1a 3c 54 53 59 3b f8 95 a4 3b
       0.004199853 0.009442592 0.003316124 0.0050227605
000310 74 fe 16 bb c6 4e c2 3b 1b 54 60 37 63 8a 2e 3b
       -0.002303985 0.0059298007 1.3371023e-05 0.0026632778
000320 15 51 8d 3b 0a 0b 58 bb de d5 13 bb 83 65 c4 ba
       0.0043126442 -0.0032965564 -0.0022557895 -0.0014983866
000330 99 8e 4b bb 20 8e 4b ba cf e1 1b 3c 49 19 bd ba
       -0.0031060337 -0.0007765014 0.009514286 -0.0014427091
000340 59 6a e8 3a ed 77 93 3a 79 29 1b bb 1e a1 3d 3c
       0.0017731889 0.0011250951 -0.0023675843 0.011574058
000350 ab f6 9f 3a 16 8d 9b ba 79 3b 57 3a eb bf f4 39
       0.001220425 -0.0011867608 0.0008210461 0.00046682297
000360 3d 67 8d 3b b0 e4 ed 3b 3f 7e 1d 3c fe 97 a7 3b
       0.0043152855 0.0072599277 0.009612619 0.0051145544
000370 88 e4 04 bb eb f4 99 3b 3f d7 e7 36 11 b5 f8 ba
       -0.0020277817 0.004698386 6.9093944e-06 -0.001897486
000380 7f 29 37 3a a8 68 6a 3b 5d f2 1e 3c eb 0c 5b 3b
       0.00069870794 0.0035767946 0.009701339 0.0033424448
000390 3e c4 bc bb 59 c6 ec 3a 0e c8 65 3b df 25 46 3b
       -0.0057606986 0.0018064483 0.003506187 0.0030234975
0003a0 a2 88 72 ba d2 fa de 3b 07 b1 05 3c f3 90 94 3b
       -0.0009251927 0.0068048025 0.008159882 0.004533881
0003b0 70 a2 4e bb e5 e9 2e ba ad d2 aa ba b0 59 59 39
       -0.0031529926 -0.0006672426 -0.0013032757 0.00020728144
0003c0 66 3a 34 3b 4e 81 af 3b e3 22 00 3c 17 3c 22 3c
       0.0027500628 0.0053559905 0.007820818 0.009902022
0003d0 17 73 4a 3b 8d ab d1 39 f7 5f 41 3c 74 5c 86 3a
       0.0030891353 0.00039991402 0.011802665 0.0010250942
0003e0 f6 19 2a 3b 59 b7 e6 b9 51 8e a8 39 44 d8 c9 3a
       0.0025955415 -0.00044005623 0.0003214949 0.0015399535
0003f0 55 ae e6 3b 90 2c 9e ba dd 78 f2 3a 49 16 63 bb
       0.007039825 -0.0012067724 0.0018499155 -0.0034650734

action_model._continuous_distribution.log_sigma f4 [1, 2]
000000 ce ed 44 bb 80 4f ea b9
       -0.003004897 -0.0004469119

action_model._continuous_distribution.mu.weight f4 [2, 256]
000000 77 31 cf ba 4f 1a 09 bc 89 6a 80 3c fd 78 15 3c
       -0.0015807588 -0.008368089 0.0156758 0.009123084
000010 f7 0e ea 3a 53 d6 59 3b 42 e4 3b bc b3 5d a4 3c
       0.0017857243 0.003323932 -0.011467995 0.02006421
000020 a9 64 c2 3b dd ab fe 3b d3 ba c4 3b a5 c8 86 bc
       0.00593241 0.0077719525 0.0060037165 -0.016453097
000030 20 c8 a5 bc 6c 55 9f 3c 17 dc 57 bc 88 82 f6 bb
       -0.020237029 0.019449912 -0.013175032 -0.0075228848
000040 44 d7 3e 3c 0c 5d ef 3b 43 94 94 3c 4b fb 7d bc
       0.011648003 0.007304793 0.018137103 -0.015501807
000050 00 b7 44 3c c3 57 bd bb 5b 5d 98 3c c2 b8 f9 bb
       0.012006521 -0.0057782843 0.018599203 -0.007620902
000060 84 ba 28 bc c5 96 89 bc 5c 79 82 bc d4 8b 26 3c
       -0.010298375 -0.016795525 -0.01592701 0.010165174
000070 a6 69 c7 3b b1 d2 30 ba 6b 81 6e 3c 08 04 32 3b
       0.0060855923 -0.00067452627 0.014557223 0.0027163047
000080 a9 14 8f bc e1 73 24 bc 63 87 24 3c 4e f8 ec bb
       -0.017465906 -0.010037393 0.010042044 -0.0072317487
000090 de 10 0b bc 68 f4 81 39 76 3a 6a 3c db 5b cc bc
       -0.008487908 0.00024786894 0.014296165 -0.024946144
0000a0 c8 f7 76 3b c8 e9 14 bc 00 e4 cd bc d4 bc 20 bc
       0.003768431 -0.009088941 -0.025133133 -0.009810645
0000b0 50 7a 90 3b 8c 42 ba 3c a6 f9 6f 3b 6a e3 0f 3c
       0.004409112 0.02273681 0.0036617308 0.008782247
0000c0 b2 e9 89 bc e5 08 8e 3c af 5e 89 bc 23 ad 32 3c
       -0.016835067 0.017338226 -0.016768781 0.010905537
0000d0 6c 1a 8a 3c 88 d5 e3 3b 8b bc ad 3c 22 df 0a bc
       0.016858302 0.006952945 0.021208068 -0.008476051
0000e0 69 a4 ce 3c 70 c4 b5 bb 8a 93 cf 3c 48 4f 80 3c
       0.025224881 -0.005547099 0.025338907 0.015662804
0000f0 65 e2 db bb 89 22 b5 3c f1 2f 41 bb 44 01 76 bc
       -0.006710338 0.022111194 -0.0029478038 -0.01501495
000100 8d d0 b4 bc 5f cb 6c bb e7 fd 79 bc 6e 77 3a 3c
       -0.022072101 -0.003613196 -0.015258289 0.011381013
000110 c8 38 88 bc 80 aa 15 3c e9 33 8d 3c 51 f8 4f bb
       -0.016628638 0.009134889 0.017236667 -0.0031733701
000120 a7 87 e3 3c ea af e9 3a a5 09 64 3c 27 95 a0 bc
       0.027774645 0.0017828916 0.013918315 -0.019602371
000130 69 66 70 bc 76 19 9f bc 3d 30 8a 3a 37 bb 6a 3c
       -0.014672854 -0.01942132 0.001054294 0.014326862
000140 ee 54 ef ba 70 76 6b bc 91 c2 a2 b9 b2 e6 2b bc
       -0.0018259564 -0.014371499 -0.0003104401 -0.010492014
000150 e5 53 e4 3a 08 05 b3 3c 4f 2d 92 bc 12 61 99 39
       0.0017420022 0.021852985 -0.01784387 0.00029254757
000160 14 e1 ae 3b 0c f6 73 bc ac a2 4b 3c 90 81 bb bb
       0.00533689 -0.014890205 0.012428921 -0.005722232
000170 70 f0 a2 3c cd e6 c3 ba 08 f0 c9 3b c3 9f 0b bc
       0.01989004 -0.0014946103 0.006162647 -0.008521977
000180 d1 2a 18 bc 2e 6c 3e 3c 65 25 84 ba 3d 5f 83 bc
       -0.009287552 0.011622472 -0.0010081945 -0.016036624
000190 c4 35 8f 3a 28 19 05 3c 36 69 93 bc 81 ad 68 bc
       0.0010926058 0.0081236735 -0.017994504 -0.014201523
0001a0 27 05 91 3c 8a 51 cf 39 5d 2a fb 3c 7d 29 72 bc
       0.017702652 0.00039542868 0.030659849 -0.014780399
0001b0 ce 9f 82 bb 46 fd 31 3a be 10 33 bc dc 1a 3d 3c
       -0.0039863354 0.0006789755 -0.010929285 0.011542048
0001c0 ac 50 0a 3b 3d 7c 5d bc b4 75 05 3d 72 71 09 ba
       0.0021105213 -0.01351839 0.032582954 -0.000524304
0001d0 ce ef 4e 3c 08 36 cd ba ce 14 03 3c 09 eb e5 3b
       0.012630416 -0.0015656361 0.008000566 0.0070165438
0001e0 98 67 80 bb 74 dc 0d bd 3f f7 e3 ba 61 35 8c bc
       -0.0039185993 -0.03463407 -0.0017392411 -0.017115297
0001f0 ad fb 46 bc 7d 00 8b 3c 02 43 19 bb e1 ed f3 bc
       -0.012144965 0.016968006 -0.0023385887 -0.029776515
000200 b5 5e ef bc d4 aa bc ba 81 40 57 3c cc 41 d9 bb
       -0.029219965 -0.0014394172 0.0131379375 -0.006630158
000210 6e 18 8e bb 62 4f 45 bb ca cc 45 3c 97 02 ad 3c
       -0.0043364083 -0.003010713 0.012072751 0.021119399
000220 5c e5 8c bb d5 22 8a 3b d3 39 a6 bc b1 01 6a bc
       -0.0042998027 0.004215578 -0.020291245 -0.01428263
000230 53 84 22 3a 86 2b d6 3b b2 9a 51 bc 8f 99 15 bc
       0.00061995274 0.00653595 -0.01279323 -0.0091308495
000240 e6 c5 9f 3c 13 db 83 bc 93 57 ba 3b 55 c8 1a bc
       0.019503545 -0.016095674 0.005686709 -0.009447177
000250 c6 41 7b 3c 53 bf b0 3c ca 6b 43 3c 84 9a 77 bc
       0.015335506 0.021575605 0.011927554 -0.015112523
000260 22 51 a7 bc 18 15 35 3c 38 16 0f 3c 0f 4a 2e bc
       -0.02042443 0.011052392 0.008733325 -0.010637774
000270 47 32 a2 bb 29 9e 68 bc 0e 97 21 bc 75 73 89 3b
       -0.004949841 -0.014197865 -0.009862674 0.0041946718
000280 17 18 6e bc 22 a7 53 b9 83 1c 3f 3c bf 2b a1 bb
       -0.014532111 -0.0002018479 0.011664513 -0.004918545
000290 f4 67 88 3c 98 93 1c b8 1e 0c bd bc dc 47 bc ba
       0.016651131 -3.7330756e-05 -0.023077067 -0.0014364677
0002a0 85 30 01 b9 ba f2 c3 3c f5 39 14 bc 4d 28 dd 3c
       -0.00012320474 0.023919452 -0.009047021 0.026996756
0002b0 05 4d e7 bb e8 9f 48 3c 7b 35 2d bb b4 1a 92 3c
       -0.007058742 0.012245156 -0.0026429582 0.017834999
0002c0 f2 13 55 3c 3d fb 0c bc a3 4f d7 bb 9d 27 c5 bc
       0.013005244 -0.008604822 -0.0065707727 -0.02406674
0002d0 ee 61 4f ba 7a 01 7e 3b df 0e d8 3c 5a c1 cb 3c
       -0.0007911016 0.0038758204 0.026374279 0.02487247
0002e0 37 49 99 3c 57 fb 8c bc aa c1 c2 bc 14 f2 1a bc
       0.01871167 -0.017209692 -0.023773987 -0.00945713
0002f0 ab 90 45 bc a1 f2 67 3c c9 ae 5f 3c 27 6c c6 bc
       -0.012058417 0.014156968 0.013652512 -0.024221493
000300 cf 8d a0 3c 30 b3 a5 3c 2f a7 fb 3b 0f 53 ec ba
       0.01959887 0.020227045 0.007679842 -0.0018030124
000310 4c b2 ce bc 46 e7 ca 3c 7f d4 05 bc b5 97 4d 3a
       -0.025231503 0.024768483 -0.008168339 0.00078427355
000320 1e af 93 3c 12 b6 08 b9 ff 06 da bb 09 f9 67 bb
       0.018027838 -0.00013037797 -0.006653666 -0.003539624
000330 41 94 4d 3c 07 87 0b 3b 69 d9 19 3d 7f 93 73 3c
       0.0125475535 0.00212902 0.037560854 0.014866709
000340 87 19 8a bc d8 7a a9 bc 07 88 3f bb 96 de f3 bc
       -0.016857876 -0.02068846 -0.0029225366 -0.029769223
000350 c1 18 e7 3c 66 b6 03 bc 61 98 e7 bb 91 15 d3 bb
       0.028210046 -0.008039093 -0.0070677255 -0.00644178
000360 d5 c7 98 3c 3e 10 bb 3c 6f c9 2d 3b 7a 8c be 3c
       0.018649975 0.022834893 0.002651777 0.023260344
000370 6b 24 cb bb 4b d8 8c 3c c5 03 9c bc 1c 89 15 bc
       -0.0061994097 0.01719298 -0.019044766 -0.009126928
000380 b8 a7 f3 ba ac 53 45 3c bd 14 9f bb 28 45 c1 bc
       -0.0018589413 0.012043875 -0.004854767 -0.023592547
000390 d5 ba 55 bb 13 52 fd 3b 60 0a 66 bb 3f a0 17 bc
       -0.0032612581 0.0077307313 -0.0035101399 -0.009254514
0003a0 4c 4d 8b 3b 24 97 fe bb 99 56 bd bb 7d 6d a0 bc
       0.004251158 -0.007769482 -0.0057781455 -0.019583458
0003b0 b7 f9 7d bc 55 23 9b bc be 94 11 ba 0d 5e 70 3c
       -0.015501431 -0.018937746 -0.00055534753 0.014670861
0003c0 72 7e c3 3b 1f 9a 47 bc cf 00 aa 3c df ef 45 3b
       0.005966001 -0.012182741 0.020752339 0.0030202789
0003d0 e5 10 e9 bb 20 8b 2e bc 24 2d 7a 3c ef 45 8d 3c
       -0.0071126097 -0.010653287 0.015269551 0.017245261
0003e0 41 4e 79 3b 38 bb 9d 3b ab f5 e2 3b a6 9d f1 3b
       0.0038041028 0.004813578 0.0069262586 0.0073735295
0003f0 aa 23 8a bb a3 85 0f bc 1c 10 30 bc 26 26 8c 3c
       -0.0042156773 -0.008759889 -0.010746028 0.017108034

action_model._continuous_distribution.mu.bias f4 [2]
000000 49 df 01 3b 98 5f 23 bb
       0.0019816926 -0.0024928804

action_model._discrete_distribution.branches.0.weight f4 [2, 256]
000000 8a 4d ad bb 12 d6 06 3c d9 69 fa 3b ce 1f 99 3a
       -0.0052887844 0.008229749 0.0076420126 0.0011682452
000010 bd aa 17 3b 4c 2d ab 3b 3e cf 03 3c 42 e2 42 bb
       0.002314254 0.0052239057 0.008045016 -0.002973691
000020 de 0c 92 bb 01 41 17 bc 92 6d f5 3b d6 f6 23 3c
       -0.0044571003 -0.009231807 0.0074898684 0.010007581
000030 2a 2d 36 3b d6 ad f5 3b 8e 89 04 3b ee 94 a2 3b
       0.0027797916 0.0074975295 0.002022359 0.0049616015
000040 da 80 d0 3b 87 9f 8b bb 14 4c c7 bb c6 5f 01 bc
       0.0063630166 -0.0042609605 -0.0060820673 -0.007896369
000050 f7 47 6a 3a ee d9 5f 3b 90 2c 19 bb 8b 9d 10 3b
       0.0008937115 0.0034156996 -0.0023372509 0.002206656
000060 38 d1 07 3c f2 03 ce 3b 8c 0f dc 3b f8 7f c7 ba
       0.008289628 0.0062870914 0.0067157205 -0.0015220633
000070 9b 1f 82 bb 60 5a 3a 3c 3c 80 8e 3c 82 66 90 3b
       -0.003971053 0.011374086 0.017395131 0.004406751
000080 c7 c0 a2 3b 2c e2 60 bc 7b 73 56 bc d0 1f 75 3b
       0.0049668285 -0.013725799 -0.013089056 0.0037402995
000090 65 d7 75 3b 04 df 6d ba 47 93 f0 39 76 4b 20 3c
       0.0037512418 -0.00090740644 0.00045886097 0.009783616
0000a0 5a fd af 3b 10 24 d6 3b 90 12 46 3c 8d 99 ee 39
       0.005370778 0.0065350607 0.012089387 0.00045509302
0000b0 ce d2 2f 3c 94 cf e2 bb 83 47 61 bc b5 26 72 bb
       0.010731412 -0.006921718 -0.01374996 -0.003694934
0000c0 4f ff d6 3a c3 46 a1 b7 6b 44 45 3c 09 52 ad ba
       0.0016402992 -1.9225647e-05 0.012040238 -0.0013223301
0000d0 e6 93 11 3c f5 d6 c5 3b 80 84 b7 3b cf 18 94 bb
       0.008885359 0.0060375878 0.005600512 -0.004519559
0000e0 c4 59 ec 3b 3a 05 7a 3c c8 7c 74 bb ad dd 7c bb
       0.0072128493 0.015260035 -0.003730582 -0.0038584277
0000f0 a6 bc 06 bb 5d 83 33 ba 84 4a 63 bb 81 68 f1 bb
       -0.002055922 -0.0006847883 -0.0034681866 -0.007367194
000100 11 fb ff bb 18 34 9c 3a 6e f4 ec b9 2b 54 29 bb
       -0.007811912 0.0011917381 -0.00045195542 -0.0025837522
000110 a8 02 04 ba b2 b1 d3 3b e6 bb 99 ba 7b 93 84 3b
       -0.0005035796 0.006460392 -0.0011728972 0.0040459014
000120 61 ff 01 3b b0 d3 b7 3b 7f 43 5a bc a4 1f 2f 3c
       0.0019836056 0.005609952 -0.013321756 0.010688696
000130 dc 52 ca ba b1 33 15 3c c4 d5 22 3c f9 2a 55 3b
       -0.0015436071 0.0091065625 0.009938661 0.0032526834
000140 7e 47 dd bb d8 9e 9f ba 43 0b de bb 8b 50 52 bc
       -0.0067529073 -0.0012178076 -0.006776245 -0.012836586
000150 66 73 14 b9 a4 24 04 bb 63 75 ae 3c c7 e5 84 3b
       -0.00014157369 -0.002016344 0.021296209 0.004055712
000160 60 23 5d 3c c0 22 a5 3a af a3 0b bc 4e e5 b7 bb
       0.013497204 0.0012598857 -0.008522912 -0.005612052
000170 96 bb 8b 3b b1 d1 87 3b af 1f 49 3c ed 70 07 3c
       0.0042643053 0.00414487 0.01227562 0.00826667
000180 c1 a3 8e 3a ff 87 2a bc 83 9e 63 ba 2b 93 e8 3b
       0.0010882543 -0.010408401 -0.0008682983 0.007097622
000190 85 8a 77 bc 04 81 a1 bb 65 fd 41 3c a8 3e 2a 3a
       -0.015108709 -0.00492871 0.011840199 0.0006494322
0001a0 e3 c1 49 bc aa 75 1e bb 87 8f 5f bb ce d1 d6 bb
       -0.012314293 -0.002417902 -0.0034112649 -0.0065557724
0001b0 a8 35 fd 3b fe 1a 24 bc a4 39 22 bc 30 7f 09 3b
       0.0077273436 -0.010016201 -0.009901438 0.002098035
0001c0 2c d2 53 3c c5 77 9b 3a 84 20 4f 3b 0e 0a b9 3a
       0.012928527 0.0011861256 0.0031605074 0.0014117376
0001d0 2d 43 65 bb 8a 9e 4f 3c b4 f9 2b ba 2d 76 41 3b
       -0.0034982667 0.012672076 -0.0006560341 0.00295199
0001e0 90 c9 0a 3c 04 74 b1 3c a4 e9 4f ba 96 66 74 3a
       0.008470908 0.021661766 -0.00079312385 0.0009323148
0001f0 b4 fe 9d bb 0d c8 ef 3b 93 4c 1e bc e0 15 cc 3b
       -0.0048216227 0.007317549 -0.009661811 0.0062281936
000200 a2 6b bd bb a1 f8 fe 3b 12 32 8b ba f4 50 94 3b
       -0.005780653 0.0077811037 -0.001061978 0.004526252
000210 5b ae 71 bb 9f ff 90 3a 3d b3 c6 bb bb a8 74 3a
       -0.0036877606 0.0011062509 -0.0060638473 0.0009333004
000220 93 d3 13 3c 5a 79 1a bb ef 3f 38 3b 43 7b fc bb
       0.009022611 -0.0023570866 0.002811428 -0.0077051236
000230 92 ef 13 bc 89 94 07 3c 3d 9d 21 3c a2 2e 53 3b
       -0.009029286 0.00827516 0.009864149 0.003222384
000240 e1 89 27 bc a1 08 38 ba 13 33 a3 3b a9 b0 27 bb
       -0.010225744 -0.0007020329 0.0049804538 -0.0025587475
000250 16 bd b6 39 d5 4d 0e 38 4d 2d 4e bb 70 36 56 3b
       0.00034854625 3.3927925e-05 -0.0031460107 0.0032686256
000260 d7 13 d4 3b ad 9f 94 3c fc 9e 30 bb 27 28 47 3c
       0.0064720917 0.018142546 -0.002695023 0.012155569
000270 56 fe 93 3b 85 5f 57 bb 87 68 09 3a bf d6 06 bb
       0.004516403 -0.003286333 0.0005241711 -0.0020574776
000280 0c c0 98 3b ba 4f eb 3a da d7 f7 ba b6 84 76 3b
       0.0046615656 0.0017952838 -0.0018908933 0.0037615723
000290 5d 54 88 3a d1 ee 1c bb b6 c1 89 3c 5c 31 f4 3a
       0.0010401119 -0.0023946057 0.016816001 0.0018630433
0002a0 ed 8d ef 39 bc 12 0d bb 6e 5e fd 3b 09 4a a6 39
       0.00045691375 -0.002152606 0.007732204 0.00031717148
0002b0 8b af da 3a 37 9b 96 bb cc 56 a0 bb 4f f1 92 3b
       0.0016684396 -0.00459614 -0.0048931595 0.0044843326
0002c0 8f 14 19 bb 7b 75 fc 3b b7 ce 51 bc 74 64 e1 bb
       -0.00233582 0.0077044345 -0.012805632 -0.00687843
0002d0 35 7c cd 3a f0 31 ff 3b 0e 70 cf bb f7 0d dd bb
       0.0015677275 0.0077879354 -0.0063304966 -0.0067460495
0002e0 1f 84 12 bc 51 ac 6d bb 47 77 2b bb 3c a8 b6 bb
       -0.008942633 -0.0036266039 -0.0026163624 -0.0055742543
0002f0 a3 98 6a bb 87 d0 42 3c 71 a2 2e bc 74 87 4f 3c
       -0.0035796545 0.011890537 -0.010658846 0.012666572
000300 fe 71 19 bc 22 4c 16 3c e9 5c 49 ba 35 f4 7e 3a
       -0.009365557 0.009173425 -0.0007681386 0.0009725721
000310 ff 3c fa ba c5 92 ca 39 93 2b 2f 39 72 0a d4 b8
       -0.0019091665 0.00038637794 0.00016705533 -0.00010110893
000320 ea 49 0f 3c d1 6c b0 bb 0a b1 af 39 f9 8a 13 3c
       0.00874565 -0.0053840657 0.00033510505 0.009005302
000330 b9 72 16 3c 6d 2e be 3a 42 dc 8c b9 38 77 fd 39
       0.009182625 0.0014509686 -0.00026866986 0.00048344745
000340 b8 a4 f1 3b 03 3c 55 b9 e6 6f ca bb 18 df b4 3b
       0.0073743723 -0.00020335619 -0.00617789 0.005519759
000350 2a a0 ec 3a 88 5e 95 3b eb 70 96 ba 79 f3 87 bb
       0.0018053104 0.004558388 -0.0011477744 -0.0041488972
000360 b1 af 8c 3b 1e 4c 90 bb cd 0c 42 bc 37 48 a5 3b
       0.004293405 -0.004403605 -0.011843872 0.005044009
000370 16 21 dc ba 90 ff 9a ba a8 e9 d4 3b 02 76 52 bb
       -0.0016794528 -0.0011825431 0.0064975806 -0.0032113795
000380 ac f2 f0 3b 6f fa 26 3c 7d 07 71 3a d8 5e 98 ba
       0.0073531475 0.010191544 0.0009194536 -0.0011624945
000390 8e 0e 21 3a 34 38 40 3c 3d 60 b3 3b ff a6 4e 3b
       0.00061438314 0.01173215 0.005474119 0.0031532643
0003a0 89 d4 b6 ba 0f 91 d9 bb 70 f0 fa 3b e5 4e 00 3c
       -0.0013948838 -0.006639607 0.007658057 0.00783131
0003b0 63 ef 04 bb 95 61 cc 3b 58 dc 3a 3b f7 c3 0e 3c
       -0.0020284287 0.0062372186 0.0028512683 0.008713714
0003c0 b6 bf 2e 3c 17 7f f4 b9 28 a1 16 3c a0 69 a9 b9
       0.010665825 -0.00046633996 0.009193696 -0.0003231289
0003d0 13 81 4a 3c f9 0e c5 bb e6 83 43 3b 08 87 1e 3c
       0.012359875 -0.006013748 0.0029833256 0.009675749
0003e0 c2 53 fa 3b fa 05 38 3c b8 dd 33 bb 7e cc b6 ba
       0.0076393792 0.011231894 -0.0027445387 -0.0013946441
0003f0 c8 8f 15 bc 20 34 d2 3a 83 c5 d4 3b 38 1b 59 bb
       -0.009128518 0.0016037263 0.006493272 -0.0033127796

action_model._discrete_distribution.branches.0.bias f4 [2]
000000 c2 76 85 3a c0 76 85 ba
       0.0010182487 -0.0010182485
