results/SelfPlay2/1v1/1v1-2649878.onnx (onnx, 306068 bytes, 9 tensors)

network_body._body_endoder.seq_layers.0.weight f4 [256, 30]
000000 11 74 33 be b8 69 c8 3e d9 75 42 be 05 b3 b9 3d
       -0.17524745 0.39143157 -0.18990268 0.090673484
000010 29 f6 0b bf bf 66 8b be cb a8 6e be 8b 16 e9 bd
       -0.54672486 -0.27226827 -0.23306577 -0.11381253
000020 52 4a 90 be 8e 58 d6 be 07 ab 1c be 0f bc 13 3e
       -0.28181702 -0.41864437 -0.15299617 0.14427207
000030 08 97 63 3d 60 df ad 3c a9 77 10 3e 30 3d b1 bd
       0.055563956 0.021224678 0.14108147 -0.08654249
000040 ed c1 0b be 59 5d e8 be 7e ec 85 3d e6 76 74 bc
       -0.13648196 -0.4538372 0.06539248 -0.014920926
000050 12 3f 85 bd 33 5b 94 3d cc c8 4d 3e fb 30 ea 3e
       -0.0650617 0.07243957 0.20096129 0.45740494
000060 24 f8 b3 be c9 e4 45 3d 8d 28 6c bd 44 bd ab bd
       -0.35150254 0.04831389 -0.05765586 -0.08385709
000070 96 05 59 be a4 a4 93 be cf 47 14 3e bc b3 db 3d
       -0.21193537 -0.28836548 0.14480518 0.10727641
000080 55 48 74 3d a9 4a eb bd 86 7d 73 be 7f 72 7d be
       0.059639294 -0.1148885 -0.23778352 -0.24750708
000090 2c 2a 23 3d 6a 19 75 bd b4 d5 3f 3d 69 0b 88 be
       0.03983514 -0.05983869 0.046834663 -0.26571205
0000a0 32 a7 c4 3d 89 77 92 3d d8 80 5c 3e 3a 56 9c 3d
       0.096022025 0.07151706 0.21533525 0.07633634
0000b0 a1 dc da bd d4 b5 21 3e db d8 c4 3d fd 8a d7 bc
       -0.10686613 0.15792018 0.096116744 -0.026311392
0000c0 13 3a 7d 3e c5 26 a6 3e 67 6a 2c 3e 1d ac 60 be
       0.24729185 0.32451454 0.16837464 -0.21940656
0000d0 e6 f9 8c bb 11 79 9d be 9b 9c 06 3e 6f 60 c9 bd
       -0.004302251 -0.3075643 0.13145678 -0.098328464
0000e0 a1 4f 6f 3e 01 51 49 bc 37 a0 88 3e 3e c5 7b be
       0.2337022 -0.012287379 0.26684734 -0.2458696
0000f0 b8 34 01 be be cf 31 3e d2 b1 4a be ea c9 4a 3c
       -0.12617767 0.17364404 -0.19794396 0.012377242
000100 c9 b8 e4 bc 4c 5d 1d be 66 60 0d 3e ff 9c 43 be
       -0.027920144 -0.15367621 0.13806304 -0.19102858
000110 f8 1f da 3d c4 b0 e8 3d 2d f6 cd bc d5 d5 c0 be
       0.10650629 0.1136184 -0.0251418 -0.3766314
000120 e5 5b 27 3e c0 e9 3d be 32 a3 59 be bb 58 04 3d
       0.16343649 -0.185462 -0.2125366 0.032311182
000130 a9 99 18 be 9a a8 af 3c 35 c5 e2 bd be 4f a9 bd
       -0.14902367 0.0214427 -0.110727705 -0.08267163
000140 91 14 5a bd 8d 06 28 3d 72 6a c7 bd ec 6f 07 3e
       -0.05324227 0.041021872 -0.097371 0.13226289
000150 bc b1 55 bd f6 74 4f 3e 35 c5 14 3e 9c c2 f7 3d
       -0.052171454 0.20259461 0.14528354 0.12097666
000160 18 80 a3 3c b7 59 1d 3e 4a 9f 89 3d 0e 21 8e be
       0.01995854 0.15366255 0.06719835 -0.27759594
000170 b8 c4 71 3e 3b 6d 4b 3e 74 c8 99 be cf e2 24 3e
       0.23610198 0.19865887 -0.30035746 0.16102146
000180 db 5f 38 be 0d 82 aa 3c 8e e1 27 be b2 31 7b 3e
       -0.18005316 0.020813966 -0.16394636 0.24530676
000190 0d 6f 8e be d6 5a 4b 3e 37 4f 40 3d 94 f9 9c 3d
       -0.278191 0.1985887 0.046950545 0.07664791
0001a0 3c 55 49 bd 0e 6f 7d bb 59 52 87 3e 3f 12 19 3d
       -0.04915355 -0.003867093 0.26430014 0.037370916
0001b0 b6 3f 10 3e 38 9f 95 3d b2 f1 80 3e 72 26 e3 be
       0.14086804 0.07305759 0.251844 -0.4436527
0001c0 45 96 0c bc 91 a9 db 3d c1 b0 00 3e b8 07 e5 bc
       -0.008580749 0.107257016 0.12567426 -0.027957782
0001d0 88 a7 1f be af 87 00 3c 15 7c 29 be 57 d6 9f 3d
       -0.15591252 0.0078448495 -0.1655124 0.07804554
0001e0 38 7e 88 bd 95 0c 85 3d 59 d4 4e 3e 30 a0 76 3e
       -0.06664699 0.064965405 0.20198192 0.24084544
0001f0 28 09 f3 3d a2 23 0e 3e cd dd b4 3c f0 8a a0 bd
       0.11866981 0.1388078 0.02207842 -0.07839
000200 a3 23 9f be 9a 49 38 be c6 a4 4d 3e db 3f c3 bd
       -0.31081876 -0.17996827 0.20082387 -0.09533664
000210 1c 91 fc bc ec 94 9e be ab 15 4a bc 91 07 a6 3d
       -0.030830912 -0.30972993 -0.012334268 0.08106912
000220 0e 52 1e bd 3a 4a 46 bd 98 35 87 bd 5f ae e8 3d
       -0.038652472 -0.04841063 -0.06602019 0.11361384
000230 29 87 18 3e fc ae 18 bd 0d ca 9b 3e d3 fe 78 3e
       0.1489531 -0.037276253 0.3042759 0.24315958
000240 9c 5c 0a 3e b9 67 87 3e c3 de 46 3e 03 9c 01 be
       0.1351189 0.26446322 0.19420914 -0.1265717
000250 ae 86 58 3d 35 30 c5 bd f5 e6 9e 3d 20 cb aa be
       0.052862816 -0.096283354 0.07758895 -0.33358097
000260 c6 0e a5 3d 7c a0 16 3e 86 2e 9f 3e 76 f2 d3 3e
       0.080594584 0.14709657 0.31090182 0.4139592
000270 ed 67 5b bd 0e 87 40 3e c1 07 fd 3d b4 6e 2c be
       -0.05356591 0.1880152 0.123549946 -0.16839105
000280 69 1c 84 bd dc cd 01 be 77 94 c6 be 98 12 68 3e
       -0.06450731 -0.12676185 -0.38785145 0.22663343
000290 fa 4b 07 be 7a 2f 33 3e 64 fe 19 3e ab 61 81 be
       -0.13212577 0.1749858 0.15038449 -0.25269827
0002a0 52 2f 84 bc 68 b5 b7 3d d8 27 96 3e 3a 4b 30 3c
       -0.016135845 0.08970147 0.29327273 0.010760123
0002b0 f3 c9 e6 bd 94 2d b8 3e ca 9e 49 be d8 7d 69 3e
       -0.112689875 0.35972273 -0.1968948 0.22801912
0002c0 ae 30 8c 3e 14 58 72 be 6a 5d 17 be 1b e4 37 be
       0.2738089 -0.23666412 -0.14781728 -0.17958109
0002d0 17 42 81 be 42 4a 3a 3e b1 92 6c bd b4 7f c3 be
       -0.25245735 0.1819239 -0.057757083 -0.38183367
0002e0 56 c5 9c be 4e 62 ae 3e 35 63 50 3d 80 6d 75 bd
       -0.30619305 0.34059376 0.05087586 -0.05991888
0002f0 33 76 7c 3d 7f d6 ec bd 1a b1 7b 3e 95 85 ac be
       0.06163616 -0.115643494 0.24579278 -0.33695665
000300 ed bc 08 3d a0 8f 93 be a4 40 4b be a2 9f 2a 3d
       0.0333833 -0.28820515 -0.19848877 0.041656144
000310 7a ea f8 3d fc 64 5c bc c2 a7 3c 3e c4 80 88 3e
       0.12154098 -0.013451811 0.1842337 0.2666074
000320 c9 02 72 be de 59 7d 3e 5d 84 6f 3e a7 f1 d7 3d
       -0.23633875 0.24741313 0.23390336 0.105441384
000330 96 87 aa 3d 5b 91 5e 3c 87 8e 00 be 34 f4 ab 3e
       0.08326642 0.01358446 -0.1255437 0.3358475
000340 2f 4a e4 bd ed 7e ac 3d 86 f2 25 bd 39 e0 3b be
       -0.11146962 0.08422647 -0.04051449 -0.18347253
000350 94 68 c4 3d 8a 27 e0 3c 97 03 40 3c 96 94 55 3e
       0.09590259 0.027362604 0.011719606 0.20857462
000360 f4 d2 52 3e 06 26 ed 3c 57 a2 eb bd 9e 82 ba be
       0.20588285 0.028948795 -0.11505573 -0.36427778
000370 7a c8 f1 3d 0f 18 c9 bd 53 b2 2a 3e ae 8b 0c 3c
       0.11805816 -0.09819042 0.16669588 0.008578224
000380 44 fc f3 bd 5c 03 40 be 1c 4b 47 be 3f cb b0 bd
       -0.1191335 -0.18751281 -0.19462246 -0.08632516
000390 8e 72 07 be 91 a4 99 3e be af 6c be 60 a1 71 be
       -0.13227293 0.30008367 -0.23113915 -0.23596716
0003a0 a7 a3 5a 3c 99 23 35 3e c6 e8 f4 3d b8 a1 4a 3d
       0.013344682 0.1768936 0.119584605 0.049470633
0003b0 99 08 d4 be db 3b 5b 3e d8 72 71 be 41 5c 96 3d
       -0.4141281 0.21409552 -0.23578966 0.07341815
0003c0 53 1e 31 be 02 84 ac be 36 ff 86 be 04 3b a1 bd
       -0.17296724 -0.33694464 -0.26366585 -0.078725845
0003d0 77 39 7e bd 80 d5 f3 bd 3f b1 9f bb 52 a2 8f be
       -0.06206652 -0.11905956 -0.0048734243 -0.28053528
0003e0 5a a2 2d bd f9 2d 10 be 4b 0e 27 3e f3 13 8d 3d
       -0.04239116 -0.14080037 0.16314046 0.06888571
0003f0 80 24 56 3d cc 51 79 3e 56 98 6e be 46 ba 9f be
       0.052280903 0.2434761 -0.23300299 -0.31196803

network_body._body_endoder.seq_layers.0.bias f4 [256]
000000 48 16 66 3c 24 e7 a4 bb 43 01 c3 3a d7 f3 d6 37
       0.014043398 -0.005032437 0.0014877695 2.5624335e-05
000010 8b 30 85 ba d0 4c db ba 99 be c2 3a d9 eb ab ba
       -0.0010161562 -0.0016731266 0.0014857828 -0.0013116553
000020 fa 76 b0 3b dc 88 3a 3b 39 27 02 3c c6 f6 5a 3b
       0.005385277 0.0028462922 0.007943922 0.0033411249
000030 ca 28 9c 3b 36 40 b1 3b ec ef ad 3a aa b2 a0 3b
       0.0047656046 0.005409266 0.0013270355 0.004904111
000040 30 88 6a 3b 35 04 1d bb 76 f8 6b 3b df 98 56 3c
       0.003578674 -0.0023958806 0.0036006249 0.013097971
000050 be c4 ba 39 de 13 80 b9 13 8a be 3b 5f 3e d1 3b
       0.0003562327 -0.00024428865 0.0058147996 0.006385609
000060 b0 1b 82 bb 13 37 12 39 ec a6 15 3c a0 5d 92 ba
       -0.0039705858 0.00013944162 0.009134036 -0.0011166818
000070 26 03 b6 bb 8a c8 6a 3a 67 7d 92 3b 89 0f 86 3b
       -0.0055545745 0.0008956274 0.0044705155 0.0040912074
000080 e2 d7 11 bb 28 ab 0f bb ca 85 c4 3b 51 29 03 3c
       -0.002225392 -0.0021922085 0.005997394 0.008005456
000090 fd 1f a5 bb 85 3f 39 3c df 71 c1 ba 52 a0 1a bc
       -0.0050392137 0.011306648 -0.0014758668 -0.009437637
0000a0 a3 24 48 3c 8c c3 0d 3a 00 40 4c 3c c2 38 87 3b
       0.012215766 0.0005407862 0.012466431 0.004126639
0000b0 89 88 de 39 71 03 c3 3b 4b 8a a4 3b dd 54 02 bc
       0.00042444866 0.005951338 0.0050213686 -0.007954803
0000c0 c8 89 c6 bb 4e 3f 84 bb c8 ea 4d 3c 12 8f e8 3b
       -0.0060589053 -0.004035867 0.012568183 0.0070971334
0000d0 58 9d 86 3b 6d 11 18 3c 89 e1 27 3c 8b 68 af 3b
       0.0041081123 0.009281498 0.010246643 0.0053530387
0000e0 5e 86 91 3a 74 cc 86 3a f4 a7 35 bc d9 f3 f5 3b
       0.0011102667 0.001028432 -0.011087406 0.0075058755
0000f0 16 41 4c bb be 7c 23 3c 6e 13 49 3a 86 a3 0b 3c
       -0.0031166724 0.009978471 0.0007670437 0.008522874
000100 e3 f8 ad bb 00 bf 11 bc 83 fc 63 bb cd f1 2c 3c
       -0.0053092106 -0.008895636 -0.003478796 0.010555697
000110 98 c2 83 ba b0 3d e8 3b e5 b2 1f 3c 4d d5 de 3b
       -0.00100525 0.007087432 0.009747242 0.00680033
000120 a1 4a c1 3b 1a 44 42 bb 38 aa 0e 3a 88 f9 fa 3b
       0.005898789 -0.0029642642 0.00054422347 0.007659141
000130 70 bc ef ba 34 2f 8c 3a c8 81 c3 3b 4f 3f 84 3a
       -0.0018290412 0.001069522 0.005966399 0.0010089668
000140 91 f2 de 3b ee ca c4 3b aa 66 ca ba 53 a6 4b 3c
       0.0068038185 0.0060056364 -0.0015441973 0.0124297915
000150 56 dc 10 bb 59 fd 96 3b 58 2e 4c bb 8f 89 7c 3a
       -0.0022103987 0.004607838 -0.0031155553 0.0009633535
000160 a9 6d a4 ba 88 da b8 3b 8e 13 1b bc 53 46 17 ba
       -0.0012544888 0.0056412853 -0.009465111 -0.0005770672
000170 43 c3 0f 3a 5b 1c 69 bb c4 ff bb 3b 2d c3 9f 3b
       0.00054841134 -0.003556988 0.0057372767 0.0048755617
000180 2b c6 6b 3a ef fb b2 3a 2f ce a3 3b 4a 76 f5 ba
       0.0008994068 0.0013655404 0.0049989442 -0.001872727
000190 4b 7b 84 3b 2c 5c 01 bb 4e 36 b3 bb 87 18 db 3b
       0.004043018 -0.0019738777 -0.00546912 0.0066862735
0001a0 cb 3e 9e 3b 82 65 48 bb fe 66 0b 3b a0 6f 79 bb
       0.004829263 -0.0030578081 0.0021271105 -0.0038060918
0001b0 ee df 75 bb e1 42 3f 3c 17 ce 89 3b 4a 27 01 3b
       -0.0037517506 0.01167366 0.004205476 0.0019707256
0001c0 18 03 87 ba 9a c5 9e 3b 72 63 14 3c 52 ba ef 3a
       -0.0010300605 0.0048453333 0.009056913 0.0018289781
0001d0 7f 4c 00 bc 4d 48 7b bb b1 f6 2d bb e3 d4 98 bb
       -0.007830738 -0.0038342655 -0.0026544745 -0.00466405
0001e0 5c d4 bf 3b b4 f4 0d bb 86 b3 63 3c 55 75 88 bb
       0.0058541726 -0.0021660747 0.013897782 -0.0041643777
0001f0 07 59 a8 3a 55 91 92 3a 1b d9 ab 39 de 07 40 3b
       0.0012843915 0.0011182228 0.00032777418 0.0029301564
000200 ef be 37 3c dd 71 2e bb b6 52 18 bb 45 50 80 3b
       0.011214956 -0.002661816 -0.002324266 0.003915819
000210 5b 26 b8 3b 36 88 01 ba b7 cb a5 3b f1 e5 46 bb
       0.0056198067 -0.00049412565 0.005059685 -0.0030349458
000220 8d 7e 2a 3c 88 a8 e1 bb 30 fd d9 ba 95 8c d0 3b
       0.010406149 -0.0068865456 -0.0016631242 0.006364415
000230 82 03 e8 ba 2c 22 de 3b 2f 71 1c 3c e4 35 9c ba
       -0.0017701241 0.006778976 0.009548469 -0.0011917916
000240 5a df fa 3b bc 73 b0 3b 5d 28 40 3b 9f 52 a8 bb
       0.00765602 0.0053848904 0.0029320933 -0.0051368023
000250 30 5f 1d 3c a8 77 18 3a a8 b4 05 3c b0 95 58 bb
       0.009605214 0.000581617 0.008160748 -0.0033048205
000260 0b 4e eb 3b 8b ad c8 b9 dd 29 cb 3b b9 62 41 3c
       0.0071809343 -0.00038276272 0.006200059 0.0118033225
000270 f3 63 14 3b 6c 34 b7 3b 91 9b b6 3b 13 a4 06 3c
       0.0022642582 0.005590966 0.005572744 0.008217829
000280 25 f9 df 3b 2a 72 9b 3b a7 bf fb 3a 4f e2 3f 3c
       0.0068351203 0.004743834 0.0019206897 0.011711671
000290 a4 d2 8b 3b 18 ef 35 3c 7f cc a0 3b 64 02 36 3c
       0.0042670537 0.011104368 0.0049071903 0.011108968
0002a0 71 2e 9a b9 ec e9 88 bb 4e 52 e0 3b e8 70 f3 bb
       -0.0002940777 -0.0041782763 0.006845749 -0.007429231
0002b0 2d 9a 76 bb 2d b9 70 bb 66 6b 2f 3b c0 35 0c bc
       -0.0037628517 -0.0036731467 0.0026766895 -0.008557737
0002c0 11 8e bf ba 4a 7b 66 bb 7d 27 ac 3a c8 97 19 ba
       -0.0014614483 -0.00351687 0.0013134327 -0.0005859104
0002d0 81 33 02 3c 9b f9 f6 3b 8c 6b 21 3c d6 5f 9e 3a
       0.00794685 0.0075370795 0.009852301 0.0012083005
0002e0 51 dc 2f 3c 2f a3 7d 3c 1b f6 bd 3b 1f 72 bf bb
       0.01073368 0.0154808005 0.0057971603 -0.0058424617
0002f0 ca 3d 30 3c 70 f6 96 3b d6 5f f9 3b bd a4 15 3c
       0.010756919 0.0046070144 0.0076103015 0.009133515
000300 93 f0 25 3b fe 41 83 3b 95 5b 36 3c ac 35 a9 3b
       0.0025320395 0.0040056696 0.011130233 0.005163869
000310 0e 45 3c 3c ac 6f 19 3c 5f 6a 53 3b 40 0e 19 3c
       0.011491073 0.009365004 0.0032259447 0.009341776
000320 26 86 22 ba 48 8a ea 3b 2d 3c dc 3a ce 1b 9d 3b
       -0.0006199799 0.0071575977 0.0016802602 0.0047945743
000330 f4 a6 22 bb 67 b8 75 bb 7e ec 30 3c 2c 0f 34 3b
       -0.002481875 -0.0037493946 0.010798572 0.0027474863
000340 d5 56 0f 3c bf 73 fa 3a e0 5a 3c 3b 7e 74 30 bb
       0.00874873 0.0019107981 0.002874069 -0.0026924904
000350 34 8a 99 bb d6 d6 cc 3b 1b 5a 2b ba c5 d6 0f 3c
       -0.0046856645 0.0062511964 -0.0006536559 0.008779232
000360 38 a9 bd 3b 7d df 4f 3b 61 c8 97 bb 92 92 07 3c
       0.0057879947 0.0031718903 -0.0046320413 0.008274691
000370 4a 51 e4 3b eb 66 f9 b9 96 89 85 bb 9f e0 8c ba
       0.006967698 -0.0004756966 -0.0040752394 -0.0010748095
000380 e7 91 1d 3c 93 bc a6 3b 22 7b 93 3b 52 27 bb 3b
       0.009617305 0.005088398 0.0045007626 0.0057114745
000390 d9 e3 d1 3b c8 cf 14 3b ae 97 d3 ba 19 6d 82 bb
       0.0064053354 0.0022706855 -0.0016143227 -0.0039802906
0003a0 a7 19 52 bb cc 4b 26 bb e0 e2 4f 3b 87 f7 33 3c
       -0.0032058747 -0.0025374768 0.0031720921 0.010984308
0003b0 aa c4 69 ba ff 77 0f 3c d8 58 e7 3a 61 d4 14 3c
       -0.000891755 0.008756637 0.0017650379 0.009083838
0003c0 0a 55 95 bb 89 f9 2f 3c c3 79 32 3c ee 57 ce 3b
       -0.0045572566 0.010740646 0.010893288 0.006297103
0003d0 95 94 8d 3a e6 c7 f0 3b b2 7c 19 bb 5c dd 6a 3c
       0.0010801727 0.0073480485 -0.0023420271 0.014335003
0003e0 7d b7 62 3b bd 20 fe 3b 55 fd 07 bb 31 de 14 3c
       0.003459423 0.0077553676 -0.0020750363 0.009086178
0003f0 7a 81 08 3c fc da 4e 3c bb 78 5a bb b7 8a 98 bb
       0.008331651 0.012625452 -0.003333612 -0.004655208

network_body._body_endoder.seq_layers.2.weight f4 [256, 256]
000000 1f ce b7 bc b0 14 11 3d 60 ed 02 3c 87 f4 3f bc
       -0.022437153 0.03542012 0.007991165 -0.011716015
000010 08 b7 90 3b 37 a4 13 bd de 9c 69 bd c8 17 30 3d
       0.0044163503 -0.03604528 -0.057034366 0.04299143
000020 6f 35 a7 3c 71 56 3b 3d 6c bb 52 3d 8b 36 87 bc
       0.020411221 0.045736734 0.05144827 -0.0165055
000030 ec ee b6 bd 07 c3 1e 3d 9f af 75 bd 32 f7 47 bd
       -0.089322895 0.03876021 -0.05998194 -0.04881973
000040 bc dd 7f bd 1c 9e ca 3d 63 29 cd bc 19 90 0d 3c
       -0.06246732 0.09893438 -0.025044149 0.008640313
000050 3f a4 ae 3d 0f 2b 52 3d 8e e1 a0 bd ac 26 9c 3d
       0.08527421 0.051310595 -0.07855521 0.076245636
000060 d0 3c 53 bd 35 0e 1c 3c a3 cf 02 3d df ad e3 bc
       -0.051571667 0.009524872 0.0319363 -0.02779287
000070 08 77 b9 3d 06 72 19 3d 74 6f fe bb c6 aa eb bc
       0.090559065 0.037462257 -0.007764751 -0.028767955
000080 c4 f2 46 bb 20 ce 37 bc 58 3f f5 bd a5 6d a8 3c
       -0.0030357102 -0.011218578 -0.119749725 0.020560095
000090 3f 44 bc bd 0a c6 de 3d 42 47 3f 3c ab ff 53 3d
       -0.091927044 0.10877617 0.011674704 0.051757496
0000a0 8c 1a d9 3b 7d 77 22 3e 03 e2 a6 3d 98 81 b8 bc
       0.006625479 0.15865894 0.08148577 -0.022522733
0000b0 6d ab 4f bd 88 0d 30 3d 1e e2 97 3b 41 7b a1 bc
       -0.050700594 0.042981654 0.0046351096 -0.019712092
0000c0 fe 93 57 3d 85 d5 47 bb cc 34 66 3d 35 83 52 bd
       0.05263137 -0.0030492258 0.056202695 -0.05139466
0000d0 c1 e7 1c bd 45 e3 00 3d ca 5c 48 3d 34 59 88 bd
       -0.038306955 0.03146674 0.048916616 -0.06657639
0000e0 25 7d 55 bd 4a 93 85 3c 8e c2 99 3c db f1 b2 bd
       -0.0521213 0.016305584 0.018769529 -0.087375365
0000f0 07 de d8 3c fa 1a 6b 3a 08 89 fe 3c d2 ed a0 3c
       0.026473058 0.00089685584 0.031071201 0.019644652
000100 fe c5 94 3c f3 f9 b6 3d cf 40 0e 3e 32 0c c4 3c
       0.018160816 0.08934393 0.1389191 0.023931596
000110 a4 7e 83 3d f0 67 b5 3d ce 27 41 38 2e 25 c0 bb
       0.06420639 0.08857715 4.6051857e-05 -0.005863807
000120 40 8f 98 3d 58 c6 0c bd 23 62 58 3d 1a 95 13 3a
       0.07449198 -0.034368843 0.052827965 0.0005629823
000130 3d e5 aa bd e2 2a fc bd 2c 97 ca 3b dc 5a 8e bc
       -0.08344505 -0.12312867 0.006182572 -0.01737731
000140 1f 7e 22 3c d3 f4 fc 3c 5f b2 e0 bc d7 4c 47 3d
       0.009917765 0.03087846 -0.027428804 0.048657265
000150 5a 41 59 3d ee 9d cd 3d aa 9c 97 3d 9a 25 8d 3d
       0.05304084 0.10039888 0.07402928 0.068919376
000160 a0 03 bd 3c 7d b5 dc bc 29 24 50 3d 0e 62 a0 bd
       0.023073018 -0.02694201 0.050815735 -0.078312024
000170 2a ec c6 3d d5 a3 85 bd e2 53 9e bd 83 45 c6 3b
       0.097130135 -0.06525389 -0.07730843 0.006050767
000180 e9 f1 72 bd 24 9f 02 3d 0e 06 ef 3c 0b 9d ad bc
       -0.059312735 0.03189005 0.029177692 -0.021193048
000190 1f 09 22 3d 6e 77 b7 3d 3d 13 21 bd 81 8c 58 3d
       0.03955948 0.08958326 -0.039324988 0.05286837
0001a0 0d 2c 02 bc 81 17 bc 3d c1 8a 88 3d bf 20 c3 bc
       -0.007945073 0.091841705 0.0666709 -0.023819325
0001b0 b5 55 1e 3d 82 ed 46 3d 86 b0 fb bd 7d bf 90 3c
       0.038655955 0.04856635 -0.122895285 0.017669434
0001c0 be 65 89 bd 51 35 c8 bd e9 4a 3d bd 4d bf f1 bd
       -0.06708859 -0.09775794 -0.046214018 -0.11804066
0001d0 19 1b 99 3d 3a 57 e1 3c 2d 02 bf bc 82 c3 b8 bd
       0.074758716 0.027507413 -0.023316467 -0.09021665
0001e0 d8 d7 14 3d 4e 21 49 3b 63 0a 5a 3d 4e 6e 69 bc
       0.036338657 0.0030690017 0.05323256 -0.01424749
0001f0 a1 d1 3e 3c ec 84 fe bd 91 05 99 3d c7 2d 9d 3d
       0.011646659 -0.124276966 0.07471765 0.07674747
000200 b7 50 9b 3d 14 c4 09 3d c0 6d d8 bd c4 8a 1c 3d
       0.075837545 0.03363426 -0.10567808 0.038218275
000210 d4 05 18 3d 6d 0d d2 3b 65 a9 d6 bd 43 a4 83 3d
       0.037114933 0.006410292 -0.10481528 0.06427815
000220 08 d8 1e be b3 8d 4c bd 98 fe 82 3d 0f 38 a8 3c
       -0.15512097 -0.049939822 0.06396216 0.020534543
000230 75 12 a5 bd 20 ba 45 3c 8c df a8 3c a9 0b 18 bd
       -0.08060161 0.012068301 0.020614408 -0.037120495
000240 f2 ee f2 bc 7b fe 43 bd 21 f2 74 3c 94 5b 0a bc
       -0.029654954 -0.047850113 0.014950306 -0.0084446855
000250 8a 1c 8e 3d fd eb 4e 3d b2 a2 4d 3d f5 5a 39 3d
       0.06939037 0.050518025 0.050203986 0.04525276
000260 97 d2 fa 3c f0 27 72 bd 8c c4 4a bd 6d 95 b5 3d
       0.030617995 -0.05912012 -0.049503848 0.08866391
000270 62 a2 cb 3c 0a 7a 45 bc 4e fd 94 bc a1 6f 5b 3c
       0.024857704 -0.012053022 -0.018187191 0.013393314
000280 6c 5d 12 bc a2 f9 59 bc 7d 99 6b 3d f1 34 fb bd
       -0.008933406 -0.013304146 0.057519425 -0.12265957
000290 71 7f 22 3d 44 4d 85 3d 89 6f 48 bc 49 0a a7 bd
       0.03967232 0.06508878 -0.012233623 -0.081562586
0002a0 3a fd 45 3d dc 7d 5c 3d db 4f 87 bc e1 18 02 be
       0.0483372 0.053830966 -0.01651757 -0.12704803
0002b0 30 17 de 3b 59 f4 19 3d 5d f7 86 3c 65 6d 99 3d
       0.0067776665 0.037586544 0.016475374 0.074915685
0002c0 27 13 ab bd 86 13 d0 3d a0 15 51 3d c1 4c a7 bd
       -0.083532624 0.10159974 0.051046014 -0.081689365
0002d0 3b 3a db 3c 4f 9e 8c 3c 75 78 cb bd d9 08 f8 3a
       0.026761165 0.017165331 -0.09935085 0.0018923535
0002e0 3b 78 0c 3e bc c1 78 bd 7e 7c 94 bc 18 e3 e0 bd
       0.1371774 -0.060731634 -0.018125769 -0.10980815
0002f0 d2 67 83 3c f4 a0 7f 3d 7c 45 23 3d 0a 4d a6 bc
       0.016040716 0.062409356 0.039861187 -0.020300407
000300 c8 6b 30 bd c3 38 80 bd b2 7c a6 bc de ae 18 be
       -0.04307154 -0.062608264 -0.020323131 -0.14910457
000310 59 77 db 3c 3f 40 06 bc fa 46 d3 bd 3e 4a 86 3c
       0.026790308 -0.008194028 -0.10316272 0.016392823
000320 21 6a 8e 3c ec 09 4c 3d e9 5f ab bd 6f c1 be bc
       0.01738459 0.04981415 -0.08367903 -0.023285596
000330 b9 32 a2 bd 88 ed b4 bd ac e5 a6 bd 07 ed 24 bd
       -0.07919831 -0.08834368 -0.08149275 -0.04026511
000340 26 07 6b 3d 3c 15 33 bd 7c 40 d2 bc 51 9d 43 bc
       0.057379864 -0.043721423 -0.025665514 -0.011939363
000350 7f 5f 5b bd 33 e6 0b be cd 6d a9 3b 42 39 73 3d
       -0.05355787 -0.13662033 0.00517056 0.059380777
000360 11 f7 ee 3c 71 74 69 3d 95 ba 2d bd af 29 3b be
       0.029170545 0.056995813 -0.042414267 -0.1827762
000370 d3 85 35 bd 55 3e 3c bc ce 26 85 bd 68 5c 7b bd
       -0.044317078 -0.0114894705 -0.06501542 -0.061367422
000380 12 51 39 bc 3b 5c 2f bc ab f8 4c bc e4 c9 43 3c
       -0.011310833 -0.010703142 -0.012510459 0.01194999
000390 46 78 a5 3d 81 fe a2 bd 38 3c e2 bc 74 f2 87 3d
       0.08079581 -0.07958699 -0.027616605 0.06638041
0003a0 b0 70 23 bd 5d ca 02 3e 16 35 06 bd 2c 47 0f 3c
       -0.03990239 0.12772508 -0.03276547 0.008744996
0003b0 a9 79 57 3d 94 bb 99 3c 6d 8f 16 3d 5f 81 06 bc
       0.05260626 0.018766202 0.036757875 -0.008209555
0003c0 15 6d 86 bc 99 ae 24 3e e2 5f cb 3c f8 86 68 bd
       -0.016409436 0.16082229 0.024825994 -0.05676934
0003d0 84 3d 41 bd df d6 3d 3d 36 c1 06 bd 4e 1d b8 bd
       -0.047177806 0.046347495 -0.032899104 -0.089899644
0003e0 bb a6 6b 3c 86 96 c1 bc 75 9e 9c bc b0 e5 db bc
       0.014383013 -0.023631345 -0.019118527 -0.026842922
0003f0 5a 59 df 3d 51 12 bc bb f9 cb 24 3d 02 5b 88 3b
       0.10905714 -0.005739488 0.040233586 0.0041612396

network_body._body_endoder.seq_layers.2.bias f4 [256]
000000 b6 16 5d bb fe c7 76 3b 7b d1 d3 3b f1 59 5f 3b
       -0.003373546 0.0037655826 0.006464181 0.003408071
000010 f4 b7 ed 3a 27 31 43 bb f6 ee 0b 3c 97 fe c0 3b
       0.0018136487 -0.0029783936 0.008540859 0.0058897245
000020 09 32 8a 3b ef 1d 14 3c 08 bd 8a 3b 64 7a a3 3a
       0.0042173904 0.00904034 0.00423396 0.0012472388
000030 93 11 87 3b a3 e1 8c 3b 4a cf ec b9 9c ad 8d 3b
       0.004121968 0.004299359 -0.0004516787 0.0043236744
000040 40 19 29 b9 f4 37 b3 3b 3a 0b c4 3b 3b 7c 7d 3b
       -0.00016126502 0.0054693166 0.0059827836 0.0038678783
000050 13 11 ac bb 4b ab 96 3b e3 70 12 3c d2 b9 01 3c
       -0.005251059 0.0045980564 0.008938047 0.007917838
000060 b6 b6 41 ba e8 92 8b bb 0a dd 17 ba 2c 33 14 3c
       -0.0007389592 -0.004259456 -0.000579313 0.009045403
000070 a1 b0 72 39 28 f6 17 3a 56 7f 0b 3b 6d 43 80 bb
       0.00023144718 0.0005796873 0.0021285615 -0.003914288
000080 ea 3a f4 3b 96 bd 06 3b ed c7 73 3a a6 29 dd b8
       0.007453312 0.002055978 0.00092995056 -0.00010545859
000090 7e 7f 59 b9 59 10 06 b9 00 7b 18 3c 41 9b 8e 3b
       -0.00020742227 -0.00012785326 0.009306669 0.004352004
0000a0 80 f1 d4 ba 22 2d 87 39 b2 03 d5 3a a1 13 4e 3b
       -0.0016246289 0.00025782833 0.0016251712 0.0031444805
0000b0 01 63 41 ba cf f4 f0 3b 94 72 11 3b d2 26 1e 3b
       -0.00073771185 0.007353402 0.0022193538 0.0024132025
0000c0 ad a3 4e bb 8d 07 ac 3b 79 08 3a 39 6b e8 11 3b
       -0.0031530664 0.0052499236 0.00017741499 0.0022263776
0000d0 6e 4d ee ba 1e 3b b7 3b 5c fe 09 3c 73 53 19 3c
       -0.0018181035 0.005591764 0.00842246 0.009358275
0000e0 2f b5 85 3a d2 41 36 3b 33 ce f5 3b a4 43 28 3b
       0.0010201092 0.0027810228 0.0075013875 0.0025675083
0000f0 0b 9b 45 3b dd a1 2e 3c 11 d9 94 3b 00 05 8e 3a
       0.0030152227 0.010658708 0.004542478 0.001083523
000100 50 0f 11 3b fa 9b a3 bb 9a 7c 82 ba 3f 89 a9 3b
       0.002213437 -0.004992959 -0.0009955347 0.0051738317
000110 3a b2 9b bb c9 6d 73 3a 0e 1c 2d 3b 09 ac d2 3a
       -0.004751471 0.00092860736 0.0026414427 0.0016072999
000120 b6 8e ac 3b 8b a8 d9 37 b2 fc 31 bb 85 7b 34 bb
       0.005266036 2.59469e-05 -0.0027158675 -0.0027539444
000130 e4 03 3d b9 29 08 c4 3b 21 e0 64 bb 98 b5 48 3b
       -0.00018025894 0.005982418 -0.003492363 0.0030625816
000140 1f 44 f8 b8 54 0c d5 ba 03 ac 99 3b 5a ae 25 bb
       -0.0001183825 -0.0016254284 0.004689695 -0.0025280924
000150 5c 01 ed bb 10 93 c7 3b 12 ef 3b 3b 44 1f 37 b9
       -0.007232828 0.0060905293 0.0028676433 -0.00017463887
000160 d2 7d 05 ba 5b 22 ca bb be 8d 97 3b 86 f8 6a 3b
       -0.0005092296 -0.0061686463 0.0046250513 0.0035853698
000170 c5 96 47 3b ee c8 47 ba 33 ea 09 3b ae 22 8f bb
       0.0030454856 -0.00076211884 0.0021044135 -0.004368148
000180 a5 e5 da 3b 7f eb 25 b9 96 96 85 bb 6d 7a ae 3b
       0.006680208 -0.00015823355 -0.004076789 0.005324653
000190 e6 87 11 bb 2b 5f 25 3c f4 87 b4 b6 31 b2 bd bb
       -0.0022206246 0.010093491 -5.380245e-06 -0.0057890643
0001a0 e0 21 d7 3b b5 af e9 3a 09 2a 3a 3a d2 b4 c2 3b
       0.0065653175 0.0017828854 0.00071016006 0.0059419656
0001b0 e1 df 77 3b 35 8d 7f 3b cc ee be 3b d2 1b 76 3a
       0.0037822651 0.0038994078 0.0058268066 0.0009388301
0001c0 34 1d 60 38 b4 38 5b bb 8a 49 8d 3a 78 4e b1 3b
       5.343296e-05 -0.0033450546 0.0010779363 0.0054109655
0001d0 d9 c0 b5 3b be 5a c9 3b c5 8e 7e 3b f9 1c 6a bb
       0.005546671 0.0061448505 0.0038842421 -0.0035722835
0001e0 4c 04 b2 3b 14 81 c2 3b 94 cf dc 3a a0 1e 09 3b
       0.005432641 0.0059357975 0.0016846531 0.0020922795
0001f0 91 ab 10 3c 2c b5 3f bb bd 30 20 bc 6f 82 1c 3c
       0.008829967 -0.0029252274 -0.009777245 0.009552582
000200 24 ae 9e 3a 25 2f 17 3b 2f 1f f9 3b f9 f9 2c bc
       0.0012106341 0.0023068872 0.0076025943 -0.010557645
000210 8f 44 09 bb aa 73 99 3b 65 e3 bc 3b 2c 72 94 3b
       -0.0020945405 0.0046829777 0.005764412 0.004530212
000220 3b 7d 2e bb 2e 55 35 ba 79 7c 64 ba a0 00 28 bb
       -0.0026624936 -0.0006917295 -0.00087160576 -0.0025635138
000230 6b 73 86 3b 44 82 85 3b 53 5c 24 3b c3 7d a3 3b
       0.0041031144 0.0040743668 0.0025079444 0.004989357
000240 be 8e d3 3b 5c 99 0d 3c 3d c6 3e 39 76 f0 b1 3a
       0.006456225 0.008642521 0.00018193662 0.0013575691
000250 67 4d b0 38 0c 27 8e 3a 09 43 8f b9 f3 4b 06 3c
       8.406751e-05 0.0010845377 -0.0002732503 0.008196819
000260 61 7d 6b 3a cc fa 81 3b ad da 40 3a 75 db 34 bb
       0.00089832215 0.003966665 0.0007356804 -0.0027596627
000270 1a b9 6a 3b 6e 15 01 3a 6f bb 8d 3a 2f 33 83 3b
       0.0035815896 0.0004924153 0.0010813306 0.0040039043
000280 b2 91 0e 3c 89 06 9c 3b af 47 39 3a 36 20 b9 3b
       0.008701729 0.0047615212 0.00070678716 0.005649592
000290 ed 97 29 3c 8e 84 0b 3c 07 4d ce 3b 40 44 31 bb
       0.010351163 0.00851549 0.0062958035 -0.0027048737
0002a0 c5 7a da ba 18 3a 2b 3c 76 84 09 3a 87 0a 2f 3c
       -0.0016668668 0.010450862 0.00052458735 0.010683662
0002b0 6c 51 82 ba 7c 0f 12 3b 4e 48 a6 bb c7 4a e1 3b
       -0.0009942479 0.0022287061 -0.0050745374 0.006875369
0002c0 13 53 66 3c 7d 74 34 3b de 4b 77 bb 5f fd 03 3c
       0.014057892 0.0027535253 -0.003773443 0.008056014
0002d0 7b 8b 33 3b e2 68 43 3b 1b f9 1b 3c 75 a8 04 3c
       0.002739637 0.0029817154 0.009519841 0.008096804
0002e0 f9 52 a4 39 03 c9 ab 3b a1 0d e8 ba fd 97 3b bc
       0.00031342337 0.0052424683 -0.0017704257 -0.011449811
0002f0 ab da b8 ba 52 ac 96 3b 6e 12 e9 3b d4 56 18 3a
       -0.0014103254 0.004598179 0.0071127927 0.0005811278
000300 a5 3e 64 3b eb 88 0c 3c 22 77 4f 3b ab b9 9b 3b
       0.0034827378 0.008577566 0.0031656702 0.004752358
000310 14 f5 04 bb 1a f1 ba 3b 2f f5 04 3a 1a 8b 31 3b
       -0.002028768 0.005705011 0.00050719356 0.0027090968
000320 ff a2 71 3b 71 58 48 bb 0e e4 1c bb 47 5a c8 ba
       0.0036870835 -0.0030570293 -0.0023939642 -0.0015285694
000330 d0 db 5a bb 23 9b b4 ba 92 77 0e 3c 03 c6 cb ba
       -0.0033395179 -0.0013779145 0.0086955 -0.0015546683
000340 31 c0 fa 3a 1b d2 95 3a cc 3a ff ba a3 df 3c 3c
       0.0019130764 0.0011430414 -0.0019472479 0.0115279285
000350 0c b3 a0 39 87 63 c4 ba 3d c3 aa 3a b6 bf 03 3a
       0.00030650978 -0.0014983275 0.0013028156 0.00050258206
000360 67 1a 82 3b 52 ac e3 3b 10 d2 24 3c fc 53 a1 3b
       0.0039704326 0.0069480324 0.010059848 0.004923342
000370 fb 8d f1 ba cf 09 9e 3b eb ba db 39 81 90 af ba
       -0.0018429154 0.0048229466 0.000419102 -0.0013394506
000380 24 a4 0c 3a 6d 99 33 3b 12 83 25 3c 5a a0 72 3b
       0.0005365035 0.0027404681 0.01010205 0.0037021847
000390 b5 da b2 bb 43 72 d5 3a ce fa 5f 3b e9 42 47 3b
       -0.005458201 0.0016284663 0.003417659 0.0030404872
0003a0 f7 64 ac ba d1 f3 ef 3b e1 47 0a 3c 93 f3 9d 3b
       -0.0013152648 0.0073227664 0.008439989 0.004820296
0003b0 7b 2e 43 bb f6 16 08 ba b6 fb ba ba ac cf 08 ba
       -0.0029782343 -0.000519141 -0.001426569 -0.0005218934
0003c0 61 c3 1a 3b 61 93 b6 3b 6f 33 e6 3b 2e cd 29 3c
       0.002361499 0.005571768 0.0070251743 0.01036386
0003d0 c0 d4 46 3b d3 e0 0d 3a 5b 99 35 3c 79 98 84 39
       0.0030339211 0.00054122246 0.011083926 0.00025290603
0003e0 ba d1 2d 3b f0 16 5a ba ff d8 20 b9 8e 69 97 3a
       0.0026522712 -0.0008319458 -0.00015339626 0.0011551843
0003f0 23 4e f7 3b d5 c5 4d ba f1 f0 08 3b 12 86 7a bb
       0.0075471564 -0.00078496087 0.0020895565 -0.0038226885

action_model._continuous_distribution.log_sigma f4 [1, 2]
000000 ba da 22 bb 57 f2 fd b9
       -0.002484961 -0.00048436478

action_model._continuous_distribution.mu.weight f4 [2, 256]
000000 62 f6 13 bb fb df 06 bc 78 89 79 3c 9f dc 08 3c
       -0.0022577276 -0.008232112 0.015230529 0.008353381
000010 9b b8 b0 3a d4 58 6f 3b 11 da 3a bc 02 39 9f 3c
       0.0013482751 0.0036521452 -0.01140453 0.019436363
000020 a1 8f af 3b 6e 6b 00 3c 9b 50 bc 3b 29 69 85 bc
       0.005357698 0.007838113 0.0057469136 -0.016285496
000030 85 3d a5 bc 68 8e 98 3c 18 c6 5c bc d0 99 f4 bb
       -0.020170936 0.018622592 -0.013474964 -0.007464625
000040 62 1a 41 3c c4 a9 e8 3b a8 8c 92 3c 41 44 7b bc
       0.011786075 0.0071003158 0.017889336 -0.015336097
000050 3d e4 4f 3c 16 0e ba bb 54 78 91 3c 9a 1d f8 bb
       0.012688694 -0.0056779487 0.017757572 -0.007571888
000060 fa 15 2a bc 92 85 87 bc 54 e7 84 bc a1 a6 1a 3c
       -0.010381216 -0.016543183 -0.016223587 0.0094391415
000070 d5 d8 c1 3b 43 3e 87 ba 42 78 71 3c b5 dd 09 3b
       0.005915741 -0.0010318238 0.014738144 0.0021036689
000080 47 79 87 bc a8 d0 1b bc 4e e1 1a 3c b7 0d dd bb
       -0.016537322 -0.009510197 0.009453131 -0.0067460197
000090 33 82 17 bc 10 58 11 39 6f 50 65 3c 58 5e c3 bc
       -0.0092473505 0.00013861083 0.013996228 -0.023848698
0000a0 57 c6 7a 3b d2 ba 0e bc d7 d2 cd bc e4 f2 26 bc
       0.0038265192 -0.008711534 -0.02512495 -0.010189746
0000b0 c8 a7 8c 3b b6 23 b5 3c e2 18 4a 3b ef fc 0d 3c
       0.004292462 0.022111755 0.0030837585 0.008666261
0000c0 62 65 84 bc 71 c9 88 3c ce 1e 89 bc b3 08 2a 3c
       -0.016161624 0.016697617 -0.016738322 0.010378051
0000d0 32 1f 84 3c d0 01 d8 3b 29 40 aa 3c 9a d1 05 bc
       0.016128156 0.006592013 0.020782547 -0.008167649
0000e0 24 78 c9 3c cd 76 bb bb 90 00 ca 3c 99 ae 83 3c
       0.02459342 -0.0057209493 0.024658471 0.016074466
0000f0 70 ac d2 bb ec 32 b0 3c 0e 84 40 bb ad 25 69 bc
       -0.0064292476 0.021508656 -0.0029375586 -0.014230174
000100 a6 29 b2 bc f7 8f 54 bb d6 86 75 bc 80 ec 39 3c
       -0.021748375 -0.0032434443 -0.014985761 0.01134789
000110 24 cf 83 bc 3e 91 07 3c d7 58 8e 3c 08 ec 5f bb
       -0.016089983 0.0082743745 0.017376347 -0.0034167785
000120 62 38 e3 3c a0 01 11 3b ea d9 64 3c 25 0c 9a bc
       0.027736846 0.0022126213 0.01396797 -0.01880462
000130 a1 4f 71 bc f5 09 9b bc 74 cc 8e 3a c4 81 5d 3c
       -0.014728458 -0.018925646 0.0010894672 0.013519708
000140 3e b9 2a bb 74 16 6a bc 87 90 e0 37 c0 bc 28 bc
       -0.0026050354 -0.01428758 2.6770182e-05 -0.010298908
000150 ae 97 03 3b ff 98 b6 3c b1 bc 91 bc 5b f1 29 3a
       0.0020079422 0.022289751 -0.01779017 0.0006482803
000160 c9 6d a5 3b 08 45 79 bc 37 51 49 3c 81 68 be bb
       0.005048488 -0.015214212 0.0122874295 -0.0058107977
000170 87 2f a1 3c 28 45 c7 ba 90 f7 b3 3b 96 4a 14 bc
       0.019675983 -0.0015203105 0.0054921582 -0.009050986
000180 f8 e6 1d bc 57 a4 40 3c 2a 41 af ba 2f b6 80 bc
       -0.009637587 0.011757932 -0.0013370861 -0.015711872
000190 d0 36 35 3a 7c d1 05 3c f6 6d 90 bc f3 d4 5d bc
       0.000691277 0.008167621 -0.017630558 -0.013539541
0001a0 91 6e 8c 3c 69 e7 61 39 86 56 f5 3c a1 bf 70 bc
       0.017142566 0.00021543879 0.029948484 -0.014694125
0001b0 b4 a6 7a bb 10 43 41 38 50 38 2f bc 81 fb 37 3c
       -0.0038246335 4.6077243e-05 -0.010694578 0.011229397
0001c0 e9 62 17 3b 6a 04 57 bc bf 35 05 3d a9 e0 ef b9
       0.0023099727 -0.013123611 0.03252196 -0.00045753017
0001d0 cc 22 47 3c ea 1d f8 ba c0 b8 ef 3b 1a 28 e9 3b
       0.012154292 -0.0018929814 0.007315725 0.007115376
0001e0 78 56 87 bb 3f e5 0c bd 0d 67 1d bb 07 67 8c bc
       -0.004130181 -0.034398314 -0.0024017722 -0.017138971
0001f0 5d 02 3d bc 1b 2d 8a 3c 07 d6 f7 ba d5 e0 f0 bc
       -0.011536208 0.016867211 -0.001890839 -0.029404083
000200 fc 3d ec bc 07 15 95 ba 71 dd 49 3c 11 9a c1 bb
       -0.02883815 -0.0011374064 0.012320862 -0.0059082587
000210 b1 b2 74 bb 44 ba 4d bb 6f 29 3b 3c 18 ef a5 3c
       -0.0037337954 -0.003139154 0.011423453 0.02025561
000220 45 8e 84 bb 23 75 92 3b 9e a8 a7 bc 83 96 72 bc
       -0.00404528 0.00446953 -0.020466145 -0.014806393
000230 1c 00 86 39 f5 6c d0 3b 3f d4 4c bc 8d bb 10 bc
       0.00025558553 0.006360645 -0.012501775 -0.008833778
000240 3e c5 9d 3c 70 67 81 bc 0c bb b6 3b ac 77 15 bc
       0.019259091 -0.015796393 0.005576497 -0.00912277
000250 af c7 6c 3c 76 1b ae 3c 1f 12 4a 3c 30 07 7d bc
       0.014451905 0.021253329 0.012333422 -0.015443608
000260 48 68 aa bc aa 7e 2e 3c 59 95 15 3c 0f 79 2a bc
       -0.020801678 0.010650316 0.009129846 -0.010404839
000270 ea ce 9c bb 52 28 6d bc 1b 4c 1f bc 85 68 87 3b
       -0.0047854083 -0.014474945 -0.009722735 0.0041323327
000280 01 c4 5d bc c4 aa 35 ba 06 a3 38 3c 8c d5 9a bb
       -0.0135355005 -0.0006930048 0.011269337 -0.004725164
000290 db 28 86 3c 61 2f aa b9 8b 59 ba bc d3 21 89 ba
       0.016376903 -0.00032460227 -0.022747776 -0.0010462351
0002a0 71 21 71 ba b0 01 bc 3c 0a 8d 17 bc 51 c7 d8 3c
       -0.00091984036 0.022950023 -0.009249935 0.026462229
0002b0 3e 33 f9 bb e0 a4 41 3c a5 be 39 bb 9e 68 8c 3c
       -0.0076049855 0.011819094 -0.0028342393 0.01713973
0002c0 78 ce 4b 3c 29 28 0d bc 84 40 da bb 27 ca c5 bc
       0.012439363 -0.008615532 -0.006660523 -0.024144245
0002d0 95 d3 c7 ba 6e a8 44 3b f5 ce d5 3c 6e 9f c4 3c
       -0.0015245551 0.0030007618 0.026099661 0.024001803
0002e0 a1 b5 93 3c b6 7d 8f bc 58 32 be bc a9 0c 16 bc
       0.018030943 -0.017515998 -0.023217365 -0.009158292
0002f0 da 8e 47 bc 7a ca 5a 3c c4 c5 54 3c cb b0 c0 bc
       -0.012180055 0.013353938 0.012986604 -0.023521801
000300 b5 01 9a 3c 1f 26 a5 3c 6c 2c ef 3b 0f 28 f3 ba
       0.018799642 0.02015978 0.0072989967 -0.0018551367
000310 df c8 ce bc 3b 31 c8 3c eb d6 08 bc 98 c4 39 3a
       -0.025242267 0.024437537 -0.008352022 0.00070864847
000320 db 70 92 3c f6 c1 b2 37 84 c3 d0 bb 3c 9a 6a bb
       0.01787608 2.1309574e-05 -0.0063709635 -0.0035797497
000330 4a 56 52 3c 85 46 e6 3a 14 66 17 3d ba c2 73 3c
       0.012837956 0.0017568624 0.036962584 0.014877969
000340 db 65 8a bc 4b 0e a8 bc 78 8c 1b bb 70 aa ed bc
       -0.016894272 -0.020514628 -0.002373485 -0.029011935
000350 f2 22 e2 3c 03 82 fd bb 60 7e e2 bb fc 2b e9 bb
       0.027604554 -0.007736446 -0.0069120377 -0.007115839
000360 9b da 96 3c b0 26 b5 3c bd 36 0c 3b 3b ec bc 3c
       0.018414786 0.022113174 0.0021394931 0.023061862
000370 ad 6c d2 bb b5 16 89 3c 2c c7 98 bc 6b 14 1c bc
       -0.0064216466 0.01673446 -0.01864966 -0.009526352
000380 79 de ff ba f6 62 39 3c 7f b2 a2 bb 13 60 bd bc
       -0.0019521258 0.011315098 -0.004965126 -0.0231171
000390 0e 68 78 bb 84 7b ee 3b 08 bf 39 bb 63 87 0e bc
       -0.0037903818 0.007277908 -0.0028342623 -0.008699271
0003a0 3e 33 92 3b ba 25 fa bb a0 33 af bb a0 a0 9d bc
       0.004461675 -0.007633892 -0.0053467304 -0.019241631
0003b0 29 0f 80 bc ef ac 9a bc 70 86 86 39 5b 61 6b 3c
       -0.015632229 -0.01888129 0.00025658635 0.014366473
0003c0 0f 8c ae 3b 94 7b 45 bc 5e 6f ab 3c 4d 56 38 3b
       0.005326755 -0.012053389 0.020927127 0.002812761
0003d0 51 a4 db bb 88 8c 33 bc 00 7e 6d 3c a7 2e 8a 3c
       -0.0067029377 -0.010958798 0.014495373 0.016867949
0003e0 24 48 69 3b f8 c8 9c 3b bc 85 d2 3b 7c f6 d9 3b
       0.0035595978 0.0047846995 0.006424634 0.0066516977
0003f0 04 75 8d bb ed e8 0e bc 6b 8c 2e bc e8 11 8c 3c
       -0.004316928 -0.008722526 -0.010653595 0.017098382

action_model._continuous_distribution.mu.bias f4 [2]
000000 98 c7 ae 3a 00 fc 2d bb
       0.001333463 -0.0026547909

action_model._discrete_distribution.branches.0.weight f4 [2, 256]
000000 a0 dc 95 bb a4 72 0c 3c 05 31 e1 3b 3f 45 ae 3a
       -0.0045734197 0.008572254 0.0068722987 0.0013295783
000010 78 f0 13 3b 9e b8 96 3b f2 5e fb 3b 44 23 3a bb
       0.002257375 0.004599645 0.0076712305 -0.0028402368
000020 d5 e2 80 bb c4 e5 0d bc 1a 30 ea 3b 11 43 0e 3c
       -0.0039332905 -0.008660737 0.0071468474 0.008682982
000030 16 ef 35 3b fb 5e 07 3c e9 11 ca 3a 4c d6 94 3b
       0.0027760915 0.008262391 0.0015416715 0.0045421477
000040 fd a6 b2 3b ff b6 8b bb 35 f5 c2 bb e4 95 02 bc
       0.0054520355 -0.004263758 -0.005949641 -0.007970307
000050 1e 99 4c 3a 50 e5 38 3b 15 bb a1 ba c0 14 2b 3b
       0.00078047987 0.0028212853 -0.001233908 0.0026104897
000060 b8 6d ff 3b 46 10 f8 3b c8 8f c9 3b 30 80 76 ba
       0.007795062 0.0075702993 0.0061511733 -0.00094032567
000070 17 09 86 bb cc 8e 30 3c a6 a7 86 3c 89 ae 96 3b
       -0.004090439 0.010776233 0.016437363 0.004598443
000080 71 ab 95 3b 2e cd 5d bc f3 54 50 bc e6 dd 28 3b
       0.0045675565 -0.013537688 -0.012715566 0.0025767027
000090 9c d1 8d 3b a5 f8 eb ba 9e 4b 1f 3a 22 09 29 3c
       0.004327966 -0.0018003179 0.00060766365 0.010317119
0000a0 0b 63 b5 3b af 2d d1 3b 11 de 4e 3c b7 ec 58 3a
       0.0055354885 0.0063836197 0.012626187 0.00082750194
0000b0 e9 24 32 3c 37 57 d8 bb 90 49 51 bc fb 0f 9e bb
       0.010873058 -0.0066021937 -0.012773886 -0.0048236824
0000c0 23 af f4 3a 57 0f 58 b9 83 7c 42 3c 13 07 85 ba
       0.0018667917 -0.0002060508 0.011870506 -0.0010149203
0000d0 c9 15 1c 3c 68 ba b9 3b 65 60 b6 3b d5 21 8d bb
       0.009526678 0.0056679733 0.0055656903 -0.0043070116
0000e0 42 25 03 3c cd 0f 73 3c f8 10 5a bb 4b 55 38 bb
       0.008004488 0.01483531 -0.0033274274 -0.002812701
0000f0 24 18 ed ba 4c 65 6a ba 63 25 48 bb 10 c5 d5 bb
       -0.001808886 -0.0008941486 -0.0030539862 -0.006523736
000100 af 1c 07 bc 83 d9 c7 39 9a 9e f8 b9 fc 52 0f bb
       -0.008246585 0.00038118297 -0.00047420413 -0.002186953
000110 2d 25 fe b9 64 6e ea 3b 27 b4 04 bb 89 c3 8f 3b
       -0.00048474353 0.007154273 -0.002024898 0.0043873233
000120 a1 ad b3 3a 5d c7 96 3b 53 fc 5f bc ba f1 22 3c
       0.0013708362 0.0046014027 -0.013670999 0.009945327
000130 9d 54 25 bb b2 bf 0c 3c 20 99 32 3c b8 ce 64 3b
       -0.0025227435 0.008590626 0.010900766 0.0034913253
000140 9e e2 ce bb 8b 2c 49 ba 8a a3 c6 bb b7 09 51 bc
       -0.006313636 -0.0007674179 -0.006061976 -0.012758664
000150 8a 70 8c 39 8e c3 d3 ba 22 cf a8 3c 5c 8a 96 3b
       0.0002678673 -0.0016156302 0.020606581 0.0045941304
000160 55 0c 4c 3c d1 47 82 3a 80 25 05 bc 3d a2 9d bb
       0.012454112 0.0009939616 -0.0081266165 -0.0048106
000170 df 69 63 3b f1 9d 6b 3b d2 5a 47 3c 2a 8c 06 3c
       0.0034700555 0.0035952295 0.012167649 0.008212129
000180 cd 15 10 3b 92 fa 1f bc 2a 04 fe ba 8a 11 d6 3b
       0.002198565 -0.00976433 -0.0019379903 0.0065328525
000190 84 0e 64 bc 0e c2 91 bb 24 2d 4c 3c 96 e1 e3 39
       -0.013919476 -0.004448182 0.012461934 0.0004346489
0001a0 77 8c 4a bc c6 56 4f bb 07 73 44 bb 1c b4 c7 bb
       -0.012362591 -0.0031637414 -0.0029975788 -0.0060944688
0001b0 8c 7a d1 3b 13 b1 13 bc 62 9a 19 bc c3 19 db 3a
       0.0063927826 -0.009014386 -0.009375187 0.0016716052
0001c0 15 d2 5c 3c da 70 18 3a 79 f8 3b 3b 04 06 21 3b
       0.013477822 0.0005815156 0.0028682037 0.0024570236
0001d0 72 e8 11 bb 02 08 52 3c 23 c9 e9 b9 e2 04 45 3b
       -0.0022263792 0.012819292 -0.00044591082 0.0030062725
0001e0 90 e8 12 3c c4 44 b1 3c df 40 bf b8 44 d9 e4 38
       0.00896658 0.021639235 -9.119673e-05 0.00010912356
0001f0 86 09 9f bb dc 99 ff 3b 80 71 11 bc 2e d8 d9 3b
       -0.00485343 0.007800324 -0.008877158 0.006648085
000200 33 c6 b6 bb bb 5a 04 3c 05 c8 78 b8 d2 35 97 3b
       -0.0055778264 0.008078272 -5.931409e-05 0.00461457
000210 79 93 6d bb 98 c3 83 3a a7 6e b7 bb 7b 73 e7 3a
       -0.003625123 0.0010052798 -0.0055979076 0.0017658317
000220 4a 09 07 3c e3 9b 56 bb be 5a 40 3b 51 e4 e4 bb
       0.008241961 -0.0032746724 0.0029350962 -0.0069852252
000230 d8 2e 0e bc 3e 0a f4 3b 8a 03 1b 3c b5 c6 77 3b
       -0.008678161 0.00744751 0.009461293 0.0037807648
000240 34 46 2c bc d7 12 f7 b7 91 23 b0 3b 73 e2 2f bb
       -0.010514785 -2.9453468e-05 0.0053753336 -0.0026837855
000250 90 a8 d7 3a e2 f6 a8 3a 9a 41 36 bb 24 a0 33 3b
       0.0016453434 0.001289096 -0.0027810098 0.0027408684
000260 9e cf c9 3b d2 25 8d 3c af d3 45 bb 89 57 57 3c
       0.006158783 0.017229948 -0.0030185988 0.013143429
000270 45 ed a1 3b 9c dc 79 bb 7d 01 64 3a bc 2b fc ba
       0.004941615 -0.0038125878 0.00086977315 -0.0019239108
000280 d9 6e 97 3b 61 55 4c 3a a2 f5 36 bb 66 e3 6e 3b
       0.0046213684 0.0007794705 -0.0027917405 0.0036451458
000290 f0 a8 cf 3a 6e a0 12 bb 6f 64 85 3c cc 70 e6 3a
       0.0015843194 -0.0022373456 0.016283242 0.0017581224
0002a0 47 bd a2 3a 13 d1 01 bb ed 42 dd 3b 5b e3 91 3a
       0.0012416028 -0.0019808456 0.006752363 0.0011130379
0002b0 74 28 fb 3a c2 99 98 bb c7 a4 85 bb 26 75 98 3b
       0.0019161836 -0.0046570012 -0.004078481 0.004652637
0002c0 88 6b e6 ba 94 0f fe 3b 28 0b 4b bc 37 3a c5 bb
       -0.0017579654 0.007753322 -0.012392797 -0.0060189026
0002d0 66 70 c0 3a 50 1a 0c 3c cd 4c c4 bb 07 82 c2 bb
       0.0014681935 0.008551195 -0.0059906007 -0.0059359106
0002e0 16 0a 01 bc 9c 52 46 bb c3 b5 3e bb 69 0f a6 bb
       -0.00787594 -0.0030261641 -0.0029100038 -0.005067755
0002f0 b6 16 90 bb c9 07 48 3c 0c 91 22 bc 06 be 4d 3c
       -0.0043972386 0.012208887 -0.009922277 0.012557512
000300 86 35 16 bc b8 cd 0b 3c c8 23 18 b9 08 16 0b ba
       -0.009168034 0.008532934 -0.00014509179 -0.0005305712
000310 76 db 38 bb 2e 16 bf b8 08 0c 16 3a 13 78 c8 b8
       -0.002820698 -9.111721e-05 0.00057238387 -9.559109e-05
000320 e2 a1 00 3c 4c 1d b4 bb eb 1e 34 3a 21 d9 0b 3c
       0.007851096 -0.0054966565 0.0006871062 0.008535654
000330 dc e9 11 3c c6 bc a2 3a 65 70 7a 38 99 82 1b ba
       0.008905854 0.0012415878 5.970932e-05 -0.00059322413
000340 20 ad df 3b 04 b8 88 ba be a2 df bb b0 25 c2 3b
       0.006826058 -0.0010430817 -0.0068248203 0.005924903
000350 ec d2 da 3a a3 99 9a 3b 6d ea e6 ba f1 64 89 bb
       0.001669494 0.004718022 -0.0017617472 -0.0041929414
000360 73 54 98 3b 32 58 87 bb 35 a9 38 bc 87 9d 9e 3b
       0.004648739 -0.0041303867 -0.011270811 0.004840556
000370 db e0 04 bb 25 54 26 b8 58 85 c1 3b 97 5a 6b bb
       -0.0020275626 -3.965585e-05 0.0059057884 -0.003591215
000380 54 09 c3 3b 41 7d 23 3c 24 71 0b 3b 85 9b 89 ba
       0.0059520397 0.009978593 0.0021277154 -0.0010498619
000390 63 49 c7 3a c2 ff 3f 3c 35 9a a2 3b 92 29 53 3b
       0.0015204366 0.011718692 0.0049622306 0.0032220823
0003a0 00 11 da ba c0 96 ce bb 78 0f 10 3c 99 66 0b 3c
       -0.0016637146 -0.006304592 0.008792751 0.008508348
0003b0 65 ce 2c bb 37 92 c7 3b 9c a6 11 3b ac ed f2 3b
       -0.0026368138 0.006090428 0.002222455 0.0074135866
0003c0 5a 2d 31 3c 59 51 1d ba 33 c3 10 3c b0 9b ee 39
       0.010814035 -0.00060011965 0.008835602 0.00045510894
0003d0 22 84 42 3c 06 93 b3 bb e8 3e 6a 3b 4b e1 1f 3c
       0.011872323 -0.005480173 0.0035743061 0.009758304
0003e0 f5 8a fb 3b f8 00 3b 3c 73 db 19 bb 9b 6f 98 ba
       0.007676477 0.011413805 -0.002347675 -0.0011629941
0003f0 38 40 08 bc f2 71 9f 3a 11 01 b4 3b 3f ee 75 bb
       -0.008316092 0.0012164696 0.005493291 -0.003752604

action_model._discrete_distribution.branches.0.bias f4 [2]
000000 87 09 36 3a 85 09 36 ba
       0.00069441687 -0.00069441675
