results/SelfPlay2/1v1/1v1-763420.onnx (onnx, 285586 bytes, 9 tensors)

network_body._body_endoder.seq_layers.0.weight f4 [256, 10]
-0.027403424 -0.44415462 0.22025266 0.6945114 0.670008 -0.47912621 0.7706192 0.24226613
-0.015349722 -0.04991014 0.24637581 0.17428866 -0.35076723 -0.159013 -0.309636 -0.12733936
-0.546142 0.089394175 0.015170023 0.06869747 0.753656 -0.1404802 0.32618976 -0.19572683
0.15965985 -0.10538698 -0.11144023 -0.008984108 0.11972664 -0.20602186 -0.21034697 -0.5311491
-0.17299451 0.31270507 -0.06320745 0.09537662 -0.052189793 -0.11647851 0.6056322 0.29466903
-0.23586622 -0.21027268 -0.51203656 -0.03218322 0.5164472 -0.10006388 0.5550328 -0.055751223
-0.0944888 0.33888856 -0.35909227 -0.47955623 -0.075507976 -0.21578558 -0.081643924 0.05954454
-0.10262537 -0.28372523 0.11933931 0.3589815 0.548633 -0.3774094 -0.6124388 0.21666051
0.23819457 0.42897013 0.09430115 0.095386475 0.31050453 0.04927041 0.16144244 0.037811864
-0.20357494 0.123980865 -0.05142751 0.80237746 0.4232469 0.024955293 -0.029470325 -0.37637883
0.6173708 -0.059186623 0.0064679133 -0.53427905 0.011155895 -0.01716324 -0.09063533 0.013356045
0.15208943 -0.025821822 -0.1748847 0.51378435 -0.27969864 0.09407559 -0.035386488 -0.50537354
-0.0388117 0.49205932 -0.33368805 0.04328954 0.035816357 -0.09464525 -0.03349041 0.33652946
0.28980395 -0.16606526 0.037299287 -0.2999552 0.351186 -0.2496296 0.10726179 -0.34116843
0.20859052 0.041822426 0.3845972 0.47781578 0.39695203 -0.323685 0.56439584 -0.1914606
-0.08619214 0.5903768 0.106831014 -0.007993135 -0.41813335 0.5754743 0.24556853 -0.48452657
0.00891869 0.35390946 0.33880267 -0.31546792 -0.094142936 -0.2921392 0.027149834 -0.20727327
-0.077750795 0.16569272 -0.2763105 0.3445145 -0.3888133 -0.015202771 0.4152768 -0.23351568
-0.18853703 0.1408001 0.24501422 0.008075665 -0.082725145 0.02225633 -0.19526793 -0.24131441
0.38357806 0.31304127 0.24424987 -0.2546471 0.34410748 0.3064542 0.31787565 0.022292092
-0.046685077 0.24773994 0.16622946 0.013206384 0.25796977 0.22952451 0.09323725 -0.31838018
-0.2705132 0.34028718 0.06698268 -0.09266223 -0.02878805 -0.75978446 0.07572603 0.299795
0.31776088 -0.01729297 0.19791904 0.5219564 -0.005394471 0.037238766 0.27289367 -0.14621831
0.7231068 0.0354847 -0.71474385 -0.44060278 0.11531616 0.38740623 -0.069617614 -0.22950825
0.067893885 0.19375765 -0.3461653 -0.37717652 0.363999 0.12112213 0.3860688 -0.45740157
-0.2315769 -0.1593953 -0.3867329 -0.07405523 -0.20184638 -0.33190933 0.5128653 0.7109126
0.109312944 0.2000572 0.13855313 0.4579848 0.24113813 -0.06062519 0.24665537 -0.5065933
0.12448551 -0.40842924 0.07530404 0.41550407 -0.35084236 -0.34300798 -0.54530036 0.4411201
-0.054378286 0.43534067 -0.38519752 -0.47555995 0.44834572 0.21332856 -0.010841333 0.16122094
0.45963827 0.06603717 0.00657374 -0.12799825 -0.575938 -0.28329837 -0.45355415 -0.24755959
-0.18637273 -0.21892017 -0.17945471 0.37464446 -0.09891854 -0.32245767 -0.17805956 0.0029036228
-0.72917557 0.2723476 -0.09270194 -0.29615173 -0.45024905 0.049230527 0.0660837 0.47691596
00000000: 257d e0bc 3c68 e3be ea89 613e 80cb 313f
00000010: a585 2b3f 0850 f5be 4d47 453f 9d14 783e
00000020: 667d 7bbc 936e 4cbd f149 7c3e ba78 323e
00000030: c397 b3be 4ed4 22be 9c88 9ebe 4065 02be
00000040: f6cf 0bbf 4b14 b73d b08b 783c 42b1 8c3d
00000050: 9aef 403f 0bda 0fbe 5802 a73e 9d6c 48be
00000060: df7d 233e 21d5 d7bd c63a e4bd 1532 13bc
00000070: 3e33 f53d 65f7 52be 3265 57be 63f9 07bf
00000080: 7925 31be e11a a03e e872 81bd d154 c33d
00000090: f7c4 55bd 498c eebd b60a 1b3f dcde 963e
000000a0: ea86 71be b951 57be d414 03bf 8dd2 03bd
000000b0: e235 043f 4bee ccbd a116 0e3f 655b 64bd
000000c0: 5883 c1bd cd82 ad3e f1da b7be 6588 f5be
000000d0: eda3 9abd e5f6 5cbe ee34 a7bd fae4 733d
000000e0: 402d d2bd 6f44 91be 2b68 f43d 6ccc b73e
000000f0: 3673 0c3f ce3b c1be cac8 1cbf 41dc 5d3e
00000100: 47e9 733e f9a1 db3e f620 c13d fc59 c33d
00000110: 73fa 9e3e c5cf 493d 2b51 253e 9de0 1a3d
00000120: f375 50be aee9 fd3d a7a5 52bd 9c68 4d3f
00000130: d1b3 d83e 0b6f cc3c c06b f1bc bab4 c0be
00000140: 030c 1e3f ac6d 72bd caf0 d33b 83c6 08bf
00000150: 37c7 363c ec99 8cbc 049f b9bd 50d3 5a3c
00000160: 55bd 1b3e 4988 d3bc fa14 33be 5f87 033f
00000170: a934 8fbe b4aa c03d 6cf1 10bd 2960 01bf
00000180: 04f9 1ebd 33ef fb3e 29d9 aabe 5f50 313d
00000190: 2cb4 123d 5ed5 c1bd 3d2d 09bd 974d ac3e
000001a0: 2f61 943e 030d 2abe 23c7 183d ba93 99be
000001b0: a7ce b33e e79e 7fbe 12ac db3d a1ad aebe
000001c0: c198 553e fe4d 2b3d ede9 c43e 45a4 f43e
000001d0: 4c3d cb3e 0aba a5be 3f7c 103f 3f0e 44be
000001e0: 8185 b0bd ef22 173f 38ca da3d a3f5 02bc
000001f0: 9315 d6be 4952 133f 5176 7b3e de13 f8be
00000200: b21f 123c 9f33 b53e 8b77 ad3e 0385 a1be
00000210: 03ce c0bd 4593 95be 5469 de3c 723f 54be
00000220: cf3b 9fbd 5aab 293e 9278 8dbe 3464 b03e
00000230: 8912 c7be 0b15 79bc 299f d43e bc1e 6fbe
00000240: da0f 41be e72d 103e 02e5 7a3e cb4f 043c
00000250: cd6b a9bd e852 b63c 51f4 47be 201b 77be
00000260: 5864 c43e f246 a03e a31c 7a3e 1b61 82be
00000270: db2e b03e 91e7 9c3e 99c0 a23e e89d b63c
00000280: da38 3fbd 8aaf 7d3e 0e38 2a3e 975f 583c
00000290: 9d14 843e 7908 6b3e 2cf3 be3d ba02 a3be
000002a0: b580 8abe 1f3a ae3e 372e 893d b2c5 bdbd
000002b0: ebd4 ebbc 3c81 42bf 4016 9b3d bb7e 993e
000002c0: 8eb1 a23e fda9 8dbc 4aab 4a3e ef9e 053f
000002d0: 1ac4 b0bb ad87 183d b8b8 8b3e 41ba 15be
000002e0: 871d 393f 6858 113d 74f9 36bf b096 e1be
000002f0: e12a ec3d 1c5a c63e ae93 8ebd 3604 6bbe
00000300: f30b 8b3d 6868 463e 943c b1be 481d c1be
00000310: 145e ba3e e10e f83d cfaa c53e 8a30 eabe
00000320: 7f22 6dbe 8638 23be db01 c6be 45aa 97bd
00000330: d1b0 4ebe 05f0 a9be 244b 033f 5efe 353f
00000340: 77df df3d cbdb 4c3e dfe0 0d3e fc7c ea3e
00000350: eaec 763e 1f52 78bd 3a93 7c3e 19b0 01bf
00000360: 42f2 fe3d a31d d1be 0139 9a3d f3bc d43e
00000370: 9ca1 b3be be9e afbe ce98 0bbf 7eda e13e
00000380: c4bb 5ebd f9e4 de3e 9c38 c5be 987c f3be
00000390: 928d e53e cd72 5a3e d99f 31bc 1a17 253e
000003a0: b555 eb3e 7f3e 873d 8768 d73b f911 03be
000003b0: ac70 13bf 7c0c 91be 4038 e8be 4380 7dbe
000003c0: 7ed8 3ebe 9c2c 60be fac2 37be 66d1 bf3e
000003d0: ce95 cabd 2c19 a5be 3f55 36be b54a 3e3b
000003e0: 40ab 3abf 2571 8b3e 84da bdbd 33a1 97be
000003f0: 0b87 e6be f3a5 493d e456 873d 542e f43e

network_body._body_endoder.seq_layers.0.bias f4 [256]
0.00204127 -0.0027636716 0.0066661714 0.004690415 0.004432648 0.0025335795 -0.000761423 -0.00068126107
0.0023945705 -0.0025466753 0.0018210674 0.0020053384 0.002785842 0.004571743 0.00029030794 -0.0024460703
-0.0006367743 0.00019334273 0.0031356344 -0.0032375092 0.001868382 -0.0013579123 0.0017371959 0.00076428516
-0.0017407368 0.0011496211 -0.0035217975 0.0056560794 0.00010453734 -0.0028723262 0.001367569 0.0054161046
0.0017042749 0.0026208141 0.0010652632 0.0035538392 -0.0021300914 0.0011617678 0.0008028407 -0.0026871986
-0.004019627 -0.00047354645 0.0017099672 -0.00059137953 -0.00029076103 0.0016432916 -0.0025967194 0.006565342
0.0041482714 0.0014654883 -0.0049908096 0.0059718313 0.0021306498 0.0044456716 -0.0010485292 0.0059335455
0.0039150817 0.0005847988 0.002167433 0.003944074 -0.0035260124 -0.0027190105 -0.00029133452 -0.0017708456
0.0061000353 -0.00020133537 0.0029445707 -0.0007498689 -0.0031694279 0.00675688 0.0026200279 -0.0037033549
-0.0011310042 0.0035276848 0.004527435 -0.0024508513 -0.0012162208 -0.0017942844 -0.0022652026 -0.0025560148
0.0046756826 -0.0017851599 0.0034968276 -0.0002932609 0.00458786 0.00294009 -0.00044267255 0.0010627777
-0.0003347789 0.0019635668 -0.0017380426 -0.00041472024 0.0003547998 -0.00528875 0.0037279236 0.0015996489
5.8028698e-05 -0.003379175 0.003612663 -0.0012825722 0.003039669 -0.0036240537 0.003240075 0.0005414325
-0.0019709622 0.001530894 0.0028518154 4.5222423e-05 0.0035706784 0.0014667277 0.002856181 0.0023483674
-0.00065310136 0.0008659919 -0.0011561034 -0.0005668351 -9.961698e-05 -0.0014790009 0.0032619655 -0.0004394136
0.0032776895 -0.0008980148 0.0010779316 -0.0032493668 0.0010073034 -0.0025707793 0.0020795907 -0.001571385
3.459388e-05 -0.0027058066 0.0014011165 0.0025608793 -0.00082556024 -0.0025365918 -0.0001427993 0.0020088688
0.0013990483 -0.00078436505 0.002378232 0.00049162674 0.0059173293 0.006415512 0.0028868788 -0.0009017579
-0.0010668599 0.0049127582 -0.0034837266 -0.0012221269 -0.0018520276 0.0027082781 0.0009810654 0.006798884
0.004156902 0.0020690267 -0.0023823415 -0.0012927831 0.0026057127 0.0064887945 0.004792043 0.0054957587
0.0008468075 -0.0022925052 -0.0019828891 -0.0020727105 0.0025618635 -0.0028515116 -0.0024621997 0.0050790897
0.003395766 0.0019087385 -0.0005210706 -0.0040011364 0.00094753364 0.0030179385 0.005563754 -0.00024960694
-0.004411539 0.0045752777 0.0023306806 -0.00031405117 -0.000572542 -0.0060065826 0.0012198337 0.0022665672
0.004516128 0.0062649227 0.0036265794 0.0033943907 0.0035862303 0.0068662744 0.0014417543 -0.00012579026
0.0019715284 0.00428243 0.0028130724 0.0037096704 -0.002933902 -0.000109242246 -0.004259108 0.0005370347
0.00092469377 0.003588102 0.0036309217 0.0020228252 -0.0027167546 0.0004000695 0.0015419265 0.0009872633
0.000728194 0.0054512112 0.001811081 0.0061712554 0.0032652204 0.0033456064 0.0023988876 0.000244254
0.00092659926 -0.0027215993 -0.0020382109 0.005631159 -0.0032128382 0.003339381 -0.005842541 0.00046009902
-0.0046037957 0.00048198432 0.001676685 -0.0028822804 0.0044169207 0.0027377242 -0.0018600582 0.006127268
-0.001805672 -0.00078643026 -0.0058223116 -0.004212424 0.00086127577 -0.002212304 0.002292253 -0.00436509
-0.0010563391 0.004888385 0.0068021053 0.0028347496 -0.0018634418 0.0034474249 0.0030241446 0.0038271348
0.0069160173 0.00022387666 0.002730419 0.0021915564 0.00095425756 -0.0036013543 -0.001715466 -0.0010558994
00000000: d4c6 053b b71e 35bb e66f da3b 0eb2 993b
00000010: bf3f 913b 690a 263b 3c9a 47ba a896 32ba
00000020: 3aee 1c3b 1fe6 26bb e2b0 ee3a ff6b 033b
00000030: ac92 363b 8fce 953b 7934 9839 404e 20bb
00000040: 33ed 26ba 0bbc 4a39 377f 4d3b 642c 54bb
00000050: 7fe4 f43a fafb b1ba 9fb2 e33a 4f5a 483a
00000060: 6f29 e4ba e2ae 963a f5cd 66bb a256 b93b
00000070: 0f3b db38 a33d 3cbb 0040 b33a 9479 b13b
00000080: fa61 df3a f7c1 2b3b 4da0 8b3a 87e7 683b
00000090: 0199 0bbb 7546 983a ba75 523a b61b 30bb
000000a0: 13b7 83bb 5446 f8b9 fa20 e03a cf06 1bba
000000b0: 4971 98b9 b763 d73a b92d 2abb 1522 d73b
000000c0: 39ee 873b a115 c03a f289 a3bb 5aaf c33b
000000d0: 5fa2 0b3b ffac 913b cd6e 89ba 306e c23b
000000e0: 164a 803b 2f4d 193a 7e0b 0e3b 4a3d 813b
000000f0: ac14 67bb 6d31 32bb 42be 98b9 b81b e8ba
00000100: cee2 c73b 8d1d 53b9 b3f9 403b da92 44ba
00000110: 2db6 4fbb d168 dd3b c6b4 2b3b fcb3 72bb
00000120: 343e 94ba bb30 673b e15a 943b 769e 20bb
00000130: 9969 9fba 322e ebba cb73 14bb d082 27bb
00000140: 7836 993b 07fc e9ba 082b 653b d0c0 99b9
00000150: c255 963b 86ae 403b 8116 e8b9 e74c 8b3a
00000160: 4385 afb9 2faf 003b 08cf e3ba cf6e d9b9
00000170: 6c04 ba39 404d adbb 2e50 743b 4fab d13a
00000180: d763 7338 2675 5dbb 6dc2 6c3b fb1b a8ba
00000190: 2f35 473b 8881 6dbb 7057 543b ecee 0d3a
000001a0: 422b 01bb 47a8 c83a 86e5 3a3b 35ad 3d38
000001b0: 0b02 6a3b 373f c03a c42e 3b3b 11e7 193b
000001c0: e434 2bba bc03 633a 6588 97ba a997 14ba
000001d0: 75e9 d0b8 09db c1ba b3c6 553b 1861 e6b9
000001e0: 81ce 563b c168 6bba 6249 8d3a 54f3 54bb
000001f0: 7e07 843a 857a 28bb be49 083b eef6 cdba
00000200: e518 1138 e753 31bb aba5 b73a 6dd4 273b
00000210: 696a 58ba f33c 26bb 65bc 15b9 3aa7 033b
00000220: 4560 b73a d99d 4dba 1ddc 1b3b 83e0 003a
00000230: 28e6 c13b 3739 d23b ca31 3d3b f363 6cba
00000240: e1d5 8bba 34fb a03b 3c4f 64bb c62f a0ba
00000250: bcbf f2ba 5e7d 313b 1897 803a 2cc9 de3b
00000260: 9f36 883b 8298 073b 0f21 1cbb 9a72 a9ba
00000270: 9bc4 2a3b f49f d43b 9206 9d3b c415 b43b
00000280: 4afc 5d3a db3d 16bb 5cf3 01bb 50d6 07bb
00000290: f0e4 273b 6de0 3abb db5c 21bb 7e6e a63b
000002a0: 808b 5e3b a32e fa3a 7598 08ba f71b 83bb
000002b0: e863 783a 9bc8 453b 2750 b63b addd 82b9
000002c0: ac8e 90bb 36ec 953b 55be 183b 3ca7 a4b9
000002d0: a516 16ba ded2 c4bb d4e2 9f3a b08a 143b
000002e0: 07fc 933b fb49 cd3b e8ab 6d3b 6d74 5e3b
000002f0: f606 6b3b 7cfe e03b 3ff9 bc3a 91e6 03b9
00000300: c234 013b a053 8c3b 865b 383b f11d 733b
00000310: b546 40bb fc18 e5b8 fd8f 8bbb cac7 0c3a
00000320: 2667 723a 5d26 6b3b c2f4 6d3b 6091 043b
00000330: 940b 32bb 6bc0 d139 781a ca3a 0f67 813a
00000340: 46e4 3e3a 13a0 b23b cb61 ed3a 3e38 ca3b
00000350: 4ffd 553b f641 5b3b a836 1d3b 380f 8039
00000360: 06e7 723a dc5c 32bb 8193 05bb 9685 b83b
00000370: 7b8e 52bb 84d9 5a3b c972 bfbb 7239 f139
00000380: 70db 96bb d7b2 fc39 36c4 db3a a4e4 3cbb
00000390: d1bb 903b 646b 333b 32cd f3ba 40c7 c83b
000003a0: 4cac ecba 7128 4eba 17c9 bebb 6008 8abb
000003b0: 3dc7 613a 4dfc 10bb a039 163b 0709 8fbb
000003c0: dc74 8aba bf2e a03b 32e4 de3b 35c7 393b
000003d0: bb3e f4ba 31ee 613b ba30 463b abd0 7a3b
000003e0: c29f e23b 6fc0 6a39 d4f0 323b 37a0 0f3b
000003f0: 2427 7a3a b304 6cbb 7dd9 e0ba 1b66 8aba

network_body._body_endoder.seq_layers.2.weight f4 [256, 256]
-0.013072779 -0.009052857 0.015356737 0.13041425 -0.16619664 -0.0071731 -0.039589256 0.04919321
-0.03664198 -0.0052139764 0.046639517 0.097666495 -0.03887797 -0.09334019 0.0032170343 -0.0666982
0.09392316 0.1219103 0.028860383 -0.03508691 -0.023900261 -0.06484462 0.02130713 -0.11473019
-0.09868917 -0.0948913 0.019935893 -0.008135378 -0.06546243 0.085260436 -0.04873691 0.044586025
0.004409796 -0.031837936 -0.051566873 -0.030902568 0.023885204 -0.08359875 -0.102596335 -0.06627978
0.0008432359 -0.06866227 -0.022235041 0.07639679 0.028150698 -0.04369026 0.02417354 -0.026186157
-0.022218712 0.027769271 -0.066378325 -0.01301692 -0.053121112 0.019588144 0.01871372 -0.06596847
0.055391848 0.024068136 0.07540338 0.01542761 0.012899479 -0.061355986 -0.11063551 -0.018310674
0.0036735656 -0.017082505 -0.019878851 -0.06526987 0.029587055 0.047890175 -0.14226554 0.00020439387
0.035765827 0.05849363 -0.07659065 -0.06883396 -0.045267273 -0.08953719 -0.034418423 -0.1265933
-0.0056005223 0.025770547 0.12500183 0.052623246 -0.0021632414 0.045024514 0.027285475 -0.039419133
0.07636348 0.05610921 -0.13107544 0.02349479 -0.0303211 0.12448385 -0.08445864 -0.03433477
-0.040570654 0.09965714 0.022651419 0.055654787 -0.03855069 0.027389875 -0.04087663 0.08051912
-0.06659515 -0.015458111 -0.053641055 -0.01901105 -0.004516534 -0.0810201 0.12331064 -0.01614506
0.05999411 -0.021022737 0.03238579 0.05494914 -0.107426785 0.006950582 -0.007074143 -0.01411244
-0.04731808 0.11345409 -0.0363836 -0.044987902 -0.06536466 -0.021884054 -0.06542357 -0.031846292
-0.013506466 0.012017332 0.079255365 0.02262444 -0.027644727 0.06310388 -0.009987006 0.05750575
0.02238429 0.074719995 -0.011505215 -0.074130796 -0.015730945 0.046008386 -0.004634516 -0.06652772
0.04623238 -0.06867982 0.10449676 -0.051856812 0.011415206 -0.010157981 -0.01164094 -0.033867262
-0.06224955 0.0053849192 0.04015427 0.04690854 -0.04136005 -0.091710225 -0.012846532 0.09093059
-0.029431963 -0.023981934 -0.14293939 0.159694 0.062434442 -0.010588636 0.0061159516 -0.023647923
0.073954485 -0.094645396 0.026225213 0.12161505 0.045003712 0.044385348 -0.023639338 0.026507534
0.03499241 0.057545826 0.028667895 -0.050477196 0.10094107 0.10995111 -0.028741503 0.053064086
0.04013073 -0.09557866 0.06612682 0.059172247 0.032981478 -0.021774609 -0.0067199715 0.16772889
-0.076263025 0.040258504 0.034081325 0.034603473 0.18553406 0.032146253 0.041131176 -0.07290236
0.024971923 0.112047344 -0.054358523 -0.10191618 0.016992213 -0.065957 -0.069159836 -0.018074203
0.0040290644 -0.002755413 -0.072882645 -0.089571305 -0.1419276 -0.06488412 -0.12903267 0.033110842
0.12771763 -0.034833528 0.082740545 0.013160767 -0.0857616 -0.01313046 0.059348494 0.07615168
0.048836995 0.019902708 0.013873247 -0.10109993 0.015131763 0.0671969 -0.0036360174 -0.052081004
-0.05185343 -0.017031724 0.036205176 0.035121147 -0.010725759 0.078883134 0.088417046 0.00052322453
0.033682168 0.016027749 0.039979488 0.053517114 0.01331387 -0.042477887 0.036541913 0.02775318
-0.05509571 -0.10067468 0.044250865 -0.03519299 -0.076124705 -0.05220346 -0.070890345 -0.0035280075
00000000: 362f 56bc 6f52 14bc d39a 7b3c 508b 053e
00000010: 742f 2abe 530c ebbb 5828 22bd d27e 493d
00000020: e715 16bd 01da aabb 1409 3f3d 5f05 c83d
00000030: 823e 1fbd 2429 bfbd e1d4 523b 1199 88bd
00000040: c95a c03d 1bac f93d 9c6c ec3c 4bb7 0fbd
00000050: 7bca c3bc 42cd 84bd 4a8c ae3c a9f7 eabd
00000060: 8c1d cabd 5f56 c2bd 9950 a33c 404a 05bc
00000070: 2b11 86bd 069d ae3d 5ba0 47bd d69f 363d
00000080: 0d80 903b 7f68 02bd c937 53bd 6227 fdbc
00000090: e7aa c33c d235 abbd 071e d2bd b1bd 87bd
000000a0: 9a0c 5d3a ce9e 8cbd 4326 b6bc ec75 9c3d
000000b0: 4b9c e63c 8ff4 32bd 9607 c63c 5a84 d6bc
000000c0: 0404 b6bc 627c e33c 5cf1 87bd eb44 55bc
000000d0: 8695 59bd 5177 a03c 844d 993c 7a1a 87bd
000000e0: 90e2 623d 8a2a c53c 166d 9a3d 16c4 7c3c
000000f0: 5658 533c 6a50 7bbd df94 e2bd 4400 96bc
00000100: 34c0 703b 9cf0 8bbc f9d8 a2bc 36ac 85bd
00000110: 8d60 f23c 7d28 443d 0fae 11be 9052 5639
00000120: 307f 123d 0497 6f3d 8fdb 9cbd d2f8 8cbd
00000130: 2d6a 39bd 465f b7bd 55fa 0cbd ada1 01be
00000140: 9684 b7bb c11c d33c 7b00 003e 798b 573d
00000150: 2bc5 0dbb a06b 383d ca85 df3c f575 21bd
00000160: 7564 9c3d c5d2 653d a438 06be 2578 c03c
00000170: f563 f8bc 64f1 fe3d a7f8 acbd 9ea2 0cbd
00000180: 6a2d 26bd 0b19 cc3d 788f b93c 46f6 633d
00000190: 54e7 1dbd bb60 e03c 416e 27bd 35e7 a43d
000001a0: 0a63 88bd 0444 7dbc b9b6 5bbd 10bd 9bbc
000001b0: 6fff 93bb deed a5bd 4a8a fc3d a542 84bc
000001c0: 62bc 753d e037 acbc f6a6 043d 5912 613d
000001d0: 9302 dcbd b5c1 e33b 36ce e7bb dd37 67bc
000001e0: 9ad0 41bd 9e5a e83d f806 15bd 3c45 38bd
000001f0: e8dd 85bd 3046 b3bc cbfc 85bd 4271 02bd
00000200: 394a 5dbc 58e4 443c a350 a23d e456 b93c
00000210: 3277 e2bc 9b3c 813d 8aa0 23bc 268b 6b3d
00000220: 425f b73c cc06 993d 5f80 3cbc e3d1 97bd
00000230: 2fde 80bc 4a73 3c3d 23dd 97bb af3f 88bd
00000240: 2a5e 3d3d 01a8 8cbd 6602 d63d cf67 54bd
00000250: d806 3b3c a96d 26bc a4b9 3ebc 66b8 0abd
00000260: 62f9 7ebd fa73 b03b ce78 243d 2b23 403d
00000270: 2869 29bd 92d2 bbbd 437a 52bc d139 ba3d
00000280: 4d1b f1bc c375 c4bc b45e 12be d386 233e
00000290: 42bb 7f3d f57b 2dbc 5268 c83b 4ab9 c1bc
000002a0: 7375 973d 72d5 c1bd 42d6 d63c 5011 f93d
000002b0: d055 383d 69cd 353d 49a7 c1bc 5426 d93c
000002c0: 3454 0f3d 2cb5 6b3d efd8 ea3c 2dc1 4ebd
000002d0: 31ba ce3d 0c2e e13d 4d73 ebbc ba59 593d
000002e0: 1f60 243d bfbe c3bd 806d 873d 995e 723d
000002f0: 9617 073d aa60 b2bc 3533 dcbb 1fc1 2b3e
00000300: ca2f 9cbd 1ae6 243d dc98 0b3d 5fbc 0d3d
00000310: a4fc 3d3e caab 033d 2a79 283d d54d 95bd
00000320: eb91 cc3c 1479 e53d 0ba7 5ebd 6eb9 d0bd
00000330: 4133 8b3c 7714 87bd aca3 8dbd 5a10 94bc
00000340: 3e06 843b 2994 34bb 7f43 95bd 2971 b7bd
00000350: 7855 11be f7e1 84bd 2421 04be 3c9f 073d
00000360: 69c8 023e 9aad 0ebd e073 a93d 42a0 573c
00000370: c7a3 afbd 2421 57bc 6817 733d 69f5 9b3d
00000380: 4d09 483d 010b a33c 9e4c 633c 7b0d cfbd
00000390: 37eb 773c 879e 893d 404a 6ebb e452 55bd
000003a0: 4364 54bd 1d86 8bbc e14b 143d 31db 0f3d
000003b0: 18bb 2fbc 7b8d a13d ff13 b53d 0129 093a
000003c0: 50f6 093d a04c 833c 88c1 233d c334 5b3d
000003d0: 6b22 5a3c 4bfd 2dbd f9ac 153d a35a e33c
000003e0: 0aac 61bd 872e cebd 6540 353d 8626 10bd
000003f0: 45e7 9bbd 4cd3 55bd f52e 91bd 2536 67bb

network_body._body_endoder.seq_layers.2.bias f4 [256]
-0.00418509 -0.00054074934 -4.2264324e-05 -0.0044733332 -0.0021934926 -0.00012391437 0.006149015 -0.00176386
0.0013480114 0.0031077866 -0.003058591 -0.0032306241 -0.0014129839 -0.00081034325 0.0010837112 -0.0017022798
-0.0017614204 -0.0014052072 0.0026648769 -0.00078826916 0.0030183748 -0.00037683017 -0.00034017564 0.0023472125
0.0006675123 0.0005471444 -0.0020529563 0.0036914675 -0.0013761723 0.0019121154 0.0013176913 -0.0015450789
0.0014041093 0.0010569765 -0.0012820308 0.002811347 0.0026144285 -0.0023857185 -0.0018806572 -0.0013905249
-0.002074187 -0.00082474045 0.00607132 0.002175917 0.0030692075 0.0016992312 0.004749484 0.0036551277
0.0056805513 -0.0029528684 -0.0017741466 0.002577728 0.00013138253 -0.0037539431 -0.0010952773 -0.0014171691
-0.0004563569 -0.0004782801 0.0033517748 -0.0002572995 0.0031962828 -0.0011739503 -0.0034689975 -0.0010205933
-0.000501888 -0.00050084066 -4.283631e-05 0.0029749016 0.001990991 0.0009282363 0.0055771805 -0.0030195597
0.0016735774 0.0046662595 0.0017357352 0.00058795937 -0.00033864615 0.0013163819 0.0043708314 -0.00033395004
0.00043171708 -0.0032882607 0.0040332642 -0.0010315044 0.0029980154 0.0052820966 -0.0011784929 0.0017433825
0.0014539302 0.00055755116 -0.003945055 -0.00012525101 -0.00057601195 0.0019511894 0.003342453 0.0002478108
0.005462805 0.0018385684 0.0005440526 0.002111605 0.0019897835 0.0003150794 -0.0026491194 0.0037862675
-0.0013466486 -0.00414714 0.004104636 0.0034083861 0.0010155998 -0.0006334423 -0.0029336945 0.0041126455
-0.002512451 -0.00021122508 -0.0012234964 0.0030281644 -0.0030166942 0.0007126261 0.0002727777 -0.00014495931
-0.0010771494 -0.0012889658 -0.00140696 -0.00067689497 0.00076496805 0.0036420806 0.00029106007 -0.0017752409
0.006005044 0.00017126219 0.00069440267 0.005014739 -0.002954566 0.0038245248 0.0009835706 0.0016524354
-0.00077430316 4.3321077e-05 -0.00072028814 0.0031857116 -0.0033904738 -0.001361981 0.0077231894 -0.0009776133
0.0038992995 0.0031271114 0.0077475416 0.0026227366 0.0043657525 -0.0010869738 -0.0052904985 0.004151338
-0.0036115993 0.002802504 0.0010182357 -0.0014003434 -0.00039356394 0.0016041562 -0.0057151727 -0.0020649782
-0.00125648 0.0038933565 -0.005653183 0.002827684 -0.0016256813 0.005154119 0.004736141 0.003978483
0.001211079 0.001544265 0.0033409367 0.0055970475 -0.0025672978 0.001539793 -0.0012884655 -0.0005956528
-0.0029246148 0.003532853 0.0033454364 0.0014018229 -0.00021453771 0.0016790255 0.0048722727 -0.0021005315
0.0024714319 0.00093564333 -0.0019586396 0.0033382496 -0.0039496683 -0.0013126532 -0.002965427 -0.002851705
0.003168759 1.6869892e-05 -0.00058482937 -0.0008296957 0.00013409996 -0.0025006935 -3.8541424e-05 0.0012084767
-0.0024415874 0.004951342 0.0033499443 0.0034519862 -0.00017987135 0.0028218215 -0.0015183198 0.00078311167
-0.0027823744 -0.0013623832 -0.000772875 -0.002078944 0.004624888 0.0013236006 0.00668622 0.0022831357
-0.0004745032 -0.0004534614 0.00033968312 0.0017010336 -0.0009048602 0.000970763 0.0035544676 0.0027033058
0.003049922 5.3769803e-05 -0.0005172039 -0.0045538587 0.000398941 0.0008135199 0.003223038 0.0030028748
-0.0012601268 -0.0049416656 0.0021916155 -0.003160984 0.00087939564 -0.0023921316 0.0019841478 0.0011769001
-0.0032127432 -0.0028326074 0.0021556723 0.0022051896 -0.004132238 -0.0024051368 -0.00019220807 0.0049778842
0.0019781704 0.0049346196 0.0034990753 -0.003290444 -0.0012782275 -0.001651694 0.0030486626 -0.0011504781
00000000: 1423 89bb 13c1 0dba f944 31b8 0a95 92bb
00000010: b3c0 0fbb 03ef 01b9 ad7d c93b 5231 e7ba
00000020: c2af b03a 02ac 4b3b a472 48bb e1b8 53bb
00000030: df33 b9ba 376d 54ba 500b 8e3a 081f dfba
00000040: 76df e6ba ee2e b8ba 37a5 2e3b d9a3 4eba
00000050: edcf 453b 4a91 c5b9 9a59 b2b9 b1d3 193b
00000060: fefb 2e3a 3d6e 0f3a e48a 06bb 8cec 713b
00000070: ae60 b4ba f29f fa3a 62b6 ac3a 3f84 caba
00000080: 170a b83a 3f8a 8a3a d109 a8ba 933e 383b
00000090: d556 2b3b b759 1cbb 6280 f6ba 4642 b6ba
000000a0: 15ef 07bb 6533 58ba ecf1 c63b d499 0e3b
000000b0: c224 493b bdb8 de3a 8fa1 9b3b de8a 6f3b
000000c0: eb23 ba3b e984 41bb 7b8a e8ba 19ef 283b
000000d0: bbc3 0939 b704 76bb 688f 8fba 4ec0 b9ba
000000e0: 3043 efb9 abc1 fab9 73a9 5b3b 28e6 86b9
000000f0: ba78 513b 3cdf 99ba 1f58 63bb 6ec5 85ba
00000100: 2291 03ba d94a 03ba 23ab 33b8 91f6 423b
00000110: 497b 023b e254 733a c8c0 b63b cee3 45bb
00000120: f05b db3a 6ce7 983b 9c81 e33a 4921 1a3a
00000130: 518c b1b9 728a ac3a 3139 8f3b 0416 afb9
00000140: 1658 e239 dc7f 57bb 7929 843b 8b33 87ba
00000150: 5a7a 443b 7015 ad3b a977 9aba 3682 e43a
00000160: cd91 be3a a028 123a 8545 81bb d055 03b9
00000170: 82ff 16ba 0dbf ff3a 0e0d 5b3b 9aec 8139
00000180: 5401 b33b 1efc f03a c09e 0e3a da62 0a3b
00000190: 0767 023b 3e31 a539 d99c 2dbb 0723 783b
000001a0: 0782 b0ba bbe4 87bb 2f80 863b 3b5f 5f3b
000001b0: e01d 853a 980d 26ba 3a43 40bb 5fc3 863b
000001c0: efa7 24bb 4d7c 5db9 ba5d a0ba 2b74 463b
000001d0: bbb3 45bb 87cf 3a3a 9a03 8f39 3800 18b9
000001e0: 232f 8dba 84f2 a8ba be69 b8ba a771 31ba
000001f0: 2388 483a f9af 6e3b 6c99 9839 33af e8ba
00000200: f6c5 c43b d894 3339 9308 363a ae52 a43b
00000210: 64a1 41bb e1a4 7a3b 27eb 803a 8896 d83a
00000220: 9bfa 4aba a7b3 3538 b8d1 3cba 5fc7 503b
00000230: b632 5ebb 8084 b2ba cf12 fd3b 4223 80ba
00000240: 648b 7f3b 39f0 4c3b 17df fd3b 38e2 2b3b
00000250: 960e 8f3b ca78 8eba eb5b adbb f207 883b
00000260: 95b0 6cbb 37aa 373b 5276 853a ba8b b7ba
00000270: 4257 ceb9 8d42 d23a 5846 bbbb 9654 07bb
00000280: 79b0 a4ba af27 7f3b 563e b9bb aa50 393b
00000290: d014 d5ba e2e3 a83b a131 9b3b ef5d 823b
000002a0: 11bd 9e3a ef68 ca3a 9ef3 5a3b 7067 b73b
000002b0: 1c40 28bb e1d2 c93a bae1 a8ba 9525 1cba
000002c0: e5aa 3fbb 7087 673b 1c3f 5b3b 5fbd b73a
000002d0: 87f5 60b9 bf12 dc3a 96a7 9f3b 12a9 09bb
000002e0: bff7 213b f645 753a 855c 00bb 89c6 5a3b
000002f0: 386c 81bb 550d acba 9c57 42bb ace3 3abb
00000300: f4aa 4f3b d183 8d37 3c4f 19ba f07f 59ba
00000310: 2f9d 0c39 ade2 23bb 8aa7 21b8 c065 9e3a
00000320: 0a03 20bb de3e a23b bd8a 5b3b b83a 623b
00000330: d99b 3cb9 4fee 383b 5c02 c7ba bc49 4d3a
00000340: 7f58 36bb ff91 b2ba c39a 4aba e43e 08bb
00000350: 5f8c 973b ab7c ad3a 1418 db3b a9a0 153b
00000360: bec6 f8b9 8fbe edb9 7f17 b239 37f5 de3a
00000370: 2434 6dba cd7a 7e3a 12f2 683b f229 313b
00000380: 33e1 473b e386 6138 f794 07ba 8938 95bb
00000390: f428 d139 6542 553a 9b39 533b e1cb 443b
000003a0: d72a a5ba b2ed a1bb 35a1 0f3b 8328 4fbb
000003b0: 3e87 663a 4fc5 1cbb 7a08 023b 3742 9a3a
000003c0: e38c 52bb 44a3 39bb 2e46 0d3b f184 103b
000003d0: ba67 87bb 809f 1dbb 768b 49b9 851d a33b
000003e0: 31a4 013b 97b2 a13b be50 653b 7da4 57bb
000003f0: 338a a7ba a77d d8ba 12cc 473b a4cb 96ba

action_model._continuous_distribution.log_sigma f4 [1, 2]
-0.0010392227 -0.001317643
00000000: 8736 88ba c3b4 acba

action_model._continuous_distribution.mu.weight f4 [2, 256]
-0.0006516404 -0.0039826897 0.005177379 -0.0063435677 0.018825036 0.0070189433 0.018653434 0.0019194189
0.008135115 -0.028353097 0.01947969 -0.018085228 0.00814854 -0.013415532 0.0059297928 0.0018263006
0.00631905 -0.0027126125 -0.012919376 0.0053065196 -0.011222702 -0.0004394881 0.017924165 0.0062826453
-0.0038034073 0.018457685 0.002643967 -0.008831935 -0.012925226 0.007053751 -0.008533966 0.003264775
-0.017968718 0.023291288 -0.0025661818 -0.02835583 -0.0041644825 -0.0016974775 -0.013439733 -0.0113446945
-0.0006902402 0.0007220626 0.00940851 0.0013022608 -0.012181084 -0.010521789 -0.014406147 0.021670789
0.008629713 0.007224012 0.015995584 0.011704765 0.014242772 0.014842577 0.0065590376 0.0005697504
0.02127565 -0.0035967603 -0.0066435817 0.009786883 -0.021403752 0.00184776 0.00050160807 -0.005457467
-0.017055979 -0.0054256357 -0.035937205 -0.001408405 0.0057358323 0.014891719 -0.013259625 0.0064668306
-0.016425647 -0.0060790116 -0.014171344 -0.0070149167 -0.004858112 -0.0054236664 0.031756718 -0.019119818
-0.017746136 0.016633786 0.0044770073 0.023356576 0.024483828 -0.004403421 0.0075568072 -0.010095207
0.02538975 0.007499796 0.0005223076 -0.0028825905 0.016540784 0.010239958 -0.013252976 -0.002696065
0.014865115 -0.028805232 -0.0075205406 0.022454523 -0.0064769527 0.00067881274 -0.00059478736 -0.006656006
0.011805131 -0.0009905468 -0.005812214 0.0077352873 0.02653353 0.0071853097 -0.0053050313 0.020702563
0.0035921028 0.01560035 0.0037404622 0.013103134 -0.00033090782 0.008077533 -0.012154663 0.004044128
-0.025076937 0.0021648458 0.003795937 -0.0039372654 0.006824322 0.0060683168 -0.009225468 -0.019987578
0.012641329 -0.026105162 0.003399038 -0.009976618 0.010759313 -0.007300282 -0.00058716844 0.012950249
-0.0215212 -0.0016833573 0.0041824365 0.004807153 -0.008684894 -0.029965488 0.012509053 0.010750225
-0.0035250392 -0.035757795 -0.024189549 0.027156433 -0.0027402265 0.010558818 0.016616132 0.009955349
0.0046648216 -0.011687865 0.005037084 0.000911171 0.016858056 -0.006945921 -0.012476513 0.00094337977
-0.009326202 -0.004862529 0.025382007 -0.0116632115 -0.0020538766 -0.014675255 -0.0151820285 0.027511876
-0.0016411582 0.012342863 0.0052914177 -0.009143252 -0.0109491525 0.0004353481 0.0009532413 -0.0068919193
0.0023993566 0.0048860554 -0.0032700794 0.013040522 0.0014485507 0.027222114 -0.0058482313 0.0022241361
-0.00064998324 0.016572641 2.4883655e-05 -0.01576622 -0.00012163708 -0.0002630957 -0.017213367 0.0040357593
-0.0031542454 -0.012387589 -0.0062900595 -0.007030167 0.0034834656 0.002164242 0.0048694722 -0.0077786488
0.0007994283 -0.004712274 -0.0046810047 0.006136096 -0.0031505728 0.0020460072 -0.017243179 0.014175044
-0.0005647788 -0.005717358 0.023365214 0.0018471612 0.010357754 0.016685335 0.003905397 -0.0009821285
0.0032653871 -0.021560514 0.0075645577 -0.0034252089 -0.00051517726 0.009094354 -0.012494648 0.0054551098
0.012404455 -0.0006290237 -0.012191701 -0.016641878 0.009198364 0.010008478 0.01699884 0.018319638
0.003356554 -0.014998489 -0.00037345794 -0.008435279 -0.016185194 -0.005292997 -0.025728438 0.014774371
0.006790589 0.0033849825 -0.013424578 0.007847351 -0.00084839616 0.0038295172 -0.0011937883 -0.010807957
-0.0258627 0.023752417 0.00038397778 -0.013616029 0.004344722 -0.013759103 0.0104470635 0.012376175
00000000: d9d2 2aba 3981 82bb 01a7 a93b b4dd cfbb
00000010: f636 9a3c 2aff e53b 16cf 983c 0395 fb3a
00000020: 2549 053c c144 e8bc df93 9f3c 7927 94bc
00000030: 7481 053c d2cc 5bbc b54e c23b 7b60 ef3a
00000040: 0910 cf3b 16c6 31bb caab 53bc 50e2 ad3b
00000050: 6ddf 37bc 186b e6b9 b3d5 923c a6de cd3b
00000060: 9642 79bb 9234 973c 6846 2d3b d2b3 10bc
00000070: 54c4 53bc 2723 e73b 0cd2 0bbc d6f5 553b
00000080: 2233 93bc 5fcd be3c 632d 28bb 7c4a e8bc
00000090: 3676 88bb e57d deba 5332 5cbc 19df 39bc
000000a0: 3cf1 34ba cd48 3d3a 2726 1a3c 9fb0 aa3a
000000b0: 2b93 47bc 9563 2cbc c307 6cbc f086 b13c
000000c0: a463 0d3c 68b7 ec3b 2c09 833c 58c5 3f3c
000000d0: 845a 693c 482e 733c 32ed d63b 4d5b 153a
000000e0: 464a ae3c a0b7 6bbb 67b2 d9bb 2a59 203c
000000f0: ec56 afbc 8a30 f23a 597e 033a 8dd4 b2bb
00000100: fbb8 8bbc 88c9 b1bb e432 13bd 3b9a b8ba
00000110: a6f3 bb3b 66fc 733c e63e 59bc b5e7 d33b
00000120: 148f 86bc 7232 c7bb ed2e 68bc 63dd e5bb
00000130: cc30 9fbb 03b9 b1bb 5513 023d 2aa1 9cbc
00000140: 5860 91bc 9443 883c dcb3 923b 4a56 bf3c
00000150: 4f92 c83c 934a 90bb 189f f73b 5e66 25bc
00000160: 2afe cf3c d9c0 f53b 78eb 083a d8e9 3cbb
00000170: 8a80 873c 7fc5 273c 0323 59bc 77b0 30bb
00000180: d08c 733c f3f8 ebbc de6e f6bb 8cf2 b73c
00000190: 9e3c d4bb 5af2 313a 81eb 1bba a01a dabb
000001a0: 4f6a 413c 3cd5 81ba 6374 bebb 4b78 fd3b
000001b0: d85c d93c bf72 eb3b d4d5 adbb 6c98 a93c
000001c0: 7c69 6b3b 9c98 7f3c 8b22 753b 87ae 563c
000001d0: b27d adb9 a157 043c 5a24 47bc 9b84 843b
000001e0: 266e cdbc 16e0 0d3b 41c5 783b 2d04 81bb
000001f0: 909e df3b bbd8 c63b 6b26 17bc fdbc a3bc
00000200: 941d 4f3c 7eda d5bc 65c2 5e3b f874 23bc
00000210: d447 303c 3437 efbb 35ec 19ba 482d 543c
00000220: 3a4d b0bc 19a4 dcba d20c 893b 5285 9d3b
00000230: 164b 0ebc 2f7a f5bc c5f2 4c3c b621 303c
00000240: 5804 67bb c476 12bd 2929 c6bc 2b77 de3c
00000250: 5f95 33bb e4fe 2c3c 8e1e 883c c31b 233c
00000260: 5cdb 983b 757e 3fbc 200e a53b a7db 6e3a
00000270: e819 8a3c 9c9a e3bb 4a6a 4cbc 254d 773a
00000280: edcc 18bc da55 9fbb eded cf3c 0e17 3fbc
00000290: 559a 06bb 7b70 70bc 0bbe 78bc 9660 e13c
000002a0: 221c d7ba b839 4a3c a163 ad3b 94cd 15bc
000002b0: 1364 33bc 6f3f e439 f1e2 793a 9cd5 e1bb
000002c0: 863e 1d3b 341b a03b d44e 56bb eaa7 553c
000002d0: 4cdd bd3a e900 df3c 85a2 bfbb d0c2 113b
000002e0: a363 2aba 59c3 873c 3ebd d037 2928 81bc
000002f0: 6917 ffb8 1bf0 89b9 0c03 8dbc 673e 843b
00000300: 75b7 4ebb 50f5 4abc d81c cebb 515d e6bb
00000310: db4a 643b f5d5 0d3b 1890 9f3b 09e4 febb
00000320: ba90 513a 6b69 9abb 1d63 99bb 4e11 c93b
00000330: d779 4ebb 4e16 063b 9141 8dbc 723e 683c
00000340: aa0d 14ba ad58 bbbb 6868 bf3c 721c f23a
00000350: 92b3 293c afaf 883c b0f1 7f3b c4ba 80ba
00000360: 1b00 563b ad9f b0bc 1ce0 f73b 7879 60bb
00000370: f60c 07ba 7c00 153c 5ab6 4cbc c7c0 b23b
00000380: 0e3c 4b3c 11e5 24ba b3bf 47bc 8c54 88bc
00000390: bcb4 163c 99fa 233c 2741 8b3c 1113 963c
000003a0: a2f9 5b3b 39bc 75bc adcc c3b9 2034 0abc
000003b0: d096 84bc e170 adbb 72c4 d2bc 3410 723c
000003c0: 9783 de3b 95d6 5d3b c3f2 5bbc 2d92 003c
000003d0: e766 5eba a3f8 7a3b e378 9cba db13 31bc
000003e0: 03de d3bc 6e94 c23c a050 c939 c415 5fbc
000003f0: 2b5e 8e3b dc6d 61bc 292a 2b3c 71c5 4a3c

action_model._continuous_distribution.mu.bias f4 [2]
-0.00023629796 -0.0021335466
00000000: c0c6 77b9 f9d2 0bbb

action_model._discrete_distribution.branches.0.weight f4 [2, 256]
-0.0008665029 0.0045494037 -0.004463116 -0.0016183952 0.0033184509 -0.008722723 -0.0027818894 -0.0025196064
0.003338121 -0.008906587 0.006011518 -0.009414164 -0.011317009 -0.00065946387 0.003978401 0.014474259
-0.0004860555 0.0054275002 0.0032447404 0.009216772 0.005940415 0.0065633166 -0.0059773624 0.001550677
-0.009853555 0.005215632 -0.0027692711 -0.005249061 0.0053103953 0.0013900572 -0.0011124476 -0.0006275688
0.011566203 -0.00026259248 -0.0045291334 0.0072618383 0.002732548 -0.0068021133 0.00085721567 -0.00133184
-0.00480374 0.005050417 0.0054023857 -0.0011127255 -0.0046010655 -0.0051381667 -0.019870788 -0.0008230895
0.0054341042 0.006134482 -0.0002585587 0.0068176487 -0.004171878 0.0129919555 -0.010587215 0.000866361
0.0016029939 0.0053146733 -0.004459221 0.014841603 0.0025704121 0.008162579 -0.003034346 -0.0013635154
-0.004710276 0.0069686184 0.009568035 0.007760591 0.0034876827 0.014645278 -0.011333357 -0.007739113
0.010977379 0.0076273503 -0.0101264 0.0012203899 -0.007892145 0.012153751 0.0054123243 0.009398956
-0.005460165 0.0026282014 -0.0034326676 -0.006144635 -0.0032477127 0.0057034595 -0.004534691 -0.009309259
0.0055455626 0.006490052 0.008422755 -0.009797837 -0.0008139921 -0.006611103 -0.005357891 0.0088862395
-0.007114432 -0.0063150544 -3.099241e-05 0.0019867695 -0.0077251694 0.004604977 -0.0025539773 -0.0012724977
-0.004427487 -6.676851e-05 -0.00434479 0.0024569666 0.00090224075 0.007884414 -0.0025068796 0.0014390142
0.007969837 -0.008600815 0.0021492569 0.0020947396 0.0024192473 -0.006881106 -0.006265516 -0.00358137
-0.0067541795 0.0017042535 -0.0028398545 -0.008293841 -0.014296828 -0.0018286242 0.0020106654 0.0012236789
-0.0042492202 0.007696931 0.0034653393 -0.010901064 -0.0009944466 -0.005344898 -0.005625171 -0.0030945912
-0.0011237882 0.0071475734 -0.0028587498 0.005973049 -0.0027505334 0.007637095 -0.005107101 0.007966145
-0.0015607006 -0.009290466 0.0017441609 -0.0012289551 0.002154282 0.005418664 0.0018148376 0.00044536783
0.014201382 0.010926622 0.002622302 0.0007617555 0.005333174 -0.0033790118 0.0050103744 0.005428937
-0.0047406415 -0.0017294204 0.008920272 0.00785674 0.015115457 -0.004003103 -0.0065129115 0.001320589
0.007767432 -0.00028219668 -0.006962672 -0.00038049725 0.00752084 -0.013257288 0.0026752513 0.004480092
-0.0014775782 -0.009527797 -0.005186668 0.005248691 0.009262618 -0.012034713 -0.003402193 0.011394366
-0.00033871515 0.011069293 0.0050435094 0.0047197742 -0.0050018234 -0.009132116 0.00059306395 -0.00041334433
0.0021201293 -0.0092174895 0.002820689 0.0038669629 0.006502933 0.0022223245 0.0011301825 0.008165825
0.0053187907 -0.0015822155 0.0016483704 0.0057875975 0.007917599 0.00073021237 0.00575056 -0.0010777012
0.0020220855 -0.0020844832 0.008322304 -0.007968762 -0.0033948591 -0.009951673 -0.0064474596 0.0018816505
0.007730476 0.0050595095 -0.0012818408 -0.0066922205 0.004502705 -0.0029986599 -0.0028113134 -0.010014318
0.0007589409 -0.0014628212 -0.008532439 0.0023068788 0.0008618342 -0.002393555 -0.005926246 0.012225996
-0.0005008907 -0.010630244 -0.0038646227 0.0048099067 0.0038588762 0.0035036944 0.0062555145 0.008651961
0.007553107 0.0044436385 -0.0010085899 0.0018796356 0.009464476 0.006786131 -0.0057782405 0.006236248
0.0004764564 -0.0070895785 -0.0071489406 -0.0015582633 -0.013163334 0.0016876495 0.0030345307 0.011627271
00000000: 0626 63ba 2a13 953b 553f 92bb 5520 d4ba
00000010: 5e7a 593b c1e9 0ebc 5c50 36bb fb1f 25bb
00000020: 61c4 5a3b efec 11bc 45fc c43b de3d 1abc
00000030: fa6a 39bc dfdf 2cba 3f5d 823b 7125 6d3c
00000040: 44d5 feb9 2cd9 b13b b6a5 543b f201 173c
00000050: d0a7 c23b 1711 d73b c0dd c3bb 1640 cb3a
00000060: ce70 21bc e4e7 aa3b a97c 35bb 5100 acbb
00000070: d302 ae3b 9432 b63a 8ccf 91ba 6e83 24ba
00000080: 2c80 3d3c 91ac 89b9 2069 94bb b7f4 ed3b
00000090: 8c14 333b 43e4 debb c5b6 603a 2291 aeba
000000a0: b168 9dbb f87d a53b 7f06 b13b dfd8 91ba
000000b0: 89c4 96bb 115e a8bb 10c8 a2bc 9ac4 57ba
000000c0: 9210 b23b c403 c93b 298f 87b9 9566 df3b
000000d0: 40b4 88bb 36dc 543c 0076 2dbc 811c 633a
000000e0: 8d1b d23a b626 ae3b a81e 92bb 322a 733c
000000f0: 5c74 283b 56bc 053c e1db 46bb fcb7 b2ba
00000100: a958 9abb 0259 e43b 3fc3 1c3c 8e4c fe3b
00000110: 9b91 643b c0f2 6f3c 8baf 39bc 6398 fdbb
00000120: 77da 333c daee f93b 33e9 25bc 7df5 9f3a
00000130: 0e4e 01bc 8720 473c de59 b13b 14fe 193c
00000140: 2feb b2bb e73d 2c3b 9bf6 60bb ef58 c9bb
00000150: 94d7 54bb 16e4 ba3b bf97 94bb dd85 18bc
00000160: 8db7 b53b 81aa d43b 98ff 093c 1b87 20bc
00000170: 1662 55ba f4a1 d8bb 3f91 afbb 9797 113c
00000180: 2e20 e9bb 84ee cebb d9fd 01b8 7634 023b
00000190: 6b23 fdbb 59e5 963b a160 27bb f0c9 a6ba
000001a0: 7414 91bb 1206 8cb8 bd5e 8ebb 0f05 213b
000001b0: 5a84 6c3a a12d 013c 764a 24bb 4e9d bc3a
000001c0: eb93 023c 6fea 0cbc 8cda 0c3b e647 093b
000001d0: 3c8c 1e3b e77a e1bb f54e cdbb 6bb5 6abb
000001e0: 2a52 ddbb 4261 df3a da1c 3abb e4e2 07bc
000001f0: 3e3d 6abc 72ae efba 5ec5 033b da63 a03a
00000200: 0b3d 8bbb 8936 fc3b bf1a 633b 609a 32bc
00000210: 1758 82ba 4124 afbb 5b53 b8bb a0ce 4abb
00000220: 134c 93ba 3136 ea3b dd59 3bbb 91b9 c33b
00000230: 4b42 34bb 9940 fa3b 7859 a7bb 6f84 023c
00000240: 6c90 ccba 0a37 18bc 549c e43a e414 a1ba
00000250: db2e 0d3b 0c8f b13b d8df ed3a 4280 e939
00000260: eaac 683c 9305 333c edda 2b3b 8cb0 473a
00000270: e8c1 ae3b 6972 5dbb 112e a43b 39e5 b13b
00000280: 6257 9bbb b8ad e2ba 5526 123c 8eb9 003c
00000290: d2a6 773c 762c 83bb 436a d5bb 9d17 ad3a
000002a0: f185 fe3b ccf3 93b9 2027 e4bb 7a7d c7b9
000002b0: 6171 f63b 1935 59bc 4553 2f3b bccd 923b
000002c0: 4cab c1ba 7a1a 1cbc edf4 a9bb 36fd ab3b
000002d0: 3cc2 173c 3f2d 45bc 54f7 5ebb 6faf 3a3c
000002e0: 9495 b1b9 fb5b 353c 0644 a53b 56a8 9a3b
000002f0: 56e6 a3bb df9e 15bc d977 1b3a 23b6 d8b9
00000300: def1 0a3b f404 17bc 4fdb 383b df6c 7d3b
00000310: 8e16 d53b 6ba4 113b a222 943a f4c9 053c
00000320: 4049 ae3b 5862 cfba 220e d83a e3a5 bd3b
00000330: d1b8 013c b96b 3f3a 326f bc3b a741 8dba
00000340: f784 043b d39b 08bb 465a 083c 698f 02bc
00000350: 497c 5ebb 580c 23bc 3645 d3bb b7a1 f63a
00000360: ef4f fd3b 3eca a53b 7103 a8ba 6a4a dbbb
00000370: 6d8b 933b 2a85 44bb 033e 38bb 1813 24bc
00000380: a9f3 463a 22bc bfba a5cb 0bbc 012f 173b
00000390: b7ec 613a 30dd 1cbb f430 c2bb 8b4f 483c
000003a0: 354e 03ba 7a2a 2ebc 9c45 7dbb 6c9c 9d3b
000003b0: 33e5 7c3b 3d9e 653b 0ffb cc3b f4c0 0d3c
000003c0: 0e80 f73b f19b 913b a932 84ba 1b5e f63a
000003d0: e410 1b3c 315e de3b 6557 bdbb 7159 cc3b
000003e0: e5cc f939 b24f e8bb a941 eabb a43e ccba
000003f0: 06ab 57bc 1f34 dd3a fade 463b 4f80 3e3c

action_model._discrete_distribution.branches.0.bias f4 [2]
-0.0012324848 0.0012324847
00000000: 548b a1ba 538b a13a
