results/SelfPlay2/1v1/1v1-18931.onnx (onnx, 285586 bytes, 9 tensors)

network_body._body_endoder.seq_layers.0.weight f4 [256, 10]
000000 7f 01 fd be d6 fc 8a 3e 69 38 39 be df 28 ab 3e
       -0.49415204 0.27146024 -0.18087925 0.3342962
000010 16 9d f1 3d ac 3c 28 3f 71 23 bc be 7b 69 d8 b9
       0.1179754 0.6571758 -0.3674579 -0.0004127732
000020 4d 0a f3 3e 0f 69 4a 3e 0e 1b 35 be 69 70 ce be
       0.47468796 0.19766639 -0.17686102 -0.40320137
000030 36 13 c0 be a3 c7 9d be 6e 29 85 3e c5 71 e3 3d
       -0.37514657 -0.30816373 0.2600817 0.11105684
000040 6f 73 35 be bf 55 a1 3e 75 9e bf 3d f0 34 a6 3e
       -0.17719816 0.31510732 0.09356395 0.32462263
000050 c2 b9 15 bd e2 be ce 3e 7e 05 15 3e 62 b4 bc be
       -0.036554106 0.40380007 0.14552876 -0.3685637
000060 2c 7e ef be 45 f2 7a 3e 9e d0 bd be 91 e7 69 be
       -0.4677595 0.24506481 -0.37073225 -0.22842242
000070 5b 75 89 be ab ca f4 3e 7d 74 93 3e 7e f2 8b 3e
       -0.26847348 0.47810873 0.2879981 0.27333444
000080 d9 d4 a9 3e f9 b0 d1 be 14 dc 69 be f7 ee d5 be
       0.33170202 -0.40955332 -0.2283786 -0.41783878
000090 0a d3 1e 3e 89 0c 2e be 1b 65 63 bb ce 0b bc 3e
       0.15510193 -0.1699697 -0.0034697715 0.36727756
0000a0 41 c5 ed be 69 bf 17 3f 20 8a 23 3f 36 9c 93 be
       -0.46439555 0.59276444 0.6388264 -0.28830117
0000b0 c4 02 a6 3d cd 23 60 be 29 e4 b7 bd 12 b0 8d 3e
       0.08105996 -0.21888657 -0.08979065 0.27673393
0000c0 d6 46 39 be 2a 2c 7c 3e a0 26 c0 3e 58 e5 ec bc
       -0.18093428 0.24626222 0.3752947 -0.028917953
0000d0 9a a9 b5 3b 06 6a 39 3e 2c cf f7 bd f2 f5 b7 3e
       0.0055438997 0.18106851 -0.12100062 0.3592983
0000e0 ed 0c 85 bc 76 4b cb bd 73 ae b0 3e 54 6a 7a be
       -0.016241515 -0.099265024 0.34508094 -0.24454623
0000f0 8c 95 bc 3e a8 47 89 be 10 05 39 bf 05 f6 ff be
       0.36832845 -0.26812482 -0.7227335 -0.49992386
000100 ee 7d 2a 3e c9 8d 93 be c8 2d b1 be d5 12 16 be
       0.16649601 -0.2881911 -0.3460524 -0.14655621
000110 49 60 23 be a2 b1 85 be 8a 3e 92 3e 33 de 9c bd
       -0.15954699 -0.26112086 0.2856334 -0.07659569
000120 ac 5f f8 3e be 47 30 be 4c 6b 05 3d 01 a9 ee be
       0.48510492 -0.17214867 0.03257303 -0.46613315
000130 b0 5b 6c be 7b 1c f7 3e ed 49 77 be a1 7f 09 3f
       -0.23081851 0.48263916 -0.24149294 0.5371037
000140 82 75 4e 3d b2 26 bc 3e 2f 8b 5f 3e 21 aa 7a be
       0.050405033 0.36748272 0.21830438 -0.24478962
000150 62 22 20 bd dc 11 c6 be b8 c5 47 3e a3 dd e9 be
       -0.03909529 -0.386855 0.19509017 -0.45676908
000160 2a 49 cb 3e 1a 22 7e 3d ba b2 21 be 64 08 d4 be
       0.39704257 0.06204424 -0.15790835 -0.41412652
000170 44 b2 c8 3d 61 46 c7 3e 48 bd 05 3d 1e 79 ed be
       0.097996265 0.38920882 0.032651216 -0.46381468
000180 9d 6f 20 3b 1a 69 c3 bd 32 ee f3 3e a9 23 01 be
       0.002448059 -0.09541531 0.47642666 -0.1261126
000190 e0 35 c4 3e de 11 2a 3d 15 01 88 be 1e f3 cd 3e
       0.38322353 0.041520946 -0.26563326 0.40224546
0001a0 1c 03 c6 3e ee e9 85 be 09 38 5e 3e 2d 4a 91 bc
       0.38674247 -0.26155037 0.21701063 -0.017735565
0001b0 e9 38 00 be f5 c2 65 3e 7d 84 d1 3e b0 6b 9a be
       -0.1252171 0.22437651 0.40921393 -0.30160284
0001c0 ae ad b7 3e 75 8d 1d 3f 88 3f c6 3e 8a 0e 82 3c
       0.35874695 0.6154397 0.38720345 0.015876073
0001d0 f3 a5 a9 be db 60 00 be 90 e3 1f be ff cf e9 3d
       -0.33134422 -0.12536947 -0.15614152 0.11416625
0001e0 81 c1 d7 3d eb 4c f5 be b7 6b da 3d fb e2 7e 3c
       0.10534955 -0.47910246 0.10665076 0.015557046
0001f0 56 7c 13 3e 26 1e da 3e 98 2f 74 be 19 fe 91 3e
       0.14402899 0.42601126 -0.2384628 0.28514174
000200 0e 70 90 bd c7 d5 0c 3e 22 b6 92 be 0b aa e8 3e
       -0.07052623 0.13753425 -0.2865458 0.45442232
000210 0d 15 94 be b2 61 cd 3d 60 f4 c1 be d3 aa b6 3e
       -0.2892231 0.100283995 -0.37881756 0.35677204
000220 92 34 2e be e3 ef e9 bc 66 38 7e be 69 c1 9f 3d
       -0.17012241 -0.02855677 -0.24826202 0.07800562
000230 1d 2b 99 3e c2 d9 a3 3d 57 f7 9e be 1d 82 83 3e
       0.29915705 0.080005184 -0.3104808 0.25685206
000240 80 a9 df bd b5 79 96 be c1 60 91 bd fc 9f b0 be
       -0.109210014 -0.2938973 -0.070985325 -0.34497058
000250 12 55 a4 be e3 d3 4e be bc 41 23 be d2 97 ea 3d
       -0.32096153 -0.20198016 -0.15943044 0.11454739
000260 8b 4e 63 3e 5b 2e 26 be 32 27 61 3c f9 8d 19 3e
       0.2219793 -0.1622862 0.013742255 0.14995565
000270 6f 4e a4 be 24 b2 3a be af b4 ea 3c 34 a1 ad be
       -0.3209109 -0.18232018 0.02865061 -0.3391205
000280 19 88 07 be 80 9d f3 bd fa 10 f5 be 36 49 9b bd
       -0.13235511 -0.11895275 -0.47864515 -0.07582323
000290 ff b9 45 bd 51 24 fb 3b 7a af 9c 3e 5a dd ae be
       -0.048273083 0.0076642414 0.30602628 -0.34153253
0002a0 94 74 23 3e 53 af 1e 3f ce e6 e1 be 91 44 ff 3d
       0.1596244 0.61986274 -0.44121403 0.1246425
0002b0 12 ff b8 be bd e3 8a 3e 1f 37 39 3e ea ac 12 be
       -0.36132103 0.27126876 0.18087433 -0.14323774
0002c0 c9 ff d4 bc 8a f0 6d 3e d4 74 95 bd a1 2a 5c bc
       -0.026000874 0.2323629 -0.07297674 -0.013437898
0002d0 ab 45 2d be e8 ae 52 3e b4 36 6d 3f e5 ee d4 3c
       -0.16921107 0.20574534 0.92661595 0.02599282
0002e0 8d cf de be 12 98 bb be ff da a3 3e ca bf 58 3e
       -0.43517724 -0.36639458 0.32003018 0.21166912
0002f0 8c c1 96 be 3f 2e c6 be 47 15 d3 bd 57 15 2d bd
       -0.2944454 -0.38707158 -0.10306793 -0.04225668
000300 c8 28 bb 3e cd 90 ff be 69 4c 2f 3e e4 37 f7 3e
       0.3655455 -0.49915162 0.17118992 0.4828483
000310 74 87 9f be fa 15 e8 be 27 f4 0a 3f b0 00 15 be
       -0.3115803 -0.45329267 0.54278797 -0.14551044
000320 1c 20 ba 3e b0 3b 91 3e b3 45 45 be 36 b3 2c be
       0.36352623 0.2836585 -0.1926487 -0.16865239
000330 6e 96 82 3d 46 c6 39 be 08 36 1e bd 5d 59 12 3e
       0.063763484 -0.18142042 -0.038625747 0.14291902
000340 2b 38 50 3d 9a c5 f2 3d 82 1b b0 be bc bb 2d bf
       0.050834816 0.11854096 -0.34395987 -0.67864585
000350 20 71 70 be 9e c2 d3 3e e0 b4 db 3d c5 29 aa 3c
       -0.23480654 0.4135942 0.107278585 0.02077187
000360 38 77 c8 3b 7c 37 c9 3e 5e 1c 39 3e 3e 30 e3 3e
       0.0061177276 0.39300144 0.18077227 0.44372743
000370 c4 33 02 be ef f1 48 be cd 0f 73 3e a9 ca 1c be
       -0.1271506 -0.1962354 0.23736496 -0.15311684
000380 79 0d d1 be 18 0e 68 3d c8 d0 d5 bd 90 4b ef 3e
       -0.4083059 0.056654066 -0.104402125 0.46737337
000390 ac 39 14 3e 1f 2e 96 3e af 97 2f be 44 01 d3 bd
       0.14475125 0.29332063 -0.17147706 -0.10302976
0003a0 32 a5 05 3f 94 f8 58 3e d7 4d 12 3f db ee 47 3e
       0.52205193 0.21188575 0.57150024 0.1952471
0003b0 bc 66 2b 3e 3b 24 78 3b 88 ce 48 3e 69 e2 25 be
       0.16738409 0.0037863392 0.19610035 -0.1619965
0003c0 58 29 70 3e 9a a2 8c bc 60 4d 2e bd bf 80 91 3d
       0.23453271 -0.017167378 -0.04255426 0.071046345
0003d0 f4 90 51 3e 11 27 39 3e d8 26 c5 3d ad f7 b7 3e
       0.20465451 0.18081309 0.096265495 0.3593115
0003e0 e9 80 45 3e 28 8d 3e be 9c 64 4a bf 74 13 90 3c
       0.19287457 -0.18608534 -0.7905977 0.017587401
0003f0 1f 9b 01 3f b9 e6 26 3d 26 88 f8 bd 9a a3 46 3f
       0.5062732 0.040747378 -0.12135343 0.77593386

network_body._body_endoder.seq_layers.0.bias f4 [256]
000000 3a d4 15 35 4a 71 ba b8 cd 2b 0b b9 4e 3a fb 36
       5.5815656e-07 -8.890273e-05 -0.0001327239 7.4871705e-06
000010 7e 06 b0 38 ef 93 34 b7 40 84 22 38 74 8f a9 b8
       8.393543e-05 -1.07632795e-05 3.8746977e-05 -8.085268e-05
000020 e3 2f 16 39 85 84 21 b9 7f 9b 06 b9 5c 30 c5 b8
       0.00014322954 -0.00015403524 -0.00012837163 -9.4027e-05
000030 59 e8 80 b7 b6 a0 e0 b7 a2 8f 11 b8 b6 25 68 b8
       -1.5366984e-05 -2.6777718e-05 -3.4704462e-05 -5.534823e-05
000040 d2 34 b8 b8 e6 c0 e8 b8 5a a9 22 b9 b2 9b 4f 38
       -8.783642e-05 -0.00011098552 -0.00015512612 4.949765e-05
000050 66 6d 15 b9 86 bc 01 b7 8d 27 c9 38 5f e9 0b b9
       -0.00014250501 -7.732893e-06 9.591794e-05 -0.0001334301
000060 42 6c 8c 38 7c 08 0e b8 d8 89 56 b8 55 69 1d b9
       6.695885e-05 -3.386334e-05 -5.1149953e-05 -0.00015011926
000070 11 4e f3 b8 09 0d 5e 39 32 d1 38 38 70 18 b2 38
       -0.00011601684 0.00021176426 4.4063847e-05 8.492253e-05
000080 ee c3 08 b9 4a ff 00 38 30 52 39 b9 ad 17 05 b8
       -0.0001304296 3.0755335e-05 -0.00017673592 -3.173172e-05
000090 46 bd 34 b9 2e f6 19 b9 64 44 a2 38 37 db 11 b8
       -0.00017236648 -0.00014682926 7.737501e-05 -3.4774854e-05
0000a0 84 14 86 b9 b7 e3 17 39 3d 60 6c 39 bb 01 1e 39
       -0.00025573757 0.00014485313 0.00022542565 0.00015068699
0000b0 d1 a2 ea b8 07 d0 2d b9 3e 8e a0 b8 fe 33 1b 39
       -0.000111883164 -0.00016576062 -7.655889e-05 0.0001480132
0000c0 d6 68 0c 38 4c a5 c9 37 b9 cb 65 b8 c2 3e 99 b8
       3.3476237e-05 2.403804e-05 -5.4787586e-05 -7.307298e-05
0000d0 30 3c 94 38 db c1 b1 b8 2f b7 0c b9 81 f1 3d b9
       7.068401e-05 -8.476126e-05 -0.00013419682 -0.00018114412
0000e0 00 7b 29 39 f4 3c fb 38 e6 05 4f 38 0a d0 6b 39
       0.00016162917 0.00011979966 4.935814e-05 0.00022488847
0000f0 b8 9b 21 39 eb 30 dd b8 15 b0 1b b9 44 d3 21 b9
       0.00015412166 -0.00010547213 -0.00014847548 -0.00015432859
000100 0e cc ca 38 a2 49 30 b9 ec d2 52 38 fb 9a cc 38
       9.670119e-05 -0.00016812098 5.0264338e-05 9.7563454e-05
000110 58 47 f4 37 75 be 26 b9 2e 55 5e 38 cc b8 e2 b6
       2.9120289e-05 -0.00015901944 5.3008254e-05 -6.756838e-06
000120 da 7e eb b6 a0 72 2b 39 68 5b 76 39 c4 91 27 39
       -7.018313e-06 0.00016350532 0.0002349444 0.00015980663
000130 72 9f 87 39 bf 57 11 b9 cc 6f 37 b9 c3 d6 08 b9
       0.00025868003 -0.00013860966 -0.00017493888 -0.00013049976
000140 9e 60 79 b8 27 3a 90 b8 e0 23 3a 38 e7 5e c2 37
       -5.9456208e-05 -6.877287e-05 4.4379267e-05 2.3170795e-05
000150 7b 27 2f 39 ac 0b 3e 39 94 f6 43 b7 97 9f 9c b8
       0.00016704008 0.0001812416 -1.1680317e-05 -7.4683856e-05
000160 f5 3c 4c b8 91 7e f7 b8 ec c7 d6 38 46 3b cb 38
       -4.869416e-05 -0.00011801453 0.000102415535 9.690835e-05
000170 67 90 9c b7 d4 b4 19 37 f8 6d b6 b8 d1 dd 30 39
       -1.8663892e-05 9.161613e-06 -8.6989196e-05 0.00016867301
000180 ba 7d c3 b7 ae 47 8e b8 f8 2a 5c b9 d9 82 c4 38
       -2.3304357e-05 -6.784439e-05 -0.00020996842 9.3703806e-05
000190 4d 47 1e b8 3a 42 e2 b8 51 f9 31 38 e5 a5 bb b7
       -3.773654e-05 -0.000107888554 4.2432282e-05 -2.2369388e-05
0001a0 62 3a c9 38 19 1a 3c 39 2d ee b8 b8 a5 0a b0 38
       9.5953015e-05 0.000179388 -8.8181674e-05 8.394317e-05
0001b0 55 d8 de 38 0d 5c 2e 39 75 b0 9e b8 6d d3 a8 38
       0.0001062608 0.00016628225 -7.566895e-05 8.0502454e-05
0001c0 9b e3 ab b8 03 87 cc b8 ff 10 3d 38 3e d8 13 b9
       -8.19631e-05 -9.752626e-05 4.507694e-05 -0.00014099569
0001d0 fc 1e a2 38 21 5d f2 36 32 af 3c b9 b2 16 1c b9
       7.730533e-05 7.2230036e-06 -0.00017994342 -0.00014885774
0001e0 54 9b 99 38 cf 25 27 b8 c2 f2 7d 39 fc c5 e8 b8
       7.324541e-05 -3.9851115e-05 0.00024218395 -0.000110994995
0001f0 f6 8b e5 38 e1 c6 4f 39 ee c6 0e b9 37 84 89 38
       0.00010945641 0.00019815147 -0.00013616282 6.557296e-05
000200 59 45 d8 37 d5 06 7d 38 9a 75 76 b8 13 5d 3a b8
       2.5781499e-05 6.0326263e-05 -5.8760495e-05 -4.4432538e-05
000210 4e e3 4e 39 7d 89 c1 b8 60 f0 35 36 3d d2 e5 b8
       0.00019730369 -9.228566e-05 2.7111018e-06 -0.00010958731
000220 74 b3 b9 38 eb 7d 00 39 e6 18 e9 b8 69 b9 20 39
       8.854913e-05 0.0001225394 -0.000111149435 0.0001532786
000230 4b 74 34 39 29 91 69 b8 80 a4 48 b9 94 65 81 b8
       0.0001720946 -5.568672e-05 -0.00019134767 -6.17012e-05
000240 d7 5f 51 38 e4 93 ed 38 6e a9 2e 38 06 44 3d b9
       4.991874e-05 0.000113285874 4.1642626e-05 -0.00018049785
000250 2d bf 84 b8 da d4 24 39 a0 44 d9 38 33 76 04 39
       -6.32986e-05 0.00015719552 0.00010360149 0.00012632534
000260 a4 c7 0d b9 cc c0 23 b8 d4 14 1a 39 bb 95 f9 b8
       -0.0001352118 -3.9041784e-05 0.00014694344 -0.00011901135
000270 42 aa 4f 39 04 33 92 38 a2 21 6a b8 a3 63 9e 35
       0.00019804484 6.971325e-05 -5.582127e-05 1.1800915e-06
000280 08 04 f7 37 72 dc 25 b9 07 68 45 b9 ea be 3c 39
       2.9446572e-05 -0.00015817748 -0.00018826137 0.00018000198
000290 01 5b 3d 39 28 2e 1a b9 6c d4 f0 37 4e 10 c3 37
       0.00018058346 -0.00014703779 2.8709146e-05 2.3253404e-05
0002a0 f2 4e ee b8 b0 e3 9f b8 0e ad 4c 38 56 92 89 36
       -0.00011363429 -7.624121e-05 4.879856e-05 4.099954e-06
0002b0 3e 3e f1 b8 a7 92 b3 b8 6c 5d cd 38 1a 4d 17 b9
       -0.00011503369 -8.562701e-05 9.792563e-05 -0.00014429205
0002c0 04 34 97 b8 20 af 5b 39 a4 16 65 b9 5d 92 56 b8
       -7.20993e-05 0.00020950707 -0.00021847576 -5.1157887e-05
0002d0 ba a2 73 b8 61 47 21 38 c8 61 78 b7 a5 a6 78 b9
       -5.8087266e-05 3.8451868e-05 -1.4804718e-05 -0.00023713203
0002e0 13 09 06 b9 bd 03 f6 38 03 3e 0e b9 b7 d8 7e b8
       -0.00012782616 0.000117308904 -0.00013565276 -6.076015e-05
0002f0 59 89 15 39 c7 b5 2d b9 31 05 56 38 df 6c 6e b8
       0.00014260913 -0.00016566283 5.102641e-05 -5.6845016e-05
000300 51 ea 1f 39 24 52 0b b9 20 f5 5e 39 98 95 84 37
       0.00015250711 -0.00013286673 0.00021262886 1.5805286e-05
000310 08 2d 4d 38 53 40 c5 38 8d a6 97 b8 6e a3 6c 38
       4.8917747e-05 9.405673e-05 -7.2312636e-05 5.641899e-05
000320 ed 67 21 39 69 7a 92 b8 3e 31 7c b7 bd 37 41 39
       0.00015392872 -6.984623e-05 -1.5031836e-05 0.00018426678
000330 a4 ed 14 39 0e 8f 64 b7 06 29 17 b7 b9 b2 06 39
       0.00014202908 -1.36231665e-05 -9.009853e-06 0.00012845815
000340 ee ad b8 38 87 e8 e5 37 73 34 d5 38 e6 69 13 b9
       8.806201e-05 2.7407206e-05 0.00010166401 -0.00014058463
000350 61 40 d9 b7 22 83 b1 38 d5 46 11 b8 8e c9 44 b9
       -2.5898395e-05 8.464443e-05 -3.463666e-05 -0.00018767102
000360 c4 fa 14 b9 7d 4e cb b8 76 23 35 b9 0f dc d9 38
       -0.00014207797 -9.694414e-05 -0.00017274715 0.000103883554
000370 a9 10 0a b9 5a 76 a1 38 f4 f5 eb 38 13 8c 63 b9
       -0.00013166912 7.699123e-05 0.000112514856 -0.00021700589
000380 67 ae 29 39 1f 12 de 38 88 6b 38 b9 c2 2a c0 38
       0.00016182066 0.0001058916 -0.00017587666 9.163238e-05
000390 4e 73 31 39 e4 87 b2 b8 eb b7 46 b9 92 7c d4 38
       0.0001692299 -8.513013e-05 -0.00018951266 0.00010132151
0003a0 ce 32 c0 b8 a8 30 3c b8 51 97 26 38 a1 a5 0f b9
       -9.1647365e-05 -4.4868008e-05 3.971841e-05 -0.00013699244
0003b0 14 1c 6b 39 f0 37 17 b9 e3 2c 40 b9 64 47 f3 b8
       0.00022421806 -0.0001442132 -0.00018327268 -0.000116004405
0003c0 6b ce 68 b8 7e 83 fa 38 87 fd 59 39 a4 ba 0b b9
       -5.5505352e-05 0.00011945421 0.00020789179 -0.00013325602
0003d0 86 37 eb b7 fa 52 bc b8 38 72 1f 39 58 d0 c4 37
       -2.8040038e-05 -8.979994e-05 0.00015205971 2.3462038e-05
0003e0 2d bf 16 b9 70 34 4b 39 fd 1a 56 38 fc 83 04 b9
       -0.00014376333 0.00019379123 5.104671e-05 -0.00012637669
0003f0 57 35 82 b7 cd 9d 33 b8 64 4c bd b8 50 1c bd b7
       -1.5522046e-05 -4.282389e-05 -9.026451e-05 -2.254374e-05

network_body._body_endoder.seq_layers.2.weight f4 [256, 256]
000000 e0 bf 02 be e9 b8 f8 3c 92 f4 3e bb d7 d0 29 3e
       -0.12768507 0.03036161 -0.0029137474 0.16583572
000010 3c e8 01 3d 99 8e 2d bd 2a 6f 81 bc ce 2d 62 bc
       0.031715617 -0.04237232 -0.015800077 -0.013804866
000020 16 73 73 bb 68 91 c7 bd 35 67 06 be 13 fb 5b 3c
       -0.0037147454 -0.09744531 -0.13125308 0.01342656
000030 b0 9b 8a 3c 67 e9 3f bd 11 c5 67 bd 33 30 e4 bc
       0.01691994 -0.04685345 -0.05658442 -0.027855014
000040 70 84 35 3d c1 84 b0 3c 9c 23 d8 bc 23 bb 69 3d
       0.044315755 0.021547677 -0.026384167 0.057063233
000050 1e d8 a7 3c 61 31 40 3d 5c 5e f4 3c 41 b4 1b 3e
       0.020488795 0.04692209 0.02983015 0.1520548
000060 d7 0a 22 3b 21 41 91 3d f4 9b 07 3d c9 f0 a1 3d
       0.00247257 0.070925005 0.033107713 0.07907254
000070 be ff 0c 3d f1 db 53 bd 2f bf ec 3c fa 50 42 bd
       0.034423582 -0.051723424 0.028899757 -0.047440507
000080 45 b8 48 be ac d4 ee 3b 78 08 ae bc d1 1a 46 bb
       -0.19601543 0.007288536 -0.021244273 -0.0030228386
000090 91 46 ff bd 37 bf 0e 3c 13 bd 4f 3d 1f 82 89 3d
       -0.12464631 0.008712581 0.050717425 0.06714272
0000a0 7b f4 22 bd 87 5c a7 bd 05 10 a6 bc 8a 2a 5f 3d
       -0.039783936 -0.08171945 -0.02027131 0.054483928
0000b0 35 b8 cb bc e8 81 bc bd ae 7f fb bc 19 62 1c 3c
       -0.02486811 -0.09204465 -0.03070053 0.009544873
0000c0 75 73 28 be bb 0f 91 bb c6 4e 84 3d c1 b1 9c bb
       -0.16450293 -0.004426924 0.06460337 -0.004781932
0000d0 bd bc bc bd 1c 75 1c 3d 46 41 a5 bd cb 60 f6 bc
       -0.092156865 0.03819762 -0.080690905 -0.030075451
0000e0 84 3a 3f 3d 57 a7 cf 3b 55 a8 1f bd ab 6c 6d bd
       0.046686664 0.006337087 -0.038978893 -0.057964962
0000f0 7f f6 a1 bd 29 af d4 3d 98 5d 20 bc 2b 17 89 bd
       -0.079083435 0.10384972 -0.0097879395 -0.06693872
000100 6b 51 b8 bd b8 5d db bc 34 93 d2 bd 1b 01 03 bc
       -0.08999904 -0.026778087 -0.10281983 -0.007995869
000110 4e 09 58 bd 48 e5 25 bc 6e 86 d9 3d f0 82 d7 bd
       -0.05274325 -0.010125466 0.106213436 -0.10523021
000120 d0 22 4b bd 6a df 9b 3d f5 18 7c 3d b0 a0 5d bd
       -0.049593747 0.07610972 0.06154724 -0.05410832
000130 1d 6a 10 be a6 bc 3c bb 31 ad a3 b8 47 c5 8c bd
       -0.14102979 -0.0028798967 -7.804705e-05 -0.06873565
000140 b3 b0 85 bd 3c a6 8c 3d c5 26 2f 3d 67 94 e0 bd
       -0.06527843 0.06867644 0.042761583 -0.109658055
000150 92 30 b6 bd 31 05 c4 3c bf 71 56 3c b1 36 a8 3d
       -0.08895983 0.023928257 0.013088643 0.082135566
000160 75 36 47 bd 9d 3b ef bc 38 43 71 3a 0c 8a aa bd
       -0.04863592 -0.02920323 0.0009203437 -0.083271116
000170 cf ca 56 3d 4f 56 d4 3d 2f a2 95 bd e9 6c 0c bd
       0.052439507 0.103680246 -0.07306325 -0.034283552
000180 99 19 e2 3b 46 b0 13 bb 9b 27 c4 bd be 7f 63 bd
       0.006900024 -0.0022535487 -0.09577867 -0.055541746
000190 4d 59 25 3d ae 51 a5 bd cc a9 ad 3c 1a 3a 32 bd
       0.040368367 -0.0807222 0.02119913 -0.04351244
0001a0 09 0d c5 3c 0e 0f 84 3c ed 8f 1b bd 2c b3 e8 3c
       0.024054067 0.01612046 -0.037979055 0.028405748
0001b0 ac b3 cc 3c 79 8e 86 3d df b0 c5 3c 01 60 48 3d
       0.024988018 0.06570143 0.02413219 0.04891968
0001c0 c9 6a f0 3d 08 d1 c7 bc 1e 7c 28 3d c1 d6 de 3c
       0.11739118 -0.024391666 0.041133992 0.027202012
0001d0 c3 be 41 3e bb 9b 1c bd e6 7f 9d bd 21 9d c2 bc
       0.18920426 -0.038234454 -0.0769041 -0.023756566
0001e0 e3 b0 18 bd 05 3d af 3c b8 65 9a bc 8d ae e4 bd
       -0.037278067 0.021391401 -0.018847331 -0.111661054
0001f0 e6 03 f9 3c 87 e4 a5 bd a5 d0 7d 3d c7 ac 6d bd
       0.030397367 -0.08100229 0.061966557 -0.0580261
000200 08 fb e2 3d ee c2 a6 bb fe 93 31 bd 99 ed 81 3d
       0.11083037 -0.0050891554 -0.043354027 0.06344146
000210 f6 34 21 bd 37 28 e2 bb b0 3d 51 ba 6b 59 c2 bd
       -0.039357148 -0.0069017666 -0.00079819094 -0.094897114
000220 21 7b 22 bd 72 4f cd 3c a4 48 29 bd 12 ae ef bd
       -0.039668206 0.025062297 -0.04132904 -0.11703123
000230 56 95 01 3e 59 d3 98 3c 18 13 b5 3d 15 09 06 bc
       0.12654623 0.018655466 0.088415325 -0.008180876
000240 79 e3 82 3d 28 20 ad bc cd 63 95 bb 80 12 d3 bc
       0.06391043 -0.021133497 -0.0045590163 -0.025765657
000250 fc a9 be bd 53 16 46 bd b9 1d e2 3c e5 25 d3 bd
       -0.09309766 -0.048361134 0.027602063 -0.10309962
000260 d8 ed 1f be 8d b8 e2 3c 05 d5 8a 3c f0 1c 26 bb
       -0.15618074 0.027675891 0.016947279 -0.0025346838
000270 ea 7d eb bd d0 8a 8f 3c 4b 78 3b bd dd 0b 86 3c
       -0.114986256 0.017522246 -0.045769017 0.016363079
000280 47 17 dc bc b3 54 4c 3d bc 54 cd 3b 55 7e 10 3d
       -0.026866568 0.049885463 0.0062662046 0.03527673
000290 c0 c6 0c 3d 9f 0e a8 3a 5c 60 0c 3e 53 cc 39 bd
       0.03436923 0.001282174 0.13708633 -0.045360874
0002a0 60 1a f2 3c 58 77 42 3c d5 7d 50 3d 30 96 86 bd
       0.029553592 0.011869274 0.050901253 -0.06571615
0002b0 04 48 c5 3c 24 74 c6 3b 70 40 56 bc fb 3c d9 3b
       0.024082191 0.0060563255 -0.013076887 0.006629584
0002c0 4f d6 59 bc 5e f8 a0 bd 59 8d b2 bd 4e aa bb 3d
       -0.013295724 -0.07859872 -0.08718366 0.091633424
0002d0 30 b6 8e 3d eb c3 9d bd d3 a8 b3 bd 49 f7 b5 3c
       0.06968343 -0.07703384 -0.08772435 0.022212641
0002e0 2a bb 02 3d cc 9d 21 3c b7 1b 59 3b c1 59 ee 3c
       0.031916775 0.009864282 0.0033128092 0.029095532
0002f0 0c 0e 4a 3d e4 8e 24 bd 8d 37 86 3c 9c e6 8e bb
       0.049329802 -0.040175334 0.01638391 -0.004360987
000300 bd cb 12 3d 28 8c d5 bd 56 94 8c 3d 68 08 8c bc
       0.03583883 -0.10427123 0.0686423 -0.017093852
000310 80 40 da bd ab cb 0f 3d b3 5c b2 bc a6 58 b4 3d
       -0.10656834 0.035106342 -0.021772718 0.08805971
000320 4e 8b 11 bd 26 39 93 3d b0 51 c1 3d 97 f7 26 3d
       -0.035533242 0.071886346 0.09439409 0.040763464
000330 97 e0 d1 bc b5 52 92 bd a2 d9 6b bc 2f 46 84 3c
       -0.025619788 -0.07144681 -0.014395149 0.016146747
000340 31 b5 87 bd b9 01 38 3b b6 c0 63 bd 72 c1 51 3c
       -0.066263564 0.0028077199 -0.055603705 0.012802469
000350 c0 18 30 bc 86 24 63 bd 97 89 0d bd 8c be 9d 3c
       -0.010748088 -0.055454753 -0.034555044 0.019255899
000360 da cc 6e bc c1 4b 9e 3d b3 90 b8 bc 5e 68 c1 3c
       -0.014575208 0.07729293 -0.022529935 0.023609336
000370 22 89 a9 3d 5a 79 80 3d 70 6c 84 3c 58 14 90 bd
       0.08278109 0.06273146 0.016164988 -0.0703513
000380 54 56 b6 bc 20 8e bc bd 84 f9 7e 3d b6 7c 10 bd
       -0.022257961 -0.09206796 0.062249675 -0.035275184
000390 c7 72 6c 3d 08 ba d0 bc f4 75 f4 3d 40 61 2b 3a
       0.057726648 -0.025479332 0.1193656 0.00065376237
0003a0 af a4 a7 3d fd 52 26 3d d4 59 72 bc e1 e4 14 bd
       0.08185708 0.040606488 -0.0147919245 -0.03635109
0003b0 dd 76 56 bd c0 35 02 bd 54 ea c2 3d ea ce 61 3d
       -0.05235945 -0.03178954 0.09517351 0.05512897
0003c0 81 9b b6 bd a0 06 24 be 73 1f 6f bd 22 91 82 3c
       -0.08916379 -0.16018152 -0.0583796 0.015938345
0003d0 2b d8 00 bd d5 79 bc 3d 7e ec a5 bc 52 90 27 bd
       -0.031456154 0.09202925 -0.02025437 -0.04090912
0003e0 b4 60 6e 3d 9e cb 0b bd 46 1d b5 bd 80 c6 bc bd
       0.058197692 -0.03412973 -0.08843474 -0.09217548
0003f0 78 52 2b bd 84 ff 44 3d 62 e3 d1 3d 89 8c 04 bc
       -0.041826695 0.04809524 0.10248448 -0.008090147

network_body._body_endoder.seq_layers.2.bias f4 [256]
000000 fd 0f 2f 39 80 a9 6b 38 5a 03 e2 38 79 32 1f b9
       0.00016695257 5.6186225e-05 0.00010777144 -0.00015182224
000010 bb 5d 7e 38 a0 9f 7d 38 1f 3e 43 b9 24 9c 50 38
       6.0645612e-05 6.0468563e-05 -0.00018619791 4.973648e-05
000020 37 20 8f b8 a7 d2 fa 38 fe fe d9 b7 fc a7 1c b8
       -6.824772e-05 0.00011960166 -2.5987156e-05 -3.7349746e-05
000030 36 d5 13 39 90 ec e3 b8 0e 63 c1 38 13 22 50 37
       0.0001409844 -0.00010868267 9.2214075e-05 1.24057e-05
000040 2c 28 a3 b8 2a 32 12 39 d4 95 39 b9 5b bb 8a 37
       -7.779928e-05 0.00013942333 -0.0001769879 1.6538126e-05
000050 9a 52 26 b9 7d 86 18 38 8f e8 19 36 9e e1 27 39
       -0.00015861765 3.6364876e-05 2.2934144e-06 0.0001601041
000060 7f 42 2d 39 15 54 14 39 5a a4 95 b8 1a de 2f b8
       0.00016523337 0.00014145703 -7.1354865e-05 -4.19301e-05
000070 1e 9e b9 38 60 62 05 b9 8e 69 9d 38 41 39 68 39
       8.850939e-05 -0.00012720516 7.5060045e-05 0.00022146573
000080 04 1c 66 b9 03 28 21 b9 24 c0 61 37 53 fb dc b8
       -0.00021944946 -0.00015369062 1.3455781e-05 -0.0001053723
000090 f6 b9 40 b9 66 6f d8 38 e4 b3 d9 b8 2c 3c d1 b8
       -0.00018379823 0.00010320432 -0.000103808736 -9.9771045e-05
0000a0 b4 6f 5d 39 5a 2c 5b b5 e3 a3 2b b9 c5 3a 4b b9
       0.00021117815 -8.16484e-07 -0.00016368883 -0.00019381482
0000b0 5d 6c 78 b8 2e eb 12 38 2f f1 4a b8 c0 2f 99 38
       -5.922873e-05 3.502814e-05 -4.8385173e-05 7.304503e-05
0000c0 19 b7 0d 39 3a 8f 2c b9 a2 7f 0d 39 e2 3c 97 b8
       0.00013515017 -0.00016456554 0.00013494355 -7.2115814e-05
0000d0 31 65 41 b8 5f 5d 6c 38 7a e6 a1 38 77 06 db 37
       -4.6109028e-05 5.6353743e-05 7.720008e-05 2.6109845e-05
0000e0 50 8a 1d 39 27 44 13 39 0d 7f 2c 39 61 d0 83 b8
       0.00015024212 0.00014044401 0.00016450528 -6.2853804e-05
0000f0 57 59 a4 b8 06 d3 e6 b7 02 f9 b2 b8 46 88 9e b8
       -7.83677e-05 -2.7516402e-05 -8.534083e-05 -7.55941e-05
000100 dc 94 30 39 69 fc bd b7 be 62 37 b9 22 40 6d b7
       0.00016840122 -2.2648093e-05 -0.00017489024 -1.4141233e-05
000110 ce fb 8a b7 59 cb 9b 38 52 3d fb b8 73 a3 b8 b8
       -1.6568138e-05 7.4288524e-05 -0.000119800345 -8.8042485e-05
000120 f9 c6 20 39 10 a4 18 b8 3e 71 39 b9 a2 24 ed 38
       0.00015332912 -3.639242e-05 -0.00017685161 0.00011307864
000130 8a d5 1f 39 1a 18 50 b8 60 b3 66 39 be 3f 01 39
       0.00015242971 -4.961351e-05 0.00022001332 0.00012326144
000140 de 46 67 38 3f 1d c5 37 e7 0a 0c b9 21 52 22 b9
       5.5140692e-05 2.3497849e-05 -0.00013355502 -0.0001548012
000150 c6 3a 4a 39 ee 2f b7 b8 de b6 e1 38 b7 16 5c b8
       0.00019286116 -8.7350476e-05 0.00010762898 -5.2473242e-05
000160 fd 80 b0 38 a5 79 bf b8 00 e8 2d 38 ba 89 db b8
       8.41636e-05 -9.130248e-05 4.146248e-05 -0.00010468387
000170 2d 61 d1 38 00 5e ea 38 4f 1a ba 38 ae 16 44 b9
       9.983997e-05 0.000111754984 8.8740715e-05 -0.00018700465
000180 b3 24 0b 39 86 1b b9 38 da 7e 84 b8 5e 77 0c 39
       0.00013269745 8.826614e-05 -6.3178784e-05 0.00013395908
000190 02 f8 e2 38 d9 7d ca b8 17 e0 ae 37 1f 8e 9f 37
       0.00010822715 -9.6555515e-05 2.0846766e-05 1.9020457e-05
0001a0 f3 84 23 39 9d a7 15 b9 15 ec b0 b7 fc 99 05 b9
       0.00015594419 -0.00014272188 -2.109077e-05 -0.00012741232
0001b0 77 8a 07 39 c1 27 10 b9 e0 69 ef b8 a2 c9 25 38
       0.00012926185 -0.0001374772 -0.00011416129 3.952685e-05
0001c0 7d 86 3f 39 62 c5 45 b7 a6 54 14 b9 87 16 b9 38
       0.0001826528 -1.1788072e-05 -0.00014145914 8.8256835e-05
0001d0 82 8b 83 b7 9e 6c 16 39 01 60 6e 38 d3 9d 1e b9
       -1.568138e-05 0.00014345578 5.6833032e-05 -0.00015126848
0001e0 ee 3e 18 b9 4c 59 9b b8 7a 95 d6 b8 2a 74 27 b9
       -0.00014519293 -7.407609e-05 -0.000102321574 -0.00015969636
0001f0 45 3e 05 39 3d 0a 28 39 b4 d7 72 39 82 5f 70 38
       0.00012707066 0.00016025543 0.00023159274 5.7309408e-05
000200 83 71 40 39 5b 9e 07 39 0b ea e2 38 80 e7 e8 37
       0.00018352833 0.00012933595 0.00010820114 2.7764356e-05
000210 c1 4b 89 b8 f9 de 85 b9 ba 85 e0 38 fe e3 dd 37
       -6.546779e-05 -0.00025533864 0.00010706061 2.645142e-05
000220 37 d2 07 b9 e2 33 a5 34 85 82 3d b9 60 12 45 39
       -0.00012952914 3.0771395e-07 -0.00018073067 0.00018794229
000230 a8 fa 79 b8 51 e5 24 39 7d 62 60 b9 4f 99 00 39
       -5.9599668e-05 0.00015725686 -0.00021398994 0.00012264143
000240 b6 2c 1a b9 04 c9 d5 b8 30 06 0b 37 53 3f 38 b9
       -0.0001470324 -0.000101940735 8.286486e-06 -0.00017571198
000250 3a c4 39 b8 de 5b a1 38 e8 15 25 b9 d3 0f be b8
       -4.4290187e-05 7.69419e-05 -0.00015743787 -9.0628535e-05
000260 88 67 dd b8 6c 20 81 37 81 e1 af b8 ef 97 a8 b8
       -0.000105573854 1.5393096e-05 -8.386654e-05 -8.039164e-05
000270 2b 5e 0f b8 5d 22 16 b9 10 71 0b 39 59 23 51 b5
       -3.4181558e-05 -0.00014317916 0.00013298192 -7.7910005e-07
000280 b5 4b e7 38 58 cf 31 39 e0 f7 81 b9 c8 a9 2d 39
       0.0001102904 0.00016957277 -0.0002478948 0.00016561814
000290 2d e1 20 39 78 b7 4a b9 99 03 1f 38 7f c9 3a b9
       0.00015342674 -0.00019332569 3.7911905e-05 -0.00017813405
0002a0 10 16 4b b9 64 32 5d b9 94 9d 1b 39 d6 7a 2e 39
       -0.00019367808 -0.00021094974 0.00014840654 0.00016639693
0002b0 9e b3 29 b8 b1 fa 5e 38 8d c3 ca 38 1c ad 5f b8
       -4.046002e-05 5.31624e-05 9.668535e-05 -5.3328564e-05
0002c0 24 d3 20 39 ad 24 f2 38 01 5d 87 38 41 ef bc 38
       0.00015337445 0.000115462906 6.454625e-05 9.009103e-05
0002d0 8a ac ea b8 d9 eb 01 b9 28 be 56 39 7e 00 ff b8
       -0.000111901274 -0.00012390259 0.00020479469 -0.00012159439
0002e0 30 a5 53 39 7d ad cd 38 8c 42 f5 b8 12 04 53 b9
       0.00020184065 9.8074765e-05 -0.00011694906 -0.00020124044
0002f0 8b 11 1e b9 b0 c7 38 39 84 b3 1c 39 60 0d f9 37
       -0.0001507459 0.00017621997 0.00014944194 2.9689341e-05
000300 5f 7e 2e b9 ea ec cb b8 5a 9d 2e b9 8b a0 b3 b8
       -0.0001664101 -9.723923e-05 -0.00016652551 -8.5652886e-05
000310 12 4b 9d b8 b3 9f 9c 37 17 31 f9 38 09 8e 91 b8
       -7.500326e-05 1.8671015e-05 0.00011882389 -6.940595e-05
000320 7b bb 94 38 1c bb 1a b9 c1 b8 c9 37 c5 57 a0 b8
       7.092111e-05 -0.00014756288 2.40471e-05 -7.645743e-05
000330 02 0e 1f b9 39 d9 ed 38 7b 52 d6 b8 c8 76 7b 38
       -0.0001516864 0.000113415015 -0.000102196784 5.9953687e-05
000340 7c 7e 60 39 b9 45 fa 35 e4 03 d1 b5 1f 2c 4a 39
       0.00021409424 1.8646743e-06 -1.5572846e-06 0.00019280658
000350 fa 69 9f b8 bd 6c 12 b9 42 e4 21 39 99 95 9c b8
       -7.6014505e-05 -0.00013964153 0.00015439189 -7.4665244e-05
000360 a1 91 b1 38 c8 76 78 b7 6f 87 1e b9 44 d5 17 39
       8.467143e-05 -1.4809608e-05 -0.00015118507 0.0001447993
000370 b3 38 c4 38 d1 e9 61 b8 a5 7c 54 38 b0 5b 2d 38
       9.356569e-05 -5.386194e-05 5.0660823e-05 4.1331805e-05
000380 b2 0f 0e 39 2e ff 7d b8 fd 2a 3f 39 75 cf 13 39
       0.00013548022 -6.0557555e-05 0.00018231194 0.00014096296
000390 29 27 0c b9 e0 a0 0f b9 9a 7e 35 b8 cc 03 fe b8
       -0.00013366029 -0.00013697473 -4.327167e-05 -0.00012112371
0003a0 f6 0a 08 b9 d1 44 9a 38 85 5b 33 37 a0 6d ac 38
       -0.00012974054 7.35611e-05 1.069054e-05 8.2220184e-05
0003b0 d3 b4 67 b9 41 11 4b 38 6d 74 b1 38 91 e6 f0 38
       -0.00022097239 4.841504e-05 8.461704e-05 0.00011487038
0003c0 4b 92 b0 b8 84 17 2c b9 1c ce 5f b8 b5 6a bd b8
       -8.419583e-05 -0.00016411958 -5.3359297e-05 -9.032098e-05
0003d0 93 25 a4 38 3a a3 00 b8 fc e4 55 39 7e aa c1 b8
       7.827128e-05 -3.0669595e-05 0.00020398566 -9.234714e-05
0003e0 31 1b 02 b9 0b 9a 28 b7 f3 a3 fa b8 a0 4c 05 b9
       -0.00012407896 -1.0049446e-05 -0.00011951467 -0.00012712413
0003f0 a1 4d 55 b9 d9 e9 84 37 94 73 bb 38 5b 53 59 39
       -0.00020342182 1.584452e-05 8.938383e-05 0.00020725785

action_model._continuous_distribution.log_sigma f4 [1, 2]
000000 75 c5 97 b8 93 b5 05 b8
       -7.23702e-05 -3.1878775e-05

action_model._continuous_distribution.mu.weight f4 [2, 256]
000000 70 87 00 3c cd 54 0e bc 10 27 fa 3c 61 42 68 3c
       0.007844791 -0.00868721 0.030536205 0.014175982
000010 f4 18 6d bb d8 c1 45 3c 3e 61 2d 3c dc ad 88 bc
       -0.0036178203 0.012070142 0.010582266 -0.016684465
000020 1d 56 9c 39 3c fd 8b bb 63 ed 0e 3c dc ab 77 3c
       0.00029818798 -0.0042721312 0.00872359 0.015116658
000030 97 be 09 bc e3 9d 72 bc 26 9c cc 3b 5e a4 87 ba
       -0.008407257 -0.014808151 0.0062442003 -0.0010348668
000040 56 bf 19 bc ec 05 9d bc 4b b7 4b 3b 13 ed ac 3b
       -0.009383997 -0.019167863 0.0031084593 0.005277285
000050 27 89 6e 3c 52 21 28 bb 46 0d d7 bb 2d 39 1b bc
       0.014559067 -0.0025654626 -0.0065628616 -0.009474081
000060 2e 7d 0d bd 6a 90 22 bc 27 40 0f 3c ce cf 03 3c
       -0.03454321 -0.009922126 0.008743322 0.00804515
000070 f2 a6 d8 bc b9 bc d2 bb 86 49 14 bc 71 d8 79 bc
       -0.026446793 -0.006431189 -0.0090507325 -0.015249358
000080 5e c0 94 3b 7b 08 1c ba 5d f1 90 bb ec 7c dd 3b
       0.0045395335 -0.00059521914 -0.004423304 0.0067592766
000090 4a f8 03 bc ec cd c6 bb c4 24 c9 3a 84 91 5d 3b
       -0.008054802 -0.0060670283 0.001534604 0.0033808658
0000a0 b3 20 99 bb 83 0d c2 3c cc 02 46 3c 6d 6b d8 bb
       -0.0046730875 0.023688084 0.012085628 -0.006604603
0000b0 6d 9e ef 3b ec bc e5 bb 91 5d be 3b b8 5c ea bc
       0.007312587 -0.0070110466 0.005809494 -0.028608665
0000c0 45 47 a5 bb 84 93 61 ba 10 0c 84 bc 45 78 02 3d
       -0.0050438964 -0.00086050504 -0.016119033 0.03185298
0000d0 c6 4d 95 3c dc 00 0d 3c 6f 58 f7 3b 69 45 81 bc
       0.018225562 0.008606162 0.007548384 -0.015780168
0000e0 b6 35 d1 bc 7a 94 00 bc b4 9d 1b bc d4 a9 b6 3c
       -0.025538307 -0.0078479 -0.009498049 0.022297777
0000f0 d9 a3 24 ba 8a ed f4 3b 57 b8 ad 3c 40 e3 c8 bc
       -0.0006280519 0.007474606 0.021206064 -0.024522424
000100 cf 48 a1 bb 49 2c b1 3c b4 50 79 3b ad d4 24 bc
       -0.0049220095 0.021627562 0.0038042488 -0.0100604715
000110 26 75 9d bc f6 56 f8 bb a8 24 e0 3c 7d fe 58 3c
       -0.0192209 -0.007578726 0.027361229 0.0132442685
000120 c3 36 83 bc 6b 87 86 3b c9 d3 82 3b e6 c7 f3 bb
       -0.016017323 0.0041054985 0.003992532 -0.0074396012
000130 c0 67 ba bc 40 bb 00 bc 3e 27 06 bb 6e 90 60 3b
       -0.02275455 -0.007857144 -0.0020470168 0.0034265774
000140 9a df 03 3a f7 34 92 3b 5c 7a 14 3c 80 a6 73 3c
       0.00050305726 0.0044618803 0.009062376 0.01487124
000150 f5 28 bd 3c 74 54 4d bc a4 e0 05 3c 37 ec 8e 3c
       0.023090819 -0.012532342 0.008171234 0.01744662
000160 e5 fe 16 bc ab 2b 8b 3c b2 3b f2 bb 1a 87 40 3c
       -0.009216045 0.016988596 -0.00739237 0.011750961
000170 58 0b 55 bc 28 bf a9 bc c0 ef 9d bc e8 22 03 3c
       -0.013003193 -0.020721033 -0.01927936 0.008003928
000180 d4 14 e2 bc d1 e8 2e 3a 5a 97 47 3b fb a2 dc bb
       -0.027597822 0.00066722656 0.0030455203 -0.006733296
000190 b7 01 7b bc ca 3f 6c bc b6 af 0e bb 02 4d 2f bc
       -0.015320233 -0.014419505 -0.0021772212 -0.010699512
0001a0 62 12 fc bb 69 c5 b7 3c 27 32 c4 bc 2c c2 9c 3c
       -0.007692621 0.022433 -0.023949696 0.019135557
0001b0 72 34 d6 bb 31 86 8e bc 7a bf 53 bb 87 3c 14 bc
       -0.0065370137 -0.017397972 -0.0032310174 -0.009047634
0001c0 61 48 9e bb ba 77 74 bc d8 60 0a 3c 68 7e e1 bc
       -0.0048304056 -0.014921123 0.008445941 -0.027526096
0001d0 c6 b9 92 3c 0e f4 d4 3b 4a 7a a7 bc cf 48 f1 3b
       0.01791085 0.00649882 -0.020444054 0.007363416
0001e0 e0 3e 67 3c f7 1f 63 3c ab 97 8e 3c fb cd 88 3c
       0.014114112 0.0138626015 0.017406305 0.016699782
0001f0 55 6b 20 bb 5a e9 9c bc 40 2a 08 bc b1 45 69 3b
       -0.0024478037 -0.01915424 -0.008310854 0.0035594518
000200 63 e5 2a bb 0a ab 15 3c f6 a2 b1 bb e3 a9 a4 bb
       -0.0026076667 0.009135017 -0.005421038 -0.005025135
000210 12 5d 01 3c 16 af 92 3c ea f0 69 bc 66 bc 12 bc
       0.007895725 0.017905753 -0.01427863 -0.0089560505
000220 c9 ca 1d 3c 3a 59 66 3c 2c 8b db ba 33 5b a5 bb
       0.009630867 0.014059359 -0.001674985 -0.005046272
000230 bf 91 4f ba e4 4c 33 3c 9c bd 61 bb 65 47 00 3b
       -0.0007918141 0.010943625 -0.0034445291 0.0019573804
000240 61 b3 83 3b d7 82 1e 3c 06 91 dd bc dd fe be 3a
       0.0040191864 0.009674749 -0.027046692 0.0014571805
000250 79 6f d6 3c 86 c3 76 3c 92 30 6c 3c bf f5 03 3c
       0.026176201 0.015061265 0.014415877 0.008054196
000260 a5 56 85 3b 80 8a 2a bc 3a 6e 80 bc 09 29 f0 3b
       0.0040691667 -0.010408998 -0.01567756 0.0073291105
000270 d9 ef c0 3b 8f d3 bc 3a 10 78 70 bc 03 a3 b6 3b
       0.005887967 0.0014406311 -0.014677063 0.0055736317
000280 13 35 b1 3c 4e dd 08 3c c8 51 39 3c cd f0 08 3b
       0.021631753 0.008353544 0.011311002 0.0020895482
000290 72 78 74 3b 54 4c 02 3c 8d 25 16 b9 af f5 ac ba
       0.0037303236 0.007952768 -0.00014319104 -0.0013195778
0002a0 ec cc af bb d3 fc 49 3c 33 ef 40 bc 8f 93 c3 bb
       -0.0053650048 0.012328344 -0.01177578 -0.005968518
0002b0 8d 35 67 bb 3c aa 99 3b d6 1e 59 3c 4b 46 8c bb
       -0.0035279721 0.004689483 0.013251981 -0.0042808405
0002c0 8d 0b 3a bc 77 e0 12 3c 6e 63 e9 bb d0 62 9a bc
       -0.011355293 0.008964649 -0.0071224486 -0.018845946
0002d0 c4 a3 f6 bb 76 2e 2d 3c d1 31 e5 3b a1 1d 84 3c
       -0.0075268466 0.010570159 0.006994464 0.01612741
0002e0 5b 13 aa bb fb de 26 3b a1 76 6a ba 54 89 2b bc
       -0.0051902956 0.0025462497 -0.00089440687 -0.010469753
0002f0 a6 71 20 bb a4 a8 ad 3a 80 da ee bc 1c 7a 70 3c
       -0.0024481802 0.0013249111 -0.029156923 0.014677551
000300 a6 fa e8 3b 76 b6 01 3c 85 83 f0 3b 65 ea 93 3c
       0.0071099577 0.007917037 0.007339897 0.018056104
000310 97 65 2b 3c 96 25 2c bc 7b 08 63 3a 79 2e 71 3b
       0.010461233 -0.010507008 0.00086606265 0.0036801382
000320 38 15 fa bb 5e 05 03 3c 5a 84 7e bc 2a 7b 5a 3c
       -0.007631924 0.007996885 -0.015534485 0.013335029
000330 7d 39 5e 3b 63 2e 15 bc 2b 3d d4 3c 39 a7 10 bc
       0.0033908777 -0.009105298 0.025908073 -0.0088289315
000340 03 fb 43 bc ff 72 b0 bb fe d9 f9 3a 73 a9 bb bb
       -0.011961701 -0.0053848024 0.0019062159 -0.005726987
000350 95 fd 24 3b bc 9c 16 3c 6e 2d e5 bb 47 08 18 3a
       0.002517556 0.009192642 -0.006993941 0.0005799573
000360 02 f0 17 bc 1e 0b 0e 3b de e1 75 bc 57 92 01 bb
       -0.009273531 0.0021674107 -0.015007464 -0.0019771063
000370 4c 08 bc bc 61 ca 02 3c 77 6a d5 bb f3 c5 3d bc
       -0.022953175 0.007982821 -0.0065129357 -0.011582839
000380 bd 58 38 bc 19 7c a5 3b 3f 87 37 bc 54 f1 27 bc
       -0.011251626 0.005050194 -0.011201679 -0.010250408
000390 19 e2 54 3c 2c 2c 03 bd 21 6a 1b 3c 6e cc 84 3c
       0.012993359 -0.032024547 0.009485752 0.01621076
0003a0 34 a3 38 3b 72 a2 a6 bb ae 2e f2 3a 44 d6 db 3b
       0.0028173449 -0.005085283 0.0018477046 0.006708892
0003b0 f0 22 0f 3c b3 ea a5 bb 55 b2 25 3c fc 95 97 bb
       0.008736357 -0.0050633787 0.010113318 -0.004626034
0003c0 45 a9 0d 3a d4 6d e3 b9 5c 15 b7 3c 1f 23 df 3b
       0.0005403946 -0.00043378642 0.022349052 0.0068096067
0003d0 ff da df ba 61 8e 16 3d 88 2b dd bb 49 16 7e 3b
       -0.0017078816 0.036756877 -0.006749574 0.0038770607
0003e0 32 d0 5f 3c b0 30 c6 3b 55 dd 3c 3c df dc 46 3b
       0.0136604775 0.0060482845 0.011527379 0.0030344052
0003f0 65 41 9d ba 7a 86 b4 bc 4f 59 34 bb 31 34 19 bc
       -0.0011997639 -0.02203678 -0.0027519052 -0.009350822

action_model._continuous_distribution.mu.bias f4 [2]
000000 37 13 f8 b8 58 16 15 b9
       -0.000118291406 -0.00014218071

action_model._discrete_distribution.branches.0.weight f4 [2, 256]
000000 a3 72 5e bc 6f 17 21 bc 39 92 85 ba d6 06 86 ba
       -0.013577136 -0.009832247 -0.0010190672 -0.0010225426
000010 cd ed 28 3a 52 7d c4 39 d5 18 d6 3b 9c 70 13 3c
       0.00064441265 0.00037477404 0.006533722 0.008999016
000020 71 d6 9f 3b 61 76 b6 3b bd fd c7 bb d0 ce 10 bc
       0.0048778583 0.005568311 -0.006103246 -0.00883837
000030 18 a4 84 bc 28 41 d5 3b ba 51 81 bb 21 fb 13 bc
       -0.016191527 0.0065080114 -0.00394651 -0.009032042
000040 5c b4 47 3b f0 e4 02 3a 20 1c 01 3b 4d cd 21 bc
       0.0030472493 0.0004993221 0.0019700602 -0.009875608
000050 c3 a0 a1 39 e2 1a 61 3b 61 60 6c bb bb eb e6 3a
       0.0003082809 0.0034348299 -0.0036068188 0.001761786
000060 af 51 46 3a a0 04 f8 3a 9a 2d 9c 3b 42 4c d5 3b
       0.00075652724 0.0018922277 0.0047661783 0.006509335
000070 23 cf 08 bb 4a 2c e4 3b e4 34 cc 3b c6 30 48 bc
       -0.0020875416 0.0069632875 0.006231891 -0.01221866
000080 a2 b0 53 ba e4 14 28 3b 52 f7 a5 3a 8a da ed 3b
       -0.00080753316 0.0025647217 0.0012662208 0.007258718
000090 69 35 0c 3b 8d 3e 4f 3a c1 34 f1 3b 9c 10 6d 3b
       0.002139414 0.0007905744 0.007361025 0.003617323
0000a0 4e a5 de ba 81 68 01 3b 0f c4 a3 3b 94 c2 f1 ba
       -0.001698652 0.0019746127 0.0049977372 -0.001844483
0000b0 69 9f fb bb f2 bc 42 3c 32 42 4f bc c6 43 10 bb
       -0.0076789153 0.011885868 -0.01265006 -0.0022013052
0000c0 cb 4b dc 3a 0f d8 b1 3a 37 f7 40 ba 2c 79 22 bc
       0.0016807256 0.0013568419 -0.00073610566 -0.009916585
0000d0 31 25 c5 ba a7 07 72 bb 64 42 e2 bb c9 6d cc bb
       -0.0015040991 -0.003693083 -0.006904887 -0.0062386733
0000e0 96 44 43 3b 55 47 18 bc a6 11 22 3b bc b4 46 3b
       0.002979552 -0.009294351 0.0024729758 0.0030320128
0000f0 5f ba 8c 3a 0e 51 eb bb 7b 8a f6 3b ad 37 b6 3b
       0.0010736695 -0.0071812933 0.0075238324 0.0055608363
000100 da da 34 bb 62 10 85 bb 3f d4 30 3c f2 de e8 3b
       -0.0027596266 -0.004060791 0.010792791 0.0071066553
000110 7f ca 19 bc e7 5e 25 3b 4d c2 a8 bb 94 de 37 3b
       -0.009386658 0.0025233568 -0.0051501156 0.002805625
000120 ce 2a d8 ba f5 c1 a0 ba c5 e5 2f bb 3f 78 c1 3b
       -0.0016492249 -0.0012264835 -0.0026839834 0.005904227
000130 68 d3 b5 bb 30 70 7d 3a fb fd 12 3c 52 48 8b 39
       -0.005548883 0.00096679013 0.0089716865 0.0002656603
000140 96 d9 7d bb 86 50 09 3c 5f 8d 68 39 f9 1c d3 3a
       -0.0038734428 0.008381015 0.00022177909 0.0016106657
000150 68 e3 c6 3b 64 ec 03 bc 40 3b aa 3b 01 42 aa 3a
       0.0060695894 -0.008051965 0.0051950514 0.0012989641
000160 0b 31 fc 3b 05 0a 2b bc 27 cb 22 3c 31 68 ae 3b
       0.007696276 -0.010439401 0.009936131 0.005322479
000170 f6 96 87 3b 94 35 d1 3b 90 00 d8 bb 18 4d 49 bb
       0.004137869 0.006384561 -0.006591864 -0.0030716117
000180 0e 52 6d bb 34 ba 98 ba 72 88 f3 3b a3 17 b4 ba
       -0.0036212238 -0.0011652173 0.007432037 -0.0013739954
000190 80 b7 81 ba 7c 6a 2c bc 36 7d 0f bc d9 ec 1f 3b
       -0.0009896606 -0.010523435 -0.00875788 0.0024402647
0001a0 df c9 ab bb 03 d1 97 3c bc 66 cd bb f4 a8 27 bb
       -0.005242571 0.018532282 -0.0062683504 -0.0025582882
0001b0 7c 6e 97 bb c1 9e 1b 3c 4c 42 01 3b 84 dc b1 ba
       -0.004621325 0.009498299 0.0019723354 -0.0013569747
0001c0 97 ad 02 3c 3a 1f eb ba 2a 18 7c bb 2e 02 b5 3b
       0.007975957 -0.0017938383 -0.0038466551 0.0055239415
0001d0 0d 0b eb bb 3c de 7c bb f9 94 2f bc d3 e2 05 3c
       -0.007172948 -0.003858461 -0.01071667 0.008171755
0001e0 59 fa d7 3b 40 d4 82 3a f7 7c d3 38 2c f5 37 bc
       0.006591123 0.0009981468 0.000100845406 -0.011227887
0001f0 99 27 c5 38 14 64 8b bb 42 2b 62 3b ad d8 87 ba
       9.401068e-05 -0.0042538736 0.0034510647 -0.0010364257
000200 2d cf 28 3c aa cb fe ba 3f a5 34 3b 85 3a 22 3c
       0.010303301 -0.0019439359 0.0027564315 0.009901647
000210 c0 ae 18 3c 21 f8 25 3a 4e 9e 69 bb d9 3b f0 3b
       0.009319007 0.00063312246 -0.0035647335 0.007331353
000220 6c 94 f8 3b 26 c6 23 bb 54 a6 27 ba 26 96 f9 3a
       0.0075860526 -0.0024989932 -0.0006395329 0.001904194
000230 62 e3 39 3c 43 f7 48 39 84 ae 80 ba d3 48 0d bc
       0.011345716 0.00019165598 -0.0009817635 -0.00862332
000240 09 12 45 3c bb bb 02 bc f3 bd 8d bb 92 c6 4c 3a
       0.012028226 -0.007979329 -0.004325622 0.00078115717
000250 42 74 2d ba 9b 34 f5 3b d7 5b 9a 3b 43 79 db 3b
       -0.000661675 0.0074830777 0.004710655 0.006697805
000260 af 89 40 38 25 03 d3 ba a6 69 74 3b ef 3a 30 bb
       4.5904595e-05 -0.001609896 0.0037294417 -0.0026890596
000270 a5 c8 fe 3b 9b 24 0a bb 8b 0e d6 bb 3d c4 21 3c
       0.0077753835 -0.0021078947 -0.0065324954 0.009873447
000280 1f c4 e4 3b af 2c 23 38 cd e2 bd ba 27 1b b8 ba
       0.0069813873 3.8903843e-05 -0.0014487148 -0.0014046178
000290 54 e1 c6 3b f8 76 8c 3b e3 d0 e7 3b e0 33 12 3c
       0.0060693417 0.004286643 0.007074462 0.008923501
0002a0 85 f0 0c 3b 53 16 74 bb ca 3c a0 bb f2 2c 2a bb
       0.0021505665 -0.0037244752 -0.004890059 -0.002596673
0002b0 53 e0 b2 ba 1f 83 83 bb f5 19 61 bc ff 7b 0a 3c
       -0.0013647176 -0.0040134336 -0.013739099 0.008452415
0002c0 f7 79 ba 3a ed 86 e1 bb 47 56 96 3b b4 4b 57 3b
       0.0014227022 -0.0068825395 0.004587922 0.003285152
0002d0 22 b8 f5 ba 73 b1 0b 3b f4 eb 0c bb e0 24 cc ba
       -0.0018746892 0.0021315485 -0.0021502944 -0.0015574954
0002e0 a4 82 f2 39 fa 4c 88 3b 93 48 27 bc ae e6 27 bb
       0.00046255172 0.004159567 -0.010210174 -0.0025619674
0002f0 93 c7 cb b8 73 b1 f8 38 9a b3 86 b9 12 5b ac 3b
       -9.716968e-05 0.00011858614 -0.00025692285 0.00525988
000300 65 02 33 3b 52 59 e3 3b 81 e7 33 3b 13 38 05 bc
       0.002731466 0.006938138 0.002745122 -0.008131045
000310 57 aa d9 3b 58 5e 0d bc 0a 3f 2d bb 2e d4 9b 3a
       0.0066426205 -0.00862845 -0.002643528 0.0011888796
000320 b8 0b 01 3b 4b 72 54 3c b5 39 52 3b c3 92 82 ba
       0.0019690823 0.012966703 0.0032077853 -0.0009961951
000330 f3 4b e2 3b 57 16 a5 bb c4 48 34 bc 8a 4b 14 ba
       0.0069060265 -0.0050380635 -0.011003677 -0.0005657008
000340 5d 79 d3 bb 45 0e bf 3b 82 d7 7e bc b0 d0 93 3b
       -0.0064536766 0.0058305585 -0.015554311 0.0045109615
000350 10 dd 85 bb f3 f5 bc bb 68 9e 09 bc 3c fb a0 3b
       -0.0040851906 -0.005766624 -0.008399583 0.004912762
000360 63 41 4a 3b 0d 43 6f 3c f6 11 4c 3b ad 33 e0 bb
       0.0030861727 0.0146033885 0.0031138635 -0.0068420977
000370 64 21 f9 3b ab 3c 64 bb b0 fb 7d ba 2e d2 87 bb
       0.0076028574 -0.00348262 -0.00096886884 -0.0041449284
000380 94 e9 38 3b 65 b1 30 bc d1 e0 55 bb d5 ab af bb
       0.0028215395 -0.010784482 -0.0032635222 -0.00536106
000390 5b 33 50 3c e7 28 0c 3b 60 96 41 3c 08 ed 88 3a
       0.012707557 0.0021386684 0.011815637 0.0010446617
0003a0 f8 9d 0f bc a4 c6 f5 39 bb 23 d9 ba d9 3c 93 bb
       -0.00876569 0.0004687804 -0.0016566435 -0.0044933376
0003b0 99 e3 08 3c 56 22 c4 3b 74 c5 95 3b 6f 2c 11 bc
       0.008355045 0.0059855385 0.0045706574 -0.008860691
0003c0 10 bf 02 ba aa 64 8a bb 61 e0 69 b9 10 db c2 3b
       -0.0004987577 -0.004223426 -0.00022304199 0.0059465244
0003d0 30 50 e8 ba 01 6a bf 3a d9 5c a6 bb 30 b2 d9 ba
       -0.0017724093 0.0014603735 -0.0050769863 -0.001660889
0003e0 6b 51 ce b9 cd 05 34 3b 05 ad 09 b9 98 15 13 3c
       -0.00039352043 0.0027469278 -0.00013129793 0.008977316
0003f0 9a fd 17 3c 33 12 dc bb 80 aa 3a 3a 72 96 c1 3a
       0.009276772 -0.0067160367 0.00071207434 0.0014769568

action_model._discrete_distribution.branches.0.bias f4 [2]
000000 68 88 a0 b8 69 88 a0 38
       -7.654802e-05 7.654803e-05
