results/RandomTest4/MoveToGoal/MoveToGoal-499967.pt (torch, 442259 bytes, 42 tensors)

network_body._body_endoder.seq_layers.0.weight f4 [128, 4]
00000000: 5013 753e fc22 cd3e ca6b 82bf af24 5fbf
00000010: dbb7 84be 078f 44be 60c8 5fbd 56b1 4a3f
00000020: fe5e b33e 11e3 09bf 5949 2cbe 5dab 0ebd
00000030: a642 043f 7618 2a3f 9c19 06bf 2c5a f4be
00000040: bae0 b53e 6268 36bf e8e2 ca3d 1dd2 40bf
00000050: 4aae b5be c086 c6be b489 5c3f 52d2 b9be
00000060: ae59 f93e 2a07 4cbe 95b2 d2be 66c8 00bf
00000070: eb47 9a3e b68e 283e 9e11 253f f4ba f03e
00000080: a89a 1cbf 9df4 1ebf 6595 15bf aaba 9f3f
00000090: 125e 07bf 8276 dfbe 3fc0 14bf 8a52 fbbe
000000a0: 2b22 82be c2c6 e8be 086b 6cbf 8b14 edbc
000000b0: f6f2 563f 7447 11bf b06c d9be 03b0 3f3e
000000c0: 6205 9f3e 97fb b9be 2f13 e0be 6297 c2be
000000d0: 2775 d3be e1bd fa3e 0df7 22bf 4cbd 2e3f
000000e0: b149 79bf a2e0 913d 6bae 6d3e 9d92 0dbe
000000f0: 8a37 6c3d 7947 1f3f cccf 543e cbd0 113f
00000100: 5a42 23bf 67e7 ffbe 2372 483c 942a b23e
00000110: 27ef 743e 799f 053f a430 833e d6b3 e53e
00000120: 8eb3 033f 6bc0 dbbe 40e3 75bf b454 42be
00000130: b279 37bd e863 863e 46c1 d5be 0abc 8dbe
00000140: 9871 243e 6d86 6cbe 4aa2 9f3e 25a3 b83d
00000150: 8f14 41be ad75 5dbe 0777 073e 1ba9 d53d
00000160: 0203 003e 10b6 a53b 8296 7e3e 4ace 0fbf
00000170: dba0 7dbc ae6c 47b9 35d0 a03e 8e52 a23e
00000180: 29bb 0c3e 2aa7 f0be bb08 8a3e 526e e9be
00000190: 8742 c0bc 19b0 0ebf c517 fdbe 547c d1be
000001a0: 3fcd 373f 491b 7cbf 8f84 633e ba2a 2f3f
000001b0: 1aa2 be3e 9b30 633e dcd3 833f 2dfb 133f
000001c0: 9fe3 fa3e 9334 5d3e 83cd 9b3d 0268 4c3e
000001d0: 837b 983e e4ab 98be 811e a7be 8835 013e
000001e0: 8253 bc3c e426 76bf 6aac 02bf 77f5 f0be
000001f0: 3985 53bf a37d 61bf b163 c0be 3284 df3d
00000200: fc4a e0bd 05e2 34be a59f c1be cca2 8c3e
00000210: b537 13be e50d 213f 7e6d e43d 1dd8 993e
00000220: 32d0 05bf 3839 80bf 0f15 32be a39c b23d
00000230: 6dc0 5abf 497e fc3d dac4 ca3e 1fcf 97be
00000240: c2e4 043d 7cf7 76bf 6227 dc3e 8b39 3fbf
00000250: 6924 e8be 0160 883e 73fd 3e3e eb6f c03e
00000260: ae99 afbe 5f49 843f 8bd4 1abf 24e1 833d
00000270: 361a 43be e746 aabe 9a45 3b3f 9847 e23e
00000280: fcf6 b1bf 53ed 933e 4eaa 183e f1ac 82bf
00000290: 494b 513e 7e11 7cbd 74f6 5e3e 3588 3cbf
000002a0: dd93 583f 5f06 bebe bb18 c73e c72c 48be
000002b0: 7b4a 8f3b 8f50 60be 1668 f2be c00f cb3c
000002c0: 478e c73d 0215 793e fc1e f8be 3099 42be
000002d0: 7a33 48bf ce73 223f 7005 923e faf5 f93e
000002e0: d1bd 59bf dcf4 e03e fd25 153f 7301 3dbf
000002f0: c953 1c3e 58b3 b03c 48d9 603d 106d e9be
00000300: 3da6 823e 6596 a6be ca37 293e 200a 55be
00000310: ddde 45bd 5581 39bf e464 b7be 756c 9ebc
00000320: b128 7d3e 5238 cbbc 5c44 a53e 3b0f 87bd
00000330: df4c 87be 0cb8 b13e 398f 603e 7c45 d03e
00000340: 175f b4be c3ae 2cbf 8819 8cbe fd1a 29bd
00000350: fb23 bc3d 5aae f5be e1e5 283e 9097 fd3e
00000360: dd52 35bf 0852 143f f5c7 8a3e 441c 113e
00000370: 2340 203f ea6a 873f d3dc abbe b6fb 213f
00000380: 7ebf 8cbe dd92 73bd 6c25 613e 23c6 e4be
00000390: 2300 56be 06d3 eebc dc3c 363e 5404 863e
000003a0: d77c f63e 501f 543f ba52 91be 05e0 113f
000003b0: 232d 89be 43fc fa3e e67c e53e 4dd6 9bbe
000003c0: 823e 2dbe b3ba 0f3f 66d0 4cbe c459 a13d
000003d0: be89 09bf 7b69 3fbf caae 473e f914 1b3f
000003e0: 3d1e cc3e 85c2 7e3e 0f66 97be c909 babc
000003f0: fd6c 2c3f 9111 15bf 057b cc3c a488 75be
0.23933148 0.40065753 -1.0189145 -0.8716535 -0.2592152 -0.19195186 -0.054634452 0.79176843
0.3503341 -0.538621 -0.16824855 -0.034831394 0.516642 0.66443574 -0.52382827 -0.47725046
0.35523015 -0.71253026 0.0990656 -0.7532061 -0.35484535 -0.3877468 0.8614762 -0.36293274
0.48701233 -0.19924608 -0.41151872 -0.50305784 0.30132994 0.1646069 0.64480007 0.47017634
-0.61173487 -0.62092 -0.5843108 1.247884 -0.52877915 -0.43645102 -0.58105844 -0.4908641
-0.25416693 -0.4546414 -0.92350817 -0.02894046 0.8396448 -0.56749654 -0.42465734 0.18719487
0.31058794 -0.3632476 -0.43764636 -0.3800612 -0.41300318 0.4897299 -0.6365822 0.68257594
-0.9737807 0.071229234 0.23211066 -0.1382546 0.057670154 0.62218434 0.20782393 0.5695922
-0.6377312 -0.49981233 0.012234244 0.3479811 0.23919354 0.5219646 0.25623047 0.44863766
0.51445854 -0.4292024 -0.9604988 -0.18977624 -0.044793792 0.26248097 -0.41749018 -0.27682525
0.16058958 -0.23098154 0.31178504 0.09015492 -0.18855499 -0.21626921 0.13228999 0.10432645
0.12501147 0.005057104 0.24862102 -0.5617415 -0.015480245 -0.00019018605 0.3140885 0.3170361
0.13743271 -0.47002536 0.26959786 -0.4559198 -0.023469223 -0.55737454 -0.49432197 -0.40915167
0.71797556 -0.98479134 0.22218536 0.6842457 0.3723305 0.2218651 1.0299029 0.5780514
0.49001786 0.21602087 0.076075576 0.19961551 0.29781732 -0.29818642 -0.3264046 0.12618077
0.022989038 -0.9615309 -0.51044333 -0.47062275 -0.82625157 -0.8808233 -0.37576059 0.10913886
-0.10951802 -0.17664345 -0.37817112 0.27467954 -0.1437672 0.62911826 0.111536965 0.30047694
-0.52270806 -1.0017462 -0.17390846 0.08721282 -0.8544987 0.123287745 0.3960331 -0.29650208
0.032444723 -0.9647138 0.42998797 -0.7469718 -0.4534028 0.26635745 0.1865137 0.37585387
-0.34296936 1.0334891 -0.60480565 0.064394265 -0.19052967 -0.3325722 0.7315308 0.44195247
-1.3903499 0.28892002 0.14908716 -1.0209028 0.20438875 -0.06154012 0.21773702 -0.73645335
0.8460062 -0.37114236 0.38886055 -0.19548331 0.0043728924 -0.2190573 -0.47345036 0.024787784
0.09743934 0.2432442 -0.4846114 -0.19003749 -0.78203547 0.63457954 0.28519773 0.48820478
-0.8505526 0.43936813 0.5826109 -0.73830336 0.15266337 0.021569893 0.054894716 -0.4559102
0.25517455 -0.32536617 0.16525188 -0.20804644 -0.048308242 -0.7246297 -0.3581916 -0.019338826
0.24722554 -0.024807129 0.32278717 -0.06594702 -0.26425835 0.3471073 0.21929635 0.40678012
-0.35228798 -0.67454165 -0.2736323 -0.041285504 0.0918655 -0.47984582 0.16493942 0.49529696
-0.70829564 0.5793767 0.2710568 0.14170939 0.62597865 1.0579503 -0.33566913 0.63274705
-0.27489847 -0.05946623 0.21986932 -0.44682416 -0.2089849 -0.029153358 0.17796654 0.26175177
0.4814212 0.8286028 -0.28383428 0.5698245 -0.2679225 0.49020585 0.44821852 -0.30436936
-0.16918376 0.56144255 -0.20001373 0.078784496 -0.537258 -0.74770325 0.1950027 0.60578877
0.3986682 0.24878891 -0.29570052 -0.022709744 0.673538 -0.5822993 0.024961004 -0.23977906

network_body._body_endoder.seq_layers.0.bias f4 [128]
00000000: e6bb 373d a341 98bc 8e25 7a3b 1c7f cc3c
00000010: cfd2 d3ba cb16 e4bc bb55 3cbd 1cd9 4cba
00000020: a5b2 00bc e2fb 08bd ccd3 30bd 4cb7 c4bb
00000030: 0d7e fbbc 8d71 62bd 6846 013d 0a54 033d
00000040: f216 2dba 6c25 d9bc 606b e43c 18a1 863c
00000050: 7b13 5bbd 59f5 b3bc d0dd 693d 2b85 bdbc
00000060: 9846 12bc 86ff 65bc 35f1 763c 93d6 23bd
00000070: e063 ab3c a99f 043d de72 ccbc 1c82 6fbd
00000080: ccf1 76bc b671 43bc 5931 53bc 9c5d 6b3c
00000090: d52f 3abd 4c12 863c e799 99bb 69d2 f43c
000000a0: 7e72 483b 1c55 04bd 9891 eabc 1f58 4bbd
000000b0: c65c 573d 6815 9e3c 6865 b83d a797 e8bc
000000c0: 6a2a c3bc 5a70 7f3c d3d6 313c 9850 76bd
000000d0: 1bcb 6cbd c71f 303d eedd 033d 68b0 e7bb
000000e0: 3413 0c3d 8c83 03bd 97a6 9cbc e742 c43d
000000f0: 3ab9 21bc 3f88 903c f44d 153c a3f4 5dbd
00000100: ef2b 683c 3cbf 343d 7522 0e3d 1fb1 ffbc
00000110: 4b54 a9bc 0508 38ba 7d3a b33b a443 423d
00000120: bd30 803a f6e1 f8bc c031 91bc a0d2 c13b
00000130: 2cfa 8d3c 207a 16bd 1eb2 5f3c c63f 753a
00000140: d0e1 c3bc a3d3 a03b d8ff 0e3c a997 edbc
00000150: 6d74 4e3c b0e1 603c 6e93 97bc 1715 793c
00000160: 771c a53c 8613 5f3c 372f 333c 8332 84ba
00000170: 7233 b8bc 5180 45bc 2053 ee3b d08a 4b3c
00000180: 4248 cdbb fa84 703d 2acb 7d3d 247d 0fba
00000190: 74ce 0b3d 6664 6bbb b7d3 b0bc baf9 d73b
000001a0: 7989 633d 4bcd 283b 45b5 673d 04f8 57bb
000001b0: 9a72 9d3c 71c4 dabb a383 57bd ace0 f93c
000001c0: 2b4c 89bd 623c 23bc 0249 a5ba af9c 67bd
000001d0: 28fa 11bc 0345 9b3d c100 9c3c 785a 8cbc
000001e0: a966 debc 3776 60bc beeb 093d 41de 0dbc
000001f0: 1ff8 2abd 3387 033d fb63 c1bc c9b4 cbbb
0.04485693 -0.018585986 0.0038169357 0.024962954 -0.0016160848 -0.0278429 -0.045980196 -0.0007814334
-0.007855092 -0.03344334 -0.043170735 -0.006003296 -0.030699754 -0.05528407 0.031561285 0.032062568
-0.00066028454 -0.026507102 0.027883232 0.016434237 -0.053485375 -0.021967577 0.057096303 -0.023134788
-0.008927964 -0.014037972 0.015072157 -0.039999556 0.020921648 0.032378826 -0.024957117 -0.05847369
-0.015072297 -0.011928966 -0.012890183 0.01436558 -0.045455772 0.016366147 -0.004687536 0.029885488
0.003058582 -0.03230773 -0.028633878 -0.049644586 0.05257871 0.019297317 0.09003717 -0.028392626
-0.023823936 0.015590752 0.010854441 -0.060135454 -0.057810884 0.042999055 0.03219407 -0.00707059
0.034198 -0.032107875 -0.019122405 0.09583073 -0.009870822 0.017643092 0.009112824 -0.054188382
0.014170631 0.044127688 0.03470083 -0.031212388 -0.020670077 -0.0007020238 0.005469619 0.04742779
0.000978015 -0.030381184 -0.017723918 0.005915001 0.017331205 -0.03673756 0.013653306 0.0009355511
-0.023911387 0.0049080416 0.00872799 -0.029002981 0.012601 0.013725683 -0.018502917 0.015202782
0.020155175 0.013615495 0.01093655 -0.0010085854 -0.022485469 -0.012054519 0.007273093 0.012423232
-0.0062647173 0.058720566 0.06196133 -0.00054736645 0.034132436 -0.0035917996 -0.021585329 0.006591049
0.055551026 0.002575713 0.056569356 -0.0032954225 0.019219685 -0.0066762497 -0.052615773 0.03050264
-0.06703981 -0.009963127 -0.0012610259 -0.05654591 -0.00890974 0.07581522 0.019043328 -0.017132983
-0.027148562 -0.01370006 0.033672087 -0.0086589465 -0.041740533 0.032111358 -0.023607245 -0.0062166196

network_body._body_endoder.seq_layers.2.weight f4 [128, 128]
00000000: 66b2 21bd 2ec9 ddbd cf28 53bd 4244 ea3d
00000010: 7447 f5bd faa0 ab3d a579 163d e172 6fbc
00000020: e073 9fbb b853 433c 76fe 3cbd 0e81 72bd
00000030: b187 b13c 15fe c83d 1535 35bd 80e3 133e
00000040: 8b10 05bb 636e b9bd ceed 7bbd b1a9 383e
00000050: 986a 273d 34b7 c23d 3e2e 6cbe 9d79 ffbc
00000060: 0330 11bc 8cdc 2ebe 923b 753d 9d6b 08bd
00000070: dfe6 9e3d f1d8 d83c 3dea f0bc 6915 1ebd
00000080: 3e2c 083e b6ca 3abd a089 7bbd f029 0dbd
00000090: f35f 543e e38c 06bd 7d35 203d 6494 413d
000000a0: eff3 5dbc 3d45 a63d f036 bfbd ddbe 323c
000000b0: d854 503d b934 3dbd a682 5ebd 42d6 cdbd
000000c0: 7f26 243d 3f5f 3dbe 5ca4 4b3d 9a9f c63d
000000d0: 8aa8 df3c 4bd6 95bd 62d5 27bd 1b5a 373e
000000e0: 8fd1 0fbb 636c 4bbd 9507 c4bb 207b 54bc
000000f0: e578 9cbb ca8a 5f3c ec34 9e3c ae61 4dbd
00000100: d97a 28bd 22f4 1b3e a9ad adbd b25a 6cbb
00000110: 7031 083d 68bd c73c 9b59 56be 557e 29bd
00000120: 165e 983d 1d5b 4e3d b5ea 0a3d 7dac 073d
00000130: 93c5 a6bd 88fe 8dbd 8991 eb3c 0aff 773d
00000140: 98ac 14bd 6c5c d4bd c7eb 4abc 0e40 993c
00000150: 6e9e 2a3e 40db 16bd d821 2a3e 1cac d83d
00000160: 4ed4 14bd 774b 633e 6f6b b5bc ca31 4d3c
00000170: 882e 25be 4a56 e3bc f398 debd 926f 8d3d
00000180: aebc b6bc b725 c2bb b5b0 c43d 5f8d 9b3d
00000190: 43f2 16bd 0d88 10bd 90e9 8fbd 3186 b0bd
000001a0: a1f0 243d ead3 10bd 292b d6bc 7e9b a8bc
000001b0: 6be9 5fbe 3438 9a3b baf3 27bd 03ae b13a
000001c0: 49fa 0cbd 2f15 15bd d1cc 3c3d 853e 14be
000001d0: 4a12 163e dd91 0fbd 5d2c 5abd b9cb fdbc
000001e0: 679b 11bd b69f 31bd 866f 9ab9 1618 9bbd
000001f0: 252d 71bd 62f7 88bc 44f1 8fbd 6cf9 05bd
00000200: cddc 5abe 0a3b 713d 8eff 673d 2592 773d
00000210: 7ef2 813c 84b7 d9bc b08b f3bd fb54 6fbc
00000220: 9361 00be d148 d9bc 2679 6cbd 4562 13bd
00000230: d716 62bd 9304 28be 1fb3 643e 4ee5 b3bd
00000240: 121f bd3d e163 04bd 19d1 0f3e 383a cf3d
00000250: d023 bcbd 4512 d13d 8656 9bbd 168d b33c
00000260: 5264 98bc 81b6 0fbe da1c 6abd 93c1 e53c
00000270: cdc1 943d fe88 ac3d fc27 103e ba46 8f3d
00000280: 8c9f fd3d 2b05 0dbd 6880 923d 5d6a 293e
00000290: 1664 963d 6dec a13c 08fa 163b 0944 18bd
000002a0: 8ac1 7fbd 3551 19bd 3c44 81bc 149f 403d
000002b0: 1c18 86bd 7039 a43d e651 3dbd 7dd7 f3bd
000002c0: 8078 43be e9bd cbbd 15f6 b3bd beee 2cbe
000002d0: d345 a93d 4748 433e d1db 35be f945 7ebd
000002e0: b0c4 4dbc 5953 153e 6116 903e 90b2 d2bc
000002f0: 2ff4 8ebd 4e24 083d 57ac d6bd 1e9f 16be
00000300: 5ad3 d8bd 6701 463e 4abd 673d ea0c 643d
00000310: a676 92bd fbfd 3abd 4511 2cbe 6e39 74bd
00000320: 8242 f93d 2367 93bd 9cf2 1e3d 4511 103e
00000330: 375e 8e3e 3e18 923c ab71 ffbd 3df0 c83d
00000340: 68fc 4dbd d5f9 f63d 7e03 34bd aef3 d1bd
00000350: 00a6 bdbd 3dad 2dbe 5e20 11bd 2f75 8fbd
00000360: dceb e93d 923c da3d 389c 793d 7203 b2bc
00000370: 5af0 ea3d 40d8 3e3d 4ec3 323d cda3 90bd
00000380: fd69 dabc a36a a2bd 12c5 003e 86d2 cd3c
00000390: 9f49 05be aa9f b4bd fadc acbd 3600 953d
000003a0: 3ef8 c4bd efb8 ac3c 84e4 49bd 06e9 8a3d
000003b0: 28cb 883d 4ed2 2fbe 4d40 953e ca1b 053e
000003c0: f2d4 a4bd 4e16 3bbd 81ab ef3d 0572 ab3c
000003d0: 5656 82bd 6eb0 1abe d7e4 ba3d ebc4 c03d
000003e0: 00ee 86bd c487 f4bd 65c6 1a3e cf81 aabd
000003f0: 3150 f339 8661 8a3d 51d8 08be e161 d33c
-0.039476775 -0.108293876 -0.05155259 0.114388004 -0.11976519 0.08380313 0.036737103 -0.014614792
-0.0048661083 0.011921816 -0.04614111 -0.059205107 0.021671148 0.09814087 -0.044240076 0.14442253
-0.002030405 -0.09054258 -0.061506085 0.18033482 0.04087314 0.095075995 -0.23064515 -0.03118592
-0.008861545 -0.1707632 0.059871264 -0.033305753 0.07758879 0.026470633 -0.029408569 -0.038594637
0.13298127 -0.045603476 -0.061410546 -0.034463823 0.20739727 -0.032849204 0.03911351 0.047260657
-0.013546928 0.08118675 -0.0933665 0.010909763 0.050862163 -0.04619286 -0.054323815 -0.10050632
0.040075775 -0.18493365 0.049717292 0.0969841 0.027302045 -0.07316264 -0.040974982 0.17905466
-0.0021944975 -0.049663913 -0.005982349 -0.012968808 -0.004775154 0.01364393 0.019312344 -0.050141983
-0.04113278 0.15229848 -0.08480389 -0.00360648 0.033250272 0.024382308 -0.2093262 -0.041380245
0.074398205 0.05037986 0.03391524 0.033123482 -0.08143153 -0.069333136 0.02875592 0.06054596
-0.03629741 -0.103691906 -0.012385315 0.018707301 0.16661999 -0.036830187 0.16614473 0.10579702
-0.036335282 0.22196756 -0.022145955 0.012524078 -0.16131032 -0.027751107 -0.108690165 0.06906046
-0.022306766 -0.005924906 0.09604017 0.07595324 -0.036852133 -0.035285998 -0.070269704 -0.08619345
0.040268544 -0.035358347 -0.026143627 -0.020581957 -0.21866386 0.004706407 -0.04100392 0.0013555888
-0.034418378 -0.036397155 0.046093766 -0.14476974 0.14655414 -0.035051215 -0.053264964 -0.030980932
-0.035548594 -0.043365203 -0.0002945626 -0.075729534 -0.058880944 -0.016719524 -0.0702844 -0.03270857
-0.21373291 0.058894195 0.0566402 0.06044211 0.0158627 -0.026576765 -0.11891878 -0.014607663
-0.12537222 -0.02652398 -0.057732724 -0.03598239 -0.055197563 -0.16407995 0.22333954 -0.08783971
0.09234442 -0.032321814 0.14044608 0.10118526 -0.09186518 0.10208563 -0.075848624 0.021917861
-0.018602524 -0.14034463 -0.05715642 0.028046405 0.07263527 0.08424567 0.14077753 0.06995912
0.12383947 -0.034428757 0.07153398 0.1654448 0.07343309 0.019766057 0.0023037214 -0.03717426
-0.062440433 -0.03743096 -0.015779607 0.04702671 -0.06547567 0.08018768 -0.046220683 -0.119063355
-0.19088936 -0.09948332 -0.08787171 -0.16887948 0.08265271 0.1907054 -0.17759635 -0.06207845
-0.012559101 0.14582576 0.28142074 -0.02571991 -0.06980168 0.033237748 -0.1048209 -0.14709136
-0.10587187 0.19336472 0.056577004 0.05567638 -0.07151537 -0.04565237 -0.16803463 -0.05962508
0.121708885 -0.07197406 0.03880559 0.14069088 0.27806255 0.017833825 -0.12472852 0.09811447
-0.05028954 0.120593704 -0.043948643 -0.10251556 -0.092601776 -0.16960616 -0.03543126 -0.07004773
0.1142194 0.10656084 0.060939997 -0.021730158 0.11471625 0.04659295 0.04364329 -0.070624925
-0.026661867 -0.079304956 0.12575176 0.0251248 -0.13016365 -0.08819516 -0.084405854 0.07275431
-0.09617661 0.021084277 -0.049290195 0.06782727 0.06679374 -0.17170069 0.2915062 0.12998882
-0.080484286 -0.04567557 0.11702634 0.020928392 -0.063641235 -0.15106365 0.09125679 0.09412559
-0.06588364 -0.11939958 0.15114744 -0.0832554 0.0004640832 0.06756882 -0.13363768 0.025803508

network_body._body_endoder.seq_layers.2.bias f4 [128]
00000000: 592e 66bc e602 9cbc 69fe 503d cb4f c73c
00000010: 5729 843c 374c d9bb 5a4a 423c 6ea4 b6ba
00000020: 2513 92bc bced 203d 074f 1c3c 1a16 6dbc
00000030: 6c45 1b3c 8a47 db3c 78cb 8e3c dd5b cf3b
00000040: 2a84 1abc 8e45 d93b 3d80 0bbd ed34 68bc
00000050: 4c42 ac3b b64c 47bc 1b8e f5bb 141c b8bb
00000060: f658 bc3b d8a2 8dbb 8224 953c 986e 0abc
00000070: 9685 aabc cd34 8c3c 9906 dfba 8b46 2b3d
00000080: 4a22 cb3c dc4a debc 24b3 16bb e7c3 5dbc
00000090: 025e fdba 070f 823b 1e5a 21bd 913e 4f3c
000000a0: a53d 9fbb 7665 0cbd d841 d03c fa98 57bc
000000b0: f657 cebc e112 4f3d 15a1 b73c d5a0 8abc
000000c0: 66dd 493d ede0 5abb 5866 8f3c b5a1 b5bb
000000d0: 4f0f 9bbb 425e 09bc b950 3cb8 357c 12bd
000000e0: dd63 a2ba 0785 2b3b a112 963c 272f 97bc
000000f0: d3cb 0e3d 5fde 4cbc c042 123c bb4e 813a
00000100: 8561 32bc ba43 7c3c 6841 32bd 8c81 803c
00000110: 5ed0 a3bc f497 82bc c1d3 d1bc f257 39bc
00000120: f057 c73b d034 5a3c 6d19 9f3c eb5b 293d
00000130: b602 b73c 3ee9 dfba 08c5 c33c febd 44bc
00000140: 1b17 353c a6ac 33ba d9ea 11bc bd68 813d
00000150: 503f 693d e509 0f3d c01a a1bc 313d ec3c
00000160: 221e d4bc 4688 113b 5102 0dbb 026a 033c
00000170: 1daa 7e3b ad96 ff3b 00f2 183d ec6f 66bd
00000180: 0547 21bc f3c2 c5bc 53b1 1fbd 2d47 ca3b
00000190: 77db 50bb 387d c13c 508e 843c 5ea2 903c
000001a0: 81bd 553a 2ffd 453c 027a ae3c a32c f6bc
000001b0: e7fe 8a3c d587 1a3a d0a6 403d 33a8 3e3d
000001c0: 7c59 243d 8224 c23a 232b 8bba c3ae 643b
000001d0: 2d0e debc 6022 91bc c592 eb3b 3afd ad3c
000001e0: e529 12bc 5bcb 743c 903e 1cbc 4926 2ebc
000001f0: ed45 06bb 5217 dfbb 332b 54bd 6828 663b
-0.014049136 -0.01904435 0.051023874 0.02433004 0.016132994 -0.0066314 0.011858547 -0.0013934502
-0.017831394 0.03928922 0.009540326 -0.014470601 0.009477001 0.02676751 0.017431006 0.0063280896
-0.009430924 0.006630606 -0.034057844 -0.014172775 0.0052569266 -0.012164285 -0.007493747 -0.0056185815
0.0057479097 -0.004322391 0.018205885 -0.008449219 -0.020815652 0.017115021 -0.0017015516 0.041815322
0.024796624 -0.027135305 -0.002299496 -0.013535476 -0.0019330385 0.0039690766 -0.039392583 0.012649194
-0.0048596435 -0.03427645 0.025422022 -0.013159031 -0.025188427 0.050555114 0.022415677 -0.016922394
0.049283408 -0.0033398226 0.017504856 -0.0055429586 -0.0047320495 -0.008384289 -4.489787e-05 -0.035762984
-0.0012389381 0.002617182 0.01831943 -0.018455101 0.03486235 -0.012504189 0.008927047 0.0009865382
-0.010887508 0.015397007 -0.043519408 0.015686773 -0.019996818 -0.015941598 -0.025613667 -0.011312472
0.006083481 0.013318256 0.019421304 0.041347425 0.02234016 -0.0017083061 0.023897663 -0.012008188
0.011052872 -0.0006854035 -0.00890609 0.06318805 0.056945145 0.034921546 -0.019666076 0.028837772
-0.025893275 0.002220647 -0.0021516273 0.00802088 0.003885872 0.0077999444 0.037340164 -0.05625908
-0.0098435925 -0.02414081 -0.03898747 0.0061730356 -0.0031869092 0.02361928 0.016181141 0.017655548
0.00081535435 0.012084289 0.021298412 -0.030050581 0.01696725 0.00058948743 0.047034085 0.046547126
0.0401244 0.0014811906 -0.0010617714 0.0034894205 -0.027106369 -0.017716587 0.007189127 0.021238912
-0.008921121 0.014941062 -0.0095364 -0.010629245 -0.0020488456 -0.0068082 -0.05179901 0.00351193

action_model._continuous_distribution.log_sigma f4 [1, 2]
00000000: f726 ab3d 2198 133d
0.08357041 0.036033753

action_model._continuous_distribution.mu.weight f4 [2, 128]
00000000: 744c 92bc 8045 04bd 0f3b c1bd e415 46bd
00000010: a4f9 263c d998 9f3c 96d9 83bd 1429 57bd
00000020: b6fc 913c 8908 23bd b51e 893c f796 923b
00000030: 7cc3 ddbc e0b4 8a3b 72c3 6abd 01d8 013c
00000040: 2cf7 7abd 9ac7 5d3c ba35 c8bc 272b b83c
00000050: f112 033d 2a5d f6bc a0d1 abbb c9a8 203d
00000060: 75c0 ddbc 1d4d a5bc 008b bfbb 8930 a5bc
00000070: 5253 6a3c 6669 3dbd 533e 32bc cf1b 223d
00000080: 5a8f 69bd bdd5 e1bc 426d 2fbc 88c7 933c
00000090: d8cf 0d3d ee3f 813d 0c32 c4bc 28be e63b
000000a0: 0c81 eebc 919c 98bb e42e b93c 9f27 7bbc
000000b0: 5394 c9bb 6111 eebb 04d7 283c 3222 1a3d
000000c0: 1a3c a1bd af41 e4bc d27f a13c 2f83 ebbc
000000d0: ddb6 83bc dd0a fabc 613f 363d c991 563b
000000e0: 0865 91bc 0e55 c93c 55fc 6f3d 1299 5fbc
000000f0: e1a5 10bd 4d86 0dbc 6b88 64bc b4ab 1abd
00000100: 92e8 ccbc c53e 3cbd 10cd ba3b 0244 133d
00000110: 7cea f03a caa2 f93b 04f1 21bc ec35 2dba
00000120: 1135 5b3b 9f76 0939 2c1f f0bc 1689 24bd
00000130: fdf1 0e3d ff6c e3bc e463 103d 9fc0 673b
00000140: 8d68 2fbc e320 29bd d29c f03b 80c9 a93c
00000150: 8c4a 9d3d 814e 2cbd 4d44 833b 02af ac3d
00000160: a409 90bc db24 90bc 76ad c3bc 49c3 3cbd
00000170: 7450 0cbd 8854 293d 38fa 33bd c2ce aebc
00000180: bd9e 873c 029a 0f3c ff9e 56bc 9480 7bbc
00000190: 9f3f acbc 9b88 0c3d faa1 8abd 4fa2 e73c
000001a0: 11b6 34bd fbe6 08bd 3c57 26bd 70b9 8a3c
000001b0: e72e 54bc 9465 dbba 9d8c 273d df0e aabd
000001c0: 5402 653d ecde d03a 4428 0fbc 7645 fdbc
000001d0: 6b61 133c 0271 3dbd 2695 b23c 7b28 82bd
000001e0: c5c6 613c 29a8 733c b5de b1bc b958 363d
000001f0: 1624 ba3c 5708 b5bc bd00 273c 0e8c cb3c
00000200: e89c b8bc 5d67 24bd a01c 91bb 3950 26bd
00000210: adb9 e03c b811 2b3c c4b1 703b 970f ff3c
00000220: ad6d ae3c ec61 7abd 0666 31bd d9c0 873b
00000230: 515e 1ebd 7d27 2abd db91 313c e372 4e3d
00000240: a332 8c3b 29db 42bd 057f 1a3b 3bbc c33c
00000250: 81d2 d43c 9833 e43c bd58 283d 7380 663c
00000260: 7371 d43c 9805 91bc 4b62 3abd 24a8 e4bc
00000270: 441e 2d3d adfa 1c3d cdb5 fa3c 6b6c a2bd
00000280: 8989 1cbd 4020 79bc 48ca fbbc 8a45 afbc
00000290: 1890 103c b49e b03c 9b19 0ebc f3c9 4dbd
000002a0: 282d 0e3d fef2 79ba 0468 a63c f7f2 3c3c
000002b0: 0628 903c ad9e 86bd e5b6 c03c b99d c43b
000002c0: c3ac e33a b2e1 4c3c a5d8 8d3d 0446 0c3d
000002d0: 6e76 293d 147f 053c 12c6 f0bc 1c0f bc3b
000002e0: ebfa b4bc cfb7 963c c324 c53c ed93 11bc
000002f0: 6c80 75bd f2f5 6c3c 1762 323d a103 d13c
00000300: 80e7 453c 4bea d1bc 6978 073c 98aa 593d
00000310: 8d11 223d 7f59 853c f458 a1bb 78e6 1abc
00000320: abc7 6abb d83c 2dbd 10d2 fdbc 4cf0 753c
00000330: 7b4e 89bc a041 353b 8aed 923b a238 7dbc
00000340: 629a 1cbd 6cd0 3abc 3850 1a3c 1a98 95bd
00000350: 5767 32bd b415 afbd db94 bbbb 3c6a 6fbb
00000360: fbc0 5d3b b147 2f3c 8f8f 373d 7f2a 033d
00000370: 4ec1 963a 375e c3bb c0f2 123a c7ae 063d
00000380: 6d6c ab3c ceba d03b 0c9c c13b a1d0 30ba
00000390: dcc0 eabc 3bce 55bd 92f5 393d 961f 00bd
000003a0: ead9 bd3b 129d b03c 0785 d93c 404b 573c
000003b0: 538b 47bd 4b91 073d c38e 69bd a0d4 4fbc
000003c0: ce64 d33c 0da3 c9bc 855a 4dbd 4129 2a3c
000003d0: e68b 16bb 610d 7bbb f5a1 e23c f517 9638
000003e0: 2bbf 383c 983f 2d3d 54d3 c53c 07cf b0bc
000003f0: abb6 4f3d 8a43 ef3c b011 ca3c 3c45 123d
-0.017858721 -0.032292843 -0.09435093 -0.04836072 0.010191355 0.019482063 -0.064379856 -0.05252941
0.017820697 -0.03980306 0.016738275 0.004473563 -0.027070753 0.0042329878 -0.057315297 0.0079250345
-0.061270878 0.013536358 -0.024439681 0.022481514 0.032000486 -0.030073721 -0.005243495 0.039223466
-0.02706931 -0.020178372 -0.0058454275 -0.020164745 0.014302092 -0.046243094 -0.010879117 0.0395773
-0.057021476 -0.027567739 -0.010707201 0.01803948 0.034622043 0.06311022 -0.023949645 0.0070417114
-0.029114269 -0.004657336 0.022605367 -0.015329271 -0.006151715 -0.0072652553 0.01030517 0.037630267
-0.078727916 -0.027863352 0.01971427 -0.028749077 -0.016078407 -0.030522758 0.044494037 0.0032740703
-0.01774837 0.02457669 0.058590252 -0.013647335 -0.035314444 -0.008637977 -0.01394854 -0.037761405
-0.025013242 -0.0459583 0.005700715 0.03595353 0.0018380429 0.007618283 -0.009884123 -0.0006607461
0.0033448378 0.00013109528 -0.029311739 -0.040169798 0.034898747 -0.027761934 0.035251513 0.0035362614
-0.010706079 -0.04129113 0.007342913 0.020725965 0.07680234 -0.042067055 0.004005945 0.084318176
-0.017582722 -0.017595699 -0.023886424 -0.046084676 -0.034256414 0.04134038 -0.0439398 -0.021338824
0.016555184 0.008764746 -0.013099431 -0.01535048 -0.02102643 0.034309965 -0.06769176 0.028275637
-0.044118945 -0.033423405 -0.040610537 0.016934127 -0.0129506355 -0.0016738647 0.040905584 -0.08303618
0.055910423 0.0015935577 -0.008737627 -0.03091691 0.008995394 -0.04625035 0.021799635 -0.06355377
0.0137803005 0.0148716355 -0.02171264 0.044518206 0.022722285 -0.022098703 0.010193047 0.024847057
-0.022535756 -0.040137637 -0.004428461 -0.04060385 0.027432287 0.010441236 0.003672705 0.031135364
0.021292532 -0.06112854 -0.043310188 0.0041428623 -0.038664166 -0.041541565 0.010837997 0.050402533
0.0042784973 -0.04757229 0.0023574245 0.023893466 0.025979282 0.027856633 0.041100252 0.014068711
0.025933003 -0.017702863 -0.045503896 -0.027912207 0.04226519 0.038325 0.030604267 -0.07930835
-0.0382171 -0.015205443 -0.030736104 -0.021395463 0.008823417 0.02156005 -0.008673097 -0.050241422
0.034711033 -0.0009534805 0.02031327 0.011532537 0.01759721 -0.06573234 0.02352471 0.0060002473
0.0017370213 0.012504982 0.06926087 0.03424646 0.04137271 0.008147974 -0.029391322 0.005739106
-0.022092303 0.018398194 0.02406538 -0.008885366 -0.059936926 0.014462935 0.043550577 0.025514426
0.01207912 -0.025624415 0.008268454 0.053141207 0.03956752 0.016278027 -0.004923934 -0.009454362
-0.0035824578 -0.042294353 -0.030983955 0.0150109045 -0.016761055 0.0027657524 0.0044838833 -0.015455397
-0.03823317 -0.011402231 0.00941854 -0.07304402 -0.043555584 -0.085490614 -0.005724532 -0.0036531826
0.003383695 0.010698245 0.044814643 0.03202295 0.0011501701 -0.005962159 0.00056056306 0.032881524
0.020925725 0.006369925 0.005908495 -0.00067449553 -0.028656416 -0.05219863 0.04540021 -0.031280123
0.0057937996 0.021559272 0.02655269 0.0131405 -0.048716854 0.033097547 -0.057020914 -0.012684971
0.025804903 -0.024613881 -0.050135154 0.010385812 -0.002297157 -0.0038307535 0.027665118 7.15702e-05
0.011276047 0.042296976 0.02414862 -0.021583093 0.050711315 0.02920701 0.024666637 0.03571056

action_model._continuous_distribution.mu.bias f4 [2]
00000000: bfaa b13a 23b7 06bc
0.0013554915 -0.008222374

action_model._discrete_distribution.branches.0.weight f4 [2, 128]
00000000: bb56 5a3c 7415 99bc bebd 71ba a192 883b
00000010: 57a8 473c 04c7 c53c 83fd efbc 60d9 debb
00000020: 60b5 dabc 15c8 933b b257 27bc 8bae 9b3b
00000030: 7e40 77ba 8a0c 1bba d9e2 c1bc 2e0a a83c
00000040: 78a2 91bc 3251 053b 54fd a5bc 3f49 07bc
00000050: 6aa0 b23b 94ef e9bb 7232 d8bb d440 bbbc
00000060: e6f2 9e3c 2443 a43a 879b 993a c64c 7cbb
00000070: 5eda 39bc e7f1 dcbb 4434 5a3b 2cab 883c
00000080: 5a0d 22b9 8fcb 973b 5a95 40bc 2aac 28bc
00000090: eb62 c93b fa30 a23c 4478 87bc 389a c2bc
000000a0: 51cf a4bb 5e0c ebba 0dd0 29bc 16a3 f53b
000000b0: b553 9aba d44a 8139 ca1a fd3b c9e0 bcbc
000000c0: aaa9 f4bb bf04 223c aa07 973b 4943 70bb
000000d0: e81c 05bb a3cc d3bc f407 a93c 9261 38ba
000000e0: 6de5 22bc aadd 04bd 2d58 fa3b 89a5 d1ba
000000f0: 79db 1cbb 3646 a9b9 0485 453b 5503 a5bc
00000100: ed96 9dbc 7198 3b3c d563 bd3a 7af5 213c
00000110: 83a0 43bc 7496 fdbb 8f84 2e3c 343d 95bc
00000120: 0d8b eebb 343d 823b 90a0 b43c 0fc3 2c3c
00000130: 1cb9 d13b 61e0 8b3c 0987 1ebc c557 d63b
00000140: bd5a 503c f3e2 aa3b fe15 2c3c c562 f139
00000150: 8a30 cd3b cd37 ce3b cdda 1bbc ca55 683c
00000160: 4b84 c7bb fde5 ec3b 04fb 913c 27ca e839
00000170: 41d8 463c e5d4 1a3c 9ebe 15bc 18e9 3dbc
00000180: 3c86 a93c 1a88 00bc 93e1 ca3b aabb 97ba
00000190: be5a 203c 4e01 ccbb 2e36 313c 0393 bdba
000001a0: 6453 49bc 91a0 e5bb d038 b53a 02e8 7cbc
000001b0: 3a40 27bc cc2b 713b 8d0c 38bc 12c1 563c
000001c0: 6278 ce3b 367f 033c 053c 99bb 59aa f63c
000001d0: f791 7b3c 5c34 80bb 7ca6 90bb 8dca 033d
000001e0: 4ab4 9b3b f557 48bb ac11 48bc d9f4 593b
000001f0: 4da1 b93b 72d4 903b 930f 2abd 4fb3 8b3b
00000200: ad3a 1cbc 5171 bb3b b8b4 223c 9161 213c
00000210: 2bc9 9abc 33a3 c43b a4cf 1b3d 3969 e53c
00000220: 08bc c73c 18e4 8abc aaa0 933a 5c46 4dba
00000230: a94a 83bc fdd3 703b e12c 023c 7d97 f1bb
00000240: 6ca7 923c 371e 163b f03a 593c 89ad 243c
00000250: 3a52 07bc 9921 873b 31ad d9bb c571 c33c
00000260: ca56 c5bc 90ea 4cbc 9e82 9d3b ac1c b13c
00000270: ab22 993c e40c 73bc f48e 5c3c c13d 3b3b
00000280: a0f4 acbc 6546 2a3c 12c2 0c36 91bf 593a
00000290: ccd1 963b 4a70 79bb 3658 1dbb cb30 8bbb
000002a0: 9cd6 9abc 25a9 e83b 5e2a b93c 12ca 93bc
000002b0: eddb 213c 777f 52bc 9f15 1b3c bb0f f83c
000002c0: ea58 cf3a ee7b 80bc 1c50 a5bb b80c 743c
000002d0: eb98 2abc 7b20 e53c ec85 46bc dfd8 a639
000002e0: e952 ca3b dd1e de3c 79b8 edbb 1f2e 923b
000002f0: 05fc d0bb cb5f b6b9 5a3a 803c f73e 303c
00000300: 7faa 1d3c 0c54 18bc ae39 4fbb 8976 cabb
00000310: 4ed7 253c 6406 833c f037 babb 9f99 8e3c
00000320: ba1a 78ba a743 51bc 1e4a e0bb c9bb c8bc
00000330: 6314 2ebc 66c1 01bc 0172 8ebb b96c 1a3c
00000340: ede0 78bc b84d 83bc 6400 53bc b708 2ebc
00000350: fb53 ccbc a7fb 51bb 468e 463b 4882 c4bc
00000360: 8e04 733b d891 ec3a 46a6 ee3a 013f e33b
00000370: 17ab 0fbc 44a2 fabb 8d39 633c 3ca1 bb3c
00000380: 19b6 2ebd 5bba f03c 4df1 583a 0496 c3bc
00000390: 1730 7b3a b812 49bb 4613 b4bb 22da e3ba
000003a0: 3137 3c3b 854a f6bb e950 a7bc 9725 a43a
000003b0: 9919 8c3b a439 573c 2438 2c3c dbfd 7e3c
000003c0: 8264 613b 3d21 a73b edd0 f93b bdd4 19bd
000003d0: a8b4 19bc 3270 123c 0253 27bc 8642 9cbb
000003e0: ea88 8a3b 8f07 6a3c e2c8 fe3c ac66 91bb
000003f0: 17ae 0d3b 6f6e 54bc 924c 253d c8d0 853b
0.013326342 -0.018686987 -0.0009221694 0.00416787 0.012186131 0.02414275 -0.029295688 -0.0068008155
-0.026697814 0.0045099356 -0.010213779 0.0047510318 -0.00094319123 -0.0005914649 -0.02366774 0.020512667
-0.017777666 0.0020342586 -0.020262398 -0.008257209 0.0054512518 -0.0071391556 -0.0065978104 -0.02285806
0.019402932 0.0012532216 0.0011719324 -0.003849791 -0.011343567 -0.006742704 0.0033295313 0.016683184
-0.00015454498 0.0046324204 -0.011754358 -0.010294953 0.006145825 0.019798744 -0.01653684 -0.023755178
-0.005029597 -0.0017932763 -0.010364545 0.007496248 -0.0011774214 0.0002466055 0.007724141 -0.023056405
-0.0074665146 0.009888827 0.004609068 -0.0036661199 -0.002031142 -0.025854414 0.020633675 -0.0007033582
-0.009942395 -0.032437958 0.007639906 -0.0015994768 -0.0023934527 -0.00032286503 0.0030139098 -0.02014319
-0.019237006 0.011449919 0.0014449308 0.009885186 -0.011940124 -0.0077388827 0.010651722 -0.01821766
-0.0072797597 0.003974581 0.022049218 0.0105445525 0.0064002406 0.017074766 -0.00967575 0.0065412247
0.012716946 0.0052150427 0.01050329 0.0004604069 0.00626189 0.006293273 -0.009512615 0.01418061
-0.0060887686 0.007229565 0.017819889 0.00044401104 0.01213652 0.009450172 -0.009139685 -0.011591218
0.02069389 -0.007844949 0.0061914413 -0.0011576314 0.00978726 -0.0062257415 0.01081614 -0.0014463369
-0.012287948 -0.0070076664 0.0013826136 -0.015436174 -0.010208184 0.0036799787 -0.011233461 0.013107555
0.006300972 0.008025935 -0.0046763443 0.030110525 0.015354625 -0.0039124917 -0.0044143777 0.03217559
0.0047517167 -0.0030570005 -0.012211245 0.0033257513 0.0056649805 0.0044198567 -0.04151876 0.0042633186
-0.009535474 0.0057202955 0.009930782 0.009849922 -0.018894752 0.0060009 0.03803982 0.028004276
0.024381652 -0.016954467 0.0011263092 -0.0007830614 -0.016026812 0.0036747449 0.00794527 -0.007372795
0.017902099 0.0022906193 0.013258681 0.01005114 -0.00825935 0.004123878 -0.0066429605 0.02385796
-0.024089236 -0.012507096 0.0048068305 0.021620117 0.018693289 -0.014834616 0.013461817 0.0028570744
-0.02111274 0.01039276 2.097459e-06 0.00083064387 0.0046026465 -0.0038061314 -0.0024008877 -0.00424776
-0.018901162 0.0071002417 0.02260321 -0.01804069 0.009879095 -0.012847773 0.009465604 0.030280938
0.0015819345 -0.015684094 -0.00504495 0.0148956105 -0.010412435 0.02796959 -0.01211689 0.0003182357
0.0061744344 0.027114326 -0.007254657 0.0044610645 -0.0063776993 -0.00034785116 0.015652824 0.0107571995
0.009623169 -0.009297382 -0.0031620073 -0.0061786813 0.010122133 0.015994258 -0.005682938 0.017407237
-0.0009464432 -0.012772477 -0.006844773 -0.024503605 -0.010624978 -0.007919645 -0.0043470864 0.009425336
-0.015190345 -0.01602827 -0.012878511 -0.010622195 -0.024942389 -0.0032040866 0.0030297204 -0.023987904
0.0037081572 0.0018048836 0.0018207512 0.006935001 -0.008768818 -0.007648738 0.013868702 0.022904031
-0.04265413 0.029385736 0.0008275703 -0.023875244 0.0009582056 -0.0030681323 -0.0054954616 -0.0017383734
0.002871942 -0.0075162076 -0.020424323 0.001252341 0.0042755124 0.013136301 0.010511432 0.015563454
0.0034392183 0.005100398 0.007623783 -0.0375564 -0.009381451 0.008937882 -0.010212662 -0.0047686724
0.004227747 0.014284029 0.031101648 -0.0044372883 0.0021618658 -0.012965783 0.040356226 0.0040837266

action_model._discrete_distribution.branches.0.bias f4 [2]
00000000: 566c b83c 5b6c b8bc
0.022512596 -0.022512605

exp_avg f4 [128, 4]
00000000: c4ee 6cbb 36e2 02ba d9f2 1dbb e56a fdb9
00000010: e48d 193a 6218 80ba bc95 94b8 db21 39ba
00000020: 0c78 003b b5c1 e6b9 bcd7 2b3b 636a a539
00000030: 8306 0fb9 460e 953a ef5f 513a 1d60 273a
00000040: 3a20 3e3a c58d 2bba 6e28 e33a a04d f3b9
00000050: ff2c 17b9 9e2c 1939 8be3 9e37 6471 cd39
00000060: 7d55 72b9 5d21 8cb9 909f 0c39 5c1a c6b9
00000070: 6d49 6c39 a5af d9ba d135 4439 23ad b5ba
00000080: 2bcc a33b d4b3 f2ba 997c 963b e8b1 0bba
00000090: f29f cdba 5284 4aba 102a abba 3622 4aba
000000a0: 759e 0bba eeae 8139 e915 e6b9 0f63 3fba
000000b0: 2ccb 8b3a b736 56ba 65c6 023b 2e9d 1d3a
000000c0: 9ae9 073b 85b4 2239 74a8 1e3b 7915 143a
000000d0: b333 81ba 7be2 53b9 922d 81ba 7e7b 90b7
000000e0: b14a 233a 14ef 9db9 cfc5 a239 49e3 cab9
000000f0: 6edb fb36 f349 f639 4143 0ab8 f11c 403a
00000100: 23a2 8c3a b34e 5c35 c847 313a ecfe b93a
00000110: e4a3 c0b8 2dcb a6b9 5d75 67b9 a3d8 12ba
00000120: f9eb c738 c503 0d39 11a8 133a 90f1 bc3a
00000130: eab6 30bb 1160 1fb9 c3ec dfba b7ab 3d39
00000140: 2b19 99b9 9462 f139 ad1a 30b9 c26a e239
00000150: 05c6 de3a cf88 0439 9f01 e63a f3dc 563a
00000160: f563 3bb8 9932 8bb9 5ebe 2639 0f0f 98b9
00000170: 1c52 3aba e993 d5ba 5799 f1b9 7217 79ba
00000180: 184d 6339 92ef 03b8 a6d9 a339 f313 4eb9
00000190: 838d fdb9 f021 a0b9 438a c8b9 0a77 71b8
000001a0: 3bd2 0b3a 10b7 65ba 73bf 4039 0ac2 4239
000001b0: ea50 23b9 9b89 1eba 3744 6f39 cedd 0aba
000001c0: 8970 8c3a 59bc 91b9 7bab c93a eab6 8538
000001d0: dba8 ed3a 5372 f0b8 af0d 0c3b b0e0 073b
000001e0: 259a 3b3a ebb7 1bba 32b4 4f3a 6f9b bbb9
000001f0: b578 183b 157e 463a 124a 2c3b 7de4 0c3a
00000200: 3135 30ba 17f3 0cb9 4c9c 2bba 4462 863a
00000210: 1c1e a639 225b 713a 11b6 1539 7e90 ee39
00000220: aff9 233a 2a13 1f39 202f 813a cc5b 1439
00000230: e4e6 4b3a 5ec4 93b9 7b66 9f39 0d38 233a
00000240: 66b9 9639 3215 b439 f37b e638 6fde 4c3a
00000250: 6af8 ecb9 8157 5bba ae37 7539 67c2 80b9
00000260: c246 70ba e079 4639 0062 09ba 4cef 3a39
00000270: 050a f2ba 2b2f 88ba 6bed 8eba 89c0 5aba
00000280: 7904 fbb9 171d d4b9 894f a6ba 4a9b 6bba
00000290: 257e 4a39 5224 8fb8 b2d2 8639 9cef 11b9
000002a0: 9c07 8539 3094 9eb9 7541 143a 219e a2b9
000002b0: 9b66 d8b8 7ad3 d639 048e 083a 8766 b23a
000002c0: 23c1 61bb 384e 8b37 56cb 11bb f649 6039
000002d0: be33 5f3a 8e44 9bb9 8ec5 763a ecff 43b9
000002e0: fbf8 1bbb d935 1aba 9d6d 26bb 40d8 ebb9
000002f0: 51cd 8cb9 2e75 e4b9 1181 243a 8b9c 36ba
00000300: 2114 51b9 88d6 b439 7c85 0737 b02e e939
00000310: 1d5e 7f3a aa36 0e36 043c 4e3a 1a92 923a
00000320: 8df9 9db9 9b22 f639 01d2 d3b9 cf66 1c3a
00000330: 83a7 aab9 cfb0 4cba e143 d739 9926 53ba
00000340: 6e6e 693a 092c 1339 8e2d 5f3a 36f3 4139
00000350: 1bc2 7eba e4da 1dbb 5ae7 b4b9 e50d b8ba
00000360: 7751 32b9 562b 92b9 f5a2 463a ba8a 80b9
00000370: f36a 38b9 b275 8639 c041 aab7 8c4c 1f3a
00000380: ab33 f2ba 6c49 21ba 8950 07bb abc1 2eba
00000390: 5417 67b9 2c57 3338 914d b434 b7c3 0939
000003a0: 257e d438 0076 c838 11e1 9638 af31 2e3a
000003b0: cb86 79ba 187d 353b 1d43 7aba 2b10 3b3b
000003c0: 8a57 68ba d4f8 89b8 d582 29ba 50fa 7ab9
000003d0: dc05 943b 8cea 5339 9d3d 7d3b c693 d23a
000003e0: 3495 d338 7fb4 94b9 63eb 043a c8f9 f139
000003f0: 0243 d839 99f7 013a 0844 703a ac40 a939
-0.0036153058 -0.00049928145 -0.0024101047 -0.00048335563 0.000585763 -0.0009772892 -7.08508e-05 -0.0007062235
0.0019602804 -0.00044013342 0.0026221117 0.00031550517 -0.00013639969 0.0011372052 0.00079870125 0.00063848664
0.0007252727 -0.00065442576 0.0017330775 -0.00046406407 -0.00014417245 0.00014607838 1.8941026e-05 0.0003918513
-0.00023110765 -0.00026727738 0.00013410882 -0.00037785142 0.00022534067 -0.0016608132 0.00018712065 -0.0013860803
0.004998704 -0.0018516728 0.00459249 -0.00053289393 -0.0015687926 -0.0007725406 -0.00130588 -0.00077107863
-0.0005326041 0.0002473513 -0.00043885343 -0.00073008327 0.0010665408 -0.00081716053 0.0019954678 0.00060124963
0.0020738603 0.00015516773 0.0024209293 0.00056489516 -0.0009857327 -0.00020206899 -0.00098555 -1.7223643e-05
0.00062290864 -0.000301235 0.00031046427 -0.00038697783 7.505928e-06 0.00046975873 -3.29644e-05 0.00073285314
0.0010729473 8.207091e-07 0.00067627104 0.0014190353 -9.1858004e-05 -0.00031813365 -0.00022073598 -0.00056017394
9.533013e-05 0.00013448212 0.0005632649 0.0014415253 -0.0026964494 -0.00015199209 -0.001708411 0.00018088413
-0.00029201186 0.00046040548 -0.00016794605 0.0004318562 0.001699627 0.00012639466 0.001754809 0.0008196376
-4.4677367e-05 -0.00026549844 0.00015901911 -0.0002900292 -0.0007107572 -0.0016294691 -0.0004608135 -0.000950209
0.00021677127 -3.145595e-05 0.00031251943 -0.00019653123 -0.00048361355 -0.00030542864 -0.00038249986 -5.756974e-05
0.0005333756 -0.0008762935 0.00018381867 0.00018573567 -0.00015575034 -0.00060477265 0.00022818228 -0.00052973337
0.001071469 -0.00027796885 0.0015386188 6.3760046e-05 0.0018131988 -0.00011465386 0.002137046 0.002073329
0.0007156453 -0.00059401867 0.00079232745 -0.00035783226 0.0023265306 0.0007571888 0.0026289267 0.00053746236
-0.00067217933 -0.00013441998 -0.00065464224 0.0010252674 0.0003168442 0.0009207 0.00014277572 0.00045502553
0.00062551623 0.00015170561 0.0009855963 0.00014148577 0.0007778241 -0.0002818433 0.00030403197 0.0006226309
0.00028748362 0.00034348067 0.00010990342 0.00078151276 -0.0004519851 -0.0008367226 0.00023385763 -0.00024558904
-0.0009165817 0.00018928153 -0.00052407384 0.00017827487 -0.0018466121 -0.0010390034 -0.0010904496 -0.000834473
-0.00047877783 -0.00040457465 -0.0012688498 -0.00089876784 0.00019311214 -6.8255365e-05 0.00025715452 -0.00013917539
0.00025373406 -0.00030246517 0.0005655506 -0.00031016863 -0.000103187944 0.00040974823 0.000520915 0.0013610878
-0.0034447394 1.6606515e-05 -0.0022246442 0.00021389857 0.0008514485 -0.0002961498 0.0009413593 -0.00018691987
-0.0023799527 -0.0005882658 -0.0025394924 -0.00044983812 -0.00026855854 -0.00043574854 0.0006275336 -0.0006966076
-0.00019939292 0.00034492114 8.077706e-06 0.00044476008 0.0009741502 2.1191468e-06 0.00078672194 0.0011182458
-0.00030131303 0.0004694656 -0.0004040152 0.00059662474 -0.00032549733 -0.0007808329 0.0004105857 -0.0008054763
0.00089047 0.00014035417 0.0008513563 0.00018496517 -0.0009718255 -0.0024086768 -0.00034504646 -0.0014042227
-0.00017005751 -0.00027879578 0.0007577383 -0.00024517422 -0.00017587449 0.00025646162 -2.0296196e-05 0.0006076775
-0.0018478533 -0.00061526033 -0.0020647368 -0.0006666432 -0.00022038567 4.275811e-05 3.358405e-07 0.00013138248
0.00010132444 9.5587224e-05 7.194479e-05 0.00066449767 -0.0009518682 0.002769297 -0.0009546744 0.0028543572
-0.0008863142 -6.579017e-05 -0.0006466334 -0.00023935107 0.0045173 0.00020209904 0.003864146 0.0016065768
0.00010089055 -0.0002836324 0.0005070476 0.00046153204 0.00041248655 0.00049578544 0.0009165411 0.00032282376

exp_avg_sq f4 [128, 4]
00000000: e1b3 5a38 2fb0 2438 ca22 4338 3dc0 2938
00000010: 8507 2f37 180a 7837 4389 0b37 c198 7537
00000020: 1277 9e37 292f d037 70f2 9237 6522 cf37
00000030: 82de 3a38 ad10 7738 bb0e 2538 25ce 5138
00000040: db63 8f37 1a23 6f37 ac83 8237 ee7f 7d37
00000050: 48e4 a036 7614 5836 6cb7 9d36 8691 3836
00000060: 63cd ac35 d2bf 0e36 ba5d ae35 2ec7 0736
00000070: 1c6f 1937 6151 1c37 9c32 0f37 b4f6 1037
00000080: cd8a a238 f807 7938 727c 7438 26bb 7c38
00000090: 2a1b c836 6eba 8b36 6e48 9136 ee5b b236
000000a0: 50d2 f835 f875 d635 362b f335 a704 ec35
000000b0: 51f6 a037 8c84 9837 486b 9137 9083 8f37
000000c0: df48 a436 c6f6 8636 b4c8 9836 8fd2 a636
000000d0: f301 e935 40ae c935 894e e635 146d ec35
000000e0: fced 8737 d199 7b37 a925 7d37 daff 8c37
000000f0: 6887 5236 9192 6536 65ab 3036 a74e 6636
00000100: bbb5 9137 3262 4a37 a48e 6637 3424 5537
00000110: 426a 9e35 4643 8335 8820 7335 f698 ba35
00000120: 03e0 8b37 dcf2 8737 0ec4 8937 f163 9037
00000130: 6c1f b137 60bc 9a37 c5b5 9b37 8610 9a37
00000140: 7fea 9e35 b66f b835 b49a 9535 2327 9a35
00000150: 8839 4037 44cc 2237 ad8b 2037 3fd8 1a37
00000160: 769c d437 47a6 7b37 b521 cb37 256d 8737
00000170: 93a7 3637 6034 6337 bafe 3437 ec4c 5437
00000180: 8a2a e536 50cd be36 e07a d536 74eb ca36
00000190: 2e3c 0f36 d8dd 4936 c40c 0c36 e884 3e36
000001a0: 7761 bd37 2616 b437 5b7d ca37 3373 b337
000001b0: fba5 1736 885b aa36 aa05 0d36 d7ff be36
000001c0: e0bc e337 95e5 dc37 2028 ca37 c720 c037
000001d0: 5adb e737 080f 0838 83f0 cc37 c807 fc37
000001e0: 865b 3637 da5a 2f37 1ccc 1337 3f99 2a37
000001f0: a4d5 a937 a27c 6037 148e 7937 2a19 7e37
00000200: 58e9 8537 7483 8837 6c7f 5e37 a913 9937
00000210: f439 6236 142f 3e36 b215 5636 ef61 5d36
00000220: 5f6f b436 7bb0 2637 97c1 9a36 319a 1e37
00000230: 7326 2f38 d22f 2d38 e7b1 1838 e17d 3038
00000240: 5091 5d36 7eef 4a36 89ce 5636 c072 6536
00000250: 48a1 b136 cac3 c836 b96f 9536 c1a0 dc36
00000260: d942 da36 499a 8836 4443 9e36 fd28 9936
00000270: 7d28 2138 8259 0a38 2d2e 1638 96e8 fc37
00000280: 57e0 1b37 d22c b036 f6dd 0237 4105 b736
00000290: 1f23 3e36 064f 3e36 d5b4 2936 b5fc 3836
000002a0: 4039 5935 02de 9b35 0363 7835 3987 9c35
000002b0: e841 5037 d1a7 0837 5b9b 5b37 8485 0c37
000002c0: 962e 0738 c8af fe37 930f ed37 1bf0 0238
000002d0: 828c 3737 fdd8 3337 b3cd 1537 dd01 2e37
000002e0: 2670 1238 bc80 0038 1f76 db37 a92c 0238
000002f0: 2a85 4a37 df72 7737 6ed3 3837 44a8 7b37
00000300: 1de4 7335 877e 1736 ca4e 8735 4cd1 eb35
00000310: a8b3 9636 cafe 6236 b716 a436 e692 6f36
00000320: dbe1 0336 92c8 2336 afaa 2436 ec99 1236
00000330: 5d32 8a36 b9c4 5f36 9f87 3d36 6634 8236
00000340: 22e9 9a36 0087 9d36 c38f 8a36 b89e aa36
00000350: a9be 0338 3174 db37 6b21 0c38 c334 e137
00000360: 77bb 4638 d39f 6338 2c37 2d38 04a2 6638
00000370: 6ba4 8a36 a467 6a36 5c78 7036 d5e3 6c36
00000380: 5ff1 6837 a0d9 7d37 7714 6437 4fa9 8437
00000390: 5e71 8236 62b4 2037 55d4 8336 31aa 1337
000003a0: 3302 7636 40bd 6f36 c685 6336 7a28 7d36
000003b0: c44a 8038 0b3b 9f38 22d7 6638 c3d5 8f38
000003c0: 09fe 7837 2c97 6037 c080 4337 bb41 7037
000003d0: 34f5 4b38 9214 1038 34c9 1538 df01 1f38
000003e0: ef5b 1337 a12f 8537 54f0 0f37 ee68 7337
000003f0: 28d0 8836 ffa1 da36 7287 9836 9a1b d536
5.2142776e-05 3.926473e-05 4.6524023e-05 4.0471776e-05 1.0432564e-05 1.4784302e-05 8.317004e-06 1.4638704e-05
1.8890514e-05 2.4817493e-05 1.751745e-05 2.469234e-05 4.4553082e-05 5.890492e-05 3.9352784e-05 5.002147e-05
1.7093427e-05 1.4253683e-05 1.5558522e-05 1.5109761e-05 4.794947e-06 3.2198418e-06 4.7003177e-06 2.7502842e-06
1.2874774e-06 2.1271303e-06 1.2991288e-06 2.0232505e-06 9.14538e-06 9.317272e-06 8.535248e-06 8.640509e-06
7.7506156e-05 5.9373648e-05 5.8290032e-05 6.0255777e-05 5.963627e-06 4.164226e-06 4.3297687e-06 5.3155154e-06
1.8538649e-06 1.5978576e-06 1.8117487e-06 1.7584724e-06 1.9188186e-05 1.8181534e-05 1.7335304e-05 1.7108192e-05
4.896064e-06 4.0222394e-06 4.553318e-06 4.9716978e-06 1.736042e-06 1.502638e-06 1.7159192e-06 1.7615116e-06
1.6204074e-05 1.4996579e-05 1.5088744e-05 1.680844e-05 3.1371255e-06 3.4208972e-06 2.6325808e-06 3.4318452e-06
1.7369972e-05 1.2063001e-05 1.3742279e-05 1.27042185e-05 1.1802842e-06 9.77984e-07 9.0571893e-07 1.3902597e-06
1.6674405e-05 1.6206344e-05 1.6422968e-05 1.7212677e-05 2.1114676e-05 1.844595e-05 1.8562083e-05 1.8365925e-05
1.1840165e-06 1.374158e-06 1.114639e-06 1.1485284e-06 1.1457487e-05 9.703512e-06 9.569264e-06 9.229464e-06
2.5345227e-05 1.499948e-05 2.4215182e-05 1.6144078e-05 1.0887062e-05 1.3542449e-05 1.0788144e-05 1.26540945e-05
6.829684e-06 5.686343e-06 6.362199e-06 6.0474795e-06 2.134369e-06 3.0080464e-06 2.0869056e-06 2.8389568e-06
2.2575941e-05 2.1467986e-05 2.413865e-05 2.1392107e-05 2.2597367e-06 5.0770504e-06 2.1013934e-06 5.692225e-06
2.714846e-05 2.6332951e-05 2.4098961e-05 2.2903447e-05 2.763949e-05 3.2438926e-05 2.4430692e-05 3.0044364e-05
1.0869355e-05 1.0451966e-05 8.809406e-06 1.016847e-05 2.0245854e-05 1.3380459e-05 1.4874637e-05 1.5145439e-05
1.5963495e-05 1.6273676e-05 1.3261899e-05 1.8248176e-05 3.3710357e-06 2.833961e-06 3.1901113e-06 3.298857e-06
5.3773833e-06 9.935461e-06 4.6120945e-06 9.453434e-06 4.175906e-05 4.129095e-05 3.640531e-05 4.2078904e-05
3.301615e-06 3.0239748e-06 3.2008704e-06 3.4190452e-06 5.2937867e-06 5.9832573e-06 4.4535523e-06 6.575225e-06
6.5046884e-06 4.071077e-06 4.7165977e-06 4.564527e-06 3.84231e-05 3.2985125e-05 3.580579e-05 3.0149047e-05
9.290953e-06 5.2504265e-06 7.800283e-06 5.4544366e-06 2.833265e-06 2.8358204e-06 2.528822e-06 2.7565231e-06
8.092211e-07 1.1613013e-06 9.253128e-07 1.1662261e-06 1.2413111e-05 8.1453045e-06 1.3089589e-05 8.375737e-06
3.2229895e-05 3.0361014e-05 2.8259854e-05 3.121803e-05 1.09403645e-05 1.0719753e-05 8.928985e-06 1.0371642e-05
3.491356e-05 3.063747e-05 2.6161839e-05 3.103601e-05 1.2071143e-05 1.4749093e-05 1.1016482e-05 1.4999943e-05
9.08565e-07 2.2574402e-06 1.0081214e-06 1.7569778e-06 4.491263e-06 3.382493e-06 4.8902252e-06 3.5699281e-06
1.9651986e-06 2.440564e-06 2.4537255e-06 2.184529e-06 4.1185835e-06 3.3344097e-06 2.8242137e-06 3.880402e-06
4.616698e-06 4.6946807e-06 4.1294566e-06 5.084872e-06 3.14104e-05 2.616094e-05 3.3409724e-05 2.684666e-05
4.738147e-05 5.4269865e-05 4.1297797e-05 5.4987162e-05 4.1318613e-06 3.4929044e-06 3.5832845e-06 3.5299356e-06
1.3884476e-05 1.5130645e-05 1.3594624e-05 1.5814467e-05 3.8874996e-06 9.578742e-06 3.928823e-06 8.801509e-06
3.6658137e-06 3.5723933e-06 3.3903502e-06 3.7723498e-06 6.117442e-05 7.5927084e-05 5.503663e-05 6.8585876e-05
1.4841099e-05 1.3386638e-05 1.1652883e-05 1.4320419e-05 4.8627335e-05 3.4351433e-05 3.5711753e-05 3.7910297e-05
8.783288e-06 1.5877014e-05 8.57942e-06 1.45083595e-05 4.0773484e-06 6.515765e-06 4.545721e-06 6.351108e-06

exp_avg f4 [128]
00000000: d568 9a39 46b2 97b9 1b47 4f39 46b6 b039
00000010: 8f42 5939 ee81 6138 5001 c538 6caa fab8
00000020: 56cc 9eba 58a8 6339 307e c7b4 8f34 8b39
00000030: c44c 47b9 df3b 8439 9c89 4fb9 8d80 5439
00000040: eca0 3438 4619 76b8 10db 32b8 e06f dd39
00000050: ce51 19b8 564d a3b9 1f53 47b8 ccb2 49b9
00000060: 87b2 0ab8 7b12 2b39 b764 9339 8a9e 69b8
00000070: 0b1b 123a d71b 1b39 d64c 5c39 1f4c acb9
00000080: 7a73 4939 0c2a fc38 aac2 0036 0535 b0b9
00000090: 6ac3 5db9 8497 a238 7df2 7939 28cc 09ba
000000a0: 69c0 9e38 0095 1438 c50e b338 bdd6 1c36
000000b0: fa85 253a 4808 b1b9 6e65 0c39 b302 8d39
000000c0: 1247 3eb8 e900 1a38 af9d 66b8 bd94 46b8
000000d0: 7671 cbb7 68ee 5338 3660 62b9 21aa fb38
000000e0: e996 bd38 4677 0bb9 f43f 1f39 7591 d639
000000f0: 6c74 eb38 b1a9 18ba c353 e438 4a0c 94b8
00000100: d1de 67b9 4cc0 0139 6216 61ba 949b 4539
00000110: a8fc dd39 dbac 2439 b792 ce39 34dd cb39
00000120: 00ad a937 5cd1 e2b7 ea1e 1039 6178 153a
00000130: b412 8339 ef8b 1fb9 cabc 4a39 3e59 7239
00000140: 51dc 7eb9 46f5 9bb9 fcb5 5439 4df4 1038
00000150: 9cf2 2f39 39c8 20ba 2567 eb39 4eb3 b639
00000160: 8283 05ba 7f6d 5c39 71c0 8dba 3712 ef38
00000170: 68b0 54b9 65ea 5b39 b808 7139 6cf4 a8b9
00000180: a4ad a939 ee53 9139 da54 d239 408a bbb9
00000190: d3ae d839 dc75 beb8 8560 8d38 aa43 4039
000001a0: 1c5d e039 a88c 8cb9 75af 5538 cb1d eeb9
000001b0: 8798 bdb9 762b 25b9 4420 2bb9 c101 a5b9
000001c0: cf51 c238 f509 a037 eb5a 01b9 7609 1538
000001d0: da27 95b7 9aea e639 09c4 8939 dec3 6ab9
000001e0: d591 f8b8 ca5e 0239 9479 b1b9 009f 2cba
000001f0: 0c4c 8d37 fbef 2fba 21ed e6b8 5464 dbb8
0.00029451275 -0.00028933788 0.00019767547 0.0003370514 0.00020719528 5.3765187e-05 9.3939365e-05 -0.000119526725
-0.001211534 0.0002171112 -3.7158452e-07 0.00026551305 -0.00019006716 0.0002522161 -0.00019792322 0.00020265784
4.3065214e-05 -5.867451e-05 -4.2642525e-05 0.00042235758 -3.655423e-05 -0.00031147402 -4.752271e-05 -0.00019235461
-3.306803e-05 0.00016314715 0.00028113063 -5.569918e-05 0.0005573488 0.00014792323 0.00021009459 -0.0003286311
0.00019211872 0.00012024128 1.9186796e-06 -0.0003360884 -0.00021149 7.752984e-05 0.00023836824 -0.0005256557
7.569866e-05 3.5424717e-05 8.538136e-05 2.3370806e-06 0.00063142146 -0.0003376624 0.00013389226 0.00026895627
-4.536572e-05 3.671731e-05 -5.4983127e-05 -4.7345402e-05 -2.425232e-05 5.0528353e-05 -0.00021588881 0.00012000302
9.0403315e-05 -0.00013300506 0.00015187246 0.00040925635 0.000112273585 -0.0005823626 0.00010887489 -7.059479e-05
-0.00022112882 0.00012374035 -0.0008586404 0.00018845341 0.00042340648 0.00015704652 0.00039400693 0.00038883986
2.022693e-05 -2.703879e-05 0.00013744427 0.0005701837 0.00025000202 -0.00015215551 0.0001933455 0.00023112164
-0.00024305402 -0.00029746647 0.0002028569 3.45598e-05 0.0001677968 -0.0006133351 0.00044899542 0.00034847338
-0.00050931436 0.00021021625 -0.0010814798 0.00011399801 -0.00020283612 0.00020972786 0.00022986799 -0.00032225566
0.00032363564 0.00027719088 0.0004011754 -0.00035770424 0.00041328985 -9.081859e-05 6.741382e-05 0.00018335754
0.0004279398 -0.00026807678 5.0946564e-05 -0.00045417095 -0.0003616253 -0.00015751817 -0.0001631985 -0.0003147256
9.265879e-05 1.9078123e-05 -0.00012336268 3.553318e-05 -1.7780741e-05 0.0004404381 0.00026276734 -0.00022388945
-0.00011852725 0.00012433078 -0.00033850654 -0.0006584972 1.6843922e-05 -0.000671148 -0.00011011423 -0.00010461421
