Assets/Attack2.onnx (onnx, 942689 bytes, 10 tensors)

network_body._body_endoder.seq_layers.0.weight f4 [256, 650]
000000 01 d1 ee bd 2e e4 0d be 75 6a 66 bd 59 28 02 bd
       -0.11660958 -0.13856575 -0.05625387 -0.03177676
000010 56 b6 f3 bc 1c 87 ae be 5d e2 23 bc dc 64 f0 3c
       -0.02975003 -0.34087455 -0.0100027 0.029344968
000020 22 b1 54 3d dc b3 24 3e 1f e0 ab be 21 6c 29 bd
       0.05192674 0.16084236 -0.33569428 -0.041362885
000030 81 7d 8e be 09 9c 78 bd b6 6d 5c be 65 6d ac bc
       -0.27830127 -0.06069568 -0.21526226 -0.021048257
000040 81 25 2d be fb c1 9a bc f0 f5 9b be d6 89 ab 3c
       -0.16908838 -0.018891325 -0.30461073 0.020939749
000050 50 28 8f bc ff fe 39 bd aa f4 02 be 4e 88 51 bd
       -0.017475277 -0.0454092 -0.12788644 -0.05115538
000060 7e a0 ad 3c a7 ba b4 3d 28 10 6d bd a0 63 2f be
       0.021194693 0.088246636 -0.057876736 -0.17127848
000070 b0 5c 03 bd cb 88 7f bd 5c 6e db 3d 96 29 26 be
       -0.032070816 -0.062386315 0.10714409 -0.16226801
000080 55 84 78 3d bb f6 20 3d 30 33 92 3d 0b 37 0c 3e
       0.060673077 0.0392978 0.071386695 0.13692872
000090 60 1d a5 be ea b6 c1 bc 41 c5 9b be 00 64 f9 3a
       -0.32248974 -0.02364679 -0.3042393 0.0019026995
0000a0 8e 60 a7 be 7d b9 78 bd 8d 43 13 be 1e 28 93 bd
       -0.32690853 -0.06072377 -0.14381237 -0.07185386
0000b0 c3 45 57 be b0 71 9d bd fa df ae bd 06 9c 8f bc
       -0.21022706 -0.076877 -0.08538814 -0.017530452
0000c0 80 1b 0e be 95 05 79 bd 57 13 85 bc b9 01 86 bc
       -0.13877678 -0.06079634 -0.016244574 -0.016358243
0000d0 4c b9 dc bb a0 3c 89 bd a5 19 a0 bd b2 51 b9 bc
       -0.0067359563 -0.067010164 -0.07817391 -0.022621963
0000e0 9c 60 18 3e 6c 79 44 be 91 c6 7f 3d 11 ff ae 3d
       0.14880604 -0.19186944 0.062445227 0.08544744
0000f0 a1 f7 15 3d a6 5c f5 3d 3a be c7 be b0 2b 94 3c
       0.03661311 0.11980562 -0.3901232 0.018087238
000100 b4 94 a0 be 77 9b a6 3c c7 0d ad be ed d6 94 bd
       -0.3136345 0.020337803 -0.33799574 -0.07267556
000110 60 04 49 be e5 bd b6 bd b3 c9 25 be ae 49 ee 3b
       -0.19630575 -0.08922938 -0.16190223 0.007271967
000120 04 9c 49 be 69 fc 3c bd 89 03 00 be 3a be b2 bd
       -0.19688421 -0.046139155 -0.12501349 -0.08727689
000130 b4 2b 67 3d a6 76 4c bd a4 2c 56 bd f4 60 39 bd
       0.056438163 -0.04991784 -0.052288666 -0.045258477
000140 33 41 fc bc 9e f4 a2 39 44 f4 03 3e 13 ba 8d bd
       -0.030792808 0.00031081302 0.12886149 -0.069202565
000150 4c 19 e3 3d 8d 57 b0 3d f8 fc a5 bb 77 a4 11 3e
       0.11088809 0.08610449 -0.0050655566 0.14222895
000160 22 67 82 be 16 7b 2c bd ea 35 90 be 0c ed 8d bb
       -0.2546931 -0.04210957 -0.28166133 -0.0043312367
000170 68 b6 7a be 0c e2 0f bd 82 fa de bd 90 99 b7 bd
       -0.24483645 -0.035127684 -0.10887624 -0.089648366
000180 4f 1c 35 be 43 97 8d 3b aa 3c 58 be 22 92 5a bd
       -0.1768658 0.0043210103 -0.21116892 -0.05336202
000190 ef 22 e0 bd 57 7c ef bd b6 62 7c 3c da 73 06 3c
       -0.10944163 -0.11693638 0.015404394 0.008206332
0001a0 21 95 0c bd 6e c6 18 bd a5 8c 8b bd eb f2 35 bd
       -0.034321908 -0.037298612 -0.06813935 -0.044421118
0001b0 42 f8 18 3e 50 f0 5f bd 58 25 e3 3d 9e 64 2f 3e
       0.14938453 -0.05467254 0.11091107 0.17128226
0001c0 67 fb b6 3c 90 7e 5f 3e 91 e8 93 be 9e c9 1b 3c
       0.022336675 0.21825624 -0.28888372 0.0095085185
0001d0 27 08 8f be 13 9a a7 bc a7 22 7a be d1 cf a2 3d
       -0.27935907 -0.02045921 -0.24427281 0.07949794
0001e0 10 ef 2a be 62 06 8c bd a9 03 25 be 6c 35 33 3c
       -0.16692758 -0.06837155 -0.16114677 0.01093803
0001f0 db 1b 81 be 47 ea c2 bc 7b 2c 49 be c9 62 8d bd
       -0.25216565 -0.023793353 -0.19645874 -0.069036074
000200 9d 2c 90 bc 20 49 e5 bc 4d 3c e2 3c 35 e6 d3 bd
       -0.017599398 -0.02798897 0.027616644 -0.10346643
000210 7e 21 8d bd 66 e8 e6 bb 4d fc 67 3d b4 27 32 3e
       -0.06891154 -0.007046747 0.056637097 0.17397958
000220 cd cb 63 bc e4 37 10 3e c9 c9 28 3d e1 6f 02 3e
       -0.01390357 0.1408382 0.041208062 0.12737991
000230 fa a0 af be ca 81 68 3c 6f 78 a3 be e9 73 80 3d
       -0.34302503 0.0141911 -0.3192782 0.06272108
000240 18 9b 3f be a0 d6 1b 3d 8f ca fc bd 5c e2 62 3d
       -0.18711507 0.03804648 -0.123433225 0.055391654
000250 2c 67 3b be 48 e3 1e 3d bb 97 c6 bd 42 b1 06 bd
       -0.18301076 0.03879097 -0.09696909 -0.03288389
000260 65 77 4f be af 86 fd bd 66 3d 44 bd 1a da e6 3c
       -0.20260389 -0.123792045 -0.047910117 0.02818017
000270 a4 68 b7 bd ae b1 8f bc a6 51 fb 3b 4d e9 39 3c
       -0.089555055 -0.017540779 0.0076696454 0.011347127
000280 67 3f 83 bd 12 81 3f 3e 05 b5 36 bb db b4 bd 3d
       -0.064085774 0.1870158 -0.0027878892 0.09263011
000290 dc 50 28 be 7e 8e 52 3e 56 c8 a8 be ca 83 f4 bc
       -0.16437095 0.20562169 -0.32965344 -0.029847998
0002a0 ac cb bc be 42 7c 05 bd 31 78 86 be 67 8c 82 bd
       -0.3687414 -0.032589205 -0.26263574 -0.06374436
0002b0 cc 26 ed bd fe 42 0f 3d 19 ba 81 bd 5b a3 86 3c
       -0.115796655 0.034975998 -0.063343234 0.016435316
0002c0 bb 1f 85 bd a5 26 84 3d 6f 93 23 be dd 38 4e bd
       -0.06500193 0.06452683 -0.1597421 -0.050347198
0002d0 5e 56 90 3a 7c 8b 00 3c 09 d5 c1 bd 76 c7 c3 ba
       0.0011012068 0.007845756 -0.09464461 -0.0014936763
0002e0 35 0d 66 bc 01 ab 6d 3d ea 5c aa bd ca 65 61 3e
       -0.014041235 0.05802441 -0.08318503 0.22011486
0002f0 e9 f5 19 bc 44 c0 b6 3d 26 02 0d be 6d 06 17 3e
       -0.009397008 0.089233905 -0.13770351 0.14748545
000300 1b 7d ac be 97 39 d6 3c b8 e1 bd be ec 5c 54 bd
       -0.33689198 0.026150508 -0.37086272 -0.05184643
000310 dd e9 4f be a5 ff a1 3c 2f cf 21 bd 71 72 25 3e
       -0.20304056 0.019775221 -0.039504226 0.16156937
000320 71 9d 6e bd 64 88 75 3d 24 57 71 bd ec c2 2f 3e
       -0.058255617 0.059944525 -0.058920994 0.171642
000330 9e c7 ea bd 99 75 a7 bd 5e 6d 0e bd 22 0e 83 3c
       -0.11463855 -0.08176727 -0.03477227 0.01599795
000340 b6 0b d4 bd d6 d2 59 bd b7 ac b7 3c 41 88 90 3d
       -0.10353796 -0.053179584 0.022421224 0.07057238
000350 89 54 b8 bd 6e 56 8c 3e 57 fa 9d bd 3c 3c ce 3d
       -0.09000499 0.2740969 -0.07713764 0.100700825
000360 f8 06 6f be 24 29 43 3e 0c cc bb be b7 a0 81 bb
       -0.23342502 0.19058663 -0.36679113 -0.0039559263
000370 c5 5c 93 be cb b2 3d bd 67 5b 6e be 0e 11 ee 3c
       -0.28781715 -0.04631309 -0.23277055 0.029060867
000380 ab ec cb 3c 70 cd 1c 3e 96 69 c7 bd b5 68 8c 3c
       0.024893126 0.15312743 -0.09736936 0.017139772
000390 f0 6a ba 3b 92 11 af 3d a5 5b fb bd 2e cb a7 bd
       0.0056890175 0.08548273 -0.12273339 -0.0819305
0003a0 9a cc 15 bc 25 04 b8 3d d1 43 9a bd cc 50 fa bc
       -0.009143019 0.089851655 -0.07532466 -0.030556105
0003b0 45 41 60 3c 70 9d 3f 3b fe da 1d be e8 cc 93 3e
       0.0136874365 0.0029238127 -0.1541557 0.2886727
0003c0 9a 0e ef bd fe 33 b7 3d 06 71 37 be ac 2d 2e 3e
       -0.11672707 0.089454636 -0.17914209 0.1700961
0003d0 44 4e c0 be d2 ec 80 bd 54 f2 ce be 61 18 60 bd
       -0.37559712 -0.0629517 -0.40419257 -0.05471075
0003e0 b8 82 21 be bc 71 4e 3c ac b8 4e 3d 49 5e 29 3e
       -0.15772521 0.012600359 0.050469086 0.16539873
0003f0 85 bb a6 bd 18 35 6c 3c ce 76 00 3d 0c ee 14 3e
       -0.08141235 0.014416955 0.0313633 0.14543933

network_body._body_endoder.seq_layers.0.bias f4 [256]
000000 0d 11 19 be 49 e6 21 be 34 62 5e be 42 e3 2e be
       -0.1494791 -0.15810503 -0.21717149 -0.1707888
000010 41 ce 3d be eb 49 29 3e 55 46 78 3d 21 50 54 bd
       -0.18535711 0.16532104 0.06061395 -0.05183423
000020 ef d8 ca bd a3 97 e5 bd 8a 8e 44 be 96 f7 45 be
       -0.09904658 -0.11210563 -0.19195 -0.19332728
000030 5c 99 5a bd 7f 42 76 be c3 5b 12 be 02 88 25 be
       -0.05336891 -0.24048804 -0.14292817 -0.16165164
000040 11 40 0d be 42 1d 5d 3d 38 b3 b6 be 40 d0 77 be
       -0.1379397 0.05398298 -0.35683608 -0.24200535
000050 34 5a 39 be 67 5e 18 be 18 b7 df bd a8 5a 03 be
       -0.18100816 -0.14879762 -0.10923594 -0.12827551
000060 df 22 5a 3d 2c cc 1a bd 17 c1 2f be d6 f9 4d 3d
       0.053255912 -0.03779237 -0.17163502 0.05028709
000070 84 8e 18 3e e6 f6 76 be f7 bf 6b be 4a 09 b6 3d
       0.14898115 -0.24117622 -0.23022448 0.088884905
000080 9b 08 b1 be 65 81 ca bd 1b dd 5d be 7c 65 1a be
       -0.34576878 -0.09887961 -0.21666376 -0.15077776
000090 9e 7e 88 be c8 3a f3 bd a4 b5 ad bd 7c 06 04 be
       -0.266591 -0.11876446 -0.08481911 -0.12893099
0000a0 e0 05 ca 3d 23 4e 22 3e 79 17 15 3e b6 19 94 3d
       0.09864402 0.1585012 0.14559735 0.072314665
0000b0 20 21 5f 3e 91 85 0a be b8 a0 90 bd eb 8e 4a be
       0.2178998 -0.13527514 -0.07061905 -0.19781081
0000c0 f6 7b 8e be 9e 58 45 3d a0 09 99 be 45 2f 4b be
       -0.2782895 0.048180215 -0.29890156 -0.1984225
0000d0 c2 c0 b9 bd 8a a9 97 be fb 19 d4 bd 6a a3 10 bd
       -0.09069969 -0.29621536 -0.10356518 -0.035312094
0000e0 2b fc a3 bd 64 e0 04 bd 7d e6 c2 3c 72 26 5f be
       -0.080070816 -0.032440558 0.023791546 -0.2179201
0000f0 c5 7a 22 be 00 92 9b bd 92 a2 81 be 17 ff 7a be
       -0.15867145 -0.07596207 -0.25319344 -0.24511372
000100 cf 5a 0d be 6d a4 c7 bd 78 53 3a be af 1e 9e 3d
       -0.13804172 -0.097481586 -0.18195903 0.07720696
000110 f1 e5 ee bd 8c 5c c9 bd 94 a0 43 be f8 af 24 be
       -0.116649516 -0.09832105 -0.19104224 -0.16082752
000120 25 35 03 be 33 82 e8 bd 49 70 28 be ea 2f 1e be
       -0.12813242 -0.113529585 -0.16449083 -0.15447965
000130 20 3c 68 be 86 4f b6 bc 37 3c 58 be 23 37 bf 3d
       -0.22679186 -0.022254717 -0.2111672 0.09336688
000140 86 d9 32 be 88 b5 60 be 39 73 30 be 79 cd 27 be
       -0.17465791 -0.21944249 -0.17231454 -0.16386975
000150 42 5b c4 bd 53 44 7e 3e b8 9a d6 bd 67 90 fc bd
       -0.095877185 0.24830751 -0.10478729 -0.1233223
000160 44 05 9f 3d 9f 48 07 be 3b ea 66 be 53 88 57 bd
       0.07764676 -0.13211296 -0.2255029 -0.052620243
000170 62 7b b2 bd 47 12 df 3c f0 bc 74 3d d3 ed 23 3e
       -0.0871494 0.027230395 0.059750497 0.16008691
000180 80 0b 00 3c 68 54 1a 3e f5 a3 ea bc 22 8d 43 be
       0.007815242 0.15071261 -0.028642634 -0.19096807
000190 9f a7 f9 bd 8a 21 3b be 49 fc 4b be 89 6c 89 be
       -0.12190174 -0.18274513 -0.19920458 -0.26840618
0001a0 e9 9e e5 3d db 8b 22 be 1e df 0e 3d b6 48 7a bc
       0.1121195 -0.15873663 0.03488075 -0.015276125
0001b0 e1 51 87 be 6b b7 a3 bd fe 73 ab bd 16 9e 49 be
       -0.26429656 -0.079939686 -0.08371733 -0.19689211
0001c0 5b 8a af bd 42 ff 47 be 85 37 58 be fe 05 39 be
       -0.08571311 -0.19530967 -0.21114929 -0.18068692
0001d0 25 04 0e be 59 ed a0 3c 64 4d 99 3e 6f 75 76 be
       -0.13868769 0.019644426 0.29941857 -0.24068235
0001e0 52 76 28 bd 15 fc fb bd 9c 00 9d bc 21 42 53 be
       -0.041128464 -0.1230394 -0.01916533 -0.20630695
0001f0 59 78 bc bc 5d 55 38 be 72 ae b6 3d 26 9e a2 be
       -0.023006605 -0.18001314 0.089199916 -0.31761283
000200 ac 06 89 bd ea f9 51 3d 1e 3b 7a bd 6f f9 27 bd
       -0.06690726 0.051263727 -0.061091535 -0.041009363
000210 b8 fc 1f be 19 61 82 be 65 8d 15 be b8 b6 98 bb
       -0.15623748 -0.25464705 -0.14604719 -0.0046604536
000220 80 ad af bd 16 f1 0f bd 9d 3f 52 be 13 5c 6f bd
       -0.085780144 -0.035142027 -0.20532079 -0.05843742
000230 20 32 c7 bd 6a 3e 63 be 46 6d 83 be d8 e5 c8 bd
       -0.097263575 -0.22191778 -0.25669307 -0.09809464
000240 15 73 1d be 9d b3 8e be 97 db a2 bc bf f6 30 b9
       -0.15375932 -0.2787141 -0.0198801 -0.00016876588
000250 eb ae 0f bd 73 87 ab bd 58 83 b7 3c ad 63 be bd
       -0.035078924 -0.08375444 0.022401497 -0.092963554
000260 88 0b a0 3c 99 2a 0a be 65 eb 7d be cc 3d 02 be
       0.019536749 -0.13492812 -0.24796827 -0.12718886
000270 41 0e 5c 3c 82 b1 aa bd f7 a7 2e be 03 27 45 be
       0.013431133 -0.08334638 -0.17056261 -0.19253163
000280 ed 25 f8 bd 9e a1 f1 bd ce 32 c5 3d bb a4 3a be
       -0.12116609 -0.11798404 0.09628831 -0.18226902
000290 bf 71 c5 bd 30 a1 4c be bd 6c 2b be 24 14 89 39
       -0.09640836 -0.19983363 -0.16740699 0.00026145682
0002a0 4e f0 a2 be 5e e2 0a 3d 3e 55 02 3d 42 16 9c 3d
       -0.31823963 0.033907287 0.031819575 0.07621433
0002b0 c3 2f 58 be e8 62 a4 be 7e ef f0 bd 8d 94 24 3d
       -0.2111197 -0.3210671 -0.117644295 0.04018073
0002c0 b5 96 a0 bd ed 46 cb bd ab d0 ad 3d f2 4a e5 bd
       -0.07841245 -0.099256374 0.08487066 -0.11195935
0002d0 bb 4f b2 bd b5 a7 94 be 77 74 4e be 94 e6 dc 3d
       -0.08706614 -0.290342 -0.20161615 0.10786167
0002e0 b0 84 b2 bd 8a f8 5b be af 2f d0 bd 54 89 9a bd
       -0.087167144 -0.21481529 -0.10165345 -0.075457245
0002f0 ca 97 23 be 46 c1 00 be f4 3d 70 be 72 d8 21 3e
       -0.15975872 -0.12573728 -0.23461133 0.15805224
000300 9e 08 d8 bd eb a5 35 be f2 77 1d be 7f 62 7c 3c
       -0.105485186 -0.17739074 -0.15377787 0.015404343
000310 23 62 4a be be 45 70 3c b5 79 68 be bb b9 7b 3e
       -0.19763999 0.014665065 -0.22702678 0.2458257
000320 ef f5 cf bd 82 a9 f4 3d 99 a4 ed bd 40 6f 4d be
       -0.1015433 0.119463935 -0.1160366 -0.2006197
000330 a3 62 50 bd 0b ae 02 be 16 f6 4b be 0e ef 95 bd
       -0.050875317 -0.12761705 -0.19918093 -0.07320987
000340 b5 97 04 be e0 b8 07 bd 12 9e c0 3d 05 77 19 be
       -0.12948497 -0.033135295 0.094051495 -0.14986809
000350 a9 41 fa bd 2f 3b 65 be 4e 6c 11 be 59 b6 7d be
       -0.12219555 -0.22385858 -0.14201471 -0.24776591
000360 24 03 99 bd 7f fc ed bb 4f bc 27 3e b0 5b a8 be
       -0.07471302 -0.007262766 0.16380428 -0.32882452
000370 52 7e 8c be d6 73 e1 bd 3f 1c d4 3c 78 1a fb bd
       -0.27440125 -0.11008422 0.025892375 -0.12260908
000380 10 31 e2 3c 7f 4f 30 bb 21 32 07 3d 46 18 17 be
       0.027611285 -0.0026902852 0.03300679 -0.14755353
000390 97 60 1e be 07 84 5f be 85 7f e6 bd 0b e3 49 3b
       -0.15466534 -0.21827708 -0.11254791 0.0030805494
0003a0 6f 3b 79 be 27 a3 2a be 14 58 81 bd d9 86 48 bb
       -0.24339078 -0.166638 -0.06315628 -0.0030597954
0003b0 ae 13 f9 3d 35 ed 82 bd e3 4d 2f be 3e 9f c6 bc
       0.12161957 -0.063929 -0.17119555 -0.024245854
0003c0 8e 09 c7 bd f1 dd 25 be a1 aa 27 be 4b 12 1b be
       -0.09718619 -0.16197945 -0.16373684 -0.15143697
0003d0 77 85 0b be 02 23 b5 bd 68 4c 18 be 78 ba 95 3d
       -0.13625132 -0.08844568 -0.14872897 0.07310957
0003e0 f4 62 59 bc f0 9b 17 be 4b 59 ce 3d 73 13 42 bd
       -0.013268221 -0.14805579 0.10075625 -0.04738183
0003f0 77 08 09 bd 0b 24 40 be e3 86 9f bd c1 8c 80 be
       -0.03345534 -0.1876375 -0.077893995 -0.25107387

network_body._body_endoder.seq_layers.2.weight f4 [256, 256]
000000 46 c1 79 bd 26 56 86 3d 8d b2 7b 3d 01 2d a5 bd
       -0.060975336 0.065594 0.061449576 -0.080652244
000010 31 2b 48 be dd 34 ed bd 1c fa 30 3e df 2d 44 3d
       -0.19547726 -0.115823485 0.17282909 0.04789531
000020 b2 73 e1 bd 3b c7 c0 bd 38 35 24 be 4c 15 1a 3d
       -0.11008395 -0.09413 -0.16035926 0.037617967
000030 82 11 c2 3d 46 0a 91 bd 44 48 01 bf b0 30 9b be
       0.094759956 -0.07082038 -0.50500894 -0.30310583
000040 0d 8d e0 be 25 ec eb bb 08 3a 07 3d 0a af 6d 3c
       -0.43857613 -0.0071997815 0.033014327 0.014507065
000050 1a 73 ae be 6a 93 f2 bc e6 fa ea bd fc de 95 3d
       -0.3407219 -0.029611308 -0.11473636 0.073179215
000060 71 a7 0b be 4a 6a fd 3c 10 7c 6d bc a1 d0 b8 3d
       -0.13638093 0.030934472 -0.014494911 0.09024168
000070 e9 54 f4 be 33 f2 86 bd ef 94 72 be 90 7a 82 3e
       -0.4772103 -0.065891646 -0.23689626 0.25484133
000080 c1 c6 be bc b6 2c 11 3c 87 1c 78 3e 0a 40 0b bd
       -0.023288133 0.008860758 0.24229632 -0.03399662
000090 d9 dc 16 3d 58 d5 f6 3d 76 43 dc bd 0f d0 11 be
       0.03683171 0.12052411 -0.10755055 -0.14239524
0000a0 9c f5 20 be f6 84 8b be 64 1f 2a be dd b9 91 bd
       -0.15718693 -0.2724988 -0.16613537 -0.07115529
0000b0 4a e7 91 3d 27 91 ba be 9a 57 00 3c 8c 11 86 bd
       0.07124193 -0.36438867 0.007833386 -0.065463156
0000c0 eb c9 c5 bd 15 f3 1f 3e 5d 4a 14 3e 25 c8 1c bc
       -0.096576534 0.15620072 0.14481492 -0.009569203
0000d0 df 41 46 bc d5 bc af be c6 44 a8 be c5 77 46 bb
       -0.012100666 -0.34323755 -0.3286497 -0.003028379
0000e0 78 61 12 3d b0 d1 b8 be 4a 61 ff bd 2d 9c 47 bc
       0.035737485 -0.3609748 -0.12469728 -0.012183231
0000f0 44 2b 7f bd dd 68 c8 3d 1e 54 ab be 39 a8 4f bb
       -0.06229712 0.09785626 -0.33462614 -0.0031685962
000100 d7 3d 0c bb 75 95 75 bd da b0 41 be 46 a3 54 bc
       -0.0021399164 -0.059956986 -0.1891512 -0.012978381
000110 ab 30 72 bd 9b 51 72 bd b8 5b 9f bd 35 dd e6 3d
       -0.059128445 -0.059159856 -0.07781166 0.11272661
000120 35 c1 e0 3c 3d 4f 61 bd 68 b8 80 3b 5b 5f 0b bd
       0.027435878 -0.05500721 0.003928233 -0.034026485
000130 fd 5b 04 be a7 25 dc bb 70 54 d5 3d 14 15 8a bd
       -0.12925716 -0.0067183557 0.10416496 -0.067423016
000140 22 26 b9 be e6 81 f2 3c 7b 17 1f be 59 da ab bd
       -0.36161906 0.029602956 -0.15536301 -0.08391256
000150 e8 4d d7 be ec 0f 87 be 75 41 f5 3d 05 09 12 be
       -0.42051625 -0.26379335 0.119753756 -0.14261253
000160 fe 5c 40 be d8 e9 86 3d ab 5a 70 bd 42 08 37 3d
       -0.18785474 0.06587571 -0.058680218 0.04468561
000170 75 ae e3 bc 09 bd bc 3b e9 f0 e1 be dd 39 76 bd
       -0.027793149 0.0057598394 -0.44129112 -0.060113776
000180 81 4f 82 bd a5 1e 17 be 74 69 83 3d e3 55 fb bd
       -0.063628204 -0.14757784 0.06416598 -0.12272241
000190 84 b2 3e 3d eb 56 39 3d 3d 6b a1 3c d6 0b 58 be
       0.046556965 0.045248907 0.019704456 -0.21098265
0001a0 45 9b 57 3b ab f3 ed bc a9 40 2d bc eb 43 39 bd
       0.0032898944 -0.029046854 -0.010574498 -0.045230787
0001b0 b6 77 45 be 3e c2 79 be d2 9e 1f 3d d0 db b7 bd
       -0.19283947 -0.24390504 0.038969822 -0.08977473
0001c0 b5 0a 1c 3e 40 05 6c 3e ac 74 29 bd 6a 34 9c be
       0.1523846 0.23048878 -0.041371033 -0.3050874
0001d0 96 ec 49 be f1 d0 20 3e 9b 95 1d bc e7 d4 eb bd
       -0.19719157 0.15704705 -0.009618188 -0.11515217
0001e0 49 f1 77 bd 30 f5 08 bd c0 3e a6 bd 03 0b 00 3e
       -0.06053284 -0.033436954 -0.08117437 0.125042
0001f0 57 3d 61 bd 6a 17 e6 bc c7 f1 e6 3d 8d e0 03 3e
       -0.05499014 -0.028087337 0.11276584 0.12878628
000200 10 73 34 bb 63 5c 0a be 81 fc 41 bd 66 f1 7d bc
       -0.0027534403 -0.13511805 -0.047359947 -0.015499448
000210 44 e1 b8 bb a7 30 82 3d 68 ec 5f bc 4f 79 17 3e
       -0.005642088 0.06356936 -0.0136672035 0.1479237
000220 91 47 02 be a8 00 88 3c 03 48 e7 3d 49 ce 4e 3c
       -0.12722613 0.016601875 0.11293032 0.012622424
000230 33 db 8c be 88 7e 98 be 37 42 c4 bd b6 6b 57 3d
       -0.27510986 -0.29784036 -0.09582942 0.052592956
000240 19 04 24 be d5 a2 e0 3c 91 2a b9 3d e3 ab 4e 3e
       -0.16017188 0.027421394 0.09041322 0.20182757
000250 57 a6 dd 3b 19 d0 2b be ca 63 35 bd c7 60 c8 3d
       0.006764214 -0.16778602 -0.04428462 0.09784084
000260 b6 53 f8 bd 33 19 b1 3c 4f 86 6a bd e4 a0 65 bd
       -0.121253416 0.021618461 -0.057256993 -0.05606164
000270 1a 89 20 3d 17 25 ec bc 9a bf 05 bd bd 32 24 3b
       0.03919325 -0.02882628 -0.03265343 0.0025054656
000280 f0 09 66 3d ee a1 c4 bd 14 0b 3e be 49 c4 21 3e
       0.05616182 -0.09601198 -0.18558913 0.15797533
000290 b9 02 07 be 48 df 5e bd db ad b2 3c ec b7 c3 3d
       -0.13184632 -0.054412156 0.021811416 0.09556565
0002a0 d3 63 c5 3d 9f 23 9b bc 2e d9 04 be 1e 59 16 bd
       0.096381806 -0.018937884 -0.12973472 -0.036706083
0002b0 64 3e 2c be 03 7d 83 3d f5 9a 68 3d 46 22 19 be
       -0.16820675 0.064203285 0.056788404 -0.1495448
0002c0 31 9c d8 3c 94 77 3f be 6c 45 8f be b3 1c a1 3c
       0.026441665 -0.18697959 -0.27982652 0.019667005
0002d0 b4 b4 4c bb af b7 43 be d9 2a 97 3d b2 6d 26 3e
       -0.0031235637 -0.19113038 0.073812194 0.16252783
0002e0 03 73 38 bd 43 38 11 3c b1 84 11 3d 3c 98 10 bd
       -0.04503156 0.0088635115 0.035526935 -0.035301432
0002f0 c0 22 d7 3d c8 73 d1 bc a6 50 e8 be be 99 f1 3d
       0.10504675 -0.025567904 -0.4537403 0.11796902
000300 29 f9 c5 bd f0 23 9d be e1 67 ce 3c 02 92 9d bc
       -0.09666664 -0.3069148 0.025196018 -0.019234661
000310 2e 77 66 be bd 46 88 3d a9 75 f0 3d bb 12 a7 bd
       -0.22506401 0.06654117 0.11741192 -0.081578694
000320 7f 43 5a 3e aa 60 90 bc a0 7d 15 be ca db a8 bd
       0.2131481 -0.017624218 -0.14598703 -0.082450464
000330 ee 24 a6 bd 48 f7 11 be 5e 9b d1 bc c5 82 08 3e
       -0.081125125 -0.14254487 -0.02558678 0.13331135
000340 86 be 9d 3d 58 0a 86 be 60 57 d2 bd 93 4d 42 bc
       0.07702355 -0.26179767 -0.10270572 -0.011859315
000350 7c 3d 68 bd c0 4a be bd 36 5a 4f 3d 9c 2a 25 be
       -0.05669926 -0.09291601 0.05062314 -0.16129535
000360 d7 e3 b3 3d 06 d8 84 bc 51 ef 80 bd eb 54 45 be
       0.087836914 -0.01621629 -0.06295646 -0.19270675
000370 e7 46 c8 3d 5c f9 94 3d 44 51 88 bc 84 e4 06 3e
       0.097791485 0.07274124 -0.016640313 0.1317311
000380 55 ae 25 3d d4 3d 0f bd 59 ce 10 3e 72 86 09 be
       0.04044946 -0.034971073 0.14141215 -0.13430193
000390 6d c4 4d be 54 d5 46 3e 2d f9 9d bd fe a5 1c bc
       -0.20094462 0.19417316 -0.07713542 -0.00956106
0003a0 c2 b6 2a be 10 c8 af 3d 46 62 44 3e 37 80 8b bd
       -0.16671279 0.08583081 0.19178113 -0.068115644
0003b0 ec 21 0a be 57 c3 30 be 77 68 bc bd ea 4b e6 3d
       -0.13489503 -0.17262016 -0.091996126 0.11244948
0003c0 25 66 06 bc 64 1f 93 bb 28 50 22 3d 8b 99 27 be
       -0.008203064 -0.004489826 0.039627224 -0.16367166
0003d0 90 e3 1f 3e b6 eb b1 bd 60 fe ed 3c 01 a4 c1 bc
       0.15614152 -0.086875364 0.02905196 -0.023637773
0003e0 c2 f2 82 3d ae c8 93 3d dc 5a 1a be 9e 72 d1 3d
       0.06393959 0.07216011 -0.15073723 0.102269396
0003f0 e1 cb f7 bd e9 c2 4f 3e f8 fa bb bd d3 bf e0 3d
       -0.12099434 0.20289196 -0.09178728 0.109740876

network_body._body_endoder.seq_layers.2.bias f4 [256]
000000 ef 53 2c bc eb b5 d1 bd 3a 90 1b be 59 d4 52 bd
       -0.010518058 -0.10239776 -0.15191737 -0.05147204
000010 ff 25 48 be e6 ac 18 bd 3c 2b 5c 3d 07 c1 ef bd
       -0.19545744 -0.037274264 0.05375217 -0.11706739
000020 3d 6c d1 bd 51 33 93 3d 08 94 2b be 79 b4 be bd
       -0.10225723 0.07187522 -0.16755688 -0.09311766
000030 c5 8b 87 be f8 e5 93 bd e9 d6 b2 bd 32 04 9d bd
       -0.26473823 -0.072215974 -0.08732397 -0.07666816
000040 ef 9e 26 3c 76 e0 2d be 20 f7 69 bd 19 c0 dc bd
       0.010169729 -0.16980156 -0.057120442 -0.10778827
000050 32 35 64 bd fe 79 cd bd 22 58 92 bd 0a 2a 9e bc
       -0.055714794 -0.10033034 -0.07145716 -0.019307155
000060 9c ca cc 3d f5 a6 0a bd 67 e0 14 be aa d7 e4 bd
       0.09999582 -0.03385063 -0.14538728 -0.11173947
000070 cc fb 96 bd 90 8d a4 3d ba 82 d8 bd c1 e3 42 3d
       -0.07372245 0.080348134 -0.10571809 0.047580484
000080 a4 d6 65 bd 8d 5b d2 3b b3 20 9e bc 76 b5 0d bd
       -0.0561129 0.006419605 -0.019302702 -0.034596883
000090 d2 db 05 be 30 0b 6f bc 4f b5 33 bd 86 67 bf 3e
       -0.13072136 -0.01459007 -0.04387408 0.3738367
0000a0 3d 48 3d bb 86 b8 de bd 61 50 75 bd ad cc 71 bd
       -0.0028882169 -0.10875039 -0.05989111 -0.059033085
0000b0 45 f7 db bd 7b b3 0f be 81 f0 5a bd 32 2b 8d bd
       -0.10740522 -0.1403331 -0.05345202 -0.068930045
0000c0 90 81 81 3d 95 90 3b bd 74 db 0e bd e8 55 18 be
       0.0632354 -0.04579218 -0.034877256 -0.1487652
0000d0 d4 8f 1c bc a9 41 b5 bd 86 0e 5f be f0 bb 3e be
       -0.009555776 -0.08850414 -0.21782884 -0.1862638
0000e0 26 23 0a be 7d a9 88 bd 99 6b 14 3e 05 68 06 be
       -0.1348997 -0.06672952 0.1449417 -0.13125618
0000f0 c8 1d 2b be 38 bc 24 be bb 09 7f bc 19 0a 0e be
       -0.1671058 -0.16087425 -0.015566285 -0.1387104
000100 02 eb 31 be c4 a6 bf bd 29 d6 c4 bd f3 93 39 3d
       -0.17374805 -0.0935798 -0.0961116 0.04530711
000110 a5 25 48 be f5 4e 59 bd 92 dd 0f be 1c e0 32 3d
       -0.1954561 -0.053053815 -0.14049366 0.04367076
000120 f3 d1 32 be 7b b4 63 bd a4 a4 e3 bd 78 f3 fe 3c
       -0.17462902 -0.05559204 -0.11115387 0.031121954
000130 6c e7 e2 bd 87 69 a7 bd 4d 46 96 bd 4d 32 1b be
       -0.110792965 -0.081744246 -0.073376276 -0.15155907
000140 3c 7c 0e 3d 3e b8 8a bd 90 d8 16 bc 35 73 34 bd
       0.034786448 -0.06773423 -0.009206906 -0.044055182
000150 71 2a 27 be 00 c8 3f bd ab bb f0 bd 3e 1c c5 3c
       -0.16324784 -0.046821594 -0.11754545 0.024061318
000160 1e 04 01 be 04 3d d6 bc 14 b7 b0 bd ed a1 79 3d
       -0.12599227 -0.026152141 -0.086286694 0.06094544
000170 6a bf 88 bd 48 6c c6 bd 5e fc e1 bd b7 19 18 3c
       -0.06677134 -0.09688622 -0.11034463 0.009283475
000180 6f 90 91 3b 79 e5 dc bb 82 78 c8 bd 58 ba 69 be
       0.0044422667 -0.0067412225 -0.0978861 -0.22824991
000190 8f 17 2a bd 14 97 27 3e 24 1d f1 bd d9 a9 d1 3c
       -0.041526373 0.16366225 -0.11773136 0.025593685
0001a0 4f 16 00 be 1d c2 8b 3e 79 60 c1 bd c4 d4 0d be
       -0.1250851 0.27296534 -0.09442229 -0.13850695
0001b0 c6 7f 73 bd c5 a4 01 3e 8a bd 5c bd 39 65 c6 bd
       -0.059448026 0.12660511 -0.053891696 -0.096872754
0001c0 bd 40 ba bd d6 9f 33 3e f2 1c 10 3b a4 64 15 be
       -0.09094379 0.17541441 0.002198991 -0.14589173
0001d0 30 44 bb 3a e1 a3 e4 3c ed 2b 17 be 17 44 23 bd
       0.0014287289 0.027910175 -0.1476285 -0.039859857
0001e0 a2 fa 61 bd ee 87 c2 bd 92 c8 92 bd 3d 16 c2 bd
       -0.055170663 -0.09498583 -0.07167162 -0.09476898
0001f0 57 16 af 3c e6 39 1c bc ce cb f5 3d 9e 5f 0b be
       0.021372957 -0.009535288 0.12001763 -0.13610694
000200 b0 21 cf bd fd b1 3a be 2d d6 6e bd f2 8c 70 bd
       -0.10113847 -0.1823196 -0.058309723 -0.058728166
000210 a0 db 05 bd a7 17 e7 bd 56 c9 28 be 23 6d fe bd
       -0.032680154 -0.11283808 -0.16483054 -0.1242316
000220 12 77 aa bc 54 74 54 be dc b8 2a 3d 06 cb c6 bd
       -0.02080873 -0.207475 0.041680202 -0.097066924
000230 9f 88 6a bc cd dc 06 3d 4e 25 4a 3d f1 83 48 bd
       -0.0143148 0.032925416 0.049351983 -0.048953954
000240 b1 48 ae 3d df 89 2e bd 28 6f 5d bc f6 49 aa bd
       0.085099585 -0.042611953 -0.013515271 -0.08314888
000250 ae ab 48 3d 05 df c5 ba 7e 71 91 3c 30 8f 56 be
       0.04899185 -0.0015096372 0.017754313 -0.20953059
000260 7b 8e 29 be c6 b6 8b bd d4 3d 41 bd 25 68 c2 bc
       -0.16558258 -0.06821971 -0.047178105 -0.0237313
000270 bb 40 f6 bd a3 05 a3 3c d7 ac 8e 3d 9f 22 e7 bd
       -0.12024065 0.019900149 0.0696656 -0.112859
000280 18 aa d1 bd 50 eb 48 bb f7 26 62 3d b5 bd 37 be
       -0.10237521 -0.0030657835 0.05521294 -0.17943461
000290 3b a3 f3 bc 39 49 6e bc fb 50 e2 bd 93 64 01 3d
       -0.02974092 -0.014543825 -0.11050602 0.031590056
0002a0 34 c0 66 bd 3d f9 e4 bd 5c 7f 0d be 15 30 c7 bd
       -0.056335643 -0.11180351 -0.13818115 -0.09725968
0002b0 3f 2d 20 be c3 c5 0b 3b ce c7 83 bd 14 cd ac 3d
       -0.1564226 0.0021327592 -0.06434594 0.08437553
0002c0 5e 61 05 be 7b 2f f2 bd b7 f4 61 bd f5 70 51 3e
       -0.13025424 -0.118254624 -0.05516502 0.20453246
0002d0 d3 15 f9 bd 78 14 31 bc 69 5e 91 3c 0f cc 36 3d
       -0.12162366 -0.010808103 0.017745214 0.0446282
0002e0 8b 1c b6 bd 24 b4 02 be a1 38 07 be 91 97 8a 3d
       -0.08892163 -0.1276403 -0.13205196 0.0676719
0002f0 39 5d 92 3b 65 e5 10 be f4 03 b0 bd c5 95 92 bd
       0.0044666794 -0.14150007 -0.08594504 -0.071574725
000300 e4 06 af 3c 1a 32 ae 3b fe 32 2b 3d c5 c6 98 bd
       0.02136559 0.005316031 0.041796677 -0.07459787
000310 9f c1 b1 bb e4 0b 78 bd de 1d a1 3d 07 a6 03 bd
       -0.0054246928 -0.060558215 0.07867025 -0.032140758
000320 d1 a0 b5 3c 6e 5a 10 be 20 93 dc 3c 3f de 1f 3e
       0.02217141 -0.14096996 0.026925623 0.15612124
000330 7b 3b 11 be 8f d4 ea 3c 5e 92 38 3d bf 12 dd bd
       -0.14182846 0.028665809 0.04506146 -0.10794591
000340 ac 87 8f bc ee 09 a8 bd 77 99 ea bd 5d f6 6d bd
       -0.017520748 -0.08205019 -0.11455052 -0.05809628
000350 73 48 a5 bc ac 55 fe 3b 28 ee 0a be 6c c8 32 be
       -0.020176148 0.0077616777 -0.13567412 -0.17459267
000360 2a b8 9c 3b 8a 95 94 bb f2 ef 99 bd 2b 23 c7 bc
       0.0047826963 -0.004534428 -0.07516469 -0.024308762
000370 9c df 15 bd 0d 0e b7 bd f7 c6 07 3d dd 8c 7a bd
       -0.036590204 -0.08938227 0.033148732 -0.061169494
000380 9b 83 79 bd aa 6f 86 bd cd f0 20 be 39 b3 a9 bd
       -0.060916524 -0.06564267 -0.15716858 -0.08286137
000390 aa 99 33 be 28 f9 30 3d 77 4d 29 be 8b f8 24 be
       -0.17539087 0.043206364 -0.16533457 -0.16110437
0003a0 4d 10 49 3d b8 6c 39 bd 9c fa 76 3e a5 c7 e4 bd
       0.04908781 -0.045269698 0.24119037 -0.11170892
0003b0 00 09 15 be d9 63 3c bd 17 53 02 be 00 f6 e5 bd
       -0.14554214 -0.04599366 -0.12727009 -0.112285614
0003c0 19 cd 60 3c b9 81 1c be e2 7c 0e be 1d 45 16 be
       0.013720774 -0.1528386 -0.13914827 -0.14674802
0003d0 d5 3a b2 bd f3 e5 b6 bc c6 35 12 be 84 db 07 be
       -0.087026276 -0.022326445 -0.14278325 -0.13267332
0003e0 2e bb 02 be cc 63 19 be 1a 10 b4 ba 01 36 7d be
       -0.12766716 -0.14979476 -0.0013737709 -0.24727632
0003f0 ca 58 18 be b4 fb 30 be 83 f3 ae bd 8a 36 7f bd
       -0.1487762 -0.17283517 -0.0854254 -0.062307872

action_model._continuous_distribution.mu.weight f4 [2, 256]
000000 fd 31 8d bd ad ae 36 bd 41 ec ac be ff 14 3b bd
       -0.068943 -0.044600178 -0.33773997 -0.04567432
000010 74 78 58 bd c7 18 58 3e 86 e6 47 3c 2e 85 93 bd
       -0.052849248 0.21103202 0.012200957 -0.072031364
000020 58 ee c5 bc 53 7b 1e bc 5f e6 42 3e b0 51 8c 3d
       -0.024161503 -0.0096729575 0.19033192 0.06851518
000030 c5 0b b4 3d 66 26 a6 bd f6 63 ad bd 29 60 de bd
       0.08791307 -0.08112793 -0.08466332 -0.10858185
000040 ee ee 74 3d d1 96 e7 bc b4 49 24 be 61 99 07 be
       0.059798174 -0.028270157 -0.1604374 -0.13242103
000050 b5 be d5 bc b4 e8 a3 bc 36 45 b9 bd 8c 2f f1 3d
       -0.026091913 -0.020008422 -0.09046404 0.11776647
000060 ab 75 9e bc 35 4c 64 3e f6 d6 e7 3c 73 7b cd 3c
       -0.019343218 0.22294696 0.028300744 0.02508328
000070 a8 e1 a4 bd c8 72 64 be 9c 4a 11 bf 42 00 90 bd
       -0.08050853 -0.2230941 -0.5675447 -0.07031299
000080 97 61 2a be ea 8a 61 3d fe 04 25 3e 77 8b fd bd
       -0.1663879 0.05506412 0.16115186 -0.123801164
000090 3f 2f 0b 3d 04 52 1e bd 50 f5 6f be 96 12 f0 3e
       0.033980604 -0.038652435 -0.23433423 0.4688918
0000a0 a7 d5 74 3d 2c 9e d5 3c bc 61 3f 38 6f 80 df bd
       0.059774067 0.026076399 4.562897e-05 -0.10913169
0000b0 a1 32 a8 3e e3 d9 9a 3e dd 74 63 be 23 b9 d9 3d
       0.32851127 0.3024436 -0.22212549 0.10631015
0000c0 b9 4e 8e 3d 69 29 8b bd f0 1d 09 be c1 2b 2e 3e
       0.06948609 -0.06795008 -0.13390326 0.17008878
0000d0 dc 88 79 3d 13 17 3b be e4 2e bb 3c 33 cb 87 be
       0.060921535 -0.18270521 0.022849508 -0.26522216
0000e0 fd 6b 53 be d3 4b d9 3b 99 65 50 bd 16 17 eb bd
       -0.20646663 0.0066313534 -0.05087814 -0.11479013
0000f0 64 30 3c 3d 1f f9 bf bb 6b eb 91 3d 6a 13 39 3a
       0.045944586 -0.005858555 0.071249805 0.0007060083
000100 20 06 ec bd b6 cc c5 bb f0 19 a4 bd 18 dc 3a 3d
       -0.11524606 -0.0060363663 -0.0801276 0.045620054
000110 0f d8 1a 3d 0a aa 0e 3e 37 3d 1e 3d 9b 15 89 be
       0.037803706 0.13932052 0.038632598 -0.26774296
000120 91 09 17 3d 4e a9 2a bc d3 d0 c3 bd 56 d5 9b bd
       0.036874358 -0.010416342 -0.095613144 -0.0760905
000130 cd e8 6e be ca b2 68 3e c3 80 59 be 41 35 38 be
       -0.23330994 0.22724453 -0.21240525 -0.17989065
000140 77 4e b0 3d 2a 48 a1 3c 82 ee 09 be 39 51 f8 bd
       0.08608716 0.01968773 -0.1346989 -0.12124867
000150 77 81 12 3d 61 5b 9d 3e 76 6c 11 be d5 94 12 bc
       0.035768 0.3073378 -0.14201531 -0.008946617
000160 68 84 73 3b b2 91 28 bc c0 a7 27 3e 0d 40 95 bd
       0.0037157778 -0.010288643 0.16372585 -0.07287607
000170 a9 18 a7 bd f6 3a 45 3b f1 70 f2 bd 90 1a 55 3c
       -0.081590004 0.0030094958 -0.11837948 0.013006821
000180 66 55 a8 3e 31 33 0a 3c 5f 94 05 3e a6 64 d4 bd
       0.32877654 0.008435057 0.1304488 -0.1037076
000190 63 74 1b 3e fc 41 7d 3e 62 54 43 be 5f 5f c9 3c
       0.15181117 0.24732202 -0.19075158 0.02458161
0001a0 f4 60 49 be db 1c 8b be d6 b3 05 3e ad fd ab 3d
       -0.19665891 -0.27170452 0.13056883 0.08397994
0001b0 d6 f5 ec bd 0d 1c a9 bc a9 42 d6 bd 83 41 83 bc
       -0.11570327 -0.020643258 -0.10461933 -0.01602245
0001c0 ad 58 29 3e 74 fe f7 bc 8f 70 8d 3e 04 f9 43 3e
       0.16537733 -0.0302727 0.27624938 0.1913796
0001d0 15 6d 45 bc 86 fa 78 bb 35 a1 a1 bc 3b 46 df bd
       -0.012049933 -0.003799112 -0.01973019 -0.10902067
0001e0 5f 86 f4 bd cb e8 57 3d e5 2b 2a 3e 2e ce d5 3c
       -0.11939692 0.052712243 0.16618307 0.02609929
0001f0 0a 15 09 bc 06 db a4 3a cc 03 02 bd 84 74 95 be
       -0.0083668325 0.0012577481 -0.031741902 -0.29190457
000200 57 28 23 be 33 0b ca 3b 1c 01 46 be 2b a5 bb b8
       -0.15933357 0.006165886 -0.1933636 -8.94762e-05
000210 bd 01 82 bd 3e 99 83 bc ce 14 bc bd 2b 9a 2a bd
       -0.06347988 -0.016064283 -0.09183656 -0.041650932
000220 99 fd de bd 58 64 b2 3c 7e 10 3b 3d bc 9c b9 3d
       -0.10888214 0.021776363 0.045670025 0.09063098
000230 1e 8a 06 3e 3a 91 e1 3d 82 38 6b 3e 03 a1 bd 3d
       0.13138625 0.11014028 0.22970775 0.09259226
000240 4f 87 03 bd 0e ca e7 3c 67 6a 30 3d 61 87 38 3e
       -0.032111462 0.02829459 0.043070223 0.18020393
000250 60 7e 9a bc 4f a3 70 3b de 9a 7a be 3a 73 a6 bc
       -0.018859088 0.0036718433 -0.2447314 -0.020318616
000260 e9 0d 57 3d eb 99 04 bd 7b 4c 2d 3e 21 5a 4f bc
       0.0525035 -0.03237335 0.16923706 -0.012655766
000270 de 05 8c 3d 25 26 c9 3c ec 59 2c 3b e1 7d 6c bd
       0.068370566 0.024554322 0.0026298715 -0.057737235
000280 bb a1 79 3d dc 7c be bd d2 da 16 3e 2d a0 ab be
       0.060945254 -0.09301159 0.14731911 -0.33520642
000290 93 e2 d5 bc ac 94 e9 3d 77 a8 f8 3d b1 9e 1f 3d
       -0.026109016 0.1140531 0.12141507 0.0389697
0002a0 19 a8 c2 3d 77 df e7 3d 49 f2 cf bd c6 6c 8f bd
       0.09504718 0.113219194 -0.10153634 -0.07003169
0002b0 c8 a2 73 3e 00 f9 96 bd 1a cc 29 be 9d 5a 36 be
       0.23792565 -0.07371712 -0.16581765 -0.17808004
0002c0 61 c9 a5 3c 5b 83 a9 bd 56 e4 80 bd 74 06 5a bd
       0.020237627 -0.08277007 -0.062935516 -0.05322881
0002d0 a8 0f 7e bc ef 54 da 3d 9f da c4 bc 9e d7 95 be
       -0.015506662 0.10660731 -0.024030028 -0.29266065
0002e0 0d 46 2f be e7 6c f9 bd e1 72 3f 3c 7c 00 16 3e
       -0.17116566 -0.121789746 0.011685104 0.14648622
0002f0 73 2a 04 3e be 90 9c bd 52 45 17 3e 77 cb e2 bd
       0.12906818 -0.07644795 0.14772537 -0.11073964
000300 dc 55 81 bd 70 a3 0e be 77 6c 98 3d a1 b0 d5 bc
       -0.063152045 -0.13929534 0.07442563 -0.0260852
000310 f8 dd ea 3d ab 64 91 3b a1 c8 77 bc b6 1f 36 3e
       0.114681184 0.0044370494 -0.015123517 0.17785534
000320 b9 d9 02 3e 5e 8b 2c be 76 df 5e bc d0 6f f8 3a
       0.12778367 -0.1685004 -0.013603082 0.0018954221
000330 90 a7 02 3d a6 6e b2 3c 96 e1 88 3d 1f d8 c8 bd
       0.03189808 0.021781277 0.06683652 -0.09806847
000340 42 98 b9 bd cf d0 c3 3d e7 16 87 3d f6 28 16 3e
       -0.09062244 0.095613115 0.06596165 0.14664063
000350 58 c2 f9 3c 81 e4 15 b8 0e ff 62 3d e2 2d 0f 3c
       0.030488178 -3.573718e-05 0.05541902 0.008738967
000360 67 9a a5 3d 2b 62 7e bc 37 60 ff bd 8d bb 53 3c
       0.080860905 -0.015526335 -0.124695234 0.012923134
000370 55 fe 45 bc 66 52 60 3e af 9f 62 3d 95 5f c5 ba
       -0.012084563 0.21906433 0.055328067 -0.0015058393
000380 75 06 08 3d da 60 61 3e 78 44 11 bd 94 45 64 3d
       0.033209283 0.22009602 -0.035465688 0.055730417
000390 0f 93 bc bd c0 52 a8 bd 84 8e 3d 3d ff 19 1a be
       -0.09207737 -0.08218908 0.04627849 -0.15048979
0003a0 59 3e c1 bd d0 4d 6e 3e 5e b5 9f 3c d8 0e 34 3d
       -0.0943572 0.2327187 0.019495662 0.04395947
0003b0 70 19 33 3d cb ce 93 bc af c2 50 3c e4 3b 3f be
       0.04372543 -0.018042943 0.012741729 -0.1867519
0003c0 d4 5c e2 bd 06 93 63 bc db 69 83 3a 70 34 a3 be
       -0.11052862 -0.013890034 0.0010026054 -0.31875944
0003d0 59 24 d3 bd 99 d6 cc bd 8a 1d 46 bd 25 aa 92 bd
       -0.10309667 -0.10001869 -0.048368014 -0.07161359
0003e0 95 32 53 3c 26 1f fa bd 57 39 22 39 c4 ef 2a bc
       0.012890478 -0.12212972 0.00015470885 -0.010433141
0003f0 8c 12 15 3f 65 ae bd bd d8 63 44 bd af 76 82 3c
       0.58231425 -0.09261779 -0.04794678 0.015925733

action_model._continuous_distribution.mu.bias f4 [2]
000000 62 c1 39 3e 8b 36 d4 bd
       0.18140176 -0.10361966

action_model._continuous_distribution.log_sigma.weight f4 [2, 256]
000000 88 1d 29 bc cb f5 00 bc f2 1f 97 3b 9c 5f b7 ba
       -0.010321982 -0.007871102 0.0046119625 -0.0013990286
000010 dc af ca 3c 18 da fd 39 46 c3 01 bb df 0a 7a 3c
       0.02474206 0.00048418413 -0.001980023 0.015261381
000020 24 e5 66 bb 4b bf 74 b8 b4 8f f6 3c 5c 50 33 3d
       -0.0035231793 -5.835229e-05 0.03009782 0.04377781
000030 c0 ea b4 3c 0f 86 f1 3c 85 8e d8 3c b9 f8 e7 3c
       0.022084594 0.02948287 0.026435146 0.028316842
000040 a3 ec 82 3c e3 3f 02 3b 84 cb 1e 3d 2e ac 9f 3b
       0.015981978 0.0019874505 0.038768306 0.0048728203
000050 e4 16 86 3c 2e fa e9 bb f8 41 0d bd a5 31 83 3c
       0.016368337 -0.0071404194 -0.03448674 0.016014883
000060 b9 a1 08 bb 31 f9 b9 ba 31 b0 bb bc d4 72 ee bc
       -0.0020848347 -0.0014188645 -0.022911163 -0.029107489
000070 da 36 d5 3c d4 75 ab 3c 20 86 38 3b 57 51 92 3a
       0.026027132 0.020930208 0.0028156117 0.0011163157
000080 ca c5 c7 3c b7 8d 49 3c 98 1e 8e bc 41 02 64 3e
       0.024386305 0.012301854 -0.017348573 0.22266485
000090 51 14 62 bc a0 4b 20 bc 2f 1f 07 3d 66 a0 10 be
       -0.013798789 -0.009783655 0.032988723 -0.14123687
0000a0 c0 c4 7f 3c 0b cb 86 3b c4 df 08 3c e5 26 97 3b
       0.015610874 0.00411356 0.008354131 0.004612791
0000b0 23 d8 a4 3b 1c f4 45 bd 40 98 22 3d 94 d2 0b bd
       0.0050306483 -0.048328504 0.03969598 -0.03413637
0000c0 05 90 af b9 c5 73 8e 3c 9b 4e de 3d 70 06 24 3d
       -0.00033485904 0.017389188 0.108548366 0.0400452
0000d0 b9 4c 8d bc 09 95 11 bc 3c 5c c2 3c 35 91 ca bc
       -0.017248498 -0.00888563 0.023725621 -0.024727443
0000e0 21 8e 39 bd 61 89 dc 3b ca ed 60 3c 0e ec 17 bc
       -0.04530156 0.006730244 0.013728568 -0.009272588
0000f0 a7 03 96 3a 13 5a 97 3c f6 be fb bb 45 af 92 3b
       0.001144518 0.018475568 -0.0076826764 0.00447646
000100 6a 42 c5 bb a1 bb b0 bc b7 76 d6 3c 87 60 d4 3b
       -0.00601988 -0.021573843 0.026179655 0.0064812335
000110 f4 c8 16 3d 11 7e 15 3b 0b 49 94 bb 62 e7 78 3c
       0.036812738 0.0022810737 -0.004525309 0.015191885
000120 a4 d4 ec bb a7 98 40 ba 91 4b f9 bb 49 8c 17 bc
       -0.007227497 -0.0007346966 -0.007607885 -0.009249755
000130 45 ea 9b 3b e2 a7 d4 bc bc 63 ca 3b f0 fe d1 bc
       0.0047581517 -0.025958959 0.00617644 -0.025634259
000140 e8 a2 3c 3c 45 a4 b8 3c 07 cf 9e bc e1 30 b2 3a
       0.011513449 0.022539267 -0.019385828 0.0013594889
000150 1a 9e 36 bb 74 cc eb bb 80 03 f4 3c f1 f3 d7 39
       -0.0027865232 -0.0071960036 0.029786825 0.00041189746
000160 4f ea 0f 3a b9 75 36 bc f4 7c 56 3d 7f 80 b4 bb
       0.0005489932 -0.011136466 0.05236526 -0.005508482
000170 26 b8 28 bb 44 2f 90 3c 58 ba 49 3c d9 d3 f6 3a
       -0.0025744527 0.017600663 0.012312494 0.0018831446
000180 69 0a e2 ba 38 76 09 3b 0d ce de bb 5e 0c 19 bd
       -0.0017245534 0.0020975005 -0.0067994655 -0.03736531
000190 0c 6b 47 3c 29 a5 4d 3c db 70 e9 bb 41 62 6e 3c
       0.012171518 0.012551584 -0.007124049 0.014549793
0001a0 7b 44 44 3b ad 8d a5 3c 36 47 1f bc 23 e0 38 bc
       0.0029948044 0.020209158 -0.009721568 -0.011283907
0001b0 63 1c a1 3c 78 77 03 3c f6 0b 78 bb 20 62 02 3c
       0.019666856 0.008024089 -0.0037848926 0.007957965
0001c0 f4 d5 78 3c fc bd 38 bc a2 26 85 bd 78 88 f1 ba
       0.015187729 -0.011275765 -0.06501509 -0.0018427512
0001d0 a9 a4 b9 b9 11 5f 4a 3c b1 19 83 3c 1b c0 e0 ba
       -0.0003540863 0.012351767 0.016003462 -0.0017147096
0001e0 4c e5 97 3d 89 ce 67 3d 96 70 4e 3c 9a 6b a0 bb
       0.07416782 0.05659345 0.012600085 -0.0048956396
0001f0 08 70 0a 3a 3f a2 dc 3b df 68 9f 3b 84 89 c8 3d
       0.0005280976 0.0067332084 0.0048647965 0.09791854
000200 d7 1c 07 bb 6d 1b ec 3d ac d0 bd 3c a0 5b fb 3b
       -0.0020616555 0.115286686 0.023170792 0.0076708347
000210 a1 c9 ab bc 1a 7b f0 bb 3a 61 59 3c 43 fc 02 bc
       -0.020970168 -0.0073388936 0.0132678095 -0.007994714
000220 3d 2e 0f ba b4 bf 87 bc ae 8e 8b bc c3 20 c2 bc
       -0.0005461907 -0.016570903 -0.017035808 -0.023697263
000230 cd 71 c3 3c b7 8b 19 bc c4 ea 03 3d c1 27 16 bb
       0.023857975 -0.0093716895 0.03220631 -0.0022911879
000240 93 05 c7 3b ac e9 50 bc d0 c7 51 ba 92 f9 39 3d
       0.0060736625 -0.012751024 -0.00080024917 0.045404024
000250 88 e4 8e ba ab f7 8e bc 1e 56 a6 3b 5b 34 f0 3b
       -0.0010901848 -0.017452082 0.005076184 0.00733046
000260 c9 f5 02 3d 77 3d 07 3c 7a d7 18 3c 3d 84 5c 3a
       0.03197268 0.0082544 0.009328717 0.0008412039
000270 55 14 40 3c 62 6e 17 bc 20 80 1f 3c e7 6c 0d 3c
       0.0117235975 -0.009242626 0.009735137 0.008631921
000280 78 a3 f8 bb 0a a4 42 3c f5 74 90 bc 6d d9 87 3d
       -0.0075878464 0.01187993 -0.017633894 0.066332676
000290 ac a3 2a bb a4 98 32 bc 01 b6 3e 3c 14 63 06 bc
       -0.0026037497 -0.01090065 0.011640073 -0.008202333
0002a0 4d 8f 39 bd 1b 5c 5f bc 29 8f 24 3b 21 e5 fb 3a
       -0.045302678 -0.0136327995 0.0025109744 0.0019218066
0002b0 d5 61 5f 3c fe 34 25 bd d7 2a 95 bc b5 b7 01 3d
       0.013634165 -0.04033374 -0.018208904 0.031669337
0002c0 6e 97 84 bc ff a2 8f 3b 2e 75 7d 3d a7 66 89 3c
       -0.016185489 0.0043834443 0.06187933 0.016772581
0002d0 df df 7c 3b 2b ea 9c 3b 3e 92 e3 3b d9 33 04 3d
       0.0038585586 0.004788657 0.0069449237 0.03227601
0002e0 c4 46 8f ba 97 e4 1b b9 50 8f fa 3b 9d 25 03 3d
       -0.0010931124 -0.00014867108 0.0076464787 0.032018293
0002f0 64 93 85 39 9d 3f 0f bc 8f d9 da 3b 78 dd ec 3b
       0.0002547755 -0.008743194 0.006678767 0.0072285496
000300 c0 50 00 3c 4c 77 5a 3c 1f 0f 98 3b 4d 12 06 3c
       0.007831752 0.013334107 0.0046404744 0.008183074
000310 28 2b 67 3c 54 fd 12 3d 86 99 1d bb 87 05 88 3d
       0.01410941 0.035886124 -0.0024047806 0.06641679
000320 e6 f6 a3 3c ed 9a af bc 56 5d d0 bb c7 98 9a ba
       0.020015191 -0.021436179 -0.0063587828 -0.0011794799
000330 9a 06 cf ba 86 6e 1e bc 66 37 dd bb 16 1f 99 3c
       -0.0015794814 -0.0096699055 -0.006750989 0.01869158
000340 7f b7 84 39 6d 7b b7 bc f1 99 ae 3b a2 5b 57 3c
       0.00025313717 -0.022397721 0.00532841 0.013144406
000350 90 5f 26 bc 69 e3 b8 3b 63 14 1a 3c b9 d5 bf ba
       -0.01015462 0.005642344 0.009404275 -0.0014635838
000360 0c 74 4a bb 75 44 5d bb db 71 2b 3d e3 63 8d bb
       -0.0030891923 -0.0033762727 0.041856628 -0.004314886
000370 65 c2 0c bc 78 64 35 bb 78 b0 e8 3d ee 3b da 39
       -0.008591269 -0.0027678292 0.11361784 0.0004162485
000380 1e f9 7c 3b 00 86 d2 3b 7c 1a 9a bb 19 0d ee 3b
       0.0038600634 0.0064246655 -0.004702864 0.007264745
000390 f8 3e 8b bc 1d 18 b7 3a 56 0c 55 3d 18 9e fa 3c
       -0.0169978 0.0013968978 0.052013718 0.030592963
0003a0 50 b4 56 bb 1b 47 4a bc b1 02 28 bc 3c 32 de 3b
       -0.0032761283 -0.012346054 -0.010254548 0.0067808907
0003b0 f3 05 f4 ba 51 2b 57 3d f2 b8 9c 3c 8e db ba 3b
       -0.0018617496 0.052531544 0.019131158 0.0057024425
0003c0 ca 93 59 bb 9f ff 94 3b b8 6b 90 bc f2 01 89 3a
       -0.0033199661 0.004547074 -0.01762949 0.001045285
0003d0 f1 ec 8d bb 86 da 35 ba e5 9b a4 3c f3 14 87 bb
       -0.004331224 -0.00069371646 0.020093868 -0.0041223704
0003e0 2a 35 30 bb 98 f7 ea 3c db b0 12 3b 4d a4 81 bc
       -0.0026887157 0.028682515 0.0022383246 -0.015825415
0003f0 10 86 92 3c d6 bf 86 3c 48 5c d6 3c f7 e1 2a 3c
       0.017886192 0.016448896 0.02616705 0.010429851

action_model._continuous_distribution.log_sigma.bias f4 [2]
000000 4e 4a 5c bf 6c 7a 3c bf
       -0.8605088 -0.736243

action_model._discrete_distribution.branches.0.weight f4 [2, 256]
000000 00 4a f5 3d 48 88 7a 3e 9f b8 03 bf e3 d4 92 3e
       0.11977005 0.2446605 -0.51453584 0.28678045
000010 6a 0e aa be b7 1a 40 be 6e 11 19 3e 5f 36 87 be
       -0.33214122 -0.18760191 0.14948055 -0.2640867
000020 c9 a3 12 3e e8 e7 2c be 57 85 0d be ba cf 14 be
       0.14320292 -0.1688534 -0.13820396 -0.14532366
000030 71 92 82 be 39 52 85 be e0 ef fd 3d 06 56 88 3e
       -0.2550235 -0.26039293 0.12399268 0.2662813
000040 f0 48 6d 3e 85 ff 7f be 39 91 75 be e3 68 05 3e
       0.23172355 -0.24999817 -0.2398118 0.13028292
000050 84 16 8b be a8 4e c5 be 0a 27 1a 3e 81 9f 02 3e
       -0.27165616 -0.38536572 0.15053955 0.12756158
000060 d8 14 07 3f 27 09 19 3e 55 11 c8 be 25 36 f6 bd
       0.5276618 0.14944898 -0.39075723 -0.12022046
000070 35 c8 2b 3e d4 b7 15 bc aa 17 8b 3e d6 97 60 3e
       0.16775592 -0.009138066 0.27166492 0.21932921
000080 d1 19 c0 be d1 da 9c 3e 62 a9 c5 be 1a f9 f4 be
       -0.37519696 0.30635694 -0.3860579 -0.478463
000090 00 17 17 bd 15 26 9f be c9 83 4e 3e fa aa 58 3f
       -0.03688717 -0.31083742 0.2016746 0.8463589
0000a0 8e 0a 82 3e e1 17 87 be 1e 94 80 3e ad aa aa be
       0.25398678 -0.26385406 0.25113004 -0.3333334
0000b0 97 d9 f8 3d b9 79 ca bd b3 3d f6 3d 1e fb d3 3d
       0.12150877 -0.09886498 0.12023487 0.10350631
0000c0 4b 03 06 bf 6b 17 d8 3e 69 5e b0 be fe c1 af be
       -0.52348775 0.42205366 -0.3444703 -0.34327692
0000d0 44 c8 60 be 67 3b 6a 3e 80 b8 23 be 6e 37 2f be
       -0.21951395 0.22874223 -0.1598835 -0.17110988
0000e0 eb 5c 00 3d 8b a7 26 bf da fe 32 3f 8e 37 81 be
       0.031338613 -0.650994 0.6992012 -0.25237697
0000f0 1c 95 21 be 7e 1d 94 be 53 08 f6 3e 5b 44 52 be
       -0.15779537 -0.2892875 0.48053226 -0.20533888
000100 90 99 bd bd 5f 64 61 3e b1 5c 34 be 14 24 85 3e
       -0.09257805 0.22010945 -0.17613484 0.26004088
000110 05 50 5f bd 5b d2 82 bd d3 13 39 be d7 4d 95 bc
       -0.054519672 -0.06387778 -0.18073969 -0.018225593
000120 ce 89 b6 bd bb 9c b4 be 81 ff 30 be 09 31 ba 3e
       -0.08913003 -0.35275826 -0.17284967 0.36365536
000130 e7 27 48 be 67 89 a6 bd 04 d7 93 3e 75 f7 ae 3d
       -0.19546472 -0.08131676 0.2887498 0.085432924
000140 59 b2 96 3e f6 38 7f be 92 89 99 3e 42 59 ef bd
       0.29432943 -0.24924073 0.2998777 -0.116869465
000150 87 b3 a4 be 34 52 9d bd 1f 7c 4d be 86 8e 8a 3e
       -0.32168218 -0.076816946 -0.2006688 0.27061862
000160 4e 39 77 be 2a 4c 0e 3e e5 49 27 3e 95 8a 1f 3e
       -0.24142954 0.13896242 0.16336782 0.15580209
000170 25 ce d9 b9 04 6b 78 be 85 fe 9b be 3a 6e 17 3e
       -0.00041543055 -0.24259573 -0.3046762 0.14788142
000180 9d 2c a7 3e 93 65 4f be b9 ec 92 be 19 fc dc bc
       0.32651225 -0.20253591 -0.2869623 -0.026975678
000190 8a 9a 8d 3d 18 41 9a 3b 95 ba 6b be 73 d8 0f bf
       0.069142416 0.004707467 -0.23020394 -0.5618965
0001a0 ba 0f 84 be a9 8f c7 bc 92 90 81 bc 72 d9 b4 be
       -0.25793248 -0.024360495 -0.015816007 -0.35322148
0001b0 dd 86 84 3e 83 07 9a bd c1 aa 91 be fb bc f0 be
       0.25884143 -0.07520964 -0.28450587 -0.4701918
0001c0 73 4c 15 be f7 db 11 3f 4b 0f 23 3e 84 c6 e1 bd
       -0.14579944 0.56976265 0.15923803 -0.11024192
0001d0 de e3 bd be 1e de 97 3e 21 26 8c be 7c 6c 7e be
       -0.3708791 0.2966165 -0.2737284 -0.24846071
0001e0 0d b9 85 be ae 43 77 be e6 a9 f4 3d d8 82 c5 be
       -0.26117745 -0.24146912 0.11946468 -0.38576388
0001f0 76 8d 3e 3e bd 5f 6f 3e 8a 68 6d 3d 06 a5 50 bd
       0.1860865 0.23376365 0.057961024 -0.05093863
000200 f0 e9 34 be 4e 03 72 be ac c5 0b bd 3e ff 95 be
       -0.17667365 -0.23634073 -0.03412406 -0.29296297
000210 f5 98 81 3e da a2 94 be 65 4b 2f be 69 db b2 be
       0.2531201 -0.29030496 -0.17118604 -0.34933022
000220 10 be ff 3d eb 50 8b be af c1 4c 3e 6e b5 6c 3e
       0.124874234 -0.27210173 0.1999576 0.23116085
000230 48 96 53 be bf 84 86 3d 8f d3 1c 3e 86 f8 3e 3e
       -0.20662796 0.06568288 0.15315078 0.18649492
000240 c3 86 11 3e a5 15 a3 be 73 3a bd 3e fc 8f a4 be
       0.14211564 -0.3185245 0.36958656 -0.321411
000250 06 09 ec be 97 c4 c6 3e f5 15 3a 3e 8f 29 c0 be
       -0.46100634 0.3882186 0.18172438 -0.37531707
000260 5d 4f 64 be dd 23 bb be 5a ba ea 3d 76 b1 d1 be
       -0.222959 -0.365508 0.11461325 -0.40955704
000270 a3 d5 60 be f0 1d 95 3e 68 51 1a be 24 12 1b 3e
       -0.21956496 0.29124403 -0.15070117 0.15143639
000280 a4 e7 66 3e 07 e3 cb 3e 50 91 86 3e d0 51 31 be
       0.22549301 0.39821646 0.2628274 -0.17316365
000290 0b 2e f3 be fa ab 24 3e b4 b9 a0 be 79 4f 20 3e
       -0.47496065 0.16081229 -0.3139168 0.15655316
0002a0 8a 24 c4 3d 03 ae b4 be d4 11 40 be ea 1e a7 be
       0.09577282 -0.3528901 -0.18756801 -0.32640773
0002b0 45 ea ca be ef 39 29 3e 77 27 c3 3d f1 13 11 be
       -0.39631858 0.16526006 0.09529012 -0.14167763
0002c0 2a 51 69 be 7e e3 cc be 7d 0f c9 3d f9 00 ab 3e
       -0.22784868 -0.40017313 0.09817407 0.3339918
0002d0 01 50 d9 be 49 ee 53 3e 30 17 5e be b0 08 dd bc
       -0.4244385 0.20696367 -0.21688533 -0.026981682
0002e0 b3 8d 17 3e ff 6d 30 3e 1c f0 cb be 69 d2 74 3d
       0.14800148 0.1722946 -0.39831626 0.059770975
0002f0 aa b1 b0 bb 47 b8 58 3e c2 58 ed bd f7 e6 55 3e
       -0.005392273 0.21164046 -0.11589195 0.20888887
000300 f5 8c 75 3e 1a 02 94 3e 69 62 29 3b 3f d6 23 3e
       0.23979552 0.28907853 0.002584601 0.15999697
000310 c7 d6 ec 3d 3a 47 75 be 64 07 65 be a9 fb b2 3d
       0.11564403 -0.23952952 -0.223661 0.087394066
000320 08 03 86 3e 0a f0 20 3e 7f b6 d1 be 0e b5 21 bf
       0.26174188 0.15716568 -0.40959546 -0.6316689
000330 c3 37 99 be 52 7b 0d 3e 39 c4 2a 3e 47 a8 6f be
       -0.29925355 0.13816574 0.16676416 -0.23404036
000340 8e 00 e1 3e bc 03 3c 3e 1a 22 37 3d 18 1e 08 be
       0.43945736 0.183608 0.044710256 -0.1329273
000350 56 b6 ca be 87 98 77 bd 82 dc 9f be 51 66 94 be
       -0.39592236 -0.060448196 -0.31222922 -0.2898431
000360 90 1d 2d 3e ab 48 99 3e e0 9a 2a 3e 2f e1 8c be
       0.16905808 0.29938254 0.16660643 -0.2751555
000370 3f ac 22 3e bb 15 3d 3e 0e 20 72 3e 1f 27 38 3e
       0.15886019 0.18465321 0.2364504 0.17983674
000380 62 f8 d5 be ea b5 e7 3c b0 92 a5 be db 46 a6 be
       -0.41791064 0.028284986 -0.32338476 -0.32475933
000390 36 70 a7 3d 8e 40 95 bc aa a6 76 bc a6 54 da bd
       0.081756994 -0.018219259 -0.015054384 -0.10660677
0003a0 59 72 fb 3e d2 8b b5 be fb af f4 3e 66 30 a0 3e
       0.49110678 -0.35458237 0.47790512 0.31286925
0003b0 43 10 ad be e8 3e 87 3e cd da 88 be 88 e4 d5 bd
       -0.3380147 0.2641518 -0.26729432 -0.104439795
0003c0 4a 35 2a 3e af 48 9a be f2 eb 6b 3e 94 a3 00 be
       0.1662189 -0.30133578 0.23039225 -0.125624
0003d0 4d 65 e0 3d eb ff 8b 3d 88 e9 fc 3d 86 c6 5e 3e
       0.109568216 0.06835922 0.1234923 0.21755418
0003e0 d2 6a 75 be 1c be 58 be 0f 60 d5 be d7 89 8c be
       -0.2396653 -0.21166271 -0.4167485 -0.27448913
0003f0 fe ab 98 3e df 97 63 be 2d be c7 be ae 56 b6 be
       0.2981872 -0.22225903 -0.3901228 -0.35613006

action_model._discrete_distribution.branches.0.bias f4 [2]
000000 7b 8a 34 3d 20 90 34 bd
       0.044077378 -0.04408276
