Assets/Attack.onnx (onnx, 942689 bytes, 10 tensors)

network_body._body_endoder.seq_layers.0.weight f4 [256, 650]
000000 a0 2f 9e bd 42 96 ea bc 26 71 36 bd a5 f6 45 bd
       -0.077239275 -0.028636102 -0.0445415 -0.04833092
000010 dc 86 10 bd 00 7d 53 be 50 a4 4e 3d 3c 68 ed 3b
       -0.035284862 -0.20653152 0.05044967 0.0072450917
000020 cb d2 14 bc 71 d9 ff 3d 31 b9 b7 be 21 6c 29 bd
       -0.00908346 0.124926455 -0.35883477 -0.041362885
000030 79 61 9a be 09 9c 78 bd 04 e0 33 be 65 6d ac bc
       -0.3015249 -0.06069568 -0.17565924 -0.021048257
000040 4c cf 19 be 71 fb f5 bd 82 3a 6e be d6 89 ab 3c
       -0.15020484 -0.12010849 -0.23264506 0.020939749
000050 74 d4 db bd a9 76 0f be 92 06 f0 bd 0d 39 ee bc
       -0.107338816 -0.14010109 -0.11720003 -0.029079938
000060 b6 b4 db bb dd ae 51 3d 1a 7e ca bc 9a a8 7d bd
       -0.006704892 0.051192153 -0.024718333 -0.06192837
000070 e4 3c b1 bc ea a4 a2 bd f2 a4 5b 3d dc 5b 99 bd
       -0.02163548 -0.07941611 0.0536241 -0.07488224
000080 58 aa e3 3d ad 5f 96 3c 5a 7a 9f 3b e2 f1 d2 3d
       0.11116475 0.018356169 0.0048668804 0.10300042
000090 f1 77 b9 be ea b6 c1 bc d1 2d b0 be 00 64 f9 3a
       -0.3622432 -0.02364679 -0.34409955 0.0019026995
0000a0 06 7d 2c be 7d b9 78 bd 71 0c d2 bd 3c 7d 15 be
       -0.16844568 -0.06072377 -0.10256279 -0.14598554
0000b0 84 d8 07 be b0 71 9d bd 02 7a 1e be 90 96 c6 bd
       -0.13266188 -0.076877 -0.1547623 -0.09696686
0000c0 f0 97 ff bd 21 ce 0e bd 18 4a 41 bd f2 0d 44 3d
       -0.12480152 -0.03486455 -0.047189802 0.04786486
0000d0 94 09 b2 3c c1 6f 29 3d 9c 69 91 bd ba 90 12 bd
       0.021733083 0.041366342 -0.071002215 -0.035782553
0000e0 4f 1d bc 3d ed d8 f9 bd e4 15 cd 3d 3e 48 a2 3d
       0.09185278 -0.121995784 0.10013941 0.07923935
0000f0 39 bd 6b bd 31 aa af 3d c5 32 d6 be b0 2b 94 3c
       -0.057553504 0.08577383 -0.4183561 0.018087238
000100 34 14 af be 77 9b a6 3c 8c 2c 4e be ed d6 94 bd
       -0.341951 0.020337803 -0.20134181 -0.07267556
000110 e8 4d 25 bd 80 6b da bd bd 10 cb bd ae 49 ee 3b
       -0.0403575 -0.10665035 -0.09915302 0.007271967
000120 f2 0d 67 be fd 27 aa bd 70 d8 dc bd 0d 1b 65 bd
       -0.22563913 -0.083084084 -0.1078347 -0.055934
000130 4a d6 01 3d 08 cd f3 3c 61 65 f2 bc 89 b0 6c 3d
       0.031698503 0.029760852 -0.029589357 0.057785545
000140 11 a6 c2 bc dd 74 2e bc 54 78 4c 3d 40 09 a3 bd
       -0.023760827 -0.01064798 0.04991944 -0.07960749
000150 98 66 f3 3d 1b a1 de 3d bb 40 b9 bd b6 8d e7 3d
       0.118848026 0.10870572 -0.090455495 0.11306326
000160 90 4d a3 be 16 7b 2c bd 1e 2f b1 be 0c ed 8d bb
       -0.31895113 -0.04210957 -0.3460626 -0.0043312367
000170 a9 06 5a be 0c e2 0f bd 35 a4 2b 3d 05 6b 8d bd
       -0.21291603 -0.035127684 0.041904647 -0.06905178
000180 6e 33 b0 bd 43 97 8d 3b 50 a8 64 be ed 3f 82 bd
       -0.086035594 0.0043210103 -0.22329831 -0.06359849
000190 53 90 b4 bd 95 08 a7 bd 7a 0d 6a bb 81 43 2c bc
       -0.0881659 -0.08155934 -0.00357136 -0.010514141
0001a0 a2 46 6a bc 38 33 63 3d 61 19 75 bd ce 77 5a bd
       -0.014299067 0.055468768 -0.059838656 -0.05333691
0001b0 dd 88 57 3d 41 74 13 be 84 31 a8 3d 3d 0b 64 3e
       0.052620757 -0.14399816 0.08212569 0.22269912
0001c0 a5 cf 04 bd 48 31 44 3e 5f 61 aa be 9e c9 1b 3c
       -0.032424588 0.19159424 -0.33277413 0.0095085185
0001d0 59 8d a5 be 13 9a a7 bc e7 95 cf bd d1 cf a2 3d
       -0.32334402 -0.02045921 -0.101360135 0.07949794
0001e0 88 24 12 bd 94 c2 1d bd 59 7c 41 bd 6c 35 33 3c
       -0.03567937 -0.038515642 -0.047237728 0.01093803
0001f0 27 1d 77 be 33 f5 24 bc 57 1c 31 be e4 e5 01 bd
       -0.24132214 -0.010068226 -0.17295967 -0.03171338
000200 c0 f2 c3 bc 4a ee ad 3d db c5 3e 3d c1 a3 99 bc
       -0.023919463 0.08492716 0.04657541 -0.018754842
000210 8d bc 81 bd c8 66 4c bc 3c 80 d8 3b 77 f0 c3 3b
       -0.06334791 -0.012475677 0.0066070836 0.0059795934
000220 61 23 c9 bc ab fd 33 3e 50 43 76 bc 65 76 da 3d
       -0.024553003 0.17577235 -0.015030697 0.10667113
000230 b5 75 c9 be ca 81 68 3c 94 54 bd be e9 73 80 3d
       -0.39347616 0.0141911 -0.3697859 0.06272108
000240 36 73 ba bd a0 d6 1b 3d 4e 58 f5 3d c0 44 94 3d
       -0.09104006 0.03804648 0.119797334 0.072396755
000250 ba ad 89 bd 48 e3 1e 3d 86 2b b8 bd f0 57 01 bd
       -0.06722589 0.03879097 -0.089926764 -0.031578004
000260 2b 53 36 be c4 44 ae bd 38 fe 22 bd f2 60 79 3d
       -0.17805164 -0.0850921 -0.039793223 0.06088347
000270 4e d6 8f bd 9c 36 72 3d ff 64 16 3c 70 ae 45 3c
       -0.07023297 0.05913411 0.009179353 0.012065515
000280 b2 a5 4e bb 1f 6a fb 3c 67 7b d0 bc 5b c3 2a 3e
       -0.0031531868 0.03069025 -0.025449468 0.16676085
000290 90 2c 05 be a8 8c 40 3e 74 58 b5 be ca 83 f4 bc
       -0.1300528 0.18803656 -0.35419047 -0.029847998
0002a0 c5 5b c9 be 42 7c 05 bd e1 f5 8f bd 67 8c 82 bd
       -0.39327827 -0.032589205 -0.070293196 -0.06374436
0002b0 13 bd fa 3c 38 90 27 3d 62 b6 e0 3c 5b a3 86 3c
       0.030607736 0.040909022 0.027430717 0.016435316
0002c0 f1 7f 98 bd ca 02 6f 3d 40 2a 06 be 03 67 02 bc
       -0.07446278 0.05835227 -0.13102055 -0.00795913
0002d0 42 54 27 bc 22 31 a0 3d 9d 50 99 bd 40 41 7f 3d
       -0.01021296 0.07821871 -0.07486079 0.062318087
0002e0 0e 61 6b bc f3 3c 80 3d 88 6d 44 3d d1 c7 64 3d
       -0.014366401 0.06261625 0.04795602 0.055854622
0002f0 39 fe 07 bd 55 50 48 3e a0 57 8f 3b 49 7f 0a 3e
       -0.03320143 0.19561894 0.0043744594 0.13525118
000300 3a 7b b5 be 97 39 d6 3c 0b e3 c6 be ec 5c 54 bd
       -0.35445577 0.026150508 -0.38845095 -0.05184643
000310 48 a4 31 bd a5 ff a1 3c 61 82 d1 bc f9 97 00 3e
       -0.04336956 0.019775221 -0.025574865 0.12557973
000320 29 f5 86 3c 64 88 75 3d f6 93 bd bd 90 7d 12 3e
       0.016474323 0.059944525 -0.09256737 0.14305711
000330 e0 7f a6 bd e9 0f 10 bd 47 5c 66 bd 7d ef 2b bd
       -0.08129859 -0.035171423 -0.056240346 -0.04197644
000340 5c f3 a6 bd 85 90 ea ba e1 2c ad 3c 64 5e 99 3d
       -0.08151886 -0.0017895853 0.021139564 0.07488707
000350 ce 2c c3 3d 10 21 e2 3d 43 2a f7 bd c7 87 70 3e
       0.0953003 0.110414624 -0.12068608 0.23489295
000360 29 2f 63 bd e8 c0 39 3e 22 5f ac be b7 a0 81 bb
       -0.055464897 0.18139994 -0.3366633 -0.0039559263
000370 0b e4 83 be cb b2 3d bd 3b b9 66 bd 0e 11 ee 3c
       -0.2575992 -0.04631309 -0.056328993 0.029060867
000380 bc 6f 4c bd 44 f7 e1 3d f6 8c cc bd b5 68 8c 3c
       -0.049911246 0.1103349 -0.09987824 0.017139772
000390 7a 9f 13 bd 92 f0 5f 3d 61 68 b6 bd 82 3b 06 bd
       -0.03604076 0.054672785 -0.089066274 -0.032771595
0003a0 26 d1 f2 bc ef e4 ff ba 98 04 45 bd d4 5a bc 3b
       -0.029640745 -0.0019523184 -0.048100084 0.0057481322
0003b0 ec c3 2b 3c af 94 33 3c 7f 20 84 3d 33 2e 2f 3e
       0.010483723 0.010960742 0.06451511 0.17107467
0003c0 79 4f 1b be b3 55 7a 3e 66 e9 96 bd 36 18 24 3e
       -0.15167035 0.24446754 -0.07368736 0.1602486
0003d0 fb 6d 9f be d2 ec 80 bd a9 00 ae be 61 18 60 bd
       -0.31138596 -0.0629517 -0.3398488 -0.05471075
0003e0 fa 0c f0 bd bc 71 4e 3c f2 cc 8f 3c c0 91 e9 3d
       -0.11721225 0.012600359 0.01755378 0.11404753
0003f0 ba 6e 85 bd 18 35 6c 3c b6 88 00 bd cc 62 b2 3d
       -0.0651526 0.014416955 -0.031380378 0.0871025

network_body._body_endoder.seq_layers.0.bias f4 [256]
000000 9f 54 b5 bd 52 81 9b bd 59 ce 22 be a0 bd 0b be
       -0.08854031 -0.07593025 -0.15899028 -0.13646555
000010 44 0c 06 be d0 21 27 3e 0b eb 73 3d 66 47 9b bc
       -0.13090616 0.16321492 0.059550326 -0.018954944
000020 b4 32 5d bd 69 cb 86 bd ad f0 08 be 27 58 49 be
       -0.054003432 -0.06581766 -0.1337306 -0.19662534
000030 b0 38 55 3d 20 0c 2e be df 52 9c bd 25 7c 1f be
       0.052056015 -0.16996813 -0.07632994 -0.15574701
000040 79 b0 be bd 6e a9 e2 3c 82 e3 86 be 99 fa 4d be
       -0.09311003 0.027668681 -0.2634545 -0.20115127
000050 08 6d 0c be 41 16 06 be e0 64 3b bd ec f1 db bd
       -0.13713467 -0.13094427 -0.0457505 -0.10739502
000060 11 f7 93 3d 99 3a bd bc e1 50 19 be 93 c9 ba bb
       0.072248586 -0.02309923 -0.14972259 -0.005700299
000070 e6 e1 16 3e aa ae 44 be 7c c4 2b be 09 4a c2 3d
       0.14734611 -0.19207254 -0.16774172 0.09486777
000080 23 d8 83 be 07 d7 d4 bd bc ff 32 be 4d ed d2 bd
       -0.25750837 -0.10392576 -0.17480367 -0.10299168
000090 26 fb 4a be 33 74 a5 bd a5 f6 a7 bd d7 85 a4 bd
       -0.19822368 -0.08078804 -0.082013406 -0.080333404
0000a0 a3 6a c5 3d aa 05 0d 3e 7b 9a 2c 3e 41 5f a7 3c
       0.0963948 0.13771692 0.16855805 0.020431163
0000b0 48 cb 6a 3e a5 42 ce bd eb 94 2c bd 58 0d 17 be
       0.22929108 -0.10071305 -0.042134207 -0.14751184
0000c0 cc 1a 5b be 03 e3 5d 3d 38 73 72 be 9c 1a 04 be
       -0.21396941 0.054171573 -0.23676765 -0.12900776
0000d0 27 81 b3 bd b0 1e 6b be d9 10 2e bd 29 60 c6 3c
       -0.08764868 -0.22960925 -0.042496536 0.024215775
0000e0 8f 50 5c bd c5 96 5e bc be 2a f5 3c 97 da 4e be
       -0.053787764 -0.013585751 0.029927608 -0.20200573
0000f0 6e ce 82 bd 96 3b 9d bd 43 50 32 be 89 a7 1f be
       -0.063870296 -0.07677381 -0.1741343 -0.15591253
000100 11 fb ef bd fa af d0 bd e3 0b de bd d1 9d 87 3d
       -0.11717809 -0.10189815 -0.10842111 0.06621898
000110 11 7b d2 bd 3e 62 b6 bd e8 e6 26 be 5f 4d d1 bd
       -0.10277379 -0.08905457 -0.16299021 -0.102198355
000120 ff d1 a6 bd d7 29 a7 bd 64 71 cc bd 8c c6 c5 bd
       -0.08145522 -0.08162277 -0.09982565 -0.096570104
000130 ad 8f 12 be 28 25 37 bd 5a 3f 5f be ab 82 e6 3d
       -0.1431262 -0.04471317 -0.2180151 0.11255392
000140 df 24 c4 bd db 94 11 be 09 a0 66 bd 6d 53 81 bd
       -0.09577345 -0.1421694 -0.056304965 -0.0631474
000150 ab 35 46 bb fa dc 5a 3e 02 8d f8 bd ae f5 e1 bd
       -0.003024439 0.21373358 -0.1213627 -0.11033188
000160 70 7e 8a 3d b8 92 d7 bd cd 9a 32 be 3d 72 25 bd
       0.06762397 -0.10526031 -0.17441864 -0.04039215
000170 f3 04 3a bd 3c d5 4f 3d 9e 2d cd 3d 84 4d d5 3d
       -0.045414876 0.050740466 0.100184664 0.104151756
000180 2b a9 ec 3b 36 bb ce 3d dd 30 08 bc 38 3f 0d be
       0.007222315 0.100943014 -0.008312431 -0.13793647
000190 57 c0 8a bd 77 86 07 be 78 a7 0f be 4b 88 88 be
       -0.06774967 -0.13234888 -0.14028728 -0.26666483
0001a0 57 af 13 3e 50 f1 03 be e1 92 a8 ba be 2c 17 3c
       0.14422356 -0.12885022 -0.0012861156 0.009226976
0001b0 bb 83 51 be 47 86 af bd d7 22 07 be 54 a0 26 be
       -0.20460407 -0.08570533 -0.13196884 -0.16272098
0001c0 98 ac cd bd 43 88 2d be 3e ee 2a be a4 b1 e5 bd
       -0.10042685 -0.16946511 -0.16692445 -0.11215523
0001d0 60 2d 19 be 25 63 eb 3d aa 23 83 3e b0 fd 11 be
       -0.14958715 0.1149352 0.25613147 -0.1425693
0001e0 05 79 99 bc 2d e6 b6 bd 09 cf 82 3b bf c0 2e be
       -0.018734464 -0.08930621 0.0039919657 -0.17065714
0001f0 be 1b b4 3c af df f1 bd b5 aa 14 bb e0 4c 78 be
       0.021985885 -0.118102424 -0.0022684757 -0.24248075
000200 0a ec 16 bd d6 8d 49 3d 77 09 b0 bc 18 25 93 bd
       -0.0368462 0.04920753 -0.021488888 -0.071848094
000210 df 3f dc bd 49 67 0d be cd 56 a7 bd f9 e0 03 bd
       -0.1075437 -0.13808931 -0.08170853 -0.032196973
000220 1b 55 e6 bd 5e 20 c4 bd 6f 5d 06 be a9 fc 56 bd
       -0.11246701 -0.09576486 -0.1312158 -0.05248705
000230 d6 3f 2b bd 0e 5f 2f be 47 ca 3f be 55 02 99 bd
       -0.041808926 -0.17126104 -0.18729506 -0.07471148
000240 fc ec 24 be d6 5a 70 be 08 d1 aa bd bd 49 c6 3c
       -0.16106027 -0.23472151 -0.08340651 0.024205083
000250 f9 d2 bf 3a 8e 6f 27 bd 0c 17 4c 3d 98 6a 66 bd
       0.0014635018 -0.04087787 0.049826667 -0.056254
000260 8a af 42 3d 0b c8 01 be 45 66 2e be 37 3d 31 bd
       0.04753069 -0.12673967 -0.170312 -0.04327127
000270 3b 20 8c 3c 63 cc 47 bd 38 69 a9 bd 68 82 e5 bd
       0.017105212 -0.048778903 -0.08272022 -0.11206514
000280 dc 30 d9 bd 59 30 92 bd c7 07 ba 3d 8d 34 1d be
       -0.10605022 -0.07138128 0.09083515 -0.15352078
000290 01 de e1 bd af 79 23 be d6 9e c6 bd e5 c7 12 3c
       -0.11028672 -0.15964387 -0.09698264 0.008958791
0002a0 ac 56 6e be 48 e2 ff 3c ee ba 37 3d 1f 43 3d 3d
       -0.2327525 0.031235829 0.044856004 0.04620659
0002b0 87 f0 33 be 6e 3d 89 be 7a 71 63 bd 1f 2b 81 3d
       -0.17572223 -0.2680468 -0.05552814 0.06307053
0002c0 f8 9a 19 bd be 06 b2 bd 29 12 80 3d 93 da fd bd
       -0.037501305 -0.08692692 0.06253464 -0.12395205
0002d0 67 f4 83 bd 0d 1e 6d be c8 d0 3e be c8 cc 8f 3d
       -0.064431004 -0.23155995 -0.18634331 0.07021481
0002e0 dc 61 a4 bd 74 09 f7 bd 71 1f 87 bd fb 34 da bc
       -0.08026478 -0.1206235 -0.06597794 -0.026636591
0002f0 fa 52 1d be 10 2e a0 bd ce 27 15 be d0 7f 25 3d
       -0.15363684 -0.07821286 -0.14565966 0.040405095
000300 d6 58 c4 bd bb 0b ce bd 52 43 11 be 01 a8 ed 3c
       -0.095872566 -0.10060831 -0.14185837 0.029010775
000310 6d 6d 1c be cf 2a 47 3c e8 8a 50 be 6f 6c 5c 3e
       -0.15276118 0.012156202 -0.20365489 0.21525739
000320 e6 4b 4a bd e6 2e d5 3d e2 e0 6f bd a8 b7 0d be
       -0.04938879 0.10409336 -0.058564074 -0.1383959
000330 af 5e 8e bc b6 12 e3 bd d7 d1 21 be b6 93 e4 3c
       -0.017379133 -0.11087553 -0.15802704 0.027902465
000340 5c b0 07 be b0 dd 66 3c 44 4c 02 3e ac c4 d1 bd
       -0.1325087 0.01409094 0.12724406 -0.1024259
000350 0d f3 b9 bd 77 4a 0e be 8f ce 04 be 02 e4 30 be
       -0.090795614 -0.13895594 -0.12969421 -0.17274478
000360 28 5e 90 bd ac ae 60 3c f0 1a d0 3d 64 bd 86 be
       -0.07049209 0.01371352 0.10161388 -0.2631637
000370 00 e4 61 be 98 d4 a1 bd ba 73 31 3d 74 20 14 be
       -0.22059631 -0.07901877 0.043323256 -0.14465505
000380 53 e8 fe bb 6d 7f 9b bb 4d 09 e9 3c b6 b1 53 bd
       -0.00777916 -0.004745415 0.028446818 -0.05168315
000390 bc 69 f2 bd 63 cc 34 be fb a6 c7 bd c9 b5 25 bd
       -0.118365735 -0.17656092 -0.09748646 -0.040456567
0003a0 00 2f 1f be ec f1 0d be c7 2a 21 bd 37 66 ed bb
       -0.15545273 -0.13861817 -0.039347436 -0.007244851
0003b0 3e 98 c7 3d 82 02 20 bd dd f6 28 be cf 66 8c 3a
       0.09745835 -0.03906489 -0.16500421 0.0010711792
0003c0 87 9f b0 bd c2 f4 01 be b5 fb 02 be c8 88 2b be
       -0.086241774 -0.12691024 -0.12791331 -0.16751397
0003d0 68 a7 c6 bd 80 97 63 bd 4b 2c c5 bd ab 4a 2b 3d
       -0.09699899 -0.055564404 -0.09627589 0.041819256
0003e0 e2 62 6a bd 47 03 fe bd ea 1e 7e 3d 98 7b 99 3b
       -0.05722321 -0.12402969 0.0620412 0.004683923
0003f0 59 6b c2 bc 65 cf 3a be 6a c3 cf bd 58 9f 54 be
       -0.023732828 -0.18243177 -0.10144694 -0.2076391

network_body._body_endoder.seq_layers.2.weight f4 [256, 256]
000000 c6 d3 8b bc 4c 34 c3 3b 83 77 4e 3d 18 ff f6 bd
       -0.017068755 0.005957162 0.050406944 -0.12060374
000010 b3 99 9f bd bc 21 97 bc 8c 00 1b 3e 9b 68 a5 3c
       -0.07792988 -0.018448703 0.15136927 0.020191481
000020 7d 86 04 be 48 6e dd 3b 23 9a 2e bd 2c c2 9e 3d
       -0.12941928 0.0067575313 -0.042627465 0.07751879
000030 fe 5e 5b 3d 71 5c 36 bd de 06 7d be d4 00 9e bd
       0.05355739 -0.044521753 -0.24709651 -0.07715002
000040 a4 08 72 be 03 76 9f 3c 0d 3f 3b 3e 36 1e d2 bb
       -0.23636109 0.019465452 0.1828577 -0.006412293
000050 fa 1d 24 be 59 c7 92 bc ae 92 ce bd d2 da a2 3d
       -0.1602706 -0.017917322 -0.10086571 0.07951893
000060 37 f8 50 bd 52 04 36 3d 77 03 d6 3c 97 a0 c9 3d
       -0.051017966 0.044437714 0.026124699 0.09845083
000070 a4 7d de be 97 82 95 3d 0f 36 2a bd 01 2d 15 3e
       -0.4345523 0.07300299 -0.04155546 0.14567949
000080 a9 ca 82 bd bc 26 ab bc ce 76 fb 3d 17 23 10 bd
       -0.063863106 -0.020892493 0.122785196 -0.035189714
000090 02 8d 87 3b 6b 57 5e 3d 0f 94 c5 bc c7 d7 ec bd
       0.0041366825 0.054282587 -0.024118451 -0.11564594
0000a0 6b 59 f3 bd 65 14 2e be 0e 2f 04 be bb 69 18 bd
       -0.118822895 -0.16999967 -0.12908575 -0.037210207
0000b0 d8 40 66 3d 3c 47 76 be da cc 67 3d 58 4d 94 bd
       0.056214184 -0.24050611 0.056591846 -0.07241315
0000c0 f6 cf 17 bc d0 45 e6 3d 9c dd 1e 3e 8f 28 05 bd
       -0.00926589 0.112437844 0.15514225 -0.032509383
0000d0 bd 5e 1c 3b 52 e5 4e be 78 70 fc 3b 1f bc 39 bd
       0.002386018 -0.20204666 0.007703837 -0.045345422
0000e0 54 11 a7 bc 5b b8 ba bd 8f 00 1c be 5d b7 b1 3d
       -0.020394005 -0.09117194 -0.15234588 0.08677552
0000f0 6f 7e a6 bc 23 a1 9e ba 41 af a5 bc 56 cb 18 bd
       -0.02032396 -0.0012102466 -0.02022517 -0.03730329
000100 0b f3 fc 3c 16 9b 0e bd 8e fa 0a ba 7b 8e b6 ba
       0.03087761 -0.03481587 -0.0005301618 -0.001392796
000110 13 d7 b5 3d 80 16 07 bd e4 57 9a bd 8e 19 0f 3e
       0.08878913 -0.032980442 -0.07536295 0.13974592
000120 f5 d2 8d 3c 6b df c3 bd cf 29 7e 3c fe b0 f1 3b
       0.017312506 -0.09564098 0.015512898 0.0073758354
000130 c6 30 66 bd 54 fb 04 3d 8d 4d 92 3d 3f 10 ae 3c
       -0.056198858 0.032466248 0.07143698 0.021247981
000140 8d 8d 84 be df d6 77 3d 63 14 af 3c 45 68 5d bd
       -0.25889245 0.06050765 0.021372026 -0.054054517
000150 cd 26 02 3d df 59 91 be ac 93 c7 3d 89 68 51 bd
       0.031775285 -0.2838888 0.09744963 -0.051125083
000160 8e 05 1c be 3c 4e 51 3c 5e 98 67 3d ce 29 a3 3c
       -0.15236494 0.012775 0.056541793 0.019917395
000170 92 37 8d bd 8b 9d 0c bd 88 4c 1d be 3e 91 ae bd
       -0.06895365 -0.034329932 -0.15361226 -0.085237965
000180 de 4f 09 be 96 e0 0f be e5 13 a7 3d f4 b3 fc bd
       -0.13409373 -0.14050516 0.081580915 -0.12339011
000190 b9 7b 9a 3d 2c 36 b0 3d 05 e2 de 3c 9b 90 65 bd
       0.075431295 0.086040825 0.027207384 -0.05604611
0001a0 5f a6 72 bb 67 58 d6 3d ff 6b ab bc ff 00 9e 3a
       -0.0037025434 0.1046608 -0.02092552 0.001205474
0001b0 b2 f6 9e bb 41 f0 56 bd 8a 7f 89 3d 3e a1 da bd
       -0.0048511857 -0.052475218 0.06713779 -0.10675286
0001c0 f2 4f 48 3e 6c 43 f2 3d 2e e5 cb bc 8e 41 d0 bd
       0.19561747 0.11829266 -0.024889555 -0.101687536
0001d0 66 bf a7 bd 81 93 57 3e 91 9e 21 ba ec 95 02 be
       -0.08190803 0.21052362 -0.0006165291 -0.12752503
0001e0 53 96 e1 bd 0b ad 33 bd 55 ea ee bd 02 5f 8d 3d
       -0.11015 -0.0438662 -0.11665789 0.06902887
0001f0 c7 0c e5 3b b4 34 a9 bd 71 55 c1 3d de c0 d4 3d
       0.0069900486 -0.082620054 0.09440125 0.10388349
000200 7a 34 0c 3c f4 3b da bd 29 80 a8 bd a2 ef 68 3d
       0.008557433 -0.106559664 -0.082275696 0.056869157
000210 79 51 8b 3b cd 3b 2a 3e 78 60 5e 3c cf ba f1 3d
       0.0042516557 0.16624375 0.013572805 0.11803209
000220 10 3f 24 be 26 dc f2 3b 03 2e 4b 3d 0e 2d 09 bd
       -0.16039681 0.0074114976 0.049604427 -0.033490233
000230 6b 35 ad bd 16 7f 5b be 76 a3 b9 bd 02 19 17 3d
       -0.08457454 -0.21435198 -0.09064381 0.036889084
000240 6c a2 a2 bd 52 8e 51 3d 95 75 41 3d 3c ae 1e 3e
       -0.07941136 0.051161118 0.047231276 0.15496153
000250 f6 4c 45 3c c6 19 d3 bd c1 75 d0 bd f2 f4 2b 3e
       0.012042275 -0.1030765 -0.1017871 0.16792658
000260 14 8e 52 3d 69 a4 a6 3a da bf b6 bd 6a 49 c9 bd
       0.051405028 0.0012713793 -0.089233115 -0.09828456
000270 61 c1 3c 3d 46 72 25 3d af 04 84 bd ee e0 05 bd
       0.046082858 0.040392183 -0.06446206 -0.032685213
000280 6e f9 49 3d f4 54 aa bc ef 6e 18 be e7 18 0b 3e
       0.04931014 -0.020792462 -0.14886068 0.13583718
000290 9d 75 0c be 15 89 c1 3d b2 0b 2f 3c 16 55 0d 3d
       -0.13716741 0.094499744 0.010683941 0.034504972
0002a0 59 f4 91 3d be 97 05 3d f1 cc 0d be de 86 1f 3d
       0.07126684 0.032615416 -0.1384771 0.03894698
0002b0 84 65 9d bd 2c 0b 3a bc 7a 6e 38 3d 19 7e 1e be
       -0.07685378 -0.011355203 0.045027234 -0.1547779
0002c0 eb 17 3c 3d 3a d4 85 bd 0d 33 61 be 89 5a 00 3c
       0.045921247 -0.0653462 -0.2199213 0.007834085
0002d0 9e db 82 3d 15 f7 46 bd c4 63 ad 3d 4e 15 1b 3d
       0.06389545 -0.04857548 0.084662944 0.037862115
0002e0 86 ad 39 bd 79 89 a7 bc f4 27 c5 bc a4 23 89 bd
       -0.0453315 -0.020451294 -0.024066903 -0.06696251
0002f0 17 63 bb 3d d4 c4 3a 3d be 9f 58 be c1 5d a6 3d
       0.09149759 0.045597866 -0.21154687 0.08123351
000300 d0 7a 5a bd 21 f4 1e be e6 18 3c 3d e7 28 39 3d
       -0.05333978 -0.15522815 0.045922183 0.045205023
000310 b1 65 55 bd 18 ac 47 3e 59 7f 4b 3d 9a d7 ba bc
       -0.052098934 0.19499242 0.049681995 -0.022807885
000320 c1 5d bb 3d 5b 97 d4 bc f9 55 07 be 5d de c8 bd
       0.091487415 -0.025951078 -0.1321639 -0.098080374
000330 a2 82 a4 bc 89 5c 88 bd 84 be 48 bd 91 dd a7 3d
       -0.020081822 -0.06658275 -0.049009815 0.08196557
000340 44 e4 ee 3d 08 1f 85 bc bb aa c4 bd e8 31 59 bd
       0.11664632 -0.016250148 -0.09602877 -0.05302611
000350 9c e2 f2 bc 04 f4 75 3d a9 6b eb 3c 6b 55 47 bd
       -0.029649071 0.060047165 0.02873786 -0.048665445
000360 2f 0f 3c 3c db 8d bc bd 3c c0 db bd 65 58 64 3d
       0.011478229 -0.09206744 -0.10730025 0.055748362
000370 be 41 97 3d 23 ff f6 3d 2b 74 71 3d 8f 5a b8 3d
       0.07385586 0.12060382 0.058948677 0.09001648
000380 0b 74 c2 bc c2 bd 35 bd 1f 5b 10 3c bd 71 f3 3a
       -0.023736974 -0.04437042 0.008810787 0.0018573325
000390 90 d2 9d bc 3d a2 03 3e ec c6 31 bd 69 1e bc bc
       -0.019265443 0.12854858 -0.043402597 -0.02296372
0003a0 45 7a 26 be 3e 72 8a 3d cf 64 2c 3e 88 de b7 bc
       -0.1625758 0.06760071 0.1683533 -0.022444978
0003b0 a5 2b f5 bd b3 4b 28 be c9 b5 33 bd 03 ec f6 3d
       -0.11971215 -0.16435127 -0.043874536 0.120567344
0003c0 3b db cf 3c fe 50 1f bd 00 18 44 3e 3e a8 a8 bd
       0.025373092 -0.0388956 0.1914978 -0.08235215
0003d0 c3 81 7e 3e f1 f8 b1 3c 46 6c 4d 3b 32 e9 9b 3d
       0.24854188 0.02172515 0.0031345054 0.07612838
0003e0 70 c3 fa 3d d7 dc 24 3d 2d 09 20 be 3e 27 91 3d
       0.12244308 0.04024967 -0.156285 0.07087563
0003f0 3e 80 03 bc a3 f1 cc 3d e0 b7 97 bd a0 1f 53 3d
       -0.008026181 0.10007026 -0.07408118 0.05154383

network_body._body_endoder.seq_layers.2.bias f4 [256]
000000 7e be e4 bc 8e bb 79 bd 87 72 09 be 33 81 74 bb
       -0.027922865 -0.06096988 -0.13422595 -0.0037308454
000010 39 55 25 be 7f f0 67 bd cd a3 80 3d 0b 9e 03 be
       -0.16145791 -0.05662584 0.062812425 -0.12853257
000020 45 c3 81 bd 18 48 54 3d 6c 6a 13 be ac 74 bf bd
       -0.06336073 0.051826566 -0.14396065 -0.09348425
000030 0f 4e 42 be f4 5a 9e bd 02 12 83 bd d2 8d 41 bd
       -0.1897509 -0.07732192 -0.06399919 -0.04725439
000040 ee b0 64 bb 69 8e 01 be e5 fb 93 bd dc 6e a8 bd
       -0.0034895497 -0.12651981 -0.072257794 -0.0822427
000050 58 2b fd bc 8b e4 e1 bd d6 3c be bd 5b 76 c9 bc
       -0.030904457 -0.11029919 -0.09288947 -0.02459257
000060 a7 96 dc 3d ff 82 9f bc 31 f6 db bd 3b 26 a1 bd
       0.10770922 -0.019471643 -0.10740317 -0.0786862
000070 03 20 56 bd 43 6a 32 3d ff bf 5c bd 4f e0 5c 3d
       -0.052276623 0.04355837 -0.05389404 0.053924855
000080 83 05 c9 bd 85 e3 49 3d 43 2c a6 bd e2 56 94 bd
       -0.098155044 0.049289245 -0.08113911 -0.07243134
000090 b4 e1 e7 bd ac 05 b6 3c b6 e2 2e bd 6c 25 6c 3e
       -0.11322346 0.022219501 -0.042696677 0.2306115
0000a0 5c 28 aa bc aa e0 ac bd 66 34 86 bd 27 0e 91 bd
       -0.020771198 -0.08441289 -0.06552963 -0.070827775
0000b0 fa 3e 9f bd 63 14 24 be c5 33 0b 3b 3c 88 a9 bd
       -0.07775684 -0.16023402 0.0021240574 -0.08277938
0000c0 28 7e 83 3d c8 38 85 bc 9c 48 94 bd a8 52 ef bd
       0.06420547 -0.016262427 -0.07240412 -0.11685687
0000d0 66 95 9b bc 8a be b6 bd 98 15 88 bd e4 6f 09 be
       -0.018992137 -0.08923061 -0.06644744 -0.13421589
0000e0 40 b2 0a be e9 35 d7 bc 1a 19 04 3e 81 8a fb bd
       -0.1354456 -0.026270824 0.129002 -0.12282277
0000f0 f8 dc b9 bd f6 6c fc bd 2c a6 7c 3c 23 ab c5 bd
       -0.090753496 -0.1232547 0.015420478 -0.09651782
000100 d6 35 29 be 1a f6 90 bd cd 51 66 bd 69 fd 27 3d
       -0.16524443 -0.0707819 -0.056230355 0.041013155
000110 ca 35 09 be 92 11 97 bd 87 23 f8 bd d5 78 6e 3c
       -0.13399425 -0.07376398 -0.12116151 0.014555176
000120 89 ad e6 bd a7 bf 7c bc e5 88 ea bd 87 0c 41 bc
       -0.11263568 -0.015426553 -0.11451892 -0.011782772
000130 49 02 d6 bd 5f 54 f3 bd 65 ff 7e bc 9a 2b ff bd
       -0.104496546 -0.11881327 -0.0155638205 -0.12459488
000140 83 04 54 3c 53 5a 29 bd c4 14 b9 bc 56 ce 53 bd
       0.012940529 -0.041345906 -0.02259291 -0.05171045
000150 c3 71 e0 bd 50 14 aa bd 15 78 a6 bd b0 a1 b3 3c
       -0.10959198 -0.083046556 -0.081283726 0.021927685
000160 cf 3a cd bd 11 60 df bc 45 4e 29 bd 4c 13 3a 3d
       -0.100209825 -0.027267488 -0.04133441 0.04542856
000170 bd fb 77 bc 15 5c c7 bd 55 ab cd bd a6 eb ed 3c
       -0.015135703 -0.0973436 -0.100424446 0.02904303
000180 a1 bb 99 3c ea b9 97 bc 71 32 45 bd d1 5f 0d be
       0.018766226 -0.018521268 -0.048143808 -0.13806082
000190 e5 48 3c bd 10 45 2d 3e bb 9d d1 bd 6e 95 3b 3b
       -0.045967955 0.16920877 -0.10235163 0.0028623003
0001a0 6e 7e c7 bd 56 61 65 3e 13 b5 00 be e6 d3 d4 bd
       -0.097409114 0.22400412 -0.12569074 -0.10391979
0001b0 49 9c 37 bd 6b 45 43 3d 9e e3 0a bd 53 aa c3 bd
       -0.04482678 0.047673624 -0.03390848 -0.09553971
0001c0 a1 c8 4f bd 9e 19 92 3d f0 75 b1 3b 13 10 ec bd
       -0.050728444 0.07133792 0.0054156706 -0.115265034
0001d0 2e a6 17 bc bc c8 56 bc 0c d3 e3 bd 35 41 f5 bc
       -0.009255929 -0.013109382 -0.11124238 -0.02993832
0001e0 b8 78 47 bd ad d8 d4 bd ef 83 15 bd b9 a6 16 bd
       -0.04869911 -0.1039289 -0.036502775 -0.036780093
0001f0 62 dd 1f 3d d3 46 66 bb d5 46 85 3d b5 ff ef bd
       0.039029486 -0.003513743 0.06507651 -0.11718694
000200 eb c0 97 bd a4 36 00 be 67 c7 17 bd 1f 4a 17 bd
       -0.07409843 -0.12520844 -0.0370554 -0.03693592
000210 84 47 02 3b 15 16 b2 bd 1e 0f ed bd 30 c5 b7 bd
       0.0019879052 -0.08695618 -0.11575149 -0.089731574
000220 81 f7 58 3d 5c e0 22 be e3 7f a2 3d 24 61 6b bd
       0.052970413 -0.15905899 0.07934549 -0.057465687
000230 22 b0 84 bd 67 e2 8a 3d fa 68 82 3d d3 d5 50 bd
       -0.06478907 0.06781464 0.06367679 -0.05098517
000240 34 9c c4 3d 75 ab 84 bd f5 51 b2 bb cb 22 84 bd
       0.09600106 -0.06478015 -0.005441899 -0.06451949
000250 ec 4b eb 3c cc 1e fa bb ed e7 a8 3c a6 b6 45 be
       0.028722726 -0.007633066 0.020618403 -0.19307956
000260 b8 a6 1a be 20 b4 73 bd f5 09 9a bd f7 3c e8 bc
       -0.1510266 -0.059497952 -0.075214304 -0.028349383
000270 18 cb a4 bd b5 7f bf bc f2 de 59 3d 85 37 b4 bd
       -0.080465496 -0.023376325 0.053191133 -0.08799652
000280 fd 8f 05 bd 5b 90 a0 bc 68 9d 80 3d b6 bb 1d be
       -0.03260802 -0.019600084 0.06280023 -0.15403637
000290 5f 8a 8c 3b bc 4c 05 bd 21 fa 08 be b0 12 1c 3d
       0.004288956 -0.032543883 -0.13376667 0.03810376
0002a0 cc db 5d bd ef 9e a8 bd da c6 d0 bd 11 a3 ab bd
       -0.054164693 -0.08233439 -0.10194178 -0.08380712
0002b0 c7 52 fd bd c3 61 18 bd 2d 58 7e 3d bb 9b 05 3d
       -0.12369304 -0.037202608 0.06209581 0.03261922
0002c0 f2 05 a5 bd 7b 51 c2 bd e2 c9 a5 bc 18 9a 01 3e
       -0.080577746 -0.094881974 -0.020237867 0.12656438
0002d0 6f 5d 5a bd 6e 9c 38 bd 1d 80 c2 3c 33 01 13 3b
       -0.05331176 -0.045071058 0.02374273 0.0022431135
0002e0 f4 ec 88 bd 20 bf e7 bd d2 c9 9b bd 0b ad b1 3d
       -0.0668582 -0.11315751 -0.076068535 0.086755835
0002f0 af 91 c9 3c b9 82 af bd 57 ee 83 bd b9 9b d1 bd
       0.0246056 -0.08569855 -0.06441944 -0.1023478
000300 67 bd ec 3c b8 44 ee 3c 4d 07 f9 bc c9 39 b9 bd
       0.028898908 0.029085502 -0.03039899 -0.09044225
000310 b1 54 91 3c 4b 67 66 bd 33 3c 7a 3d 8f 2b 6a bd
       0.01774058 -0.05625085 0.061092567 -0.057170447
000320 fd 4f 94 bc c0 61 b8 bd b7 a9 d3 3c ec dc 33 3e
       -0.018104548 -0.09003019 0.025837762 0.17564744
000330 20 9c d0 bd 0d b6 72 3d a4 91 6f 3d cc a9 a1 bd
       -0.101860285 0.05925565 0.058488503 -0.07893714
000340 8f af 77 3c af a2 6a bd 63 f1 ed bd 9a e2 89 bd
       0.01511754 -0.057284053 -0.116183065 -0.06732674
000350 18 6e 34 3b df 29 8a 3d e0 4b f9 bd 4a 94 01 be
       0.0027531441 0.067462675 -0.12172675 -0.12654224
000360 13 54 fc bc a1 9d b1 3c af be 8e bd 95 52 7c bd
       -0.030801808 0.021681609 -0.06969964 -0.061602194
000370 fc 2f 74 bc 0f 0b b9 bd 07 6d f3 3c f7 2d 65 bd
       -0.0149040185 -0.090353124 0.029715074 -0.05595204
000380 1e d2 85 bd 99 ef ca bd 83 d4 c2 bd 1b 04 51 bd
       -0.06534217 -0.09908981 -0.0951319 -0.051029306
000390 51 d5 ca bd 8b e9 91 3d 7c 34 f6 bd 34 b6 e9 bd
       -0.09903968 0.07124623 -0.12021729 -0.114117056
0003a0 0d fb 94 3d c4 9d 54 bd 44 af 88 3e c3 03 94 bd
       0.07274447 -0.05190827 0.26696217 -0.0722728
0003b0 31 cf 02 be b5 19 60 3b 88 c7 f4 bd 8b e0 40 bc
       -0.1277435 0.003419501 -0.1195212 -0.011772285
0003c0 4a 27 b9 bc f9 13 fd bd cc 16 c1 bd 77 19 0f be
       -0.022601742 -0.12357325 -0.09428176 -0.13974558
0003d0 11 4c 8f bd c5 5a 34 3d 30 4f c4 bd 38 21 e4 bd
       -0.069969304 0.044031877 -0.09585416 -0.111391485
0003e0 0c 23 a6 bd 36 24 d3 bd c8 b8 93 bd 92 76 34 be
       -0.081121534 -0.10309641 -0.072129786 -0.17623356
0003f0 62 e9 f2 bd 88 06 00 be 95 49 96 bd fe 4d 78 bd
       -0.118609205 -0.12502491 -0.073382534 -0.060621254

action_model._continuous_distribution.mu.weight f4 [2, 256]
000000 60 90 9b 3a f9 90 22 bc 89 15 9c be 5e 4d ae 3d
       0.0011868589 -0.0099222595 -0.3048518 0.0851085
000010 ad 89 e3 bc 5b d1 df 3d 36 8f 4e 39 45 4a b0 3c
       -0.02777561 0.10928603 0.00019699041 0.02151979
000020 75 0b d0 bc 07 2c e8 bb b3 72 a6 3d 80 2e 30 bc
       -0.025396088 -0.0070853266 0.08127346 -0.010753274
000030 9f 39 c9 3d da da 93 3c 52 ee 1b bd e0 0f 26 bd
       0.098254435 0.018048692 -0.038069077 -0.040542483
000040 66 f9 4f 3d 1e 27 ac bc 86 01 1e bd f3 3d c4 bd
       0.050774954 -0.021014746 -0.03857567 -0.095821284
000050 a6 07 0d 3d 94 1f 44 bd 0a eb 8b bd 75 de eb 3d
       0.034431122 -0.047881678 -0.068319395 0.1151704
000060 d9 28 74 3c b9 0b 17 3e c7 37 38 bc a2 1c 74 3b
       0.014902317 0.14750566 -0.011243767 0.0037248512
000070 32 37 14 bd a2 6c 63 be 3d 20 1f bf be b3 8d 3d
       -0.03618545 -0.22209409 -0.62158567 0.06919049
000080 b2 13 f3 bc a2 ce 1d 3d 50 e6 16 3d 0d b6 68 bc
       -0.029672477 0.03852714 0.036840737 -0.014203561
000090 f5 b1 53 bc 5e a8 8c bd 8f 1f 2f be ce 28 82 3e
       -0.012920846 -0.06868051 -0.17101882 0.25421757
0000a0 8c fd 9c 3d 35 0b 31 3d 69 d2 80 bd 9b 91 fc bd
       0.07665548 0.04322358 -0.062901326 -0.123324595
0000b0 a3 cc 6b 3e 06 d8 a9 3e 34 ba dd bd 7e bb 49 3d
       0.23027281 0.33172625 -0.10826531 0.049251072
0000c0 23 b1 55 bc 49 61 96 bb 63 b1 9e 3c 3c fe c0 3d
       -0.013042721 -0.004589234 0.019371694 0.09423491
0000d0 31 67 95 bd b0 a0 a1 bd e3 c2 94 3d 0f 0a 9b be
       -0.07295073 -0.07891977 0.07263734 -0.30281112
0000e0 71 bf 56 be 89 7c 0d be f7 0f 04 3e 22 c6 f5 bd
       -0.20971467 -0.13817038 0.12896715 -0.120006815
0000f0 2e 55 24 3d 9a 5b a1 bb f2 8a c2 bc 0e 0b 89 3d
       0.040120296 -0.00492425 -0.023747895 0.06691562
000100 61 e6 aa bd df 12 5e bc a5 af 54 bd 0f e2 8e 3d
       -0.083447225 -0.013554304 -0.05192532 0.06976711
000110 bf d6 76 3d 4b 3d ee 3d db 94 3e 3d 72 3d 24 bf
       0.06026339 0.116327845 0.04652868 -0.6415626
000120 5c 7b 19 bb 18 04 3f 3d 78 73 c6 bd 65 ac 00 bd
       -0.0023419475 0.046634763 -0.09689993 -0.03141441
000130 c7 e3 37 be a6 bc 69 3e 3c 7c f5 3c 4d 9d 0f be
       -0.17957984 0.2282587 0.029966466 -0.14024849
000140 4b 9e 05 3d c2 53 8c 3a 5a 94 f5 bc 94 b1 99 bd
       0.032621663 0.0010706114 -0.029977966 -0.075045735
000150 6a c9 6b 3b 90 d2 96 3e e5 5d e8 bd 66 52 83 bb
       0.0035978206 0.2945752 -0.11346034 -0.0040076254
000160 02 9b d8 b9 36 f4 b6 bc d0 17 11 3e 5a 62 81 bb
       -0.0004131422 -0.022333246 0.1416924 -0.003948492
000170 39 1c 02 be 5b 7d 22 3d 14 16 98 3c 92 3c d9 3c
       -0.12706079 0.03967033 0.018565215 0.02651814
000180 3f f2 c0 3d 44 17 20 bd 7e 8c b9 3c 50 3d ea bd
       0.09421205 -0.039084688 0.02265 -0.11437476
000190 d1 05 0a 3e 49 ae 8b 3e 00 12 fe bd 8e 99 fa bd
       0.13478781 0.27281407 -0.12405777 -0.122363195
0001a0 09 21 45 be da b2 6e be fb 9c fe 3d 62 c3 a0 3c
       -0.19250883 -0.23310414 0.124322854 0.019624416
0001b0 00 f5 83 bd f4 59 75 be 2f 9f 0b bd 35 5f 39 bc
       -0.064432144 -0.23960096 -0.034087356 -0.011314203
0001c0 8d 09 12 3e 8b f4 01 bd 5b 3a 18 bd 4b 67 33 3e
       0.14261456 -0.031727355 -0.037165027 0.17519872
0001d0 05 c0 f5 bd 1e 9d 02 3e a1 41 93 bd 72 e0 38 bd
       -0.119995154 0.12755248 -0.07190252 -0.045135923
0001e0 7b 91 85 3c 15 3b 8e 3c 10 63 e0 3d 56 52 b1 3c
       0.016304722 0.017362157 0.10956395 0.021645706
0001f0 4a f8 dc bc f1 1d 88 3c 6b e9 cd 3d b9 50 69 be
       -0.026973862 0.01661584 0.100542866 -0.227847
000200 57 c8 de bd aa 9e 24 bd 22 b1 a8 be 7d 80 4b 3c
       -0.108780555 -0.040190376 -0.32947642 0.012420771
000210 05 60 b7 bb 4d e6 1c bd b0 ca 70 bd ed eb 41 3b
       -0.005596163 -0.03830557 -0.058787048 0.0029590086
000220 36 82 9e bc df e9 eb 3a b9 19 0b 3e bb df 2f 3d
       -0.019349199 0.0017998776 0.13584031 0.042937975
000230 99 2c 71 3d 22 01 27 3e 56 f0 ff 3e ed 87 8e 3d
       0.058880422 0.16309026 0.4998805 0.069595195
000240 3c fc 27 3d d3 2e 49 3b aa d5 29 bd 77 ac a0 3d
       0.041012034 0.0030698075 -0.04146353 0.07845395
000250 de 1f ac 3c 36 48 5c 3d d5 bd 45 be d2 cb 9f 3d
       0.02101129 0.053779803 -0.19310696 0.078025475
000260 04 56 da bc 1a 7a 4a bd a1 b9 06 3e fa fc 5a bd
       -0.026652344 -0.04943285 0.1315675 -0.053463914
000270 f4 36 9c 3c 95 3a 7a 3d 86 ae 29 3d c0 94 4d bd
       0.019069172 0.061091024 0.041426204 -0.050190687
000280 a9 8c 4f 3c f7 df 83 bd 74 f8 94 3c 94 5f 71 be
       0.012667813 -0.06439202 0.018184878 -0.23571616
000290 01 b9 f6 bd 17 8f 3a 3e c0 db 00 3d 42 7b 99 bd
       -0.120470054 0.18218647 0.03145957 -0.07494213
0002a0 66 21 0d 3e 6b 2d 66 3d 21 8a b1 3c b0 47 df bd
       0.13782272 0.056195658 0.02167231 -0.10902345
0002b0 8f db 2a 3d 43 c5 b8 bd 59 00 1f bc 33 ac db be
       0.041713294 -0.09022 -0.009704673 -0.42904815
0002c0 06 e8 20 3c 5a 59 b3 bd 0b d5 41 bd bc 6c 8b bc
       0.009820944 -0.08757277 -0.047322314 -0.017019622
0002d0 f1 1a a4 bb 56 70 14 3d cb c9 c6 3d 4c e1 be be
       -0.0050080945 0.036239944 0.09706458 -0.37281263
0002e0 7f 87 df bd 27 cf 8e bd 26 8c cc 39 17 6f 74 3e
       -0.10914516 -0.06973105 0.0003901433 0.23870502
0002f0 1e 6b 2e 3d 25 5b 9c bd cc 01 a2 3d c0 e5 03 be
       0.042582624 -0.07634572 0.07910499 -0.12880611
000300 e4 44 23 bc 6f ac e7 bd e3 70 aa 3b 4e 76 19 bd
       -0.009965155 -0.11312186 0.0052014454 -0.03746634
000310 38 d2 b7 3e 6d 3b 53 3d cc 91 81 3d a1 e2 e3 3d
       0.35902572 0.051570345 0.06326637 0.111272104
000320 78 1f c8 3d 44 a9 28 be f2 02 06 3c 58 18 3c 3e
       0.09771627 -0.1647082 0.008179413 0.18368661
000330 0e 31 7a 3c 41 81 00 bc fd a2 4b 3e 26 8e 1d bd
       0.015270485 -0.0078433165 0.19886394 -0.03846564
000340 67 cc 8f bd 54 43 5c bb 43 f5 09 3e 1b 11 3a 3d
       -0.070214085 -0.0033609467 0.13472466 0.04542647
000350 bf 01 55 3d a2 ad 86 3d 9e ed 0f bc 46 79 99 bb
       0.05200362 0.065760866 -0.00878468 -0.0046836464
000360 26 46 d1 3d 41 4a 95 3c f3 4c 29 bd 75 15 76 bc
       0.10218458 0.018223884 -0.04133315 -0.015019764
000370 28 85 21 bc 2a de 4d 3e e3 d6 0d 3e 0c 4a fc bb
       -0.009858407 0.2010428 0.13851504 -0.0076992568
000380 88 54 df bc 73 05 38 3e 63 ba 6e bc a7 ea da bd
       -0.027261987 0.17970829 -0.014570805 -0.10689288
000390 23 15 da bd 32 d7 1f bc be a7 40 3e b5 a3 1c be
       -0.10648563 -0.009755896 0.18813989 -0.15296824
0003a0 c0 f3 c4 3c 1b 63 64 3b f9 16 91 bd 09 52 11 3d
       0.02404201 0.003484911 -0.0708446 0.035478625
0003b0 e0 4b c3 3c 3b 96 e7 bb 4b fb 3c 3c 41 f7 64 3b
       0.023839891 -0.0070674694 0.011534522 0.0034937414
0003c0 89 f4 17 be 24 71 24 bc ad 07 3f bd 2a f2 8d be
       -0.14839377 -0.01003674 -0.04663818 -0.2772382
0003d0 36 0f 83 bd 47 aa 85 3c d2 bc 6c bd 95 50 01 bd
       -0.06399386 0.016316546 -0.05779726 -0.03157099
0003e0 44 80 65 bc 84 72 c4 bd e7 b3 93 3c 9b b5 2f bc
       -0.014007632 -0.095921546 0.01803012 -0.01072445
0003f0 5e 64 01 3f 74 b2 ee bd c9 66 e0 bd 76 17 0c 3d
       0.50543773 -0.11655131 -0.10957105 0.03420206

action_model._continuous_distribution.mu.bias f4 [2]
000000 3f 47 44 3e a2 92 f7 bd
       0.19167803 -0.12088515

action_model._continuous_distribution.log_sigma.weight f4 [2, 256]
000000 e7 df fd 3c 21 18 6f bc 9c de 38 bc f7 6e 91 bb
       0.030990554 -0.014593155 -0.011283543 -0.004438277
000010 61 31 40 bc c2 e9 c1 3a be e8 6f 3b ab ac ba 3b
       -0.011730523 0.0014794397 0.003660723 0.005696853
000020 a2 d1 22 3c 79 1e 2c 3c e3 18 9e 3c 5f e5 15 3c
       0.009937676 0.010505312 0.019298976 0.009148925
000030 3c 8f 9a 3c ad e0 a8 3b 6b 28 80 3c 56 57 05 3c
       0.018867128 0.0051537366 0.015644273 0.008138498
000040 28 e1 26 3d a0 49 7a 39 ae 66 6f bc c8 5e d3 bb
       0.04074207 0.00023869285 -0.014611883 -0.006450508
000050 4b ae 19 3c 83 59 a3 bc 04 20 2f bc f8 8b 4b 3c
       0.009379934 -0.019940143 -0.010688785 0.012423508
000060 27 16 fd 3c 19 d2 55 3c 94 39 41 bb 2a 00 a0 ba
       0.030894352 0.0130505795 -0.0029483782 -0.001220708
000070 89 e2 f1 b9 bf ab 9b 3c 21 ff 10 3d a5 44 30 3c
       -0.00046135884 0.019002793 0.03539956 0.010758554
000080 8b 3c 64 3d 47 3f 14 3c fc 1b 19 bb 4c 52 79 3c
       0.0557218 0.00904829 -0.0023362627 0.015217375
000090 4c 1e c7 bb e1 23 c1 bb 4a f9 06 bc 73 32 4e bd
       -0.0060766097 -0.0058941697 -0.008238146 -0.05034108
0000a0 05 f7 8d 3b 44 1a 63 bc 99 89 3a bb 46 53 80 bb
       0.0043324255 -0.013861243 -0.0028463362 -0.003916177
0000b0 2e 96 32 bc d7 e7 ed bb 41 59 46 bd 8c 69 3e 3b
       -0.010900063 -0.0072603035 -0.048424963 0.002905461
0000c0 69 46 24 3c 02 06 46 bc 7b 1e b2 bc 65 d1 00 3c
       0.010026553 -0.012086393 -0.02174305 0.007862424
0000d0 0a 11 36 bc 8e 47 8a bb ce 64 06 3d 3b 4a af 3c
       -0.011112461 -0.0042199558 0.03281098 0.0213977
0000e0 16 94 b5 bc 5d 48 09 bb 84 8d c1 bc 08 23 34 bc
       -0.02216534 -0.0020947673 -0.02362705 -0.01099468
0000f0 3d eb ba bb 45 df f5 3b a7 df 5b bb c5 5b 9c bb
       -0.005704312 0.0075034224 -0.0033550055 -0.004771682
000100 b8 d9 3a bb a8 0f 89 bc 1a 09 36 3b 3b 62 2e 3c
       -0.0028511118 -0.016731098 0.002777642 0.010643537
000110 5f aa dc ba af 97 8a bb 3a 42 0c 3c 0b ff 03 bb
       -0.0016835443 -0.004229508 0.0085607115 -0.002014103
000120 fb 7d 0a 3c 77 8c 89 3a d9 d8 08 bc e5 82 63 3d
       0.008452888 0.0010494132 -0.008352482 0.055544753
000130 82 04 d1 3c 55 c2 2d bc 7b 18 e7 ba 0f 81 dd bc
       0.025514845 -0.010605414 -0.0017631197 -0.027039079
000140 7e 44 a1 bb 04 c1 59 b9 27 fa c4 3c 95 a9 21 3c
       -0.004921495 -0.00020766637 0.024045063 0.009867092
000150 e0 45 99 bb 76 6a 9a 3c 34 3c 1b 3c ab 47 07 3b
       -0.004677519 0.018849593 0.009474803 0.0020642083
000160 1b e1 4b bb a9 57 36 bc 55 ef a5 3c e4 02 cf bb
       -0.0031109515 -0.011129298 0.020255724 -0.0063174833
000170 83 7b 29 3c 17 f6 fe 3b 76 9d a9 bb 60 5e 86 bb
       0.010344389 0.007780801 -0.0051762415 -0.004100606
000180 26 8a a8 bd a3 6b 74 3a 2d e5 19 bc 04 52 89 bb
       -0.08229475 0.00093239004 -0.009393019 -0.004190685
000190 76 0d 77 bc 28 bb 49 bc 5f fb f4 3b 2e cb ef bb
       -0.015078893 -0.012312688 0.007476255 -0.007317922
0001a0 90 4d 43 bc 04 34 44 b9 49 d4 eb bb 89 cd 5c 3c
       -0.011920348 -0.00018711394 -0.007196937 0.013476738
0001b0 3e 7f 9f 3b b2 96 30 bb 69 d1 0f bc 3d ac 79 b9
       0.0048674634 -0.002694529 -0.008777955 -0.00023810654
0001c0 40 90 a1 3c 6a 38 9b 3c d8 85 05 3c 83 51 61 3c
       0.019722104 0.018947799 0.008149587 0.013752344
0001d0 ed 2b 95 3c a5 ee 02 3c f6 0a 96 bc 10 41 7a bb
       0.018209422 0.007991468 -0.018315773 -0.0038185753
0001e0 78 cc 32 3c 36 3c 22 3c f6 ab 97 3b 7e 5a 03 3d
       0.010913007 0.009902051 0.0046286536 0.032068722
0001f0 5a e0 a5 3a f9 58 18 3c ad 72 9c bc 89 f5 24 3d
       0.0012655363 0.0092985565 -0.01909765 0.040273223
000200 d7 b1 50 bc ce ae fd 3c 41 67 ae bc be 17 c1 3a
       -0.012737713 0.030967142 -0.02128947 0.0014731807
000210 52 c2 6c bb 89 93 53 bc 1b 93 a4 bb ca f3 a9 bb
       -0.0036126566 -0.012913593 -0.005022419 -0.0051865326
000220 ad 97 71 ba cb fd 59 38 83 1d c1 bc 97 8b 70 bc
       -0.0009216022 5.1973195e-05 -0.023573643 -0.014681718
000230 a4 b6 36 3d 77 fa 57 3c 7c ea 0e 3d c5 02 af 39
       0.044607773 0.013182274 0.03489159 0.00033380665
000240 31 27 cd 3b ab a7 2b 3c 19 a0 b4 bb dd fd e2 3b
       0.0062607755 0.010476987 -0.005512249 0.0069272355
000250 2c 6f 76 ba 2c 72 18 3a fc c5 6d 3d 22 d5 7a 3c
       -0.0009400721 0.0005815353 0.05805014 0.015309604
000260 9d 3c 72 3c 63 64 c7 3b 40 5b a2 3c 1c f6 1e 3c
       0.014784959 0.006084965 0.019818902 0.009702232
000270 f3 c0 e4 bb e5 6a 63 3c 9e b2 6c 3c 9c 02 81 ba
       -0.006981009 0.013880466 0.0144468825 -0.0009842697
000280 64 5c 01 bb 05 79 e4 ba 02 01 c3 ba 23 73 05 3c
       -0.0019738907 -0.0017431086 -0.001487762 0.0081451265
000290 63 82 c7 bc 32 41 39 bc e5 92 36 3c f7 aa 2a ba
       -0.024354165 -0.011307048 0.011143421 -0.0006510461
0002a0 95 8a 89 3c fc 06 6b 3c 13 3c 78 3c 93 ef 6e 3c
       0.016789714 0.014344927 0.015151042 0.014583486
0002b0 fe 1e e8 3a 3f 6b b8 bc fa f8 e4 3b 7b 4d 33 3d
       0.0017709432 -0.022512076 0.006987688 0.043775063
0002c0 60 ea b0 3a b4 ac db bb 58 ea ea 3c 4c 7f bb bc
       0.0013497584 -0.0067039374 0.028676197 -0.022887848
0002d0 6c 22 42 3b ba 66 91 bc 43 d8 86 3a 2a 7b ad 3b
       0.0029622568 -0.01774918 0.001028784 0.0052942233
0002e0 7d 1d a2 3b 9b 61 79 3c 00 d7 3d 3b 59 b2 8b 39
       0.004947363 0.015221025 0.0028967261 0.00026645025
0002f0 ea 47 f7 bb 4e b3 20 3c 4e 31 06 bc b7 3e f8 3c
       -0.0075464146 0.009808375 -0.008190466 0.030303342
000300 f8 e1 a5 b8 8c 7d bd bb 86 ee 88 bc 5d 7c 9a 3c
       -7.909903e-05 -0.0057827886 -0.0167153 0.01885813
000310 68 01 77 3b 72 99 3a 3c b0 8c 89 b9 9b af b3 3a
       0.0037690047 0.011389123 -0.00026235497 0.0013708951
000320 49 ed 44 3c 34 b0 82 3c f0 20 43 bc ab 1c b3 3c
       0.012019464 0.01595316 -0.011909708 0.021864256
000330 b1 05 c0 3b b7 e9 38 3b 4b 11 3a bc 7a 04 1c bb
       0.0058600535 0.0028215477 -0.011356662 -0.002380638
000340 3d c5 c3 ba 7a 85 b4 bc ee b1 2a bb 6e 0f 79 3a
       -0.0014936101 -0.022036303 -0.0026045996 0.00095008954
000350 33 07 11 3c 7f 76 a4 bc 25 35 32 3c 71 58 f3 bc
       0.008851814 -0.020076035 0.010876928 -0.029705258
000360 1a ee 37 bb 40 12 a4 3a 7c ac 58 3c e7 2c 7a 3c
       -0.0028065504 0.0012517646 0.013224717 0.015269495
000370 c0 e0 3a bc 9e 60 81 3c 91 f2 4c 3c ed 5e 85 bb
       -0.011406124 0.015793141 0.012509004 -0.004070154
000380 84 dd 9b 3b f6 91 14 bc 85 bd 19 3c ff e0 b7 bb
       0.0047566313 -0.009068003 0.009383564 -0.0056115384
000390 3f 0a 9f bb 4e e0 25 bc 69 68 44 3c e7 e7 0f bc
       -0.0048535164 -0.010124279 0.011987784 -0.008783317
0003a0 73 1a 83 bb 1b b3 6c bc d2 e7 84 bb 61 1b e1 bb
       -0.0040009557 -0.014446999 -0.0040559554 -0.006869719
0003b0 e8 6f 1a 3b 0d 12 da 3c de ee 92 39 2f 79 b0 3c
       0.0023565236 0.026619935 0.0002802526 0.02154216
0003c0 4b ad 00 3d d2 c3 8b 38 5f 4a 3f 39 7c 03 ae bc
       0.031415265 6.664511e-05 0.00018242885 -0.021241896
0003d0 65 90 b5 3b ec 33 d4 3a 9d d8 c3 ba ad c6 ca bb
       0.005540895 0.001618979 -0.0014941875 -0.006188235
0003e0 03 d9 a2 3b ed 27 d5 ba aa 82 8f 3c 4a 54 5b bc
       0.0049697175 -0.0016262509 0.01751836 -0.013386795
0003f0 86 90 03 3d 21 c8 33 bc 39 ae 65 3d f9 5b 97 3c
       0.03212025 -0.010973007 0.056074355 0.018476473

action_model._continuous_distribution.log_sigma.bias f4 [2]
000000 9f 87 1c bf e1 13 12 bf
       -0.6114444 -0.5706158

action_model._discrete_distribution.branches.0.weight f4 [2, 256]
000000 44 e1 c6 3d 05 b7 1c 3e d4 73 d9 be 74 5c 85 3e
       0.09710935 0.15304191 -0.42471182 0.260471
000010 a6 88 8d be b4 28 36 be 21 b7 29 3e 09 65 64 be
       -0.27643317 -0.17788965 0.16573764 -0.22304167
000020 9a 3c f7 3d 49 16 52 be ac fb e0 bd ec 47 f7 bd
       0.12072106 -0.20516314 -0.109855026 -0.12074265
000030 b1 2d 41 be 5e 4a 20 be fa 26 0d 3e 7c 00 7f 3e
       -0.18865086 -0.15653369 0.137844 0.24902529
000040 b7 78 1c 3e dc 08 4e be a7 fb 4d be 96 1c 0c 3e
       0.15280424 -0.20120567 -0.20115529 0.1368278
000050 69 52 69 be b0 56 8a be 32 1d 0e 3e 86 d1 d9 3d
       -0.22785343 -0.27019262 0.13878325 0.106356665
000060 7f d0 bc 3e 73 a4 ea 3d b0 b8 a3 be 22 8f 86 bd
       0.3687782 0.114571474 -0.31976843 -0.06570269
000070 c0 94 07 3e d3 f1 4a 3c 74 c7 55 3e 43 a7 75 3e
       0.13240337 0.012386757 0.20876867 0.23989587
000080 96 2f 33 be 3d 86 36 3e 01 ef 21 be 28 a2 63 be
       -0.17498621 0.17824645 -0.15813829 -0.22229826
000090 d1 62 26 bd cc 1f 88 be f3 62 27 3e 51 82 a9 3e
       -0.040621582 -0.2658676 0.1634634 0.33107236
0000a0 ae a4 1f 3e c2 31 56 be 68 ab 09 3e 1a 30 93 be
       0.15590164 -0.20917419 0.13444293 -0.28747636
0000b0 12 79 b7 3d 70 bb b7 bd 58 0d fc 3d 84 db ee 3d
       0.08958639 -0.08971298 0.123072326 0.11662963
0000c0 ed 53 b4 be 16 c8 66 3e af 64 40 be 17 27 91 be
       -0.3522028 0.22537264 -0.18788408 -0.28350136
0000d0 76 69 79 be 86 a5 67 3e 87 6c 25 be d1 5e 88 bd
       -0.24356636 0.22621736 -0.16154681 -0.0665871
0000e0 8b 61 00 3d 42 14 1b bf bb 96 ba 3e 93 1e 4f be
       0.031343024 -0.60577786 0.36443123 -0.20226507
0000f0 81 e8 00 be 35 48 4d be 81 13 bc 3e f5 80 f2 bd
       -0.12588693 -0.20047076 0.3673363 -0.11841003
000100 65 8f a3 bd b0 9d 53 3e 06 84 dd bd 09 bc de 3d
       -0.07986335 0.20665622 -0.10816197 0.108757086
000110 5e 33 9a bd f9 82 91 bd 31 4e 05 be 04 70 ee bc
       -0.07529329 -0.07105059 -0.13018109 -0.029106148
000120 af e4 39 bd c4 8a b7 be e1 70 2a be 25 c3 e6 3d
       -0.045384105 -0.35848057 -0.16644622 0.112676896
000130 51 12 2e be e3 ee 88 bc 86 51 11 3e 70 4d 93 3d
       -0.16999175 -0.016715473 0.14191255 0.071925044
000140 7a f1 39 3e 83 80 50 be 23 02 3b 3e 50 13 c4 bd
       0.18158522 -0.20361523 0.18262534 -0.09573996
000150 d5 1c 65 be c4 6b a9 bd bc 21 0e be cb b4 45 3e
       -0.2237428 -0.08272508 -0.13880056 0.19307248
000160 57 7c 45 be 45 81 6d bc bb 23 48 3e 0a ae 33 3d
       -0.19285713 -0.014496152 0.1954488 0.04386715
000170 7e 14 b3 3b 33 b8 2e be e7 21 7e be b6 8d 5c 3e
       0.0054650893 -0.17062454 -0.2481762 0.21538433
000180 ae e5 1e 3e 82 3a 29 be 72 a7 85 be 15 24 8e bd
       0.15517303 -0.16526225 -0.26104313 -0.06940476
000190 4b c7 66 3d c3 a3 d4 bc a2 1f 24 be d6 00 c9 be
       0.056342404 -0.025956994 -0.16027692 -0.3925845
0001a0 46 1c 4c be 81 24 36 3d 58 2c 20 bd 4d 5c 58 be
       -0.1993266 0.044468407 -0.03910479 -0.2112896
0001b0 8f 64 3b 3e b6 69 80 ba d3 68 6e be ee 50 be be
       0.18300079 -0.0009797129 -0.23282175 -0.3717112
0001c0 39 ed fd bd c2 e1 2e 3e 29 9a cf 3d ff 27 c0 bd
       -0.12398762 0.17078307 0.101368256 -0.09382629
0001d0 9a c9 ff be 21 32 8b 3e 57 d5 3f be dd 08 4e be
       -0.49958497 0.27186683 -0.18733726 -0.20120569
0001e0 c5 fb 27 be 4f 74 85 be c4 50 f6 3d fa 9b c2 be
       -0.16404636 -0.260653 0.120271236 -0.38009626
0001f0 6c 6d 16 3e 99 e8 38 3e 30 fe 8f 3c c2 fe 0b bd
       0.14690179 0.18057479 0.01757726 -0.034178503
000200 74 22 57 be 1e f1 65 be 13 3d c2 bd 26 a7 4d be
       -0.21009237 -0.2245526 -0.09484305 -0.20083293
000210 e0 4b 70 3e 4e bc 1b be d8 0f 21 be a5 01 6f be
       0.23466444 -0.15208551 -0.157287 -0.23340471
000220 e1 1a 1b 3e f2 00 6f be 23 4d 0d 3e ad bf 59 3e
       0.15146972 -0.23340204 0.13798957 0.21264525
000230 eb 3f 13 be 2d 7c 17 3d b1 a1 cf 3c 3a 40 2e 3e
       -0.14379852 0.036983658 0.025345655 0.17016688
000240 11 5e 3f 3e f0 0b 8c be 3a a3 9e 3e ab 75 73 be
       0.18688227 -0.27352858 0.30983907 -0.23775356
000250 10 79 04 bf b4 6a ad 3e da 1e 10 3e 16 43 1e be
       -0.51747227 0.3387047 0.14074269 -0.15455279
000260 78 7f 3b be 1b 4e a3 be 86 a7 ec 3d 8a 8e a1 be
       -0.18310344 -0.31895527 0.1155539 -0.3155406
000270 b7 a2 28 be 19 33 2b 3e 22 43 33 be 22 65 03 3e
       -0.16468321 0.16718711 -0.17506078 0.12831548
000280 8d db a5 3d fa ef 89 3e bd 17 4e 3e 07 39 bf bd
       0.080985166 0.269409 0.20126243 -0.09337049
000290 fb 65 df be 3c 5a f2 3d 51 d6 3b be 60 a0 9c 3d
       -0.43632492 0.11833617 -0.18343474 0.076477766
0002a0 9a ff ae 3d 20 85 98 be 32 2e 10 be 38 99 6b be
       0.08544846 -0.29789066 -0.14080122 -0.23007667
0002b0 ff b3 bb be 1a a3 f0 3d a9 36 dc 3d 10 de 25 bd
       -0.36660764 0.11749859 0.10752613 -0.04049498
0002c0 41 75 48 be 6f a4 8a be 0a 6f dc 3d 24 d9 10 3e
       -0.19575979 -0.27078578 0.107633665 0.14145333
0002d0 f4 04 aa be 4d bc 33 3e ae 88 07 be 97 f0 3f bd
       -0.33206904 0.175523 -0.13235733 -0.046860304
0002e0 ff 05 2a 3e 3d 5b 44 3e 2b 44 92 be 27 6b 0d 3c
       0.1660385 0.1917543 -0.28567633 0.008631504
0002f0 06 88 e6 3c 92 93 69 3e 4f 6d f1 bd 0c dc 0f 3e
       0.028141033 0.228102 -0.11788427 0.14048785
000300 6e 27 b9 3d 33 d4 f2 3d 3b 0a bb 3b be 8c 02 3e
       0.09040724 0.1185688 0.0057080067 0.12749001
000310 56 ef 2c bc 57 9d 76 be 13 24 17 be 6c 14 e5 3d
       -0.010555109 -0.24083458 -0.14759855 0.11185536
000320 1f a8 54 3e ab 27 19 3e ad 93 86 be e1 7d 12 bf
       0.20767258 0.14956538 -0.26284543 -0.57223326
000330 16 61 52 be bf fb 3e 3e 5d d8 af 3d d9 4a 4b be
       -0.20544848 0.18650721 0.0858619 -0.19852771
000340 27 70 a0 3e 73 a3 2f 3e 19 0c ba 3c 5c b1 18 be
       0.31335565 0.17152195 0.022710847 -0.14911407
000350 e3 ad a7 be c4 bd 96 ba e2 cd 87 be 63 39 79 be
       -0.32749853 -0.0011500646 -0.26524264 -0.24338298
000360 da 37 16 3e 16 b5 59 3e 70 27 21 3e 80 16 80 be
       0.14669743 0.21260485 0.157377 -0.25017166
000370 a3 ad 2d 3e cb f3 34 3e fe 39 0b 3e 29 d1 8b 3d
       0.16960768 0.17671125 0.13596341 0.068270035
000380 22 a2 c2 be de 9b 40 3d c2 19 7b be b0 aa 98 be
       -0.38014323 0.047023647 -0.24521545 -0.29817724
000390 80 d8 52 3d 85 74 b5 3a e8 21 35 3b 6e 01 c4 bd
       0.051476 0.001384393 0.0027638618 -0.09570585
0003a0 7c eb c1 3e 42 46 5f be d2 24 15 3f 8c d2 8d 3e
       0.37874973 -0.21804145 0.5825931 0.27699697
0003b0 67 d2 80 be 3c 93 32 3e 7e 44 51 be 3b 9e 12 3d
       -0.25160524 0.17438978 -0.20436284 0.03579543
0003c0 3b f2 e5 3d a9 b3 70 be b6 38 5d 3e 01 c3 94 bd
       0.112278424 -0.23506035 0.21603665 -0.072637565
0003d0 bd 17 ed 3d 70 29 56 3d b3 dc df 3d 64 be 3f 3e
       0.11576793 0.05228561 0.10930767 0.18724972
0003e0 ab 48 77 be b4 38 37 be 78 f9 30 be 20 17 64 be
       -0.24148814 -0.17892724 -0.17282665 -0.22274446
0003f0 d4 2c 68 3d 1f a6 a2 bd 04 0d 4e be 96 44 27 be
       0.056683376 -0.07941841 -0.20122153 -0.16334757

action_model._discrete_distribution.branches.0.bias f4 [2]
000000 e8 f8 49 3d 37 fb 49 bd
       0.04930964 -0.049311843
