Assets/Charge-4999506.onnx (onnx, 814689 bytes, 10 tensors)

network_body._body_endoder.seq_layers.0.weight f4 [256, 525]
0.049383115 0.022361599 -0.046662707 -0.013220398 0.06277735 0.23096173 0.24347699 0.06381702
-0.260368 -0.13724634 -0.32250828 0.023504378 -0.36313775 -0.0017128144 -0.021573106 -0.27381083
-0.1183087 -0.1452943 -0.13779026 -0.016424181 0.035320185 -0.10261736 0.033446115 0.08289458
0.08715244 0.024733162 0.33967566 0.10638369 0.09804819 -0.19646716 -0.15078983 -0.18480407
-0.01173344 -0.21462241 0.05113832 0.005764815 -0.19694227 -0.08161181 -0.054278877 -0.23669025
-0.00048317458 0.02664881 0.008385781 0.03317182 0.030495573 0.06585076 0.018177245 0.1971878
0.077877924 0.024623673 -0.34200457 -0.21660168 -0.21617827 -0.0068935943 -0.17980208 -0.0191354
0.027254036 -0.15585566 -0.08026853 -0.02895975 -0.25506356 0.02596062 -0.10807848 0.00895405
0.009838842 -0.032863915 -0.017556936 0.06542716 0.026351487 0.16471183 -0.043287195 -0.24297479
-0.17898819 -0.3218355 -0.028295424 -0.27533334 0.01864898 0.26216823 -0.18596686 -0.11054956
0.16184577 -0.29329222 -0.10907753 0.015590873 -0.0020220194 0.12168632 -0.032286644 0.051251005
0.045628496 0.0064391065 0.12860915 -0.041838836 -0.37023237 -0.19054565 -0.35791916 0.05739102
-0.32296014 0.042821802 0.12020032 -0.068440415 -0.13043055 0.03689612 -0.23406947 0.046943255
-0.03280918 0.042092644 0.07409425 -0.09688631 -0.018805632 0.0007120803 -0.016238457 0.09073228
-0.08322114 -0.22402598 -0.123921975 -0.27818832 -0.02511783 -0.32718337 -0.009285242 0.2386547
-0.09927 -0.00091880205 0.057269383 -0.31531385 0.118256494 -0.01179228 0.03187056 0.07511145
0.015332276 -0.025884474 0.039799754 -0.110683374 0.0517028 -0.29698002 -0.2621363 -0.16824326
-0.3444219 0.06425233 -0.32342687 0.035786316 0.066764824 -0.11564098 -0.06518547 0.13060428
-0.19636717 0.051420484 -0.05011447 0.10226146 0.00968125 -0.006741908 0.080035396 -0.008463863
-0.25423127 0.10155813 -0.24146636 -0.20319854 -0.16779397 -0.22700164 0.07993735 -0.322972
0.005485433 0.05176304 -0.18146364 -0.06542235 0.05575672 -0.2004319 0.050037835 -0.043825034
0.070917964 -0.04150171 0.04442422 0.017275898 -0.027897378 -0.4146904 -0.09357976 -0.3101315
-0.20745158 -0.18516657 -0.286444 0.08534812 -0.2929514 0.04077193 -0.054760776 -0.24423379
-0.055577945 0.11176373 -0.24068479 0.10999386 -0.10702731 0.020438164 0.02596265 -0.029645385
0.023998512 -0.21262236 -0.46664542 0.023787795 -0.23072942 -0.28954312 -0.22920302 -0.3428732
-0.009604699 -0.36358643 0.046731293 0.042277083 -0.10784213 -0.116852306 0.024856016 -0.2453943
0.012116379 0.06197043 0.06982989 -0.052780334 -0.0861724 0.0073574167 -0.17987992 -0.5506891
-0.036137067 -0.1810945 -0.27827674 -0.08643662 -0.06740991 0.023705002 -0.13937551 0.024943132
0.041707266 -0.235867 -0.102387816 0.08433602 -0.21909073 -0.016309455 -0.025291651 0.018879326
0.009300846 -0.017775228 0.13808481 -0.19413324 -0.48156273 0.025051134 -0.16045329 -0.3591266
-0.21609722 -0.15517694 -0.014075898 -0.13811304 -0.0066666002 -0.081313476 -0.036188446 -0.10850878
0.041078668 -0.21659933 0.0442208 -0.042648908 0.04927675 -0.0040624114 0.044372164 -0.066773824
00000000: f345 4a3d ac2f b73c 6521 3fbd 5e9a 58bc
00000010: 6991 803d 3b81 6c3e 0852 793e 7fb2 823d
00000020: f44e 85be 4e8a 0cbe ce1f a5be 418c c03c
00000030: 31ed b9be 8480 e0ba 15ba b0bc ef30 8cbe
00000040: d54b f2bd 07c8 14be e418 0dbe 018c 86bc
00000050: e6ab 103d 0d29 d2bd cbfe 083d a2c4 a93d
00000060: fa7c b23d 339d ca3c f8e9 ad3e b1df d93d
00000070: 7dcd c83d b02e 49be a668 1abe 473d 3dbe
00000080: 9d3d 40bc fac5 5bbe 6a76 513d c6e6 bc3b
00000090: 3cab 49be 1824 a7bd 8753 5ebd ee5e 72be
000000a0: 9852 fdb9 9b4e da3c 8464 093c 2ddf 073d
000000b0: dad1 f93c c3dc 863d 72e8 943c 99eb 493e
000000c0: 767e 9f3d 96b7 c93c 391b afbe d5cc 5dbe
000000d0: d65d 5dbe a9e3 e1bb 091e 38be d8c1 9cbc
000000e0: db43 df3c a098 1fbe d463 a4bd ff3c edbc
000000f0: b197 82be 5eab d43c 4058 ddbd 02b4 123c
00000100: 1833 213c 509c 06bd 90d3 8fbc adfe 853d
00000110: 13df d73c 38aa 283e ea4d 31bd 62ce 78be
00000120: ae48 37be 9fc7 a4be cecb e7bc 7ef8 8cbe
00000130: bfc5 983c ea3a 863e 196e 3ebe cf67 e2bd
00000140: e6ba 253e 662a 96be 0a64 dfbd dc70 7f3c
00000150: db83 04bb ad36 f93d 003f 04bd 93ec 513d
00000160: f2e4 3a3d 24ff d23b 1eb2 033e 335f 2bbd
00000170: 198f bdbe 661e 43be 2e41 b7be d912 6b3d
00000180: 085b a5be ea65 2f3d 962b f63d 7d2a 8cbd
00000190: 968f 05be 6320 173d e8af 6fbe 9247 403d
000001a0: eb62 06bd 5669 2c3d babe 973d 546c c6bd
000001b0: 450e 9abc e6aa 3a3a 8306 85bc d8d1 b93d
000001c0: d86f aabd 1167 65be ceca fdbd b36e 8ebe
000001d0: e8c3 cdbc 9484 a7be 2121 18bc e661 743e
000001e0: 124e cbbd c3db 70ba 4d93 6a3d d170 a1be
000001f0: 7630 f23d 6834 41bc b48a 023d 08d4 993d
00000200: 3a34 7b3c ad0b d4bc 1105 233d f7ad e2bd
00000210: 51c6 533d c40d 98be bb36 86be f647 2cbe
00000220: 1158 b0be ba96 833d 3598 a5be ac94 123d
00000230: ffbb 883d 2ed5 ecbd f67f 85bd 21bd 053e
00000240: 7a14 49be 499e 523d d544 4dbd 756e d13d
00000250: 1b9e 1e3c 39eb dcbb 99e9 a33d 04ac 0abc
00000260: 9a2a 82be b5fd cf3d f542 77be 4713 50be
00000270: 2fd2 2bbe 1e73 68be 31b6 a33d 965c a5be
00000280: 26bf b33b 7b05 543d 9bd1 39be 27fc 85bd
00000290: 2961 643d 053e 4dbe 79f4 4c3d e181 33bd
000002a0: 703d 913d b2fd 29bd 2cf6 353d 2f86 8d3c
000002b0: 0b89 e4bc 4d52 d4be bfa6 bfbd 8ec9 9ebe
000002c0: 306e 54be 4e9c 3dbe caa8 92be ffca ae3d
000002d0: bafd 95be 7800 273d d64c 60bd 6c18 7abe
000002e0: b3a5 63bd 62e4 e43d 1376 76be 7644 e13d
000002f0: 2231 dbbd f06d a73c a0af d43c e1da f2bc
00000300: 8798 c43c adb9 59be 26ec eebe 9fde c23c
00000310: 5544 6cbe ff3e 94be 32b4 6abe 138d afbe
00000320: 075d 1dbc 0028 babe 5069 3f3d bc2a 2d3d
00000330: 56dc dcbd 4350 efbd d89e cb3c a548 7bbe
00000340: c783 463c b5d4 7d3d f902 8f3d 3130 58bd
00000350: 287b b0bd 7c16 f13b 7132 38be f6f9 0cbf
00000360: 7604 14bd d670 39be 4a7a 8ebe af05 b1bd
00000370: 350e 8abd fe30 c23c 74b8 0ebe 8a55 cc3c
00000380: 3dd5 2a3d 1e87 71be b4b0 d1bd 5db8 ac3d
00000390: 5259 60be 689b 85bc 7030 cfbc d1a8 9a3c
000003a0: 9362 183c 5b9d 91bc 1b66 0d3e ddca 46be
000003b0: 648f f6be 0938 cd3c de4d 24be 71df b7be
000003c0: 9748 5dbe b4e6 1ebe 989e 66bc 816d 0dbe
000003d0: 7f73 dabb ae87 a6bd 563a 14bd da39 debd
000003e0: 1b42 283d 37cc 5dbe df20 353d 9fb0 2ebd
000003f0: 6bd6 493d fa1d 85bb 96bf 353d b7c0 88bd

network_body._body_endoder.seq_layers.0.bias f4 [256]
-0.3152283 0.35099792 -0.058821958 -0.17186093 -0.40060312 -0.117014915 -0.24675651 -0.377611
0.009300165 -0.3387357 0.15305185 -0.0010563213 0.11608679 -0.1561006 0.07487858 -0.33576682
0.19956134 -0.040975053 -0.15717146 -0.2572443 -0.19115973 -0.2430849 0.5074325 -0.40686706
-0.15230305 -0.20925522 -0.13978359 -0.03635541 0.22995666 -0.052753687 -0.036027208 -0.39259416
0.014713959 -0.39740986 -0.30974895 -0.28228757 -0.09555444 -0.40828174 -0.2802195 -0.40401697
0.073747054 0.114126496 0.0027277665 -0.28435922 -0.368491 -0.06654486 -0.07331356 -0.3495107
-0.15429063 0.15459715 -0.24861398 -0.13266371 -0.40596706 -0.2750234 -0.06316762 -0.065723926
-0.26142737 0.12542798 -0.0037644631 -0.24040122 0.10021752 -0.14658602 -0.41046277 -0.32133228
0.10028732 0.1134567 -0.108159795 -0.34630445 -0.103150524 -0.20532155 -0.18746866 0.10587123
-0.2903721 -0.2577434 -0.13886043 0.14888407 0.019520298 0.01959485 -0.27308068 -0.12180274
0.17974083 -0.023174556 0.11030417 -0.19410947 -0.14158072 -0.14796154 -0.022587115 -0.17735316
-0.2976248 0.19807355 -0.43825787 -0.1484176 -0.21687104 -0.34578663 -0.19391844 -0.0132789835
0.07387885 -0.18255639 -0.28535625 0.37223157 0.060395725 -0.025217107 0.12162461 -0.257374
-0.3380971 -0.00093169714 -0.45707875 -0.34592658 0.21428768 0.14137416 -0.22984456 0.06169476
-0.31425402 -0.0842773 -0.009307215 -0.06666088 -0.41671693 -0.053231936 -0.23810758 -0.2695707
-0.4264377 0.046549268 -0.0390559 -0.34534028 -0.14597002 -0.27366945 -0.32041216 -0.12886958
-0.12789406 -0.21847163 -0.16260037 -0.10540986 -0.26017618 -0.39194667 -0.32662147 -0.15419284
0.060844135 -0.15903503 -0.13100031 -0.26559538 -0.40443915 0.0008129051 0.022261089 -0.0442817
-0.27743948 -0.1349889 -0.14671431 -0.29958904 -0.091730915 -0.18319322 -0.009060045 0.2960586
-0.038844563 -0.24187891 0.020303411 -0.0072076586 -0.28756493 -0.3876744 -0.23732188 0.13544212
-0.36220676 0.06570843 0.014053033 -0.106083736 0.18357694 0.031104378 -0.08126673 0.14439358
-0.0628745 -0.31026864 -0.09159524 -0.29313785 -0.05074923 -0.12804791 -0.44159588 -0.110129215
0.10721011 -0.08076738 0.05080268 -0.29826 -0.09706792 -0.11993669 -0.13885517 -0.10930464
-0.23409548 0.15821406 -0.10011461 0.022474062 -0.26475656 -0.28082088 -0.08024747 -0.15289512
-0.35299656 -0.11662386 -0.38838643 -0.09142701 -0.36690852 0.106668815 -0.076374404 -0.19152497
0.22610003 -0.25957024 -0.28201908 -0.053163175 -0.14700265 -0.07140555 0.12556164 -0.3580177
-0.16058905 -0.04599602 -0.33618715 -0.3984523 -0.19617559 -0.30354685 -0.12574811 -0.05734519
-0.07095305 -0.015357817 -0.09820734 -0.098508306 0.120185085 -0.12037419 0.43666276 -0.36030123
0.15899853 -0.31511056 0.045426123 0.060261276 0.23267089 -0.089018956 -0.2564545 -0.22138831
-0.20915326 -0.50925493 -0.12243366 -0.06500953 0.1943527 -0.04630838 -0.10390268 -0.41794047
0.05770895 -0.12425232 -0.17903733 -0.22304538 -0.07339193 -0.24499808 -0.17892456 -0.2637131
-0.46163458 -0.22625971 -0.22434258 0.09983909 -0.09627165 -0.0642105 -0.12385278 -0.16720062
00000000: 9b65 a1be 00b6 b33e 4bef 70bd 50fc 2fbe
00000010: da1b cdbe 84a5 efbd bdad 7cbe 3b56 c1be
00000020: b85f 183c c46e adbe a0b9 1c3e 4374 8aba
00000030: e9be ed3d d6d8 1fbe f159 993d a1e9 abbe
00000040: cf59 4c3e 75d5 27bd 8ef1 20be 86b5 83be
00000050: 60bf 43be 3feb 78be 19e7 013f e150 d0be
00000060: 55f5 1bbe 0047 56be 6e23 0fbe 69e9 14bd
00000070: c279 6b3e 4014 58bd 4491 13bd 1a02 c9be
00000080: d112 713c 4e79 cbbe 6a97 9ebe ff87 90be
00000090: 0cb2 c3bd 4e0a d1be ee78 8fbe 50db cebe
000000a0: b208 973d 27bb e93d 54c4 323b 8897 91be
000000b0: daaa bcbe ac48 88bd 6b25 96bd 11f3 b2be
000000c0: 5dfe 1dbe b74e 1e3e aa94 7ebe ffd8 07be
000000d0: eada cfbe decf 8cbe 065e 81bd 449a 86bd
000000e0: cfd9 85be 3170 003e 36b5 76bb bd2b 76be
000000f0: d83e cd3d a51a 16be 2d28 d2be aa85 a4be
00000100: 7063 cd3d fd5b e83d e282 ddbd d14e b1be
00000110: 9540 d3bd d03f 52be c9f7 3fbe 04d3 d83d
00000120: a7ab 94be f1f6 83be 6e31 0ebe 1175 183e
00000130: 08e9 9f3c 6185 a03c 3bd1 8bbe b773 f9bd
00000140: fb0d 383e 91d8 bdbc 27e7 e13d a2c4 46be
00000150: 89fa 10be 3b83 17be 9d08 b9bc 119c 35be
00000160: 4762 98be cbd3 4a3e 5663 e0be c9fa 17be
00000170: 7113 5ebe f20a b1be 8e92 46be 1890 59bc
00000180: cb4d 973d 10f0 3abe 371a 92be 2395 be3e
00000190: 8261 773d 1b94 cebc 5316 f93d 86c6 83be
000001a0: 101b adbe 233d 74ba 3a06 eabe 4a1d b1be
000001b0: 3b6e 5b3e 63c4 103e 5f5c 6bbe a5b3 7c3d
000001c0: e7e5 a0be 9499 acbd 4a7d 18bc 8085 88bd
000001d0: ec5b d5be bb09 5abd 79d2 73be 2c05 8abe
000001e0: 0b56 dabe 72aa 3e3d 14f9 1fbd 71d0 b0be
000001f0: 2a79 15be 671e 8cbe 100d a4be 63f6 03be
00000200: a9f6 02be 07b7 5fbe b680 26be 20e1 d7bd
00000210: d035 85be 3cad c8be ee3a a7be bae4 1dbe
00000220: b337 793d 14da 22be f224 06be 1efc 87be
00000230: a612 cfbe 2319 553a e35c b63c ba60 35bd
00000240: 8c0c 8ebe 883a 0abe 473c 16be bc63 99be
00000250: 6bdd bbbd 0197 3bbe 9570 14bc fe94 973e
00000260: 7a1b 1fbd 1baf 77be 5753 a63c 392e ecbb
00000270: b63b 93be 427d c6be 8204 73be 57b1 0a3e
00000280: 2a73 b9be 2492 863d b13e 663c 6e42 d9bd
00000290: 98fb 3b3e 9cce fe3c 2c6f a6bd e9db 133e
000002a0: 59c4 80bd 88db 9ebe 4996 bbbd 2a16 96be
000002b0: 6dde 4fbd fe1e 03be db18 e2be 6d8b e1bd
000002c0: f990 db3d 5e69 a5bd 7916 503d 89b5 98be
000002d0: 8ccb c6bd 5ea1 f5bd 0d30 0ebe 1cdb dfbd
000002e0: bab6 6fbe de02 223e e308 cdbd 861b b83c
000002f0: 2c8e 87be c1c7 8fbe c958 a4bd 8a90 1cbe
00000300: f7bb b4be 7ed8 eebd 96da c6be 163e bbbd
00000310: 6fdb bbbe 2e75 da3d 2f6a 9cbd 1f1f 44be
00000320: c486 673e 64e6 84be ce64 90be a1c1 59bd
00000330: dd87 16be 133d 92bd 3b93 003e 194e b7be
00000340: 7571 24be 5366 3cbd b920 acbe f101 ccbe
00000350: 41e2 48be 7e6a 9bbe 1dc4 00be cae2 6abd
00000360: d54f 91bd 5a9f 7bbc ee20 c9bd b9be c9bd
00000370: 9923 f63d be86 f6bd 4392 df3e 6779 b8be
00000380: 83d0 223e 2c56 a1be be10 3a3d 87d4 763d
00000390: 4741 6e3e 924f b6bd 014e 83be 9eb3 62be
000003a0: 462c 56be 885e 02bf 80be fabd b723 85bd
000003b0: 6504 473e dbad 3dbd eeca d4bd 4bfc d5be
000003c0: 3860 6c3d 0078 febd 9055 37be 0266 64be
000003d0: 824e 96bd c7e0 7abe 0038 37be 6705 87be
000003e0: 5e5b ecbe a0b0 67be 10ba 65be 7078 cc3d
000003f0: 122a c5bd cb80 83bd 87a6 fdbd a436 2bbe

network_body._body_endoder.seq_layers.2.weight f4 [256, 256]
-0.121433936 -0.17719342 -0.05368159 -0.36683452 0.007905762 -0.080731586 0.06514505 -0.200335
0.27080986 -0.21725014 -0.12797602 -0.27296185 -0.020680718 -0.54438865 -0.03842364 0.112745374
-0.024367195 -0.076909445 -0.014683989 -0.24362415 0.032879896 -0.19366825 -0.29452413 0.16604733
-0.20491867 0.025886081 -0.15834445 -0.02653087 -0.11895007 0.010515585 0.19623345 0.055914354
0.036610756 0.119572304 -0.04618868 -0.0723176 -0.07130824 -0.05143229 0.054634333 -0.02379159
0.09291526 0.055879053 -0.046982814 0.03371731 0.034294195 -0.16046205 -0.0012418124 -0.10954722
-0.062384307 0.04427102 -0.005917861 0.21316938 -0.14166433 -0.041565653 -0.00481838 0.033042565
0.17526846 -0.06430627 -0.0036505987 -0.37970972 0.07245988 -0.16641068 0.072367914 -0.16226757
-0.25753072 -0.071133025 -0.0020833507 0.008021489 -0.02965933 -0.018648826 -0.033335738 0.06502855
-0.15884168 0.08513927 0.061510757 -0.056848187 -0.14545183 -0.13530895 0.005929522 0.06155895
-0.02708637 0.051704902 -0.08688139 0.06755572 -0.010340096 0.0434769 0.08224954 -0.09281165
-0.45004222 0.00059491995 -0.053095482 0.039506737 0.04416595 -0.06668151 0.085346796 -0.10925656
0.069310784 0.009004851 -0.04568407 0.007744215 -0.057529993 0.033269513 -0.01457456 -0.2884529
0.07382707 -0.1510102 0.059603646 0.15880613 -0.048280906 -0.03167137 -0.31351674 -0.14418648
0.10092335 -0.02394704 0.06299835 -0.007046253 0.018422429 0.06533025 0.08774449 -0.17535545
0.121691205 0.07929268 -0.096553065 -0.01357269 -0.06612951 -0.07009097 -0.043998662 -0.006911076
0.01879986 -0.03829924 -0.22280146 0.012030022 -0.057667367 0.18066792 0.05950781 -0.03437208
0.22863305 -0.22643876 0.003698179 -0.13401353 -0.20026022 -0.17751163 0.22727878 0.06266551
-0.24768947 -0.013615622 -0.029502941 0.0015220161 -0.02570482 -0.00851687 -0.0033569022 -0.10886541
0.2301951 0.08970716 -0.05440935 -0.11235168 0.019822706 -0.08483837 0.12872764 -0.008836119
-0.021958163 -0.2597915 -0.3459792 -0.16216187 -0.18437532 0.038591485 0.06700537 -0.13634846
-0.023680847 -0.025744297 -0.39067626 -0.08080611 0.0014195173 0.13012381 -0.005509291 -0.027089642
-0.113637745 0.2583857 -0.11394883 0.08052671 0.058531854 -0.12822042 -0.052697916 -0.24327444
0.090211816 0.02083454 -0.022840474 0.040732913 0.08040152 -0.17233081 0.012189141 -0.3506064
-0.027356315 -0.07538115 -0.027460068 0.05795215 -0.0878546 0.19661376 -0.13193941 0.21411303
-0.13509193 0.065625384 0.21828249 -0.032664727 0.21010412 0.024995718 -0.25696746 -0.0081627
-0.13724832 -0.35077512 0.20207602 0.080808885 -0.07745998 0.04370888 -0.03618014 -0.1452718
0.07609465 -0.0023354848 -0.03557248 0.048836075 0.08279133 -0.14341232 -0.27318054 -0.009596688
0.0096870875 0.12592585 0.0032049743 -0.10170607 0.065823205 0.013315981 0.117396384 -0.2692995
-0.22796279 0.25474626 0.07504785 0.03623293 0.078031436 -0.08163559 0.079293646 0.049605463
-0.12206856 -0.063994706 -0.0744698 0.08579303 -0.068831615 0.1100957 -0.0682102 -0.08670446
-0.047070764 0.023185808 -0.0075776344 -0.24905391 0.023131704 -0.015888374 -0.058888335 -0.08675606
00000000: 5bb2 f8bd 3172 35be 3ae1 5bbd bcd1 bbbe
00000010: 2b87 013c 9a56 a5bd c56a 853d 9e24 4dbe
00000020: 97a7 8a3e d276 5ebe 250c 03be a8c1 8bbe
00000030: 9c6a a9bc 0e5d 0bbf 1b62 1dbd 0ce7 e63d
00000040: b69d c7bc b382 9dbd 1d95 70bc 9c78 79be
00000050: 12ad 063d f850 46be decb 96be 5008 2a3e
00000060: 33d6 51be 0c0f d43c 0c25 22be 4457 d9bc
00000070: 189c f3bd 8f49 2c3c 6cf1 483e 7306 653d
00000080: 29f5 153d 53e2 f43d 5730 3dbd 401b 94bd
00000090: 0e0a 92bd aaaa 52bd 40c8 5f3d 95e6 c2bc
000000a0: 5b4a be3d 6fe1 643d 0d71 40bd 291b 0a3d
000000b0: 1278 0c3d 2a50 24be 4fc4 a2ba 4b5a e0bd
000000c0: b086 7fbd 8755 353d 9eea c1bb 1349 5a3e
000000d0: 7410 11be bf40 2abd 80e3 9dbb a457 073d
000000e0: 9379 333e 01b3 83bd e23e 6fbb 5069 c2be
000000f0: d865 943d 9067 2abe a135 943d 7829 26be
00000100: 11db 83be 31ae 91bd d388 08bb 906c 033c
00000110: 20f8 f2bc 6cc5 98bc 0e8b 08bd b02d 853d
00000120: 65a7 22be 7f5d ae3d b4f2 7b3d a5d9 68bd
00000130: 53f1 14be 6e8e 0abe 704c c23b 3d25 7c3d
00000140: 3ce4 ddbc 85c8 533d dfee b1bd a75a 8a3d
00000150: 8269 29bc d514 323d 7272 a83d 0914 bebd
00000160: ef6b e6be 67f4 1b3a a67a 59bd d1d1 213d
00000170: 5be7 343d 5190 88bd 4dca ae3d e7c1 dfbd
00000180: d0f2 8d3d 1589 133c 381f 3bbd 2fc3 fd3b
00000190: 92a4 6bbd 9d45 083d 23ca 6ebc 19b0 93be
000001a0: a632 973d 6ba2 1abe f422 743d 139e 223e
000001b0: 33c2 45bd d7b9 01bd 4485 a0be 9fa5 13be
000001c0: e7b0 ce3d 952c c4bc 4705 813d 41e4 e6bb
000001d0: a2ea 963c decb 853d 62b3 b33d 6190 33be
000001e0: 3d39 f93d 3364 a23d 9dbd c5bd fd5f 5ebc
000001f0: e96e 87bd db8b 8fbd f137 34bd 4f76 e2bb
00000200: 2a02 9a3c aadf 1cbd 1126 64be 9219 453c
00000210: 9e34 6cbd 0301 393e 76be 733d bdc9 0cbd
00000220: c81e 6a3e 90df 67be 265d 723b d83a 09be
00000230: 0411 4dbe 9cc5 35be c5bb 683e c656 803d
00000240: 4fa2 7dbe 0f14 5fbc 27b0 f1bc 637e c73a
00000250: ea92 d2bc 588a 0bbc 79ff 5bbb d4f4 debd
00000260: 44b8 6b3e 63b8 b73d 57dc 5ebd a318 e6bd
00000270: 3a63 a23c bdbf adbd 2ed1 033e 5fc5 10bc
00000280: 9be1 b3bc 6403 85be 3024 b1be c30d 26be
00000290: e2cc 3cbe 1b12 1e3d 1d3a 893d ee9e 0bbe
000002a0: 56fe c1bc b4e5 d2bc b806 c8be ac7d a5bd
000002b0: 190f ba3a 2d3f 053e 4887 b4bb 19eb ddbc
000002c0: e8ba e8bd 214b 843e 015e e9bd 30eb a43d
000002d0: 19bf 6f3d 374c 03be c5d9 57bd ef1c 79be
000002e0: f9c0 b83d 32ad aa3c f21b bbbc 8ed7 263d
000002f0: 8da9 a43d 7d77 30be f6b4 473c af82 b3be
00000300: 5a1a e0bc 6f61 9abd f0f3 e0bc 3c5f 6d3d
00000310: 1ded b3bd 1e55 493e 201b 07be 7240 5b3e
00000320: 8a55 0abe 9a66 863d 7285 5f3e 73cb 05bd
00000330: 8925 573e d2c3 cc3c 3d91 83be d8bc 05bc
00000340: d38a 0cbe cc98 b3be 04ed 4e3e 217f a53d
00000350: 57a3 9ebd 1508 333d a031 14bd 21c2 14be
00000360: 83d7 9b3d ef0e 19bb 73b4 11bd 5608 483d
00000370: 808e a93d aeda 12be 52de 8bbe 6d3b 1dbc
00000380: 97b6 1e3c b5f2 003e 8c0a 523b 464b d0bd
00000390: 51ce 863d 462b 5a3c 846d f03d a0e1 89be
000003a0: 146f 69be 1a6e 823e b0b2 993d fb68 143d
000003b0: f2ce 9f3d 8f30 a7bd b564 a23d 192f 4b3d
000003c0: 15ff f9bd a80f 83bd 9f83 98bd 42b4 af3d
000003d0: 97f7 8cbd db79 e13d cab1 8bbd 1c92 b1bd
000003e0: 46cd 40bd 2af0 bd3c ce4d f8bb fd07 7fbe
000003f0: b37e bd3c 5628 82bc e534 71bd 29ad b1bd

network_body._body_endoder.seq_layers.2.bias f4 [256]
-0.16131283 -0.099355906 -0.1075727 -0.29934293 0.07870985 -0.095072545 -0.26039812 0.08491606
-0.108274184 -0.04929946 -0.02008562 0.054176953 -0.27596983 -0.0035405378 -0.028354207 0.057246212
0.1016699 -0.09398699 0.06340464 -0.07493368 0.055659823 -0.09338994 -0.21405391 0.064808905
0.004070788 -0.01877604 -0.034300532 0.13647234 -0.18485898 -0.3840474 0.0016062381 0.0833504
-0.23767272 -0.16275823 -0.08299302 -0.13211516 -0.027862068 -0.2169938 -0.23823209 -0.026325513
-0.06816861 0.041396372 0.05591015 -0.034831088 0.106572986 -0.18675926 -0.117516905 -0.07190645
-0.02842489 0.014027378 -0.07550109 -0.050931487 -0.025703127 -0.09731713 -0.14245038 -0.12266154
-0.07343149 0.053397067 0.05037852 -0.03714324 -0.01007557 0.14117672 -0.069532424 0.021607848
-0.108523935 -0.07114626 -0.08696985 -0.0023770002 -0.24083996 -0.119491644 -0.019244548 -0.00045128487
-0.19316024 0.0512193 -0.108202115 -0.09450893 0.006990798 -0.041754864 0.12737861 -0.1815281
-0.08696458 -0.17819281 0.013559163 -0.40047282 -0.077828564 0.22091618 0.018897168 0.051341627
0.021997686 -0.040436883 -0.25415102 -0.065694965 -0.09777639 -0.2450683 -0.036276206 -0.20714876
0.0637084 0.11289169 -0.1332371 -0.13126738 -0.01590011 0.05326479 -0.09844083 -0.41557643
-0.20168085 -0.08602076 -0.074634925 -0.20303252 -0.2562909 -0.014251225 0.11490174 -0.0764694
0.024461702 -0.21545236 -0.30412212 -0.06780659 -0.16940652 -0.11583314 0.069142625 -0.007940838
-0.080252215 -0.16303551 -0.08085821 -0.2441967 -0.033700716 -0.065192014 0.08998298 -0.028411882
-0.13671097 -0.1590283 -0.1442073 -0.004225472 0.04359765 -0.19117475 -0.22733697 -0.08783782
0.00092921674 0.16097093 -0.21905483 -0.16532753 -0.03565231 0.035478253 0.017769044 -0.07183141
-0.16521767 -0.07224618 -0.12786844 0.05639049 0.1186836 0.11630293 -0.1560213 0.0071911286
-0.06500381 -0.13883297 -0.039694536 0.019384794 -0.04618651 -0.02371363 -0.15248688 0.030495597
-0.05156747 -0.014431392 0.06070188 -0.11844327 0.198839 0.052524846 -0.03201019 -0.018374156
0.07176197 -0.08940926 -0.23405997 -0.077375546 -0.26761362 -0.14008738 -0.0887095 -0.3045882
0.13773607 0.015814565 -0.19394982 -0.03278232 0.0238451 0.04724754 -0.0357996 -0.05468251
0.0149687985 0.005940585 0.030396847 -0.38226438 -0.20404536 -0.10216783 -0.053497303 -0.2055462
-0.10885398 -0.39964503 0.029862907 -0.043476004 -0.013416966 -0.041504405 0.06637459 -0.14388447
0.27997446 -0.07239638 -0.22689448 -0.011783986 -0.18311827 0.0209234 -0.14233331 -0.047639765
0.0021869072 -0.011680851 -0.27006415 0.090922646 -0.17919426 0.0014259678 -0.17006707 -0.051283844
-0.076941885 0.17526084 -0.12182733 -0.06516112 -0.32027847 -0.07812026 -0.0079133995 -0.21263488
-0.086185135 -0.067150645 -0.08809051 0.026339589 -0.27055436 -0.0074183503 0.011187976 -0.055263
-0.31844977 -0.22027929 -0.13281527 0.08642149 -0.09945674 -0.117671445 -0.027294902 0.026895287
-0.018765382 -0.3093446 -0.09166924 0.004800708 0.21865739 -0.10268132 -0.13625148 -0.23453201
-0.20031469 -0.08255063 0.051185146 -0.0035260178 -0.07310423 -0.25398186 0.0022579678 0.0019645824
00000000: 312f 25be 1c7b cbbd 134f dcbd 7a43 99be
00000010: a132 a13d 65b5 c2bd e752 85be 79e8 ad3d
00000020: dbbe ddbd 3bee 49bd 998a a4bc a7e8 5d3d
00000030: eb4b 8dbe 5e08 68bb 1547 e8bc 017b 6a3d
00000040: 4f38 d03d 407c c0bd 4bda 813d d476 99bd
00000050: 8efb 633d 3a43 bfbd f330 5bbe 88ba 843d
00000060: 3f64 853b 36d0 99bc b77e 0cbd 68bf 0b3e
00000070: ac4b 3dbe dca1 c4be 6888 d23a 9db3 aa3d
00000080: 7a60 73be 18aa 26be 3ff8 a9bd 3249 07be
00000090: fe3e e4bc 9f33 5ebe 1df3 73be 9aa8 d7bc
000000a0: fc9b 8bbd 3e8f 293d 0b02 653d 0bab 0ebd
000000b0: f042 da3d d23d 3fbe b4ac f0bd b043 93bd
000000c0: 51db e8bc 16d3 653c 51a0 9abd 899d 50bd
000000d0: 5d8f d2bc 344e c7bd 83de 11be f935 fbbd
000000e0: 4063 96bd e2b6 5a3d b559 4e3d 8323 18bd
000000f0: 0114 25bc a190 103e 0467 8ebd f102 b13c
00000100: cc41 debd 21b5 91bd 401d b2bd 72c7 1bbb
00000110: c09e 76be 09b8 f4bd bea6 9dbc 6e9a ecb9
00000120: cccb 45be 54cb 513d 1299 ddbd e68d c1bd
00000130: 1013 e53b 2607 2bbd 8a6f 023e 81e2 39be
00000140: 7c1a b2bd 2d78 36be 4027 5e3c c60a cdbe
00000150: 9564 9fbd da37 623e 3cce 9a3c 994b 523d
00000160: 7e34 b43c 25a1 25bd 1520 82be 158b 86bd
00000170: fd3e c8bd 2ff3 7abe 5c96 14bd ce1e 54be
00000180: 8d79 823d c233 e73d 4e6f 08be f56a 06be
00000190: f340 82bc 2e2c 5a3d 599b c9bd 6fc6 d4be
000001a0: 6d85 4ebe a72b b0bd 32da 98bd c2e7 4fbe
000001b0: 9038 83be f87d 69bc 9a51 eb3d fd9b 9cbd
000001c0: e863 c83c 8b9f 5cbe e5b5 9bbe 2ede 8abd
000001d0: e778 2dbe ed39 edbd a69a 8d3d 4a1a 02bc
000001e0: 465b a4bd c8f2 26be fd98 a5bd b30e 7abe
000001f0: c309 0abd 6483 85bd ff48 b83d 09c0 e8bc
00000200: f6fd 0bbe 51d8 22be 14ab 13be d475 8abb
00000210: 7393 323d 50c3 43be 06cb 68be 51e4 b3bd
00000220: ae96 733a 90d5 243e e94f 60be 9f4b 29be
00000230: 2808 12bd a551 113d 6390 913c 591c 93bd
00000240: d22e 29be cef5 93bd f2ef 02be b7f9 663d
00000250: 6310 f33d 3b30 ee3d 0cc4 1fbe 8fa3 eb3b
00000260: b820 85bd 3b2a 0ebe bd96 22bd dccc 9e3c
00000270: 112e 3dbd 1643 c2bc 8525 1cbe e7d1 f93c
00000280: 6938 53bd a571 6cbc 89a2 783d 6392 f2bd
00000290: 739c 4b3e 4b24 573d 1e1d 03bd 6685 96bc
000002a0: f1f7 923d 341c b7bd 6bad 6fbe 1277 9ebd
000002b0: a704 89be 1173 0fbe 54ad b5bd fcf2 9bbe
000002c0: af0a 0d3e 8c8d 813c c89a 46be c146 06bd
000002d0: cd56 c33c a386 413d 9aa2 12bd c5fa 5fbd
000002e0: b13f 753c 3da9 c23b cf02 f93c 28b8 c3be
000002f0: 44f1 50be 5e3d d1bd fd1f 5bbd b47a 52be
00000300: d6ee debd 469e ccbe 0ea3 f43c e513 32bd
00000310: d6d2 5bbc 8600 2abd 67ef 873d 7356 13be
00000320: d058 8f3e 8e44 94bd 0757 68be 9f11 41bc
00000330: 5b83 3bbe 8d67 ab3c d3bf 11be ea21 43bd
00000340: 3752 0f3b 0a61 3fbc d945 8abe a735 ba3d
00000350: b37e 37be 8ae7 ba3a 1026 2ebe 020f 52bd
00000360: b593 9dbd 9477 333e 9b80 f9bd 3173 85bd
00000370: 8afb a3be 84fd 9fbd 34a7 01bc f5bc 59be
00000380: d581 b0bd 4786 89bd cc68 b4bd 1fc6 d73c
00000390: 1a86 8abe a215 f3bb c64d 373c 755b 62bd
000003a0: d90b a3be e590 61be ba00 08be c0fd b03d
000003b0: faaf cbbd bafd f0bd 8f99 dfbc 8153 dc3c
000003c0: dcb9 99bc 6a62 9ebe 15bd bbbd 424f 9d3b
000003d0: b9e7 5f3e 954a d2bd 8285 0bbe 2929 70be
000003e0: 4b1f 4dbe 4e10 a9bd 84a7 513d c314 67bb
000003f0: acb7 95bd e909 82be 6afa 133b 39c0 003b

action_model._continuous_distribution.mu.weight f4 [2, 256]
-0.08329044 0.012027564 0.11428979 0.09409644 0.15131946 0.09184759 0.14630346 0.03214912
-0.24880755 0.009556894 0.0532759 -0.03437742 -0.054868247 -0.28496817 0.051862713 0.0626416
0.2583207 0.027877437 0.014949209 0.033454824 0.0055932067 -0.13962245 -0.005959542 -0.023961384
-0.21129714 -0.0051573394 -0.21625039 -0.2778899 0.0071479185 0.05285336 0.15098903 -0.09104888
-0.007309492 -0.21082662 -0.0087663885 -0.13353951 0.041103512 -0.14474228 -0.17677534 0.27261013
-0.17793663 -0.090137705 -0.023811705 -0.049339693 0.06853318 -0.51547736 -0.16904797 0.11063546
-0.027799726 -0.16478682 -0.32669464 -0.048440617 -0.26127657 0.039038394 -0.1903188 0.07723593
-0.15287733 0.018559556 0.04481257 -0.6658552 0.030288361 0.13755977 0.069817424 0.21230863
0.16286525 0.11160626 0.12587123 -0.2342818 0.014034883 0.02289332 -0.043167725 0.2678076
0.062188864 -0.13536116 0.03610006 -0.31826916 -0.078921676 -0.031907454 0.049192134 -0.07462724
-0.28280625 -0.055578984 -0.25118044 0.26263365 -0.124798395 -0.0069194688 -0.13512604 0.06342491
-0.0074287974 0.22861175 -0.2334793 -0.6456022 0.024395924 0.082494155 0.11854963 -0.0092365155
0.22019996 0.040369492 -0.08502521 0.011655802 -0.01745859 0.11169201 -0.027989013 0.13914588
0.040957596 -0.050744977 0.0025804834 -0.14148274 -0.028113231 0.09002356 -0.21890876 -0.042053636
0.18471837 -0.14539891 -0.09107039 -0.16741833 0.062055998 -0.18824404 0.008630937 0.123487815
0.089076035 0.58139455 -0.004009115 0.13120846 0.16817525 -0.16165766 0.022550127 0.0026960033
0.18758696 0.105772205 0.10590109 0.1101045 0.074849725 -0.069839716 0.112445265 -0.30391598
0.037850685 -0.090204 0.054482505 0.037057884 -0.04823166 0.061632447 0.032321084 -0.23109357
-0.28473222 0.1916418 -0.22243422 -0.07897623 -0.26420736 0.42775297 -0.12702364 -0.041463457
0.07823882 -0.3552526 -0.031943955 -0.062910594 -0.19361353 0.0293439 0.002335119 0.073072456
-0.014313993 -0.07060169 0.021040145 -0.31804007 0.262124 -0.029433625 0.19985507 -0.06827267
-0.013192837 -0.2573359 -0.09648169 -0.34432104 -0.016682599 0.079923145 -0.09278386 0.0027438267
-0.072247654 -0.051231574 -0.1948927 -0.057804666 0.08119157 -0.025368746 0.067546345 0.25355753
-0.4224626 -0.29006392 -0.08705875 -0.06128146 0.15778065 -0.25342745 0.02580423 0.053322565
-0.053645495 0.3705095 -0.16112871 -0.0053296937 -0.61869097 0.050363407 0.04200014 0.041821722
0.04100519 -0.30941746 0.076376855 0.10680954 0.18433458 -0.26689747 0.13010861 -0.21861446
0.16888227 0.36848354 -0.1267885 0.0044410042 0.020634834 0.0106878085 0.006812634 0.21539333
0.022712637 -0.00020435665 0.02446554 0.11129007 0.0070046196 0.049678218 -0.007005157 0.23490775
0.11551623 -0.01133319 -0.033644598 0.04139385 0.08704499 0.08233607 0.043130815 0.04448578
0.25011367 0.20475827 -0.0363439 -0.21575038 -0.11591039 -0.14003512 -0.17676906 0.027895482
-0.19274704 0.14491656 0.12909296 -0.007778948 0.1291744 -0.014115578 0.23959525 0.04224584
0.052469604 -0.017290717 -0.007291208 -0.17856896 0.057639707 -0.25180373 -0.074087456 0.055345364
00000000: 2e94 aabd 430f 453c c410 ea3d a2b5 c03d
00000010: 7df3 1a3e 971a bc3d 93d0 153e ccae 033d
00000020: 68c7 7ebe 8594 1c3c d537 5a3d 56cf 0cbd
00000030: 87bd 60bd 59e7 91be ff6d 543d 3d4a 803d
00000040: 9c42 843e 395f e43c 87ed 743c ed07 093d
00000050: 3847 b73b 30f9 0ebe 4348 c3bb aa4a c4bc
00000060: 475e 58be e6fe a8bb be70 5dbe 9647 8ebe
00000070: 1639 ea3b c47c 583d de9c 1a3e d677 babd
00000080: 7784 efbb efe2 57be e6a0 0fbc 95be 08be
00000090: 285c 283d 5237 14be 9804 35be 8e93 8b3e
000000a0: 0535 36be 1e9a b8bd c410 c3bc 6b18 4abd
000000b0: 205b 8c3d 53f6 03bf e91a 2dbe d894 e23d
000000c0: 40bc e3bc e0bd 28be 8544 a7be ab69 46bd
000000d0: 0bc6 85be b9e6 1f3d eee2 42be df2d 9e3d
000000e0: e08b 1cbe 360a 983c 638d 373d 7d75 2abf
000000f0: 4c1f f83c 78dc 0c3e 70fc 8e3d 6f67 593e
00000100: 26c6 263e d391 e43d 63e4 003e 91e7 6fbe
00000110: 91f2 653c c68a bb3c a4d0 30bd 141e 893e
00000120: c0b9 7e3d 1e9c 0abe a8dd 133d 2df4 a2be
00000130: b0a1 a1bd 64b1 02bd b17d 493d 2bd6 98bd
00000140: fbcb 90be caa6 63bd b99a 80be eb77 863e
00000150: 4d96 ffbd b6bc e2bb 7b5e 0abe ebe4 813d
00000160: 456d f3bb 3319 6a3e 3315 6fbe 3046 25bf
00000170: f6d9 c73c b2f2 a83d 26ca f23d c154 17bc
00000180: 197c 613e 7b5a 253d b321 aebd faf7 3e3c
00000190: 5105 8fbc c8be e43d 3749 e5bc 427c 0e3e
000001a0: 27c3 273d f7d9 4fbd 541d 293b dae0 10be
000001b0: b84d e6bc 465e b83d 9e29 60be 6f40 2cbd
000001c0: d026 3d3e 74e3 14be 1d83 babd b66f 2bbe
000001d0: 6e2e 7e3d 0cc3 40be c668 0d3c 2ee7 fc3d
000001e0: 7f6d b63d 46d6 143f e55e 83bb 835b 063e
000001f0: 2236 2c3e 9689 25be 0bbb b83c 6eaf 303b
00000200: cc16 403e 199f d83d ace2 d83d 787e e13d
00000210: d04a 993d 2008 8fbd b449 e63d e09a 9bbe
00000220: 5209 1b3d e0bc b8bd 0c29 5f3d 02ca 173d
00000230: 908e 45bd 4e72 7c3d 1d63 043d cba3 6cbe
00000240: 6cc8 91be bf3d 443e ccc5 63be 4abe a1bd
00000250: 3046 87be 7002 db3e 7c12 02be 96d5 29bd
00000260: ad3b a03d abe3 b5be aad7 02bd 45d7 80bd
00000270: a042 46be 9e62 f03c cc08 193b 03a7 953d
00000280: 3d85 6abc 9e97 90bd 625c ac3c 26d6 a2be
00000290: 1e35 863e c91e f1bc cfa6 4c3e 8bd2 8bbd
000002a0: c526 58bc 88c1 83be 3198 c5bd d94a b0be
000002b0: f2a9 88bc bfae a33d 7705 bebd c6d1 333b
000002c0: 94f6 93bd 33d8 51bd f491 47be 96c4 6cbd
000002d0: c447 a63d 1ed2 cfbc bd55 8a3d 4bd2 813e
000002e0: 054d d8be 4283 94be dc4b b2bd 4502 7bbd
000002f0: 4091 213e 3ec1 81be 6463 d33c c368 5a3d
00000300: 61bb 5bbd 6cb3 bd3e edfe 24be b6a4 aebb
00000310: 8862 1ebf dc49 4e3d 5708 2c3d 414d 2b3d
00000320: 0ff5 273d f76b 9ebe 786b 9c3d f6be da3d
00000330: 34c2 3c3e c9a6 88be 313b 053e 78dc 5fbe
00000340: 79ef 2c3e e0a9 bc3e d8d4 01be d885 913b
00000350: 620a a93c eb1b 2f3c 843c df3b 1290 5c3e
00000360: da0f ba3c 9248 56b9 f56b c83c 0cec e33d
00000370: 0287 e53b 637b 4b3d 848b e5bb a88b 703e
00000380: c693 ec3d d8ae 39bc ebce 09bd 998c 293d
00000390: a544 b23d d09f a83d f0a9 303d b936 363d
000003a0: e60e 803e 27ac 513e 57dd 14bd abed 5cbe
000003b0: 6d62 edbd 5e65 0fbe f302 35be 1185 e43c
000003c0: 7b5f 45be 0265 143e f230 043e 8ce6 febb
000003d0: 4b46 043e 0645 67bc 7558 753e f909 2d3d
000003e0: 5eea 563d 43a5 8dbc 16eb eebb c8da 36be
000003f0: 9d17 6c3d 6bec 80be 2abb 97bd d2b1 623d

action_model._continuous_distribution.mu.bias f4 [2]
0.09364054 -0.004596718
00000000: 9dc6 bf3d 11a0 96bb

action_model._continuous_distribution.log_sigma.weight f4 [2, 256]
-0.00894445 -0.0017120353 0.0063882032 0.050684407 0.0028093965 0.0030249748 -0.025019826 -0.0042715888
-0.028627042 0.0022416215 0.019112596 0.0029233722 0.00042387025 0.0068992362 0.017528577 -0.0033250125
-0.025913559 -0.00764674 0.002073381 -0.0041064345 0.0023184787 -0.0007393928 0.005224987 0.002522883
0.0024800627 0.003018318 -0.004120508 -0.0057835076 0.0043404605 0.012035926 -0.007558483 -0.012347132
0.07013029 0.025485212 -0.0072057755 0.005540777 0.004783305 0.012146206 0.0010691533 -0.0076126717
0.018005077 -0.0014984083 0.0004523484 0.0021710694 0.00512516 -0.028952979 0.0072988765 0.023040492
7.2628995e-05 0.007861823 -0.01077128 0.009975803 0.012644904 0.007016153 -0.0007425627 0.0040881876
0.023184765 0.0053202533 0.0018728438 0.0008381439 0.0002750927 0.027774544 0.006640596 -0.023528216
-0.009632028 0.015574015 -0.00916255 0.020544395 -0.0086887125 0.008865772 0.047452062 0.01321192
0.004675927 0.008386527 -0.0006484605 -0.008983714 0.004832378 -0.015333935 0.01882839 0.025235608
-0.008692551 0.008218473 -0.015861314 0.0061320364 0.07214366 0.01078515 -0.00828617 0.011674406
0.0029895592 0.0055151265 -0.00774372 -0.06972333 -0.004300118 -0.00047343486 0.008311383 0.004442656
0.0044853142 -0.006759914 0.031649392 0.0008811976 -0.01613114 0.00022424797 -0.01107565 0.11681156
-0.072088175 0.069234654 -0.0023147073 0.027393082 0.0040308083 0.0011812054 0.014934879 0.047306225
-0.014217094 0.003677311 -0.0060010673 0.0013329925 0.0042131655 0.17453638 0.012472146 0.030496309
-0.00794698 0.05459377 -0.010260434 -0.0008262754 -0.0031013999 0.0022508965 0.0010307409 0.011125672
0.030471232 0.011924863 0.008143953 -0.014988921 0.0025331604 0.0052661565 0.007925607 -0.006711549
0.00849262 -0.025456898 0.004577585 -0.002280023 0.021759277 0.031136533 -0.014092619 -0.0008569616
0.010498453 -0.0072437953 0.009933113 0.04189351 -0.0031759886 0.002870965 0.025525576 -0.0012906397
0.02268582 -0.001254862 -0.006945677 -0.0059586135 0.009426518 -0.0030937574 0.0036207354 -0.0005110739
0.0007434699 0.002271871 -0.00015131873 0.010169805 0.0050531686 -0.007958629 0.011019707 0.00060346595
-0.0047486657 0.019201694 -0.013230357 0.014588275 0.0167093 -0.013244698 -0.045053683 -0.0029003234
0.00858018 0.0022262153 -0.007401459 -0.0007881158 0.015145486 0.011120352 -0.0058104736 0.038806915
0.0149725275 -0.016058728 -0.022252537 -0.0031592231 -0.0022181137 0.0360795 -0.01398958 0.003719461
0.0036307191 0.009143109 0.020615071 -0.0034905723 0.06686801 0.086732686 -0.0009891128 0.001833155
-0.0012203121 -0.0026655223 -0.0029448147 0.0036893357 0.0001283114 0.014714303 0.007890038 -0.0037616643
-0.011118547 0.0352423 -0.020857971 0.00042992833 0.020601766 -0.008665725 0.0085456185 -0.00936783
-0.0007757718 0.00052299653 0.05154003 0.011237773 -0.00502526 -0.022650795 0.033319943 -0.012566495
0.0052737575 0.029941523 -6.810599e-05 -0.0054376675 -0.0006655727 0.0040627364 -0.016243812 -0.0058387197
-0.0045935875 0.0037683067 0.021923415 -0.0029943744 -0.001085601 0.043516017 0.020467535 0.011442354
0.013709512 -0.003299308 -0.01306423 -0.002267199 -0.0042084833 -0.00045249658 -0.020496603 -0.0060049747
0.02037804 0.011129043 -0.0021415034 0.008557649 -0.010391227 0.00029225703 -0.02277314 -0.006411758
00000000: be8b 12bc 5f66 e0ba 2254 d13b 749a 4f3d
00000010: da1d 383b a83e 463b 61f6 ccbc aff8 8bbb
00000020: 4283 eabc 2be8 123b 0592 9c3c 0c96 3f3b
00000030: e73a de39 fd12 e23b 1798 8f3c 74e8 59bb
00000040: ac48 d4bc 8191 fabb 90e1 073b 458f 86bb
00000050: 9ef1 173b d0d3 41ba 5e36 ab3b f456 253b
00000060: 8c88 223b f9ce 453b 5405 87bb 9483 bdbb
00000070: 6c3a 8e3b 5532 453c 27ad f7bb a04b 4abc
00000080: 78a0 8f3d 5dc6 d03c 6d1e ecbb 688f b53b
00000090: 45bd 9c3b e100 473c d522 8c3a b873 f9bb
000000a0: 627f 933c 3d66 c4ba 2d29 ed39 8048 0e3b
000000b0: f5f0 a73b cc2e edbc 6a2b ef3b 6abf bc3c
000000c0: 6550 9838 e0ce 003c 067a 30bc 8d71 233c
000000d0: 922c 4f3c c2e7 e53b 8aa8 42ba 34f6 853b
000000e0: faed bd3c 8555 ae3b 367a f53a e3b6 5b3a
000000f0: 513a 9039 7187 e33c 5b99 d93b 3fbe c0bc
00000100: a7cf 1dbc 272a 7f3c 851e 16bc b84c a83c
00000110: 1a5b 0ebc be41 113c 185d 423d cf76 583c
00000120: 8538 993b a567 093c 73fd 29ba 6d30 13bc
00000130: ed58 9e3b 2f3b 7bbc ff3d 9a3c e8ba ce3c
00000140: 346b 0ebc c6a6 063c 96ef 81bc 40ef c83b
00000150: 0ec0 933d 33b4 303c b7c2 07bc 0246 3f3c
00000160: 7bec 433b 3cb8 b43b 08bf fdbb 1bcb 8ebd
00000170: 01e8 8cbb 5a37 f8b9 782c 083c b393 913b
00000180: 8bf9 923b 4582 ddbb cba2 013d 2b00 673a
00000190: 7425 84bc 1b24 6b39 a576 35bc e63a ef3d
000001a0: f7a2 93bd e6ca 8d3d 58b2 17bb 7567 e03c
000001b0: df14 843b add2 9a3a 6cb1 743c 2cc4 413d
000001c0: d0ee 68bc 0aff 703b 9aa4 c4bb ceb7 ae3a
000001d0: 980e 8a3b aab9 323e f957 4c3c 65d3 f93c
000001e0: 0d34 02bc b89d 5f3d 611b 28bc 679a 58ba
000001f0: db40 4bbb c783 133b ed19 873a 7348 363c
00000200: ce9e f93c 8060 433c 376e 053c 1794 75bc
00000210: 6103 263b b98f ac3b 68da 013c 8eec dbbb
00000220: a124 0b3c fc8a d0bc 91ff 953b 706c 15bb
00000230: 8340 b23c 0b12 ff3c bae4 66bc b8a5 60ba
00000240: b401 2c3c 5c5d edbb 7fbe 223c 8798 2b3d
00000250: 3f24 50bb cd26 3c3b 031b d13c af2a a9ba
00000260: 9dd7 b93c 2f7a a4ba 9098 e3bb 7940 c3bb
00000270: af71 1a3c a3c0 4abb dc49 6d3b 97f9 05ba
00000280: 6ce5 423a ace3 143b 50ab 1eb9 419f 263c
00000290: 0d95 a53b e964 02bc 008c 343c ea31 1e3a
000002a0: b29a 9bbb df4c 9d3c 24c4 58bc a903 6f3c
000002b0: f1e1 883c 4a00 59bc 368a 38bd 5a13 3ebb
000002c0: e293 0c3c b2e5 113b f087 f2bb 8e99 4eba
000002d0: c624 783c 2332 363c c965 bebb 00f4 1e3d
000002e0: 554f 753c 988d 83bc f44a b6bc f80a 4fbb
000002f0: c65d 11bb 19c8 133d 8d34 65bc 33c2 733b
00000300: 5cf1 6d3b fbcc 153c f0e0 a83c 16c2 64bb
00000310: 18f2 883d e8a0 b13d 1ea5 81ba 7a46 f03a
00000320: e1f2 9fba 0bb0 2ebb cbfd 40bb c8c8 713b
00000330: 548b 0639 4314 713c 3845 013c 4186 76bb
00000340: 912a 36bc 3b5a 103d 56de aabc 0168 e139
00000350: 09c5 a83c affa 0dbc ec02 0c3c 877b 19bc
00000360: 2a5d 4bba b419 093a a31b 533d a31e 383c
00000370: f0aa a4bb 298e b9bc 7e7a 083d b3e3 4dbc
00000380: 7ccf ac3b ed47 f53c 20d4 8eb8 762e b2bb
00000390: d479 2eba b420 853b be11 85bc bb52 bfbb
000003a0: ce85 96bb b2f5 763b bc98 b33c 443d 44bb
000003b0: ba4a 8eba da3d 323d 88ab a73c b678 3b3c
000003c0: dc9d 603c 3439 58bb 5a0b 56bc 4a95 14bb
000003d0: 51e7 89bb 103d edb9 7ee8 a7bc 61c5 c4bb
000003e0: d9ef a63c 9756 363c 7758 0cbb 6235 0c3c
000003f0: f73f 2abc 133a 9939 bc8e babc b919 d2bb

action_model._continuous_distribution.log_sigma.bias f4 [2]
-0.6222548 -0.5814177
00000000: 174c 1fbf cad7 14bf

action_model._discrete_distribution.branches.0.weight f4 [2, 256]
-0.35997662 -0.15224221 -0.2632476 -0.5344626 -0.015424313 0.11690431 -0.12797888 0.08554698
-0.35657838 -0.2014061 0.22347651 0.08956615 -0.28403962 0.0005009765 0.064204544 -0.016751932
0.20216224 0.086233005 -0.5031736 0.09967726 0.009126202 -0.19075678 -0.09233435 -0.24764167
-0.2909079 -0.09572039 0.1457614 0.09167488 -0.24786091 -0.28493932 0.24397457 0.12281482
-0.4336961 0.114083305 0.0123873055 0.09681488 -0.26161507 -0.21042512 -0.09855647 -0.090424754
-0.20646967 0.0355302 -0.1163549 0.043606266 -0.030968968 -0.05339236 0.00073470676 -0.33282617
-0.25699338 0.1833239 -0.6486815 0.3464145 -0.12218528 -0.3013688 -0.099491805 -0.1553469
0.2748847 -0.24546015 0.1597193 -0.12054782 -0.3511231 0.021252375 0.16125463 0.04555532
0.3482567 -0.1384352 0.19945695 -0.293981 -0.28020108 -0.24921662 0.30137286 -0.017734922
-0.28738707 0.01324437 -0.2847962 0.16040236 -0.19348665 0.31916112 0.26745588 -0.33001214
-0.11839139 -0.17807387 0.35271475 -0.12071993 -0.30635887 -0.016581299 0.21700694 -0.14939013
0.25435275 -0.25029016 -0.19463333 -0.050945546 0.24642296 -0.39353663 -0.15010266 -0.26718357
0.2085317 0.26635522 -0.20530528 -0.20484115 0.14922789 -0.025367407 -0.2831046 -0.2628246
-0.022571722 0.17036504 -0.04162118 -0.1218569 -0.237341 0.23491004 -0.020159552 -0.29743132
0.0035515702 -0.117255524 -0.27454856 -0.18263246 0.4747286 -0.3415512 0.045601685 0.2520873
-0.24397807 -0.4244831 -0.29599947 -0.02278166 0.17201921 0.006363398 -0.10702832 -0.17128575
0.109694704 -0.33027917 -0.24921988 0.24670407 0.2349303 -0.20343515 -0.26552588 0.21954635
-0.030075617 -0.04535944 -0.29738075 -0.21026659 0.16384822 0.32051143 0.22267233 0.13513899
-0.0556877 -0.09886824 0.023594214 0.26479423 0.021461777 0.04187497 -0.45158866 -0.13011585
-0.2706417 -0.123099856 0.22269177 -0.1060909 0.02386688 -0.29827017 -0.3032174 -0.030233137
0.11926089 0.24811731 -0.19789247 -0.03363054 -0.007410303 0.21505623 -0.11125578 -0.1761206
0.27730423 0.25432703 -0.19567221 -0.14413084 -0.41062912 -0.44840407 -0.25355265 -0.2681103
0.024834046 0.20389235 0.06910191 -0.11533886 0.19944163 -0.05637046 0.12301044 -0.5158222
0.0013764554 -0.05753083 0.043130275 -0.21517478 -0.28933975 0.23621319 0.18627809 -0.11888317
0.2327083 -0.07299302 -0.12685056 0.02880122 0.19268602 0.20528463 0.25533953 -0.5540725
0.20708585 -0.12271289 -0.17047755 -0.018115122 0.23866431 0.004753129 -0.33570388 0.052846655
-0.0024295815 -0.35142773 -0.09199122 -0.0940276 -0.28096625 0.18381943 -0.43399104 -0.22700769
-0.26835656 -0.02317643 -0.2724865 -0.20151863 0.06394765 0.3236934 0.21649311 0.06370845
0.18667053 0.31093135 0.3971162 0.27183235 -0.47599882 -0.1650202 0.42503247 -0.15629071
0.013285931 -0.21365492 -0.5775418 -0.1150897 -0.1774446 -0.19938946 -0.14725822 -0.2420488
0.18162692 -0.15329434 -0.22868043 0.004984385 -0.024159914 -0.268162 -0.016455412 -0.15952846
-0.28052288 0.38491395 0.30943623 0.007831657 0.26673886 -0.06442543 0.149265 0.16870038
00000000: db4e b8be 62e5 1bbe 64c8 86be 8ad2 08bf
00000010: 42b6 7cbc 876b ef3d e50c 03be 4133 af3d
00000020: 7191 b6be 673d 4ebe 07d7 643e 756e b73d
00000030: a46d 91be f753 033a ac7d 833d 593b 89bc
00000040: 9e03 4f3e ee9a b03d fccf 00bf 9723 cc3d
00000050: 1186 153c bf55 43be cb19 bdbd c795 7dbe
00000060: e1f1 94be 0d09 c4bd 7a42 153e 0ac0 bb3d
00000070: 40cf 7dbe 91e3 91be 78d4 793e 5686 fb3d
00000080: 6a0d debe 82a4 e93d 20f4 4a3c e146 c63d
00000090: 69f2 85be af79 57be f9d7 c9bd 9d30 b9bd
000000a0: c96c 53be 1d88 113d 7a4b eebd 7c9c 323d
000000b0: a2b2 fdbc f3b1 5abd 5699 403a 3168 aabe
000000c0: a394 83be 43b9 3b3e fe0f 26bf 3e5d b13e
000000d0: 473c fabd 034d 9abe 5cc2 cbbd 4213 1fbe
000000e0: b0bd 8c3e e859 7bbe 758d 233e c7e1 f6bd
000000f0: 68c6 b3be 7619 ae3c ef1f 253e 3798 3a3d
00000100: b44e b23e f5c1 0dbe 713e 4c3e ad84 96be
00000110: 8476 8fbe a432 7fbe 8b4d 9a3e d448 91bc
00000120: 6624 93be eafe 583c cfd0 91be 8440 243e
00000130: 5d21 46be 1669 a33e faef 883e 5af7 a8be
00000140: 2f77 f2bd ff58 36be 0797 b43e 033c f7bd
00000150: 12db 9cbe 81d5 87bc 1137 5e3e baf9 18be
00000160: 863a 823e 0826 80be f64d 47be 47ac 50bd
00000170: 4d56 7c3e a27d c9be 83b4 19be 49cc 88be
00000180: 5589 553e b65f 883e 8c3b 52be e1c1 51be
00000190: 32cf 183e 4fcf cfbc 16f3 90be f290 86be
000001a0: 55e8 b8bc 2c74 2e3e f87a 2abd 1c90 f9bd
000001b0: 8509 73be 428c 703e a525 a5bc eb48 98be
000001c0: 76c1 683b aa23 f0bd a191 8cbe 0104 3bbe
000001d0: a10f f33e cddf aebe d5c8 3a3d 9611 813e
000001e0: 63d5 79be d955 d9be 3e8d 97be 9ba0 babc
000001f0: ce25 303e 0d84 d03b aa31 dbbd 8865 2fbe
00000200: 9ea7 e03d 5a1a a9be 7f33 7fbe fe9f 7c3e
00000210: 9291 703e 4e51 50be 02f3 87be c2d0 603e
00000220: 2461 f6bc d2ca 39bd 4a42 98be 2050 57be
00000230: d4c7 273e 131a a43e 3704 643e e061 0a3e
00000240: c918 64bd 6f7b cabd a748 c13c 1c93 873e
00000250: 9cd0 af3c 1785 2b3d a136 e7be 173d 05be
00000260: 8d91 8abe c71b fcbd 5009 643e 3046 d9bd
00000270: 7a84 c33c deb6 98be 503f 9bbe 7cab f7bc
00000280: 0e3f f43d 7712 7e3e 53a4 4abe 2dc0 09bd
00000290: 21d2 f2bb b337 5c3e 12da e3bd f558 34be
000002a0: d2fa 8d3e 2737 823e 4c5e 48be 0997 13be
000002b0: fb3d d2be 3895 e5be a7d1 81be c145 89be
000002c0: c570 cb3c 28c9 503e 4d85 8d3d c836 ecbd
000002d0: 6d3a 4c3e b6e4 66bd e6ec fb3d ec0c 04bf
000002e0: 2e6a b43a 73a5 6bbd 5fa9 303d c756 5cbe
000002f0: 5724 94be dfe1 713e afbf 3e3e 0579 f3bd
00000300: 164b 6e3e 5d7d 95bd 1de5 01be 89f0 eb3c
00000310: 7c4f 453e 2236 523e ddbb 823e b2d7 0dbf
00000320: 500e 543e e550 fbbd ab91 2ebe 2a66 94bc
00000330: 6b64 743e 23c0 9b3b 61e1 abbe bc75 583d
00000340: 9d39 1fbb 56ee b3be e565 bcbd 8b91 c0bd
00000350: cfda 8fbe 293b 3c3e 1334 debe b474 68be
00000360: 0866 89be 7fdc bdbc 5a83 8bbe e65a 4ebe
00000370: fcf6 823d 24bb a53e 5fb0 5d3e 9379 823d
00000380: 8f26 3f3e 6532 9f3e d152 cb3e 9c2d 8b3e
00000390: 1eb6 f3be 0efb 28be db9d d93e ac0a 20be
000003a0: 3cad 593c 5bc8 5abe c8d9 13bf 26b4 ebbd
000003b0: 0ab4 35be c02c 4cbe dcca 16be a4db 77be
000003c0: 68fc 393e 31f9 1cbe 342b 6abe 0d54 a33b
000003d0: 03eb c5bc 884c 89be 80cd 86bc 6e5b 23be
000003e0: b2a0 8fbe 7113 c53e 6d6e 9e3e 5a50 003c
000003f0: ff91 883e 7bf1 83bd edd8 183e cbbf 2c3e

action_model._discrete_distribution.branches.0.bias f4 [2]
0.0045401347 -0.004543101
00000000: 69c5 943b 4bde 94bb
