results/Charge4/Charge/Charge-2498371.onnx (onnx, 814689 bytes, 10 tensors)

network_body._body_endoder.seq_layers.0.weight f4 [256, 525]
0	0x3d437bd1	0.047725502
1	0xbc95797c	-0.018246405
2	0xbd82d589	-0.06388385
3	0xbca80861	-0.020511808
4	0x3cdf3eee	0.027251687
5	0xbcdb5037	-0.026771648
6	0x3dc4fff0	0.09619129
7	0xbca34bda	-0.01993363
8	0xbe67892a	-0.22610918
9	0xbdefb84a	-0.11705072
10	0xbe662e4d	-0.224786
11	0x3cc08c41	0.023504378
12	0xbe87e091	-0.26538518
13	0xbae08084	-0.0017128144
14	0x3cdbdb0f	0.026837854
15	0xbd6f101d	-0.058364976
16	0xbd20512e	-0.03913992
17	0x3cce55ea	0.025187451
18	0xbd8a7ea0	-0.06762433
19	0xbd5ca030	-0.053863704
20	0x3d6c3613	0.057668757
21	0xbdd62ee2	-0.10458161
22	0xbc1d1d11	-0.0095894495
23	0x3d89b91c	0.0672476
24	0x3dab5d40	0.083673954
25	0xbd65774c	-0.056021973
26	0x3dbae34a	0.09125383
27	0xbc91bf4d	-0.017791415
28	0x3b6ef9c4	0.003646479
29	0xbe0a126f	-0.13483594
30	0xbe05480b	-0.13015763
31	0xbe21e496	-0.15809855
32	0xbc403d9d	-0.01173344
33	0xbe406a0e	-0.18790457
34	0x3d51766a	0.05113832
35	0x3dc5374e	0.09629689
36	0xbd1173f5	-0.035510976
37	0x3cd119f7	0.025525076
38	0x3da8b8aa	0.08238347
39	0xbe2ae8e3	-0.16690402
40	0xbd5ac781	-0.053412918
41	0x3d89fcac	0.067376465
42	0x3c016b92	0.007899182
43	0xbc24e937	-0.010065368
44	0x3c8be528	0.017077044
45	0x3d8a6b9f	0.06758808
46	0xbde304cd	-0.110849
47	0x3d33e7b2	0.043922134
48	0xbcb27637	-0.021784885
49	0xbcfb5aab	-0.030682882
50	0xbe65b23b	-0.22431271
51	0xbe474045	-0.1945811
52	0xbe3bf747	-0.18356048
53	0xbbe1e3a9	-0.0068935943
54	0xbe16af71	-0.14715363
55	0xbc9cc1d8	-0.0191354
56	0x3e1ada6e	0.15122387
57	0xbda0a205	-0.07843403
58	0xbd170fa9	-0.03688017
59	0x3d9c6aab	0.07637533
60	0xbe3a9525	-0.18220957
61	0x3c6e44d2	0.014542775
62	0xbd9b833b	-0.075933896
63	0x3bf0619d	0.007335855
64	0xbceb9d30	-0.028761476
65	0xbd39de21	-0.045377854
66	0xbc3200fe	-0.010864494
67	0xbd8e7ec7	-0.069577746
68	0xbd7def61	-0.061995868
69	0x3e139b29	0.14414658
70	0xbd99dfaa	-0.07513364
71	0xbe82669a	-0.25468904
72	0xbe2245fc	-0.1584701
73	0xbe80838b	-0.2510036
74	0xbce7cbce	-0.028295424
75	0xbe515ba5	-0.20445116
76	0x3c98c5bf	0.01864898
77	0x3e39abde	0.18131968
78	0xbd9b60c5	-0.07586817
79	0xbd9ee27e	-0.07758044
80	0x3e8cc6a3	0.27495298
81	0xbe62d9d1	-0.22153403
82	0xbdb0edca	-0.08639105
83	0x3cc972d9	0.024590896
84	0xbb6cba25	-0.0036121693
85	0x3dadd96e	0.08488737
86	0xbd35b70e	-0.044364028
87	0x3d604825	0.054756302
88	0xbd242619	-0.040075395
89	0xbc9eff0a	-0.019408721
90	0x3dbed59e	0.09318088
91	0xbd1a3b82	-0.037654407
92	0xbeb8200e	-0.35961956
93	0xbe2c907b	-0.1685199
94	0xbe81d180	-0.25355148
95	0x3d6b12d9	0.05739102
96	0xbe5fb45b	-0.21846144
97	0x3d2f65ea	0.042821802
98	0x3e2bffe7	0.16796838
99	0x3d043287	0.03227475
100	0xbdf2d34c	-0.11856708
101	0x3e0266dd	0.12734552
102	0xbe23e4ff	-0.16005324
103	0x3d8ca703	0.068677925
104	0xbbad52ac	-0.0052893963
105	0x3d10f614	0.03539093
106	0x3d26c7ab	0.040717762
107	0xbde61a54	-0.112354904
108	0xbca9181f	-0.020641385
109	0xbd0097dd	-0.031394828
110	0x3c0edf8a	0.008720288
111	0x3dfd1fd4	0.12359586
112	0xbcf9df65	-0.03050203
113	0xbea495ed	-0.32145634
114	0xbdd50b60	-0.1040256
115	0xbe54682e	-0.20742866
116	0xbccdc3e8	-0.02511783
117	0xbe833d68	-0.25632787
118	0xbc182121	-0.009285242
119	0x3e266d12	0.16252545
120	0x3da2dcb4	0.07952252
121	0x3d0fc5dd	0.035100807
122	0x3e2374ed	0.15962572
123	0xbe772528	-0.24135268
124	0x3dd54ee6	0.10415439
125	0x3d33c99b	0.043893438
126	0x3caf2169	0.021378236
127	0x3d47ac3c	0.04874824
128	0x3ae055f3	0.0017115459
129	0xbceb5853	-0.02872864
130	0x3d98146e	0.07425772
131	0xbd66daca	-0.056360997
132	0x3db13b57	0.08653896
133	0xbe7191e7	-0.23590814
134	0xbec351ed	-0.38148442
135	0xbe19432e	-0.14967033
136	0xbe9eca2a	-0.31013614
137	0x3d8396ba	0.06425233
138	0xbe9404ac	-0.28909814
139	0x3d1294ac	0.035786316
140	0xbcbc3634	-0.022975065
141	0x3d65605f	0.05600011
142	0x3c8d4316	0.017243903
143	0x3e4a5a6f	0.1976106
144	0xbdfd787c	-0.12376496
145	0x3ce974dc	0.028498106
146	0xbb938d45	-0.0045029246
147	0x3db384bb	0.08765551
148	0xbc295bae	-0.0103368
149	0xbc905254	-0.017617382
150	0x3d97847c	0.07398316
151	0x3d957784	0.072981864
152	0xbe38838f	-0.18018936
153	0x3e3b0e30	0.18267131
154	0xbe503959	-0.20334376
155	0xbea433e7	-0.32070848
156	0xbe1d8dd9	-0.15386142
157	0xbe3db547	-0.18526183
158	0x3da3b631	0.07993735
159	0xbe8ff602	-0.28117377
160	0x3bb3bf26	0.005485433
161	0xbc2ce9e4	-0.010553811
162	0x3db94b90	0.090476155
163	0x3bb4784c	0.0055075046
164	0x3e036a69	0.12833561
165	0xbe04c751	-0.12966658
166	0x3c97653b	0.018480888
167	0xbd1be280	-0.038057804
168	0x3d643e2c	0.055723354
169	0xbd5ef81f	-0.054435845
170	0x3d151524	0.036397114
171	0x3c3581c5	0.011078303
172	0x3d230d45	0.039807577
173	0xbe8cb72e	-0.27483505
174	0x3b01f7be	0.0019831504
175	0xbe83ce4a	-0.25743324
176	0xbe22a29c	-0.15882343
177	0xbe3309d4	-0.17484218
178	0xbe18da44	-0.14927012
179	0x3daecaff	0.08534812
180	0xbe1f5a73	-0.15561847
181	0x3d270078	0.04077193
182	0x3b96e427	0.0046048346
183	0xbda2d453	-0.07950654
184	0xbd928a89	-0.0715533
185	0x3e4686f6	0.19387421
186	0xbe316584	-0.17323881
187	0x3d949f34	0.07256928
188	0xbd7e2468	-0.06204644
189	0x3bd67a8c	0.0065453704
190	0x3cae4f15	0.021277944
191	0xbd18e569	-0.037328158
192	0x3c8dff13	0.017333543
193	0xbe09d119	-0.1345867
194	0xbec2758a	-0.379803
195	0x3e104b12	0.14091137
196	0xbe61f005	-0.22064216
197	0xbe483ad0	-0.19553685
198	0xbe626a25	-0.22110803
199	0xbe306ea7	-0.1722971
200	0xbc1d5d07	-0.009604699
201	0xbe457055	-0.19281133
202	0x3d3f6950	0.046731293
203	0xbc81f6dc	-0.015864782
204	0x3d4a4f54	0.04939206
205	0xbda95824	-0.082687646
206	0x3de96ea7	0.113980584
207	0xbe3a80e5	-0.18213232
208	0xbd241530	-0.04005927
209	0x3dc63751	0.096785195
210	0x3d68d42f	0.05684298
211	0xbd4dd6f3	-0.05025382
212	0xbdc23651	-0.09483016
213	0x3a6d08de	0.0009042154
214	0xbdfa6133	-0.122255705
215	0xbf07e36a	-0.5308138
216	0x3d1e6ec2	0.038679846
217	0xbe1c1547	-0.15242492
218	0xbe7ace7d	-0.24492832
219	0xbda29da6	-0.07940225
220	0xbcdcb191	-0.026940139
221	0x3cc230fe	0.023705002
222	0xbdca4dbf	-0.0987811
223	0x3ccc558a	0.024943132
224	0xbc20a895	-0.009805818
225	0xbc356bc8	-0.01107306
226	0x39ef2da3	0.00045619634
227	0x3e211977	0.1573237
228	0xbe21c1d4	-0.15796596
229	0xbd864350	-0.065558076
230	0xbc299e28	-0.010352649
231	0x3b8cd97c	0.004298387
232	0x3caa2d67	0.020773603
233	0xbd043b18	-0.03228292
234	0x3e0b715e	0.13617465
235	0xbdb70440	-0.089363575
236	0xbf0ca451	-0.54938227
237	0x3db5e0ed	0.08880792
238	0xbe093529	-0.13399185
239	0xbe8ba7c4	-0.27276433
240	0xbe58a47f	-0.211565
241	0xbdd8458d	-0.10560141
242	0xbc669e98	-0.014075898
243	0xbdb4f881	-0.08836461
244	0xbbda737f	-0.0066666002
245	0xbe2dd41e	-0.16975448
246	0x3d39e21e	0.045381658
247	0xbc9baadc	-0.01900237
248	0x3da05448	0.078285754
249	0xbe27b59e	-0.16377875
250	0x3c36c61e	0.011155633
251	0xbcb6e6b4	-0.022326805
252	0x3d10a7d3	0.0353163
253	0x3c41a61c	0.011819389
254	0x3cf02e00	0.02931881
255	0xbd904fb0	-0.07046449

network_body._body_endoder.seq_layers.0.bias f4 [256]
0	0xbe606414	-0.21913177
1	0x3ea26b12	0.31722313
2	0xbd16234a	-0.036654748
3	0xbe01eef9	-0.12688817
4	0xbe912cde	-0.28354543
5	0xbdf44523	-0.11927249
6	0xbe456ce7	-0.19279824
7	0xbe91e7d3	-0.2849718
8	0xbd6546df	-0.05597579
9	0xbe8b628b	-0.2722362
10	0x3e0890d6	0.133365
11	0x3c4cb119	0.012493395
12	0x3e1cd9d9	0.15317477
13	0xbdb1faa5	-0.08690385
14	0x3d4e8e1c	0.050428495
15	0xbe911c7e	-0.2834205
16	0x3e2f4888	0.17117512
17	0x3c428fb5	0.011875083
18	0xbdeb9fe1	-0.11505104
19	0xbe651b14	-0.2237361
20	0xbe121df1	-0.14269234
21	0xbe38278b	-0.17983834
22	0x3ed6bd9d	0.41941538
23	0xbead0efd	-0.33800498
24	0xbdc249ee	-0.09486757
25	0xbe0caeb6	-0.13738522
26	0xbdd91204	-0.10599139
27	0x3cf041e6	0.029328298
28	0x3e87fbbe	0.26559252
29	0x3c0cb51b	0.008588101
30	0xbb6b560f	-0.003590945
31	0xbe8e70df	-0.2782049
32	0x3c9e4244	0.019318707
33	0xbe99e359	-0.30056265
34	0xbe4e156b	-0.20125358
35	0xbe734e0c	-0.23760241
36	0xbd097139	-0.033555243
37	0xbeadc2c2	-0.3393765
38	0xbe39ac0a	-0.18132034
39	0xbe9b9c24	-0.30392563
40	0x3df37ae8	0.11888677
41	0x3debc54c	0.11512241
42	0x3c95a9bd	0.018269414
43	0xbe70098f	-0.23441146
44	0xbe89df2a	-0.26928073
45	0x3cc4899f	0.023991404
46	0xbdb24768	-0.08705026
47	0xbe87295f	-0.2639875
48	0xbe4709a8	-0.19437277
49	0x3dec39eb	0.115344845
50	0xbe517121	-0.20453312
51	0xbdb57bd8	-0.08861512
52	0xbe9f1038	-0.3106706
53	0xbe2b62dc	-0.1673693
54	0xbda68957	-0.08131664
55	0xbc09df09	-0.008414992
56	0xbe17cfdd	-0.14825387
57	0x3e0fd83d	0.14047332
58	0xbd856a98	-0.06514472
59	0xbe1567d1	-0.14590384
60	0x3e038813	0.12844877
61	0xbde7e03c	-0.11322066
62	0xbe99cc12	-0.30038506
63	0xbe62d727	-0.22152387
64	0x3de6b3e2	0.11264779
65	0x3da288bf	0.079362385
66	0xbdc0204c	-0.0938116
67	0xbe8217d3	-0.254088
68	0xbd4c79d0	-0.049920857
69	0xbe08f72f	-0.13375543
70	0xbe266f45	-0.16253383
71	0x3e164bd6	0.14677367
72	0xbe5fb52a	-0.21846452
73	0xbe62031b	-0.22071497
74	0xbdbbebf0	-0.09175861
75	0x3e07a225	0.13245447
76	0x3d854d86	0.06508927
77	0x3cc352f2	0.023843262
78	0xbe735422	-0.23762563
79	0xbd91f01f	-0.071258776
80	0x3e4ae953	0.19815569
81	0xbcf557dc	-0.029949121
82	0x3dea94d3	0.11454167
83	0xbe3e90c5	-0.18609913
84	0xbe0a1ae0	-0.13486814
85	0xbd927ab1	-0.07152308
86	0x3c8d34fe	0.017237183
87	0xbde50e94	-0.11184421
88	0xbe41383d	-0.1886911
89	0x3e474f16	0.19463763
90	0xbea5c360	-0.32375622
91	0xbd9d9f0d	-0.07696352
92	0xbde31ff6	-0.110900804
93	0xbe733df8	-0.23754108
94	0xbe04c571	-0.12965943
95	0x3d96a84b	0.07356318
96	0x3d38ee7f	0.045149323
97	0xbe271948	-0.16318238
98	0xbe404d8c	-0.18779582
99	0x3e958f31	0.2921081
100	0x3ddc6136	0.10760729
101	0xbd84822f	-0.06470143
102	0x3e1c1cee	0.15245411
103	0xbe25b4be	-0.16182229
104	0xbe80b885	-0.25140777
105	0xbc8c2ba4	-0.017110653
106	0xbeb0b09c	-0.34509742
107	0xbe878c9b	-0.2647446
108	0x3dd2d2f4	0.10294142
109	0x3ddccd99	0.10781402
110	0xbe604635	-0.21901782
111	0x3dc47aac	0.0959371
112	0xbe6f6750	-0.23379254
113	0xbc6f48c1	-0.014604748
114	0xbce0c637	-0.027438266
115	0xbd09164c	-0.03346853
116	0xbe9668fa	-0.29376966
117	0xbd869b7f	-0.06572627
118	0xbe450dca	-0.19243541
119	0xbe36fd5c	-0.17870086
120	0xbea24b1c	-0.3169793
121	0x3c9f0246	0.019410264
122	0xbda47b6a	-0.08031352
123	0xbe8ab6fe	-0.27092737
124	0xbe258afd	-0.16166301
125	0xbe7460e9	-0.23865093
126	0xbe61e8f3	-0.2206152
127	0xbdc36dd4	-0.095424324
128	0xbd8373e8	-0.06418592
129	0xbe0058df	-0.12533902
130	0xbd947f76	-0.07250874
131	0xbbea55bd	-0.007151334
132	0xbe3b87a9	-0.18313469
133	0xbea54a79	-0.3228338
134	0xbe8b0339	-0.27150896
135	0xbe26d9df	-0.16294049
136	0x3d128e66	0.035780333
137	0xbdbe9697	-0.093060665
138	0xbd216f1f	-0.039412614
139	0xbe020c05	-0.12699898
140	0xbe6198c6	-0.22030935
141	0xbcee7baa	-0.029111702
142	0xbbbbabbf	-0.005727261
143	0xbc85028c	-0.016236566
144	0xbe6cddc4	-0.23131472
145	0xbdf89317	-0.1213743
146	0xbde34b83	-0.11098387
147	0xbe4fd6f6	-0.20296845
148	0xbd7ba888	-0.06144002
149	0xbe2c26ac	-0.16811627
150	0x3c1be217	0.009514353
151	0x3e866280	0.26247025
152	0x3d085fee	0.03329461
153	0xbe40d03a	-0.18829432
154	0x3d449d5d	0.048001636
155	0x3b95d281	0.004572213
156	0xbe8c83d8	-0.2744434
157	0xbe980118	-0.29688334
158	0xbe339171	-0.1753595
159	0x3e142fad	0.14471312
160	0xbe80211b	-0.25025257
161	0x3df845c9	0.121226855
162	0x3b9edf0e	0.0048483675
163	0xbda5769c	-0.080792636
164	0x3e104f93	0.14092855
165	0x3da96f7a	0.082732156
166	0xbd236602	-0.039892204
167	0x3e088ce5	0.13334997
168	0xbddc2d3b	-0.107508145
169	0xbe653d08	-0.22386563
170	0xbd2e3602	-0.042531975
171	0xbe48ed81	-0.1962185
172	0xbd4ab5e1	-0.04948986
173	0xbd8f3725	-0.0699294
174	0xbe97fd36	-0.29685372
175	0xbd9f77e2	-0.07786538
176	0x3de92745	0.11384443
177	0xbd751c07	-0.059841182
178	0x3b3e1830	0.0029006116
179	0xbe71e509	-0.23622526
180	0xbd88661f	-0.06660103
181	0xbd84aca1	-0.06478239
182	0xbd06e0e8	-0.03292933
183	0xbcbf5852	-0.023357544
184	0xbe5b8ce3	-0.21440463
185	0x3da1ce7c	0.07900712
186	0xbda56d87	-0.08077531
187	0x3dd83912	0.1055776
188	0xbe490bcd	-0.19633408
189	0xbe515f2a	-0.20446458
190	0xbd73b4b1	-0.059498493
191	0xbdf2c47c	-0.11853883
192	0xbe9648af	-0.29352328
193	0xbe269ce0	-0.1627078
194	0xbe8e70c3	-0.27820405
195	0xbd27f387	-0.04100373
196	0xbe8ad23f	-0.2711353
197	0x3da13c76	0.0787286
198	0xbdc607ed	-0.096694805
199	0xbdb5e05c	-0.08880684
200	0x3e62b0bf	0.22137736
201	0xbe78e410	-0.24305749
202	0xbe8be793	-0.27325115
203	0xbbe72def	-0.0070550363
204	0xbe25d2ca	-0.16193691
205	0xbdb89ff1	-0.090148814
206	0x3e05eb6c	0.13078088
207	0xbe896fe5	-0.2684318
208	0xbdeb1f54	-0.11480585
209	0xbd8ca0a6	-0.06866579
210	0xbe8ed806	-0.27899188
211	0xbe9209c2	-0.2852307
212	0xbe4141e7	-0.18872796
213	0xbe85a00e	-0.26098675
214	0xbd86193d	-0.065477826
215	0xbd47fe6c	-0.04882662
216	0xbd73edab	-0.05955283
217	0x3c42a1f9	0.011879438
218	0xbd831e17	-0.064022236
219	0xbd9276e2	-0.07151581
220	0x3d9a93c8	0.07547718
221	0xbdeb13c4	-0.11478379
222	0x3ed60b08	0.4180529
223	0xbea2bc77	-0.31784412
224	0x3e20dc51	0.15709044
225	0xbe8e71c5	-0.27821174
226	0x3d575044	0.05256678
227	0x3d306aca	0.043070592
228	0x3e4c0d96	0.19927058
229	0xbdc89965	-0.09794883
230	0xbe0abc88	-0.13548481
231	0xbe00638c	-0.12537974
232	0xbe223ced	-0.15843554
233	0xbea263ba	-0.3171671
234	0xbdcd7be9	-0.100333996
235	0xbcb57e68	-0.022155002
236	0x3e430ad4	0.190471
237	0xbd0220b1	-0.03176946
238	0xbd2fd441	-0.04292703
239	0xbeacd13f	-0.33753392
240	0x3dce9037	0.100861005
241	0xbdbe7fdc	-0.09301731
242	0xbcc18c68	-0.023626521
243	0xbe451670	-0.1924684
244	0xbd0fa05c	-0.03506504
245	0xbe65ef55	-0.22454579
246	0xbdcf0f40	-0.101103306
247	0xbe48f2a2	-0.19623807
248	0xbeafdf97	-0.34350273
249	0xbe11dda6	-0.14244708
250	0xbe3b1443	-0.18269448
251	0x3e05c302	0.13062671
252	0xbdcfee28	-0.101528466
253	0xbc80ad22	-0.015707556
254	0xbd9de124	-0.07708958
255	0xbdc81fd0	-0.09771693

network_body._body_endoder.seq_layers.2.weight f4 [256, 256]
0	0xbe004693	-0.12526922
1	0xbe626cf7	-0.2211188
2	0x3da283aa	0.07935269
3	0xbdf76f49	-0.12081773
4	0xbd3e30ae	-0.046433143
5	0x3d3cf4c8	0.04613188
6	0x3da5d79a	0.08097763
7	0xbe0e0eea	-0.13872877
8	0x3e5dc777	0.21658121
9	0xbe1263f2	-0.14295939
10	0xbc63ba43	-0.013899389
11	0xbdf39b5c	-0.11894867
12	0xbe1e774f	-0.154752
13	0xbdf36543	-0.118845485
14	0xbd9cf978	-0.0766477
15	0x3dc33925	0.09532384
16	0xbe503963	-0.20334391
17	0xbde6cbe1	-0.112693556
18	0x3d88913b	0.066683255
19	0xbe0f85e2	-0.14015916
20	0x3d2c0801	0.04199982
21	0x3979c67e	0.00023820435
22	0xbe1d1fc2	-0.15344146
23	0x3e149011	0.14508082
24	0xbe5ea1b8	-0.21741378
25	0x3d472f5a	0.048629142
26	0xbe01bf47	-0.12670623
27	0xbc0e7f70	-0.008697376
28	0xbdf43a17	-0.11925142
29	0xbd69f713	-0.057120394
30	0x3e2af275	0.16694053
31	0x3d3226c6	0.04349401
32	0xbb9e9e71	-0.004840665
33	0x3c952ae6	0.018208932
34	0xbd82fe8e	-0.06396209
35	0xbd07760d	-0.033071566
36	0xbcd4a598	-0.025957868
37	0x3dd1bf13	0.10241523
38	0x3d6f40bf	0.058411356
39	0x3dc02617	0.09382265
40	0x3dcca39f	0.09992146
41	0x3cfb02f9	0.030641066
42	0x3b9e0025	0.0048217946
43	0x3dae52fe	0.08511923
44	0x3dc73451	0.097267754
45	0xbddaf0a3	-0.10690429
46	0x3d088ea2	0.03333915
47	0xbd57f2b9	-0.052721713
48	0xbc3805c1	-0.011231841
49	0x3d0163cb	0.03158931
50	0xbd2917b0	-0.041282356
51	0x3e317632	0.17330244
52	0xbdbe295c	-0.092852324
53	0x3cd4831b	0.025941422
54	0xbdc55d9c	-0.09636995
55	0xbdeb6d6c	-0.1149548
56	0x3e1559e8	0.14585078
57	0xbcc617fa	-0.024181355
58	0x3d979e40	0.07403231
59	0xbe940e38	-0.28917098
60	0x3e05cb00	0.1306572
61	0x3cb9389d	0.022610003
62	0x3caad620	0.020854056
63	0xbdd662d7	-0.10468071
64	0xbe20610b	-0.15662019
65	0xbd22fe28	-0.039793164
66	0x3ca064d8	0.019579336
67	0xbd008836	-0.0313799
68	0xbc0af427	-0.008481062
69	0xbd2ce2ab	-0.042208355
70	0x3d06188e	0.03273826
71	0x3dab4ceb	0.0836428
72	0xbe1c9a96	-0.15293345
73	0x3d214025	0.039367814
74	0x3db1af10	0.08675969
75	0xbd5870f8	-0.05284211
76	0xbe5309c7	-0.20609199
77	0xbdc8b5d5	-0.09800307
78	0xbd823678	-0.06358045
79	0xbc9e1447	-0.019296778
80	0x3d6bdc61	0.057583217
81	0x3dd38f61	0.10330082
82	0x3d111952	0.035424538
83	0x3cfb05b4	0.030642368
84	0xbd4db2f0	-0.050219476
85	0x3d03dc50	0.03219253
86	0x3da5aa01	0.08089066
87	0x3b8b3753	0.0042485385
88	0xbed3afb7	-0.41344997
89	0x3d2fbd7a	0.04290531
90	0x3bd75a20	0.006572023
91	0x3b5f7e8a	0.0034102523
92	0x3d064b33	0.03278656
93	0xbd1894d4	-0.03725131
94	0x3e06b059	0.13153209
95	0xbd9f55ec	-0.0778006
96	0x3d348c0f	0.044078883
97	0x3bafec4a	0.005368744
98	0xbd728820	-0.05921185
99	0x3cb21dab	0.021742662
100	0xbde383e4	-0.111091405
101	0x3e0f1bbe	0.13975427
102	0xbd09222f	-0.033479866
103	0xbe8bdce7	-0.27316973
104	0x3d83c898	0.064347446
105	0xbdf25407	-0.11832433
106	0x3b9ae42d	0.0047269077
107	0x3d9f43d8	0.07776612
108	0xbde18a3e	-0.11012696
109	0xbbfbdb5f	-0.007686063
110	0xbec80c1f	-0.39071748
111	0xbe1d211e	-0.15344664
112	0x3e19f8d9	0.15036334
113	0x3cba1097	0.022712989
114	0x3d6d3579	0.057912324
115	0x3bee6c2c	0.0072760787
116	0xbbda4319	-0.0066608307
117	0x3dc5ed20	0.09664369
118	0x3dfba300	0.12286949
119	0xbe8e32c1	-0.27773097
120	0x3e0198b0	0.12655902
121	0x3d928df5	0.071559824
122	0xbd7b7042	-0.061386354
123	0x3d26cf3d	0.04072498
124	0xbc80b9da	-0.01571362
125	0xbcf2b2c7	-0.029626263
126	0xbd8e9e8d	-0.06963835
127	0xbc019a9c	-0.007910397
128	0xbdf7c4b8	-0.12098068
129	0xbcffec86	-0.031240713
130	0xbe380d09	-0.17973723
131	0x3c99b202	0.018761639
132	0xbcd7c7fe	-0.02634048
133	0x3e2d6522	0.1693311
134	0x3d4d29f8	0.050088853
135	0xbcf4477c	-0.029819243
136	0x3e55f59a	0.20894471
137	0xbd921ca4	-0.07134369
138	0x3d88f405	0.06687168
139	0xbdb73a8a	-0.08946712
140	0xbc7c1122	-0.015384944
141	0xbe3b51df	-0.1829295
142	0x3e41d09f	0.18927239
143	0xbc36b64b	-0.0111518605
144	0xbd8da590	-0.06916344
145	0xbd017d7f	-0.031613823
146	0x3c144e1a	0.009051824
147	0x3a9343c1	0.0011235402
148	0xbc982b56	-0.018575352
149	0x3d4eb29e	0.05046331
150	0xbd08c5a8	-0.033391625
151	0xbdf717f7	-0.12065118
152	0x3e5211b9	0.20514573
153	0x3d0ab485	0.033863563
154	0xbcefffdb	-0.029296806
155	0xbd807dbf	-0.06273984
156	0x3d5ed67c	0.054403767
157	0xbdb3d3bb	-0.08780619
158	0x3dff01b1	0.124514945
159	0x3b81c80c	0.003960615
160	0x3cc93793	0.024562633
161	0xbd83a9d2	-0.06428875
162	0xbe2c0847	-0.16800033
163	0xbe101624	-0.14070946
164	0xbd7ae1cb	-0.06125049
165	0x3d7cf8bf	0.06176066
166	0xbb66bebb	-0.00352089
167	0xbdfcac56	-0.12337558
168	0x3d1d5de7	0.03841963
169	0x3c431baa	0.011908451
170	0xbe9b345b	-0.30313382
171	0xbcd6b048	-0.026207104
172	0x3c9e5e8c	0.019332193
173	0x3e1fca5a	0.15604535
174	0x3d8f5a84	0.06999686
175	0xbc8ab16b	-0.016930303
176	0xbdb07af6	-0.08617203
177	0x3dd3334f	0.10312521
178	0xbdcf3270	-0.10117042
179	0x3cd3ffd8	0.025878832
180	0xbcd448ff	-0.025913713
181	0xbdacb732	-0.08433379
182	0xbdb673bf	-0.089087956
183	0xbe81a258	-0.2531917
184	0x3dcf351c	0.10117552
185	0x3cde0db4	0.027106144
186	0xbae25ca2	-0.0017270038
187	0xbdfa15a4	-0.12211159
188	0x3d83231b	0.0640318
189	0xbe3d1a86	-0.18467149
190	0xbbd2a2c2	-0.0064280936
191	0xbe17c82d	-0.14822455
192	0xbd3405d7	-0.04395088
193	0x3c54f7a4	0.012998495
194	0x3def0409	0.116706915
195	0x3d91958c	0.07108602
196	0x3e133536	0.14375767
197	0x3d766c16	0.060161673
198	0xbd13e387	-0.03610566
199	0x3e1c8a0f	0.1528704
200	0xbdd7e398	-0.10541457
201	0x3c3e9711	0.011632697
202	0x3dbb3e2e	0.09142719
203	0x3b8a9dec	0.0042302515
204	0x3e4bfdcc	0.19921035
205	0x3d19f055	0.037582714
206	0xbdbead2f	-0.09310376
207	0x3d186f38	0.03721544
208	0xbe3d8947	-0.18509398
209	0xbe56f9e6	-0.20993766
210	0x3e1d9f33	0.15392761
211	0x3d954631	0.072887786
212	0xbd52204c	-0.051300332
213	0xbda70827	-0.08155852
214	0xbc1f2366	-0.0097130295
215	0xbd19983b	-0.037498694
216	0x3e19466f	0.14968275
217	0xbd8323b4	-0.06403294
218	0xbc6ca5ca	-0.014443824
219	0x3d72c188	0.059266597
220	0x3dad86e8	0.08472997
221	0xbe09837b	-0.13429062
222	0xbe82795e	-0.2548322
223	0x3d930add	0.071798064
224	0x3d2a5f59	0.041594837
225	0x3db20ecf	0.08694231
226	0x3c77175b	0.015081252
227	0xbd95adda	-0.0730855
228	0x3daa39b1	0.08311785
229	0xbc643b87	-0.013930208
230	0x3c139430	0.009007499
231	0xbe10cce3	-0.14140658
232	0xbe4da40d	-0.20082112
233	0x3d556673	0.052099656
234	0xbd9c8fb4	-0.07644597
235	0x3d2b28db	0.04178701
236	0xbd0e0d90	-0.034680903
237	0x3ba8e1db	0.005153877
238	0x3d973ee2	0.07385041
239	0x3dd6ff80	0.104979515
240	0xbdb4618f	-0.0880767
241	0xbd3b1f52	-0.045684166
242	0xbde52dda	-0.11190386
243	0x3dbc5648	0.09196144
244	0xbdd7ccc2	-0.10537101
245	0x3ca1e24f	0.019761233
246	0xbd8a9484	-0.06766608
247	0x3c96a670	0.01838991
248	0xbce3d3f8	-0.027811036
249	0xbd266a45	-0.04062869
250	0xbbf756cc	-0.007548189
251	0xbe4b607e	-0.19861028
252	0xbcda37f2	-0.026638005
253	0xbd91a7b9	-0.07112069
254	0xbcab6090	-0.020920068
255	0xbd54e6f7	-0.051978078

network_body._body_endoder.seq_layers.2.bias f4 [256]
0	0xbe0761af	-0.13220857
1	0xbe0c1483	-0.136797
2	0xbdb5625a	-0.0885665
3	0xbe4419b2	-0.19150427
4	0x3d2de296	0.042452417
5	0xbcd25bf3	-0.02567861
6	0xbe3f4a8e	-0.18680784
7	0x3de897fb	0.11357113
8	0xbd59d75b	-0.053183895
9	0xbd92f2ed	-0.07175241
10	0xbbb5d28c	-0.005548781
11	0x3da12170	0.07867706
12	0xbe36b31d	-0.17841764
13	0x3cd8b1ca	0.026451964
14	0x3d4eb4a9	0.05046526
15	0x3d3373ba	0.043811537
16	0x3d10a0bf	0.03530955
17	0xbcd0c38c	-0.025483869
18	0x3ca320cc	0.0199131
19	0xbd36d13c	-0.044633135
20	0xbab0f781	-0.0013501496
21	0xbd79a837	-0.060951438
22	0xbe4deb59	-0.2010931
23	0x3d38d23e	0.045122378
24	0xbc93091d	-0.017948681
25	0xbd28a63e	-0.041174166
26	0xbcee3ec0	-0.029082656
27	0x3db1b36e	0.086768016
28	0xbe1cdba1	-0.15318157
29	0xbea0ce6f	-0.31407496
30	0x3c2f37d1	0.01069446
31	0x3d655ca9	0.05599657
32	0xbe2028e3	-0.15640597
33	0xbe197529	-0.149861
34	0xbdff16d4	-0.12455526
35	0xbdd1fe42	-0.10253574
36	0xbd0c928e	-0.034319453
37	0xbe830a87	-0.2559397
38	0xbe629dbb	-0.22130482
39	0xbb302f70	-0.0026883744
40	0xbd168770	-0.036750257
41	0x3d00c79c	0.031440362
42	0x3cfc511d	0.030800397
43	0x3ca98d2a	0.020697195
44	0x3d38f3dd	0.04515444
45	0xbe0d0645	-0.13771923
46	0xbdda375b	-0.106550895
47	0xbda3c0ba	-0.07995744
48	0xbc2dde76	-0.010612121
49	0xbcae0fac	-0.021247707
50	0xbd17f9dc	-0.03710352
51	0xbc9466ad	-0.018115366
52	0xbd272e36	-0.040815555
53	0xbdadda95	-0.08488957
54	0xbdfec3d2	-0.124396935
55	0xbdc8a151	-0.09796394
56	0xbd828315	-0.06372658
57	0x3db60ac8	0.08888775
58	0x3d9cad11	0.07650197
59	0xbb13b214	-0.0022536563
60	0x38e48cd6	0.0001089812
61	0x3e2e0317	0.16993366
62	0xbbec45f3	-0.007210487
63	0x3d44b766	0.048026465
64	0xbd1d26b4	-0.03836699
65	0x3d02fe12	0.03198058
66	0xbcef0bef	-0.029180495
67	0x3d4bcfce	0.049758725
68	0xbe3fb924	-0.1872297
69	0xbdd62ca5	-0.10457734
70	0xbcbb5b08	-0.022870556
71	0x3b078bc7	0.002068268
72	0xbe17d2a8	-0.14826453
73	0x3cf30c2f	0.029668896
74	0xbdcd35cc	-0.100200266
75	0xbd46e37e	-0.048556797
76	0xbcc47705	-0.023982534
77	0xbc59a910	-0.013284937
78	0x3ddb4c24	0.10707882
79	0xbd95614e	-0.0729395
80	0xbe042fad	-0.12908812
81	0xbdcc2dda	-0.09969683
82	0x3cc04df8	0.023474678
83	0xbeace096	-0.33765095
84	0xbdc2d31b	-0.095129214
85	0x3dce76ce	0.10081254
86	0x3c4388e6	0.011934495
87	0x3b8f08d7	0.0043650675
88	0x3cd83f79	0.026397454
89	0xbd946cae	-0.072472915
90	0xbe36d098	-0.1785301
91	0xbd9259b8	-0.07146019
92	0xbcf2a96a	-0.029621799
93	0xbe1b3e0a	-0.15160385
94	0xbc8e5a7c	-0.01737713
95	0xbdebef73	-0.11520281
96	0x3d0934a4	0.033497468
97	0x3db5dc09	0.08879859
98	0xbdbcf9c4	-0.092273265
99	0xbe2294d4	-0.15877086
100	0x3d47d487	0.048786666
101	0x3d908b27	0.07057791
102	0xbdc6e86c	-0.097123
103	0xbea4c190	-0.32178926
104	0xbe323a6f	-0.17405103
105	0xbda8bd35	-0.082392134
106	0x3b6da45e	0.00362613
107	0xbdffa630	-0.124828696
108	0xbe1c6b1b	-0.15275232
109	0x3d2a53e1	0.0415839
110	0x3decc273	0.11560526
111	0xbd6788d9	-0.056526992
112	0x3d15eefc	0.036604866
113	0xbe6429bb	-0.22281544
114	0xbe5a8137	-0.21338354
115	0xbd819141	-0.06326533
116	0xbddeda02	-0.108814254
117	0xbd82947b	-0.06375977
118	0x3d44c359	0.04803786
119	0xbc65c833	-0.014024782
120	0xbdb257a1	-0.0870812
121	0xbe023b1b	-0.1271786
122	0xbd4015f3	-0.046895932
123	0xbe84b2cd	-0.25917664
124	0x3ce183b4	0.027528621
125	0x3ab7c218	0.0014019636
126	0x3d6e0c0d	0.05811696
127	0xbbbd6683	-0.0057800426
128	0xbe0270db	-0.12738363
129	0xbe26eab6	-0.16300473
130	0xbdfc038d	-0.12305365
131	0x3c98d286	0.018655073
132	0x3d40e549	0.047093663
133	0xbe2804e9	-0.16408123
134	0xbe3f7bf4	-0.18699628
135	0xbd5dade6	-0.05412092
136	0x3c2758d9	0.010214054
137	0x3e0195f8	0.12654865
138	0xbe048e5a	-0.12944928
139	0xbdbc0594	-0.091807514
140	0xbd2aa09a	-0.041657068
141	0x3cadfab4	0.021237709
142	0x3d5bdb9c	0.053676233
143	0xbd2dbf61	-0.04241884
144	0xbe58d7d8	-0.21176088
145	0xbd350616	-0.044195257
146	0xbdc860c6	-0.09784083
147	0x3d4f741d	0.050647844
148	0x3e054e09	0.1301805
149	0x3e0b0841	0.13577367
150	0xbc52e38e	-0.012871636
151	0x3d1d406b	0.038391512
152	0xbd56150e	-0.052266173
153	0xbdd8477f	-0.10560512
154	0xbcf4f94f	-0.029904036
155	0x3d4cbc74	0.04998441
156	0x3cc183f2	0.023622487
157	0xbd39a26d	-0.045320917
158	0xbde1606d	-0.1100472
159	0x3d7949e7	0.060861494
160	0xbca5cbe0	-0.020238817
161	0xbc52c1c1	-0.012863577
162	0x3d0eaebd	0.034834612
163	0xbda83af2	-0.08214368
164	0x3e0a34c0	0.13496685
165	0x3dd6e0ca	0.10492094
166	0xbcf17d95	-0.029478827
167	0xbd91ccb5	-0.07119123
168	0x3dc102c8	0.094243586
169	0xb96da7b3	-0.00022664554
170	0xbe352938	-0.17691505
171	0xbdc9878c	-0.09840307
172	0xbe1fca79	-0.15604581
173	0xbe04b920	-0.12961245
174	0xbdcb6c97	-0.09932821
175	0xbe4e4999	-0.20145263
176	0x3e0a447f	0.13502692
177	0x3cc39f95	0.023879806
178	0xbdfa39b8	-0.1221804
179	0xbce0cefc	-0.027442448
180	0x3d71c444	0.059025064
181	0x3d44fb27	0.04809108
182	0x3bc1b529	0.0059114886
183	0xbd9d955f	-0.07694506
184	0xbb54cdc4	-0.0032471279
185	0xbcc7b92a	-0.024380285
186	0xbd0418cb	-0.032250207
187	0xbe848eb1	-0.25890115
188	0xbe014bd9	-0.1262659
189	0xbdbb4bf7	-0.091453485
190	0xbd76f672	-0.060293622
191	0xbe116300	-0.14197922
192	0xbd8fdf0f	-0.07024967
193	0xbeb0f850	-0.34564447
194	0x3c402ba2	0.011729153
195	0xbd426964	-0.04746379
196	0xbb964627	-0.0045859995
197	0xbce62d6b	-0.028097829
198	0x3deb84a1	0.11499906
199	0xbe1cbb4b	-0.15305822
200	0x3e80acc1	0.251318
201	0xbcc6fdc9	-0.024290936
202	0xbe4bb8ff	-0.19894789
203	0x3d2efe4c	0.042722985
204	0xbe224aa0	-0.1584878
205	0x3d547d9a	0.051877595
206	0xbdd36087	-0.103211455
207	0xbd0fd157	-0.03511175
208	0xbd57ec7b	-0.05271576
209	0xbc08a6a5	-0.008340512
210	0xbe6d5250	-0.23175931
211	0x3d90cf33	0.0707077
212	0xbe1b1c5d	-0.15147538
213	0x3c923159	0.017845796
214	0xbe0e1402	-0.1387482
215	0xbd81b044	-0.06332448
216	0xbd94024a	-0.07226999
217	0x3dae1bf0	0.085014224
218	0xbdb73899	-0.08946342
219	0xbdada2a4	-0.08478287
220	0xbeaa8ccb	-0.33310542
221	0xbd71933b	-0.0589783
222	0xbcc8dd50	-0.024519593
223	0xbe2112e3	-0.15729861
224	0xbd4a0402	-0.04932023
225	0xbb9a42f8	-0.0047076903
226	0xbd0dda5d	-0.034632076
227	0x3c6e1213	0.014530676
228	0xbe5d53a0	-0.21613932
229	0xbbded50a	-0.0068002986
230	0x3d28354a	0.041066445
231	0xbddf58cc	-0.109056085
232	0xbe7d2dc5	-0.24724491
233	0xbe2c359f	-0.1681733
234	0xbd327f7f	-0.04357862
235	0x3c9efbbc	0.019407146
236	0xbdd6e13a	-0.10492177
237	0xbd7f25e6	-0.062292002
238	0x3c8bef86	0.017081987
239	0x3cafdd17	0.021467729
240	0x3c8e9676	0.01740573
241	0xbe7186b0	-0.23586535
242	0xbda2f5dd	-0.07957051
243	0x3d9b3730	0.075788856
244	0x3e2aa2e7	0.16663705
245	0xbd889a2e	-0.066700324
246	0xbdcef9a5	-0.1010621
247	0xbe4662b5	-0.19373591
248	0xbe0c09a9	-0.1367556
249	0xbc154c3e	-0.009112416
250	0x3e10a4da	0.14125386
251	0x3ca4238e	0.020036485
252	0xbd2887f8	-0.041145295
253	0xbe5d0a95	-0.21586068
254	0x3d04907f	0.032364365
255	0x3d23fc5f	0.0400356

action_model._continuous_distribution.mu.weight f4 [2, 256]
0	0xbd6a8502	-0.057255752
1	0x3d80b4ab	0.0628446
2	0x3d7215f2	0.05910296
3	0x3df8b5f7	0.12144082
4	0x3e3edaab	0.18638103
5	0x3d29129d	0.041277517
6	0x3e393c0c	0.18089312
7	0x3c6ae00a	0.014335642
8	0xbea49480	-0.32144547
9	0xbd5026db	-0.050818305
10	0x3c9fb297	0.019494338
11	0xbc908862	-0.017643157
12	0xbd26a745	-0.040686864
13	0xbe5d38eb	-0.21603744
14	0x3bfd929b	0.007738424
15	0x3d83495e	0.06410478
16	0x3dea94e3	0.11454179
17	0x3d1fb91f	0.038994905
18	0x3d122fd2	0.035690136
19	0xbd038dd9	-0.0321177
20	0x3b745ea2	0.003728785
21	0xbd44ef1e	-0.048079602
22	0x3c9f4825	0.01944358
23	0xb9643e9f	-0.00021767103
24	0xbe205311	-0.15656687
25	0x3e029d86	0.12755403
26	0xbe71a90e	-0.23599645
27	0xbeb4c7aa	-0.35308582
28	0x3bf25163	0.007394956
29	0x3e331271	0.17487504
30	0x3dac3f79	0.08410544
31	0xbe5775b4	-0.21040994
32	0x3dea68ce	0.11445771
33	0xbe684696	-0.22683176
34	0x3a378858	0.0007001213
35	0xbe3fb9b4	-0.18723184
36	0x3c90167d	0.017588848
37	0xbe08b337	-0.13349615
38	0xbe4f4b75	-0.20243628
39	0x3e8c7ce6	0.2743904
40	0xbe0b9a53	-0.13633089
41	0xbd98b98e	-0.07457267
42	0xbd377d22	-0.04479707
43	0xbd292eec	-0.041304514
44	0x3dacb325	0.084326066
45	0xbebd37dd	-0.36956683
46	0xbdb613c8	-0.08890492
47	0x3d98bbcc	0.074576944
48	0xbcedc19a	-0.02902298
49	0xbce58ff9	-0.028022753
50	0xbe484429	-0.19557251
51	0xbca5da30	-0.020245641
52	0xbe86dbd7	-0.263396
53	0x3d7ad392	0.061236925
54	0xbe1af7fb	-0.1513366
55	0x3dc75d97	0.09734648
56	0xbde2ee41	-0.110805996
57	0x3d665401	0.056232456
58	0x3d0d5b56	0.034510933
59	0xbe865272	-0.26234776
60	0xbc3caf75	-0.011516442
61	0x3e6e9122	0.23297551
62	0x3d22fe06	0.039793037
63	0x3e072f79	0.13201703
64	0x3dadba50	0.08482802
65	0x3df475ce	0.11936532
66	0x3cdd1c05	0.0269909
67	0xbd9d0976	-0.0766782
68	0xbc5216ec	-0.012822848
69	0x3d39ca74	0.04535909
70	0xba9f855c	-0.0012170481
71	0x3eb16933	0.34650573
72	0x3c9d3156	0.019188564
73	0xbe7c2814	-0.24624664
74	0x3c42efd5	0.011898001
75	0xbe96c92c	-0.29450357
76	0x3c6518eb	0.013982992
77	0xbc721d33	-0.014777469
78	0xbca5ce55	-0.020239988
79	0xbd22cc5a	-0.039745666
80	0xbcc16b25	-0.02361066
81	0xbe76c804	-0.24099737
82	0xbcdcdc74	-0.026960589
83	0x3e995cf0	0.29953718
84	0xbd7fa3c8	-0.062412053
85	0x3c7eec25	0.015559231
86	0xbd9c3f40	-0.076292515
87	0x3df8ffff	0.121582024
88	0x3d03f498	0.032215685
89	0x3e98cae0	0.2984228
90	0xbe51bae8	-0.20481455
91	0xbd98d136	-0.07461779
92	0xbdb348ea	-0.08754142
93	0x3d259f2f	0.040435012
94	0x3e245667	0.16048585
95	0x3d2100d3	0.039307427
96	0x3d6f3a39	0.058405135
97	0xbcacd30c	-0.021096729
98	0x3ce9aea3	0.028525656
99	0xbdba35fd	-0.09092329
100	0xbda3af1e	-0.07992385
101	0x3d891ba8	0.06694728
102	0x3bf82b13	0.007573494
103	0xbdfbf3bc	-0.12302348
104	0xbdcd78d2	-0.1003281
105	0xbd487e7f	-0.04894876
106	0xbd381f03	-0.04495145
107	0x3c9049a0	0.017613232
108	0xbd474bc5	-0.048656244
109	0x3ceb44cc	0.028719328
110	0xbe45e85b	-0.19326918
111	0x3d53c7ed	0.051704336
112	0x3d6b356e	0.057424
113	0xbd907045	-0.07052664
114	0xbdb47151	-0.08810676
115	0xbdac46fc	-0.08411977
116	0x3cb22595	0.021746436
117	0xbce3986b	-0.02778264
118	0xbde3b9f8	-0.11119455
119	0x3d0a6385	0.033786315
120	0xbd624ad8	-0.055247158
121	0x3ecf098c	0.4043697
122	0xbd521aba	-0.05129502
123	0x3e8a9f80	0.27074814
124	0x3c0fb871	0.008772002
125	0xbd86281b	-0.06550618
126	0xbd262946	-0.040566705
127	0x3c259667	0.0101066595
128	0x3e245f48	0.16051972
129	0x3e65b04e	0.22430536
130	0x3d871a52	0.06596817
131	0x3dfe7c4f	0.12426054
132	0x3daef6a8	0.0854314
133	0xbc7ce0cc	-0.015434455
134	0x3c07461d	0.008256462
135	0xbe1c47cf	-0.15261768
136	0x3c64baca	0.01396055
137	0x3e0202b6	0.12696347
138	0x3bf9c05c	0.007621808
139	0x3b0d0cfb	0.002152263
140	0xbdd60d24	-0.10451725
141	0x3cff85cd	0.03119173
142	0x3ab93253	0.0014129378
143	0xbe07b1ca	-0.13251415
144	0xbe6b4b18	-0.22977865
145	0x3e3be367	0.18348466
146	0xbe243060	-0.16034079
147	0xbe045e2a	-0.12926546
148	0xbe9b3be2	-0.30319124
149	0x3effd370	0.49966002
150	0xbdcbe9ed	-0.09956727
151	0xbc8cf303	-0.01720572
152	0x3d5a31e4	0.053270236
153	0xbe92d425	-0.28677478
154	0xbd9e8341	-0.077398784
155	0xbca6be40	-0.02035439
156	0xbe829a92	-0.25508553
157	0x3c6a6994	0.014307398
158	0x3d9a6e13	0.07540526
159	0x3d21530b	0.039385837
160	0xbd3bd94f	-0.04586154
161	0xbcf77220	-0.030205786
162	0x3d3bebe4	0.04587926
163	0xbeb79ff9	-0.35864237
164	0x3e928c1f	0.2862253
165	0xbceb751a	-0.028742362
166	0x3e73f449	0.23823656
167	0xbd25850c	-0.040410087
168	0xbd1142e8	-0.035464197
169	0xbd88f7e4	-0.066879064
170	0xbd6378ab	-0.055535
171	0xbe0d7b62	-0.13816598
172	0xbb72a12b	-0.0037022333
173	0x3e1d7c66	0.15379485
174	0xbc813460	-0.015772045
175	0xbcaffe9c	-0.021483712
176	0xbdc8c10a	-0.09802444
177	0xbe03e81d	-0.12881513
178	0xbe97595a	-0.29560357
179	0xbda28ceb	-0.07937034
180	0xbd1733d7	-0.036914673
181	0xbd838a42	-0.06422855
182	0xbd87a986	-0.06624131
183	0x3dd7555a	0.105143264
184	0xbea8c560	-0.32963085
185	0xbe2ef0cc	-0.17084044
186	0xbde6467c	-0.112439126
187	0xbc37aeaf	-0.011211081
188	0x3e7be1d4	0.24597865
189	0xbe035745	-0.1282626
190	0x3c125e4f	0.008933618
191	0x3d5c6d04	0.053814903
192	0xbc49b80e	-0.012311948
193	0x3eb919ca	0.36152488
194	0xbd4285e2	-0.04749096
195	0x3ce18ae8	0.027532056
196	0xbe7ddc57	-0.24791084
197	0xba08eedb	-0.00052235805
198	0x3d985472	0.07437982
199	0x3cedcd56	0.029028576
200	0xbcf11161	-0.029427232
201	0xbea49d37	-0.32151195
202	0x3dfe6441	0.12421466
203	0x3d44aec7	0.048018243
204	0x3dbeacf0	0.09310329
205	0xbeabc27b	-0.33546814
206	0x3d3f67af	0.04672974
207	0xbe96effd	-0.29479972
208	0x3e62741a	0.22114602
209	0x3e353cc6	0.17698964
210	0xbd836930	-0.06416547
211	0x3d8b80da	0.06811686
212	0xbd7c66ff	-0.061621662
213	0xbbb2d4c9	-0.005457495
214	0x3c176f16	0.009242794
215	0x3de52f1b	0.11190625
216	0x3d232479	0.039829705
217	0x3d89f475	0.067360796
218	0x3c85044f	0.016237406
219	0x3dea3f07	0.11437803
220	0x3cc182ad	0.023621881
221	0x3d9b7fa0	0.07592702
222	0xbd2e6919	-0.042580698
223	0x3e5db85b	0.21652357
224	0x3d8fa629	0.070141144
225	0xbd328ca4	-0.043591157
226	0xbcef457e	-0.029207941
227	0xbc80ac7b	-0.015707245
228	0xbd612ea0	-0.054976106
229	0x3d87fb85	0.066397704
230	0xbdb887b5	-0.09010259
231	0xbdd5482c	-0.10414156
232	0x3e800455	0.25003305
233	0x3e4284ee	0.18996021
234	0xbd5a4a95	-0.053293783
235	0xbefaf4ab	-0.49014792
236	0xbda60685	-0.08106712
237	0xbdb12b86	-0.086508796
238	0xbe98d392	-0.29848915
239	0x3e4fd48b	0.20295922
240	0xbe14faa0	-0.14548731
241	0x3e4c2bdc	0.19938606
242	0x3d77be84	0.060484424
243	0x3ce1a614	0.027545013
244	0x3c0d7de6	0.008635974
245	0xbcf7ff41	-0.030273082
246	0x3e8d3819	0.27581862
247	0x3b8034b2	0.003912532
248	0x3d6a9b1f	0.05727684
249	0x3bd24fba	0.0064181956
250	0x3d860424	0.065437585
251	0xbe06e249	-0.13172258
252	0x3d77a495	0.060459692
253	0xbe9db05a	-0.30798608
254	0x3cd8ba96	0.026456159
255	0x3e0e6afe	0.13908002

action_model._continuous_distribution.mu.bias f4 [2]
0	0x3d8223e6	0.06354503
1	0x3cd3ac19	0.025838898

action_model._continuous_distribution.log_sigma.weight f4 [2, 256]
0	0x3bc625e5	0.006046998
1	0xbd0fee22	-0.03513921
2	0xbcaf6bc3	-0.02141369
3	0xbc3115ea	-0.010808447
4	0xbc3b5c3a	-0.011435563
5	0x3be033c0	0.0068421066
6	0xbce2c091	-0.027679713
7	0x3bf28a0c	0.0074017104
8	0x3d82fd69	0.063959904
9	0x3b831550	0.0040003434
10	0x3bbf6fb0	0.0058421716
11	0xbbe4b60e	-0.0069797104
12	0x3b3346db	0.0027355466
13	0x3b40df76	0.0029430068
14	0xbbff55cf	-0.0077922116
15	0xba19ca2b	-0.0005866612
16	0xbd6a5ea0	-0.057219148
17	0x3b971a6c	0.004611304
18	0xbc055026	-0.008136785
19	0x3c835295	0.01603059
20	0xbbfab650	-0.007651128
21	0xbc9e8272	-0.01934931
22	0xbc69c4a5	-0.014268075
23	0x3bb76b1c	0.005597485
24	0x3bca0eb2	0.0061663026
25	0x3c6da96c	0.014505725
26	0x3ca27e2b	0.019835552
27	0xbc2b4fcd	-0.010456038
28	0x3c6cbaf5	0.014448871
29	0x3c436fbb	0.011928494
30	0xbb892ba2	-0.0041861096
31	0xbab0aa4f	-0.001347849
32	0x3bcf28b5	0.0063219913
33	0x3d52b701	0.051444057
34	0xbb1821c2	-0.002321348
35	0x3bcac833	0.0061884164
36	0xbc2540a3	-0.010086211
37	0x3aee59ba	0.00181847
38	0x3c4b0bdc	0.012392964
39	0x3cc034d5	0.023462692
40	0xbc207a44	-0.009794775
41	0xbc6156c0	-0.013753593
42	0xbbf4926d	-0.0074637444
43	0xbaf13d95	-0.0018405194
44	0xbc921886	-0.01783396
45	0x3d2642d4	0.040591076
46	0xbd1c1c8a	-0.038113154
47	0xbc34e27b	-0.011040325
48	0xbc8dcae8	-0.017308667
49	0x3c48dfc8	0.012260385
50	0x3b1efc62	0.0024259319
51	0xbcabb86b	-0.02096196
52	0x3d40fe70	0.04711765
53	0xbc96a3fc	-0.01838874
54	0x3c80415a	0.015656162
55	0xbb9a8516	-0.004715572
56	0xb954b170	-0.00020283996
57	0x3c0c010a	0.00854517
58	0x3b8df410	0.004332073
59	0xbc77a535	-0.015115072
60	0x3c1fe1cf	0.009758427
61	0xbaa11316	-0.0012289013
62	0xbbe44893	-0.0069666593
63	0xbc740061	-0.014892668
64	0x3cc7e8fa	0.024403084
65	0x3c6dd422	0.014515908
66	0x3a2f85b8	0.0006695646
67	0xbbb12c17	-0.0054068672
68	0xbbe9701d	-0.0071239606
69	0x3bd0dfa8	0.006374318
70	0x3d0a48ee	0.033760957
71	0x3c9b5a5d	0.018963987
72	0x3c199b40	0.009375393
73	0xbc41f57b	-0.011838312
74	0x3bbfbbb1	0.005851232
75	0x3d73d212	0.05952651
76	0xbc84859d	-0.016176993
77	0x3bd0852f	0.006363533
78	0xbcc41b2e	-0.023938742
79	0x3c31bee2	0.010848733
80	0x3c8a1df1	0.01685998
81	0xbb64e888	-0.0034928638
82	0xbd2269c8	-0.039651662
83	0xbb02eade	-0.0019976418
84	0x3bc596c9	0.006029938
85	0x3aeacda1	0.0017914065
86	0x396bac91	0.00022475632
87	0x3b2a7dd1	0.0026014934
88	0x3a83e89f	0.0010063833
89	0xb93523a8	-0.00017274788
90	0x3bf57f85	0.007492008
91	0x3dc9231f	0.09821152
92	0xbd2d3130	-0.042283237
93	0x3a8dfb28	0.0010832297
94	0xbcfe3cb5	-0.031034807
95	0xbbbd089d	-0.005768849
96	0xbb8389b6	-0.004014219
97	0x3ac73416	0.0015198018
98	0xbcb468ca	-0.022022624
99	0x3b82366f	0.003973774
100	0xbb0dedad	-0.0021656558
101	0x38afdc48	8.385681e-05
102	0x3c9d3204	0.019188888
103	0x3d3a7fb7	0.045531955
104	0xbd2bac7a	-0.041912533
105	0x3cff54f7	0.031168444
106	0x3c016720	0.007898122
107	0x3d27719b	0.040879827
108	0xbb744505	-0.0037272584
109	0xbc93f8a6	-0.0180629
110	0xbb3f4074	-0.0029182704
111	0xbb546f2b	-0.0032414894
112	0xbbf806fc	-0.007569192
113	0x3c8e6cae	0.017385807
114	0xbc12d25c	-0.008961286
115	0xbb0e531f	-0.0021717025
116	0x39a9c9c6	0.00032384525
117	0x3d3e4a4d	0.046457577
118	0x3bcd57c6	0.006266567
119	0xbb9e4734	-0.0048302654
120	0x3cf336d9	0.02968924
121	0xbdd5ea3b	-0.104450665
122	0x3cde2682	0.027117971
123	0x3ca57e06	0.020201694
124	0x3cc7671e	0.024341162
125	0xbb7b41bb	-0.003833874
126	0xbba04e8b	-0.0048921756
127	0x3baf890e	0.0053569144
128	0xbc076ad7	-0.008265219
129	0xbd66e313	-0.0563689
130	0xbaf02e3a	-0.0018324323
131	0x3d098db3	0.0335824
132	0xbc8bc8b6	-0.01706348
133	0x3b290e8a	0.002579602
134	0xbb0642c6	-0.0020486577
135	0xbd3b1c52	-0.045681305
136	0x3baa0ccf	0.005189515
137	0xbcb6b56a	-0.022303302
138	0x3bd028e9	0.006352533
139	0x3ac97049	0.0015368547
140	0xb8bd4379	-9.02479e-05
141	0x3c7c4884	0.015398148
142	0x3b1abe74	0.0023612054
143	0xbb8cf563	-0.0043017133
144	0x3e05dce7	0.13072549
145	0xbc095f4c	-0.008384537
146	0x3c725817	0.01479151
147	0x3c4fc995	0.012682338
148	0xbc8ca65c	-0.01716917
149	0x3cd19571	0.025583955
150	0xbc4f53c7	-0.012654251
151	0xbaafc786	-0.0013410903
152	0x3b18a017	0.002328878
153	0xbc64e32d	-0.013970179
154	0xbb6f8d73	-0.0036552816
155	0xb9e0ac74	-0.00042853097
156	0x3caffd71	0.021483155
157	0x3abee11c	0.0014562937
158	0xbb4e3b2c	-0.0031468375
159	0xb9185717	-0.00014528293
160	0x3c03600c	0.008018505
161	0x3c21cb53	0.009875136
162	0xbc368593	-0.011140245
163	0x3cf605ec	0.03003212
164	0x3c87ff77	0.016601307
165	0xbbec19cb	-0.007205223
166	0xb9c3ba47	-0.00037332086
167	0x3ae98b2c	0.0017817966
168	0x3b24adc1	0.002512798
169	0x3c1172b0	0.008877441
170	0x3c4cd8f7	0.0125029
171	0x3c0c1df6	0.008552065
172	0x3cc10906	0.023563873
173	0xbca1db49	-0.019757884
174	0x3d19548b	0.037434142
175	0x3b2c71b9	0.0026312901
176	0xbc374060	-0.011184782
177	0x3d08d2f6	0.033404313
178	0x3c2554ce	0.01009102
179	0x3ba6c603	0.005089523
180	0xbba71ea4	-0.005100088
181	0xbc329a3c	-0.01090103
182	0xbc54553d	-0.0129597755
183	0xbd7a3af0	-0.061091363
184	0x3c04ac99	0.008097791
185	0x3d117d9f	0.035520192
186	0xbc9ea4f0	-0.019365758
187	0xbc608bdd	-0.013705221
188	0x3c460817	0.01208689
189	0x3c4239ae	0.011854572
190	0x3bbc3b6b	0.005744388
191	0x3b79fe53	0.0038145974
192	0xbb34213e	-0.0027485634
193	0xbc68ea67	-0.014216042
194	0x3c821549	0.01587929
195	0xba9d23ab	-0.0011988779
196	0x3cb08196	0.021546166
197	0x3d354c6e	0.044262342
198	0xbb9744f6	-0.004616375
199	0xbb32bcca	-0.0027273172
200	0x3b8e5a1c	0.004344238
201	0x3c809d7a	0.01570009
202	0x3a9b347d	0.0011841204
203	0x3b3593bc	0.0027706465
204	0xbce7c1a6	-0.028290581
205	0x3b0fe552	0.0021956754
206	0x3b6d722e	0.0036231386
207	0xbc03b375	-0.008038391
208	0xbd1154e1	-0.035481337
209	0xbc9880e3	-0.018616145
210	0xbca7e5cc	-0.020495318
211	0xbb9100fd	-0.0044251666
212	0x3b94a53c	0.004536299
213	0xbd3c8f76	-0.046035253
214	0x3b5fcb02	0.0034148102
215	0xbbc95985	-0.0061447048
216	0x3bf1a311	0.0073741754
217	0x3c16d1d8	0.009205304
218	0xbbeb885f	-0.0071878876
219	0xbca4c5ff	-0.020113943
220	0x3c6ee7ff	0.014581679
221	0xbd06b048	-0.03288296
222	0x3d2476b7	0.040152278
223	0xbc02b768	-0.007978298
224	0xb7f54886	-2.9240047e-05
225	0xbc8e232c	-0.017350756
226	0xbb78cfd3	-0.003796567
227	0xbb3af5fa	-0.002852796
228	0x3d5adafc	0.053431496
229	0x3797eb57	1.8110191e-05
230	0xbb3c64d9	-0.0028746633
231	0x3c2f4c87	0.010699398
232	0x3c90ded3	0.017684376
233	0xbc2df956	-0.010618528
234	0x3be6ee54	0.007047454
235	0x3d97d258	0.07413167
236	0x3d1b28ed	0.037880827
237	0xbbcd72b3	-0.0062697767
238	0xbc9f91bd	-0.019478673
239	0xbcb96fe7	-0.022636367
240	0xbbc29828	-0.0059385486
241	0xbc9502d9	-0.018189834
242	0x3c85614a	0.016281743
243	0x3c1e8edd	0.009677616
244	0xbc93a1ac	-0.018021427
245	0xbb62f430	-0.003463041
246	0xbc2c581a	-0.010519052
247	0xbac8f5b0	-0.001533201
248	0x3af02b37	0.0018323426
249	0x3a0fad75	0.0005480864
250	0xbab822ca	-0.0014048454
251	0x3c316b6d	0.010828835
252	0xbbdcf6bf	-0.0067432816
253	0xbb7484df	-0.0037310643
254	0x3c1534cb	0.009106825
255	0x3c12f928	0.008970536

action_model._continuous_distribution.log_sigma.bias f4 [2]
0	0xbf211e4f	-0.6293687
1	0xbf081098	-0.5315032

action_model._discrete_distribution.branches.0.weight f4 [2, 256]
0	0xbeb69980	-0.35663986
1	0xbe420da6	-0.18950519
2	0xbe7cda57	-0.24692665
3	0xbeeb783c	-0.4599017
4	0xbbf20163	-0.007385419
5	0x3e067228	0.13129485
6	0xbe12f7f4	-0.14352399
7	0x3e8829ae	0.265943
8	0xbdd2d19b	-0.10293885
9	0xbe3e2559	-0.18568935
10	0x3e588791	0.21145464
11	0x3e7153c1	0.23567106
12	0xbe644c26	-0.22294673
13	0x3d05f915	0.032708246
14	0x3ddbcf0f	0.10732853
15	0xbdd1e05a	-0.1024787
16	0x3e3a10df	0.18170498
17	0x3e6f1fd8	0.23351991
18	0xbe9cf5a0	-0.30656147
19	0x3e0adc29	0.13560547
20	0x3d602453	0.05472214
21	0xbe4b0f34	-0.19830018
22	0xbe39933e	-0.18122575
23	0xbea48583	-0.3213311
24	0xbe7124ee	-0.23549244
25	0xbe3a4496	-0.18190226
26	0x3e09a0c0	0.13440228
27	0xbcd77628	-0.026301458
28	0xbe992793	-0.29913005
29	0xbe7631f2	-0.2404249
30	0x3eca4dc9	0.3951247
31	0x3d9d8869	0.07692034
32	0xbee1c6e5	-0.44097057
33	0x3d96e658	0.07368153
34	0xbc42b9ee	-0.011885149
35	0x3d198602	0.037481315
36	0xbe69b34c	-0.22822303
37	0xbea0e557	-0.31424972
38	0xbca5210c	-0.02015736
39	0xbd8c3fe0	-0.06848121
40	0xbe371321	-0.17878391
41	0x3cb4bb52	0.022061978
42	0xbe93693b	-0.28791222
43	0x3e3d5766	0.18490371
44	0xbe0c427a	-0.13697234
45	0xbe13e8e2	-0.14444306
46	0x3c3873d5	0.011258085
47	0xbe9721c9	-0.29517964
48	0xbec8c81d	-0.39215174
49	0x3e06af64	0.13152844
50	0xbf1f7c38	-0.6229892
51	0x3e8e7382	0.278225
52	0xbe138b7a	-0.14408675
53	0xbe62fa6b	-0.2216584
54	0xbd9d4f43	-0.076811336
55	0xbe216543	-0.15761285
56	0x3e6260c7	0.2210723
57	0xbebb2654	-0.3655268
58	0x3ec114f7	0.37711307
59	0xbcb9f5fa	-0.022700299
60	0xbea5834b	-0.3232673
61	0x3c8943db	0.016755989
62	0x3e1d878a	0.15383735
63	0x3d859b57	0.06523769
64	0x3e3551bb	0.17706959
65	0xbea56819	-0.32305983
66	0x3e3fd8be	0.18735024
67	0xbe9cadd9	-0.30601385
68	0xbe641771	-0.22274567
69	0xbe768592	-0.2407439
70	0x3e79de91	0.24401309
71	0xbdd91b11	-0.10600866
72	0xbe8c244b	-0.2737144
73	0x3d644992	0.055734225
74	0xbea4bbad	-0.32174435
75	0x3de84f30	0.11343229
76	0xbeb2f568	-0.34952855
77	0x3e55d2ad	0.20881148
78	0x3e485003	0.19561772
79	0xbe8e1ad2	-0.27754837
80	0xbdd386b5	-0.10328428
81	0xbe6efe20	-0.23339128
82	0x3e54910f	0.2075846
83	0xbdffb781	-0.124861725
84	0xbe329883	-0.17440991
85	0xbc63bc37	-0.013899854
86	0x3e42f9cd	0.19040604
87	0xbedca784	-0.43096554
88	0x3e3160d4	0.17322093
89	0xbe3cc635	-0.18434985
90	0xbe4c6f16	-0.19964251
91	0xbc65eb60	-0.014033169
92	0x3e13e901	0.14444353
93	0xbebef682	-0.37297446
94	0xbe80ac95	-0.2513167
95	0xbe6e1377	-0.23249613
96	0x3e29a3b3	0.16566353
97	0x3e654cfc	0.22392648
98	0xbe76e037	-0.24108969
99	0xbede7bb1	-0.43453744
100	0x3dd01f79	0.10162253
101	0x3d1441ce	0.03619557
102	0xbe4b7716	-0.19869646
103	0xbe97f832	-0.29681545
104	0x3e175e3d	0.14782043
105	0x3e089f6a	0.13342062
106	0xbd8c5eca	-0.06854017
107	0xbd0819ff	-0.033227917
108	0xbe38ce14	-0.18047363
109	0x3e78edd0	0.24309468
110	0xbdd2b45e	-0.102883086
111	0xbe84cf83	-0.2593957
112	0x3c8cb6a6	0.017176937
113	0xbdaadeff	-0.083433144
114	0xbe6443cd	-0.22291489
115	0xbe8df967	-0.2772934
116	0x3e9ebaeb	0.31001982
117	0xbe379a05	-0.17929848
118	0x3e14b5bc	0.14522451
119	0x3e5897dc	0.2115168
120	0xbe9ee62e	-0.31034988
121	0xbe844592	-0.25834328
122	0xbe4357d1	-0.19076468
123	0xbdc6255b	-0.09675094
124	0x3e149ae2	0.14512208
125	0x3d89989e	0.067185625
126	0xbeaec334	-0.34133303
127	0xbe93467b	-0.2876471
128	0x3dfa31dd	0.12216542
129	0xbe6fe141	-0.23425771
130	0xbe8c01df	-0.27345178
131	0x3e589112	0.2114909
132	0x3e2433bd	0.16035362
133	0xbe3d8772	-0.185087
134	0xbe84c30a	-0.25930053
135	0x3e016659	0.12636699
136	0xbdfec24e	-0.124394044
137	0xbd2c3c53	-0.042049717
138	0xbe947b40	-0.29000282
139	0xbe20a5e2	-0.1568828
140	0x3e31e1f0	0.17371345
141	0x3e5bde4c	0.21471518
142	0x3e3a0e60	0.18169546
143	0x3d8c9cf3	0.06865873
144	0xbdf292a7	-0.11844378
145	0xbdb6e1fd	-0.089298226
146	0xbccc2b64	-0.024923034
147	0x3e2aad01	0.16667558
148	0xbcc6e460	-0.02427882
149	0x3d457a51	0.048212353
150	0xbee7b683	-0.45256433
151	0xbe3f1c66	-0.18663177
152	0xbe2e55d6	-0.17024931
153	0xbe21e47e	-0.15809819
154	0x3dd659ae	0.10466324
155	0xbe2abcab	-0.16673534
156	0xbcab3062	-0.020897094
157	0xbe90c5da	-0.2827595
158	0xbe8816d1	-0.26579908
159	0xbbb91fca	-0.0056495415
160	0x3e370c30	0.17875743
161	0x3e4ddf11	0.20104624
162	0xbeb71b7e	-0.35763162
163	0xbd983673	-0.0743226
164	0xbc0ffe5c	-0.008788671
165	0x3df34dae	0.118800506
166	0xbe896435	-0.26834264
167	0xbe48cbeb	-0.19609039
168	0x3e91e0c6	0.284918
169	0x3e31e83b	0.17373745
170	0xbe80a7ca	-0.25128013
171	0xbe0c8fa8	-0.13726676
172	0xbec52c34	-0.38510287
173	0xbe99e119	-0.30054548
174	0xbe3d26c1	-0.18471815
175	0xbe4e9a38	-0.20176017
176	0x3e198eaa	0.14995828
177	0x3dd19c24	0.102348596
178	0x3d11e182	0.03561545
179	0xbe6c38a9	-0.23068489
180	0x3e708ac2	0.23490432
181	0xbe52c2f0	-0.20582175
182	0x3e0e2188	0.13879979
183	0xbe702385	-0.2345105
184	0x3d3fedda	0.046857692
185	0xbe834a31	-0.2564254
186	0x3d391a14	0.045190886
187	0xbe560062	-0.20898584
188	0xbea51016	-0.32238835
189	0x3e6dd4df	0.23225735
190	0x3e874cac	0.26425683
191	0xbdb4b8f0	-0.088243365
192	0x3e644eeb	0.2229573
193	0xbd98b891	-0.07457078
194	0xbe9d7ecb	-0.30760798
195	0x3a9de9cf	0.001204783
196	0x3e1e942d	0.15486212
197	0x3e299d61	0.16563942
198	0x3eb6cba1	0.35702232
199	0xbea3d9cc	-0.32002103
200	0x3d8c69c9	0.068561144
201	0xbe423176	-0.1896418
202	0xbe56defd	-0.20983501
203	0x3d51aa92	0.05118806
204	0x3e5e73c9	0.21723856
205	0x3c4c9e5b	0.012488927
206	0xbe939641	-0.28825572
207	0xbd10418f	-0.03521877
208	0xbd24568a	-0.040121593
209	0xbe9ee10a	-0.31031066
210	0xbd620aaa	-0.05518595
211	0xbe38c5fe	-0.18044278
212	0xbe85fa31	-0.26167443
213	0x3e400230	0.18750834
214	0xbeb9eaf7	-0.36312076
215	0xbe9293bb	-0.28628334
216	0xbea7d9a7	-0.32783243
217	0xbc2a00cb	-0.010376166
218	0xbe767ebe	-0.24071786
219	0xbdffcc1f	-0.12490105
220	0x3d93613b	0.071962796
221	0x3e93382c	0.28753793
222	0x3e50294a	0.2032825
223	0x3da50788	0.08058077
224	0x3e26a2f9	0.16273107
225	0x3e9c6b36	0.30550545
226	0x3eb6c644	0.3569814
227	0x3e3408cf	0.17581485
228	0xbec3d3ee	-0.38247627
229	0xbeb0c8da	-0.34528238
230	0x3eae4fb3	0.3404518
231	0xbdc7b273	-0.09750833
232	0x3bd022d5	0.0063518086
233	0xbe2b3a5c	-0.16721481
234	0xbefa6e7a	-0.48912412
235	0xbdbe6755	-0.09297053
236	0xbe0030e9	-0.12518658
237	0xbe44a313	-0.19202833
238	0xbd95acba	-0.073083356
239	0xbe8a3579	-0.2699392
240	0x3dcba7dd	0.09944127
241	0xbe11a5b7	-0.14223371
242	0xbec08ad4	-0.37605917
243	0xbdb12616	-0.086498424
244	0xbc49f67b	-0.012326832
245	0xbec34fa2	-0.38146693
246	0x3c74b121	0.014934809
247	0xbdd70f29	-0.105009384
248	0xbe886111	-0.26636556
249	0x3e8b6665	0.27226558
250	0x3efd65f0	0.49491835
251	0xbda35fb0	-0.07977235
252	0x3e7211f5	0.23639663
253	0xbd0a338b	-0.03374056
254	0x3e005af5	0.12534697
255	0x3e232a08	0.15934002

action_model._discrete_distribution.branches.0.bias f4 [2]
0	0x3cd229ea	0.025654752
1	0xbcd230a6	-0.025657963
