results/RunawayTest1/Runaway/Runaway-778944.onnx (onnx, 77714 bytes, 9 tensors)

network_body._body_endoder.seq_layers.0.weight f4 [128, 4]
0.8933653 0.41543883 0.26086804 -1.2782022 -0.7956817 0.7102366 0.18195431 -0.83636606
0.23349158 -0.7400301 -0.556857 1.0733467 0.36791456 -0.4185178 -0.7630839 0.5086404
0.8931594 -0.22921155 -0.24182676 -0.8037602 0.45023006 -0.5288228 -0.25025707 -0.6310509
-0.23635045 -0.55412686 0.6330519 -0.11206256 0.80945545 -0.49638528 -0.36687183 -0.7098413
-0.30344865 -0.11773295 -0.35770476 -0.20516254 0.019310681 0.8809838 -0.22029248 0.12221916
0.74903536 -0.30634755 0.7079699 -1.2992179 -0.15780714 0.09713782 0.3959614 0.12095878
0.16810893 0.8732832 -0.47894728 -0.5906762 -0.48403174 -0.24813405 -1.0438449 -0.7319356
0.07348983 -0.13115752 0.69736975 -0.50461906 -0.22278753 0.18919732 -0.35847467 -0.54293907
-0.08441472 -0.47218084 0.19665864 1.1238723 0.8190624 0.078716315 0.5380953 -0.9270235
0.26112065 -0.11914741 0.33389726 -0.45891294 -0.81229967 -0.02322171 0.37156764 0.35879686
-0.07157471 -0.2897798 -0.21211658 0.35040092 -0.4938407 0.49858698 0.4612027 -0.36362368
-0.059901305 -0.10772806 -0.32571182 0.282254 0.6795603 0.031069957 -0.8623661 -0.78014076
0.056819603 -0.06002962 0.2003872 -0.7570351 0.46197328 0.24002488 -0.21710244 0.18519206
0.30224973 0.8784177 0.50290364 -0.2203419 0.28610244 0.52988183 -0.24177817 -0.32723278
-0.5241779 0.55324453 0.8416784 0.19945307 -0.3720392 -0.40583202 0.28802225 -0.5648498
-0.4703332 0.01957443 -0.7403409 0.721963 -0.1304925 0.26495332 0.06260238 -0.100292765
-0.36978132 0.57760763 -0.082788706 0.3991938 -0.26928824 0.113990195 0.2456912 0.7265001
-0.012598244 0.6119245 -0.23804131 0.26119477 0.7539781 0.30656433 -1.1194175 -1.0718575
0.39584392 0.40212694 0.18543887 -0.80120957 -0.083761714 0.6994415 0.058583036 -0.015553028
0.32385194 0.1389304 1.1202797 -0.4799023 0.824461 0.46019107 0.101168245 0.0494154
0.28677508 -0.6487122 0.012316956 0.051446218 -0.42301786 0.62413204 0.22265267 -0.63456756
-0.4026659 -0.2892052 -0.6154857 -0.64005643 -0.26384234 0.12363261 0.23478483 0.2789261
0.3828404 0.114964604 0.16586752 -0.68502814 -0.3028482 -0.6143605 -0.061681844 -0.5321006
-0.613774 0.4030103 -0.98888737 0.16284391 -0.11889226 0.7737606 0.059437267 0.42111892
0.47214586 -0.010923566 -0.006961668 -0.14802124 0.07298226 0.5286183 0.45258817 0.33761033
-0.055370666 -0.5915323 0.54773355 -0.6627751 -0.37750188 -0.031664435 -0.1422656 0.12882562
-0.24437508 -0.8485926 -0.55538106 -0.37065932 0.19471502 0.04108316 0.9683391 -0.29146427
0.8914329 -0.35589442 -0.667174 -0.88290066 -0.22745563 -0.3758955 -0.11982445 -0.3040795
0.5162836 0.025653966 -0.31039423 -0.32727987 0.5275009 1.0052587 0.35921833 -0.66489047
-0.03660317 0.36119124 -0.30427992 -0.20729308 0.84992963 0.51077 -0.5535654 -0.34281838
0.2465144 -0.41106957 -0.21176615 0.4525697 -0.2447308 0.42791376 0.055451654 -0.5682677
0.30481607 -0.48385537 -0.040992837 -0.82317555 1.0341128 0.7308753 -0.26696494 0.290513
00000000: 97b3 643f 66b4 d43e 7f90 853e 219c a3bf
00000010: ccb1 4bbf 11d2 353f 3b52 3a3e 161c 56bf
00000020: 6b18 6f3e 9d72 3dbf 2e8e 0ebf 6d63 893f
00000030: 4c5f bc3e f747 d6be 7759 43bf 4236 023f
00000040: 18a6 643f 6fb6 6abe 6fa1 77be 3ac3 4dbf
00000050: 8e84 e63e ee60 07bf b221 80be 8d8c 21bf
00000060: da05 72be 42db 0dbf b00f 223f 0e81 e5bd
00000070: 7938 4f3f 3626 febe a0d6 bbbe 29b8 35bf
00000080: 9f5d 9bbe f91d f1bd 1425 b7be 2116 52be
00000090: 6f31 9e3c 2888 613f 5a94 61be 0a4e fa3d
000000a0: c8c0 3f3f 96d9 9cbe 843d 353f c64c a6bf
000000b0: 3298 21be 32f0 c63d 74bb ca3e 3db9 f73d
000000c0: bf24 2c3e 7d8f 5f3f 9438 f5be 8e36 17bf
000000d0: 02d3 f7be da16 7ebe b69c 85bf 2260 3bbf
000000e0: d681 963d 284e 06be d386 323f b72e 01bf
000000f0: 6a22 64be f1bc 413e fe89 b7be 0efe 0abf
00000100: a0e1 acbd b0c1 f1be e260 493e 0cdb 8f3f
00000110: 13ae 513f 0536 a13d 9dc0 093f 6951 6dbf
00000120: 9bb1 853e 8f03 f4bd 95f4 aa3e a3f6 eabe
00000130: dff2 4fbf 753b bebc 1d3e be3e 39b4 b73e
00000140: c395 92bd 055e 94be 1735 59be c067 b33e
00000150: b0d8 fcbe cb46 ff3e c322 ec3e e22c babe
00000160: 125b 75bd 87a0 dcbd b3c3 a6be 9983 903e
00000170: aaf7 2d3f 6c86 fe3c 06c4 5cbf 4eb7 47bf
00000180: acbb 683d 9ee1 75bd 4d32 4d3e 0dcd 41bf
00000190: c387 ec3e 15c9 753e 1a50 5ebe fda2 3d3e
000001a0: 7ac0 9a3e fbdf 603f 4bbe 003f 4fa1 61be
000001b0: 057c 923e 56a6 073f b294 77be 0e8b a7be
000001c0: 8630 06bf 6fa1 0d3f 3c78 573f 6d3d 4c3e
000001d0: ec7b bebe 37c9 cfbe a777 933e ff99 10bf
000001e0: 83cf f0be 8e5a a03c fb86 3dbf 91d2 383f
000001f0: d39f 05be f6a7 873e ad35 803d 4b66 cdbd
00000200: fa53 bdbe 18de 133f 208d a9bd 2163 cc3e
00000210: 26e0 89be b173 e93d 7996 7b3e e9fb 393f
00000220: dd68 4ebc 16a7 1c3f 1ac1 73be 52bb 853e
00000230: b504 413f 00f6 9c3e 1349 8fbf a032 89bf
00000240: 0eac ca3e 95e3 cd3e b0e3 3d3e 121c 4dbf
00000250: 438b abbd 990e 333f c4f4 6f3d 21d2 7ebc
00000260: eccf a53e c543 0e3e 5365 8f3f c1b5 f5be
00000270: e00f 533f 2a9e eb3e 4c31 cf3d cd67 4a3d
00000280: 2fd4 923e 0112 26bf 0fcd 493c 45b9 523d
00000290: cc95 d8be 1ec7 1f3f 10ff 633e 0573 22bf
000002a0: 3a2a cebe b412 94be 7990 1dbf bdda 23bf
000002b0: 5816 87be 1833 fd3d 6f6b 703e 67cf 8e3e
000002c0: a803 c43e 9072 eb3d 2dd9 293e 015e 2fbf
000002d0: eb0e 9bbe bb46 1dbf 1aa6 7cbd bf37 08bf
000002e0: 4b20 1dbf 5e57 ce3e b927 7dbf 8ec0 263e
000002f0: c97d f3bd 2d15 463f 7e74 733d e69c d73e
00000300: 1abd f13e c2f8 32bc b41e e4bb e192 17be
00000310: b977 953d 8753 073f a3b9 e73e 43db ac3e
00000320: 5acc 62bd a96e 17bf 4438 0c3f a1ab 29bf
00000330: ed47 c1be 91b2 01bd 13ae 11be ddea 033e
00000340: 763d 7abe 5d3d 59bf 742d 0ebf 0fc7 bdbe
00000350: 6063 473e d146 283d 12e5 773f ce3a 95be
00000360: f234 643f cb37 b6be eacb 2abf c705 62bf
00000370: 21ea 68be 6075 c0be 8566 f5bd 4fb0 9bbe
00000380: 292b 043f 4428 d23c feeb 9ebe 3a91 a7be
00000390: 4d0a 073f 51ac 803f 77eb b73e 4336 2abf
000003a0: 35ed 15bd 0fee b83e 94ca 9bbe a344 54be
000003b0: fd94 593f d3c1 023f 76b6 0dbf e485 afbe
000003c0: 456e 7c3e b677 d2be 3ad9 58be 37b7 e73e
000003d0: b69a 7abe 8317 db3e 4621 633d fe79 11bf
000003e0: da10 9c3e e4bb f7be 1be8 27bd a2bb 52bf
000003f0: cf5d 843f a51a 3b3f a1af 88be 1fbe 943e

network_body._body_endoder.seq_layers.0.bias f4 [128]
0.0031367016 0.00044848444 0.0008048142 0.002470136 -0.002640917 -0.0076608867 0.0053753476 -0.0023950932
-0.001959147 0.0028465167 -0.0005300013 0.0018692199 0.008157866 0.0014456995 0.00238722 0.0042837006
0.00080078864 0.00020542166 0.0050376435 -0.007303563 -0.0040488583 0.005517234 -0.004347071 -0.0037540905
-0.003326338 0.007933921 -0.0066265822 0.0086378995 -0.005018502 0.009493075 0.0068820086 0.0058646267
-0.005099614 -0.0052408795 0.005951936 0.0053470335 -0.004906968 0.006301352 0.002683664 -0.009261077
0.0040626465 0.0056236936 0.0050905403 0.003363748 0.0045282803 0.005325742 -0.0014262747 0.002836188
0.0038231171 -0.006233722 0.005540869 0.007156187 0.008321578 -0.0037235874 0.0006990445 -0.0058754673
-0.005377016 -0.008129271 -0.0043364204 0.0020176466 0.0019720818 0.004059865 0.0025512092 0.008727029
0.0062590353 0.007219979 -0.008731132 -0.0004825948 -0.003272328 0.0020819462 0.0012637748 -0.0005062576
-0.001048458 -0.0052079596 -0.0045908764 -0.0032871056 0.0016182918 0.0028584155 0.0008686571 -1.442305e-05
0.0031942306 0.0043404596 0.0060803173 0.0030767357 0.004927288 0.0005285148 -0.0023642704 0.0009265815
0.0032914986 0.007556414 0.0068032104 0.0021849603 0.0044874954 0.004001844 0.002118189 -0.004801206
0.008098569 -0.0024942285 0.0036325874 0.0037658596 0.0028869838 -0.006077078 -0.0037847643 0.0066040508
0.0020093154 0.008445567 -0.0012057235 0.007016664 0.008112114 0.0034182617 -0.00022684167 -0.0027503353
-0.005127294 0.00086936244 0.0019393805 4.741143e-05 -0.0020662614 0.0012301892 0.001248836 0.0034990893
0.0043250956 -0.0016171996 0.008047677 -0.0032409516 -0.005126527 0.009556199 0.0036019166 0.0050534545
00000000: 1f91 4d3b 9022 eb39 2bfa 523a 01e2 213b
00000010: 3c13 2dbb 2d08 fbbb af23 b03b fff6 1cbb
00000020: 0865 00bb a08c 3a3b c9ef 0aba 9d00 f53a
00000030: 92a8 053c a07d bd3a e872 1c3b 495e 8c3b
00000040: 04ec 513a 7566 5739 d112 a53b ba52 efbb
00000050: 49ac 84bb eac9 b43b e071 8ebb 3007 76bb
00000060: b1fe 59bb 47fd 013c cd23 d9bb fa85 0d3c
00000070: 3f72 a4bb d888 1b3c 7982 e13b 0e2c c03b
00000080: aa1a a7bb afbb abbb 7508 c33b 2b36 af3b
00000090: a2ca a0bb 927b ce3b 69e0 2f3b c6bb 17bc
000000a0: f31f 853b f646 b83b 8cce a63b 5472 5c3b
000000b0: f861 943b 9083 ae3b d6f1 baba 57df 393b
000000c0: 438d 7a3b 4044 ccbb 2e90 b53b 737e ea3b
000000d0: 3a57 083c 6e07 74bb 1540 373a fe86 c0bb
000000e0: ae31 b0bb a230 05bc 8818 8ebb 7e3a 043b
000000f0: 0b3e 013b 9e08 853b 3032 273b d0fb 0e3c
00000100: 9818 cd3b 9395 ec3b 060d 0fbc c704 fdb9
00000110: 8e74 56bb 4371 083b 3fa5 a53a 5fb6 04ba
00000120: 6a6c 89ba 88a7 aabb 106f 96bb 7b6c 57bb
00000130: dd1c d43a 4154 3b3b 97b6 633a 87fa 71b7
00000140: 4c56 513b 6a3a 8e3b 663d c73b 0fa3 493b
00000150: 1675 a13b 078c 0a3a e0f1 1abb d5e5 723a
00000160: 2fb6 573b cc9b f73b 77ed de3b 8d31 0f3b
00000170: d70b 933b e721 833b 50d1 0a3b 6f53 9dbb
00000180: dcaf 043c 3676 23bb b410 6e3b a4cc 763b
00000190: 8d33 3d3b 3a22 c7bb cf09 78bb cb66 d83b
000001a0: b8ae 033b 475f 0a3c 5e09 9eba 0bec e53b
000001b0: ace8 043c ea04 603b 59dc 6db9 f83e 34bb
000001c0: dc02 a8bb ede5 633a d032 fe3a a3db 4638
000001d0: 1d6a 07bb 4d3e a13a fcaf a33a fa50 653b
000001e0: 88b9 8d3b 37f8 d3ba 67da 033c 2566 54bb
000001f0: 6dfc a7bb 9b91 1c3c 220e 6c3b 7397 a53b

network_body._body_endoder.seq_layers.2.weight f4 [128, 128]
-0.03150836 -0.09280276 -0.005783979 -0.023203844 0.09009912 0.05955415 -0.14134577 -0.23793559
-0.057476815 -0.062934786 -0.068841465 0.088832356 0.14561185 0.03989522 -0.14809231 0.13521962
0.16492243 -0.10458893 0.12941933 0.040296994 -0.16472116 0.063018784 -0.15777801 -0.0059748595
0.076544285 -0.05607888 0.13851477 -0.06945494 -0.034622625 0.093892105 0.12742345 0.007583183
0.06871975 -0.008016103 -0.06959148 -0.09350627 -0.044264734 -0.026856663 0.006636059 -0.15102044
0.03384517 0.034964226 0.124615 -0.019411227 -0.24179499 -0.018519295 -0.0075591425 0.038924616
-0.044181373 -0.01368872 0.052141856 -0.004149693 0.010444032 -0.04498302 0.020151658 -0.11785833
0.06443559 0.010945573 -0.10130998 0.07473591 -0.10469744 0.2098306 -0.017641202 0.14008348
-0.05005447 -0.07825642 -0.033914108 -0.1432026 -0.14628805 0.07915857 -0.13748556 -0.0012079254
-0.1008761 -0.020096444 0.0005065125 -0.09875721 -0.1859268 -0.056621242 0.028408092 -0.15762311
0.021746576 0.04982848 0.07485035 -0.0028410384 0.0039166044 0.1802413 -0.041771848 -0.14537036
-0.115170196 -0.037387826 -0.062605575 0.007922297 0.020343665 -0.015509365 -0.19559185 -0.06327686
0.07117918 -0.08054762 -0.038901918 0.012002248 -0.080776446 -0.011737297 -0.11997449 0.06523747
0.15258063 0.04091168 -0.10198288 -0.055844814 0.22570667 -0.07042029 0.088706985 -0.11044049
-0.025166538 -0.06546994 -0.028146764 0.010807783 -0.14634475 -0.07644396 0.049565017 -0.03678134
-0.08962956 0.06976144 -0.039746348 0.11470188 0.052982923 -0.043339066 0.053150654 -0.05985183
-0.13456322 -0.07059318 -0.1602571 -0.06978306 0.11799562 0.12660694 0.14090031 -0.041219667
-0.15827353 -0.1490483 0.042324863 0.23152767 0.23031369 0.15650047 -0.14692196 -0.050221827
0.13117386 0.011272897 0.1318207 0.12701742 0.16701092 -0.01407551 0.005515645 -0.042198252
-0.062151045 0.2564941 -0.08461901 -0.042097047 -0.043091524 -0.046219874 0.096768096 -0.023781981
0.1907874 -0.19927041 0.03597378 0.061001435 -0.03861003 -0.1697663 -0.08896647 -0.092624046
-0.13346013 -0.10172191 0.119229205 0.018401645 -0.16002038 -0.0028316977 -0.03877675 0.07468558
-0.13234755 0.059175983 -0.11978396 -0.054403916 -0.15140073 -0.0043827505 -0.025793977 0.020845812
0.06934906 0.17899583 -0.09567808 0.04830913 -0.026216848 -0.057825442 -0.07469352 -0.13673468
0.13293323 -0.008920466 -0.013541111 0.04294345 0.039773982 -0.07004102 -0.117047496 -0.05288104
0.02270438 -0.06266538 -0.22833975 0.0056241215 -0.078978024 -0.16421826 -0.030573044 0.09172675
0.028309401 0.06987206 0.09772482 0.02816077 0.083086535 0.05221789 -0.08579239 0.111534745
-0.057810076 0.096208334 0.14757256 0.14186336 0.08872184 0.13109572 -0.10564618 0.02826833
-0.025532318 -0.069392964 -0.0636597 0.054947954 0.06841512 -0.13500166 0.01533421 -0.021903452
0.14105855 0.01127887 0.0237795 -0.18627468 -0.08743401 -0.014295446 0.05021923 -0.016358128
0.0147150485 -0.12626211 -0.12835108 -0.06565129 0.11836856 -0.06945052 0.012975058 0.07042015
-8.9258916e-05 -0.011092125 0.031166298 0.10397098 -0.027696466 0.03931787 -0.124746576 0.014298745
00000000: e90e 01bd 600f bebd 8887 bdbb fd15 bebc
00000010: e385 b83d 0def 733d f2bc 10be 63a5 73be
00000020: cf6c 6bbd f4e3 80bd c1fc 8cbd bded b53d
00000030: 461b 153e 2c69 233d 83a5 17be 0377 0a3e
00000040: 6de1 283e b932 d6bd 8086 043e 760e 253d
00000050: aaac 28be fe0f 813d 8f90 21be c1c8 c3bb
00000060: 40c3 9c3d f8b2 65bd d1d6 0d3e 643e 8ebd
00000070: 74d0 0dbd 814a c03d 4b7b 023e 597c f83b
00000080: f1bc 8c3d f955 03bc fa85 8ebd 3780 bfbd
00000090: f04e 35bd 8102 dcbc 4c73 d93b 1aa5 1abe
000000a0: 3ca1 0a3d a636 0f3d 2636 ff3d 4b04 9fbc
000000b0: 1b99 77be c7b5 97bc afb2 f7bb 6b6f 1f3d
000000c0: 87f7 34bd a746 60bc b392 553d 26fa 87bb
000000d0: 721d 2b3c 1d40 38bd 1715 a53c b55f f1bd
000000e0: cef6 833d 1055 333c 9b7b cfbd 240f 993d
000000f0: 9d6b d6bd d5dd 563e 4884 90bc 0b72 0f3e
00000100: ea05 4dbd e744 a0bd 85e9 0abd b4a3 12be
00000110: 89cc 15be e31d a23d 04c9 0cbe 4053 9eba
00000120: 2198 cebd 4ca1 a4bc 7ac7 043a 3841 cabd
00000130: 9863 3ebe adeb 67bd 16b8 e83c f467 21be
00000140: e025 b23c f318 4c3d 244b 993d b730 3abb
00000150: dc56 803b 2d91 383e f518 2bbd f8db 14be
00000160: 5ade ebbd fa23 19bd 5a37 80bd 86cc 013c
00000170: c2a7 a63c fe1a 7ebc 3b49 48be 4c97 81bd
00000180: 64c6 913d 27f6 a4bd 9e57 1fbd 14a5 443c
00000190: 1f6e a5bd cb4d 40bc 2fb5 f5bd 399b 853d
000001a0: 193e 1c3e 0193 273d 66dc d0bd 88bd 64bd
000001b0: a61f 673e 8338 90bd 02ac b53d a02e e2bd
000001c0: 0e2a cebc 1b15 86bd 0b94 e6bc 2113 313c
000001d0: 66db 15be a78e 9cbd b004 4b3d 08a8 16bd
000001e0: b48f b7bd 16df 8e3d 11cd 22bd d2e8 ea3d
000001f0: 9f04 593d 4e84 31bd 80b4 593d 3127 75bd
00000200: f1ca 09be 2893 90bd 701a 24be 6cea 8ebd
00000210: b0a7 f13d 40a5 013e 2c48 103e f4d5 28bd
00000220: 7512 22be 1ea0 18be d65c 2d3d 9715 6d3e
00000230: 5ad7 6b3e a941 203e b672 16be 67b5 4dbd
00000240: 7152 063e f5b1 383c 01fc 063e db10 023e
00000250: e904 2b3e f89c 66bc 95bc b43b 13d8 2cbd
00000260: 1892 7ebd 3253 833e bb4c adbd f46d 2cbd
00000270: bd80 30bd 0d51 3dbd 5a2e c63d 6ed2 c2bc
00000280: c65d 433e 8b0d 4cbe 3e59 133d a4dc 793d
00000290: 8d25 1ebd 38d7 2dbe 0d34 b6bd adb1 bdbd
000002a0: c6a9 08be 9453 d0bd 712e f43d 0cbf 963c
000002b0: 62dc 23be 0194 39bb 5fd4 1ebd c1f4 983d
000002c0: 1e86 07be 8462 723d 4b51 f5bd a4d6 5ebd
000002d0: cb08 1bbe 2d9d 8fbb e44d d3bc d6c4 aa3c
000002e0: e106 8e3d af4a 373e dff2 c3bd cbdf 453d
000002f0: b7c4 d6bc 5fda 6cbd ebf8 98bd 2d04 0cbe
00000300: a61f 083e 2527 12bc 89db 5dbc 79e5 2f3d
00000310: 0bea 223d ab71 8fbd 99b6 efbd ca99 58bd
00000320: 89fe b93c b556 80bd e5d1 69be 8d4a b83b
00000330: 3bbf a1bd d528 28be 5274 fabc 3cdb bb3d
00000340: 1ee9 e73c 1519 8f3d f323 c83d 6ab1 e63c
00000350: 4629 aa3d 6de2 553d ecb3 afbd 546c e43d
00000360: 42ca 6cbd e008 c53d 431d 173e a144 113e
00000370: ccb3 b53d f53d 063e 065d d8bd fc92 e73c
00000380: 2729 d1bc e61d 8ebd 0460 82bd 1b11 613d
00000390: 3a1d 8c3d e03d 0abe 573c 7b3c de6e b3bc
000003a0: a771 103e 02cb 383c 3acd c23c cabe 3ebe
000003b0: 9a10 b3bd 7237 6abc aeb2 4d3d 7b01 86bc
000003c0: 6317 713c db4a 01be 776e 03be 2f74 86bd
000003d0: 376b f23d 133c 8ebd 5695 543c 7138 903d
000003e0: 8430 bbb8 bfbb 35bc 7750 ff3c bdee d43d
000003f0: b3e3 e2bc c60b 213d 227b ffbd 4945 6a3c

network_body._body_endoder.seq_layers.2.bias f4 [128]
-0.004578219 0.0032018237 0.0038192987 -0.004306181 0.00044715003 -0.0054816813 0.004714621 0.008038011
-0.0018547806 0.0027092062 0.0028030104 0.0032651755 -0.002160069 -0.0014510097 0.0046641827 0.007195623
0.0016699989 0.0027006671 -0.00092599785 0.0053894776 0.0047559463 -0.0013483798 0.004155189 0.0038745238
-0.0008075987 0.00895152 0.0049132872 0.0035790608 -0.0074453414 0.0050011943 0.0062575196 0.0085469885
0.0031656858 0.0049270988 0.00092682143 -0.006228186 0.0013945524 -0.00024919552 0.0027061254 -0.004431192
0.0011933268 0.0062085497 0.0014003702 0.0059469454 0.001461863 -0.0021813412 0.0053978353 0.009725832
-0.0013582773 -0.005883468 -0.0029699982 0.0015830189 -0.0033631434 -0.0007056018 -0.0065708347 0.002279321
-0.0013450977 -0.0017427118 -0.0017564573 -0.005145887 0.0006025171 3.8651808e-05 0.0041803843 -0.0025457006
0.0009396349 0.0014846524 -0.0088734655 -0.001860473 -0.0009420154 0.0066849417 -0.0006064887 0.0075466144
0.0021563582 -0.003593626 0.0005862558 -0.007845156 -0.0030168048 0.006756059 -0.0019050399 0.0056378255
-0.0023785569 0.005754119 0.0014885825 0.0017797872 0.008542301 0.0038832074 0.0016315595 -0.004492765
-0.002508885 0.0041852654 0.0005836901 -0.0036989031 0.0032015715 -0.0023930024 0.0015845835 -0.0051561794
0.005421378 0.008910982 -0.005022275 -0.0078593055 0.009674626 0.007417907 0.0045314836 -0.005980143
0.0030786854 -0.00015603892 0.0024835388 0.0058772527 0.00088408706 0.00646003 -0.0017091244 -0.0008842618
0.0031510831 -0.002930514 0.00083994225 -0.0068122293 0.0016994884 0.001810217 0.0046452186 0.0042544706
-0.00019247408 -0.0017055047 -0.0016240572 -0.00254855 0.0022637132 0.005498218 -5.719217e-05 -0.0040520863
00000000: e204 96bb b0d5 513b 334d 7a3b dd1a 8dbb
00000010: 766f ea39 ad9f b3bb 1c7d 9a3b ddb1 033c
00000020: 1c1c f3ba f08c 313b b6b2 373b 8efc 553b
00000030: f28f 0dbb ce2f beba 00d6 983b 43c9 eb3b
00000040: dde3 da3a adfd 303b aabe 72ba 379a b03b
00000050: c5d7 9b3b 1ebc b0ba 4028 883b b9eb 7d3b
00000060: 08b5 53ba 65a9 123c a4ff a03b ad8e 6a3b
00000070: 0df8 f3bb 0fe1 a33b e10b cd3b ab08 0c3c
00000080: 6577 4f3b 8073 a13b eff5 723a d015 ccbb
00000090: 6ac9 b63a 75a6 82b9 4059 313b 8833 91bb
000000a0: 6769 9c3a 1771 cb3b a08c b73a 98de c23b
000000b0: fc9b bf3a d5f4 0ebb 53e0 b03b 1959 1f3c
000000c0: 3908 b2ba 1bca c0bb 4da4 42bb 4d7d cf3a
000000d0: 2f68 5cbb 23f8 38ba 2850 d7bb a960 153b
000000e0: fd4d b0ba b46b e4ba ed38 e6ba d49e a8bb
000000f0: 3df2 1d3a 101e 2238 9bfb 883b c5d5 26bb
00000100: d551 763a ab98 c23a 0362 11bc 1ddb f3ba
00000110: 95f1 76ba 5b0d db3b c5fc 1eba 9749 f73b
00000120: b051 0d3b 0a83 6bbb f6ae 193a f888 00bc
00000130: 96b5 45bb ee61 dd3b 88b2 f9ba 82bd b83b
00000140: 90e1 1bbb 0c8d bc3b 8a1c c33a c047 e93a
00000150: 02f5 0b3c 697d 7e3b 0dda d53a 0b38 93bb
00000160: 1b6c 24bb 8d24 893b c802 193a 4c69 72bb
00000170: 75d1 513b ebd3 1cbb cdb1 cf3a 2bf5 a8bb
00000180: d1a5 b13b 5eff 113c e591 a4bb 51c4 00bc
00000190: 5382 1e3c ea11 f33b d77c 943b 13f5 c3bb
000001a0: c5c3 493b 619e 23b9 dec2 223b f895 c03b
000001b0: 14c2 673a a9ae d33b b304 e0ba cecd 67ba
000001c0: 6782 4e3b de0d 40bb 922f 5c3a 1f39 dfbb
000001d0: 5ec1 de3a ce44 ed3a eb36 983b 1669 8b3b
000001e0: ded2 49b9 3e8b dfba 51de d4ba 9305 27bb
000001f0: ce5a 143b 652a b43b a0e1 6fb8 5dc7 84bb

action_model._continuous_distribution.log_sigma f4 [1, 2]
0.002372198 0.0040951855
00000000: e176 1b3b e830 863b

action_model._continuous_distribution.mu.weight f4 [2, 128]
-0.017639922 -0.0018035847 0.022267582 0.0205598 -0.0017911389 -0.0107477205 0.008798213 -0.0061440542
0.003794554 0.015148606 -0.017758584 -0.0028708444 -0.034364734 -0.03494858 0.018145766 0.03262961
-0.030355437 0.010204457 0.014401926 -0.020240774 0.005167242 0.0063519594 -0.009228465 -0.018763714
-0.016693948 -0.0045177895 0.019783998 0.011038445 -0.01631455 -0.008768336 0.023911288 -0.004126948
0.018480701 0.010206608 0.0011439638 -0.027314153 0.04702826 -0.012447758 0.03980394 -2.9890687e-05
-0.01468163 0.016953928 -0.033941504 -0.009233051 -0.00043098442 6.5628075e-05 -0.0044422206 -0.0016507271
0.013423013 -0.004664367 0.0020618378 0.014324321 0.03228441 -0.0041836384 -0.0104041705 -0.020444036
0.0020277596 0.00600715 -0.012024841 -0.0050799535 -0.011828042 -0.05742239 -0.044670325 -0.0048558586
-0.020461455 0.0031420402 -0.013445984 0.0030805098 -0.018722106 0.0073973928 0.0021771747 0.021422127
0.03463304 0.001158026 -0.006336003 -0.00052766665 0.0073374296 0.034257878 0.00512137 -0.0064750686
0.014164498 -0.0024144398 0.006197518 -0.014380365 0.021695504 0.0063158427 0.006959478 -0.021288674
-0.0031076605 0.020958614 -0.052610558 0.010135263 0.004594977 -0.006553707 -0.010332075 -0.007906081
0.021132184 0.029875638 -0.0035717504 -0.0121629005 0.01619286 0.012973068 0.004807902 -0.0066780564
0.0012926803 0.002361195 0.027534893 -0.018146217 0.0063171317 0.027535928 0.031697117 -0.028084096
0.026083004 0.03507495 0.019866435 0.0038145022 -0.014001483 0.0085999975 0.027552497 -0.010728009
-0.009974164 -0.0011562062 0.035114437 0.007078739 0.0065241046 0.004322549 -0.030712787 -0.010309797
-0.001689317 -0.009776409 -0.010441439 -0.014394946 0.00258747 -0.00012038336 -0.01312767 -0.0100049535
0.01638282 0.0033322466 -0.034555398 0.032599773 0.0074964743 0.0326317 -0.010299739 0.0016692146
0.006551689 -0.012222303 0.010586158 0.005140579 0.006378956 0.016596444 -0.00082941685 0.008204286
0.030631881 -0.036702164 0.015018909 -0.0051908474 -0.0022518006 -0.014033225 -0.008556051 -0.029238464
-0.011928449 0.0062105116 -0.026349723 0.012083621 0.010409103 -0.000830837 -0.016712407 0.02018068
0.021107754 -0.026190916 0.033866428 -0.0012792051 0.007784415 -0.023740035 -0.0069578364 -0.03802084
0.008632823 0.016752442 -0.008937344 -0.05165074 -0.025650676 -0.002053394 0.01498603 -0.032333843
-0.01980642 -0.020809578 -0.000520967 -0.0015611515 -0.0008525911 0.0013502005 -0.002123941 0.012692974
-0.00043217457 0.0011169424 0.019206569 0.005339175 0.0038454493 0.007041769 0.017575137 -0.007482059
-0.014716023 0.011060287 -0.0005203501 0.0016789337 -0.0043531177 0.008607496 -0.0028128396 -0.032775678
0.012289496 0.034232132 -0.00885793 0.037067357 -0.00017699822 0.012106048 0.0632049 0.008221382
-0.002725978 0.016628865 0.02695836 -0.0019665402 0.005859716 0.026757305 0.027871985 -0.008635442
-0.005977906 -0.018324452 -0.0033910847 0.029366676 -0.010589143 -0.026175389 0.015614594 0.01043905
0.025510868 -0.017445251 -0.004905913 0.008870235 0.041207355 -0.019396955 0.006181033 0.00261661
-0.013671371 -0.019095453 0.019318165 -0.030612871 -0.031246975 0.0035230648 -0.013917877 -0.002344008
-0.02429731 0.0051202024 -0.0109241195 0.005073394 -0.02724731 -0.012679893 0.0071888696 0.027458379
00000000: 9981 90bc 4366 ecba 816a b63c 076d a83c
00000010: a6c4 eaba 3517 30bc 6126 103c 1054 c9bb
00000020: 0dae 783b dc31 783c 737a 91bc c724 3cbb
00000030: 09c2 0cbd 3e26 0fbd 6ea6 943c a0a6 053d
00000040: f7ab f8bc 9830 273c 0ef6 6b3c fbcf a5bc
00000050: f851 a93b 1924 d03b fd32 17bc 5cb6 99bc
00000060: bfc1 88bc f709 94bb 0d12 a23c 98da 343c
00000070: 17a6 85bc 11a9 0fbc 9be1 c33c 593b 87bb
00000080: d764 973c 9e39 273c 0ef1 953a eec1 dfbc
00000090: b4a0 403d aef1 4bbc 7509 233d c3bd fab7
000000a0: 388b 70bc f7e2 8a3c 3f06 0bbd 3946 17bc
000000b0: c0f5 e1b9 cea1 8938 0c90 91bb 365d d8ba
000000c0: 32ec 5b3c 8cd7 98bb e61f 073b 8fb0 6a3c
000000d0: a83c 043d e716 89bb 4176 2abc 407a a7bc
000000e0: 29e4 043b a0d7 c43b d703 45bc bd75 a6bb
000000f0: 67ca 41bc bd33 6bbd 3bf8 36bd e51d 9fbb
00000100: c89e a7bc b0ea 4d3b 8b4c 5cbc 61e2 493b
00000110: 1a5f 99bc d465 f23b eeae 0e3b 757d af3c
00000120: 60db 0d3d e8c8 973a 3f9e cfbb 1c53 0aba
00000130: d26e f03b fd51 0c3d 2ad1 a73b d02c d4bb
00000140: 3612 683c 943b 1ebb 8d14 cb3b 9f9b 6bbc
00000150: c5ba b13c 21f5 ce3b 550c e43b 9665 aebc
00000160: e4a9 4bbb 66b1 ab3c 2b7e 57bd 600e 263c
00000170: 7691 963b 7bc0 d6bb dd47 29bc 8288 01bc
00000180: 671d ad3c c1bd f43c 0714 6abb e746 47bc
00000190: e4a6 843c fe8c 543c 9b8b 9d3b 99d3 dabb
000001a0: 276f a93a 47be 1a3b db90 e13c 60a7 94bc
000001b0: f1ff ce3b 0793 e13c d6d4 013d 9e10 e6bc
000001c0: 06ac d53c c0aa 0f3d efbe a23c bafc 793b
000001d0: 7a66 65bc 01e7 0c3c c6b5 e13c 88c4 2fbc
000001e0: ad6a 23bc d88b 97ba 28d4 0f3d c4f4 e73b
000001f0: 28c8 d53b 2ba4 8d3b 6299 fbbc 6cea 28bc
00000200: 136c ddba 3b2d 20bc 9212 2bbc c8d8 6bbc
00000210: 8b92 293b 5376 fcb8 7015 57bc d1eb 23bc
00000220: 4435 863c d261 5a3b f689 0dbd 5787 053d
00000230: fca4 f53b d1a8 053d 3dc0 28bc 8cc9 da3a
00000240: 8daf d63b 0e40 48bc 9171 2d3c 4d72 a83b
00000250: 9006 d13b 44f5 873c 396d 59ba 456b 063c
00000260: b6ef fa3c 0255 16bd df11 763c fc17 aabb
00000270: f292 13bb 9deb 65bc ae2e 0cbc 8185 efbc
00000280: 8b6f 43bc 8c81 cb3b 60db d7bc 61fa 453c
00000290: f18a 2a3c 87cc 59ba 75e8 88bc f451 a53c
000002a0: 2bea ac3c 558e d6bc 86b7 0a3d 00ab a7ba
000002b0: 6814 ff3b 767a c2bc 90fe e3bb bebb 1bbd
000002c0: af70 0d3c 6b3c 893c f06d 12bc ba8f 53bd
000002d0: 5e21 d2bc 3c92 06bb f787 753c 7e70 04bd
000002e0: 1341 a2bc d978 aabc 8191 08ba 8d9f ccba
000002f0: 6c80 5fba 36f9 b03a d131 0bbb 31f6 4f3c
00000300: 7d95 e2b9 5e66 923a 1857 9d3c 3ff4 ae3b
00000310: ef03 7c3b a4be e63b bcf9 8f3c 0f2c f5bb
00000320: 791b 71bc 3536 353c 1b68 08ba ab0f dc3a
00000330: 99a4 8ebb 7406 0d3c 9e57 38bb ca3f 06bd
00000340: e259 493c fe36 0c3d da20 11bc f1d3 173d
00000350: 9998 39b9 7258 463c 9271 813d fab2 063c
00000360: 52a6 32bb 4239 883c c7d7 dc3c 12e1 00bb
00000370: dc02 c03b 2332 db3c ca53 e43c ab7b 0dbc
00000380: 4fe2 c3bb 291d 96bc f63c 5ebb 6292 f03c
00000390: 167e 2dbc c56d d6bc 5bd4 7f3c 8d08 2b3c
000003a0: 2bfc d03c 58e9 8ebc c8c1 a0bb 7654 113c
000003b0: 0bc9 283d 5de6 9ebc 438a ca3b 6e7b 2b3b
000003c0: e3fd 5fbc 116e 9cbc 2141 9e3c d8c7 fabc
000003d0: a8f9 ffbc 38e3 663b cf07 64bc ee9d 19bb
000003e0: 270b c7bc 5fc7 a73b 14fb 32bc b73e a63b
000003f0: c035 dfbc 53bf 4fbc 9c90 eb3b 65f0 e03c

action_model._continuous_distribution.mu.bias f4 [2]
0.0018635166 -0.0015424906
00000000: 3e41 f43a 652d caba

action_model._discrete_distribution.branches.0.weight f4 [2, 128]
-0.011475689 -0.0017640525 -0.0050034095 -0.009541343 0.010867217 0.009280343 0.006812304 -0.0077387323
-0.0012891523 0.021139752 -0.00424286 0.0001741286 0.014962617 -0.008449374 0.0041573565 0.0002645818
0.001564599 0.007980223 -0.0068947067 -0.0004432655 0.009415706 0.018769553 0.004172187 -0.0059888596
0.00789333 -0.00835165 -0.0021436783 0.013618167 0.0015068047 -0.004760205 -0.009940337 0.0024982435
-0.0040195077 -5.596347e-05 -0.008852284 -0.0031315538 0.00635845 0.0016642382 -0.013965068 0.0074161883
0.013754019 -8.176666e-05 -0.0015182681 -0.002778427 -0.00014185364 -0.010245476 -0.0048508076 -0.009311892
-0.00039536308 0.010201573 0.012190413 0.017586187 -0.015540335 -0.0012482054 0.0016936718 -0.004019792
0.0016559663 -0.0017219025 0.004322375 -0.0035460666 0.0037258193 0.0072507514 0.0033795796 -0.008678882
-0.010352244 0.0022018354 0.006943292 -0.008990151 0.00884165 -0.0013900395 0.0014802379 0.01010738
-0.0012814694 0.0012611013 0.0019528196 -0.005450738 5.343919e-05 0.012183171 0.010424829 -0.0010806011
-0.0055857967 -0.0067727645 0.01937559 0.0011685136 -0.006462431 0.013687018 -0.0143049825 -0.002197535
-0.013843592 -0.008799187 -0.005644429 0.009751426 0.009651973 -0.008453348 -0.00913364 -0.0106104985
-0.003345236 0.008221843 -0.018177787 -0.018729905 0.0014121681 0.0025096938 0.0051861187 -0.018356541
-0.0030544798 -0.0045981333 0.0063017127 -8.09988e-05 0.021151833 0.0057234615 0.008390733 0.021100966
0.002635276 0.012591837 0.0013242074 0.0130198365 -0.0071315505 0.0048945607 0.00963365 0.00473982
-0.0067536314 -0.0025726815 0.006181365 0.009110478 -0.007644735 0.0073376084 -0.0049652564 -0.012345952
0.013901661 0.0121287815 0.0012919316 0.008187917 -0.0051042656 0.0026883641 0.0023950208 -0.010044799
-0.0009587655 0.012848914 0.0070284125 -0.0034448756 0.007031766 0.019643921 -0.00022948814 -0.021866811
0.005998522 -0.018165097 0.005701764 0.00016310201 0.018327255 0.019059002 0.0013477937 -0.011559554
-0.015998268 0.0060561365 0.017680943 -0.0026557983 -0.007496867 0.008927062 0.010760803 0.00014433074
0.0015896125 0.0036009362 -0.0042819967 -0.010763681 0.009222829 0.01451106 -0.009673572 0.0023734374
-0.013582257 -0.0016564365 0.002075277 -0.015040122 0.011748552 0.0028531451 -0.0049976273 0.011981669
0.0010910484 0.005944751 0.0052995733 -0.009024352 -0.0037288708 0.0015445895 -0.0012456255 -0.0018689948
-0.011304365 -0.016743522 -0.0071992343 -0.0012677256 -0.007992721 0.00819201 -0.0021914465 0.0026219084
-0.011912495 -0.0069106184 0.0039356267 -0.0048644287 -0.015904624 -0.00385575 -0.0039943526 -0.00031634548
0.0004519715 -0.0031718302 0.0027920515 -0.008123056 -0.018456826 -0.013506359 0.006161517 0.007069145
0.003504839 0.010548062 -0.008244682 0.021145675 0.0051045814 -0.0015257716 0.004801628 -0.0054075937
0.0059148297 0.0052157245 0.00719946 0.008938697 -0.0019133966 -0.012897961 0.0128988065 0.0032724985
-0.0113997245 -0.011253441 -0.019167155 0.0016129846 0.0047757016 0.002496074 0.0014875645 0.021202557
0.007783486 0.0013124367 0.006724225 -0.00586464 0.0009208286 -0.0019278903 0.009196631 -0.019147512
0.0013771107 0.0059122513 0.0033596556 0.010382077 -0.00031727162 0.0023490982 -0.004041237 0.0042022187
0.005812397 0.013180687 -0.02540045 -0.002518322 0.011526028 0.0056672376 0.0043287133 -0.0021722538
00000000: 8704 3cbc c837 e7ba a4f3 a3bb 4b53 1cbc
00000010: 690c 323c 940c 183c bf39 df3b 3195 fdbb
00000020: c6f8 a8ba 462d ad3c b007 8bbb 4a96 3639
00000030: c425 753c 3e6f 0abc 6f3a 883b 91b7 8a39
00000040: 3b13 cd3a 7bbf 023c feec e1bb 1766 e8b9
00000050: 5544 1a3c 9bc2 993c d7b6 883b 323e c4bb
00000060: 0753 013c 5cd5 08bc f47c 0cbb bb1e 5f3c
00000070: fa7f c53a 7efb 9bbb ccdc 22bc 92b9 233b
00000080: 13b6 83bb 51ba 6ab8 2c09 11bc c13a 4dbb
00000090: 8b5a d03b 9122 da3a becd 64bc 7f03 f33b
000000a0: 8958 613c 247a abb8 a000 c7ba 4516 36bb
000000b0: 8cbe 14b9 a4dc 27bc 86f3 9ebb e890 18bc
000000c0: bc48 cfb9 8024 273c 4cba 473c e810 903c
000000d0: e49c 7ebc d39a a3ba 32fe dd3a 76b8 83bb
000000e0: 020d d93a 76b1 e1ba b6a2 8d3b 2065 68bb
000000f0: e02c 743b b697 ed3b f07b 5d3b df31 0ebc
00000100: 759c 29bc ab4c 103b 8e84 e33b 6d4b 13bc
00000110: 91dc 103c fc31 b6ba 8b04 c23a 6d99 253c
00000120: faf6 a7ba 8a4b a53a c1f5 ff3a 1b9c b2bb
00000130: e523 6038 ec9b 473c e7cc 2a3c f5a2 8dba
00000140: 0f09 b7bb 11ee ddbb 8fb9 9e3c cf28 993a
00000150: cdc2 d3bb 843f 603c 725f 6abc 8504 10bb
00000160: 3cd0 62bc 772a 10bc e7f4 b8bb 72c4 1f3c
00000170: 4f23 1e3c e97f 0abc 43a5 15bc a8d7 2dbc
00000180: bf3b 5bbb e9b4 063c 95e9 94bc 756f 99bc
00000190: 8018 b93a ad79 243b 51f0 a93b 7560 96bc
000001a0: ab2d 48bb f0ab 96bb 997e ce3b e6dd a9b8
000001b0: 9c46 ad3c e08b bb3b 4979 093c efdb ac3c
000001c0: 98b4 2c3b fe4d 4e3c 0791 ad3a 2751 553c
000001d0: c8af e9bb 8d62 a03b 75d6 1d3c 7e50 9b3b
000001e0: 914d ddbb 6f9a 28bb 0c8d ca3b 1d44 153c
000001f0: af80 fabb 5270 f03b 97b3 a2bb ad46 4abc
00000200: cbc3 633c ccb7 463c 0856 a93a 9d26 063c
00000210: af41 a7bb 442f 303b c8f5 1c3b f192 24bc
00000220: aa55 7bba 4084 523c 994e e63b 6cc3 61bb
00000230: bb6a e63b 4aec a03c c1a2 70b9 0722 b3bc
00000240: 408f c43b f8ce 94bc ddd5 ba3b 5d06 2b39
00000250: 0a23 963c a021 9c3c 74a8 b03a 4964 3dbc
00000260: cd0e 83bc 8e72 c63b a0d7 903c e70c 2ebb
00000270: 47a8 f5bb d042 123c 144e 303c 7d57 1739
00000280: 8b5a d03a affd 6b3b fe4f 8cbb 265a 30bc
00000290: 591b 173c ccbf 6d3c e77d 1ebc ac8b 1b3b
000002a0: 1d88 5ebc c91c d9ba 5f01 083b d86a 76bc
000002b0: 007d 403c d5fb 3a3b 23c3 a3bb c34e 443c
000002c0: 8201 8f3a 30cc c23b 0ba8 ad3b e0da 13bc
000002d0: 1260 74bb d373 ca3a 4244 a3ba 0ff9 f4ba
000002e0: f135 39bc b629 89bc 8ee7 ebbb d029 a6ba
000002f0: e7f3 02bc c837 063c 5f9e 0fbb 53d4 2b3b
00000300: a02c 43bc 7872 e2bb 6ef6 803b c965 9fbb
00000310: 6a4a 82bc c0b0 7cbb 0fe3 82bb 2cdb a5b9
00000320: 96f6 ec39 7bde 4fbb dafa 363b 9116 05bc
00000330: c532 97bc c749 5dbc 8de6 c93b 49a4 e73b
00000340: 71b1 653b c7d1 2c3c b414 07bc b239 ad3c
00000350: 5544 a73b 66fc c7ba fa56 9d3b 2f32 b1bb
00000360: 30d1 c13b abe8 aa3b 73e9 eb3b 9d73 123c
00000370: f0ca faba f851 53bc 8455 533c 6a77 563b
00000380: e9c5 3abc 5a60 38bc 7004 9dbc c86a d33a
00000390: 7d7d 9c3b 2c95 233b 62fa c23a fcb0 ad3c
000003a0: 9d0c ff3b 1106 ac3a e356 dc3b 2b2c c0bb
000003b0: c363 713a 44b1 fcba 77ad 163c 3edb 9cbc
000003c0: 2b80 b43a 8fbb c13b ab2d 5c3b 9619 2a3c
000003d0: 7a57 a6b9 54f3 193b 5a6c 84bb c4b2 893b
000003e0: ec75 be3b cff3 573c 9b14 d0bc 6f0a 25bb
000003f0: aad7 3c3c 3cb4 b93b e1d7 8d3b 5f5c 0ebb

action_model._discrete_distribution.branches.0.bias f4 [2]
0.0002466724 -0.0002466719
00000000: cf53 8139 be53 81b9
