results/RunawayTest1/Runaway/Runaway-1000045.onnx (onnx, 77714 bytes, 9 tensors)

network_body._body_endoder.seq_layers.0.weight f4 [128, 4]
00000000: f3bc 643f 8c98 d43e 3d84 853e 69a0 a3bf
00000010: 6fbe 4bbf 1fc4 353f 651f 3a3e bb21 56bf
00000020: b443 6f3e 077b 3dbf 6d8e 0ebf e75f 893f
00000030: 733a bc3e b64f d6be 8360 43bf 4632 023f
00000040: d1a9 643f 8fe1 6abe f884 77be a0cc 4dbf
00000050: dc95 e63e 4761 07bf 5203 80be 8a91 21bf
00000060: 461b 72be a5d7 0dbf 7d0c 223f e667 e5bd
00000070: 531c 4f3f 540e febe 64e9 bbbe dfaa 35bf
00000080: 0f82 9bbe ba2a f0bd 8c37 b7be 64c3 51be
00000090: f24e a03c f795 613f 7568 61be f38d fa3d
000000a0: abca 3f3f 54f2 9cbe 6c39 353f ac52 a6bf
000000b0: cd88 21be eb18 c73d 17c5 ca3e 28f6 f73d
000000c0: 58ad 2b3e 8da0 5f3f be62 f5be 0b2c 17bf
000000d0: 76e7 f7be b34f 7ebe eba4 85bf 1b61 3bbf
000000e0: 4b8b 963d 329c 06be 9288 323f d93c 01bf
000000f0: 6a7d 64be 84e8 413e d0aa b7be 4df5 0abf
00000100: 19f3 abbd 3eb0 f1be 2ade 493e aeda 8f3f
00000110: 81c8 513f 4e6b a13d 7bd1 093f 204c 6dbf
00000120: 42a3 853e a760 f4bd dedb aa3e fb03 ebbe
00000130: dbe6 4fbf 9861 c0bc 9e5b be3e 6b9b b73e
00000140: 4266 92bd 0228 94be 94fa 58be 8f90 b33e
00000150: bc11 fdbe 255e ff3e 0cef eb3e 4820 babe
00000160: caf6 74bd 5bf8 dbbd 93a0 a6be 4e8f 903e
00000170: 40f9 2d3f bd9b fc3c cec6 5cbf 33b8 47bf
00000180: 92d6 683d 8ff4 75bd fa2a 4d3e 8ec6 41bf
00000190: e9a3 ec3e 8613 763e 5e3d 5ebe 35cf 3d3e
000001a0: 5aa8 9a3e f4d3 603f 56b7 003f 92bf 61be
000001b0: ce62 923e 64c5 073f 9cdf 77be 8f77 a7be
000001c0: 0e44 06bf 109a 0d3f 6667 573f d529 4c3e
000001d0: 1c8b bebe 54ea cfbe c769 933e 8ea5 10bf
000001e0: a6f4 f0be 5d64 a23c ac9a 3dbf 09dd 383f
000001f0: 5001 06be 23cf 873e 80d6 7e3d 7505 cdbd
00000200: 604d bdbe 94d6 133f 2065 a9bd 285d cc3e
00000210: 87fa 89be 240a e93d f369 7b3e 6ef4 393f
00000220: a541 50bc fcb3 1c3f 2ff3 73be 05ce 853e
00000230: 31fd 403f 7415 9d3e 9851 8fbf ae30 89bf
00000240: 5b9c ca3e afee cd3e a2f3 3d3e fa15 4dbf
00000250: 0e01 abbd ca1b 333f acac 703d 818b 7cbc
00000260: f5c0 a53e 962d 0e3e d161 8f3f d4b2 f5be
00000270: fc00 533f 508d eb3e 2a1f cf3d e119 4a3d
00000280: 58c5 923e 9024 26bf 658d 463c 8dd0 513d
00000290: 48aa d8be e3cb 1f3f e7d5 633e 5177 22bf
000002a0: 585d cebe e303 94be 0ba3 1dbf 68d8 23bf
000002b0: 3633 87be 02b7 fd3d 3e2a 703e 6bed 8e3e
000002c0: 4d29 c43e 0ad6 ea3d a8dd 293e 5d6f 2fbf
000002d0: 832e 9bbe df42 1dbf fdb5 7dbd 0b2f 08bf
000002e0: 8819 1dbf 0e6f ce3e ac21 7dbf e4b5 263e
000002f0: 8ec4 f2bd 1c1d 463f 01ac 743d 8ba2 d73e
00000300: ddea f13e 5cd2 34bc 2bca dabb 1daf 17be
00000310: 805c 953d e84f 073f edb2 e73e 15d6 ac3e
00000320: 94ca 62bd 2380 17bf a736 0c3f fcb5 29bf
00000330: 7b7c c1be 38bc 00bd df15 12be 340b 043e
00000340: 8391 7abe 5b40 59bf 6244 0ebf 92c4 bdbe
00000350: d740 473e 17d9 283d e9dd 773f 6f27 95be
00000360: 0f30 643f df63 b6be c5d0 2abf 410b 62bf
00000370: 9df0 68be 6b4d c0be d452 f5bd 79a4 9bbe
00000380: 5722 043f 910e d03c 39f6 9ebe 27a0 a7be
00000390: 97fa 063f 43a3 803f dfe2 b73e c83b 2abf
000003a0: f663 15bd 1906 b93e 22bc 9bbe 9213 54be
000003b0: d4ac 593f 51c5 023f 11b0 0dbf 6b82 afbe
000003c0: 5b83 7c3e 1298 d2be fdeb 58be 6698 e73e
000003d0: 8417 7bbe 112f db3e 7c98 613d d470 11bf
000003e0: 5026 9c3e 71c8 f7be 7c70 28bd 8dc2 52bf
000003f0: 206c 843f ce24 3b3f c3a3 88be 02c5 943e
0.89350814 0.41522634 0.26077452 -1.2783328 -0.79587454 0.7100238 0.18176039 -0.8364522
0.2336567 -0.7401585 -0.55686074 1.0732392 0.36763343 -0.4185769 -0.7631914 0.5085796
0.8932162 -0.22937606 -0.24171817 -0.8039036 0.4503621 -0.5288281 -0.25002533 -0.631127
-0.23643216 -0.5540717 0.63300306 -0.11201458 0.80902594 -0.49620306 -0.367015 -0.70963854
-0.30372664 -0.117268994 -0.35784566 -0.20484692 0.019568894 0.88119453 -0.22012503 0.12234106
0.7491862 -0.30653632 0.70790744 -1.299398 -0.15774842 0.097215496 0.39603493 0.121074975
0.16765344 0.87354356 -0.47926897 -0.5905158 -0.48418778 -0.2483509 -1.0440954 -0.73195046
0.07350787 -0.13145521 0.6973964 -0.5048347 -0.22313467 0.18936354 -0.35872507 -0.5428055
-0.083959766 -0.47204775 0.19713655 1.1238611 0.8194657 0.07881795 0.53835267 -0.9269428
0.26101118 -0.119324975 0.3337087 -0.45901474 -0.8121163 -0.023484036 0.37179273 0.35860762
-0.071484104 -0.28936774 -0.21189338 0.35071227 -0.49427593 0.49876514 0.46080816 -0.36352754
-0.05980567 -0.107407294 -0.32544383 0.28234333 0.6795845 0.03083598 -0.8624085 -0.7801544
0.056845255 -0.060047682 0.20035926 -0.75693595 0.46218804 0.24030885 -0.21703097 0.18536074
0.30206567 0.87823415 0.5027975 -0.22045735 0.28591007 0.5303557 -0.24206394 -0.32708403
-0.52447593 0.55313206 0.8414215 0.19937833 -0.37215507 -0.40608466 0.2879164 -0.56502616
-0.47061652 0.019823248 -0.74064136 0.7221227 -0.13086438 0.2652522 0.062216282 -0.100108065
-0.36973095 0.57749295 -0.08271241 0.39914823 -0.2694895 0.11378887 0.24552135 0.72638595
-0.012710963 0.61212134 -0.23823236 0.26133743 0.7538634 0.3068043 -1.1196775 -1.0717981
0.39572415 0.40221164 0.1854997 -0.8011166 -0.083498105 0.6996428 0.058758423 -0.01541412
0.32373777 0.13884577 1.1201726 -0.47987998 0.8242338 0.4600625 0.10113366 0.049341086
0.28666186 -0.6489954 0.012118672 0.05122428 -0.42317414 0.6242048 0.22249566 -0.6346331
-0.4030559 -0.28909215 -0.6157691 -0.64002085 -0.26406258 0.123884216 0.23453614 0.2791551
0.3831276 0.11466606 0.16588461 -0.685293 -0.30308923 -0.6143016 -0.061941136 -0.5319678
-0.6136708 0.40319103 -0.98879504 0.16280323 -0.11853896 0.7738817 0.05973435 0.42116198
0.472495 -0.011036482 -0.0066769323 -0.14812894 0.072930336 0.528563 0.45253697 0.33757082
-0.055368975 -0.59179896 0.5477089 -0.6629331 -0.37790284 -0.0314295 -0.14266156 0.12894899
-0.24469571 -0.84863824 -0.55573094 -0.37064034 0.19458328 0.041222658 0.96822983 -0.29131648
0.8913583 -0.3562307 -0.6672481 -0.8829842 -0.22748037 -0.37559065 -0.11978689 -0.3039892
0.516149 0.02539757 -0.31047228 -0.32739374 0.5272612 1.0049824 0.35915276 -0.6649747
-0.036472283 0.36137465 -0.3041697 -0.2071059 0.8502934 0.5108233 -0.5534678 -0.3427919
0.24659483 -0.41131645 -0.21183772 0.45233458 -0.24520689 0.42809346 0.05507706 -0.5681279
0.3049798 -0.48395112 -0.0411229 -0.8232811 1.0345497 0.73103034 -0.2668744 0.29056555

network_body._body_endoder.seq_layers.0.bias f4 [128]
00000000: aa98 613b 2c29 f939 554c 813a f09b 163b
00000010: c018 1fbb de7e fcbb 503f b23b 4b41 34bb
00000020: 5c9e 01bb 6fe3 453b 7d37 b7b9 e740 033b
00000030: 942d 0a3c e432 eb3a 7446 343b b6e4 8d3b
00000040: 49c8 133a 5611 273a 474e a93b b284 f7bb
00000050: e1dc 8ebb aada be3b c49b 99bb 0e5d 7dbb
00000060: e847 61bb 8163 093c 23bb e7bb 04d1 163c
00000070: 8310 a8bb dc26 223c ee4d ec3b 1168 c93b
00000080: f6a4 abbb c450 b1bb 0bad d03b f1e9 b93b
00000090: 85f4 a5bb 020d dc3b 1aee 2e3b c559 1fbc
000000a0: c6a6 8c3b 4a65 c23b 38aa ac3b f236 713b
000000b0: dcd2 a43b 86fd b43b 8286 b4ba 9293 4b3b
000000c0: 5e38 8f3b 2ba3 d3bb 52de bf3b f838 f83b
000000d0: dfc1 0e3c 5901 84bb 9cfb 483a 345a c9bb
000000e0: 0ef6 b3bb bfd4 0dbc cbc3 90bb 4c78 1b3b
000000f0: 83c4 0d3b d5e1 893b 0608 343b 8210 193c
00000100: 09d4 d93b 4899 f83b 5d2c 17bc 9c5e ffb9
00000110: 90e8 52bb a7b3 1e3b a04b 5d3a 45ae 22ba
00000120: 9f38 76ba 5613 adbb acad 9bbb d142 61bb
00000130: 0c57 e83a 64f9 443b fc17 a63a 3aa3 7b39
00000140: ab1d 5d3b aea1 983b 7dca cb3b 85dd 643b
00000150: 5fc9 ad3b 1cde 1c3a f33a 12bb 7b96 993a
00000160: 9a8c 783b 3b71 023c ea8a ef3b 7cfd 0f3b
00000170: c986 9a3b b436 863b 779a 203b 973b a8bb
00000180: 34c4 083c 3c95 1abb 936b 813b e794 8a3b
00000190: 342a 443b ceea c9bb 273e 74bb 92bf e93b
000001a0: 0bc7 123b 9ab1 0f3c d27c c0ba c446 f43b
000001b0: 8390 0d3c c9fb 6e3b 8d13 b636 6210 2ebb
000001c0: 0954 adbb bbe7 7b3a 68d8 f73a 569e 4c39
000001d0: df2e 0ebb f88d bd3a 7781 a83a a6aa 713b
000001e0: 14da 983b edaf daba 56ab 0a3c f3f4 54bb
000001f0: 6e02 afbb b2a0 243c 7744 843b 33cf a83b
0.003442327 0.00047523656 0.0009864668 0.002298113 -0.0024276227 -0.0077055534 0.0054396763 -0.0027504738
-0.0019778227 0.0030195375 -0.00034945822 0.0020027698 0.008433718 0.0017944244 0.0027507814 0.004330243
0.000563745 0.00063731277 0.005166802 -0.0075536603 -0.004359827 0.0058244066 -0.004687758 -0.0038660201
-0.0034375135 0.00838554 -0.007071869 0.009205107 -0.0051289215 0.00989696 0.0072114384 0.006146439
-0.0052381707 -0.0054112393 0.0063682846 0.00567364 -0.0050645494 0.006715418 0.0026692213 -0.009725993
0.004292342 0.0059324848 0.005269315 0.0036806432 0.005030019 0.0055233864 -0.0013772997 0.00310633
0.004370733 -0.00645866 0.00585536 0.0075751506 0.008713215 -0.004028481 0.0007666887 -0.0061447863
-0.0054919785 -0.00865668 -0.0044178716 0.0023722826 0.0021632023 0.0042078295 0.0027470603 0.009342315
0.006647591 0.007586632 -0.009226886 -0.0004870788 -0.0032182075 0.0024215968 0.000844175 -0.0006205778
-0.00093925925 -0.005281846 -0.004750928 -0.00343721 0.0017726137 0.0030055875 0.0012671943 0.00023998032
0.0033739607 0.0046579456 0.006219207 0.0034922075 0.0053035463 0.00059840246 -0.0022312969 0.001171782
0.0037925602 0.007961567 0.007310261 0.0021971157 0.0047157747 0.0040958766 0.002450613 -0.005134057
0.00834756 -0.0023587486 0.0039495914 0.0042291763 0.0029932382 -0.006162024 -0.003726849 0.0071334327
0.002239647 0.008770371 -0.0014685637 0.007454725 0.008640411 0.0036465994 5.4262987e-06 -0.0026560058
-0.005289559 0.00096094207 0.0018909099 0.00019513941 -0.0021695418 0.0014461866 0.0012855966 0.0036875396
0.004664669 -0.001668451 0.008463701 -0.0032494634 -0.005340866 0.010048078 0.004036482 0.005151653

network_body._body_endoder.seq_layers.2.weight f4 [128, 128]
00000000: 03a7 01bd bd4b bebd 7067 c7bb 4cc7 c0bc
00000010: e96a b83d 61cd 733d 09ac 10be f3b1 73be
00000020: fd26 6cbd 99ef 80bd e431 8dbd c114 b63d
00000030: 2d11 153e 2ab5 223d fa9b 17be b351 0a3e
00000040: 97cd 283e c76d d6bd aa91 043e da6c 243d
00000050: d7ee 28be 2703 813d f6c8 21be 72c9 c5bb
00000060: 6be5 9c3d f0c4 65bd f1d1 0d3e 4d44 8ebd
00000070: 3bc5 0dbd 3b29 c03d a34a 023e b3a5 f73b
00000080: 7090 8c3d 4f80 03bc c797 8ebd c7a6 bfbd
00000090: 66a9 35bd c001 dcbc 3d6c d83b deb6 1abe
000000a0: 35c4 0a3d 4406 0f3d 7ddd fe3d 0133 9fbc
000000b0: 3eaa 77be ceb0 98bc 4d14 fdbb 1e6b 1f3d
000000c0: fe3e 35bd 9610 60bc 8fbb 553d 3de0 8dbb
000000d0: 1f48 283c ab4a 38bd 1bc0 a43c f5aa f1bd
000000e0: f2e3 833d d5a5 323c b3aa cfbd e8ea 983d
000000f0: 9688 d6bd 6ace 563e 0c90 90bc d665 0f3e
00000100: f40a 4dbd 7db0 a0bd 85a3 0bbd d4ba 12be
00000110: 61f4 15be e4da a13d e2c9 0cbe 9af1 a6ba
00000120: 99cc cebd 49df a5bc 5509 fb39 6f5d cabd
00000130: c174 3ebe a352 68bd 8c82 e83c 3076 21be
00000140: 46af b13c a06f 4b3d 1f58 993d 700c 3ebb
00000150: cb5e 7e3b fc90 383e 96d7 2bbd beef 14be
00000160: dcf6 ebbd d01c 19bd 1f38 80bd 4137 fe3b
00000170: 3447 a63c 58bf 7dbc f24b 48be 5508 82bd
00000180: f37c 913d 384e a5bd dbd1 1fbd ef5f 443c
00000190: 5884 a5bd 12df 41bc a4de f5bd 067f 853d
000001a0: a033 1c3e 3fdb 263d e41e d1bd b43c 64bd
000001b0: c6f2 663e 3ab1 90bd 139a b53d 5f7f e2bd
000001c0: f0cc cdbc b333 86bd be6a e6bc 718d 313c
000001d0: f0d4 15be 65a5 9cbd 2fbb 4a3d 1b75 16bd
000001e0: 57e7 b7bd 92c2 8e3d dd0f 23bd c995 ea3d
000001f0: b127 583d fe69 31bd 2571 593d 4f7f 75bd
00000200: d8a7 09be 5a08 90bd fd5a 24be 5a66 8fbd
00000210: b012 f23d 178e 013e 731c 103e 81b0 28bd
00000220: 3f29 22be 9d62 18be ffec 2d3d 4d2c 6d3e
00000230: e624 6c3e eb2b 203e 9696 16be eb78 4dbd
00000240: 1d58 063e 299c 393c aef7 063e 1e35 023e
00000250: 99c7 2a3e 2b3f 60bc ff26 b43b a062 2cbd
00000260: 2d5f 7ebd e559 833e 1428 adbd 007d 2bbd
00000270: 84b8 2fbd cbd0 3dbd 3e60 c63d 441f c0bc
00000280: 9399 433e 97e2 4bbe 8e44 143d b890 7a3d
00000290: c8d6 1dbd 1098 2dbe 5963 b6bd f6c7 bdbd
000002a0: 77ec 08be 8883 cfbd 23f3 f33d 816b 983c
000002b0: a2bc 23be 2437 45bb 3c4f 1ebd c961 993d
000002c0: dd91 07be 25c8 723d 2370 f5bd 5aad 5ebd
000002d0: 053e 1bbe 9fff 92bb f1d4 d2bc b42d a93c
000002e0: 1446 8e3d b154 373e ef6c c3bd 1643 463d
000002f0: 0dde d8bc bd67 6bbd a212 99bd 52f6 0bbe
00000300: 5128 083e 6637 11bc e4f9 5ebc eff4 303d
00000310: a5d5 223d e6fe 8ebd f6ad efbd cc34 57bd
00000320: 47e1 b83c bc2c 80bd a9f2 69be a9ff b83b
00000330: 16ad a1bd a739 28be e7c0 f9bc 2a93 bb3d
00000340: f72e e93c b7af 8e3d ba5e c83d eaf9 e53c
00000350: 5447 aa3d f084 563d 69c5 afbd 5447 e43d
00000360: de11 6cbd affd c43d bf42 173e 784e 113e
00000370: b587 b53d 6063 063e 6e9a d8bd 318b e63c
00000380: 1bc3 d1bc c200 8ebd 8375 82bd b4ab 613d
00000390: bc5a 8c3d e255 0abe bae0 7e3c 5ceb b3bc
000003a0: 897e 103e 8d0f 393c eba1 c03c d9f1 3ebe
000003b0: 5afe b2bd c341 6dbc da44 4d3d 235a 85bc
000003c0: de8c 733c da5b 01be 6041 03be 2224 86bd
000003d0: abc6 f23d f65d 8ebd 0b0d 543c 7f80 903d
000003e0: eb76 9e37 07ba 35bc 85ac 003d d564 d43d
000003f0: 7511 e4bc 1e4f 213d 6077 ffbd 8e2e 673c
-0.031653415 -0.0929179 -0.0060853288 -0.023532532 0.090047665 0.059522036 -0.14128126 -0.23798351
-0.05765437 -0.062956996 -0.068942815 0.08890677 0.14557333 0.039723553 -0.14805594 0.13507728
0.16484676 -0.10470157 0.12946191 0.04014287 -0.1649736 0.062994294 -0.15799317 -0.006035977
0.076609455 -0.056096017 0.13849618 -0.06946621 -0.03461192 0.09382864 0.12723784 0.0075575947
0.06863487 -0.008026197 -0.06962543 -0.09357982 -0.044351004 -0.026856303 0.0066047 -0.15108821
0.033878524 0.034918085 0.12444589 -0.0194335 -0.24186036 -0.018638995 -0.0077233673 0.038920514
-0.044249527 -0.013675829 0.052180823 -0.00432971 0.010271101 -0.044993084 0.020111134 -0.118001856
0.064399615 0.010903795 -0.1013998 0.0746668 -0.104752705 0.20977178 -0.017646812 0.14003691
-0.050059274 -0.078461625 -0.03409149 -0.14329082 -0.14644004 0.07903078 -0.13748887 -0.0012736798
-0.10097618 -0.020248072 0.00047881404 -0.09881102 -0.18599226 -0.056719434 0.028382562 -0.15767741
0.021690022 0.049667 0.07487511 -0.0028999113 0.0038813825 0.18024057 -0.041953646 -0.1454458
-0.11521694 -0.037380993 -0.06260704 0.0077580516 0.020297624 -0.015487514 -0.19560221 -0.063492455
0.0710391 -0.0807156 -0.039018493 0.011985763 -0.08081883 -0.011832969 -0.12005356 0.065183684
0.15254068 0.040736433 -0.1021097 -0.055721954 0.22553548 -0.07065053 0.08867278 -0.1105945
-0.025122136 -0.065528296 -0.02812707 0.010836945 -0.1463201 -0.07648734 0.04949492 -0.036732774
-0.089796714 0.06970705 -0.03981005 0.114543505 0.052772228 -0.043313973 0.05308642 -0.059935864
-0.13442934 -0.07032843 -0.16050334 -0.07001944 0.118199706 0.12651859 0.14073353 -0.041183952
-0.15836047 -0.14881368 0.042462345 0.2316143 0.2306095 0.15641753 -0.14705881 -0.050164144
0.1311955 0.011328735 0.1318042 0.12715575 0.16677703 -0.013686935 0.0054978128 -0.042086244
-0.062102485 0.25654522 -0.0845491 -0.041867256 -0.042900577 -0.0463417 0.096863255 -0.023452409
0.19101553 -0.19910656 0.03619819 0.06117317 -0.03853491 -0.16952538 -0.08905668 -0.09266655
-0.13371454 -0.101325095 0.11911609 0.01860595 -0.15989926 -0.003009268 -0.038649783 0.07489354
-0.13239236 0.059272904 -0.11984279 -0.05436454 -0.15160377 -0.004486039 -0.025736304 0.020651676
0.0694696 0.17903401 -0.09542262 0.048403822 -0.02647307 -0.05747198 -0.07474257 -0.13668182
0.1329663 -0.008863306 -0.013609383 0.043202337 0.03975453 -0.06982212 -0.11703102 -0.052540585
0.022568358 -0.062585324 -0.22846474 0.0056457114 -0.07894342 -0.16428243 -0.03048749 0.09158929
0.028464777 0.06967109 0.09783693 0.02807327 0.08314386 0.052372873 -0.08582575 0.11146417
-0.057634227 0.09618699 0.14771555 0.1419009 0.08863775 0.13123846 -0.1057633 0.028142544
-0.025605729 -0.06933738 -0.0637007 0.05509539 0.06853244 -0.13509324 0.015556509 -0.021962814
0.1411077 0.0112952115 0.023514709 -0.18646945 -0.0873992 -0.014481011 0.05011449 -0.016278332
0.014865128 -0.12632695 -0.12817907 -0.065498605 0.11854299 -0.069515154 0.012942563 0.07055759
1.8890443e-05 -0.011091716 0.031414527 0.10370795 -0.027840355 0.039382093 -0.12473941 0.014110221

network_body._body_endoder.seq_layers.2.bias f4 [128]
00000000: 87dd 9bbb 138e 5a3b 9122 813b 7a19 96bb
00000010: 5b15 2f3a 4256 b9bb a279 a53b 3928 093c
00000020: 05f7 e8ba 254b 3b3b 9319 4a3b 6f2b 693b
00000030: 0ed2 07bb 4a74 beba 41a7 9d3b 4910 f43b
00000040: 37b4 fd3a 28e5 3f3b 49c8 94ba 86c1 bf3b
00000050: d97f 9e3b 760a c0ba 2486 913b 8e5a 8b3b
00000060: d4ad 30ba 5dcf 193c 8d4b a43b 99b4 743b
00000070: 5538 fdbb 966c a93b 4613 da3b 76a4 133c
00000080: 5479 523b 9ee2 a33b 3117 833a 4bda cfbb
00000090: 4726 a13a 6ebc fab8 c134 443b a677 96bb
000000a0: d7cb b53a 1f59 d73b c1db cd3a ff77 d33b
000000b0: 0f64 ba3a b09c 0bbb b505 bf3b 2bde 253c
000000c0: f192 abba c2aa c7bb af2f 3cbb 9b7e f13a
000000d0: c3bc 69bb ae55 d4b9 e4be e1bb d3a7 243b
000000e0: eb5b a8ba 332b f7ba 983b eeba bcbb a6bb
000000f0: 67cb 6b3a a392 a839 ace9 973b 09f5 34bb
00000100: 89e7 a63a 72a9 cd3a 1623 18bc 0f0a 00bb
00000110: f6c9 4eba 5757 dd3b cc73 2bba 5284 013c
00000120: 9c2b 0b3b d497 6bbb 0a61 603a 63b9 06bc
00000130: ecfd 41bb 6258 e13b 27f6 f1ba e25f c23b
00000140: 7292 1cbb 204b c23b e01e dd3a 7ee2 f13a
00000150: 8b23 143c 95cf 803b 433e e93a f03f 91bb
00000160: d410 1dbb 8ff6 853b db6b 603a d2f7 72bb
00000170: 1abc 573b f8bd 18bb 0a95 d43a 64c2 adbb
00000180: 0255 b73b 3713 183c 50b1 a8bb 18ab 07bc
00000190: 1f0d 273c 5a7d fd3b ad03 943b 9fb1 cbbb
000001a0: 63d8 3f3b 7b04 d2b8 c3e0 233b 6907 ce3b
000001b0: 5ecc 633a a460 dc3b fc69 02bb 729c 58ba
000001c0: 1de1 533b 2505 4dbb 9f58 fd39 a412 e8bb
000001d0: 1d6c e03a d757 ec3a 7f74 9e3b d8f6 983b
000001e0: 035f 5fb9 b538 faba caf3 e9ba 5d5e 3bbb
000001f0: 4f43 1f3b 4ae2 be3b e076 a537 598d 84bb
-0.0047566327 0.0033348843 0.003940888 -0.0045806738 0.00066789024 -0.0056560347 0.0050499 0.008371406
-0.0017773813 0.0028578725 0.0030837997 0.0035578867 -0.0020724568 -0.0014530506 0.004811198 0.0074482304
0.0019356076 0.0029280875 -0.0011351194 0.005851927 0.004837018 -0.0014651555 0.0044410396 0.0042527383
-0.00067397696 0.009387818 0.005013889 0.003733909 -0.0077276626 0.005170415 0.0066551296 0.0090113785
0.0032115774 0.00500138 0.0010001418 -0.006343161 0.0012294733 -0.00011956027 0.002993867 -0.0045919
0.0013869953 0.0065719034 0.001570575 0.0064535136 0.0014220494 -0.002130311 0.0058295378 0.01012377
-0.0013090057 -0.006093354 -0.0028714945 0.0018424572 -0.003566549 -0.00040499627 -0.006889211 0.0025124445
-0.0012844777 -0.0018857479 -0.0018175719 -0.0050882977 0.0008994848 0.0003215271 0.00463601 -0.0027611873
0.0012733798 0.0015690757 -0.009285709 -0.0019537245 -0.0007888371 0.0067547965 -0.00065403874 0.007905083
0.002123571 -0.003594865 0.0008559382 -0.008222911 -0.0029600812 0.006876991 -0.00184602 0.0059318403
-0.0023891 0.0059293658 0.0016870163 0.0018454341 0.009041677 0.0039309957 0.0017795045 -0.004432671
-0.002396633 0.00408823 0.00085609936 -0.0037073982 0.0032918514 -0.002330659 0.0016218734 -0.005302714
0.0055948505 0.009281925 -0.0051480904 -0.008280538 0.010195999 0.0077358903 0.0045170397 -0.0062162424
0.0029273264 -0.00010014415 0.0025005795 0.0062875045 0.0008689816 0.0067253876 -0.0019899597 -0.0008263058
0.0032330223 -0.0031283584 0.00048321948 -0.0070823003 0.0017122064 0.0018031549 0.0048356648 0.004668098
-0.00021302332 -0.0019090386 -0.0017849144 -0.002859018 0.0024301594 0.0058253156 1.9724888e-05 -0.0040451703

action_model._continuous_distribution.log_sigma f4 [1, 2]
00000000: d990 1c3b 180f 8d3b
0.0023890047 0.004304778

action_model._continuous_distribution.mu.weight f4 [2, 128]
00000000: cac5 8ebc 1912 d7ba bb0b b73c 4334 a63c
00000010: 7dd4 18bb 8165 2dbc f1de 0f3c caac cbbb
00000020: bc17 873b f3c4 773c 57ae 92bc b884 38bb
00000030: b9d4 0dbd dbb1 0ebd 6b22 973c e70c 073d
00000040: 99b9 fabc 9d12 2c3c 551c 693c 8d54 a8bc
00000050: a002 a83b e38f d53b 0571 19bc 5eda 9bbc
00000060: 3a28 8bbc d2f4 97bb 7d2a a33c 40ba 393c
00000070: de05 83bc 220d 0ebc 2fd3 c73c 4b40 80bb
00000080: 343f 983c 2e3c 263c b11b ad3a 542a dfbc
00000090: 8389 3f3d 4efc 51bc c45f 233d 0c47 9f38
000000a0: f9ed 75bc 5fe9 8b3c 0482 0cbd 306b 1cbc
000000b0: 6d54 42ba 69b2 b0b9 e317 99bb 1a05 c6ba
000000c0: e162 5e3c 24f4 9abb dbce d53a da95 663c
000000d0: f762 033d 3be7 8dbb 37a5 23bc 53b7 a8bc
000000e0: 4392 113b c0f8 cf3b 6825 44bc fb33 abbb
000000f0: 735c 46bc ac3f 6cbd 5546 38bd c771 a2bb
00000100: 4af1 a9bc b9fb 4b3b 4793 58bc 5452 573b
00000110: 7a73 9abc e8db ee3b 7ee1 013b acb1 b23c
00000120: fa11 0e3d 77f4 a93a e31d dcbb b4a3 11b9
00000130: c6e2 e93b 1c0d 0c3d f613 a73b 011d d0bb
00000140: 1ae9 6d3c 32be 2ebb 53da cf3b 8888 74bc
00000150: 314b b53c 1a00 ca3b 5d0c ea3b 0a52 aebc
00000160: ae67 55bb ff78 ab3c 3f28 59bd f854 203c
00000170: b8f5 963b 6bcd d9bb 6320 2dbc 35d1 fabb
00000180: 9b3a b03c 8b6d f83c b1ab 51bb 46d5 40bc
00000190: 2d70 883c 8400 573c 0888 913b 3e9f dbbb
000001a0: 1ed1 923a dbf4 093b 7bc1 e13c d253 97bc
000001b0: 3b80 d13b 3fd0 e43c ed04 013d 210b e7bc
000001c0: ba60 d83c abc6 0e3d b846 9f3c 5fe4 803b
000001d0: 9c75 5ebc 6759 0d3c 52bf e33c 9408 35bc
000001e0: 5666 20bc 84b1 82ba 1ba4 103d 9307 df3b
000001f0: fcf9 d03b 88b6 8b3b 5444 fdbc c495 22bc
00000200: eef3 e4ba 0ca4 23bc 871f 2ebc f840 6bbc
00000210: 7ae3 2a3b 4493 f3b9 72e6 5abc 95a0 28bc
00000220: 2911 863c bb91 623b dca3 0ebd 3fb7 073d
00000230: 13eb f63b 2bdf 053d 0c06 27bc 102c d93a
00000240: 5aa5 d93b 9670 4bbc 64ca 2a3c 50e0 a23b
00000250: 7708 d73b 08fe 873c 5272 62ba d16d 053c
00000260: 9665 f93c f068 17bd 7839 783c 5351 adbb
00000270: 0c64 22bb 542e 69bc 81f4 0abc 9046 f3bc
00000280: 5b56 42bc b4de d13b 73fd d7bc 41b5 453c
00000290: dd17 293c a3f5 85ba ed91 8bbc 1d32 a63c
000002a0: 8c74 ac3c 8af7 d7bc 3625 0a3d 0795 ccba
000002b0: e170 023c f93b c3bc 0079 eebb 3d67 1dbd
000002c0: 87df 103c 6476 893c a9d3 13bc a1ad 54bd
000002d0: 8aef d1bc 9818 15bb 3b6e 733c e669 05bd
000002e0: 60d2 a2bc cc8a a8bc 1b56 3bba 4365 c3ba
000002f0: 3a46 97ba f069 a73a 4fce 18bb 3094 4d3c
00000300: a071 bbb9 2ec1 8c3a 1103 9b3c 89ec ac3b
00000310: 779a 7c3b 82aa ea3b 88c5 8e3c c1a2 fabb
00000320: 3515 71bc 6106 363c 49ae 36ba a43e bd3a
00000330: 1d3b 89bb a2a5 0f3c 9875 40bb ae90 07bd
00000340: bb74 463c f1fd 0c3d c60f 18bc 28bd 173d
00000350: 9c51 35b9 212d 463c 13b9 813d d40e 083c
00000360: bc05 2dbb eca5 873c 8676 dc3c 30be 1abb
00000370: 0e90 c03b b609 dd3c de06 e43c 5f33 0cbc
00000380: 15b5 c1bb 9a40 96bc b0aa 67bb 37a0 ee3c
00000390: f083 2ebc 0c79 d9bc 0732 7f3c 4853 273c
000003a0: 6cf8 cf3c 5271 90bc b296 a3bb f029 113c
000003b0: 5166 283d 45bf 9ebc 9615 d23b 0208 133b
000003c0: 920d 61bc 6801 9ebc acbb 9e3c a0ef f8bc
000003d0: d5fa 00bd 9597 813b dd32 64bc 8043 27bb
000003e0: 5f0d c8bc e43b a23b 7abf 32bc fb72 a23b
000003f0: 8048 e1bc 6d24 54bc fc77 e23b 1161 e13c
-0.017428298 -0.0016408592 0.02234446 0.020288592 -0.0023320012 -0.010583282 0.008781181 -0.0062156664
0.0041227024 0.01512264 -0.017905397 -0.0028155278 -0.034626696 -0.034837585 0.018449029 0.03297129
-0.030606078 0.010502485 0.014227946 -0.02054813 0.005127266 0.006517397 -0.009365325 -0.019025024
-0.016986955 -0.004637339 0.01991772 0.011335909 -0.015994009 -0.008670123 0.024392692 -0.0039139143
0.018584825 0.010146184 0.0013207105 -0.027241863 0.046762 -0.012816502 0.03988625 7.594944e-05
-0.01501035 0.017079053 -0.03430368 -0.00954704 -0.0007413093 -0.00033702262 -0.004672037 -0.0015107722
0.013573379 -0.004728811 0.0016312258 0.014073813 0.032076802 -0.0043305433 -0.009988121 -0.020595228
0.0022212423 0.006346792 -0.011971809 -0.0052247024 -0.012107003 -0.05767791 -0.04498895 -0.004957411
-0.020744938 0.003112538 -0.013218707 0.0032855468 -0.018853892 0.0072893985 0.0019818242 0.021813236
0.034685113 0.0012966533 -0.00671743 -0.00013889262 0.007137629 0.03419219 0.005098815 -0.006351114
0.014520908 -0.0026663658 0.006343165 -0.01492513 0.02213058 0.006164563 0.007142587 -0.021279354
-0.0032563019 0.020931719 -0.053016897 0.009785883 0.0046069287 -0.006646802 -0.010566804 -0.007654334
0.02151232 0.030325672 -0.0031993205 -0.011769598 0.016655052 0.0131226815 0.004441265 -0.0067023328
0.0011201238 0.0021050486 0.027558079 -0.018472586 0.00639346 0.02793133 0.03149884 -0.028203549
0.02641331 0.034857433 0.019442901 0.003933474 -0.013577845 0.008627272 0.02780119 -0.011049408
-0.009790024 -0.0009971117 0.035312753 0.006806323 0.0063774567 0.004263703 -0.03091637 -0.009923402
-0.0017467716 -0.009987842 -0.010627634 -0.0143587515 0.0026075528 -0.00046458293 -0.0133606065 -0.010292192
0.016365604 0.0034571725 -0.034824237 0.03313374 0.0075353472 0.032683533 -0.010194313 0.0016568918
0.006642026 -0.012416979 0.01042423 0.004970588 0.0065622884 0.016600624 -0.0008638251 0.008143858
0.030443948 -0.03696531 0.01515042 -0.0052892356 -0.002477887 -0.014232237 -0.008481146 -0.029696733
-0.011861409 0.006404722 -0.026365971 0.01206714 0.010320631 -0.00102203 -0.017037356 0.020287568
0.021051668 -0.026363153 0.033726893 -0.0015608378 0.007961483 -0.023832308 -0.007277608 -0.038428534
0.008842356 0.016780086 -0.009022632 -0.051923398 -0.025626916 -0.0022750255 0.014857824 -0.032571696
-0.019875705 -0.020573996 -0.00071463146 -0.0014907498 -0.0011541315 0.0012772661 -0.002331633 0.012547538
-0.00035752077 0.0010738724 0.01892236 0.0052772206 0.0038544217 0.0071614394 0.017428175 -0.0076487963
-0.014714529 0.011109919 -0.00069687195 0.0014438224 -0.004187955 0.008767517 -0.0029366966 -0.03309696
0.012112792 0.034421865 -0.009281104 0.037045628 -0.00017291907 0.0120957205 0.06334128 0.008304317
-0.0026401123 0.01655861 0.026911985 -0.0023611896 0.0058765477 0.02698217 0.027835306 -0.00855717
-0.0059114792 -0.018341351 -0.003534954 0.02912913 -0.010651574 -0.026546977 0.015575892 0.010212727
0.025387011 -0.01763216 -0.0049923295 0.008860096 0.0411132 -0.019378314 0.0064112647 0.0022435193
-0.013736146 -0.01928778 0.019376598 -0.0303877 -0.031489212 0.0039548376 -0.013928142 -0.002552241
-0.024420438 0.004950987 -0.010909909 0.0049575544 -0.027500391 -0.012948138 0.006911276 0.027512105

action_model._continuous_distribution.mu.bias f4 [2]
00000000: 4b96 eb3a 1fbe daba
0.0017973868 -0.001668874

action_model._discrete_distribution.branches.0.weight f4 [2, 128]
00000000: 084a 41bc 4447 e8ba 6466 9fbb 0939 1bbc
00000010: cb4a 313c 58c7 173c 2fd7 e13b 10f7 fabb
00000020: b9ef c5ba a6ed ad3c 50b2 86bb dab0 4b39
00000030: 3fbe 763c 491e 0fbc d3bc 8b3b f2d2 2c39
00000040: 724b ab3a d08b 013c a021 e0bb 015a 9eb9
00000050: d230 1d3c cdff 993c dc01 863b 29ef c3bb
00000060: 5f9b 033c 763a 06bc 7e41 02bb 2118 5e3c
00000070: 603c ab3a 94ac 9bbb ecf8 25bc 2ada 1f3b
00000080: 0c65 87bb 495d c637 9ee4 0fbc 843f 57bb
00000090: e834 d43b 69a1 df3a b3d2 64bc 6fb5 eb3b
000000a0: 728b 633c 1797 6d36 048d b1ba 77fa 31bb
000000b0: a60c 83b9 77e1 25bc 671b 9cbb 8a3c 19bc
000000c0: 76ea 06ba f51f 233c b5e1 483c 7149 913c
000000d0: 4c5b 7dbc 1c2d 91ba cfc4 bf3a e5bf 7cbb
000000e0: f556 da3a 97ae d7ba 35af 8b3b 9747 65bb
000000f0: 5e87 763b 5430 f23b 6471 683b 7c2e 0cbc
00000100: 6752 26bc 1449 163b 3c03 e33b 0de3 11bc
00000110: d6cf 0e3c 75da 9fba 3156 d73a f000 253c
00000120: 1623 bbba 1195 ae3a 9dd1 0a3b ea8a b8bb
00000130: b0a8 6339 dbd5 493c 8db0 2a3c 09df 8eba
00000140: 9268 bbbb 85ba d9bb 01a9 9e3c d2a3 9d3a
00000150: d63e d9bb c1b6 613c 5a74 68bc e692 06bb
00000160: 7b99 66bc 9115 10bc 5161 b5bb 5b88 1f3c
00000170: 874d 1f3c 1278 0ebc d77b 11bc de06 2ebc
00000180: 5c66 5fbb 99c8 053c a604 97bc 9efd 9abc
00000190: 4afa a53a e7da 1d3b f5ab a73b 6d83 96bc
000001a0: 7540 45bb 85e0 91bb 54f2 cf3b 4ce3 eeb6
000001b0: 128f ad3c 6e47 bb3b fc52 0c3c 3437 ae3c
000001c0: 7303 293b bea0 4e3c 6fad af3a fab8 4f3c
000001d0: dc65 edbb da47 943b 5a10 1c3c ccaf 9f3b
000001e0: 2d51 e0bb ed80 21bb 4e50 c03b 5ac4 163c
000001f0: bca4 f7bb 04d6 f33b af96 9ebb 733c 4abc
00000200: 4c09 693c c5d9 463c 0221 973a 5b0c 053c
00000210: 53be a5bb e843 313b dfba 173b fde1 25bc
00000220: cc67 41ba 3c03 513c 39f9 e13b f614 63bb
00000230: 013a e33b c943 a33c 0178 b0b9 c550 b2bc
00000240: 4a01 cd3b 3b35 94bc 7f0a b93b 4f70 b737
00000250: c2ac 943c 6ee4 9b3c ca7c bb3a d58b 3dbc
00000260: 2133 84bc c73c c13b 2f90 8f3c 53f2 29bb
00000270: 6a17 efbb 6c1b 123c 346a 333c e94c 5539
00000280: a916 df3a 0dc6 663b 4b99 8ebb f4d8 2dbc
00000290: 072e 153c f80f 6d3c f278 1ebc ce27 2a3b
000002a0: 06bb 60bc 2a4b e4ba 448f fa3a c771 77bc
000002b0: 6942 423c 6f0f 333b 429b a6bb 64fa 443c
000002c0: 87a4 9e3a 3dd5 ca3b 5059 ab3b ca4b 16bc
000002d0: 7c66 79bb 1b06 b83a e00a 85ba 8a2d 05bb
000002e0: 285f 39bc e0c9 89bc 0df4 e9bb cc64 acba
000002f0: 818a 03bc 86eb 033c d393 1abb b6c6 233b
00000300: ae76 46bc a970 e5bb c077 813b ad36 a2bb
00000310: 2c44 81bc 31ee 83bb 5437 88bb cac9 92b9
00000320: 36d3 1c3a 4883 54bb 1724 2c3b 2f1f 02bc
00000330: 188a 98bc b683 5fbc 0b1f ca3b 3ef3 e73b
00000340: a170 6e3b f2b7 2a3c a2f3 06bc 0df2 ac3c
00000350: 5ec0 ac3b 96b6 d3ba c380 993b 11eb b5bb
00000360: bd63 c93b afbe aa3b de55 e83b b4af 123c
00000370: 550e 02bb cf59 4fbc 182c 4f3c 8634 573b
00000380: 3abb 39bc 0a74 37bc 5fe9 9abc b54e ec3a
00000390: 0245 a13b f233 2a3b d00b cc3a f4d3 ad3c
000003a0: fd95 fd3b 32d8 983a 28e3 da3b e097 c2bb
000003b0: 4054 683a 869f fbba c4d3 133c 8336 9ebc
000003c0: 51e2 bb3a ea15 c13b 7f1f 5b3b c3b1 2f3c
000003d0: f0ec 55b9 ab28 323b 33e0 80bb 7653 853b
000003e0: 8879 c13b 8c2d 563c 7085 cdbc 880b 2bbb
000003f0: ad69 3b3c 8a4e b63b f9ba 893b 4085 0ebb
-0.011797436 -0.0017721434 -0.004864501 -0.009474047 0.010821055 0.009263836 0.006892107 -0.0076588467
-0.001510135 0.021231484 -0.004110612 0.00019425471 0.015060007 -0.008735248 0.004264453 0.00016481781
0.0013068749 0.007906869 -0.006839946 -0.00030203167 0.009594159 0.018798733 0.004089577 -0.005979438
0.008032649 -0.008192649 -0.0019875462 0.0135555575 0.0013064258 -0.0047507975 -0.010130148 0.002439151
-0.004131919 2.3646879e-05 -0.008782534 -0.0032844255 0.0064760335 0.0017061654 -0.01396625 0.0071932594
0.013888227 3.5403698e-06 -0.0013546054 -0.0027157345 -0.0002499569 -0.010124556 -0.004764009 -0.009352813
-0.0005146632 0.00995635 0.012260844 0.017735215 -0.015463661 -0.0011076066 0.0014630797 -0.0038566526
0.0016657995 -0.001645523 0.0042628297 -0.0034985298 0.0037617306 0.007391015 0.0035467977 -0.008556005
-0.010151482 0.0022931742 0.006927876 -0.008904231 0.008716544 -0.0012195843 0.0016428885 0.010071024
-0.0014277424 0.0013319572 0.0021182068 -0.005631794 0.00021711248 0.0123190535 0.01041807 -0.001090021
-0.005719253 -0.0066445493 0.019367697 0.0012026972 -0.006629805 0.013776482 -0.014187897 -0.0020534336
-0.0140746785 -0.008794204 -0.0055352827 0.0097370995 0.009723074 -0.008695619 -0.008879623 -0.010621754
-0.003408811 0.008165502 -0.018434834 -0.018919762 0.0012663093 0.0024086775 0.0051169344 -0.018373216
-0.0030098234 -0.0044518136 0.0063460264 -7.1194136e-06 0.021186385 0.005715302 0.008564707 0.021266557
0.002578941 0.012611566 0.0013403128 0.012678379 -0.0072448086 0.004525167 0.009525383 0.0048732515
-0.0068456144 -0.0024643496 0.005868948 0.009202087 -0.0075574797 0.007441284 -0.00483974 -0.012343514
0.014223408 0.012136881 0.0011530223 0.008120622 -0.005058089 0.0027048532 0.0023152155 -0.010124681
-0.00073778327 0.012757119 0.0068961647 -0.0034649945 0.006934405 0.019929783 -0.00033658746 -0.02176703
0.006256257 -0.018091789 0.005647003 2.1867598e-05 0.018148784 0.019029822 0.0014304158 -0.011568983
-0.016137661 0.005897138 0.017524807 -0.002593179 -0.0072964923 0.008917671 0.010950614 0.00020341914
0.0017020303 0.0035213262 -0.00435177 -0.010610808 0.009105212 0.014469139 -0.00967239 0.0025963667
-0.013716465 -0.001741742 0.0019116183 -0.01510281 0.011856654 0.0027322432 -0.005084426 0.012022588
0.0012103476 0.0061899708 0.0052291527 -0.009173343 -0.003805547 0.0014039906 -0.0010150336 -0.0020321333
-0.011314191 -0.016819894 -0.007139689 -0.0013152598 -0.008028627 0.008051759 -0.0023586645 0.0024990267
-0.012113256 -0.0070019555 0.003951043 -0.0049503655 -0.015779577 -0.0040261974 -0.0041569863 -0.00027997635
0.00059824006 -0.0032426883 0.0026266628 -0.007942005 -0.018620536 -0.013642242 0.0061682514 0.0070785573
0.003638305 0.010419833 -0.0082367975 0.021111513 0.0052719554 -0.0016152437 0.004684539 -0.0055517037
0.006145923 0.0052107195 0.0070903143 0.008953024 -0.0019844968 -0.012655689 0.01264479 0.0032837703
-0.011336142 -0.011197099 -0.018910108 0.0018028828 0.0049215565 0.0025970903 0.0015567485 0.021219231
0.0077388273 0.0011661111 0.006679911 -0.005938515 0.0008862652 -0.0019197322 0.009022657 -0.019313103
0.0014334415 0.005892505 0.0033435521 0.010723534 -0.00020401529 0.0027184885 -0.0039329766 0.004068787
0.00590438 0.013072383 -0.025088042 -0.0026099402 0.011438769 0.005563562 0.004203197 -0.0021746904

action_model._discrete_distribution.branches.0.bias f4 [2]
00000000: f928 dd39 e728 ddb9
0.00042182932 -0.0004218288
