results/RandomTest3/MoveToGoal/MoveToGoal-500037.pt (torch, 442259 bytes, 42 tensors)

network_body._body_endoder.seq_layers.0.weight f4 [128, 4]
0.2325321 0.38685057 -1.0162632 -0.87516326 -0.2760026 -0.17358185 -0.06984998 0.79749876
0.3400864 -0.54594946 -0.15207347 -0.054529015 0.47890615 0.67222595 -0.5417747 -0.47278258
0.3422895 -0.73548317 0.09472025 -0.75061977 -0.35705712 -0.39700007 0.86641014 -0.38408914
0.49754393 -0.21696761 -0.39476407 -0.52069944 0.3000913 0.17705575 0.6498064 0.45022863
-0.6253694 -0.6017748 -0.5901292 1.2524706 -0.5416561 -0.45164552 -0.5964544 -0.47642317
-0.26336434 -0.4744562 -0.95953774 -0.035630688 0.83030313 -0.58431613 -0.41597396 0.16622205
0.29423738 -0.36802432 -0.42666444 -0.39396363 -0.42566454 0.51828176 -0.64690983 0.69898856
-0.9741001 0.06771031 0.22749247 -0.12833183 0.06197404 0.6264854 0.24135861 0.5737592
-0.64608496 -0.48821038 -0.0021875803 0.3642586 0.26625058 0.5557881 0.2912006 0.4434657
0.5006271 -0.42583218 -0.9539121 -0.19758552 -0.061677843 0.2628682 -0.41708055 -0.2855868
0.17712355 -0.22255859 0.33874446 0.115818076 -0.19348764 -0.20787495 0.11603644 0.1003276
0.1083984 -0.01128356 0.2409225 -0.5342325 -0.024585957 0.021610083 0.3144863 0.31199312
0.10399293 -0.5055087 0.2655228 -0.4416254 -0.02550188 -0.5747004 -0.48106167 -0.41431355
0.72485787 -0.9719358 0.23275225 0.6644823 0.38903773 0.21665299 1.035042 0.5684266
0.4635062 0.22002548 0.07254433 0.22845215 0.27505425 -0.30802965 -0.31809387 0.11808206
0.020059139 -0.9720963 -0.5013159 -0.49079734 -0.8367873 -0.87148154 -0.39927864 0.12478229
-0.12687027 -0.15661143 -0.3843494 0.27899802 -0.14788194 0.64199966 0.08296964 0.3334686
-0.52885664 -0.99078155 -0.1978528 0.10429263 -0.8566747 0.11925992 0.38521263 -0.2987234
0.062083844 -0.9887653 0.4505294 -0.7813969 -0.47118774 0.27199724 0.17028648 0.3666206
-0.3474129 1.0383809 -0.6232214 0.07879535 -0.18490554 -0.32534418 0.72315323 0.42699954
-1.398638 0.26642525 0.14959064 -1.020069 0.20325722 -0.07263723 0.22543292 -0.7440359
0.8627503 -0.38043174 0.3911939 -0.21089762 -0.009488965 -0.23284139 -0.47506818 -0.0011340795
0.08353105 0.24216717 -0.49254182 -0.18277963 -0.7822307 0.62165844 0.26888603 0.48463106
-0.8509537 0.41695893 0.5878046 -0.73755217 0.13712537 -0.00086009764 0.057411134 -0.4496853
0.24561444 -0.31611198 0.14642549 -0.2029225 -0.054233924 -0.74015504 -0.35992634 -0.034015037
0.2660254 -0.012624868 0.31957158 -0.0732752 -0.28258294 0.37082824 0.22137639 0.42479166
-0.35612777 -0.6707303 -0.3016463 -0.042781312 0.09561358 -0.47899315 0.16239531 0.46580374
-0.7034113 0.5694706 0.25893512 0.13975766 0.6351313 1.073404 -0.31677338 0.6425934
-0.28650445 -0.06815073 0.21293828 -0.4373508 -0.22099517 -0.018180976 0.14828797 0.2772686
0.48781425 0.8348253 -0.24973038 0.572676 -0.2660508 0.47060227 0.44441053 -0.29871726
-0.16522807 0.55845916 -0.21638408 0.08798185 -0.547839 -0.7287525 0.18159151 0.61372197
0.3931656 0.2641083 -0.27492195 -0.016227897 0.6817059 -0.57352334 0.04662904 -0.23879695
00000000: e51c 6e3e 4711 c63e ea14 82bf b30a 60bf
00000010: 3650 8dbe 71bf 31be 820d 8fbd e128 4c3f
00000020: ce1f ae3e 58c3 0bbf 26b9 1bbe d159 5fbd
00000030: 3033 f53e 0017 2c3f bfb1 0abf 8f10 f2be
00000040: 9240 af3e a048 3cbf b1fc c13d 9e28 40bf
00000050: 31d0 b6be 9843 cbbe 0ecd 5d3f 55a7 c4be
00000060: 14be fe3e c22c 5ebe 841e cabe 8f4c 05bf
00000070: 91a5 993e 1a4e 353e b659 263f 5e84 e63e
00000080: 3618 20bf ea0d 1abf b512 17bf f550 a03f
00000090: f9a9 0abf 153e e7be 3cb1 18bf bded f3be
000000a0: b1d7 86be eceb f2be 44a4 75bf 7cf1 11bd
000000b0: bf8e 543f be95 15bf 8afa d4be 1d36 2a3e
000000c0: 48a6 963e af6d bcbe c373 dabe 9ab5 c9be
000000d0: b4f0 d9be 1dae 043f e29b 25bf eaf0 323f
000000e0: a05e 79bf b4ab 8a3d c9f3 683e 6b69 03be
000000f0: 7ed8 7d3d 5961 203f b626 773e e2e1 123f
00000100: d365 25bf b6f6 f9be 825d 0fbb 1a80 ba3e
00000110: ff51 883e 2148 0e3f 3f18 953e f00d e33e
00000120: 1929 003f ad06 dabe 9533 74bf dc53 4abe
00000130: e8a1 7cbd a996 863e 958b d5be 6f38 92be
00000140: e05f 353e 66e6 63be ea6f ad3e 0732 ed3d
00000150: a021 46be 2cdd 54be 83a4 ed3d 8f78 cd3d
00000160: fbff dd3d aede 38bc 63b4 763e 76c3 08bf
00000170: 7d68 c9bc a107 b13c 5904 a13e 90bd 9f3e
00000180: 3ffa d43d 0569 01bf 9bf2 873e b91c e2be
00000190: 52e9 d0bc 911f 13bf b74d f6be e820 d4be
000001a0: 4990 393f c9d0 78bf 9b56 6e3e 831b 2a3f
000001b0: f42f c73e 48da 5d3e 427c 843f 6884 113f
000001c0: af50 ed3e 5c4e 613e 1f92 943d 5cef 693e
000001d0: e9d3 8c3e 10b6 9dbe 33dd a2be 02d5 f13d
000001e0: 1053 a43c 4edb 78bf 3d56 00bf ca49 fbbe
000001f0: b137 56bf 6a19 5fbf 406e ccbe db8d ff3d
00000200: 48ea 01be bf5e 20be 72c9 c4be d4d8 8e3e
00000210: 5d6e 17be 175a 243f fdeb a93d 65bc aa3e
00000220: 2663 07bf dca3 7dbf ed99 4abe 6097 d53d
00000230: 084f 5bbf 8c3e f43d 973a c53e 46f2 98be
00000240: a14b 7e3d b91f 7dbf caab e63e a109 48bf
00000250: 853f f1be 3943 8b3e 945f 2e3e b2b5 bb3e
00000260: 1be0 b1be aae9 843f 708b 1fbf 755f a13d
00000270: e157 3dbe 8393 a6be 9220 393f af9f da3e
00000280: 9206 b3bf e468 883e 4a2e 193e 9f91 82bf
00000290: a922 503e d4c2 94bd e3d7 663e 2379 3ebf
000002a0: 34dd 5c3f f3c7 c2be 914a c83e 8cf5 57be
000002b0: 9b77 1bbc f96d 6ebe 233c f3be 65a5 94ba
000002c0: 5412 ab3d acfa 773e 712e fcbe 952a 3bbe
000002d0: 4540 48bf 0225 1f3f 6eab 893e 9021 f83e
000002e0: 1ad8 59bf a47b d53e 5d7a 163f 38d0 3cbf
000002f0: 986a 0c3e 2d78 61ba f027 6b3d 273d e6be
00000300: 5a82 7b3e 6ed9 a1be 90f0 153e eaca 4fbe
00000310: 6424 5ebd cd7a 3dbf 4448 b8be 5a53 0bbd
00000320: 7b34 883e 89d8 4ebc e39e a33e 4f11 96bd
00000330: b6ae 90be 33dd bd3e 7eb0 623e 4b7e d93e
00000340: 6156 b6be fbb4 2bbf 6271 9abe 753b 2fbd
00000350: 0dd1 c33d 973e f5be f54a 263e d47d ee3e
00000360: c312 34bf d3c8 113f 2593 843e a21c 0f3e
00000370: f797 223f 4d65 893f 1f30 a2be 0081 243f
00000380: b6b0 92be 9c92 8bbd 7e0c 5a3e 72ec dfbe
00000390: 8f4c 62be 45f0 94bc cdd8 173e 26f6 8d3e
000003a0: cac2 f93e 1cb7 553f 52b9 7fbe e59a 123f
000003b0: cf37 88be c8f2 f03e c789 e33e 78f1 98be
000003c0: 8c31 29be 2ef7 0e3f ca93 5dbe d42f b43d
000003d0: 2d3f 0cbf 868f 3abf 20f3 393e e21c 1d3f
000003e0: 004d c93e 3439 873e 92c2 8cbe 5ef0 84bc
000003f0: 4784 2e3f 6dd2 12bf 18fe 3e3d 3087 74be

network_body._body_endoder.seq_layers.0.bias f4 [128]
0.029242996 -0.012005912 0.007361566 -0.0069286493 -0.002644475 -0.023255577 -0.026701123 -0.0033974983
-0.0032785449 -0.015895547 0.0032513565 -0.02875926 -0.023906006 -0.020962868 0.01851884 0.025910737
-0.0048299385 -0.005599783 0.011751787 0.016618477 -0.0365373 -0.033512115 0.040528744 -0.014997915
-0.017442094 -0.009937594 -0.008508099 -0.03447076 0.0062907394 6.199755e-05 -0.017374076 -0.042478736
0.0024565654 0.013627537 -0.016931737 -0.006204168 -0.013961204 0.0039044402 0.009348734 0.0045271814
0.003619574 -0.034817733 -0.018120661 -0.03663656 0.046164125 0.016001306 0.05668388 -0.028778695
-0.040340945 0.012299284 0.015903607 -0.033202752 -0.050509527 0.0027782535 0.02890748 -0.005276648
0.03133674 -0.022765188 -0.022203585 0.061756562 -0.0039950437 -0.0018879133 0.0017981925 -0.044801768
-0.007337989 0.01943618 0.01793053 -0.023188125 -0.001938413 0.0044689844 -0.011560473 0.03447313
0.0015149623 -0.026213774 -0.025983147 0.013799589 0.0029063583 -0.026782153 -0.00012451583 0.0056747613
-0.015917638 0.0017498853 -0.0020301424 -0.025920182 -0.0043940847 -0.0018862601 -0.013874355 0.004809865
0.0050560506 0.016174212 -0.01562198 -0.009580832 0.0047657047 -0.031951465 -0.008866232 0.011508417
-7.8594545e-05 0.04588614 0.018836398 0.0007623588 0.032045722 -0.0063481885 -0.020229807 0.009183007
0.04392901 -0.004179839 0.03417226 0.00174423 0.008253213 -0.0068992036 -0.05412444 -0.0025382722
-0.03527829 -0.0146593815 0.009030188 -0.03234316 -0.0057774168 0.054819077 0.00779117 0.010570781
-0.029358208 -0.01021554 0.0006414904 -0.009607907 -0.038124315 0.01172094 -0.026057493 -0.013147286
00000000: 028f ef3c 72b4 44bc 4b39 f13b b909 e3bb
00000010: ee4e 2dbb 7b82 bebc 50bc dabc 90a8 5ebb
00000020: dbdc 56bb 6137 82bc b614 553b 8a98 ebbc
00000030: 87d6 c3bc 52ba abbc d3b4 973c c142 d43c
00000040: 7644 9ebb 627e b7bb 918a 403c 7923 883c
00000050: 23a8 15bd 0044 09bd 7801 263d d1b9 75bc
00000060: b9e2 8ebc 4ad1 22bc 8e65 0bbc 3631 0dbd
00000070: 8c22 ce3b ae04 8238 1454 8ebc 2ffe 2dbd
00000080: 54fe 203b 0846 5f3c 6db4 8abc 554c cbbb
00000090: 89bd 64bc a3e1 7f3b 6f2b 193c c058 943b
000000a0: 6036 6d3b 0a9d 0ebd c871 94bc 3810 16bd
000000b0: 9816 3d3d 2c15 833c 5b2d 683d 4cc1 ebbc
000000c0: 8c3c 25bd f082 493c 4848 823c 9cff 07bd
000000d0: 14e3 4ebd 5c13 363b 61cf ec3c bbe7 acbb
000000e0: f45a 003d 0f7e babc 4be4 b5bc 73f4 7c3d
000000f0: dbe8 82bb dc73 f7ba 54b1 eb3a 0f82 37bd
00000100: 8373 f0bb a038 9f3c 0ce3 923c 06f5 bdbc
00000110: 5912 feba 8f70 923b 2368 3dbc b233 0d3d
00000120: b391 c63a 45be d6bc 9cda d4bc ac17 623c
00000130: 9a78 3e3b 3f66 dbbc 7790 02b9 59f3 b93b
00000140: b565 82bc 685c e53a 230c 05bb 9056 d4bc
00000150: 41fc 8fbb 633c f7ba 4351 63bc 129c 9d3b
00000160: 3aad a53b c87f 843c 55f3 7fbc ecf8 1cbc
00000170: a129 9c3b 8adf 02bd ac43 11bc cd8d 3c3c
00000180: 20d3 a4b8 1bf3 3b3d ca4e 9a3c 08d9 473a
00000190: 6042 033d 7704 d0bb fbb8 a5bc 5374 163c
000001a0: e8ee 333d 08f7 88bb 36f8 0b3d a69e e43a
000001b0: 7c38 073c b712 e2bb 97b1 5dbd 2459 26bb
000001c0: f87f 10bd e72d 70bc 5bf3 133c 437a 04bd
000001d0: 7c50 bdbb f889 603d 124d ff3b 1231 2d3c
000001e0: a080 f0bc 155f 27bc b129 283a 7c6a 1dbc
000001f0: 3e28 1cbd 2f09 403c 8676 d5bc b767 57bc

network_body._body_endoder.seq_layers.2.weight f4 [128, 128]
-0.021973258 -0.10568357 -0.043569278 0.12273523 -0.11634324 0.08099369 0.058870796 -0.012421606
-0.001675275 0.01836833 -0.040381975 -0.04590728 0.034707937 0.09901111 -0.041829366 0.13887398
0.00095518 -0.09463807 -0.04846924 0.18999104 0.048321765 0.11034349 -0.22867063 -0.021008492
-0.01270177 -0.16370724 0.06320717 -0.030565288 0.06651297 0.035252776 -0.026505232 -0.03462274
0.13436835 -0.04944002 -0.057506222 -0.03153707 0.20005515 -0.030967118 0.040388845 0.08411628
-0.011226436 0.08573542 -0.079191364 0.018227646 0.05961435 -0.04480857 -0.050029926 -0.08986628
0.049747616 -0.18081976 0.044919018 0.09620331 0.032676525 -0.04431562 -0.03833865 0.16839018
-0.0061657843 -0.04276058 -0.016720021 -0.010775233 -0.0064212005 0.031330038 0.01287837 -0.027124802
-0.041377313 0.1501687 -0.06920038 -0.0005080184 0.0350853 0.02425636 -0.22299783 -0.044416405
0.07528206 0.04285672 0.021039326 0.03458667 -0.09587049 -0.061560858 0.030708442 0.06497185
-0.032633055 -0.100714974 -0.018306924 0.019936647 0.17790559 -0.032145657 0.17147407 0.11969472
-0.028662432 0.23096669 -0.014675499 0.0069070733 -0.13756326 -0.0039001876 -0.11891798 0.066510774
-0.023409313 -0.0069074556 0.09249062 0.06738379 -0.038897343 -0.029066248 -0.058636647 -0.09001654
0.047969185 -0.027730223 -0.024270099 -0.006297099 -0.20610902 0.008203327 -0.04043333 0.007953897
-0.024053255 -0.017026918 0.038462874 -0.13981794 0.14228186 -0.03352045 -0.046707697 -0.027365608
-0.043151617 -0.03275624 0.0013248927 -0.07676882 -0.059414294 0.00096441695 -0.057642188 -0.019964175
-0.19641186 0.022498453 0.055622306 0.06284096 0.022720987 -0.036447376 -0.106908344 -0.031925075
-0.15686344 -0.03010231 -0.06294135 -0.04687535 -0.0447841 -0.1832078 0.21091884 -0.10705653
0.05110878 -0.0475749 0.139842 0.12929879 -0.094917 0.06298861 -0.05933395 -0.008723145
-0.015614338 -0.13734311 -0.08251161 0.013714999 0.06644355 0.071920685 0.14072366 0.039510902
0.10244786 -0.051916055 0.041256126 0.15750203 0.06827666 -0.008283403 -0.0036025143 -0.075991035
-0.0477431 -0.02247773 0.0039869226 0.04180997 -0.04988679 0.06000067 -0.03073521 -0.10040126
-0.17103307 -0.11376773 -0.075743645 -0.19677985 0.059390403 0.14735618 -0.18646285 -0.07140261
0.004893311 0.102666564 0.2708238 0.006190988 -0.080145136 -0.013944924 -0.10220524 -0.13107803
-0.084899485 0.1650543 0.013765926 0.046411987 -0.07825234 -0.018941067 -0.17790058 -0.057834882
0.08919733 -0.07938245 0.02925309 0.13865359 0.2765725 -0.012497182 -0.12582101 0.105679676
-0.059412967 0.09281411 -0.06200491 -0.12328492 -0.108008586 -0.20157562 -0.019132046 -0.05857674
0.072076194 0.117357105 0.035958312 -0.0043087304 0.11602717 0.004251913 0.026503922 -0.09383954
-0.029876523 -0.0756008 0.12168584 0.008809286 -0.13154544 -0.10113859 -0.06792208 0.07423603
-0.056318834 -0.007197996 -0.029344724 0.03752403 0.026049761 -0.16840838 0.27583122 0.10973992
-0.08069078 -0.03800093 0.09542685 0.019752255 -0.06349856 -0.1332145 0.09758052 0.084867045
-0.07619484 -0.10428362 0.13455158 -0.08923445 0.009129625 0.041498996 -0.16128875 0.032636475
00000000: 4301 b4bc a170 d8bd b375 32bd 9c5c fb3d
00000010: 5d45 eebd 05e0 a53d 8122 713d fe83 4bbc
00000020: e794 dbba 2e79 963c 9267 25bd 4609 3cbd
00000030: e929 0e3d 56c6 ca3d 4555 2bbd fb34 0e3e
00000040: 0b65 7a3a 9bd1 c1bd af87 46bd 038d 423e
00000050: 0bed 453d c5fb e13d a228 6abe 001a acbc
00000060: 161b 50bc dfa2 27be c372 813d 0e64 fabc
00000070: f437 883d 3765 103d 8021 d9bc 93d0 0dbd
00000080: db97 093e 9e81 4abd a58b 6bbd 042d 01bd
00000090: 42db 4c3e c1ae fdbc c66e 253d 2845 ac3d
000000a0: 16ef 37bc 0d96 af3d 152f a2bd 2552 953c
000000b0: 2d2e 743d 3189 37bd 2eec 4cbd d00b b8bd
000000c0: 28c4 4b3d d128 39be 01fd 373d 3e06 c53d
000000d0: d2d7 053d 4c84 35bd fd08 1dbd 7a6e 2c3e
000000e0: 590a cabb b825 2fbd 6df8 88bc 9a8a 30bc
000000f0: ef68 d2bb ed53 003d ccff 523c d534 debc
00000100: 427b 29bd d3c5 193e eeb8 8dbd 8a2c 05ba
00000110: 9bb5 0f3d 46b5 c63c 8b59 64be faed 35bd
00000120: 7b2d 9a3d 878a 2f3d aa5a ac3c c1aa 0d3d
00000130: bf57 c4bd 3d27 7cbd 4590 fb3c f60f 853d
00000140: 3daa 05bd a743 cebd 67f8 95bc 2e52 a33c
00000150: e22c 363e 2aab 03bd e696 2f3e 8122 f53d
00000160: 7acd eabc 8882 6c3e 8171 70bc bb54 e23b
00000170: 62dd 0cbe 4a9a 7fbb 458b f3bd cd36 883d
00000180: e3c4 bfbc f057 e2bb b96b bd3d 8300 8a3d
00000190: d252 1fbd 571c eebc fb2c 70bd 975a b8bd
000001a0: 567b 443d 7e2a e3bc 16d2 c6bc e557 cebb
000001b0: 3e0e 53be 3f67 063c 6b9d 25bd 1051 023c
000001c0: 550b c5bc 097c 8bbc 3f8b 1d3d 6f2c 0fbe
000001d0: 56b2 113e bd4c 09bd 9250 3fbd d72d e0bc
000001e0: c0bf 30bd 682b 06bd 06a8 ad3a f938 9dbd
000001f0: 675c 73bd edd0 7c3a 371a 6cbd e98b a3bc
00000200: 3120 49be ad4e b83c 37d4 633d c3b2 803d
00000210: 5d21 ba3c d849 15bd c3f2 dabd dec3 02bd
00000220: cfa0 20be 1f99 f6bc 65e7 80bd 5e00 40bd
00000230: 886f 37bd d39a 3bbe 1cfb 573e 7440 dbbd
00000240: 7157 513d e6dd 42bd be32 0f3e e766 043e
00000250: d863 c2bd 2c00 813d 2808 73bd 86eb 0ebc
00000260: 48d3 7fbc aca3 0cbe d9fb a8bd e0b4 603c
00000270: 8e13 883d 274b 933d dd19 103e 2fd6 213d
00000280: 2fd0 d13d eea5 54bd 2ffc 283d 3648 213e
00000290: a2d4 8b3d 1cb7 07bc 2918 6cbb 30a1 9bbd
000002a0: 458e 43bd 3723 b8bc bba4 823b ee40 2b3d
000002b0: 1756 4cbd 43c3 753d 68c8 fbbc 2d9f cdbd
000002c0: 4b23 2fbe 0eff e8bd 7c1f 9bbd a880 49be
000002d0: 5a43 733d 8ae4 163e 1ef0 3ebe 883b 92bd
000002e0: 1158 a03b d942 d23d 6ba9 8a3e c5dd ca3b
000002f0: 2223 a4bd 4079 64bc fb50 d1bd 5239 06be
00000300: c8df adbd ff03 293e 7a8a 613c 7f1a 3e3d
00000310: c342 a0bd 4c2a 9bbc 922b 36be 45e4 6cbd
00000320: 17ad b63d 4493 a2bd 2da4 ef3c 35fb 0d3e
00000330: e99a 8d3e fbc0 4cbc 39d7 00be 966e d83d
00000340: 035b 73bd 5315 be3d dcf8 7dbd ce7c fcbd
00000350: 9b33 ddbd d769 4ebe cfba 9cbc 2aee 6fbd
00000360: af9c 933d ec58 f03d 0649 133d 4030 8dbb
00000370: a79f ed3d a253 8b3b c11e d93c f22e c0bd
00000380: 9cbf f4bc 98d4 9abd 6d36 f93d d354 103c
00000390: d9b3 06be c021 cfbd bb1a 8bbd 0f09 983d
000003a0: 94ae 66bd 2bdd ebbb 5964 f0bc ccb2 193d
000003b0: 4f66 d53c 3f73 2cbe c039 8d3e 53bf e03d
000003c0: 3541 a5bd dda6 1bbd 276f c33d 7bcf a13c
000003d0: 880b 82bd 6269 08be 4cd8 c73d c6ce ad3d
000003e0: 0a0c 9cbd a792 d5bd e4c7 093e 8dc0 b6bd
000003f0: 6c94 153c dafa 293d e128 25be d3ad 053d

network_body._body_endoder.seq_layers.2.bias f4 [128]
-0.008679489 -0.01572092 0.029498754 0.011837767 0.010854739 -0.0021611198 -0.011540516 -0.012111394
-0.028172906 0.027277961 0.0028816997 -0.00024069032 0.0023511213 0.01705291 -0.0056345165 -0.0032315892
-0.02037441 0.009573319 -0.03331668 -0.010851719 -0.010484091 -0.019066598 -0.0061043217 -0.003663446
-0.0005821603 -0.0013364586 0.022739613 -0.017198062 -0.016351592 0.008867466 0.0037263383 0.034956962
0.010151957 -0.020165738 -0.0040289033 -0.0048173717 -0.003904425 0.00023080039 -0.027713856 0.006753529
-0.0040117167 -0.015726166 0.027606975 -0.0010225506 -0.0014680688 0.049895015 0.00087838236 -0.018793803
0.018195786 -0.0028219502 -0.001878314 -0.017384397 -0.017439261 -0.01579958 -0.0067139305 -0.008373794
0.007724706 0.003799153 -0.0065398705 -0.007485943 0.014138338 -0.020696506 0.0045785233 -0.004155927
-0.022477487 0.008511962 -0.031775173 -0.00027175914 -0.015508333 0.0001934163 -0.017687686 -0.02222107
-0.0016950615 0.01008565 0.014669446 0.027230809 0.014492729 0.008997518 0.022065995 -0.0068604597
0.011202018 0.007316781 -0.006875224 0.045690924 0.051147055 0.015298181 -0.0007096069 0.017855043
-0.032967307 0.0074777515 -0.009952528 -0.0055965018 -0.0042956066 -0.00041889708 0.017506659 -0.0352484
0.0015495601 -0.0067743645 -0.027763283 0.008832191 -0.01087101 0.013835826 0.010709758 0.0005279443
-0.018211072 0.00677017 0.004113961 -0.027144102 0.005729035 -0.011746635 0.039295625 0.025994373
0.024761174 0.017729847 -0.0072790044 -0.027653966 -0.02208755 -0.02669336 -0.0010075883 0.008594046
0.00356554 0.0091651045 -0.021133654 -0.0401509 -0.021512115 -0.012989419 -0.04599119 0.0016208526
00000000: 6a34 0ebc 29c9 80bc 5fa7 f13c 32f3 413c
00000010: 13d8 313c 93a1 0dbb 6f14 3dbc de6e 46bc
00000020: deca e6bc 0876 df3c e6da 3c3b d161 7cb9
00000030: 4515 1a3b 8bb2 8b3c c0a1 b8bb 12c9 53bb
00000040: 3ce8 a6bc 69d9 1c3c 1277 08bd 69cb 31bc
00000050: 77c5 2bbc 8e31 9cbc c306 c8bb 6d16 70bb
00000060: 1e9c 18ba 1c2c afba 6d48 ba3c f3e2 8cbc
00000070: c6f3 85bc d948 113c 9535 743b 082f 0f3d
00000080: 6554 263c 9e32 a5bc e404 84bb 0bdb 9dbb
00000090: 62e1 7fbb 0203 7239 2b08 e3bc b54c dd3b
000000a0: b874 83bb 29d4 80bc 0628 e23c 1b07 86ba
000000b0: 376c c0ba b75e 4c3d 3e43 663a 76f5 99bc
000000c0: 540f 953c 78f0 38bb c231 f6ba b969 8ebc
000000d0: c8dc 8ebc 1f6e 81bc 8800 dcbb 3d32 09bc
000000e0: 881f fd3b 36fb 783b 694c d6bb a44c f5bb
000000f0: 7da4 673c b88b a9bc 7007 963b 712e 88bb
00000100: b522 b8bc c275 0b3c af26 02bd e57a 8eb9
00000110: aa16 7ebc cbcf 4a39 c4e5 90bc f608 b6bc
00000120: d32c deba 483e 253c 1e58 703c 2513 df3c
00000130: e972 6d3c 536a 133c bfc3 b43c b5cd e0bb
00000140: ab88 373c 9cc1 ef3b 8f49 e1bb 6826 3b3d
00000150: 937f 513d 39a5 7a3c ea04 3aba bd44 923c
00000160: ba08 07bd ed07 f53b ee0f 23bc dc62 b7bb
00000170: 29c2 8cbb 6a9f dbb9 206a 8f3c a060 10bd
00000180: 9c1a cb3a 7dfb ddbb d36f e3bc e5b4 103c
00000190: 521c 32bc a9af 623c fb77 2f3c be65 0a3a
000001a0: 632f 95bc 4dd8 dd3b 68ce 863b 4f5d debc
000001b0: a1ba bb3b f574 40bc 73f4 203d 27f2 d43c
000001c0: f2d7 ca3c 2f3e 913c b784 eebb 928a e2bc
000001d0: f3f0 b4bc 09ac dabc 0e11 84ba 0bce 0c3c
000001e0: d6ab 693b 3c29 163c 7c20 adbc 4575 24bd
000001f0: 2d3a b0bc 92d1 54bc 4261 3cbd ca72 d43a

action_model._continuous_distribution.log_sigma f4 [1, 2]
0.05606424 0.0430945
00000000: 9ea3 653d dc83 303d

action_model._continuous_distribution.mu.weight f4 [2, 128]
-0.015583499 -0.00013182026 -0.061029144 -0.02940914 0.002282456 0.020815095 -0.042349275 -0.027749479
-0.002906455 -0.040017735 0.025240684 0.006945159 -0.01375185 0.0077531957 -0.02562354 0.011268843
-0.003715087 0.013802305 -0.025766607 0.014745373 0.0245257 -0.020556884 8.3668245e-05 0.025241518
-0.014554603 -0.0046051256 -0.012461842 0.0063643926 0.01566822 -0.040675145 -0.0077407826 0.042339023
-0.039531734 -0.021334676 -0.0068714092 0.021863865 0.026406392 0.04734785 -0.025416076 0.013233703
-0.0111608375 -0.004523441 0.01865244 -0.01990673 0.011599797 -0.019504316 0.008163775 0.016124384
-0.062485475 -0.019687504 0.0008805813 -0.0009663803 -0.004213187 -0.017005455 0.044166643 0.017578915
-0.025285235 0.027691474 0.034508605 -0.017696867 -0.017613448 -0.0034701223 -0.018451683 -0.033514712
0.0041479124 -0.028588371 -0.0028428568 0.03117714 0.01448126 0.015445917 -0.013407811 -0.008991041
0.00890207 -0.000105538646 -0.010827326 -0.021961655 0.033356935 -0.023038398 0.03719429 0.021538232
-0.0056242896 -0.025790991 0.0047374624 0.027892554 0.067940556 -0.028099664 0.005105124 0.073338315
-0.008506638 -0.012382663 -0.026923558 -0.0206613 -0.020409316 0.034894954 -0.03088191 -0.0132393325
0.015414973 -0.0045595476 -0.004494954 -0.016010549 -0.00029253864 0.028213229 -0.0545386 0.03116708
-0.016858343 -0.018329449 -0.03281963 0.010590936 0.009301667 0.003695757 0.043880574 -0.05429467
0.044284705 -0.005201342 -0.012712888 0.0010910354 0.004919253 0.00023446011 0.020953363 -0.050210636
0.019817857 -0.0025565946 -0.012631773 0.0123694 0.008465252 -0.024934754 0.0017978023 0.03398799
-0.027694704 -0.0051264777 -0.010723884 -0.028211603 0.018580211 0.014174527 0.013016132 0.03461673
0.018979514 -0.04748793 -0.01799128 0.013000032 -0.025242925 -0.025329806 0.030568242 0.036839288
0.0040852954 -0.04386996 0.004056834 0.005693778 0.024688827 0.03254836 0.03833414 -0.0051300423
0.027559647 -0.019026298 -0.055920564 -0.01667373 0.039189238 0.027737312 0.04726141 -0.04957372
-0.02691724 -0.0009973 -0.020810034 -0.0158862 0.012062453 0.014062682 -0.0029432531 -0.028084029
0.034190964 0.005772905 0.02439746 0.019897792 0.019818239 -0.059993565 0.019365896 0.012178079
-0.0035425352 0.010748749 0.04642238 0.03802242 0.033836298 0.020784127 -0.033663217 0.019807916
-0.034401927 0.017612392 0.016090604 -0.006464958 -0.0299023 0.0027791725 0.029947594 0.025802862
0.008227276 -0.018257452 0.017731473 0.0468462 0.03714436 0.0153749585 -0.009203755 0.014262912
-0.013487089 -0.030778421 -0.029243406 0.012595789 -0.0044033746 -0.00016353834 0.007154193 -0.0015137157
-0.023628425 -0.021058884 0.005799931 -0.044793785 -0.025909701 -0.053060345 -0.014064586 -0.004383236
0.0067878924 0.016858479 0.026788749 0.043110956 -0.0006068824 -0.0029636046 0.0032674284 0.03127412
0.024498275 -0.0018110934 -0.0022181093 -0.0085266605 -0.01503249 -0.025285775 0.022772232 -0.021051705
-0.0031646611 0.029079515 0.012504728 0.0064275493 -0.019120479 0.031493723 -0.040585835 -0.01788783
0.030577492 -0.032407142 -0.028518137 -0.0047442126 -0.0025876698 0.01105227 0.014655863 0.007266483
0.008307257 0.026478378 0.019982003 0.025442053 0.019731332 0.017648928 0.024849625 0.028656835
00000000: ef51 7fbc 3b39 0ab9 b2f9 79bd 70eb f0bc
00000010: 4295 153b 6b84 aa3c 6f76 2dbd e052 e3bc
00000020: 397a 3ebb a3e9 23bd 8dc5 ce3c 3794 e33b
00000030: 714f 61bc 850e fe3b 75e8 d1bc f4a0 383c
00000040: d178 73bb 1023 623c 7e14 d3bc 9496 713c
00000050: 1fea c83c e966 a8bc 0c77 af38 4dc7 ce3c
00000060: 6e76 6ebc 98e6 96bb c12c 4cbc 658c d03b
00000070: a45a 803c fb9a 26bd 64a6 fdbb af6b 2d3d
00000080: 07ec 21bd 0fc6 aebc 8f29 e1bb d91b b33c
00000090: 3852 d83c d2ef 413d 6035 d0bc 2cd2 583c
000000a0: f2db 36bc 6039 94bb 00cd 983c 7013 a3bc
000000b0: 130d 3e3c 84c7 9fbc 5bc1 053c 4917 843c
000000c0: c5f0 7fbd b047 a1bc d0d6 663a af54 7dba
000000d0: c60e 8abb 064f 8bbc 15e8 343d a801 903c
000000e0: fb22 cfbc 3bd9 e23c e558 0d3d 05f9 90bc
000000f0: 144a 90bc fe6a 63bb fc27 97bc b946 09bd
00000100: 36eb 873b 2932 eabc 394f 3abb 3467 ff3c
00000110: cf42 6d3c df10 7d3c 6fac 5bbc 294f 13bc
00000120: fdd9 113c a154 ddb8 1965 31bc eee8 b3bc
00000130: 48a1 083d 06bb bcbc 0a59 183d f270 b03c
00000140: f64b b8bb a147 d3bc b73c 9b3b ed7e e43c
00000150: 6b24 8b3d 4431 e6bc e248 a73b 6632 963d
00000160: 6d5f 0bbc a7e0 4abc cb8e dcbc e341 a9bc
00000170: 7031 a7bc 03ee 0e3d 0ffc fcbc c9e9 58bc
00000180: 158f 7c3c 4268 95bb 684a 93bb 8e28 83bc
00000190: df5f 99b9 6e1f e73c de63 5fbd 1b52 ff3c
000001a0: 821a 8abc a427 96bc e06d 06bd 9b85 2d3c
000001b0: 0566 183c 8334 723b 1ebc 333d 1664 5ebd
000001c0: e163 353d 0570 aabb b849 50bc 1301 8f3a
000001d0: af31 a13b 68d9 7539 63a6 ab3c aba9 4dbd
000001e0: 0f59 a23c 8a8c 27bb 7ff5 4ebc 06a9 4a3c
000001f0: d7b1 0a3c f843 ccbc 3ca4 eb3a fe36 0b3d
00000200: 01e0 e2bc 03fc a7bb 3bb3 2fbc 051c e7bc
00000210: 8735 983c 463c 683c 9d41 553c 46ca 0d3d
00000220: ed7a 9b3c b482 42bd 7362 93bc 16fe 543c
00000230: 40ca cebc 7480 cfbc 406a fa3c cbe4 163d
00000240: f1dd 853b fdb0 33bd 31ef 843b df92 ba3b
00000250: 3940 ca3c 6e51 053d 4204 1d3d ea19 a8bb
00000260: c5c4 e13c 0add 9bbc f60c 65bd 5997 88bc
00000270: e584 203d 5c39 e33c 2e95 413d d00d 4bbd
00000280: 8b81 dcbc d6b7 82ba ce79 aabc c723 82bc
00000290: 98a1 453c 2a67 663c 98e3 40bb 7a10 e6bc
000002a0: d30b 0c3d a32a bd3b 2fdd c73c b200 a33c
000002b0: dc59 a23c d0bb 75bd 3aa5 9e3c 9186 473c
000002c0: e129 68bb 851b 303c 6525 3e3d 66bd 1b3d
000002d0: ee97 0a3d 7943 aa3c 71e2 09bd 3644 a23c
000002e0: 09e9 0cbd dd47 903c 71d0 833c 00d8 d3bb
000002f0: abf5 f4bc c722 363b a854 f53c 8660 d33c
00000300: b2cb 063c a790 95bc 9841 913c cde1 3f3d
00000310: af24 183d 40e7 7b3c 59cb 16bc fdae 693c
00000320: f4f8 5cbc 0723 fcbc de8f efbc 915e 4e3c
00000330: 2f4a 90bb 7d7b 2bb9 b86d ea3b df67 c6ba
00000340: 6690 c1bc ae83 acbc 590d be3b b079 37bd
00000350: 9540 d4bc ce55 59bd 266f 66bc 40a1 8fbb
00000360: f86c de3b cb1a 8a3c 1474 db3c 1d95 303d
00000370: 3017 1fba 0939 42bb 5a22 563b 4b19 003d
00000380: 9bb0 c83c 3662 edba b35d 11bb 68b3 0bbc
00000390: d54a 76bc 1d24 cfbc d58c ba3c a074 acbc
000003a0: 3466 4fbb 2a38 ee3c a1e0 4c3c 319e d23b
000003b0: 8da2 9cbc 90ff 003d 553d 26bd 8089 92bc
000003c0: a67d fa3c 5abd 04bd de9e e9bc 5775 9bbb
000003d0: e595 29bb 9514 353c 251f 703c ad1b ee3b
000003e0: 291b 083c 2fe9 d83c 4cb1 a33c da6b d03c
000003f0: 9aa3 a13c 7c94 903c 7191 cb3c bdc1 ea3c

action_model._continuous_distribution.mu.bias f4 [2]
0.0052274163 -0.012328143
00000000: bf4a ab3b fbfb 49bc

action_model._discrete_distribution.branches.0.weight f4 [2, 128]
0.0024165476 -0.008155424 0.0011585975 0.009397943 0.0029791347 0.027446812 -0.02220498 -0.0024081992
-0.017027281 -0.0066267904 -0.014093825 0.010776852 -0.0075364686 0.002758597 -0.016498918 0.02286793
-0.006303493 -0.003275302 -0.011344971 -0.014211149 0.008258148 -0.006853508 -0.030076686 -0.010268228
0.029688604 -0.0069638933 0.007655358 -0.009946103 -0.008483438 -0.008365863 0.017999439 0.005297059
-0.004404749 -0.0004183181 -0.008240364 -0.0119084185 0.009335919 0.015443301 -0.018734725 -0.023906948
0.0021353404 -0.009031919 0.017673435 0.012461842 0.014263083 0.007292973 0.017177708 -0.0007525332
0.0025652286 0.0024415334 -0.008310925 0.00084049767 0.00044813912 -0.0045553725 0.010796453 -0.0104706
-0.007238104 -0.028026365 8.552603e-05 -0.004090099 0.009931177 -0.001666314 -0.0024350893 -0.015830407
-0.011625293 0.0041212835 -0.007884237 0.008198023 -0.017389724 -0.005889385 0.006956898 -0.018110452
-0.014186232 -0.00044322677 0.016187701 0.014344766 0.007987984 0.023960453 0.0015964032 0.009133591
0.006149996 -0.010251958 0.00069390185 0.011479409 0.012986838 -0.000531772 -0.0050949664 0.0074091903
-0.01384171 -6.9452355e-05 0.008478217 0.0034430665 0.0064359554 -0.003904384 0.005169917 0.003149658
0.0099233985 0.015896594 -0.0011381267 -0.0039947727 -0.0003781402 -0.012381855 0.0033394971 -0.0101016415
-0.007343571 0.0016100706 -0.0011005468 -0.006328381 -0.017020024 0.0082377745 -0.01375567 0.019391492
0.026689082 0.022745332 0.0028086267 0.0036373877 5.4129927e-05 -0.007878604 -0.0042350735 0.035629332
0.004370216 -0.014745721 0.0033750273 -0.017911784 0.0046273964 0.0011309688 -0.023448758 0.0102307955
0.0013743362 -0.004811229 0.007849969 0.0046198317 -0.009687748 0.0026969023 0.030949246 0.023611585
0.014711079 -0.005817666 0.005006307 -0.006808921 -0.009433529 0.00032467284 0.00077651406 -0.009728072
0.0064279092 0.007600176 0.004341247 0.016005063 -0.011066236 0.0038382318 0.016835904 0.011268145
-0.03437492 -0.0042899568 -0.0016765876 0.027716478 0.01583323 -0.013211451 -0.0012080892 0.014243268
-0.01686254 0.015443521 -0.0035119178 0.002444084 0.0014125599 0.0005491965 -0.00020294773 -0.0040959883
-0.02606608 0.01433887 -0.0054347347 -0.023006383 -0.0055614123 -0.019894155 1.1977192e-05 0.007976982
-0.008449823 -0.008236802 0.0078750355 0.010389037 -0.012891654 0.0066705877 -0.0022797026 0.010085471
0.0034701785 0.022702916 0.00029970735 0.006951681 -0.018702341 0.0009956086 0.02110187 0.006444413
0.0020114016 -0.0019687517 0.0061671524 -0.0044915294 0.015571743 0.014144744 -0.0019880978 0.0173
0.005960002 -0.008354677 -0.0009832227 -0.028303824 -0.0122127095 -0.014805394 -0.015619254 0.006832989
-0.008623402 -0.00056126434 -0.003069128 -0.02164114 -0.03166741 0.0036209633 -0.0013879383 -0.01721648
0.0114611 0.009103897 0.011162474 0.003935926 -0.0030682443 0.0057058004 -0.00044088528 0.008163104
-0.03188391 0.0056441957 0.008157131 -0.021038057 0.011123629 0.0030879946 0.0019811653 0.0069169444
-0.002072427 -0.016134005 -0.017941132 -0.007855465 0.011087344 0.008578516 0.013033656 0.009279535
-0.016948873 -0.009618954 0.00013880256 -0.011083187 0.0059190234 0.012903979 -0.010392017 -0.008222738
0.0046092332 0.025972668 0.015515344 0.01680026 0.0031994507 -0.009676913 0.022286197 -0.0018837174
00000000: f15e 1e3b 549e 05bc 15dc 973a d4f9 193c
00000010: 963d 433b 23d8 e03c 38e7 b5bc e1d2 1dbb
00000020: cc7c 8bbc 8c25 d9bb c9e9 66bc 6591 303c
00000030: 7bf4 f6bb 94c9 343b bd28 87bc 8655 bb3c
00000040: 888d cebb 73a6 56bb 42e0 39bc e1d5 68bc
00000050: 2f4d 073c 6493 e0bb 6263 f6bc 123c 28bc
00000060: 8435 f33c 5f31 e4bb ccd9 fa3b fbf4 22bc
00000070: 1efe 0abc f910 09bc 8f73 933c f492 ad3b
00000080: b655 90bb b451 dbb9 9702 07bc 871b 43bc
00000090: aff5 183c e605 7d3c 9179 99bc 81d8 c3bc
000000a0: 11f1 0b3b 9dfa 13bc e1c7 903c c12c 4c3c
000000b0: b5af 693c e4f9 ee3b 44b8 8c3c a645 45ba
000000c0: 651d 283b 2202 203b 8c2a 08bc d854 5c3a
000000d0: 37f4 ea39 3c45 95bb 9be3 303c e18c 2bbc
000000e0: 9e2d edbb 8c97 e5bc 705c b338 3d06 86bb
000000f0: 60b6 223c 3868 daba 0596 1fbb c5ae 81bc
00000100: 0378 3ebc d50b 873b e32c 01bc 0051 063c
00000110: e574 8ebc befb c0bb b1f6 e33b 5f5c 94bc
00000120: 5f6d 68bc e460 e8b9 129c 843c 4f06 6b3c
00000130: 09e0 023c b648 c43c 673e d13a 0fa5 153c
00000140: e885 c93b d4f7 27bc f7e6 353a 2214 3c3c
00000150: bfc6 543c 9d66 0bba adf3 a6bb cbc8 f23b
00000160: 57c8 62bc f3a6 91b8 38e8 0a3c 12a5 613b
00000170: b5e4 d23b b2e0 7fbb 6868 a93b 7e6a 4e3b
00000180: c095 223c 9339 823c 322d 95ba 95e6 82bb
00000190: 1e41 c6b9 44dd 4abc 77db 5a3b 5b81 25bc
000001a0: 57a2 f0bb 0109 d33a 3940 90ba 4f5e cfbb
000001b0: 946d 8bbc bbf7 063c 765f 61bc e8da 9e3c
000001c0: 10a3 da3c 6b54 ba3c f010 383b 3d61 6e3b
000001d0: 9109 6338 4315 01bc 5fc6 8abb 10f0 113d
000001e0: 0734 8f3b 0998 71bc 902f 5d3b bcbb 92bc
000001f0: 6aa1 973b 043d 943a 9c17 c0bc 119f 273c
00000200: 1223 b43a 84a7 9dbb 289d 003c f561 973b
00000210: 5cb9 1ebc 83be 303b 4689 fd3c 156d c13c
00000220: bd06 713c 1fa2 bebb f20b a43b 5f1d dfbb
00000230: 178f 1abc da38 aa39 fa8e 4b3a 7e62 1fbc
00000240: 36a1 d23b e60a f93b 0541 8e3b 0d1d 833c
00000250: 284f 35bc d88a 7b3b 73eb 893c 079e 383c
00000260: b7cc 0cbd c492 8cbb f2c0 dbba ab0d e33c
00000270: b1b4 813c d774 58bc bf58 9eba 995c 693c
00000280: 4f23 8abc d206 7d3c 3428 66bb ed2c 203b
00000290: a525 b93a f4f7 0f3a 5ece 54b9 a437 86bb
000002a0: 8888 d5bc 94ed 6a3c dc15 b2bb e277 bcbc
000002b0: 823c b6bb 11f9 a2bc a6f1 4837 e3b1 023c
000002c0: 2071 0abc a7f3 06bc 4b06 013c c836 2a3c
000002d0: 8437 53bc f294 da3b 1067 15bb 883d 253c
000002e0: ef6b 633b 77fb b93c 0a22 9d39 edca e33b
000002f0: a735 99bc 157f 823a d4dd ac3c a82b d33b
00000300: b8d1 033b 2c06 01bb d315 ca3b ae2d 93bb
00000310: a020 7f3c 5bbf 673c bf4a 02bb bbb8 8d3c
00000320: 1f4c c33b 0ee2 08bc 7bdf 80ba 6cdd e7bc
00000330: d117 48bc 5392 72bc e6e7 7fbc 44e7 df3b
00000340: 2b49 0dbc d021 13ba 6c23 49bb c348 b1bc
00000350: b0b5 01bd af4d 6d3b 7beb b5ba 9309 8dbc
00000360: 56c7 3b3c 8328 153c cfe2 363c f1f8 803b
00000370: 9914 49bb b9f7 ba3b 9f26 e7b9 8abe 053c
00000380: b498 02bd f2f2 b83b 7da5 053c 0158 acbc
00000390: e23f 363c f45f 4a3b 70d6 013b 89a7 e23b
000003a0: 8ed1 07bb 762b 84bc 48f9 92bc 35b4 00bc
000003b0: b1a7 353c e78c 0c3c 1e8b 553c 3109 183c
000003c0: 5dd8 8abc d198 1dbc 878b 1139 4196 35bc
000003d0: 5ef4 c13b 366b 533c 4743 2abc aab8 06bc
000003e0: 0d09 973b a2c4 d43c 1234 7e3c b3a0 893c
000003f0: e0ad 513b ea8b 1ebc 8b91 b63c 11e7 f6ba

action_model._discrete_distribution.branches.0.bias f4 [2]
0.008880104 -0.008880115
00000000: db7d 113c e77d 11bc

exp_avg f4 [128, 4]
0.0012382291 -0.0007005135 9.171446e-05 0.00026198482 -9.1371745e-05 0.00047902015 0.00012574211 0.00030980827
-0.00057583983 -0.00087324384 -0.00029499162 -0.0017457798 -0.00010150797 -0.0012503437 -0.00021933344 -0.0011005502
-0.0003450791 0.0004527804 -0.00026141948 -0.0001259665 6.371015e-05 0.0002522177 -0.0002203639 -0.0002511105
-0.00023720399 7.050382e-05 -1.8504774e-05 -0.0001907146 -0.00016231101 0.0008495228 0.0001252054 0.00026793373
-0.0005127946 0.00025685233 -6.945661e-05 -0.00038444516 -0.00028382195 0.00030740714 0.00027625114 0.0004549363
0.00016725551 -8.422043e-05 4.850093e-05 -3.6777958e-05 -0.00091068965 -0.00028257738 -0.00042203785 -0.0007383093
-0.00033563565 0.00015973017 -0.00025111242 -3.2298893e-05 0.00010889785 0.00022654104 4.2861925e-06 0.00015354005
-0.0007188285 0.000298968 0.00033357608 -8.5993604e-05 -0.00044568838 -0.00068212877 -0.0006166463 -0.00069449685
-0.00034250834 0.0008731844 -0.00020015467 0.00010483557 0.0001999678 0.00015522647 2.0714637e-05 -5.4700504e-06
5.7202084e-05 0.00014772794 -7.508287e-05 -0.00024785392 0.00039867556 -0.0006279668 0.0002902676 -0.0003714149
-6.398768e-05 -0.0006296777 -0.00022751534 -0.00028865805 -0.00033787478 2.8459286e-05 -1.7592925e-05 -0.00048204573
-0.0005613865 0.00074668403 0.00020611194 0.0012392828 -0.00015430454 -9.4058004e-07 -0.00039682726 -1.9582207e-05
-3.5383364e-05 0.00032874625 0.000102712984 0.0007969338 -0.00060040253 0.0005011592 -0.00066761614 0.0007983323
-0.0007911192 -0.00053751364 0.00020653657 -0.0010326066 8.6362015e-05 0.00040631107 0.00040541656 0.00039955712
-0.0011160476 -0.0010801053 -0.0011387512 -0.0007290938 -0.00067858153 0.00027551103 -0.00026918968 -0.000112881455
0.00021086518 0.0003368408 0.00012122155 -0.0002449808 -0.00035995274 7.6544355e-05 0.00014631303 4.931017e-05
0.0005129246 -4.763265e-06 0.00018485045 0.00012168529 0.00076161756 -0.00021018973 0.00013321098 9.214718e-05
0.00022764414 -0.0006030411 5.298721e-05 -0.0010913683 -0.0019095031 0.00057978346 -0.00057757384 0.0004757718
0.00016869864 -0.0004695727 0.00019480442 -0.00060475414 -2.6505977e-05 0.00083461584 0.000592228 0.00033773543
0.00022767906 -0.000586128 -0.00030007178 -0.00021184378 0.000499737 0.00055487466 0.0006485337 0.0002701308
-0.0007936731 7.452652e-05 -0.00034184803 0.0004950316 -0.00024170663 -0.0004032468 -0.0002588311 -0.00072892144
-7.625055e-05 -0.00010800264 -0.00017234783 -0.00027122998 0.0005368739 0.00012985221 0.00031303748 9.606356e-06
0.00075963413 -0.0009260373 0.00016913204 -0.00032152823 -0.00018589378 0.0007710763 0.00040752467 0.00040898906
-0.00022324863 0.001127589 0.0005825153 0.001356227 -0.00040129854 0.00064738595 -0.00042788728 0.000790475
0.00011359907 -0.00039178683 0.00016836528 -0.0003600177 -0.00050652056 0.0005170651 -0.00017738689 0.0001680773
0.00046648394 0.0005268545 0.00063779455 0.0006288465 -0.00019842217 -0.00016403798 -0.0005231457 5.805844e-06
9.153423e-05 -4.060262e-05 3.9426814e-05 -0.00034067218 -9.7773074e-05 0.0007458804 0.00056837365 0.0003973808
-0.00071662286 0.0013684845 0.000489685 0.0009893851 8.855829e-05 -0.00011258939 0.00038016017 -0.00013125458
-0.0010280248 0.00091195275 0.00014099035 0.0017199904 1.4438626e-05 0.0006990274 0.00036991824 0.00018783135
1.1405081e-05 -0.00038256505 -0.00016893218 -0.00044114894 -0.000611048 -8.474153e-05 -0.0002870444 0.00054971356
-5.2966763e-05 0.00011275423 -0.00012456057 9.19068e-05 -0.00083296094 0.00071453094 -0.00049729994 9.0418274e-05
-0.00057418726 -0.0006984966 -0.00039831488 -0.00063754607 -3.6614696e-05 -0.0005085253 -0.00022566838 -0.0007316509
00000000: 134c a23a aaa2 37ba d356 c038 025b 8939
00000010: d59e bfb8 ff24 fb39 a4d9 0339 c36d a239
00000020: f5f3 16ba 67ea 64ba 1ba9 9ab9 a6d2 e4ba
00000030: ade0 d4b8 93e2 a3ba dffc 65b9 5640 90ba
00000040: bceb b4b9 2863 ed39 210f 89b9 e015 04b9
00000050: 209c 8538 163c 8439 7c11 67b9 7ba7 83b9
00000060: f6b9 78b9 73db 9338 b33a 9bb7 90fa 47b9
00000070: 0832 2ab9 83b2 5e3a 9249 0339 7579 8c39
00000080: 106d 06ba 23aa 8639 3ca9 91b8 5b8f c9b9
00000090: f0cd 94b9 7d2b a139 cdd5 9039 8484 ee39
000000a0: 4f61 2f39 809f b0b8 7a6d 4b38 0842 1ab8
000000b0: 59bb 6eba e526 94b9 f644 ddb9 198b 41ba
000000c0: 41f8 afb9 3e7d 2739 bda7 83b9 ac78 07b8
000000d0: 1760 e438 a68b 6d39 1dd2 8f36 98ff 2039
000000e0: c46f 3cba cebe 9c39 d3e3 ae39 7757 b4b8
000000f0: 48ab e9b9 e3d0 32ba 6fa6 21ba e50e 36ba
00000100: b192 b3b9 6ae6 643a 9ce0 51b9 2bdb db38
00000110: 73ae 5139 4ac4 2239 58c4 ad37 608b b7b6
00000120: 45ec 6f38 6be7 1a39 cf75 9db8 64f2 81b9
00000130: 5405 d139 239e 24ba 0f2f 9839 77ba c2b9
00000140: 2031 86b8 f510 25ba 2f91 6eb9 0757 97b9
00000150: c924 b1b9 dabb ee37 8594 93b7 15bb fcb9
00000160: 032a 13ba 1ebd 433a c11f 5839 6e6f a23a
00000170: cfcc 21b9 2b7c 7cb5 410d d0b9 7844 a4b7
00000180: 9968 14b8 935b ac39 9d67 d738 52e9 503a
00000190: 5564 1dba 3960 033a f602 2fba 2c47 513a
000001a0: 1c63 4fba eee7 0cba bd91 5839 8758 87ba
000001b0: 411d b538 2606 d539 178e d439 a67b d139
000001c0: 5848 92ba 5292 8dba 2642 95ba a820 3fba
000001d0: d6e2 31ba 7772 9039 0722 8db9 c5ba ecb8
000001e0: b11b 5d39 029a b039 5338 fe38 c470 80b9
000001f0: 0ab8 bcb9 7086 a038 9b6b 1939 64d2 4e38
00000200: ca75 063a 23d4 9fb6 6ad4 4139 4b31 ff38
00000210: 4aa7 473a 6066 5cb9 8dae 0b39 243f c138
00000220: c2b3 6e39 6715 1eba 953e 5e38 3e0c 8fba
00000230: 4b48 faba 9cfc 173a 5368 17ba 0371 f939
00000240: b2e4 3039 fb30 f6b9 6a44 4c39 5d88 1eba
00000250: 2759 deb7 1fca 5a3a c03f 1b3a 1512 b139
00000260: 22bd 6e39 62a6 19ba f452 9db9 6222 5eb9
00000270: c800 033a 0275 113a 5c02 2a3a 58a0 8d39
00000280: 800e 50ba 1f4b 9c38 113a b3b9 02c5 013a
00000290: a172 7db9 df6a d3b9 b9b3 87b9 1715 3fba
000002a0: b4e8 9fb8 7a7f e2b8 45b8 34b9 df33 8eb9
000002b0: ffbc 0c3a f028 0839 2e1f a439 fc2a 2137
000002c0: 2f22 473a 50c1 72ba 0959 3139 ca92 a8b9
000002d0: 7bec 42b9 0e22 4a3a 09a9 d539 956d d639
000002e0: d917 6ab9 9ccb 933a f1b3 183a 6dc3 b13a
000002f0: 6165 d2b9 56b5 293a 0f56 e0b9 e137 4f3a
00000300: 093c ee38 bd68 cdb9 368b 3039 c2c0 bcb9
00000310: 05c8 04ba a78b 073a ee00 3ab9 e83d 3039
00000320: 6a92 f439 9b1c 0a3a ab31 273a 2dd9 243a
00000330: 8c0f 50b9 9c01 2cb9 b723 09ba d2cf c236
00000340: 11f6 bf38 bb4c 2ab8 385e 2538 3f9c b2b9
00000350: 850b cdb8 3087 433a e9fe 143a 8c57 d039
00000360: bfdb 3bba b85e b33a 345e 003a 41ae 813a
00000370: 5fb8 b938 f81d ecb8 3c50 c739 62a1 09b9
00000380: cabe 86ba 1d10 6f3a cfd6 1339 4d71 e13a
00000390: 6d3d 7237 ef3e 373a 96f1 c139 98f4 4439
000003a0: 7358 3f37 0393 c8b9 6323 31b9 024a e7b9
000003b0: bd2e 20ba 43b7 b1b8 727e 96b9 a71a 103a
000003c0: a128 5eb8 7776 ec38 799c 02b9 16be c038
000003d0: 105b 5aba 5c4f 3b3a 3c5d 02ba f19e bd38
000003e0: 0e85 16ba 501b 37ba ebd4 d0b9 fe20 27ba
000003f0: bb92 19b8 8e4e 05ba 65a1 6cb9 43cc 3fba

exp_avg_sq f4 [128, 4]
1.969008e-05 1.4253602e-05 1.6216205e-05 1.3669238e-05 6.7194874e-06 1.1097246e-05 5.980381e-06 8.644973e-06
1.1872954e-05 1.0363611e-05 8.236345e-06 1.02793165e-05 1.1121945e-05 1.0746123e-05 8.6944565e-06 8.938251e-06
1.2028671e-05 6.1806545e-06 8.076967e-06 7.0743436e-06 2.1853898e-06 1.5114439e-06 1.6086559e-06 1.3917506e-06
1.538338e-06 8.658297e-07 9.821515e-07 7.6720175e-07 3.7442653e-06 3.7283685e-06 2.500065e-06 2.9531143e-06
1.498643e-05 2.1784981e-05 1.0842129e-05 1.7977722e-05 2.0803566e-06 2.4932633e-06 1.6659434e-06 2.7328533e-06
4.997317e-07 3.2361018e-07 4.503544e-07 2.9670758e-07 7.462657e-06 3.1724078e-06 4.887845e-06 3.5764447e-06
1.8120965e-06 1.3032338e-06 9.920475e-07 1.27507e-06 1.1106024e-06 1.2414403e-06 8.796303e-07 1.1153345e-06
7.2960534e-06 8.491408e-06 6.290282e-06 8.005869e-06 2.1959352e-06 2.469273e-06 1.7909329e-06 2.3830478e-06
6.13803e-06 4.97256e-06 5.613564e-06 4.3778336e-06 2.161287e-06 6.511473e-07 1.2886757e-06 9.5267904e-07
4.3032123e-06 2.3447835e-06 3.1209722e-06 2.8683828e-06 4.300418e-06 4.223982e-06 3.6305191e-06 3.982053e-06
3.211458e-06 9.2907453e-07 1.852102e-06 1.0510668e-06 1.6443953e-06 1.6248935e-06 1.3881239e-06 1.3781304e-06
3.9315482e-06 1.9431463e-06 3.5817611e-06 2.310198e-06 2.4027363e-06 4.1417006e-06 1.95002e-06 3.1913885e-06
1.7562148e-06 1.3252524e-06 1.5800757e-06 1.1580644e-06 1.4856706e-06 2.9911323e-06 1.4980194e-06 2.6597074e-06
1.7050692e-05 6.6693538e-06 1.3364219e-05 7.4472264e-06 2.5731376e-06 2.421141e-06 2.1512014e-06 2.3483228e-06
5.087152e-06 5.204436e-06 3.4844134e-06 4.2609536e-06 5.7116085e-06 4.6417485e-06 3.3447714e-06 4.413686e-06
5.321551e-06 4.2239603e-06 4.3341433e-06 4.2712454e-06 5.5170744e-06 4.3383034e-06 4.6507494e-06 4.1549124e-06
3.7378604e-06 4.9054643e-06 2.8870804e-06 4.600774e-06 1.622723e-06 9.239383e-07 1.1259609e-06 9.978477e-07
1.9636627e-06 2.9554988e-06 1.8877411e-06 2.5373056e-06 1.2519829e-05 1.2163492e-05 9.478255e-06 1.1433569e-05
1.8364439e-06 8.084422e-07 1.1515955e-06 1.0338246e-06 1.1640568e-06 2.0305538e-06 1.3523e-06 2.1129943e-06
1.884172e-06 1.8990648e-06 1.5505619e-06 1.5424598e-06 3.854827e-06 5.257481e-06 3.603733e-06 4.5741276e-06
2.163737e-06 1.4271296e-06 1.6997766e-06 1.2672814e-06 3.0399174e-06 9.2899705e-07 1.7437752e-06 9.962326e-07
5.505754e-07 4.804411e-07 4.3077168e-07 4.4931582e-07 2.446034e-06 1.1049157e-06 2.3389357e-06 1.107922e-06
1.1190723e-05 9.2889495e-06 8.536641e-06 8.391975e-06 1.4440118e-06 1.170369e-06 1.2423093e-06 1.0128587e-06
5.370482e-06 6.427085e-06 4.333459e-06 5.687402e-06 2.594678e-06 2.3863224e-06 1.7002085e-06 2.574403e-06
1.4424725e-06 1.6819714e-06 1.0680119e-06 1.5161595e-06 1.2933605e-06 5.9480357e-07 1.2019303e-06 6.119485e-07
5.5208266e-06 2.9167131e-06 4.2053935e-06 2.937892e-06 2.346532e-06 3.288643e-06 1.8023919e-06 2.6820223e-06
7.878224e-07 6.8570574e-07 6.285094e-07 6.996175e-07 4.6479495e-06 2.703976e-06 4.1042213e-06 2.8056127e-06
1.1402325e-05 1.2561631e-05 9.870826e-06 1.1050616e-05 1.3012699e-06 1.739685e-06 1.2193344e-06 1.2722942e-06
5.9957083e-06 6.0042958e-06 5.3424237e-06 6.129007e-06 1.3025389e-06 1.4237776e-06 1.0392779e-06 1.5313038e-06
2.4876335e-06 1.3389781e-06 1.7809867e-06 1.1935063e-06 1.0909633e-05 1.15224175e-05 9.204238e-06 8.9501655e-06
4.2976603e-06 4.5406014e-06 3.572321e-06 3.7824013e-06 1.0166957e-05 8.709125e-06 8.181747e-06 7.928244e-06
1.4251514e-06 2.1117862e-06 1.4215976e-06 1.9251986e-06 1.1144326e-06 1.1995602e-06 1.033187e-06 1.1146282e-06
00000000: 202c a537 c122 6f37 0908 8837 ee54 6537
00000010: f577 e136 4f2e 3a37 15ab c836 e009 1137
00000020: f331 4737 5fdf 2d37 d52e 0a37 5475 2c37
00000030: 6498 3a37 3f4a 3437 68de 1137 7ff5 1537
00000040: c0ce 4937 6b63 cf36 4f82 0737 2660 ed36
00000050: b6a8 1236 d1dc ca35 ffe8 d735 30cc ba35
00000060: e478 ce35 5d6b 6835 78d2 8335 b4f1 4d35
00000070: fd45 7b36 e234 7a36 cac6 2736 1e2e 4636
00000080: 3a6e 7b37 e4be b637 97e6 3537 ddce 9637
00000090: 419c 0b36 f051 2736 6199 df35 1066 3736
000000a0: 4d25 0635 a5bc ad34 3dc8 f134 2e4b 9f34
000000b0: bc67 fa36 8de5 5436 4502 a436 da02 7036
000000c0: 2937 f335 c6ea ae35 7e26 8535 1223 ab35
000000d0: 0210 9535 909f a635 bc1f 6c35 9ab2 9535
000000e0: 9fd0 f436 5276 0e37 1c11 d336 f250 0637
000000f0: e15d 1336 cab5 2536 fc5f f035 73ec 1f36
00000100: 47f5 cd36 f7d9 a636 265c bc36 4ee5 9236
00000110: a10a 1136 80ca 2e35 8ff6 ac35 9bbb 7f35
00000120: 5064 9036 135b 1d36 e571 5136 717e 4036
00000130: 4f4c 9036 bbbb 8d36 d8a3 7336 939d 8536
00000140: 6e84 5736 8465 7935 bd95 f835 6112 8d35
00000150: feb4 dc35 ea16 da35 934f ba35 33f8 b835
00000160: beeb 8336 0067 0236 305e 7036 e608 1b36
00000170: b23e 2136 f0f8 8a36 17dd 0236 a32b 5636
00000180: 15b7 eb35 53df b135 fd12 d435 ca6e 9b35
00000190: 4167 c735 43bb 4836 8e0f c935 6d7d 3236
000001a0: 1508 8f37 50c9 df36 e236 6037 30e3 f936
000001b0: 2bae 2c36 e37a 2236 5c5d 1036 e197 1d36
000001c0: 4eb2 aa36 c4a1 ae36 c4d5 6936 50f9 8e36
000001d0: 58a6 bf36 51c0 9b36 bc76 6036 4619 9436
000001e0: c68f b236 8bbb 8d36 026e 9136 b851 8f36
000001f0: 4f1f b936 be91 9136 a20d 9c36 6d6a 8b36
00000200: f4d7 7a36 9e99 a436 aabf 4136 5960 9a36
00000210: 56cc d935 8e04 7835 b91f 9735 c9ed 8535
00000220: 78c7 0336 1557 4636 4a5e fd35 9446 2a36
00000230: 420c 5237 cd11 4c37 cc04 1f37 ced2 3f37
00000240: bb7b f635 ba03 5935 8590 9a35 f1c1 8a35
00000250: b03c 9c35 a644 0836 ad80 b535 f7cc 0d36
00000260: a8e3 fc35 5fe3 fe35 e71c d035 8406 cf35
00000270: b658 8136 6b69 b036 a9d7 7136 757b 9936
00000280: b834 1136 cd8b bf35 e123 e435 7517 aa35
00000290: 6201 4c36 3160 7935 a90b ea35 4bb6 8535
000002a0: 41cb 1335 a9f7 0035 cf44 e734 7f39 f134
000002b0: 8b26 2436 9d4c 9435 9cf6 1c36 e9b3 9435
000002c0: cabf 3b37 bcd7 1b37 9838 0f37 42cb 0c37
000002d0: decf c135 9315 9d35 6cbd a635 8ff1 8735
000002e0: 1734 b436 3da8 d736 2168 9136 69d6 be36
000002f0: 3b20 2e36 b524 2036 b832 e435 e8c3 2c36
00000300: fa9a c135 19c0 e135 9c58 8f35 d87e cb35
00000310: 8797 ad35 97aa 1f35 0352 a135 c844 2435
00000320: 8a3f b936 c0bc 4336 0e1c 8d36 9a28 4536
00000330: 1d79 1d36 75b2 5c36 b7e9 f135 cbfc 3336
00000340: be7a 5335 5711 3835 d6b6 2835 59cd 3b35
00000350: 95f5 9b36 f475 3536 feb6 8936 0f48 3c36
00000360: 9d4c 3f37 cbbf 5237 e09a 2537 0966 3937
00000370: 4ba7 ae35 1f7f e935 03a8 a335 b2c3 aa35
00000380: be2e c936 8278 c936 1243 b336 c5a7 cd36
00000390: e5d2 ae35 a018 bf35 517d 8b35 3387 cd35
000003a0: 38f1 2636 f0b6 b335 3d0a ef35 9030 a035
000003b0: 8408 3737 6850 4137 e76b 1a37 ab28 1637
000003c0: 9f34 9036 785b 9836 02bc 6f36 29d5 7d36
000003d0: bf92 2a37 681d 1237 5644 0937 8c03 0537
000003e0: d447 bf35 36b8 0d36 b9cd be35 a932 0136
000003f0: 9d93 9535 9300 a135 09ac 8a35 559a 9535

exp_avg f4 [128]
-0.00024813518 -0.000119051045 0.0002701218 -0.000102504724 -8.201312e-06 -4.3629505e-05 -1.3955178e-05 -9.511554e-05
-0.0005138503 -8.559305e-05 4.0156607e-05 -1.4678146e-05 -8.649917e-06 5.1219176e-05 3.0399755e-05 -0.00028512508
-0.00016917405 6.081692e-05 3.948125e-05 -0.000100440215 4.0556683e-06 3.8564605e-05 -4.6435012e-05 -0.00016528199
-3.3328946e-05 -5.5248995e-05 -5.6614834e-05 0.00018230492 -0.00029802183 -0.00017681892 -5.5101795e-05 -1.7543158e-05
-7.399856e-05 5.621867e-05 0.00017959527 0.00023495308 0.00012071029 0.00012283867 -2.9862422e-05 9.518666e-05
8.649035e-05 8.444195e-05 -2.7863003e-05 -2.7066933e-05 -4.420694e-05 0.0001979847 -0.00023814142 -0.00018342564
4.9219598e-05 -5.6565343e-05 0.00015330197 -0.00017478749 -1.0580963e-05 -4.679718e-05 0.00058090076 -3.6741454e-05
-6.949176e-05 2.0929872e-05 -5.0685278e-05 -9.505637e-05 0.00024443422 -3.7450136e-05 -0.00015890604 7.878495e-05
-2.5321247e-05 -0.000328929 0.00043240725 -0.00018153836 1.5973867e-05 -0.00044176087 -0.00019778601 -0.00022518518
1.243199e-05 -3.3107557e-05 -0.00012249612 -0.00010693571 -0.0003507328 -9.105693e-06 8.4892155e-05 -4.325399e-05
0.00020348438 -8.298301e-05 0.00020570816 -2.682371e-05 -2.8862385e-05 -4.239696e-05 -9.029258e-05 -0.00018360544
4.4873188e-05 -0.00010386724 0.00019665259 -0.00013324678 -9.606644e-05 -0.00013299775 -0.00023224838 0.00010903976
-0.000102775455 0.000115832285 -0.00037561342 -0.0001199833 -8.473749e-05 5.1217983e-05 -1.2567208e-06 -0.00016907859
-4.332524e-05 -0.00012802106 7.572915e-05 0.00022059858 -0.0001074913 2.7651073e-05 -9.21425e-05 -0.000116624025
-6.308837e-05 -2.3092829e-05 0.00014270903 -9.970061e-05 -0.000101683254 -0.00013286072 -0.0001218431 -1.2583401e-05
5.4141896e-05 -1.7381164e-05 0.00012424303 0.00051869254 -6.6516644e-05 0.00040744638 -7.714205e-05 9.968537e-05
00000000: 2418 82b9 0bab f9b8 229f 8d39 cef7 d6b8
00000010: 5e98 09b7 d3fe 36b8 0821 6ab7 c478 c7b8
00000020: e9b3 06ba 6b80 b3b8 d46d 2838 2842 76b7
00000030: 1c1f 11b7 2cd4 5638 fa02 ff37 d77c 95b9
00000040: 5064 31b9 ac15 7f38 ab98 2538 6ea3 d2b8
00000050: ed15 8836 6ec0 2138 37c3 42b8 8c4f 2db9
00000060: afca 0bb8 28bb 67b8 b775 6db8 1b29 3f39
00000070: d03f 9cb9 7868 39b9 1a1d 67b8 a529 93b7
00000080: ad2f 9bb8 56cc 6b38 bd51 3c39 bd5d 7639
00000090: d825 fd38 41ce 0039 1081 fab7 f39e c738
000000a0: 2762 b538 6d16 b138 58bb e9b7 cc0d e3b7
000000b0: d76a 39b8 1d9a 4f39 9ab5 79b9 f255 40b9
000000c0: 2471 4e38 9340 6db8 afbf 2039 2947 37b9
000000d0: e484 31b7 1748 44b8 9747 183a d61a 1ab8
000000e0: 1bbc 91b8 8f92 af37 e796 54b8 0059 c7b8
000000f0: 6827 8039 c713 1db8 04a0 26b9 5939 a538
00000100: f768 d4b7 1a74 acb9 b8b4 e239 555b 3eb9
00000110: 9eff 8537 249c e7b9 c764 4fb9 b01f 6cb9
00000120: fe92 5037 f8dc 0ab8 4d72 00b9 ac42 e0b8
00000130: 8fe2 b7b9 a7c4 18b7 2108 b238 9e6b 35b8
00000140: 6c5e 5539 2a07 aeb8 5db3 5739 7b03 e1b7
00000150: 801d f2b7 64d3 31b8 765b bdb8 3686 40b9
00000160: 3836 3c38 4dd3 d9b8 8734 4e39 29b8 0bb9
00000170: 4777 c9b8 5075 0bb9 b387 73b9 47ac e438
00000180: 2789 d7b8 fcea f238 fbed c4b9 8b9f fbb8
00000190: 18b5 b1b8 e4d2 5638 99ac a8b5 b04a 31b9
000001a0: 1fb8 35b8 643d 06b9 c7d0 9e38 7b50 6739
000001b0: f46c e1b8 3af4 e737 a13c c1b8 0c94 f4b8
000001c0: 504e 84b8 79b7 c1b7 2aa4 1539 5b16 d1b8
000001d0: c83e d5b8 8750 0bb9 0486 ffb8 4c1d 53b7
000001e0: 6b16 6338 c4cd 91b7 3c47 0239 def8 073a
000001f0: da7e 8bb8 879e d539 53c7 a1b8 2d0e d138
