results/ParameterTest2/MoveToGoal/MoveToGoal-69270.onnx (onnx, 77714 bytes, 9 tensors)

network_body._body_endoder.seq_layers.0.weight f4 [128, 4]
000000 14 32 6c 3f 20 9f 19 3d 73 c5 03 bf 99 b3 45 3e
       0.92263913 0.03750527 -0.5147316 0.19306792
000010 e3 26 e7 3e f7 9e d0 3d 4e d1 96 3e 19 6d e3 be
       0.45146856 0.1018657 0.29456562 -0.44419172
000020 b8 80 05 bf ed fa 0b 3d 9c a1 33 3f da 46 cb 3e
       -0.52149534 0.03417485 0.7016847 0.39702493
000030 4a fe 03 3e 0b 17 96 3f 0b 49 65 3e 14 a4 39 be
       0.12889972 1.1725782 0.22391145 -0.18128997
000040 f8 71 62 bf 5d 9b 19 bc 9b c9 96 be e2 60 23 bf
       -0.8845515 -0.00937542 -0.29450688 -0.63819706
000050 49 22 ee be b1 6d 27 3e 23 a1 06 be 19 d3 cb bd
       -0.46510532 0.16350438 -0.13147406 -0.09952373
000060 b9 cd 02 bf 44 a1 2f bf 78 eb 4a bf 1e 34 9a 3d
       -0.5109516 -0.68605447 -0.79265547 0.07529472
000070 97 77 55 bf e6 b6 62 3e f7 d6 e5 bc c2 51 45 3f
       -0.83385605 0.22140083 -0.028056605 0.7707788
000080 3b 70 f4 3d 93 a3 f4 3e 35 84 bd bd 54 c3 d9 bd
       0.11935469 0.47781047 -0.09253732 -0.10632959
000090 0d b3 b9 bd ef c6 ff be 1f f8 17 bf 75 de 54 3d
       -0.09067354 -0.49956462 -0.5936298 0.051969964
0000a0 70 3a a4 3e 6a 01 fa 3e 2f 12 89 3e e2 02 73 be
       0.32075834 0.48829204 0.26771685 -0.23731568
0000b0 69 15 35 3f 1d 76 ac 3d a2 04 32 bf f3 7d 33 3f
       0.70735794 0.08420966 -0.6953832 0.7011406
0000c0 d4 70 fa 3e 79 d9 87 3d 40 3e de bd e8 24 f8 3e
       0.48914206 0.066332765 -0.10851717 0.48465657
0000d0 b2 90 52 bd 5b a1 bb bc b7 a9 4b 3e 65 2e d0 be
       -0.051407523 -0.022904089 0.1988896 -0.40660396
0000e0 7a b0 98 3f e5 d6 b2 3e 94 56 02 3e bd 77 c0 3d
       1.1928856 0.34929577 0.1272834 0.09397838
0000f0 f3 ba 9b be 36 84 90 3e d0 e7 b8 3d 3e 2f aa 3e
       -0.30416068 0.2822587 0.0902859 0.33239168
000100 93 11 b9 be 4c 57 ab 3e 73 fd ac bd 20 45 0d 3e
       -0.3614622 0.3346504 -0.08446779 0.137959
000110 df db 5f bd 16 92 27 bd 15 0d 08 bf 18 5a 42 bf
       -0.054653045 -0.040910803 -0.5314496 -0.7591872
000120 4b d2 2f 3f cf dd 85 3c f8 21 e4 3e 3e 27 54 3f
       0.68680257 0.016341118 0.44557166 0.8287238
000130 b0 76 72 be 6c 2c 55 be b7 59 79 be 86 99 bf be
       -0.23678088 -0.20817727 -0.2435063 -0.37421817
000140 b4 63 b3 3f e1 af c2 3e f7 c6 a6 be ba fb 84 3e
       1.4014802 0.3802481 -0.32573673 0.25973302
000150 dd 6f f0 3d c5 f7 8f bf 65 12 86 3e 3a c3 86 be
       0.11740086 -1.1247488 0.2618591 -0.2632082
000160 a5 6e 2c 3f 5a a1 18 3f f7 72 78 3e 01 28 f8 bd
       0.6735633 0.596212 0.24262606 -0.12117005
000170 e8 18 a7 3e d5 ac 88 ba 28 a6 67 3e 2f 61 83 be
       0.3263619 -0.0010427485 0.22621977 -0.25660083
000180 60 9b d7 bc 99 9e 3e 3f 77 23 b8 3e 2b 1d b2 be
       -0.026319206 0.7446075 0.35964558 -0.34787878
000190 2b e0 4f bf b5 2e 81 3f 56 c6 74 3f 34 6f 28 3f
       -0.8120143 1.0092379 0.95615137 0.6579468
0001a0 0e cb a1 3d e3 27 89 3e d7 e5 02 bf ab 05 3e 3e
       0.07900058 0.26788244 -0.5113196 0.1855685
0001b0 f5 1a ae 3e 29 57 38 3f 4c d4 d4 3d d6 83 bb be
       0.34004942 0.72007996 0.10392055 -0.3662402
0001c0 89 e8 03 bf 9a e2 06 3e 12 e6 2a 3f eb 9a bb bc
       -0.51526695 0.13172379 0.6675731 -0.02290102
0001d0 68 06 85 be 72 59 18 be 8c fe 26 bf dd 34 a9 be
       -0.2598145 -0.1487787 -0.6523216 -0.33048144
0001e0 c0 55 89 3e 7c da 85 3c d2 95 16 be b7 2c b9 be
       0.26823235 0.016339533 -0.1470559 -0.36166927
0001f0 42 c6 67 be a2 4e 09 bf f6 5f 8a bd 94 1a 09 be
       -0.22634223 -0.5363561 -0.06756584 -0.13389045
000200 e1 92 20 3f 3c e0 17 3f 2f 7f 30 bf 96 70 34 3f
       0.6272412 0.5932653 -0.68944067 0.7048429
000210 ef de ab be 3a de 44 3f b9 f3 41 bf 76 76 b8 3d
       -0.33568522 0.7690159 -0.75762516 0.0900697
000220 ee cd 94 3c 5a 4e 42 3f 4a dd 80 bd be a5 b5 be
       0.018164601 0.75900805 -0.062922075 -0.35478014
000230 db 74 9c 3d 24 2d a0 3f 98 50 7a 3f 62 d4 32 bf
       0.07639476 1.2513776 0.97779226 -0.6985532
000240 13 29 3a be 44 5b 14 3f 23 ab 40 3f 57 dc aa 3d
       -0.18179731 0.5795176 0.75261134 0.08342808
000250 9c 63 7a bf 23 b6 6e 3e a0 a0 1d bf 3e 5f 49 3e
       -0.9780824 0.23311667 -0.6157322 0.19665238
000260 07 dc 77 3f 0f 60 8d 3f 25 71 c9 be 6b 83 b1 be
       0.9682011 1.104494 -0.39344135 -0.34670576
000270 25 ca 38 bd 2c 8d 46 be 69 bd 7c 3c e1 36 83 be
       -0.045114655 -0.1938979 0.015426018 -0.25627807
000280 29 96 4f bf 44 89 3e 3f c9 eb 03 be f5 b1 3f 3f
       -0.810885 0.744282 -0.12882914 0.74880916
000290 b7 24 db 3d 5f ef ca 3e 83 b2 ac 3e e8 3e 69 bf
       0.10700362 0.3963575 0.33729944 -0.9111161
0002a0 43 fd 4e 3d 9b 49 d3 3e de af 79 be 33 b1 f7 3d
       0.050534498 0.41267094 -0.24383494 0.12094345
0002b0 4b f9 b3 3e 8c c1 81 b9 34 6a d4 be 07 a6 45 3f
       0.35151133 -0.00024749 -0.41487277 0.7720646
0002c0 7f e8 e0 3e 51 76 b6 be a2 45 86 be 3b 90 44 be
       0.4392738 -0.35637143 -0.26225 -0.19195645
0002d0 e3 78 9f bc cc 6b b7 bd c4 5c 30 bf d2 19 83 3f
       -0.019466823 -0.089561075 -0.6889155 1.0242255
0002e0 3c e3 e0 3e 6d 7e 0c bf 71 ca 1a 3f 49 cd 5f 3e
       0.43923366 -0.5488041 0.6046515 0.21855654
0002f0 bc 1c 21 bf 42 fc 0b 3e 1e bb e1 3e f5 00 42 bf
       -0.6293447 0.13670447 0.44088072 -0.7578271
000300 0b 29 61 be 88 e0 30 3f f4 5c 08 bf ee 2a 33 bd
       -0.21988313 0.6909261 -0.53266835 -0.043742113
000310 58 2c 39 bf 6f a9 81 be a8 72 8d be 9d 46 97 be
       -0.7233329 -0.2532458 -0.27626538 -0.2954606
000320 c2 c4 8f 3e 10 10 e8 bc 21 3d b9 bd 19 20 95 be
       0.28079802 -0.028327972 -0.090448625 -0.2912605
000330 da b8 bd 3e bb 17 87 bf 0c 8d 56 3e 7b c0 70 3f
       0.37055093 -1.0554117 0.20952243 0.940437
000340 62 d6 74 be cb 9c 94 be 59 49 a4 3f 41 06 bb be
       -0.23909906 -0.29025874 1.2834884 -0.3652821
000350 13 96 ee 3c 8f c0 e4 3e ec bf aa 3e 8a 6e 39 3f
       0.029124295 0.4467816 0.3334955 0.72434294
000360 ed b0 78 3c b1 bb 30 be 95 66 18 3f bd 29 9a be
       0.015178901 -0.17259099 0.5953153 -0.3010997
000370 c8 68 24 3f 59 c8 59 3e 3c 5f 97 bf 0f 48 26 3f
       0.64222383 0.21267833 -1.1825938 0.649537
000380 bb 59 d9 bc 73 aa 27 3f 8d ea 17 3e 85 dd 05 bf
       -0.026532045 0.6549446 0.14835568 -0.52291137
000390 a0 4c b4 be f0 a5 1a 3d 78 45 76 be 63 ce 78 3e
       -0.3521471 0.037755907 -0.24049938 0.2429748
0003a0 10 df c6 bd b0 80 17 3e 45 ac 99 3e bf 19 29 bf
       -0.097105145 0.14795184 0.30014244 -0.6605491
0003b0 a2 d3 43 bf 5d 54 cb bd c1 3a 43 3e 5e 0e ab be
       -0.764948 -0.099282004 0.19065382 -0.334094
0003c0 33 18 e9 3d a2 9a 2e be 4e 74 10 3d 4a d8 21 3f
       0.11381569 -0.17051175 0.035267167 0.63220656
0003d0 b6 df 3a bd 34 db f0 3e 09 79 31 be aa 01 0d 3f
       -0.045623504 0.4704224 -0.17331327 0.55080664
0003e0 93 a7 36 3e 61 ff b1 3e b9 d8 8d be 8b 9b 7d bf
       0.17837362 0.3476515 -0.2770441 -0.99065465
0003f0 8a 64 89 3f 37 f0 5c 3f ca 42 42 bc 22 d7 ca 3c
       1.0733807 0.8630404 -0.011856744 0.024760786

network_body._body_endoder.seq_layers.0.bias f4 [128]
000000 84 aa ed bc 35 fe 85 3c 3c 15 82 bd 3d 24 89 bd
       -0.029011972 0.016356567 -0.063517064 -0.06696365
000010 e7 52 e5 bc 84 bb 19 bd f2 63 82 bc ba 4b 74 bb
       -0.027993632 -0.037532344 -0.015916798 -0.0037276582
000020 51 29 9f bd bc 6c 4c 3d 75 42 ca bc 56 92 da bc
       -0.07771552 0.049908385 -0.024689892 -0.026681107
000030 cf 71 ec bc 52 8d a5 bd d1 99 3e bd ce 0f ea bc
       -0.028862862 -0.08083595 -0.04653341 -0.02857199
000040 45 07 5e bd aa fa 2b bc 7c 7f 54 3d ee c6 46 bd
       -0.05420615 -0.010496775 0.05187939 -0.048529558
000050 dd 09 0f bd 55 2b 9a 3c 28 49 b0 bd d3 96 cf 3c
       -0.034921516 0.01881949 -0.086077034 0.025340473
000060 5d d0 03 bd 52 4f 48 bc 29 ee 07 bd d3 28 dc 3c
       -0.032181133 -0.012225943 -0.03318611 0.026874935
000070 27 2e f4 bc 27 30 0d bb 1a 87 de bc a0 11 37 3c
       -0.029807163 -0.0021543594 -0.02716403 0.011173636
000080 68 10 b7 3b f8 fb d7 bc 3a 84 79 bc bb 3a 22 bc
       0.0055866726 -0.026365265 -0.015229279 -0.009901698
000090 98 5f a7 bd dd 5b 52 bd 55 a9 f9 bc 58 a2 57 bd
       -0.0817253 -0.05135714 -0.030476252 -0.052645057
0000a0 40 06 6d bd 09 a4 20 bd 0f 23 8d bd fc 27 d3 bd
       -0.05786729 -0.039218936 -0.068914525 -0.10310361
0000b0 4d da d9 bd 39 bd 5c bd cb 4c 3f 3c 15 84 8a bd
       -0.10637341 -0.053891394 0.011676024 -0.06763474
0000c0 5e 72 5a bc 10 61 09 bd d9 74 ad bd 80 8b f4 3c
       -0.013332931 -0.03353983 -0.084695525 0.029851675
0000d0 63 a4 84 bd 7d b9 83 bd 6f 16 a9 3d c7 0c 57 3d
       -0.06476667 -0.064318635 0.08256232 0.05250242
0000e0 dc c0 bd bc 11 3b 82 bd 5f a2 04 bd 3e d9 ec bc
       -0.023163252 -0.06358922 -0.03238141 -0.028912183
0000f0 87 1d 99 3c d2 37 87 bd 65 18 b6 bc 2f b7 91 bd
       0.018690838 -0.06602444 -0.02222843 -0.071150176
000100 ef 83 88 bc 8d b4 0a bc 5d cc e5 bc ba 0f 80 3d
       -0.016664473 -0.008465898 -0.02805155 0.062529996
000110 b3 fe 94 3d d8 0d 41 3d 73 d2 83 bd bb 8b 84 3c
       0.072751425 0.047132343 -0.064366244 0.01617991
000120 77 4d 01 bd 92 fa 3c bd 1f 02 9e bd b3 74 24 3d
       -0.031568017 -0.0461374 -0.07715248 0.040150356
000130 23 4a b0 bd a6 41 1f 3c e6 33 1d bd 80 d6 f7 bd
       -0.086078905 0.009720242 -0.038379572 -0.121014595
000140 a8 ab 2b bd 1d eb d0 bb 21 6a 63 3c 8e 3c 00 3c
       -0.04191175 -0.006375684 0.013880284 0.007826937
000150 8e 7b d8 38 fb ca 49 bd b8 23 10 bd 2b c0 e5 3c
       0.000103226965 -0.049265843 -0.035190314 0.028045734
000160 20 97 45 3c 72 10 95 bb 67 34 59 3c 29 e7 c5 bc
       0.012059957 -0.0045490796 0.013257123 -0.024158077
000170 42 9d ec bc 2e 8b e3 bc fd 7a a7 bc 33 29 a8 ba
       -0.02888358 -0.027776327 -0.020444388 -0.0012829661
000180 63 d9 88 bd fd 10 8b bd 40 f0 6d bd fd f1 36 bd
       -0.06682088 -0.0679035 -0.05809045 -0.04466437
000190 fb ee f2 3c 7a 8c b3 bc 84 48 53 3d 03 e6 8b bd
       0.02965497 -0.02191757 0.05158283 -0.06830981
0001a0 42 de 9c bd 40 7e 4e bd bf 00 e1 bd 98 1a b8 bc
       -0.0765958 -0.05041337 -0.109864704 -0.022473618
0001b0 85 cb 99 3b 37 a8 26 3c c8 dd f1 bc 6a cf 86 bc
       0.004693451 0.0101719415 -0.029524699 -0.016456325
0001c0 6a 29 97 bc eb 70 45 3d 39 29 4a bc 8a 1c 7f bd
       -0.018452365 0.04820339 -0.01233893 -0.062283076
0001d0 51 f7 84 3d 20 da c7 bc 92 d8 42 bd 0c 4f 96 bd
       0.06492484 -0.024396002 -0.04756982 -0.07339296
0001e0 c9 65 8a bc b3 39 79 ba 60 d8 b0 bd 2d 08 0c bd
       -0.016894238 -0.0009507194 -0.0863502 -0.034187485
0001f0 19 2d a5 bd 76 92 b7 bd 47 e3 4f bd 4b 18 7a 3c
       -0.08065242 -0.08963482 -0.050753858 0.015264581

network_body._body_endoder.seq_layers.2.weight f4 [128, 128]
000000 c1 b8 85 bc da 24 04 3e ff c5 bf bd 29 22 bd bb
       -0.01632345 0.12904683 -0.09363937 -0.0057718945
000010 e1 29 0c be ce 3e ec 3d 2f 8a 9d bd 5c 89 94 bd
       -0.1368785 0.115354165 -0.07692372 -0.07252762
000020 cf bd ff bd 0c 47 d2 3d 7d b2 4b 3d 41 be d3 3c
       -0.12487375 0.10267457 0.049730767 0.025847556
000030 5e 93 23 3d 2a 11 0e be bb aa 87 3c aa fa 7d bc
       0.039935462 -0.13873735 0.016560903 -0.0155016575
000040 e9 e4 49 3c 90 34 00 be 0e 36 88 3d 7f 2a bd bd
       0.012322643 -0.12520051 0.06650935 -0.09236621
000050 83 b6 82 3c 37 2c 3f 3d 3b e2 a9 bc 4b ab ee 3a
       0.015956169 0.046673026 -0.020737758 0.0018209008
000060 72 15 c1 bd 99 6c 95 3d 27 b8 18 3e 9f 6f e3 bc
       -0.094279185 0.07296104 0.14913999 -0.027763186
000070 53 df f7 bd b3 9a d2 bd e8 70 69 bb c7 a6 97 bc
       -0.121031426 -0.10283413 -0.0035620276 -0.018512143
000080 9b ec 80 bd 48 b7 0b 3c a1 a9 10 bd 29 7d 01 be
       -0.06295129 0.008527584 -0.03531802 -0.12645401
000090 de d6 84 bd fe 08 7f be 38 99 ac bb 1c 86 c7 3c
       -0.06486295 -0.24905774 -0.0052672885 0.02435594
0000a0 9c 59 4f bd 7c 56 33 bd 9f 00 be bd d8 fa 2e be
       -0.050622568 -0.04378365 -0.09277462 -0.17087877
0000b0 b6 dc be 3d 5c 52 3d 3c d6 88 27 bd e7 d1 48 be
       0.09319441 0.011555281 -0.04090198 -0.19611321
0000c0 ae dd 2e 3d 84 56 1e 3d ef 14 23 3c d6 c0 cc 3d
       0.04269188 0.038656726 0.009953721 0.09997718
0000d0 17 0a 44 be bd bf 88 bd 05 4d 86 3c a9 8f 03 3e
       -0.19144474 -0.06677196 0.016394148 0.12847771
0000e0 a9 6d 40 3d ac b9 5b be af 76 19 be e6 4d 0b bd
       0.04697958 -0.21457547 -0.1498668 -0.034009837
0000f0 82 7e a0 3c ce fd 1e be bd 83 15 3e 3b 4d e3 3d
       0.019591574 -0.15526506 0.14601035 0.11098715
000100 88 80 b5 3d 10 75 54 bd 48 39 c7 3c 70 03 ca bd
       0.08862406 -0.051869452 0.024319306 -0.09863937
000110 f5 ef 9a bd 0a 61 c9 3d ae 2f 4f 3b 95 65 1e 3e
       -0.075652994 0.09832962 0.0031614113 0.15468438
000120 f7 90 36 be e1 03 61 bd d9 8a b8 3b 09 20 1b bc
       -0.17828737 -0.05493534 0.0056317863 -0.009468087
000130 36 6f ec bd 14 c1 33 bc 68 de 34 bd 5b e0 67 bd
       -0.11544649 -0.010971326 -0.044157416 -0.056610446
000140 5f 98 de 3c 12 45 ff 3c e5 38 28 3c 11 b1 f0 3d
       0.027172266 0.031160865 0.010267471 0.11752523
000150 2a f9 a5 3d 11 0a a0 3c 4f 59 1e be 7b 7d c0 3d
       0.08104165 0.01953605 -0.15463756 0.093989335
000160 bf 6d 8b 3c fe 0c 17 be 4b 2c e6 bd 9e ca 67 bd
       0.017020104 -0.1475105 -0.11238917 -0.056589715
000170 e3 09 e6 bc a3 20 ea 3c 59 36 15 bd 9a 4a 6a 3d
       -0.028080886 0.028580016 -0.036428783 0.05720005
000180 08 1f 2a bb 5c 41 b4 bd 95 2e 7b 3d 87 41 42 be
       -0.0025958437 -0.08801529 0.06132372 -0.18970309
000190 77 3a 2c 3d 02 04 69 bd 6d 78 ea bd 2a d9 b2 bd
       0.042047944 -0.056888588 -0.11448751 -0.08732827
0001a0 af 43 f8 bc f0 2a e4 bd d2 4c 84 bd 98 fe 3b bd
       -0.030305712 -0.11141002 -0.06459965 -0.045897096
0001b0 87 1b 95 bd b7 c6 61 3d c0 95 f9 3d d9 01 06 3d
       -0.07280641 0.05512115 0.12186766 0.032716606
0001c0 05 82 fb bd 1e fc c5 3d 5d 19 11 3e 7e 1d 0b be
       -0.12280659 0.09667228 0.14169832 -0.13585469
0001d0 82 44 0c bc 3d 18 58 3c 60 ea 3f bc 12 64 8e bd
       -0.008561255 0.013189373 -0.011713594 -0.06952681
0001e0 46 db e7 bd ee 10 f9 bd 0a 33 73 3c 62 96 40 bd
       -0.1132112 -0.12161432 0.014843712 -0.047018416
0001f0 4d 86 f3 3d 6b d3 8a bd de 39 e2 3d 50 93 76 bd
       0.1189085 -0.06778606 0.110461935 -0.060199082
000200 fa a0 c0 3d 54 00 6d bd 6d 98 da bd 9c cb 40 be
       0.09405704 -0.05786164 -0.10673604 -0.18827671
000210 62 13 91 bd 0f 51 ba bb 8a 27 19 be 58 8c 12 be
       -0.07083775 -0.0056859325 -0.14956489 -0.1431135
000220 20 89 42 bb f3 80 b2 bd 71 56 a4 bd ca fc 67 3d
       -0.0029683784 -0.08716001 -0.080243 0.056637563
000230 67 61 07 bc 8f f7 15 3c 39 0c 28 3e c2 c7 b1 bd
       -0.008262969 0.009153261 0.16410913 -0.08680679
000240 9b db 01 3c e8 4a 15 3e ff 09 97 3c 88 50 ef 3c
       0.007925893 0.14579356 0.018437384 0.029213205
000250 7e 2c 48 bd bd b9 c4 bb be c5 1d 3e db d7 7d 3e
       -0.048870556 -0.006003587 0.15407464 0.24789374
000260 c3 91 0b 3a ea 41 34 be de 83 cb 3d e1 95 d8 3d
       0.00053241494 -0.17603269 0.09937261 0.10575462
000270 03 2a 9c bd c5 b6 f2 3c 46 d4 ed bd 64 98 36 bc
       -0.076252006 0.029628167 -0.116127536 -0.011144731
000280 f1 09 10 3e c5 df 75 bc 1f 2d e1 bc 0d 27 a1 bd
       0.14066292 -0.015006964 -0.027487336 -0.078687765
000290 76 df 40 bd 1a 51 61 3d 94 ff 8b bb a0 ca 3e bd
       -0.04708811 0.055008985 -0.0042724106 -0.046579957
0002a0 fb 15 66 bd 34 b6 5d 3b 66 3f f5 3d e6 dc 7e 3d
       -0.056173306 0.0033830525 0.11974983 0.062222384
0002b0 3c 80 a4 3d d2 ef 54 bd 71 13 a9 bb 47 15 e9 3d
       0.08032271 -0.051986523 -0.0051597883 0.113810115
0002c0 78 bd 1a 3d ac 74 2d be c4 37 93 bd 78 ff d8 3c
       0.037778348 -0.16939038 -0.07188371 0.026489004
0002d0 91 55 11 bd c8 fc 11 bc 48 91 a4 bd aa 88 04 3c
       -0.035481993 -0.008910365 -0.08035523 0.008089224
0002e0 d4 56 a0 bc 2f 24 90 bd 1c 55 1d 3d 07 bc 19 bd
       -0.019572653 -0.070381515 0.038411245 -0.037532832
0002f0 7e e6 ab bc 1a 5e bb 3c 50 1c b7 3d d6 48 da 3d
       -0.02098393 0.02287202 0.08940947 0.106584236
000300 47 85 fc 3d 5a 75 aa bd e6 07 c7 3d a8 2c 2d be
       0.12330108 -0.08323164 0.097183034 -0.16911566
000310 8e 42 cd 3d 70 7c 7d bd 53 6a 00 3e 90 4a e7 bd
       0.1002246 -0.06188625 0.1254056 -0.112935185
000320 3a 93 75 bd 84 e4 cb bd 78 50 7c bd 05 13 96 bc
       -0.05995486 -0.09955695 -0.06160018 -0.018319616
000330 cc 1c 88 3d ed 5f 2e bc 8a ae 84 bc c4 e7 10 3e
       0.066461176 -0.010642988 -0.016196508 0.14150912
000340 d1 c1 00 3e b4 04 66 bc f0 8f 88 3d fd a4 c1 bd
       0.12573935 -0.014039207 0.06668079 -0.09455297
000350 d9 9e 16 be c0 94 ec 3d 42 fe 46 3e d5 9f fa 3b
       -0.14709033 0.11551809 0.19432929 0.007648448
000360 44 92 4a bd b4 a2 16 3e fc 8c 7e 3d 89 9b 0f bb
       -0.049455896 0.14710504 0.062146172 -0.0021912775
000370 39 55 77 be aa 80 0a 3d cc a8 0b bc 43 03 46 bc
       -0.24153604 0.03381411 -0.008524131 -0.012085739
000380 29 72 61 3d e8 0a 18 3e a0 52 81 bd 95 b9 78 3d
       0.055040512 0.1484791 -0.063145876 0.06072386
000390 e4 da 34 3e ad 99 68 3d b7 a8 cc bc 81 af 83 3d
       0.17661625 0.05678718 -0.024982793 0.06429959
0003a0 00 bc 14 3c 1e a0 43 3e 29 ad 8f bb ce 9d c5 bd
       0.009078026 0.19104049 -0.004384656 -0.096492395
0003b0 ba 3c 10 be 5d d2 cd bc ef 6f 93 3d fa 4e b3 bc
       -0.14085665 -0.025124723 0.07199084 -0.021888245
0003c0 5b 16 66 3c 81 f7 f2 bd cb c4 62 3e 2f 1d 16 be
       0.014043416 -0.11863614 0.22145383 -0.1465957
0003d0 75 7d bd 3d 41 95 0e 3e 4d 45 cc bd 01 08 a2 bd
       0.09252445 0.13924123 -0.099741556 -0.07911683
0003e0 82 d6 5a 3d 15 a2 1a bd 41 96 a5 bb bc 75 07 be
       0.053427227 -0.03775223 -0.005053312 -0.13228506
0003f0 13 3d 17 3d 5b 72 1a 3d fe 76 5a 3b 8e 8c 0b 3e
       0.03692348 0.037706714 0.0033335085 0.13627836

network_body._body_endoder.seq_layers.2.bias f4 [128]
000000 e4 d9 d9 3c 94 58 ba bd c5 90 28 3d f7 3e 4e bd
       0.026593156 -0.09098926 0.041153688 -0.050353017
000010 d0 1d 8e 3b 71 aa e5 bc 9b 07 64 3d 59 2a 34 bd
       0.00433705 -0.028035374 0.055671316 -0.0439857
000020 f6 08 18 bc ef 40 77 bd 0c 45 8f bd e8 43 94 bc
       -0.00927948 -0.06036466 -0.069955915 -0.018098786
000030 73 ab 45 bd e4 89 34 bd c8 98 65 bc a8 9d cf 3c
       -0.04825921 -0.044076815 -0.014013477 0.025343731
000040 ef 42 b4 3d e8 23 23 bd a9 15 4f bc 4c be 70 bd
       0.08801829 -0.039829165 -0.0126394415 -0.05877523
000050 a5 54 89 3d 7b 09 7a bd 63 a5 48 3c 8f 94 9d bd
       0.06705598 -0.061044198 0.0122464625 -0.07694351
000060 e7 a3 41 bd 76 f6 34 bd 2a 92 5c 3d 97 21 6d 3c
       -0.04727545 -0.044180356 0.05385033 0.0144733405
000070 49 71 45 bd 06 fe f7 3c cb bd cb bc 77 5a 74 bd
       -0.04820374 0.030272495 -0.024870774 -0.059656586
000080 e0 d8 59 3d f1 e6 ff 3c 27 b5 08 3d 5e a8 0f bd
       0.053185344 0.031238051 0.033375885 -0.035072677
000090 65 34 0c bd 00 dd 22 bd 56 a9 3c bd a3 63 67 3d
       -0.034229655 -0.039761543 -0.04605993 0.056491505
0000a0 7c 54 c3 3d 3b 52 93 bd c7 16 66 3d e9 e2 09 bd
       0.095375985 -0.071934186 0.056174066 -0.033663664
0000b0 f1 53 b6 bd 17 a7 41 bd d5 83 de bc 53 72 0c bb
       -0.08902729 -0.04727849 -0.027162472 -0.0021430447
0000c0 6a 0d 39 3d 1e 60 c9 3c 2a 88 06 bd 02 16 8e bd
       0.04517881 0.024581965 -0.0328447 -0.069377914
0000d0 ab 85 6e bd e1 e5 b9 bd 9d 93 7a bd 4a ff 09 bc
       -0.058232944 -0.09077049 -0.06117593 -0.008422682
0000e0 6b 08 96 bd b1 11 cd bd aa 6b f5 bc 6c 26 9d bd
       -0.07325824 -0.1001314 -0.029958565 -0.07673344
0000f0 7f 7d 5d bd f8 82 c4 3d 91 fd 9d bd ce 5d f7 3c
       -0.05407476 0.09595293 -0.077143796 0.030196097
000100 c2 88 75 bc 19 66 c9 bd 31 83 82 3d 00 b1 7b bd
       -0.014986219 -0.09833927 0.06372679 -0.061448097
000110 7f 82 2a bd a0 87 d5 bd e8 84 1d bd a1 5a 59 bd
       -0.041628357 -0.10426259 -0.038456827 -0.053064946
000120 99 4d 3a ba 1a 8b 6d bd e2 d3 52 3c ed aa a6 3d
       -0.00071069 -0.057993986 0.0128679 0.0813807
000130 f2 da cb bb 6f 97 b0 bd bd de 98 bd c8 06 ba bd
       -0.0062211687 -0.08622634 -0.07464359 -0.09083325
000140 29 2b 85 bc 6f de 0a 3d 76 54 82 bc 64 04 78 3c
       -0.016255932 0.033903535 -0.015909415 0.015137766
000150 3a 2a a6 3d 29 6e aa 3c 39 fd d2 bd 70 54 98 bd
       0.08113523 0.020804482 -0.10302205 -0.0743798
000160 57 7e 11 bd 53 0f 1b 3d 36 36 80 bd e9 0f 27 bd
       -0.035520878 0.03785641 -0.0626034 -0.040786657
000170 73 49 0d 3d 5a 66 93 bd b7 79 86 3c a6 fc 85 3d
       0.034493875 -0.071972564 0.01641546 0.065423295
000180 bc 0f f6 3c 9f 17 04 bc 70 50 75 bc 1c aa a3 bc
       0.0300368 -0.008062272 -0.014972791 -0.019978575
000190 3e 62 62 39 98 9c c7 bc 98 46 87 bd 12 22 ed bc
       0.00021589638 -0.024366662 -0.066052616 -0.02894691
0001a0 ec ab 1e bc 6c eb 5f 3d 10 71 d8 3d 96 57 d6 3d
       -0.009684544 0.054667875 0.1056844 0.104659244
0001b0 75 a5 5c 3d ed 0a 2c bd 1c 66 3e bc 5d 05 d5 3c
       0.05386873 -0.042002607 -0.011621024 0.026003534
0001c0 f4 6d c5 3b ef d0 14 3d df 93 cc 3c 8d 99 66 bd
       0.0060250703 0.036332067 0.024972854 -0.05629878
0001d0 a4 80 f0 bc 64 95 a0 3d 0c d0 75 bc d7 71 1b 3d
       -0.029358216 0.07840994 -0.0150032155 0.037950363
0001e0 d5 8a 90 bd 26 af 19 3d 8b 8d 85 3d 7c 0f 5d bd
       -0.0705773 0.03752055 0.06521138 -0.053969845
0001f0 9c e4 cd bc 0b 73 86 bd 76 3c e5 bc 71 1a bf bd
       -0.025133424 -0.065649115 -0.027982932 -0.09331215

action_model._continuous_distribution.log_sigma f4 [1, 2]
000000 52 e2 db bd a9 3d 7c bd
       -0.107365265 -0.06158224

action_model._continuous_distribution.mu.weight f4 [2, 128]
000000 d3 a8 d4 bd f5 0f 90 bd 30 24 7f 3d d8 fa 60 bc
       -0.10383763 -0.070342936 0.06229037 -0.013731681
000010 59 e9 27 3d 40 a7 97 bd 58 1d 4a bd 9a 5e a2 bd
       0.040994022 -0.07404947 -0.04934439 -0.079282
000020 b4 49 b4 bd 8f fd c7 bd 62 91 8e bd e1 be b2 bd
       -0.0880312 -0.09765159 -0.06961323 -0.087278135
000030 5b 48 9f bd 0a 68 62 bb a5 6c e0 bd 44 d9 b1 3c
       -0.077774726 -0.0034546875 -0.10958222 0.021710046
000040 d3 55 6b 3d 46 be 06 be 12 84 d8 bd 4a ca 88 bd
       0.057454895 -0.13158521 -0.105720654 -0.066792086
000050 f2 11 6e bd 97 3c 8e bd f6 f6 aa bd bc bb 8a bd
       -0.058122583 -0.0694515 -0.08347885 -0.06774089
000060 68 00 21 be b2 2a 56 bd 2b ab 6f 3d e2 bf 1f 3d
       -0.15722811 -0.05228681 0.058512848 0.039001353
000070 c1 c8 01 be 35 46 8c bd 0e 2f b9 bd c4 91 5a bd
       -0.12674238 -0.068493284 -0.09042178 -0.05336167
000080 a4 7d b5 3a c9 86 64 3d ed 3b 01 bc fc 2d 5e bd
       0.0013846648 0.055792604 -0.007887823 -0.054243073
000090 97 14 b1 bd e0 18 1d be b8 46 09 be d3 40 b3 bd
       -0.08646505 -0.1534152 -0.13405883 -0.087525986
0000a0 d5 18 2b bd 8b cd 93 bd ed 50 66 3d 25 3b 83 3c
       -0.04177173 -0.072169386 0.05622952 0.016019413
0000b0 e3 b0 88 bd dc ef 21 bd 82 12 0b bc 77 bd 41 bd
       -0.066743635 -0.03953539 -0.008488299 -0.04729983
0000c0 1a 0e 0f 3c 61 2f 51 bd e7 e0 af bd ec d3 b9 bd
       0.008731389 -0.051070575 -0.085878186 -0.09073624
0000d0 ff 81 ef bd 71 57 80 bd 29 8e 9b bd 4b e2 00 3c
       -0.11694717 -0.06266678 -0.07595474 0.007866452
0000e0 4e 80 95 bd c9 e2 33 bd 39 ff af bd 09 d3 a4 bd
       -0.07299863 -0.04391745 -0.08593602 -0.08048064
0000f0 3f e8 10 be a0 6f db 3c 39 eb 97 bd 9e f7 6b bd
       -0.14151095 0.026786625 -0.07417912 -0.057609193
000100 3c 14 04 be 3d a0 51 bd b1 fb 3a 3d d0 d1 9f bd
       -0.12898344 -0.051178206 0.045650188 -0.078036904
000110 d8 86 da bc d9 ae 29 bd fd 43 aa bd 7a a0 86 bc
       -0.026675627 -0.041426513 -0.08313749 -0.016433943
000120 d7 4a a2 bd 58 eb a0 bd e3 8e d0 bd b9 de 72 3d
       -0.07924431 -0.07857388 -0.101835035 0.059294436
000130 2b 61 fa bd 3d 9a 8c bd 89 29 aa bd 4a f2 02 be
       -0.122255646 -0.06865356 -0.083087035 -0.12787738
000140 e9 84 f7 bd 8a 35 4b 3d b5 28 4a bc 3c 25 bf bd
       -0.120858975 0.049611606 -0.012338807 -0.09333274
000150 1f 27 a0 3d 3f 67 2e 3d 9f 92 8b bd de d8 dc bc
       0.07819962 0.042578932 -0.06815075 -0.02695888
000160 df 8f fb bd 40 5d 69 bd b3 be fb bd 99 b5 1b bd
       -0.122833006 -0.056973696 -0.12292232 -0.038014982
000170 8f 5d 62 3d 46 3c a0 bd f5 37 bf bd f8 7e 21 3d
       0.055265006 -0.07823996 -0.09336845 0.039427727
000180 a7 03 b0 bd f5 42 82 bd 44 dd be bd c7 81 ba bd
       -0.08594447 -0.06360427 -0.09319547 -0.09106784
000190 c0 50 22 3d 39 2a af bd 42 c9 8f bd 96 18 af bd
       0.03962779 -0.08552975 -0.07020809 -0.08549611
0001a0 97 a3 08 be 08 59 b2 bd 60 3b b8 bc d5 26 d2 bc
       -0.13343655 -0.087083876 -0.02248925 -0.025653282
0001b0 46 eb 83 3d 1c 98 d1 bd 80 26 69 3c e2 09 0f bc
       0.06441359 -0.10234091 0.0142303705 -0.008730384
0001c0 06 66 b5 3c 34 4e ec bd 52 37 f1 bd 8f 78 a1 bd
       0.022143375 -0.115383536 -0.1177813 -0.07884323
0001d0 a5 5e 9a bd 59 2a 86 3d 19 32 b4 bd c2 cc b5 bd
       -0.07537583 0.06551046 -0.08798618 -0.08876945
0001e0 76 41 a1 bd ff fd d0 bd 6f 6d 9b bd 2d 32 a6 bd
       -0.07873814 -0.10204696 -0.07589232 -0.08115039
0001f0 59 88 a5 bd d0 e7 9f bd 68 1e cf bd 03 d4 87 bd
       -0.08082647 -0.078078866 -0.101132214 -0.06632235
000200 44 40 49 3d 46 51 e8 bc ab 53 25 3d 52 a7 27 bd
       0.049133554 -0.028359067 0.040362995 -0.040931053
000210 ff e3 03 bd ee fb 1e bc 97 27 67 3d 47 66 0a bc
       -0.032199856 -0.009703619 0.05643424 -0.008447236
000220 53 37 27 3c c1 d7 06 bd 86 50 9e bc 70 de 72 bb
       0.010206061 -0.032920603 -0.019325506 -0.0037058853
000230 b2 a4 85 bb 5e 6a 81 bc 52 01 13 3c 89 7c 60 3d
       -0.004078471 -0.01579779 0.008972483 0.054806266
000240 9c 31 66 3d 9a 40 09 bd a2 45 16 3c 49 51 34 bc
       0.056199655 -0.033508874 0.009171875 -0.011005708
000250 2c 2b 63 3d ca e6 b4 bc 04 65 cf 3c 05 92 66 bc
       0.055461094 -0.022082705 0.025316723 -0.0140729
000260 d0 d9 0a bd 21 39 82 bd 52 f9 36 3d 92 fa 38 3d
       -0.03389913 -0.06358553 0.044671364 0.045160837
000270 0b c0 f7 bc 6e 0f 48 3d 21 81 37 3b 6a ca 85 bd
       -0.03024294 0.04884284 0.002800055 -0.06532748
000280 88 18 5f 3d 0b 9f b4 3c 86 dc a7 3d 23 54 91 bd
       0.054466754 0.022048494 0.081963584 -0.07096126
000290 a1 8a f9 3a 56 c1 9c bc c5 e7 06 bc 49 97 23 3d
       0.0019038507 -0.019135159 -0.008233969 0.0399392
0002a0 ca fe a8 3d 6c c4 32 bd 94 eb 82 3d 28 82 9b bb
       0.08251722 -0.043644354 0.06392589 -0.0047457404
0002b0 f3 37 aa bb 19 bf 92 bd 34 d0 3a 3d bc 7e 2c 3d
       -0.005194658 -0.07165355 0.045608714 0.04211305
0002c0 a7 79 87 3c c3 20 4c 3d 1b da 17 3c e8 51 a1 bc
       0.0165375 0.04983593 0.009268309 -0.019692376
0002d0 2f 77 f0 bc ca 3a 10 bd f8 ee ae bc 05 2d a8 bd
       -0.029353706 -0.035212316 -0.021354184 -0.08211712
0002e0 91 fc bb bc 6b f0 cd bc 35 9e 12 3a 9a 8a 41 bb
       -0.022947581 -0.025139054 0.00055930327 -0.0029532076
0002f0 36 23 3b bd 11 0a 99 3d b4 1c 5a bc bc 3a 4a 3d
       -0.045687877 0.07472623 -0.013312507 0.04937242
000300 cb 45 9d 3c a4 ef 6b bc 36 50 c0 bc 5f 3d 60 bc
       0.019198319 -0.0144003965 -0.023475748 -0.013686507
000310 7a cf 43 bd f8 51 dd 35 78 47 cb bb e0 64 77 bd
       -0.047805287 1.6489639e-06 -0.006203588 -0.060398936
000320 4d 29 bc 3c 3b 51 09 bc 58 9f b0 3c 72 80 e2 bc
       0.022968912 -0.008381183 0.021560356 -0.027649138
000330 12 d4 87 ba 8f 74 2e bd 1b 6c 23 bd eb a9 ae bd
       -0.0010362884 -0.042591628 -0.03989802 -0.08528503
000340 76 78 9a 3b 8d 00 55 3d e2 43 49 3d b7 54 a0 3c
       0.004714067 0.05200248 0.049137004 0.019571645
000350 16 62 23 3d 9d d1 40 3d 1f 67 9c bc c1 67 12 bd
       0.039888464 0.047074903 -0.01909214 -0.03574348
000360 17 f3 86 ba 30 5f 34 3d af 6c 62 bc 0b 1d a8 bd
       -0.0010295835 0.04403609 -0.0138198575 -0.082086645
000370 a0 47 61 3c cf 19 7f bc 97 c6 0a 3c c5 db ab 3a
       0.013749987 -0.015570118 0.008470199 0.0013111761
000380 92 86 2f 3d da 01 10 3d 55 0c 38 3c f1 07 a2 ba
       0.042852946 0.035158016 0.011233409 -0.0012361986
000390 6a c8 11 bb b9 4d 03 3c df c7 33 bc 3c e2 5f bb
       -0.00222447 0.008014136 -0.010972946 -0.0034161946
0003a0 cf 82 36 3c a3 d8 a9 3d 49 ff a5 3d 3c f4 96 3d
       0.011139586 0.08293273 0.081053324 0.07370803
0003b0 11 f0 55 3d e7 08 3b bb 75 64 98 bd 0f 9a 91 3d
       0.0522309 -0.0028539242 -0.07441036 0.071094625
0003c0 a6 db 5e bd b9 56 5c 3d 69 03 06 3d f4 a2 21 bc
       -0.05440869 0.053793643 0.032718096 -0.009865511
0003d0 5e d5 d2 bb 87 dd 3c 3d 62 b3 a6 3b 22 90 bd 3c
       -0.0064341268 0.046109702 0.005087302 0.023140017
0003e0 d9 60 cb bb 52 f2 b7 3c d7 51 f9 3d 9b 4f 1b bc
       -0.0062066135 0.022454415 0.12173813 -0.009479429
0003f0 5c 22 f8 bb 75 f3 87 bc 27 7f 91 3b ed 0a d2 ba
       -0.0075724553 -0.016595582 0.0044402066 -0.0016024985

action_model._continuous_distribution.mu.bias f4 [2]
000000 5d 0e bb 3d 2a 7e 30 3c
       0.09133599 0.010772267

action_model._discrete_distribution.branches.0.weight f4 [2, 128]
000000 06 53 84 3c 61 28 c1 bc 3b 78 e7 3b 77 c3 80 bc
       0.01615287 -0.023578824 0.007063893 -0.015718205
000010 f3 ce 26 bc 4b 24 63 bb e4 47 ad 3c 58 4c 1b 3c
       -0.0101811765 -0.0034659083 0.021152444 0.009478651
000020 3a 35 13 bc 31 ac 26 bc 62 bc 82 bb 17 a6 cc 3b
       -0.008984858 -0.01017289 -0.003989742 0.0062453854
000030 92 b4 04 bd 88 a4 65 bc d9 16 8c ba 18 f4 ef bb
       -0.032398768 -0.014016278 -0.0010687961 -0.0073227994
000040 23 07 4c bb 5a 65 c5 bb 94 db 40 3c 00 86 79 bc
       -0.0031132184 -0.006024045 0.0117711015 -0.015229702
000050 97 59 18 3d 43 ef a8 3b d0 07 80 3b 31 a1 79 bd
       0.037194815 0.0051554753 0.0039071813 -0.06094474
000060 ee fe 95 bd f5 a1 54 3c 75 76 05 bc 00 92 99 bc
       -0.073240146 0.012978067 -0.008145918 -0.018746376
000070 89 56 a1 bc b1 d4 23 3d d7 38 d4 bc 1c ac 44 3c
       -0.019694583 0.03999776 -0.02590601 0.012003925
000080 f7 c9 2d bc 9e 4f d0 bc 7d 34 6d 3b ab 3b 51 3c
       -0.010607234 -0.02542859 0.0036194616 0.012770574
000090 3b c7 d5 bc 29 ab 49 bd 71 76 44 bd a1 24 85 3b
       -0.026095977 -0.049235497 -0.047964517 0.0040632044
0000a0 f7 37 26 3d 6d 21 22 bd cc a7 14 bc 70 72 68 bb
       0.040580716 -0.03958266 -0.009073209 -0.00354686
0000b0 3e 8a aa bc e2 c2 6f 3c 60 29 57 bc 88 5f c9 3b
       -0.020817872 0.014633866 -0.013132423 0.0061454214
0000c0 55 8f 8a bc 6c d3 14 3d 50 ca 61 bc 5b 79 e4 bc
       -0.01691405 0.03633444 -0.013781145 -0.027889898
0000d0 fc 04 b2 bc b4 91 15 bd 2d 52 ca bc b7 ab 62 3c
       -0.021730892 -0.036515906 -0.024697388 0.013834885
0000e0 6f 46 93 bc b7 f7 25 bd 58 d1 ce 3b 7c 52 1e bd
       -0.017977921 -0.040519442 0.006311577 -0.038652882
0000f0 b3 27 4f bc 7c 5b db 3c bb 20 e0 bc b0 9e 0b 3d
       -0.012643742 0.026777022 -0.027359357 0.034086883
000100 a6 7b d8 bc 80 5e 35 bd 60 83 05 3d df 77 51 bb
       -0.026426148 -0.044279575 0.032595992 -0.0031962318
000110 75 e4 43 3c 78 c4 ec bc ff d5 01 bd df 79 38 bc
       0.011956324 -0.028902277 -0.031698223 -0.011259525
000120 a9 b8 93 3c 00 06 6f bc fb a8 40 bc 3a 48 ca 3c
       0.018032389 -0.014588833 -0.011759038 0.024692643
000130 42 b5 26 bb db 3d af bc c4 20 ae bc 57 2b 32 bd
       -0.0025437628 -0.0213918 -0.021255858 -0.043498363
000140 5c 5e cc bc 18 96 62 bc 9a b1 27 bc 2c 09 04 3b
       -0.024947338 -0.01382973 -0.010235215 0.0020147068
000150 2e fb 73 3b 5a ec 8c bc 24 eb 0c bd d0 a9 9b bc
       0.0037228572 -0.017202545 -0.034403935 -0.019001871
000160 3a e8 5b bc 79 b8 2f 3d f6 9f d2 bc 12 40 e5 3b
       -0.013422066 0.042900536 -0.025711041 0.006996163
000170 30 28 53 3c 01 48 2c bd 87 93 1d 3b b4 05 fd 3c
       0.012887999 -0.042060856 0.0024044232 0.030886509
000180 77 e9 45 3c 1b ce a6 3c db 07 36 bd b9 6d 78 bc
       0.012079588 0.02036195 -0.044441085 -0.015162879
000190 49 c1 86 3c bc aa 33 3c 8a d0 a8 bc 8a 01 08 bd
       0.016449587 0.010965999 -0.020607252 -0.033204593
0001a0 14 f0 ff bc 4c f4 43 3d bf 38 6d 3c 87 1d 25 3d
       -0.031242408 0.0478404 0.014478861 0.040311363
0001b0 b9 ac 89 bb 92 a4 c3 bb c9 73 15 3b 96 6f 89 bb
       -0.0042014983 -0.005970546 0.002280461 -0.0041942103
0001c0 ec 52 f4 3b 64 5b ce 3b 64 33 f0 3b 51 72 c9 bc
       0.007456174 0.0062975157 0.007330345 -0.024590643
0001d0 76 ec d4 bb 97 bf 2b bc d0 12 87 bc 27 2d da 3b
       -0.006497915 -0.01048269 -0.016488463 0.0066582146
0001e0 1a 87 ff bc bf 0a dd 3c 10 67 3b 3d e6 3e 92 bc
       -0.031192351 0.026982663 0.045752585 -0.017852258
0001f0 f0 a9 26 bc 05 8f 0c bd af 50 96 bc 9b 1d 17 bd
       -0.010172352 -0.03431608 -0.01834902 -0.03689347
000200 f2 2f 63 bc 44 a4 59 3d 10 1d 89 bb 1c 34 99 3c
       -0.0138664115 0.05313517 -0.0041843727 0.018701605
000210 d9 24 d9 3c 69 1d 77 3c 55 ab c7 bc 4b 1f f0 3a
       0.026506828 0.0150826955 -0.02437369 0.0018319873
000220 bd 6c 66 3c 0e eb 40 3b 7a fb 23 3c 30 05 67 3c
       0.014064011 0.0029436979 0.010008687 0.014100358
000230 89 a4 82 3c 6d 7c 25 bb 71 37 ef 3b 63 ea c3 3b
       0.015947597 -0.0025251165 0.0073003103 0.005978869
000240 cb 6f 12 bc 02 62 f0 3c b6 89 1d ba 17 68 87 3c
       -0.008937786 0.029343609 -0.0006009595 0.016529126
000250 6d 22 fe bb 21 14 f5 bb 6c d1 31 bc f4 2e 03 3d
       -0.0077555687 -0.007479206 -0.010853153 0.0320272
000260 15 03 81 3d d1 3f 68 3b bc e0 51 bb 55 80 9a 3b
       0.06299416 0.0035438428 -0.0032024821 0.0047150054
000270 cc 11 dd 3c 33 8f 33 bd b5 c8 cd 3c 24 39 80 bc
       0.026986025 -0.043837737 0.025120119 -0.015652247
000280 c5 89 30 bc 55 80 c6 3b e7 f2 6e b9 04 45 89 bc
       -0.010775034 0.006057779 -0.00022787937 -0.016756542
000290 32 20 07 3d ee 0c 23 3d 53 e0 3f 3d da a3 bb bc
       0.03298969 0.039807253 0.04684479 -0.022905279
0002a0 87 24 1b bd 45 a1 d8 3c dd ee 5d 3b 42 7c 58 3c
       -0.037876632 0.026444087 0.0033864297 0.013213219
0002b0 29 d7 16 3d f3 a1 40 bc 6e 47 a2 3c 1c fa d6 bb
       0.036826286 -0.011757362 0.019809451 -0.006560577
0002c0 d7 57 30 3c 7b c8 9c bc 07 3a 48 3b e5 9a ee 3c
       0.01076313 -0.019138565 0.0030552165 0.029126594
0002d0 9c 3d 3e 3c 4d 0e 59 3c 67 b7 93 3c d0 67 d0 bb
       0.0116113685 0.0132480385 0.018031789 -0.0063600317
0002e0 b7 f5 79 3c e3 13 cf 3c 1a 85 7d 3c 4c 27 20 3d
       0.015256337 0.025278037 0.015473628 0.039099976
0002f0 0a b1 a6 3c 6c 60 be 3b 5f 0e d1 3c 3a aa e4 bc
       0.02034809 0.005809834 0.025519548 -0.027913202
000300 84 0a 0a 3d 64 e0 0a 3d 7c 9c f9 bc 27 86 39 3d
       0.033701435 0.0339054 -0.030470125 0.045293953
000310 bf 96 43 bc 38 1b 59 3c ab f7 c6 3c 15 cf 71 3b
       -0.011937796 0.013251118 0.02428802 0.0036897112
000320 c3 24 d6 bc 10 d4 9e 3c d9 c4 b7 bb bc 40 24 bd
       -0.026140576 0.019388229 -0.005608183 -0.040100798
000330 ab 51 a4 3a 85 a2 cc 3c d4 2d 77 3c 8b 43 23 3d
       0.0012536546 0.02497984 0.01508661 0.039859336
000340 11 4c 9e 3c 93 9a d7 3c 04 a1 ab 3b 05 6d 51 3b
       0.01932338 0.026318824 0.0052377004 0.003195585
000350 0c e4 2c bb 1c 65 2a 3c 6c d0 c3 3c f0 bf 98 3c
       -0.0026381044 0.010400083 0.023903094 0.01864621
000360 c1 4a be 3c 88 a9 26 bd 45 f9 21 3d 31 73 c3 ba
       0.023229005 -0.04068902 0.039544363 -0.0014911649
000370 95 db fd bb 11 90 18 3d b7 88 86 bc 04 75 48 bd
       -0.0077471235 0.037246767 -0.016422613 -0.04893972
000380 d0 d2 c2 bc b5 ff b4 bc 51 6e 59 3d 90 d0 e1 3c
       -0.023782164 -0.022094587 0.05308372 0.02756527
000390 0e aa 89 bb b2 5e 87 bc 3c 5d f7 3c f6 16 72 3c
       -0.0042011803 -0.016524646 0.030195825 0.014775982
0003a0 19 08 dd 3c 07 ee 3f bd ed b8 ff bc f4 9e 38 bd
       0.0269814 -0.04685786 -0.03121611 -0.045073465
0003b0 96 86 4d 3c 8c 93 5a bb de 18 e6 bb c6 26 2e 3c
       0.012544295 -0.0033352105 -0.0070220074 0.0106293615
0003c0 fb ae a6 bc 5f d1 12 bc 43 0d 03 bc e8 db bd 3c
       -0.020347109 -0.008961051 -0.007998767 0.023176149
0003d0 9e 07 69 bc 99 95 37 3c c5 be c4 3c 62 16 68 bb
       -0.0142230075 0.0112051 0.024016747 -0.0035413732
0003e0 ee 2a 39 3d 49 18 1d bd fa 78 59 bd 23 af d2 3c
       0.045206957 -0.03835324 -0.053093888 0.025718277
0003f0 a5 9c 4a 3c ab 1f 4c 3d 6b 48 03 3d ef f1 d0 3c
       0.0123664485 0.04983489 0.032051485 0.025505988

action_model._discrete_distribution.branches.0.bias f4 [2]
000000 fb 3a 23 3d f7 3a 23 bd
       0.03985117 -0.039851155
